oraclebackend/train/non-iid/checkpoint/mnist/ckpt_1_0.pth (torch, 71489 bytes, 12 tensors)

conv1.weight f4 [10, 1, 5, 5]
00000000: 5fd6 e2bd 7f8d 233c 9b50 2e3e b894 5c3d
00000010: e80c 54bd c87c 073e d600 643e 8e80 dc3d
00000020: e4a9 cf3d 0e42 d3bb f0a1 633d 90f7 dc3d
00000030: d6bd debd e0be 863c 0037 3fbe 5dfd 3bbc
00000040: e0a7 6ebd 3ee2 0bbe 685d 30be cad7 43bc
00000050: f0b1 953c b283 ce3d db0d 09bd 96f7 4bbe
00000060: 9ea6 c33c 0f89 5e3c 6509 21be dc2b 393e
00000070: 04de 923d f413 8abd fcc3 af3d 6c73 c83d
00000080: b3e6 01be 1a22 2a3e 0708 373e 31e2 2dbd
00000090: cd0f fd3d 8cd8 2f3c 33d3 b93d d35a ee3d
000000a0: 4574 d5bd 41e9 3b3e 2838 d2bd 922a 15be
000000b0: 466e c33d dfbe f0bd 95f9 2ebc 1442 36be
000000c0: f04f 493e f5f7 523e 6a30 dcbd f97d da3d
000000d0: 8367 d5bd 5b18 253e 860d 033e 5ad9 4abe
000000e0: fde3 40be a467 09be 8b7a d9bd 1102 26bd
000000f0: 69d1 a4bd 4d4d f9bd 60a0 ecbd 83d6 46be
00000100: fdfa cfbd 014c 16be 0218 e2bd 96ea 4bbe
00000110: eecc 69bd 18a5 25be bf50 7d3e 717a 773e
00000120: 819a 573e 2cc0 febc 2da0 283d f7c2 c1bd
00000130: 21ce d03c dff6 113e f12b 913b f87b b53b
00000140: 4543 913d 7f92 a4bd f903 32be c727 963d
00000150: 4bca e9bd 46f3 49be 3492 4abe b44d d43d
00000160: 182d 6e3e 0af8 f43c 065c d5bd 1711 0f3e
00000170: ce95 b13d fa0f 7e3e 8130 8f3d 43ac e73c
00000180: 0b9f 8c3d c1fd 273d 0743 ba3d c083 e9bd
00000190: 23f6 16be 209f 2cbe be32 34be 7ce5 67bd
000001a0: 21bc 943e f8b9 29be 3665 1f3e 3607 06bd
000001b0: 920b a73e 0b8d c13d 1ee3 0abe 6895 1d3d
000001c0: 0959 3a3d 65b7 413e c01d 3a3d 4fc9 f43c
000001d0: e187 7c3d 0aa0 763e 4c9e be3e daf3 a33e
000001e0: 94f1 f4bd 17f4 903e 414e ba3e 1099 c03e
000001f0: 8e16 9cbd 0f12 273c a9a3 4abd 7be0 0d3e
00000200: 76ed 803e 7ba5 873e 9616 373e 6ceb a93c
00000210: 1f40 d9bd dbb7 723e 22f1 8bbb f831 16be
00000220: eb37 ccbd d6c2 ad3d 97d4 0cbd 5c2b 07bd
00000230: 723e c3bd 06b8 f63d ed16 203e be47 d5bd
00000240: 94b7 ebbd 6a9b a6bd 3100 d6bd 38e1 783e
00000250: 9712 1fbe c419 363e 49ce 023d 31e7 d2bc
00000260: 859a ce3d 1f24 fdbc dc72 213d 55b6 e93d
00000270: 075e cd3d 0de5 81bd a077 f3bc 992d 69bd
00000280: 20ea e23d 4e23 4cbe ed9c 4ebe 1a57 bb3d
00000290: d0aa 173e 5357 13be 9ff7 42bd ee12 d43c
000002a0: 78de 06bd 1d5c 03bc 97c3 12bd ae31 b4bd
000002b0: be42 f2bc 4c70 0d3e b308 433e 6bfa 6b3e
000002c0: 1755 c0bd fa5b 083e 1921 053e c4f1 1bbe
000002d0: d90f ee3d 3e20 893c d945 b8bd bd8c 453e
000002e0: abe9 663d 6d75 163e 3b3e 843e fa58 993e
000002f0: 2e3e 1f3e 4323 3f3e 761e a83d b0a3 bdbd
00000300: d511 593e 822d 56bd a924 d03c 8edc 38be
00000310: b749 51be 4f61 34be 4f26 433d 408a de3d
00000320: e2d1 693d 525b 31be 78c8 cfbd cc80 17bd
00000330: 1772 bc3d 6dec 21be a815 c9bd 27c8 cebd
00000340: 9283 973d b592 2e3e 6b4b d4bd 598e 0cbe
00000350: 5349 1ebe 48b9 743e 3d54 87bd 17db be3c
00000360: a9c4 28be 11d2 c23d 22ee f3bc 6dca 763c
00000370: 97fe 153e 0ce9 c03d c76d 153e f39f 263e
00000380: 8709 723e 48e8 d83d 3525 db3d 9596 673d
00000390: 4787 4e3d 5533 3c3e d59e 8f3e 26eb 9f3e
000003a0: 4c4d 993c 3bc0 e1bd 537c eebd 5bc2 4b3e
000003b0: eb73 153d f647 103d 5356 ec3d 9a0f 433e
000003c0: 169a 953e a165 823e 4939 59bd 3d4b e83d
000003d0: 5d72 103e 2f86 703e 343c dbbd 5fcd 34bd
000003e0: 1ca9 22be 5364 e83d
-0.11076044 0.009982466 0.17022936 0.053852767 -0.05177012 0.13231194 0.22265944 0.10766707
0.10139826 -0.0064470833 0.055574358 0.10789406 -0.10876052 0.016448438 -0.18673325 -0.011473981
-0.058265567 -0.13660523 -0.17223132 -0.011953304 0.018273324 0.10083713 -0.03346048 -0.19918665
0.02388316 0.013582482 -0.1572624 0.18083137 0.07171252 -0.06742087 0.08582303 0.0978764
-0.12685661 0.16614571 0.17874156 -0.04245204 0.123565294 0.010732781 0.09073486 0.11638417
-0.10422567 0.18350698 -0.10264617 -0.1456702 0.09542517 -0.11755156 -0.010679622 -0.17798644
0.196594 0.206024 -0.10751422 0.106685586 -0.10420134 0.16122572 0.12798128 -0.19809476
-0.1883697 -0.13418442 -0.10619076 -0.040529314 -0.08047754 -0.12172947 -0.115540266 -0.19417767
-0.10155294 -0.1467743 -0.110397354 -0.19913706 -0.0570802 -0.1617626 0.24737833 0.24167801
0.21055032 -0.031097494 0.04116838 -0.09461015 0.025488915 0.1425433 0.004430287 0.00553846
0.07092909 -0.080357544 -0.17384328 0.07331806 -0.114155374 -0.19721708 -0.19782335 0.10366383
0.2325939 0.02990343 -0.10417943 0.13971363 0.08671151 0.24810782 0.06991673 0.028280383
0.068662725 0.041013483 0.09094816 -0.114020824 -0.14742331 -0.16857576 -0.17597482 -0.056615338
0.2904978 -0.16574848 0.15565953 -0.03272172 0.32626015 0.0945073 -0.13563201 0.038472563
0.045495067 0.18917616 0.045438528 0.029881148 0.06165302 0.24084488 0.37230146 0.3202198
-0.1196014 0.28311226 0.36387828 0.37616777 -0.076214895 0.010197177 -0.049472485 0.13855164
0.25181168 0.2649344 0.1787971 0.02074214 -0.10607933 0.23702948 -0.0042706886 -0.14667499
-0.09971603 0.08484428 -0.03438243 -0.033000335 -0.09533395 0.120468184 0.15633745 -0.10414074
-0.11509624 -0.08135112 -0.10449255 0.24304664 -0.15534435 0.17783266 0.03193501 -0.025745006
0.10088066 -0.030901013 0.03941618 0.1141173 0.100277 -0.06342516 -0.029720128 -0.05692825
0.11079812 -0.19935343 -0.2017705 0.09147473 0.14811254 -0.1438878 -0.04759943 0.025887933
-0.032927006 -0.008017567 -0.03583106 -0.08798538 -0.02957284 0.13812369 0.19046287 0.23044746
-0.093912296 0.13316336 0.13000907 -0.15228945 0.116241165 0.016739007 -0.089976974 0.19291969
0.056375187 0.14693232 0.25828728 0.29950696 0.15551063 0.18665795 0.08208935 -0.092597365
0.21198209 -0.052289493 0.025408106 -0.18052885 -0.20438276 -0.17615245 0.047643956 0.10866213
0.057084925 -0.17319992 -0.10145658 -0.036988065 0.092014484 -0.15812846 -0.09818584 -0.1009677
0.07398142 0.17048152 -0.10365947 -0.13726176 -0.15457658 0.23898804 -0.06607864 0.02329783
-0.1648127 0.09512723 -0.029776637 0.0150629105 0.146479 0.0941945 0.14592658 0.16271953
0.23636447 0.10591179 0.10700456 0.05654009 0.05042198 0.18378957 0.28050867 0.31234092
0.018713616 -0.11022993 -0.11644807 0.1989836 0.0364875 0.035224877 0.115399025 0.1904892
0.2921912 0.25468162 -0.053033147 0.113424756 0.14106126 0.23488687 -0.10704842 -0.04414117
-0.15884823 0.1134726

conv1.bias f4 [10]
00000000: 24d2 7f3c 6b33 493e 3826 973d a2e7 8dbd
00000010: fced 523e 40e5 51bd d674 44bc 16c5 a9bd
00000020: dbd2 f73d e07e 613e
0.015614066 0.1964852 0.073803365 -0.06928946 0.20598596 -0.05124402 -0.0119907465 -0.08289544
0.12100764 0.22021055

conv2.weight f4 [20, 10, 5, 5]
00000000: 22c2 c5bb 48e4 c03b d911 b9bb 7e49 8ebd
00000010: d2e4 dcbc 46a1 19bd 36b6 933c 0ea7 1cbb
00000020: 5669 70bd c202 95bd 52ad 9a3c b61b bdbc
00000030: 434d 82bd 05de 0e3d a969 69bd f160 0abd
00000040: c847 47ba 91b2 94bc fbb2 833d 7aae 823d
00000050: 1997 ce3c f992 f13c 14ab ac3d 93e3 5b3d
00000060: 5a26 403c 2abe dbbc 4bc8 72bb a170 cebc
00000070: 4e4e 843d 19f3 77bc 998f 0b3d b3d5 263d
00000080: 047d a4ba ce32 5d3d 4224 7c3d 1bcf b23d
00000090: 0673 aa3c 26d8 2c3b 8955 37bd db9c 6fbd
000000a0: 7108 6b3d 3bab 633d 70a2 a73d a778 083d
000000b0: b0f5 bebb e3e2 39bb 91ee 4d3d 37d3 9abc
000000c0: 25a7 79bc 9915 aebc 0326 8b3c d069 61bd
000000d0: 7c8b 43bd a39d c4bc fcec 943c 87aa 9fbd
000000e0: d217 8cbb 4780 28bc 2d84 823d dcb5 64bc
000000f0: 4317 5fbd 4df5 073c f6ff 84bd 67f8 50bb
00000100: 45f5 e13c 5243 62bd 1800 6fbc 4862 9bbc
00000110: d94c 3d3d 083d 063d 86e9 813d 1bc0 583b
00000120: acd0 2ebd 0896 06bd 006b d6bc 086a 97bc
00000130: 3a01 843d 8e10 8ebb aa23 58bd 4ad3 323c
00000140: ca3b 8a3c 59db a63c 3a96 403c 85c7 73bd
00000150: 183e f2bb faaf 24bc dc23 623d 06f3 9c3c
00000160: 7eca 863c 5704 583d 77a5 263b 336a 23bc
00000170: c227 9abc 38c3 273d c406 4cbd 439e 4e3c
00000180: 0634 fb3c 2034 ae3c 1eaa 91bd f6ed c4bb
00000190: 7efe 5e3d 3f59 fe3c 7b42 50bd 41f9 dbbc
000001a0: 5a8c fcbc a790 d03d 4753 813d 0588 97bd
000001b0: 372c f53c 526f 893b 2963 4a3d 1ac8 66bb
000001c0: 6262 063d 48cf 833d 4164 e13d 6b59 b83b
000001d0: 1b47 b23d dd0c 273c 1e43 743a e554 dbbb
000001e0: 299e 74bd 16d8 083c 7a52 a6bd 8a7b c8bc
000001f0: 7175 ddbd 736c a53c 8af4 233d 1d95 133b
00000200: 0bba 4d3d 1ea3 303d 1701 cabc 7b47 c5bc
00000210: 0953 3bbd e593 2cbd 8ff0 55bb 1e44 823d
00000220: 73bb 243d 75f9 74bd 5350 d63c 614b 3c3d
00000230: eede 523d 72c2 0f3d 64d4 52bd b0d4 9f3c
00000240: eb2d 8a3d e11b c43c 1bf7 843d af28 22bc
00000250: 11b8 113d 418b 35bd e8cd be3b 25f1 443d
00000260: 42bd e33b 7edd 82bd 5c29 5fbd 42aa 0c3c
00000270: 8291 1a3d eee0 45bc 3819 1e3c e82c ebbc
00000280: a6ea 6b3d 02c8 9bbc f419 3f3b e880 c53c
00000290: 4970 cb3c 2461 1fbd 17ee f2bc b4f3 db3c
000002a0: 550c bcbc 8dde a73c acf5 27bd dd4b 8bbc
000002b0: de0b 2ebb ae9b 393c 8c62 88bc 4121 c03b
000002c0: df24 9c3c 312e ff3c a0f4 46bd 4c1d 643d
000002d0: 9d2c 8b3d 4a81 8bbc 1d10 953c 16dd c13c
000002e0: ce29 363c bcb3 5d3d 25bb 013d 4a47 b73c
000002f0: 0f19 09bd 4a2c 293d 0a02 813d 745d 293d
00000300: bc7a 013e 44c0 af3d c2d5 863d 5f36 393d
00000310: 878f 983d db56 1d3d 6d7a 4ebc 314e e9bc
00000320: e6c8 363d 4db7 8ebc e9ad 0fbd d434 7dbd
00000330: bc75 6dbd d3f1 c8bc 0be7 9dbb 434b 1e3c
00000340: da1e 553c 6d50 81bc a6a9 7f3d ad14 943b
00000350: 18bc fc3c 2105 763d 1d73 433d 86c3 dc3c
00000360: 2bc3 873c 24d4 96bd 3f5f 3fbd 4978 acbc
00000370: a4bf 5fbd acfe c83b 0a4f 8fbd 585b 9cbc
00000380: d5ac 013d 7b35 b2bc 0001 54bc 20f4 743d
00000390: 7d91 153d d398 f5bc 0b0e ad3d 261f ee3b
000003a0: 867d 523c dec8 e4bc 7706 333d 15fd 8f3d
000003b0: 5ac2 0e3d 9922 d03d e5fb 05bd 5bfe c1bc
000003c0: 98fb a03d 8bec cd3d 87a2 b93d 4f60 a0bb
000003d0: eee6 c33d 946d 74bd 667d ed3c 9cb2 753d
000003e0: d61b 833d 67e7 4dbc 9719 0c3d 402b 413d
000003f0: 57f4 a4ba a54e 423c 8d70 28bd 8cfe 033d
-0.0060351053 0.0058865882 -0.0056478796 -0.06947611 -0.026964579 -0.037507318 0.01803122 -0.0023903283
-0.058694206 -0.07275917 0.018881474 -0.023084503 -0.06362393 0.034879703 -0.05698553 -0.033783857
-0.0007601944 -0.018151553 0.06430622 0.06380935 0.025218533 0.029489027 0.08431068 0.05368383
0.011727894 -0.026824076 -0.0037045653 -0.02520019 0.06460248 -0.015133643 0.034072492 0.040731143
-0.0012549465 0.05400353 0.061558016 0.087309085 0.0208068 0.0026373952 -0.044759307 -0.0584992
0.057381097 0.05558322 0.08185279 0.033318188 -0.005827628 -0.0028363995 0.050276343 -0.018899543
-0.015237604 -0.021250533 0.016985899 -0.05503255 -0.047740445 -0.024000948 0.01817941 -0.077961974
-0.0042753005 -0.01028449 0.06372867 -0.013959374 -0.054465543 0.00829823 -0.06494133 -0.003188634
0.027582774 -0.055239983 -0.014587425 -0.018967763 0.046215866 0.032773048 0.06343369 0.0033073488
-0.042679474 -0.032857925 -0.026174068 -0.018483177 0.064455464 -0.0043354696 -0.052768387 0.010914633
0.016874213 0.020368265 0.011754567 -0.05951645 -0.007392656 -0.010051722 0.05520998 0.019158851
0.016453978 0.052738514 0.0025428215 -0.00997405 -0.018817786 0.04095766 -0.04981114 0.012610975
0.030664455 0.02126509 -0.071125254 -0.0060098125 0.05444192 0.031048415 -0.05084465 -0.026852252
-0.030828644 0.1018384 0.06314712 -0.073989905 0.02992831 0.0041941786 0.049410973 -0.0035214485
0.03280867 0.0643602 0.1100545 0.005625894 0.087049685 0.010195938 0.00093178626 -0.00669347
-0.059721146 0.0083523 -0.081212 -0.02447297 -0.10813416 0.020193314 0.040028132 0.0022519298
0.050226253 0.04312431 -0.024658723 -0.024081936 -0.045733485 -0.04213323 -0.0032644605 0.063606486
0.040217828 -0.059808213 0.026161348 0.045970324 0.051482134 0.035097547 -0.051472083 0.019510597
0.067470394 0.023939075 0.06492444 -0.009897395 0.03557593 -0.044322256 0.005822886 0.048081536
0.0069500515 -0.063899025 -0.054482803 0.0085855145 0.037736423 -0.012077553 0.009649567 -0.028707936
0.057596825 -0.01901627 0.0029159756 0.024109319 0.024833815 -0.038911 -0.029654546 0.026849605
-0.0229551 0.020491863 -0.041005775 -0.017003948 -0.0026557366 0.011328621 -0.016648553 0.005863339
0.01906055 0.031149955 -0.048573136 0.055692002 0.06795619 -0.017029423 0.01819616 0.023664992
0.011118365 0.054126486 0.031672616 0.02237286 -0.033471163 0.041302003 0.06299217 0.04134889
0.12644476 0.08581594 0.0658374 0.045217868 0.07449251 0.03841291 -0.012602431 -0.028479667
0.044625185 -0.017421389 -0.035077963 -0.06181796 -0.05797361 -0.024529373 -0.0048188022 0.0096614985
0.013007844 -0.01578542 0.06241765 0.0045190663 0.030851409 0.060063485 0.047717202 0.026948702
0.016572556 -0.07364681 -0.046721693 -0.02105345 -0.054626122 0.006133875 -0.069974974 -0.019086525
0.031658966 -0.021754017 -0.012939692 0.05980313 0.0365157 -0.029980099 0.08449944 0.007266897
0.01284731 -0.027927812 0.043707337 0.070306934 0.034853317 0.10162849 -0.03271093 -0.023680856
0.07860488 0.100548826 0.09064203 -0.0048942934 0.09565531 -0.059674814 0.028990459 0.05998479
0.06401794 -0.012567378 0.034204092 0.047160387 -0.0012585026 0.011859571 -0.04112296 0.032225177

conv2.bias f4 [20]
00000000: 0978 563d 619e b2bb 741e 4cbd 1cb4 1d3d
00000010: f847 5bbd e6ea 403d 14b0 fbbc ccff 0cbd
00000020: bb4a cbbc 1a0f 6bbd d658 f83c 4d95 31bd
00000030: e73c b8bc 9346 653c f3ea 69bd dc21 7a3b
00000040: ba72 8abd 3b6d ab3c e67f 713d a932 103c
0.05236057 -0.005451009 -0.04983373 0.038501844 -0.05353543 0.047099017 -0.030723609 -0.034423634
-0.024815908 -0.05738745 0.030315798 -0.043355275 -0.022489978 0.013993877 -0.05710883 0.0038167154
-0.067601636 0.020926109 0.058959864 0.008801141

fc.weight f4 [10, 320]
00000000: 2852 06bc 87ff 4cbb c7b6 783b f548 093d
00000010: 1eab 2fbc bad1 a73c e5d6 1ebd af84 27bd
00000020: 03bc 973c 930a 923d e7ea 3d3c f8cc d7bb
00000030: f584 443d 5da7 a53d a33e 7ebd 1e16 a23c
00000040: 6d87 ee3c 7a3f 4cbd dfe6 febc 6ed4 d9bc
00000050: 83fa d73c e26d b3bc 35a2 87bd 2063 aebd
00000060: 8918 8dbd e43f 793d 7f23 853c 936a 083c
00000070: bbd1 493c 1b8f 893c 4880 713d 198f 3dbd
00000080: 2e01 9ebd 6248 503c ba0d c73c df31 583c
00000090: 8195 433c 3333 87bd b6c7 f4bd 7bda 14bd
000000a0: c21d ca3b 68a5 97bc 4c5e 4ebc 12bd eebc
000000b0: 8eae 77bd 783c 323c bae1 053d 5245 7b3c
000000c0: e3af 1ebd 350e 1b3d ff46 313a f444 1ebd
000000d0: ba2c 8b3b dc59 f6ba 4352 acbd 6628 43bd
000000e0: 109c d23b 78e5 90bc cdc9 d03b 235e 8ebc
000000f0: 2b14 b0b9 747b 923c c360 40bc 4e64 1ebd
00000100: c417 7cbd 3e89 adbd 1fd0 89bd 3b4c 25bd
00000110: 9099 5b3d 6579 4b3d 1150 9fbd 5e9a 043b
00000120: a74e 833d 104a 6b3d 89a4 5abd 14f8 1a3d
00000130: 9af1 8f3d b668 783c 5646 ca3c 6b1d 84bd
00000140: 9e65 503d 9593 57bd 00a4 59bd 5b3c 6dbd
00000150: 05e1 21bd 55ad 413d 9668 413d f30b 34bd
00000160: a2ae 05bc e516 f23b 9788 953c 265a 2c3c
00000170: f93d 063d 3c85 1ebd b423 52bd 83eb 223d
00000180: e3a2 d53c 1166 b03d 9746 0b3d 60e7 62bd
00000190: 87bc 40bb 9665 833c 10aa 823c 532f a5bb
000001a0: 7144 bd3c 8913 dc3b 2de0 6ebd 1fb3 ae3d
000001b0: ff74 ac3c 3b24 3dba ed8b 793d ddb5 ad3d
000001c0: 6432 39bd 86d0 0fbc e6d1 a53c b271 3a3d
000001d0: 2998 513c d529 15bd 67e0 57bd a85b 923d
000001e0: 16ad 7d3d 486f e3bb 89ed 92ba 7db4 e0bc
000001f0: bf54 04bd 59a4 183d 2d4d 6abd 07ae 09bc
00000200: fc96 debc d816 02bd 2fbb c83b 36c7 b03c
00000210: 875d 0e3d aefe 4fbc 99ee 1c3d 57e1 12bd
00000220: 582d 4e3d ad7b e3bc e4de 293c 5d36 b73c
00000230: 3de0 393c 39ce cbbc affe 7d3c 7741 8cbd
00000240: 947d 8b3c 5874 653c d14d 553c a1f7 be3c
00000250: 374d cf3d 5231 2a3d 60fa b1bd 9c66 0cbc
00000260: ed5b e63c 7e32 a8bd 567c 2a3d 000b 6c3d
00000270: a98c 2bbd 8c57 853b 0a79 6d3d dad9 27bc
00000280: c573 55bb 9842 d9bc 4ac3 bf3c cda5 49bd
00000290: 71f2 99bc 54ae 853c cb36 183d 93a2 ac3c
000002a0: 273c 873c c2fc d23c 0212 c8bc dfb9 333d
000002b0: 44c2 80bd f651 84bd 3b16 acbc e4df d5bc
000002c0: d974 90bc c4ab 5e3c 91e7 3bbd 59d5 073b
000002d0: 63cb 68bd d2ba 3abd dce7 1fbc 4b78 afbb
000002e0: a595 683c 0bec d9bc 82fa 283d 6b33 44bc
000002f0: df78 a5bc 489a 38bd 2bbd 203d ae37 a4bc
00000300: b2a2 eb3b 94ee d0bc 9779 f53b 3fe4 8eba
00000310: f69a e93c f0d7 b2bd 8ce9 d53d 8ff7 db3d
00000320: fb59 e83c d836 53bb c581 743d d718 063b
00000330: 654b 89bc 40c2 dfbd fcdf abbc 81b6 593d
00000340: 7e70 053d 8d1e d53c a6f1 533c 8642 afbb
00000350: 31c0 253d 7690 febb ed2c 373d 0abe 44bd
00000360: 154e c2bb 7e43 d33c d0d0 743d f651 533c
00000370: b5f7 06bd eea4 74bd b41f 053d 5614 0d3c
00000380: 3675 063d 9a07 2f3d d80e e3bc 9177 303c
00000390: 6e21 0ebd 4a4d 863c db32 bd3c 5418 253d
000003a0: 5d0b 0f3c 778c 60bd 0ece 773c 9021 453d
000003b0: ffa6 ddbc ffae 4ebd 3f7f 633c 127c d1bb
000003c0: e8b5 523d 14c4 ebbc e0d0 39bd 3b25 b0bc
000003d0: 0f6b b1bc c63d 813c ab10 a93b d38b be3d
000003e0: 1a31 b7bb 2ba0 a6bd 30ff 063c 7fbe 3ebc
000003f0: e9c4 e0bc 5e97 53bd 1772 18bd 210a 343d
-0.0081982985 -0.0031280236 0.003795074 0.033516843 -0.01072195 0.020485748 -0.03877916 -0.04089802
0.018522268 0.07130923 0.01159165 -0.0065857135 0.04797836 0.08088563 -0.062071454 0.019785937
0.02911731 -0.049865223 -0.031115947 -0.026590552 0.02636457 -0.021902982 -0.066227354 -0.08515
-0.06889445 0.060851946 0.016252277 0.0083261905 0.01231807 0.01679187 0.05896023 -0.046279047
-0.07715069 0.01271257 0.024298538 0.013195484 0.0119375 -0.06601562 -0.11952154 -0.03634117
0.006168098 -0.018511489 -0.012595724 -0.02914289 -0.060469203 0.010878675 0.032685973 0.0153363515
-0.038741957 0.037855346 0.00067625934 -0.038639978 0.004247275 -0.0018795091 -0.08414128 -0.04764595
0.0064272955 -0.017687544 0.006371713 -0.017378872 -0.00033584362 0.017881133 -0.01174182 -0.038669877
-0.061546102 -0.084734425 -0.06729149 -0.040355902 0.053613245 0.049676318 -0.07778943 0.0020233612
0.06411486 0.05744368 -0.05337957 0.037834242 0.07028504 0.015161684 0.024691742 -0.064509235
0.05087816 -0.05263098 -0.05313492 -0.057918888 -0.039521236 0.047284443 0.04721888 -0.04395671
-0.0081593115 0.007387983 0.018253608 0.01051954 0.032773945 -0.03870128 -0.05130358 0.039775383
0.026078647 0.086132176 0.034002867 -0.055396438 -0.0029409246 0.01603965 0.015950233 -0.005041042
0.023103924 0.006716196 -0.05831926 0.085302584 0.021051882 -0.00072151766 0.06092446 0.08481953
-0.045214072 -0.008777743 0.020241689 0.045518585 0.012792625 -0.036416847 -0.05270424 0.07146388
0.061932646 -0.006940756 -0.0011209707 -0.027429814 -0.032307383 0.03726611 -0.057202507 -0.008403308
-0.027171604 -0.031760067 0.0061258296 0.021579366 0.034757163 -0.012694998 0.038313482 -0.035859432
0.050336212 -0.027768934 0.010368083 0.02236479 0.0113449665 -0.024878608 0.015502616 -0.06848424
0.017027654 0.014004789 0.013019041 0.023311438 0.101221494 0.04155094 -0.08690333 -0.008569386
0.028120006 -0.082127556 0.041622482 0.057627678 -0.04188219 0.0040692743 0.05797676 -0.010244811
-0.0032570225 -0.026521012 0.02340855 -0.049230386 -0.018792363 0.016318478 0.03716163 0.021073615
0.016508175 0.02575529 -0.02442265 0.043878432 -0.06287053 -0.06460945 -0.021006694 -0.026107736
-0.017633842 0.013590757 -0.045875136 0.002072653 -0.05683459 -0.045588322 -0.009759869 -0.005354916
0.014195834 -0.026601812 0.041254528 -0.01197515 -0.020199237 -0.04506901 0.039242905 -0.020046081
0.0071910257 -0.025504388 0.0074913013 -0.0010901763 0.028516274 -0.08732593 0.10444936 0.107405774
0.028363219 -0.0032228734 0.05969407 0.0020461583 -0.016759584 -0.10925722 -0.020980828 0.053152565
0.032577984 0.026015544 0.012936031 -0.0053485064 0.04046649 -0.007768686 0.04472058 -0.048032798
-0.0059297183 0.025789019 0.05976945 0.012897959 -0.032951076 -0.0597276 0.032500938 0.0086108055
0.032826625 0.04273186 -0.027717039 0.010770694 -0.03469985 0.016394276 0.023095539 0.040306404
0.008730737 -0.054821458 0.015124811 0.04812771 -0.027057169 -0.050459858 0.013885318 -0.006392964
0.05144301 -0.02878002 -0.045365214 -0.021502128 -0.021657495 0.015776526 0.0051594577 0.09304013
-0.00559057 -0.08136018 0.008239552 -0.0116420975 -0.027437644 -0.051658027 -0.03721818 0.043954972

fc.bias f4 [10]
00000000: 9beb 2a3d 88b3 ae3c f3bd 79bc 501a a13c
00000010: 781a d43c 0b4c 57ba 81e5 293b 72ce 29bd
00000020: 8f06 42bd c933 18bd
0.041728597 0.021325842 -0.015243041 0.019665867 0.025891528 -0.00082129304 0.0025924149 -0.041456647
-0.047369536 -0.03715876

momentum_buffer f4 [10, 1, 5, 5]
00000000: 36a0 b73b f4a0 b83c 468c c03c 8304 803c
00000010: d02e 243c 3c9f 0b3c b707 a23c 8c66 843c
00000020: 1b8a 253c e2a6 993a 11ba 163c 5804 273c
00000030: 39d2 d83b 288b 873b 6e9d 293c c008 a83b
00000040: fe07 833c ca94 9b3c c29e ab3b ddae 3e3c
00000050: 8e1d 943c c0a4 dc3c 1ea7 773c 3cae 703b
00000060: 56ff f13b b0bc e7b9 ac54 99bc 1347 8cbc
00000070: 4066 a8ba 5a38 993c ec99 483a f027 1abc
00000080: 4710 bdba 3054 d8bb 447c 10bc 94dd 8db9
00000090: a1b1 8fbb 8558 403b 902a 9cbc 3694 b7bc
000000a0: b021 ba39 7a41 7b3b e673 5a3b 3be2 34bc
000000b0: c3ce 99bc 17c9 e6ba e571 653b 0b86 a53b
000000c0: 0458 eaba ae16 4ebc 0c87 6dbb 9bda 64bc
000000d0: 532e 00bc c09e c23c ce7a 033d 3c8d c13a
000000e0: f6dc babb dea3 f43a 72b7 a73c cc1f 023d
000000f0: 0b2d 283b 9fa7 25bb dbd2 bd3a 8236 3e3c
00000100: 31e6 b93c 4cb7 453b 5b66 ba3b 480b 103c
00000110: 387d 5d3c d13d 903c b5c1 533c 347a c13c
00000120: 7e5e 7a3c d81b 283c 494e e53c f511 433c
00000130: c454 adbb d993 05bd 908f c5bc 7f16 88bc
00000140: 0c7c 603c 804e e93a 01d9 09bd 8825 11bd
00000150: 1bc7 49bc 2693 533c 42a0 7cba cb94 30bd
00000160: 8acf 1dbd 8379 3cbc cdcf 403c a945 69bc
00000170: ee87 81bd e06a 47bd 5602 debc 1bb1 203b
00000180: 3989 22bd 0eeb 8dbd 395c 44bd 53c5 e0bc
00000190: ad73 413c ce12 173c b81f 823c eeec 0a3d
000001a0: 1eed a53d 1e48 543d 14a0 803d c6a5 963d
000001b0: 8f3d b23d 0824 d33d 73ad c93d 5092 b03d
000001c0: 230d 9d3d c68f 8f3d e060 713d ca1a cb3d
000001d0: cee9 b43d 62ce 5a3d 44b9 4c3c b463 243b
000001e0: 0fcb d23d 022f a03d 3047 c63c 77e2 b1bc
000001f0: 752d e6bc 0013 9a3c a073 21ba 6820 05bd
00000200: 2792 89bd 4106 54bd ae13 653c 585e c53b
00000210: 12dd bcbc 9b3c 97bd 41c9 76bd 919a 8a3c
00000220: b9e6 9a3b 4655 01bd 5a58 7dbd 00b8 4abd
00000230: 627c 5b3c a401 9abb 052b 19bd 541a 0dbd
00000240: 2726 e7bc 7a70 d23b 1b0f dcbc 8d56 16bd
00000250: 8abb d5bc f7f5 87bc 2c7e 803c 072b db3c
00000260: 7391 dd3c 840a b73c 0827 e13c 9e0e 303c
00000270: 7619 033d 50b4 063d f042 f13c c8b3 013d
00000280: 9e72 aa3b de08 983c 7422 e13c 50d8 143d
00000290: 0cf8 1c3d 0d60 093c 21e4 9f3c 4aa2 063d
000002a0: 025a 223d 3e6c f43c 3abc 973c 0f75 a03c
000002b0: 0647 a93c 36f5 de3c 0d7f b63c d56a 20bd
000002c0: 7e61 e3bc f22b a2bc 867f 62bd beb2 9fbc
000002d0: 5dfb c7bc 9523 22bd 7c8f 5bbd dc55 c9bd
000002e0: 6db2 57bd d8f3 0bbd 848a 7cbd fa69 c3bd
000002f0: 70ca 04be 403c c1bd 92d7 f5bc 7b01 1cbd
00000300: 7eae 87bd ba1f d5bd d034 d6bd 9844 8cbc
00000310: 66be 93bc a537 b2bc 2424 9fbd 0eb7 9abd
00000320: ce19 bc3b 5ae5 983b ca21 a13c 3001 d83c
00000330: 10cc 813d 8815 ef3b cf78 333c 4fe1 b53c
00000340: 3361 5b3d d2f6 b03d 69fc c03c 2604 2d3d
00000350: c5a5 863d 6c43 cc3d 80ab e73d 3dc8 513d
00000360: 04cb a33d 24ae d23d f694 e53d 8625 d83d
00000370: f804 a23d f4db c13d d1ac bf3d 89f4 a03d
00000380: c687 6f3d a6e2 1abd c19d 2bbd 5f69 febc
00000390: 82d9 eebc fd38 1abd e81d 5bbd cc3c 9dbd
000003a0: 231b 4cbd 2240 51bd 3809 41bd c23f 92bd
000003b0: 7402 afbd 6831 a9bd 71bc a8bd 44f3 88bd
000003c0: ad3f 86bd 6549 9bbd df8c 66bd 48ed a4bd
000003d0: 1ee9 b4bd a559 75bd ac34 47bd 20aa 2cbd
000003e0: a4d9 71bd 1cd3 b5bd
0.0056038154 0.022537686 0.023504388 0.015627151 0.010020927 0.008521851 0.01977907 0.01616218
0.010103728 0.0011722709 0.009199635 0.010193907 0.0066168574 0.0041364618 0.010352476 0.005127996
0.015995022 0.018991847 0.0052374313 0.01163837 0.018080499 0.026934028 0.015115527 0.0036724946
0.0073851747 -0.00044200337 -0.018717133 -0.017123735 -0.0012847856 0.018703628 0.00076523307 -0.009408936
-0.0014424407 -0.006601833 -0.00881869 -0.00027058704 -0.0043851887 0.0029349637 -0.019063264 -0.02240954
0.00035501784 0.0038338588 0.003333324 -0.011040266 -0.01877535 -0.0017607537 0.0035010513 0.0050513796
-0.0017879014 -0.012578649 -0.0036243824 -0.013968135 -0.007823545 0.023757339 0.032099538 0.0014766823
-0.00570261 0.0018664559 0.020473216 0.031768605 0.0025661613 -0.0025276912 0.0014482395 0.011609675
0.022692772 0.0030169068 0.0056884713 0.008791752 0.013518624 0.017607601 0.012924601 0.023617841
0.015281318 0.010260545 0.02799143 0.011906137 -0.005289646 -0.0326117 -0.024116307 -0.01661229
0.01370145 0.0017799884 -0.033654217 -0.035436183 -0.012315537 0.012913501 -0.00096369174 -0.04311065
-0.038528003 -0.01150358 0.011768294 -0.0142378 -0.06324755 -0.04868591 -0.027100723 0.0024519626
-0.039681647 -0.06929599 -0.047939513 -0.027437842 0.011807364 0.009220792 0.015884265 0.03391736
0.08101867 0.05182659 0.062805325 0.073558375 0.087031476 0.10309607 0.09847536 0.08621657
0.07668521 0.070098445 0.058930278 0.09917219 0.08833657 0.05341948 0.012495343 0.0025083842
0.102926366 0.07821466 0.024203867 -0.021714432 -0.028097847 0.018807888 -0.0006158892 -0.032501608
-0.067173295 -0.051763777 0.013981743 0.0060232095 -0.023054633 -0.073846065 -0.060250524 0.016919406
0.0047272113 -0.031575464 -0.061851837 -0.049491882 0.013396354 -0.0046999026 -0.037394542 -0.034448937
-0.028216435 0.0064220997 -0.026862672 -0.036703635 -0.026090402 -0.016596777 0.015685163 0.026753915
0.027046895 0.022343881 0.027484432 0.0107456725 0.032006703 0.032886803 0.029450864 0.031665593
0.0052016517 0.018558916 0.027482249 0.036339104 0.038322493 0.008384717 0.01951796 0.032869615
0.03963662 0.02983677 0.01852237 0.019587068 0.02066375 0.027216535 0.02227738 -0.039164383
-0.027756449 -0.019796345 -0.055297397 -0.01949441 -0.024411852 -0.039584715 -0.053603634 -0.098308295
-0.052660394 -0.034168094 -0.061655536 -0.09541698 -0.12967849 -0.0943532 -0.030010018 -0.03808735
-0.066250786 -0.10406442 -0.10459292 -0.017122552 -0.018035125 -0.021755049 -0.07770565 -0.07554446
0.005740381 0.0046660127 0.019669432 0.026367754 0.0633775 0.007296268 0.010954096 0.022202162
0.053559493 0.08640827 0.023557859 0.042240284 0.06574587 0.09973797 0.11312008 0.051216353
0.079977065 0.10287121 0.11210053 0.10554032 0.07911104 0.09465781 0.09359134 0.078591414
0.058479093 -0.037813805 -0.041898493 -0.031056104 -0.02915645 -0.037652005 -0.053495318 -0.07677612
-0.049830567 -0.051086552 -0.047127932 -0.07141067 -0.0854539 -0.082613766 -0.08239067 -0.06687024
-0.06555114 -0.07582358 -0.05628669 -0.0805307 -0.08833526 -0.059899945 -0.048634216 -0.04215443
-0.05904545 -0.088781565

momentum_buffer f4 [10]
00000000: 9bbd b23b 34ae aebc 964f f53c bccd 14bd
00000010: b08b 8b3b 33bf 21bd 2a7a 6f3c 2d83 a5bd
00000020: f87f 513d 21e2 95bd
0.0054547316 -0.0213233 0.029945176 -0.036329016 0.0042585954 -0.039488982 0.0146165285 -0.080816604
0.05114743 -0.07318521

momentum_buffer f4 [20, 10, 5, 5]
00000000: b37b 44bc 8428 14bd 25e7 63bd a992 5abd
00000010: d037 27bd 8ada cebc 5394 54bd 8a2a 91bd
00000020: a2f4 67bd 63f3 38bd 83cd 30bd 8c41 5fbd
00000030: d1be 61bd cecb 12bd 062c 2fbd dd9b e5bc
00000040: 3a99 44bd df39 55bd f964 33bd cc38 58bd
00000050: bda4 d2bc 749a 4abd 5a0a 84bd ae89 91bd
00000060: 82c2 8dbd 745c a4bd f612 9fbd d08f 89bd
00000070: 7e9f a8bd a35c 84bd 962b c4bd c499 a0bd
00000080: 5a31 79bd df8b 88bd ba02 2ebd 13ce ccbd
00000090: a618 a1bd ed03 66bd 74cf 36bd 2522 77bc
000000a0: 6a4a d2bd 90c2 bcbd 9f4e 6fbd f77c d4bc
000000b0: a0b2 7dbc aa8c 91bd 6783 a6bd d0e0 63bd
000000c0: f776 0dbd a457 bebb eef4 e4bc b8dc 67bc
000000d0: d2db 88bc 21b6 7bbc b131 e0ba 5300 b4bc
000000e0: 6430 a3bc ecfa d2bc 36a2 ecbc 4365 0ebc
000000f0: 4852 c5bb 9aa6 e3bb 6271 52bc 442f 9cbc
00000100: dde1 81bc a882 afbc 8607 83bc 15b2 97bc
00000110: 1988 a6bc 712c 64bc 3702 10bd d80f 84bc
00000120: 27e3 3dbc ec89 87bc 298a b3bc 497b 78bd
00000130: fcca aebd 2e34 80bd 5d24 3ebd fd2a 2abd
00000140: d5f3 84bd c29e 98bd a2c4 1fbd c43b 03bd
00000150: eb31 31bd 1c31 96bd b76b 91bd e061 24bd
00000160: 6c59 32bd fac6 33bd 9419 6dbd fdfe 92bd
00000170: 9cf3 51bd fded 60bd 70fe e2bc 4c1f 70bd
00000180: 9f04 94bd 6e25 2abd c8c9 a7bc f236 093b
00000190: f6c5 4abe 540b 89be e928 59be f2b7 14be
000001a0: e07b d3bd a775 76be 3b77 7bbe 7e1e 1dbe
000001b0: 5d6f fabd b076 bbbd b7d2 6ebe f470 59be
000001c0: 2908 06be 6416 18be af1d fcbd 391c 56be
000001d0: 0352 52be 5f8d 3cbe 701a 1ebe b468 85bd
000001e0: 5102 22be 2d58 3bbe 2a5b 07be b106 a3bd
000001f0: 2324 c33b 8685 35bd 6d50 84bd 3879 9fbd
00000200: 9cd1 90bd b205 5abd 8de5 93bd 184a d0bd
00000210: 1a12 99bd abb7 9dbd 7160 81bd 6d40 acbd
00000220: 3ad1 b2bd 07b6 59bd 55a8 6cbd af90 3bbd
00000230: b8e3 c1bd bcbd b6bd 5982 6bbd c73b 3ebd
00000240: 4a6e c7bc d806 9bbd 557f 9abd 9cad 90bd
00000250: 7cbd 4fbd be7c b5bc ae0b 2cbd 5228 11bd
00000260: b91c 9dbc 980b e2bc 9dd4 abbc de3b 51bd
00000270: 708c 08bd 0b50 c7bc 2eef 22bd b97d f3bc
00000280: 8a44 52bd 89ee ffbc a528 12bd 50f0 f5bc
00000290: 7e6d a1bc 505a 3ebd 4d14 2abd 9a60 0bbd
000002a0: 0667 a1bc 5c83 98bb 3074 07bd 7e33 e6bc
000002b0: 842a 61bc 4eda 7fbc 0bd9 39bc 6a6b 72bd
000002c0: d496 b0bd 178b bbbd dae9 00be 6422 f0bd
000002d0: 963b b7bd 95d9 d7bd e825 b6bd f522 c5bd
000002e0: 33eb 93bd 7c69 febd 8869 edbd 88be b1bd
000002f0: b8ae 5abd 8037 eebc 6249 cfbd dfba fdbd
00000300: 5690 d0bd a4ad 8abd 4adc 58bd dff9 7abd
00000310: d84a efbd 9942 02be 9470 a9bd b466 07bd
00000320: 3a28 b0bd 5740 b4bd f1d3 64bd 318c f4bc
00000330: 1a96 1cbc 6683 c8bd 5e23 9bbd ca96 16bd
00000340: 44be 00bd e051 e3bc 6e27 afbd 1ee8 7abd
00000350: ab57 2cbd 12c9 86bd 5202 4bbd 9a7d b5bd
00000360: a1d4 8fbd 6e3f 69bd 0eb9 67bd aec7 8cbc
00000370: 9aa8 91bd 751a 71bd b8c8 e2bc 73fa 72bc
00000380: 3424 6f3b 6328 b1bd 16df 00be 3e94 47be
00000390: b68c 42be 94f1 1ebe f4ed f6bd 4bd6 1abe
000003a0: 940a 51be 8465 1bbe 022a e8bd e11e 11be
000003b0: 3ff4 29be 2978 48be ec72 03be 3118 c5bd
000003c0: 6121 dabd 0c3d 21be 4e0e 40be d38f 19be
000003d0: 01ca e4bd cc09 9fbd c2da 16be 1f13 34be
000003e0: b8ef 07be 3f7c 94bd cc22 933b 6b08 743c
000003f0: 3e6c a13c e474 323c 9c2d 183c 4004 de3b
-0.011992383 -0.03617145 -0.05564036 -0.053362522 -0.04082471 -0.025250692 -0.051899265 -0.07088192
-0.056629784 -0.045153987 -0.04316474 -0.05450587 -0.055113617 -0.035838895 -0.042766593 -0.028028423
-0.04799769 -0.052057143 -0.043797467 -0.05278854 -0.025713319 -0.049463704 -0.06447287 -0.071063384
-0.06921865 -0.080254465 -0.077672884 -0.06716883 -0.08233546 -0.064629816 -0.09578626 -0.078418285
-0.06083808 -0.06667303 -0.04248307 -0.10000243 -0.078660294 -0.056156088 -0.044631436 -0.015083824
-0.102680996 -0.09216797 -0.05842459 -0.025938494 -0.015484482 -0.07106908 -0.08130532 -0.05563432
-0.03453728 -0.0058087874 -0.027948823 -0.014151745 -0.016706381 -0.015363247 -0.0017104653 -0.02197281
-0.019920535 -0.025754414 -0.028885942 -0.008691135 -0.0060217716 -0.0069473507 -0.012844415 -0.019065507
-0.01585477 -0.021424606 -0.015994798 -0.018517533 -0.020328568 -0.013926611 -0.035158362 -0.016120836
-0.011589802 -0.016545258 -0.021916466 -0.06066445 -0.0853481 -0.062599525 -0.046421397 -0.041544903
-0.0649182 -0.07452156 -0.039005883 -0.03203942 -0.043260496 -0.073335856 -0.07100623 -0.040132403
-0.04354231 -0.04389093 -0.05788572 -0.071775414 -0.051257715 -0.054914463 -0.027709216 -0.058623597
-0.07227444 -0.041539602 -0.020481959 0.002093729 -0.19802079 -0.26766455 -0.21207012 -0.14523295
-0.10326362 -0.24068318 -0.24557202 -0.15343663 -0.12228272 -0.09153497 -0.23322569 -0.21234494
-0.1308905 -0.14852291 -0.12310349 -0.20909204 -0.20539097 -0.18413304 -0.15439773 -0.06514111
-0.15821196 -0.18295355 -0.1321837 -0.07960261 0.0059552356 -0.04431679 -0.064606525 -0.077867925
-0.0707123 -0.053228088 -0.07221518 -0.10170382 -0.07474156 -0.077010475 -0.06317223 -0.08410726
-0.08731313 -0.05315211 -0.05777772 -0.045792278 -0.09467262 -0.08922908 -0.057497356 -0.046443727
-0.024344582 -0.07569665 -0.07543818 -0.07064363 -0.050717816 -0.022154208 -0.042003326 -0.035438843
-0.019178735 -0.027593419 -0.020975405 -0.051082484 -0.033337057 -0.02433016 -0.03977888 -0.029723035
-0.051334895 -0.031241672 -0.035683293 -0.030021816 -0.01970553 -0.046472847 -0.041523267 -0.034027673
-0.019702446 -0.004654331 -0.03306979 -0.028100725 -0.013743047 -0.015616013 -0.011343251 -0.05918447
-0.08622518 -0.09157389 -0.12589207 -0.117253095 -0.08946912 -0.10539547 -0.08893949 -0.09625808
-0.07222595 -0.12422463 -0.11592394 -0.08678919 -0.05338928 -0.029079199 -0.101214185 -0.123891585
-0.1018378 -0.067714006 -0.05294446 -0.061273452 -0.11684197 -0.12720717 -0.08273426 -0.03305693
-0.086014226 -0.08801334 -0.055866186 -0.029852005 -0.009557271 -0.09790687 -0.07575105 -0.036764897
-0.03143145 -0.027749002 -0.085524425 -0.06125652 -0.042075794 -0.0658132 -0.04956276 -0.08861847
-0.070229776 -0.056945257 -0.056572966 -0.017185058 -0.07112236 -0.058863122 -0.0276836 -0.01483022
0.0036490085 -0.08650281 -0.125851 -0.19490144 -0.1899899 -0.15521842 -0.12057105 -0.15120809
-0.20414191 -0.15175444 -0.11336137 -0.14171936 -0.16597079 -0.19577087 -0.12836808 -0.09623755
-0.10650898 -0.15745944 -0.18755457 -0.14996271 -0.11171342 -0.077655405 -0.14731887 -0.17585419
-0.13275039 -0.072502606 0.004490232 0.014894585 0.019704934 0.010892127 0.009288218 0.006775409

momentum_buffer f4 [20]
00000000: 504a 59bd 255f 633d 7683 e0bb b154 e83c
00000010: 7257 8dbc fe61 713c 0e78 663c 4ea9 8c3c
00000020: 64fe a13a c430 36bc bf35 ed3c fe26 bb3c
00000030: 786b 52b9 bf17 ab3c a8e2 b63b f88d aa3b
00000040: f531 33bd 4675 093c 5b56 e43c cc36 c73c
-0.053049386 0.05551066 -0.006851609 0.028360697 -0.017253611 0.014732836 0.014066709 0.017170575
0.001235914 -0.011120025 0.028956292 0.022845741 -0.00020067196 0.020885346 0.0055812187 0.0052049123
-0.043748815 0.008389777 0.027873209 0.024318121

momentum_buffer f4 [10, 320]
00000000: e8ba 9d3b 8a27 7a3c 4e0d 103c 6b8c e43b
00000010: c070 993b 30bd 2b3d 65f8 d23c 5cf0 5aba
00000020: 603d dabb ebe2 173d 8bcd d13c 2d6b 8b3c
00000030: 56c1 97bc 1b29 0e3c dc80 b93c 68b1 923c
00000040: 92f8 023c 8af0 a93b 7213 62bb 6702 c93b
00000050: ba2c f93b 767b 7e3c b859 d63c bd99 933c
00000060: de3f e4bb 647a 57bb 06e7 e13b 4940 0d3c
00000070: e670 3e3b b611 28bb f15a e13b 6006 a43b
00000080: b669 8f3c 739e b93c e3af 7e3c 26c1 403c
00000090: 34ff 413c 6c5b 6c3c a49f 0f3d 6069 a73c
000000a0: b02e 0cbb 1244 853c 2ece 873c 6c9d 913c
000000b0: 9c5e 4fbb 7fbc ecbb 3090 23bb 0a4f 253c
000000c0: 909b 943a 7a20 993c 4af3 963a 128c 563c
000000d0: 20bf 0bb9 3aa7 753c c888 1b3c b140 1c3c
000000e0: b4ae 33ba 9ea3 553c dcb1 853b f6b1 323c
000000f0: 08c8 46ba 7cc0 e83a e0b3 6dba 2ec5 513c
00000100: 6567 3e3b d68e d83c 7e8a 783c ae41 b43b
00000110: 68da 973a b67a f83c 78aa 843c bae7 8f3c
00000120: 405a 9ebb be89 8b3c 9043 69ba 9ce3 0e3c
00000130: e9ae 393b ba10 593c 133b 803c ffac 033c
00000140: 9d4b e338 7cab 173a 428d a03a 4e4a 073b
00000150: 02df b3ba 1503 943a 2c5d 143a d72f 6c3b
00000160: 9caa f0ba 8753 d23a e7c9 3238 18af ae3b
00000170: 882a f936 5289 a537 5777 a73a 492c cc39
00000180: bc26 f43b 702a 9e3c 5415 ae3b 44d9 c63b
00000190: 5e1e a23c f6b7 9e3c 22b9 aebb 9d50 ae3c
000001a0: 78fd 863c 2412 ffba 4c3a 283b 70fe ea3a
000001b0: f612 fe3c 50d6 053c e431 b1ba 2877 60bb
000001c0: 25a0 c03b 409d b63c 3091 dbb9 9269 273c
000001d0: a0dc 313b 09b6 b13c 8f67 6a3c af3f e83b
000001e0: c1a9 1abb b609 323c 4ac6 453c 62c0 a73b
000001f0: 92f8 fdba 5c19 fc3b fa4a 203c 4054 5b3c
00000200: 449e d8ba dd9e ed3b 52f4 2f3c 863b 53ba
00000210: 1485 edbb 2980 ee3b 4007 ca3b 0d64 6a3b
00000220: 3169 debb 8abc 203c f965 c93b d7e9 923b
00000230: 1de7 76ba d2de a63b b4d9 8e3b 7858 fe3a
00000240: bca9 ea3c b9d0 a33c ed1c 12bb 044b 033c
00000250: e349 a63c 40c1 233c 1866 e43c ba27 613c
00000260: 2e5a 923c a254 013c 244a b03b 5894 2eba
00000270: 699e b83c 70c1 093c 8af0 c23b f2df 563c
00000280: fbe7 923b b2a5 0a3b bcce 0d3c 7319 8f3b
00000290: 6afa 3f3b 585f 9bbb 5056 23ba 892e a13b
000002a0: 44b1 063c ce6e ea3b 642f ac3b 2dc1 d03a
000002b0: 1c9b 913a e033 ae3a e627 ad39 8442 f4b9
000002c0: d04b 54ba 9e25 813a 02ec 903b a250 bd3b
000002d0: 704e 5139 c414 533a 4051 a7b7 aa26 943b
000002e0: 7863 453b aaf5 1d3b c027 3b3b d234 953a
000002f0: b815 9339 9663 86bb a09b 2538 ff68 a83a
00000300: 6926 113d 7009 113a d0ef 9b3c 339e 063c
00000310: 760a 2c3d 66b3 00bc ab7e ee3b 765b 02bb
00000320: 8696 333d adcc e93b 264a febb d908 93bb
00000330: 011f 013d 5874 b83c 470c b73c 68a5 133a
00000340: e600 0f3c 30e5 95ba 1277 073c 7358 b93a
00000350: c490 f93a 884a 323b 0bf4 3e3c 60f1 903a
00000360: b0e0 023b 0ef3 b93b 8901 393b 86bd 143b
00000370: 2076 1d3b 84ab ba3b 81bb ad3b bc86 a9ba
00000380: f255 183b 2d5c b43b 5b44 b03a 9423 e13a
00000390: d05e 61b9 00b0 f9b8 8e42 793a 28be c73b
000003a0: 5442 28bb 928b 6ebb 6247 4e3b 3efe a13b
000003b0: e3f4 7e3a 032b 0fbb 03a9 8eba d8d0 bc3a
000003c0: fe12 503c a4b3 e13b d4d6 e83c 5d9d d73c
000003d0: f6c7 493c 9289 7d3b 0eb5 243c 9a0f 0b3c
000003e0: b079 c03c da37 263c 1cac 313b a822 3e3c
000003f0: 91f9 663c 2d19 923c f6ca 2c3c bc0a 343b
0.0048135407 0.015268216 0.008792235 0.006974747 0.0046826303 0.04192847 0.02575321 -0.00083518564
-0.0066601485 0.03708164 0.025610706 0.017018879 -0.018524807 0.0086767925 0.022644453 0.01790686
0.007993834 0.005186145 -0.0034496454 0.0061343196 0.007604209 0.015532365 0.026165828 0.018017644
-0.0069656214 -0.0032879347 0.006893995 0.008621284 0.0029058992 -0.0025645322 0.006877296 0.005005643
0.017506462 0.022658562 0.015544864 0.0117648 0.01184063 0.014426094 0.035064355 0.020435989
-0.0021390133 0.01626781 0.016577806 0.01777526 -0.0031642085 -0.007224619 -0.0024957769 0.010089645
0.0011337865 0.018692244 0.0011516598 0.013094919 -0.00013327273 0.014993483 0.00949306 0.009536908
-0.0006854341 0.013039498 0.0040800404 0.010906687 -0.00075829076 0.001775756 -0.0009067636 0.012803359
0.0029053327 0.026435297 0.015169738 0.0055009937 0.0011585476 0.03033195 0.016194567 0.01756655
-0.004832536 0.017033454 -0.0008898312 0.0087212585 0.0028333014 0.013248617 0.015653169 0.008036851
0.000108382876 0.0005785746 0.0012249129 0.0020643654 -0.0013723078 0.0011292422 0.00056596356 0.0036039257
-0.0018361392 0.0016046622 4.2626543e-05 0.0053309314 7.4257296e-06 1.9733478e-05 0.0012776655 0.00038942907
0.0074509066 0.019307345 0.005312601 0.0060683805 0.01978987 0.019374829 -0.005332128 0.021278674
0.016478285 -0.0019460362 0.0025669513 0.0017928611 0.0310149 0.008168772 -0.0013518897 -0.003425071
0.0058784657 0.02229178 -0.00041879108 0.010218041 0.002713956 0.021693246 0.014306917 0.00708767
-0.0023599716 0.010866573 0.012071202 0.0051193694 -0.0019376448 0.0076934528 0.009783501 0.013386786
-0.0016526659 0.007251604 0.010739403 -0.0008057881 -0.00724853 0.0072784615 0.006165415 0.0035765201
-0.006787442 0.009810576 0.0061461893 0.0044834423 -0.0009418594 0.00509248 0.0043594483 0.0019405028
0.028645389 0.019996988 -0.0022295073 0.008013491 0.020298904 0.009994805 0.027880713 0.013742382
0.017865267 0.007893713 0.005379932 -0.0006659678 0.022536473 0.0084079355 0.0059490846 0.013114916
0.0044832206 0.002115589 0.008655246 0.0043670475 0.0029293546 -0.0047415905 -0.0006230818 0.0049188775
0.008220974 0.007154322 0.005254673 0.0015926711 0.0011108848 0.0013290606 0.00033026858 -0.00046588865
-0.0008098455 0.000985313 0.0044226656 0.0057774344 0.00019961013 0.00080521055 -1.9945786e-05 0.0045212107
0.0030119102 0.0024102726 0.0028557628 0.001138354 0.00028054207 -0.004101227 3.9484003e-05 0.0012848674
0.03543702 0.00055327173 0.01903525 0.008216429 0.042002164 -0.007855272 0.0072782836 -0.001989094
0.043844722 0.007134995 -0.007760304 -0.0044871387 0.03152371 0.022516415 0.022344721 0.00056322524
0.008728242 -0.0011436101 0.008268135 0.001414074 0.0019040336 0.0027205069 0.011654864 0.0011058263
0.001997035 0.0056747263 0.0028229675 0.0022695973 0.0024026707 0.005696716 0.005301893 -0.0012933831
0.0023244587 0.0055041523 0.0013448106 0.0017176741 -0.00021492993 -0.00011906028 0.00095085136 0.0060956664
-0.00256743 -0.0036399108 0.0031475653 0.004943638 0.0009725822 -0.0021845705 -0.001088411 0.0014405502
0.012699841 0.00688787 0.02842275 0.026320154 0.012315741 0.0038686735 0.010052932 0.008487606
0.023495525 0.010145152 0.0027110642 0.011604942 0.014097587 0.01783427 0.0105464365 0.0027472218

momentum_buffer f4 [10]
00000000: 800d b73b d8c6 3d3c 8d9b d83c 324a 563b
00000010: 58e9 ffba 4854 1abc 2ae5 653c e9d9 3f3d
00000020: 4b71 dabd b277 283c
0.005586326 0.011583053 0.02644136 0.0032698032 -0.0019524498 -0.009419508 0.014031688 0.046838675
-0.1066614 0.010282444
