oraclebackend/train/non-iid/checkpoint/mnist/ckpt_3_0.pth (torch, 71911 bytes, 12 tensors)

conv1.weight f4 [10, 1, 5, 5]
000000 52 a5 17 3d 2f d3 28 be 36 0d ec bd d7 64 07 be
       0.037022896 -0.1648681 -0.11525957 -0.13222061
000010 a4 a7 32 3e 5f 0d bb bc fa 05 06 3e 2a 82 a7 bd
       0.17446762 -0.022833524 0.13088217 -0.08179124
000020 f6 f8 f6 3d c1 86 06 3e 0b 38 a6 3d db 9c 32 3e
       0.12059204 0.13137342 0.08116158 0.17442648
000030 79 10 76 3d 37 46 13 be 0a 5c c2 3c b9 55 8d bd
       0.060074303 -0.14382254 0.023725528 -0.06901116
000040 09 11 66 bd 56 09 95 3d 86 f5 3e bd da b5 1e bd
       -0.05616859 0.07277171 -0.04662087 -0.038747646
000050 3e dc 2c 3c 2a be 64 bd ab 52 1c be 0d d2 65 3d
       0.010550557 -0.055845417 -0.1526591 0.056108523
000060 0e 08 23 bd 03 02 e2 3c 1b 15 22 bd 5f 9e af bd
       -0.039802603 0.02758885 -0.03957091 -0.08575129
000070 22 39 69 3e 2f f1 a8 bc 2d 43 1b 3b c1 ae 55 3e
       0.227757 -0.020622818 0.0023691163 0.20867445
000080 44 5c ce 3d 8b 59 c1 bd f9 46 79 3e 55 d6 32 be
       0.10076192 -0.09440907 0.2434348 -0.17464574
000090 ca 51 b9 bc a3 9f 25 3d a8 9f 26 3e 7b d7 26 3d
       -0.022622008 0.040435445 0.16271842 0.040732842
0000a0 26 97 86 bc dc 04 ce bd 85 67 eb bd 46 9c 7d 3d
       -0.016429495 -0.100595206 -0.11494354 0.061916612
0000b0 ea 89 de 3c 89 d3 4a be 8e b7 24 be 8e 9d 20 3d
       0.027165372 -0.19807257 -0.16085646 0.039212756
0000c0 24 a2 f7 bd c0 24 ab 3b 6a 08 e7 3d be 15 00 3e
       -0.12091473 0.005222887 0.11280902 0.12508294
0000d0 fd 96 34 3e f5 2d ff 3d 8f 7d 61 3e 54 29 03 3e
       0.17635722 0.124599375 0.22020553 0.12808734
0000e0 11 63 ab bd 4f a5 6a 3e a2 50 68 3e 8a d7 1a bd
       -0.08368505 0.22914623 0.22687009 -0.03780321
0000f0 c2 b9 d6 3d 38 ad 8c 3e f5 99 4b 3e da e2 1f bd
       0.10484649 0.27475905 0.19882949 -0.039034702
000100 5c 44 26 be 79 10 26 3e 5f 8f 63 3e 6a 86 4a 3e
       -0.16237015 0.16217221 0.2222266 0.19777837
000110 b8 ec 7e bd f8 27 2a 3e 45 a8 b9 bd 13 30 05 be
       -0.06223747 0.1661681 -0.09065298 -0.1300662
000120 e4 c0 d6 3d 5c 24 19 be 85 70 e9 3d ed 9a 4e be
       0.1048601 -0.14955276 0.113984145 -0.20176287
000130 88 34 a1 bd cb d0 9e 3d 30 66 3f bd cb 89 21 3e
       -0.07871348 0.07754668 -0.046728313 0.1577522
000140 01 81 63 b8 54 1e ed 3d 88 03 b0 bd ff df 51 ba
       -5.424116e-05 0.1157805 -0.085944235 -0.00080060953
000150 c7 ac 71 3d 86 66 1c be 5e 95 a7 bb 35 d9 0a be
       0.059002664 -0.15273485 -0.0051142415 -0.1355942
000160 e7 87 42 3e f3 2c a2 bc fb f9 4c be db 03 5d be
       0.18997155 -0.019796824 -0.20017235 -0.21583502
000170 ea 4f 3c 3e 08 74 cc bd 6d 5f 3c 3c 3d 01 75 3d
       0.1838986 -0.09983069 0.011497361 0.059815634
000180 f2 56 d1 bd 8a fe 60 3e 07 ce 4b 3e 25 90 79 bc
       -0.102216616 0.21972099 0.19902812 -0.015232121
000190 f1 97 7e be bf fd 01 3e 8b e1 5b 3e ea 12 5d 3e
       -0.24862649 0.12694453 0.21472757 0.21589246
0001a0 1d 03 0e bd 1a a3 80 be ff 4c 71 bd 59 66 07 3e
       -0.034670938 -0.25124437 -0.05891132 0.13222636
0001b0 09 df 50 3e 6d 14 93 bd df b1 65 be ae d8 83 3e
       0.20397581 -0.0718163 -0.22431134 0.2575125
0001c0 7b c7 2e 3e 0a fb 90 3e a8 3f 2e be ec f5 3c 3e
       0.17068283 0.28316528 -0.1701647 0.18453187
0001d0 10 58 7d 3d ec b0 8d 3e 58 77 9c 3d 16 ad 3a 3e
       0.06185156 0.27674043 0.076399505 0.1823009
0001e0 34 75 0f be 73 dd 57 3e ef 14 88 3e 6a da 3b 3c
       -0.14009553 0.2108057 0.2657847 0.011465648
0001f0 19 46 84 3d af df d6 bc e5 86 59 3e 28 98 12 3e
       0.064586826 -0.026229708 0.21242864 0.14315856
000200 60 39 cc bd d6 1e fb 3d de 77 20 be 71 12 03 3e
       -0.09971881 0.12261741 -0.15670726 0.12800004
000210 b6 6d 14 3e 80 d4 b4 3d 01 38 86 3e 9c 6a c9 bd
       0.14494976 0.08829594 0.26214603 -0.09834787
000220 ed 6c 05 3c d7 d4 dd bc ed 79 c9 3c fa 9b 47 3e
       0.008143646 -0.027079029 0.024594272 0.19493094
000230 39 6b 08 be 85 b1 0c be 67 15 fe bd a3 64 6b 3e
       -0.13322152 -0.13739593 -0.12406426 0.22987609
000240 d6 e0 3d 3c 18 88 17 3d 74 28 12 3e 7c 42 32 3e
       0.01158925 0.036995023 0.14273244 0.17408174
000250 39 6d a3 3e b1 17 5a 3e 0a 82 a2 bd 89 b5 12 be
       0.31919268 0.212981 -0.07934959 -0.14327063
000260 a0 49 0f be ee e0 3b 3e 45 16 a5 bd c6 c2 0a 3e
       -0.1399293 0.18347523 -0.08060888 0.13550863
000270 fd a6 cf bd 58 2b 81 3d a6 9f 4d 3e bd 88 9f bd
       -0.10139272 0.06307095 0.20080432 -0.07789753
000280 7a 7d 4d 3e 22 1f 85 3e 32 6a 14 3c eb 33 05 3d
       0.20067397 0.26000315 0.009058522 0.032520216
000290 a8 73 1c bd f5 3a 8d 3e 30 7d 88 bd e2 8e a2 3e
       -0.038196236 0.27584043 -0.066645026 0.31749636
0002a0 58 bb 64 3e 68 70 c6 3d 79 0f 2d 3e f1 71 1e 3e
       0.22337091 0.096894085 0.16900434 0.15473153
0002b0 0f fb 23 3e c2 d5 62 3e 9e e8 5a bd 79 6b c9 3d
       0.1601374 0.22151855 -0.053444497 0.09834952
0002c0 40 4e 49 3e a7 6b 77 3e ff 0f 84 bd d8 72 64 3e
       0.19658756 0.2416216 -0.064483635 0.22309434
0002d0 c9 b3 66 3e 70 2f 49 3e 64 73 08 3e 35 b3 98 3e
       0.2252952 0.19647002 0.13325268 0.29824224
0002e0 d0 ac 41 bd db ac c2 3d 85 14 4c 3c ad a0 32 3e
       -0.047283947 0.09505626 0.012456064 0.17444105
0002f0 e7 1e a1 3d b7 e5 a9 3d e0 73 48 be 9b f4 3e be
       0.07867222 0.08295768 -0.19575453 -0.18647997
000300 c2 ca 4b be 7c e8 0d be 0a 7f 0b 3e a6 26 37 bc
       -0.19901565 -0.13858217 0.1362268 -0.011178648
000310 49 82 67 be 98 5b 2b be 82 68 50 be 03 51 2f be
       -0.22608294 -0.16734159 -0.20352367 -0.17120747
000320 b8 a2 ae 3d 7e ae 17 3d 26 bc 64 3d 0b 6f 95 bd
       0.0852713 0.037031643 0.055843495 -0.072965704
000330 8f 0d 1b be 77 eb f6 bd 52 ac 0c be 26 4a 88 bd
       -0.15141891 -0.1205663 -0.1373761 -0.06654768
000340 73 a8 49 bc 93 28 b1 3d be 25 34 3e c5 e8 a9 bd
       -0.012308228 0.08650317 0.17592523 -0.082963504
000350 f1 a4 36 bb 72 bd 3c bd f1 ce e6 3d 98 04 67 bd
       -0.0027869309 -0.046079107 0.1126994 -0.056400865
000360 ec e1 15 bd aa 1e 14 be 97 61 fb bd df be 52 bb
       -0.03659241 -0.14464822 -0.12274473 -0.0032157225
000370 82 c4 91 3d cb b4 04 3e 10 e5 96 3d e7 04 4e be
       0.07117559 0.12959592 0.07367909 -0.20119058
000380 f4 c3 63 3d a7 a0 3d 3e 06 ab 02 be 4b c8 ea bd
       0.055606797 0.18518315 -0.12760553 -0.11463984
000390 4e 09 02 3e 94 0d 50 3e c2 17 43 3e f7 a5 30 bd
       0.12698862 0.2031768 0.19052032 -0.043127026
0003a0 e3 63 39 3d 1d 38 62 3e 8b f1 1b 3d ff c5 f2 3d
       0.045261275 0.22091718 0.03807215 0.11854171
0003b0 1b 38 a3 3b dc 8b 0d be 09 6e 54 3e ef 5f 3a be
       0.0049810535 -0.13822883 0.207451 -0.18200658
0003c0 d6 08 ca bd d1 60 96 3d 16 59 26 be 08 a7 58 3d
       -0.098649666 0.07342685 -0.16244921 0.05289367
0003d0 8e 9d 08 3e f9 bf 71 3d 89 4e 9c 3d 33 a9 5c bc
       0.13341352 0.05902097 0.07632167 -0.013468075
0003e0 a2 5e e4 bb 3f e0 e3 bc
       -0.006969289 -0.02781689

conv1.bias f4 [10]
000000 04 4b 04 be 19 0a 2a 3d 73 63 18 bc ff 46 3b 3d
       -0.12919241 0.041513536 -0.009301054 0.045722004
000010 97 eb e6 bb db e8 fa 3d 1a d5 65 3e 4b d7 8f bc
       -0.0070471275 0.12251445 0.22444573 -0.017558714
000020 62 3a ab 3a 9c 6a 8f 3c
       0.0013063664 0.01750689

conv2.weight f4 [20, 10, 5, 5]
000000 fb 97 3c bd b0 15 28 3c a2 f3 f6 bc 51 f9 df bc
       -0.046043377 0.010259077 -0.03014547 -0.027340563
000010 ac 00 d1 3c ee 62 57 bd 45 9e 38 3c 7f 5d cf 3c
       0.025513016 -0.05258458 0.011268203 0.025313137
000020 bc e7 46 3d cb 68 85 bd a4 a4 78 bd bb 89 80 bc
       0.048560843 -0.06514128 -0.06070389 -0.015690675
000030 b2 df 69 bd 3e b6 20 bb c9 17 31 3d 1e f3 5d 3d
       -0.057098098 -0.0024522687 0.043235574 0.054186933
000040 00 3d 3c bc 13 ed 22 3c 25 39 cc bc 8c 46 c8 bc
       -0.011489153 0.009944218 -0.024929592 -0.024447702
000050 77 30 85 bd 92 d2 4d 3d 28 dd f2 3b 4f d3 29 3c
       -0.065033846 0.050249644 0.007411618 0.010365321
000060 f2 7b ac bc d0 87 cc 3c 25 19 8d bd 6f 35 c6 bc
       -0.021055195 0.024967104 -0.068895616 -0.024195401
000070 c9 8a 83 bd 98 7b 87 bd 19 35 1d bd 6b 08 0d 3c
       -0.064229555 -0.066153705 -0.038380716 0.008607964
000080 af c3 c1 3c 7b 7d 1b bd c3 fb b1 bc 32 85 86 3c
       0.02365288 -0.037961464 -0.021726495 0.016420934
000090 cb 92 f5 3c 90 89 d1 bc e2 fa 83 3d c6 38 84 3b
       0.029977223 -0.02557829 0.064443365 0.0040350882
0000a0 8d 46 2b bd 5f e8 3c bb 93 fa 2d bd 20 d1 a9 3d
       -0.04181533 -0.0028825027 -0.042475294 0.082918406
0000b0 31 ef 35 3d e5 95 70 bd 6d fd 40 3d 8f 19 18 bc
       0.044417564 -0.0587367 0.047116686 -0.009283437
0000c0 9c c2 0c 3d db d4 d6 bc f2 f1 29 bc a4 93 73 bd
       0.03436528 -0.026224544 -0.010372626 -0.059466973
0000d0 72 e0 5b 3d bb f7 66 3d b9 c9 54 bb f8 65 30 bd
       0.053680845 0.056388598 -0.003246887 -0.043065995
0000e0 49 7f 6f 3c 8d e3 6e bc 89 2d 85 3d 48 48 1f 3d
       0.0146177495 -0.0145806195 0.06502826 0.038887292
0000f0 bb 0e b8 bc 8f 6f 24 bd 1b 2b 2a 3d fd ad b4 3c
       -0.022467962 -0.040145453 0.041545015 0.02205562
000100 57 57 c4 3d 0f e0 ec bc 7b cd ac bd 77 b0 03 bd
       0.09586971 -0.028915433 -0.0843763 -0.032150712
000110 30 33 fa bc af f7 a8 3c f4 97 94 bd e5 2a 79 39
       -0.030541986 0.020625917 -0.07255545 0.0002376247
000120 f6 21 6d bc 96 60 84 bd 91 88 92 3d f6 46 76 bc
       -0.014473429 -0.06463735 0.07154954 -0.015031567
000130 ac 93 2b 3d c7 dc 04 3d 71 a9 55 3b 4b a9 df bc
       0.041888878 0.032437112 0.0032602216 -0.027302405
000140 d9 47 4d bc de 2a e4 bc b1 31 1e 3d d5 3c a0 3d
       -0.012529337 -0.027852472 0.03862161 0.07824103
000150 24 28 42 bd 2f 2f 0b 3d 9f 0b 25 bd 50 8e 25 bd
       -0.047401562 0.033980545 -0.040294286 -0.040418923
000160 97 91 97 3d c9 7d a6 3c 73 a4 0b 3d 94 15 56 bc
       0.07400816 0.02032365 0.034092378 -0.013066668
000170 0a 8a 27 bd 70 07 88 3d cf 02 95 3c 35 10 6e 3d
       -0.04090313 0.066420436 0.018189816 0.058120925
000180 76 e2 a6 3c db 14 50 3d 12 4d b1 3d ea 63 78 3d
       0.020371657 0.05080114 0.08657278 0.06064216
000190 c4 9f 9a bc df 6a a4 bc a7 f9 bb 3c cb c1 20 3d
       -0.01887501 -0.020070491 0.022946192 0.039247315
0001a0 65 50 d1 3d db b1 68 bd d0 5c 85 bd 08 73 bc 3a
       0.10220412 -0.05681024 -0.06511843 0.0014377544
0001b0 de c2 01 3d 3f 57 84 3c 5c 67 a1 bd 6f f6 9a bc
       0.03167998 0.016154883 -0.07881042 -0.018916337
0001c0 b5 d6 34 3d 03 08 29 3d 4b 20 de 3d a2 87 87 3b
       0.044150073 0.041267406 0.10846003 0.0041360417
0001d0 6a 0b 23 bd be 21 f5 3c a7 47 4a 3d 78 67 d7 3d
       -0.039805807 0.029923316 0.04938474 0.10517782
0001e0 69 93 91 bc 50 0c 4c bd 04 d5 aa 3c dd 07 be 3d
       -0.017770486 -0.04981643 0.020853527 0.092788436
0001f0 66 a5 fd 3c 26 a4 3a bc c0 02 ce bb ac ca 4f bd
       0.030962657 -0.011391675 -0.006286949 -0.050730392
000200 9e 9d 2a 3b 79 19 42 3d 5e 4d 40 3c e8 48 12 3d
       0.0026033889 0.047387574 0.011737196 0.03571406
000210 e5 4c 91 bb 7c 4f 88 3d 4c 6c 5a 3d e4 43 ae 3c
       -0.0044342154 0.066557854 0.053325936 0.021272607
000220 7f 5f d1 bc ee 38 94 3d 39 44 36 3d 5b 02 66 3d
       -0.025558231 0.07237421 0.044498656 0.05615459
000230 45 e9 29 bd ee f6 69 3c 7d ff 23 3d 25 ef b5 3d
       -0.04148223 0.014280064 0.040038574 0.08883504
000240 67 c1 0a 3d bc bb 24 bd 25 c9 05 bd 3f 29 37 bd
       0.03387585 -0.0402181 -0.03266253 -0.04471707
000250 12 78 cf ba 78 e3 b5 3c 60 bb a4 3d c2 5b 5f 3d
       -0.001582863 0.022203192 0.080435514 0.054530866
000260 e4 94 1c 3d 48 81 b1 3d 57 e4 62 3d 2e ec 39 bd
       0.03822793 0.086672366 0.055393543 -0.045391254
000270 a0 97 4d 3c b6 46 3e 3c 7c 13 fc bc 1f cc 85 3d
       0.012548357 0.0116135385 -0.03077101 0.06533074
000280 44 25 22 bd cc db c2 3c 08 e5 b5 bc e5 66 70 3c
       -0.03958632 0.023786448 -0.022203937 0.0146729695
000290 8b 67 3f bd 4d b5 00 bc 94 6c 55 bd 73 45 5a 3c
       -0.046729606 -0.0078557255 -0.0521055 0.013322222
0002a0 0e 81 c3 bc a2 a8 22 3d 81 22 f2 bb da d4 ba bd
       -0.023865249 0.039711602 -0.007389367 -0.091226295
0002b0 24 eb b6 bd 23 70 ed 3c ce f7 80 bc e3 f3 a1 3c
       -0.08931568 0.028984135 -0.015743162 0.019769615
0002c0 33 9c 03 3d 92 d7 80 3c 06 55 83 bd 79 f1 45 3c
       0.032131385 0.015727792 -0.06412701 0.012081497
0002d0 94 3b 91 3d 4f 8a a0 3b 7e b7 61 bd a7 06 e3 3c
       0.07091442 0.0048993 -0.055106632 0.027713133
0002e0 61 95 3e bd 15 5c d6 3c 4e b3 41 bc 98 d6 ba 3b
       -0.046529178 0.026166955 -0.011822535 0.005701851
0002f0 b1 a1 21 bd f4 3a 1f bc a2 e4 83 3c 4c 79 a8 bd
       -0.03946084 -0.009718645 0.016100232 -0.082262605
000300 59 db 8a 3c 31 27 e7 bc a5 49 10 bd 71 00 8d bd
       0.016950296 -0.02821693 -0.035226483 -0.0688485
000310 0c 6a 48 bd fc 3b 30 bd a0 ec 88 bd 73 5e ac 3c
       -0.04892926 -0.043025956 -0.06685758 0.02104113
000320 58 16 f8 bb 40 37 5e 3d cc 6b 37 bd 43 bb bd 3c
       -0.007571023 0.05425191 -0.044780537 0.023160582
000330 bb a5 47 bd a9 04 e6 39 8c 5c 48 bd 63 56 4f bd
       -0.048742037 0.0004387249 -0.048916385 -0.050619494
000340 6e c3 aa 3c 0f 66 56 3d 09 4e 5e 3c 2c 97 bb bc
       0.020845141 0.052343424 0.01356841 -0.022899233
000350 91 92 59 3d 73 14 58 bd fe a6 30 bd 88 2a 36 3d
       0.053118292 -0.052753877 -0.043128006 0.044474155
000360 c2 44 08 b8 e6 7b 47 3b 00 4d 14 3b 9e f2 de bc
       -3.2488962e-05 0.003043884 0.0022628903 -0.027215298
000370 92 b9 ea bc b3 78 7b 3c 3e 3f e7 bc 69 a8 31 3b
       -0.02865294 0.015348601 -0.028228398 0.0027108437
000380 02 27 3d 3d bc 89 40 bd 99 ae 46 bd 9b 07 95 bc
       0.04617978 -0.047006354 -0.048506353 -0.018192103
000390 bc cd e5 3c 12 7d 09 bd c4 e2 4e 3d 45 31 38 3d
       0.028052203 -0.033566542 0.05050923 0.044968862
0003a0 9e be 4f bc ac 67 19 3a ba 3b 67 3d 50 c3 b4 bc
       -0.012679724 0.0005851935 0.056453444 -0.022065789
0003b0 26 a7 ef bc ad 6f e5 bc 50 1f 45 3d ad 24 e3 bc
       -0.029254507 -0.028007353 0.048125565 -0.02772745
0003c0 08 c7 3b bd a0 fb 4d bd 0b d8 32 3d 8c 2b b8 bc
       -0.045844108 -0.050288796 0.043663066 -0.022481702
0003d0 0e 68 df 3c a4 f9 24 3d 62 4a 00 bd 59 d7 16 bd
       0.027271297 0.04027714 -0.031320937 -0.036826465
0003e0 4d 29 a5 bc 54 00 1c bd f0 ae 5b bd 94 87 ff 3c
       -0.020161295 -0.03808625 -0.05363363 0.031192578
0003f0 d7 1b 42 bd 60 fb 4e 3d 29 4e 10 3d 7e 7e be bc
       -0.04738983 0.0505327 0.03523079 -0.023253676

conv2.bias f4 [20]
000000 2e 77 02 bd 13 2e df bc a6 eb 05 ba 0d da a7 3c
       -0.03185194 -0.02724365 -0.0005108662 0.020489717
000010 34 60 e3 bb 6e e6 24 bd 9f 3f f7 bc 2f 69 99 3b
       -0.0069389585 -0.040258817 -0.030181704 0.0046817283
000020 f0 2f 39 3d 21 38 72 3d 11 ad 79 bc a9 26 7c bc
       0.045211732 0.05913556 -0.015239016 -0.015390077
000030 6f e8 1b bd a6 3d 04 3d 5f 74 c2 3c 71 49 aa 3b
       -0.038063463 0.032285355 0.02373713 0.005196743
000040 82 93 74 3d 80 1d ac bc 7b 6f 1e 3d 3c 5c 6b bc
       0.059710987 -0.02101016 0.038680535 -0.014365252

fc.weight f4 [10, 320]
000000 a4 b2 4d 3c 68 5d 30 3a 43 a0 4f 3d a9 a3 81 3d
       0.012554798 0.0006727786 0.050689947 0.06330044
000010 12 1b ed bc 91 b5 5a ba e1 1d 0f 3d 21 db 64 3d
       -0.028943572 -0.00083430955 0.034940604 0.05587304
000020 f1 7f df 3c 6c ed f2 bc fc cf ad 3c 6d 66 8f 3c
       0.027282687 -0.029654227 0.021217339 0.017504895
000030 6b 5e 26 3d 05 10 06 bd 56 8f 91 bb 23 24 0b 3c
       0.040617388 -0.03273012 -0.004442136 0.008492502
000040 80 ac 73 bd b3 d6 85 ba de 70 fd 3c 5c 2f 36 bd
       -0.05949068 -0.001021108 0.030937608 -0.04447876
000050 db b3 b2 3c be 51 f0 bb d0 06 92 bc 7f 53 23 3c
       0.021814277 -0.007333963 -0.017825514 0.0099686375
000060 ad 27 8d bc 36 47 07 3c e2 8a 0e 3b f2 0f b6 bb
       -0.017230833 0.008256724 0.002175026 -0.0055561
000070 84 02 fb 3c 3e 1d 02 3d 36 0f 78 3c 64 ec bd bc
       0.030640848 0.03176617 0.015140345 -0.023184009
000080 cb ff 04 bd 30 c1 f9 bc 7e 0f 62 3d f0 1d dd bb
       -0.032470506 -0.030487627 0.055190556 -0.0067479536
000090 b1 eb 27 bd cb 85 ae 3c 7a bd 1a 3d 5e 87 b3 3d
       -0.040996257 0.021304032 0.037778355 0.087660536
0000a0 cc 7b 53 bd 9f fa 66 bd ef 38 87 bd 7f 16 2e 3d
       -0.051631734 -0.056391355 -0.06602656 0.042501923
0000b0 37 d7 27 3b 8c 0b 42 bd 86 9d e9 bc da 3d f1 3c
       0.0025610456 -0.047374293 -0.028517496 0.029448438
0000c0 da 7c f6 bc 01 eb 48 3d 64 be d2 3c 5f 24 fc 3c
       -0.03008883 0.049052242 0.025725551 0.030779062
0000d0 4d a1 c5 bc 3b 08 96 3c 8d 5c df 3c 2b 60 1d 3d
       -0.024124766 0.018314471 0.027265811 0.03842179
0000e0 90 e9 e8 3c 33 3b 59 bd 54 42 a7 3c fc 27 92 3d
       0.028431684 -0.053034972 0.02041737 0.07136533
0000f0 72 5b 0d 3c 3b c1 99 bd 9c af 5b 3d 1d 41 54 3b
       0.008627759 -0.07507559 0.05363427 0.0032387443
000100 5c 8e 20 bc 33 a8 3c 3d 4e d5 59 bd 76 61 5c bd
       -0.009799566 0.046058845 -0.05318194 -0.053803883
000110 a8 9f 64 3c b5 d3 e5 3b 7c 4f 1b bd da 98 a0 3b
       0.013954081 0.007013763 -0.0379176 0.004901034
000120 53 b3 4e bb c9 3b 3c 3d 59 ae d7 3c d1 d2 2a bd
       -0.003153999 0.045955453 0.026328253 -0.041704956
000130 81 c8 23 bd 8b 61 52 3d 95 c7 ec bc 1b 43 42 bc
       -0.039986137 0.051362555 -0.028903762 -0.0118568195
000140 52 e3 0f bd 8b 84 7f 3c 57 54 6f 3d f6 46 27 bd
       -0.0351289 0.015595566 0.058430042 -0.040839158
000150 07 a7 45 3d ff fc 1e 3d e0 e6 7d 3d cf 2c 47 bd
       0.048254993 0.038815495 0.061987758 -0.048626717
000160 6f ee 09 3d fe 7f e1 3d 6e c0 99 bd 54 0a 45 3c
       0.033674654 0.11010741 -0.07507406 0.012026388
000170 ed 5f 90 3c 37 48 1c 3c 17 71 7d bd a5 aa 1d 3b
       0.017623866 0.009538702 -0.06187543 0.002405801
000180 de 43 83 bd 99 10 29 bd 10 d3 2c 3d 42 b6 21 3d
       -0.06409429 -0.041275594 0.042193472 0.039480455
000190 1f 76 8a bd 9e f4 94 bb e7 a0 0a 3d c9 8d 1c 3d
       -0.06760811 -0.004545762 0.033844855 0.038221154
0001a0 46 fa 23 bd ed 17 77 bd 1d 80 70 3b 0b 6d 30 3a
       -0.0400336 -0.06032555 0.0036697455 0.0006730116
0001b0 13 f5 71 bb 99 c8 af 3c 43 d2 88 bc dd 8b 8c bd
       -0.0036919757 0.021457957 -0.016701823 -0.06862614
0001c0 aa 31 49 bc 1f 4f 8a 3d c3 59 b5 bc 5e dc d6 bd
       -0.012279907 0.067533724 -0.022137528 -0.104912505
0001d0 11 39 4a 3c 08 08 a7 3d d2 a4 48 3d cf 1d ef bc
       0.012342707 0.08155829 0.04898531 -0.029189019
0001e0 4c 9d c7 bc 10 75 09 3d e0 a1 a7 bd 87 cd 37 3d
       -0.024366997 0.033558905 -0.08185172 0.04487374
0001f0 a5 34 25 bd b0 95 9b bd 44 5b 0c ba 6a 30 60 3d
       -0.04033341 -0.0759691 -0.0005354176 0.05473367
000200 09 96 68 3d 20 77 76 3c 33 25 a8 bc bf 56 4e 3b
       0.05678371 0.01504305 -0.02052555 0.003148481
000210 25 2c fa ba c4 34 08 3b b0 d8 59 3d 00 df db bc
       -0.0019086642 0.0020783404 0.053185165 -0.026839733
000220 46 4a 1e bd 5a 3c 50 3d 75 33 3a bb fd f7 e1 3c
       -0.03864505 0.050838806 -0.0028412018 0.02758407
000230 e0 1c 2d bd 97 1a 7e bd 30 d0 d2 bc 35 0c b3 bc
       -0.042263865 -0.062037077 -0.025734037 -0.021856407
000240 ec 7b 5d 3d 02 93 2a bc 6d 00 e6 bb 2e ad c5 bc
       0.05407326 -0.010411026 -0.0070190937 -0.02413043
000250 90 cf 58 3a eb a3 a8 bd dd 35 88 3d 9e 37 a9 3d
       0.00082706753 -0.0823439 0.066508986 0.08262561
000260 d5 e5 40 3d b4 3d 0f 3d 13 4e 7f 3d 4a 21 5f bc
       0.047094185 0.034970954 0.062330317 -0.013618777
000270 de 7a 73 bd 35 33 9d bd 7a 40 99 bd 09 35 58 bd
       -0.059443347 -0.076757826 -0.07483001 -0.052784953
000280 a8 96 c6 bc 02 4c b8 bc 01 91 04 3d 7a cf f3 3c
       -0.02424176 -0.02249718 0.03236485 0.029762018
000290 93 d0 79 3b 53 0a 41 3c 23 bd 80 bc d3 86 29 3d
       0.0038118705 0.011782247 -0.015715187 0.041388344
0002a0 40 d0 b5 bc aa 9a b7 3c a4 9a 22 bc 87 06 1f bd
       -0.022194028 0.022412617 -0.0099245645 -0.038824584
0002b0 97 6b d1 bc ea ef 54 bd 87 4c 28 bd 39 ff df b9
       -0.025563998 -0.051986612 -0.041088607 -0.0004272403
0002c0 be 21 04 bd 0e ca be bc d0 27 24 3c b9 01 1d 3d
       -0.03225874 -0.023289707 0.010019258 0.03833172
0002d0 48 2d e3 bb aa f7 c0 bb ed 80 38 bb b1 22 b5 bc
       -0.006932888 -0.005888899 -0.0028153018 -0.022111269
0002e0 16 4d 38 bd 68 3d ef 3b 3c bc 2c bc 65 e9 b0 3c
       -0.04499539 0.0073010214 -0.010542925 0.021595666
0002f0 41 8f 27 bd 12 19 50 bd b6 b5 25 bd 82 4c f6 bb
       -0.040908102 -0.05080516 -0.040456496 -0.0075164447
000300 fc fc 18 bd d0 a1 d6 3c 87 66 68 3d bc 7d f8 3c
       -0.03735064 0.026200205 0.056738403 0.030333392
000310 67 53 2f bc a3 3f 0a 3b 7e dc 79 b9 aa ca ac 3d
       -0.010701037 0.002109506 -0.0002382863 0.084370926
000320 15 53 fc 3c aa c7 46 3d a5 32 9b bd f6 70 75 bd
       0.030801335 0.04853026 -0.07578019 -0.05992218
000330 c0 49 62 3d a5 18 72 3d 4c 9f 94 bc e5 60 1f bd
       0.055246115 0.059105534 -0.018142365 -0.038910765
000340 d6 49 44 3d cf 49 3e 3c 18 d4 19 bd 70 83 dc 3a
       0.047921978 0.011614277 -0.037555784 0.0016823839
000350 78 d4 93 bc 2b 23 ee bc 69 52 a5 bc 4b 0a e8 bc
       -0.018045649 -0.029069504 -0.020180898 -0.02832522
000360 27 1f ff bc 54 79 08 3c 0b eb 24 bd 46 c2 14 3d
       -0.031142784 0.008329708 -0.040263217 0.036318086
000370 f9 47 c6 bb 09 36 89 bd 69 ee fa bc 7f d0 10 bd
       -0.0060510603 -0.066997595 -0.030631261 -0.035355087
000380 2f 8a 61 bd 3d 67 9f 3c 13 93 30 3c 2b 9a 40 bd
       -0.055063423 0.019458408 0.010777253 -0.047022026
000390 aa 4d 4a 3d 3e b7 02 3d 43 f9 0e bd ed 9c 8c bd
       0.049390472 0.031913035 -0.034905683 -0.06865869
0003a0 88 f9 b7 bb 19 bf 38 bc 5c 1c 00 3b 3c f8 1f bc
       -0.0056144632 -0.01127603 0.0019548154 -0.0097637735
0003b0 29 11 f1 bc 06 df c4 3c 3f 42 f8 3c 2f 15 e2 bc
       -0.029427128 0.024032127 0.030305026 -0.027597992
0003c0 53 9a cc 3c f4 22 3e bd bb 04 33 3d e6 06 63 3d
       0.024975931 -0.046420053 0.043705683 0.0554265
0003d0 45 e4 a5 bc 94 26 86 bc bc 61 f3 bc ae 51 ca bc
       -0.020250449 -0.016375817 -0.02970969 -0.024697151
0003e0 eb 19 fd bc f8 8b 9f 3b 6f 78 7f bd fe 9f ce 3c
       -0.030896148 0.0048689805 -0.062370714 0.025222775
0003f0 50 47 31 3d 36 de 24 3d 67 ca 23 bd 37 e4 25 bc
       0.0432809 0.04025098 -0.039987948 -0.010125211

fc.bias f4 [10]
000000 6d 2b 6f bd ef 58 99 3d 78 fd d5 bc c3 b7 41 bd
       -0.058391023 0.07487666 -0.02612184 -0.04729439
000010 d8 b6 4a bd 3c d3 10 3d 2c 73 1a bd 06 23 f5 3c
       -0.04949078 0.0353577 -0.037707493 0.029923927
000020 d8 87 3a bd a7 57 c1 3a
       -0.045539707 0.0014750854

momentum_buffer f4 [10, 1, 5, 5]
000000 05 66 45 bc 85 f7 1d bc d4 cd 67 bc 2e 61 9f bc
       -0.012048249 -0.009641533 -0.014148194 -0.019455519
000010 d1 5f 84 bc bf 40 cc bc 9a b0 e0 bc 82 ba e8 bc
       -0.01615897 -0.024933217 -0.02742796 -0.028409246
000020 64 b0 94 bc 57 ce 72 bc 5e fc d4 bc ca 17 bd bc
       -0.018150516 -0.014819703 -0.025999244 -0.023082633
000030 2c af a9 bc 6d e7 47 bc 38 95 0e bc 22 19 bf bb
       -0.020713411 -0.012201172 -0.008702569 -0.0058318535
000040 1e f6 91 bb f9 3c 08 bb 8f 66 ea ba 86 5a cc 3b
       -0.0044543883 -0.0020788296 -0.0017883348 0.006236377
000050 ec fc 93 3b d6 4d 71 3b 1c dc df 3b a2 e9 2c 3c
       0.0045162346 0.0036820075 0.006831659 0.010553749
000060 0d 92 a3 3c 2a 73 5a bc 99 94 40 bc 75 11 00 bc
       0.019967103 -0.013333121 -0.011754178 -0.007816662
000070 8a e0 08 bb 74 f4 1e bb 6a 5f 8e bb f6 9a 81 bb
       -0.0020885789 -0.0024254592 -0.0043448703 -0.0039552404
000080 5f 72 1c bc 5a c7 22 bc d2 dc 66 bb e4 41 bb 3a
       -0.009548753 -0.009935224 -0.0035226834 0.0014286605
000090 34 99 f2 bb 90 78 2c bc 20 81 d5 ba de 7d 61 3b
       -0.007403517 -0.010526791 -0.0016289093 0.0034407298
0000a0 70 36 d2 3b 24 34 b0 3a 92 87 23 bc f8 5a f4 ba
       0.006415181 0.0013443273 -0.009981053 -0.0018642833
0000b0 88 8c 60 3b e0 05 3a 3c 6a f8 f4 3b d6 24 e2 3b
       0.003426345 0.01135394 0.0074759023 0.006901364
0000c0 de 1b 6c 3a 34 65 2b 3c 0e bb db 3b 0e 20 ba 3c
       0.0009006838 0.01046114 0.0067056483 0.022720363
0000d0 47 e9 0c 3d 5a ff 17 3d f6 f9 cc 3c 1c dc 51 bc
       0.034402158 0.037108757 0.025021534 -0.012808826
0000e0 86 f5 84 bc e0 8e 82 3c 68 73 84 3b e0 03 c3 b7
       -0.016230356 0.015937269 0.004042078 -2.3247616e-05
0000f0 fa 96 fd bc a6 27 d0 bb 16 48 c7 3b d4 9a 31 bb
       -0.03095578 -0.0063523827 0.0060815914 -0.0027100341
000100 ee b5 f0 3a 70 4c 3f 3a 78 8c 8f 3c 62 b4 8d 3c
       0.0018364766 0.0007297462 0.017523035 0.017297927
000110 b6 dc a6 bb 90 c8 b2 3b a4 6a b7 3c 1e 13 94 3c
       -0.0050922288 0.005456038 0.022389717 0.018075522
000120 1c 7c 82 3c 17 88 89 3c 68 99 f0 3c 12 74 0f 3b
       0.01592832 0.016788526 0.029370025 0.0021889252
000130 08 39 da 3a 40 6e 6f 39 d8 77 84 3b 3e be 4d 3b
       0.0016649077 0.00022833887 0.004042607 0.003139391
000140 7b 4e 03 3c f6 45 11 3c dc 7f 25 3b 7a ab 92 3c
       0.008014317 0.008866778 0.0025253212 0.017904032
000150 c0 cc b5 3c ac 67 03 bb 74 3d be 3b de b3 43 3c
       0.022192359 -0.0020050807 0.0058056656 0.011944739
000160 28 0b 81 3c ae 56 a2 3c 38 f4 5f bb 74 43 23 3c
       0.01575239 0.019816723 -0.0034172665 0.009964813
000170 6a a4 4b 3c 37 05 1c 3c e1 94 96 3c 1d 8e 42 3c
       0.012429336 0.009522728 0.018381538 0.011874703
000180 16 3f 2d 3b c8 f2 2b 3c fe 5c 9a 3c ae 74 a8 3c
       0.0026435307 0.010494895 0.01884317 0.02056345
000190 67 8c 7a bb 78 b2 ae 3c b5 01 50 3d 65 11 a3 3d
       -0.003823066 0.021325335 0.050782878 0.07962302
0001a0 57 fe ae 3d 1d cd ac 3c 88 fe 43 3d b6 f9 93 3d
       0.08544605 0.0210939 0.04785016 0.07225363
0001b0 4d ae bc 3d d3 ba c6 3d 27 05 4a 3c d8 87 01 3d
       0.09212933 0.09703603 0.01233033 0.03162369
0001c0 19 e0 5e 3d b1 2c 85 3d 2e ae 70 3d 8f fe df bc
       0.054412935 0.06502665 0.05875986 -0.027343063
0001d0 5f 4f 6c bc f0 e1 37 3a 43 26 28 3c a8 8f 5d 3c
       -0.01442322 0.00070145633 0.010263029 0.01352302
0001e0 e5 00 bb bc 3b e5 88 bc 31 f7 77 bc c2 5c 84 bb
       -0.022827575 -0.016710868 -0.015134619 -0.004039378
0001f0 28 9a 65 3c 82 99 cc bc e0 94 22 bb 98 15 8a 3c
       0.0140138045 -0.024975542 -0.0024807975 0.016856
000200 bf ac 00 3d 15 de 69 3d 32 40 15 bd 62 9d 9f bc
       0.031414744 0.05709656 -0.036438175 -0.019484226
000210 ae 8f 1b bc e1 29 11 3c 55 67 07 3d 28 70 91 bc
       -0.009494705 0.008860082 0.03305753 -0.017753676
000220 35 d0 45 bc dc c8 52 bb f3 ff 6d 3c 23 3b 80 3c
       -0.012073566 -0.0032163179 0.014526355 0.015653199
000230 9c 4f 00 3c 0d dc c9 3b 0f 09 c7 3b 00 72 21 3b
       0.00783148 0.0061602653 0.006074078 0.00246346
000240 6c fc 8c 3b ec 91 b5 ba 02 60 b3 bb d0 b1 0b bc
       0.004302552 -0.0013852692 -0.0054740915 -0.0085262805
000250 48 30 d4 ba 8e a0 cb bb a7 e5 39 bc 44 3c 29 3b
       -0.0016188705 -0.006214208 -0.011346257 0.0025823275
000260 6c 9e 0c 3d f0 01 1e 3d 72 c8 f2 3c 34 a1 9b bc
       0.03433077 0.038576066 0.029636595 -0.018997766
000270 f2 94 88 3b 5a fa 7e 3c 61 6e 16 3c fa 05 ee 3b
       0.0041681463 0.015562618 0.00918159 0.007263896
000280 41 14 31 bd ea a0 09 bd ea 41 bb bc e6 5c c8 bc
       -0.043232206 -0.033600725 -0.022858579 -0.02445836
000290 25 67 8d bc 12 cd 6a bd ef 71 85 bd 1c 18 44 bd
       -0.017261097 -0.057324477 -0.06515872 -0.047874555
0002a0 b9 df 63 bd 74 b1 18 bd cc 40 96 bd 27 ce 99 bd
       -0.05563328 -0.037278607 -0.07336578 -0.075100236
0002b0 51 93 6a bd 5f 4b 06 bd 44 80 5f bc 91 ac 7a bd
       -0.057269398 -0.032786723 -0.013641421 -0.06119973
0002c0 0c c6 8c bd 6a e4 a2 bd d4 80 bc bd a4 95 b1 bd
       -0.06873712 -0.07953723 -0.092042595 -0.0867112
0002d0 fe 53 8e bd 96 a3 a2 bd 6a d4 ac bd 14 29 cb bd
       -0.06949614 -0.07941358 -0.08438952 -0.099199444
0002e0 b6 81 a4 bd 30 93 40 bd 3a 53 53 bd f6 b0 81 bd
       -0.08032553 -0.04701537 -0.051593043 -0.06332581
0002f0 6b 54 73 bd 8f a5 4b bd b4 0b 67 bb 02 17 99 bc
       -0.05940668 -0.049718436 -0.0035254778 -0.018687729
000300 73 29 aa bc 1c 4a 71 bc 90 50 3e bc a8 06 a6 3c
       -0.020771718 -0.014727142 -0.011615887 0.020266846
000310 7c f4 97 3c 29 a5 89 3c 89 37 78 3c 0a 43 ef 3b
       0.018549196 0.016802387 0.015149959 0.007301693
000320 c5 9a 47 3c 9e e5 04 3c 41 72 ea 3b 2c d1 45 3b
       0.012182896 0.008111386 0.0071547334 0.003018449
000330 9e 04 12 bb f8 44 22 3c 22 7a fd 3b 91 8d cd 3a
       -0.0022280584 0.009904139 0.0077355066 0.0015682449
000340 ae 0f 9f 3a 96 1d 86 bb e8 3f ec 3b 8c c1 34 3b
       0.001213541 -0.0040928824 0.0072097667 0.0027581183
000350 bc 76 e1 3a 72 d6 04 3a 97 38 de bb 92 5e c6 3b
       0.0017201523 0.0005067355 -0.0067816484 0.006053754
000360 08 a0 55 3b a0 b2 fb ba c9 64 a2 ba 24 b6 ec bb
       0.0032596607 -0.0019203015 -0.0012389655 -0.0072238613
000370 8c f1 6e ba 1c ed 98 bb 88 ea 40 bc ed 76 bd bb
       -0.0009114973 -0.0046669375 -0.011774667 -0.0057819993
000380 79 19 4d bb 6a 8d 9b 3b 64 be 49 3c 74 e5 c9 ba
       -0.00312957 0.0047470825 0.012313459 -0.0015403465
000390 6c cb 19 3b 68 0d 7e ba db bd 6c bc f5 e3 81 bc
       0.0023467196 -0.0009691329 -0.014449562 -0.015855769
0003a0 31 b0 f9 bb 35 50 73 bb b3 d8 26 bc be f4 71 bc
       -0.0076198806 -0.0037126665 -0.010183501 -0.014767824
0003b0 0c ef 25 bb 64 1f f6 3b f7 38 86 3a 14 39 5a bc
       -0.0025319485 0.0075110663 0.0010240366 -0.013319273
0003c0 22 fd 38 bc bc e5 33 3c fd e7 3f 3c 13 69 20 bc
       -0.01129082 0.010980066 0.011713025 -0.009790677
0003d0 aa 99 50 bc 64 98 38 ba d8 86 46 3c 87 bd 8c 3b
       -0.012731949 -0.0007041751 0.01211711 0.0042950544
0003e0 b6 b0 6b 3b 96 74 a3 3a
       0.0035963482 0.0012470658

momentum_buffer f4 [10]
000000 ab 47 09 bc 68 44 80 ba 3a b6 6a 3c 95 b5 55 3b
       -0.008378903 -0.0009786012 0.014325673 0.0032609452
000010 0e 87 a3 3c 0e 56 07 3c b0 82 bd bc a0 4c 30 bd
       0.01996186 0.008260263 -0.023133606 -0.043041825
000020 6d bf 35 bb 86 52 9a ba
       -0.0027732507 -0.0011773861

momentum_buffer f4 [20, 10, 5, 5]
000000 02 84 e6 b9 b6 b8 a4 ba 85 61 db ba f8 6d 96 3b
       -0.00043967372 -0.0012567255 -0.0016737437 0.004590746
000010 8b 70 30 3c 74 31 b2 ba ba 67 18 3c e0 70 7f 3c
       0.01076902 -0.001359506 0.009302074 0.015590876
000020 15 b5 76 3c a4 09 0c 3c 80 a2 fe 3a 60 4f 81 3b
       0.015057822 0.00854722 0.0019427091 0.00394623
000030 0b 8e c4 3b 60 fe 14 3b 0e 6c 4c 3b b2 90 0a 3b
       0.005998378 0.0022734627 0.0031192335 0.0021143374
000040 55 b6 0e 3b 62 91 02 3c 91 e8 5b 3c 1a f7 0a 3c
       0.0021776159 0.007969232 0.013422147 0.008481765
000050 62 f3 41 3b fe ca 14 3c 63 8d 85 3c 5a 33 78 3c
       0.002959453 0.0090816 0.01630277 0.015148962
000060 3c ea 3e 3c d0 14 23 b9 0f 4b 60 3b ba 36 48 3c
       0.0116525255 -0.00015552645 0.0034224426 0.012220079
000070 9e 27 59 3c 9f 4d 38 3c 20 b7 5f bb c6 c9 e0 3b
       0.013254074 0.011248975 -0.003413625 0.006859991
000080 a0 a0 0b 3d ea 92 2b 3d fc 55 d6 3c a0 fc a2 38
       0.03408873 0.041888155 0.026164047 7.771817e-05
000090 c0 57 cb 38 57 b6 80 3c a9 84 0a 3d 2b 40 fa 3c
       9.696139e-05 0.015711946 0.03381792 0.030548176
0000a0 b2 d2 46 3b de b5 b6 bb e3 d5 77 bb ac 82 c9 3b
       0.0030337987 -0.0055758795 -0.0037816695 0.0061496105
0000b0 d1 52 77 3c 6a ee 39 3c d5 dd 30 3c 14 74 95 3c
       0.015095429 0.011348346 0.010795076 0.018243827
0000c0 e6 c1 fb 3c d5 80 bc 3c 40 cf 5d bb e4 bc 16 bb
       0.030732106 0.02301065 -0.0033845454 -0.0023000771
0000d0 52 ea 8e 3c 4d fb 51 3d 87 7f ae 3d 39 c2 b6 bb
       0.017445717 0.05126505 0.08520418 -0.0055773524
0000e0 8a f8 7f bb 5c b6 9d 3c c5 53 98 3d 60 a1 db 3d
       -0.0039058053 0.019251995 0.07437853 0.10724139
0000f0 6d 70 eb 3b d2 a8 45 3b 76 3e a6 3b 24 5f 2e 3d
       0.007185033 0.003016044 0.005073364 0.042571202
000100 e3 f8 9f 3d f3 a4 a4 3c 48 c0 33 3c 4c 68 41 3c
       0.07811143 0.020098185 0.010971136 0.0118046515
000110 23 38 2e 3d 49 3e 99 3d 43 58 1a 3d 48 a9 7a 3d
       0.042534005 0.07482583 0.03768183 0.061196595
000120 72 df 88 3d 8d e8 8f 3d 32 d8 a0 3d ee 79 7f 3b
       0.06683244 0.070267774 0.07853736 0.0038982588
000130 62 b9 23 3c 5c bc a1 3c 1b f8 d6 3c bc 73 ae 3c
       0.009992929 0.019743137 0.026241353 0.02129542
000140 62 ed cb 3b dc 99 94 3a e3 76 3d 3c ca 15 c4 3c
       0.0062233666 0.0011337358 0.011563989 0.023936171
000150 24 d9 67 3c 2f 5c 0a 3c 9c 85 e9 3b 64 49 8c 3c
       0.014150891 0.00844483 0.007126523 0.01712484
000160 33 e6 f8 3c f7 ce c9 3c 42 f1 08 3c f0 87 5d 3c
       0.030383205 0.024634821 0.008358302 0.01352118
000170 78 fb 55 3c c6 05 c9 3c b7 9f 89 3c 9f 49 93 3c
       0.013060443 0.024538886 0.01679979 0.017979441
000180 9f 7e 2e 3c da c1 42 3b 6e 52 30 3c 37 88 ff 3b
       0.010650306 0.0029717595 0.01076184 0.0077982205
000190 fc 9c 3b bb 2d a0 1d 3b b6 bf fa 3c 0c a7 9e 3d
       -0.0028627506 0.002405177 0.030608993 0.077467054
0001a0 01 39 c2 3d d4 74 1a 3c f4 e7 3f 3b 5a 75 7f 3c
       0.09483529 0.009427268 0.0029282542 0.015591944
0001b0 09 4a 86 3d b6 8c b8 3d 7a 24 b7 3c 8a 52 e2 3b
       0.0655709 0.090112135 0.02235626 0.006906812
0001c0 92 cc e5 3b ee 05 4a 3d 2f 3c b6 3d a4 f7 01 3d
       0.007012912 0.04932206 0.08898198 0.03173031
0001d0 f2 c0 02 3d e3 6b dd 3c 1b f3 84 3d 33 a7 c1 3d
       0.03192229 0.027028983 0.06491681 0.09455719
0001e0 b5 92 47 3d 5e e4 61 3d a4 e3 f1 3c e0 c1 36 3d
       0.048723895 0.05514943 0.029527493 0.044618487
0001f0 c7 b0 62 3d ff 60 50 3b a8 84 92 3c 7c 12 4f 3d
       0.05534437 0.0031796095 0.017885521 0.050554737
000200 d5 93 96 3d 31 24 a6 3d c7 37 07 3b 92 6a e6 bb
       0.073524155 0.08112372 0.002063261 -0.007031747
000210 74 6c 00 3d 95 ab 81 3d c6 c8 b3 3d 96 e6 a7 3c
       0.03135343 0.06331555 0.08778529 0.020495694
000220 3d e3 2c 3c 42 fd 0d 3d 7b df a5 3d f1 c9 bd 3d
       0.010552225 0.034665354 0.08099266 0.09267033
000230 bd d4 0b 3d 20 ec 08 3d 76 b5 bf 3c 1a 12 77 3d
       0.03413843 0.03342831 0.023401957 0.060319997
000240 aa 83 90 3d dc 40 45 3d ee 84 3a 3d 82 33 25 3d
       0.07056363 0.048157558 0.045536928 0.040332325
000250 3e 58 40 3d 40 78 35 3d d5 54 ab bb 10 a4 3b ba
       0.046959154 0.044304132 -0.0052286186 -0.0007157931
000260 db 6a a6 3c 86 1c 85 3d 23 04 d3 3d 52 ca a4 3b
       0.020314625 0.06499581 0.103035234 0.0050290013
000270 6a 49 2d 3a 13 47 35 3c 93 3d 3c 3d 4b 8d a9 3d
       0.0006610366 0.011064309 0.04595716 0.082789026
000280 56 10 d2 3c 94 33 9b 3c bf 67 87 3b fe 2c c8 3c
       0.025642555 0.018945493 0.0041322405 0.024435516
000290 8e f3 80 3d cf a2 1b 3d e4 42 64 3d f2 a3 86 3d
       0.06296454 0.037997063 0.055727854 0.06574239
0002a0 a6 25 a4 3d ed e4 b7 3d 98 4c 2d 3d 54 26 6e 3d
       0.08014993 0.08979211 0.042309374 0.05814202
0002b0 df b7 46 3d d6 33 7c 3d 6a ee 6b 3d bc 06 7d bc
       0.048515197 0.061572872 0.057600416 -0.0154435
0002c0 77 ff 22 bc 43 e1 1f bb 08 a2 1a 3c 1a 2a 00 3d
       -0.009948603 -0.002439574 0.009438045 0.03129015
0002d0 9c 97 fd bb 86 e4 d0 3b bc 75 41 3d a4 66 92 3d
       -0.0077390205 0.0063748984 0.04723142 0.071484834
0002e0 4b d7 69 3d c0 08 ca ba 10 30 98 3a f0 c3 c1 3c
       0.057090085 -0.0015413985 0.0011611003 0.023653
0002f0 8a 6f 5d 3d 5f ab 7d 3d b4 39 de 3b d6 64 de ba
       0.05406145 0.06193101 0.006781781 -0.0016967307
000300 54 1e 5e bb 40 8e 3a 3c 1c e0 1f 3d c9 3d 99 3c
       -0.0033892589 0.011386454 0.039032087 0.01870622
000310 6a 87 eb 3c f6 07 41 3d 1c 8e 88 3d 0f 16 95 3d
       0.028751094 0.047126733 0.0666773 0.07279598
000320 d6 bc 84 3b 63 27 0a 3c d0 6a 96 3b da 32 1a bb
       0.0040508313 0.008432242 0.0045903698 -0.0023528845
000330 98 0f b5 b8 4e 35 27 3b 3c 81 c7 3b e0 8e aa 3b
       -8.633657e-05 0.002551395 0.006088404 0.0052050203
000340 fc ed ec 38 c2 c7 63 bb 1a 50 dd 3a cd 27 4d 3b
       0.00011297685 -0.0034756516 0.0016884834 0.003130424
000350 e2 b4 aa 3b 98 cf 74 3b 50 e7 38 b9 f4 d1 cc 3a
       0.005209551 0.003735518 -0.00017633778 0.0015626536
000360 18 e3 58 3b 32 55 86 3b 90 fc 13 38 35 b1 97 ba
       0.0033094343 0.0040995115 3.528275e-05 -0.0011573198
000370 cd dd 13 3b 92 2a 2c 3a ef 3a 1d 3b cb 55 45 39
       0.0022562623 0.0006567623 0.0023991426 0.00018819344
000380 1c 14 64 ba 5c 45 d1 39 a0 bd a6 3b b7 91 77 3c
       -0.00087005063 0.00039915263 0.005088523 0.015110425
000390 63 df 99 3c 29 79 12 3d 94 10 af bb e0 f0 2f b9
       0.018783277 0.03576008 -0.0053425524 -0.00016779033
0003a0 5b 83 8d 3c b6 65 f7 3c 7a 8b 34 3d 79 1b a7 3b
       0.01727455 0.030199867 0.044078328 0.0050997105
0003b0 23 1b 03 3c 3c 35 b0 3c de 8b dd 3c 5a d2 08 3d
       0.008002075 0.02150976 0.027044233 0.033403732
0003c0 15 e4 3e 3b d4 93 2a 3b 48 84 26 3c 13 5d 90 3c
       0.0029127647 0.0026028054 0.010163374 0.017622506
0003d0 6e 02 9a 3c e1 9b 7e 3c 5e f1 6c 3c e1 b4 90 3c
       0.018799987 0.015540094 0.014461843 0.017664375
0003e0 fa 73 ef 3c 6c 3b f1 3c 0e 24 f4 3a 78 b4 08 bb
       0.029230107 0.02944728 0.0018626468 -0.002085952
0003f0 2e 4a 39 bb e6 99 35 bb 4a cc bf ba e2 be 52 3a
       -0.0028272974 -0.0027710139 -0.0014633026 0.0008039308

momentum_buffer f4 [20]
000000 b6 78 92 3c 18 57 45 b9 7e ac cb 3b f4 26 af 3b
       0.017879825 -0.00018819829 0.006215631 0.0053452197
000010 ee 05 99 ba e9 86 34 3c f8 01 f2 3a 24 5d 88 3c
       -0.0011674741 0.011018493 0.0018463721 0.016645975
000020 a8 77 34 3c ef 9f 64 bc 85 97 03 3b 12 fe 51 3b
       0.011014856 -0.013954147 0.0020079326 0.0032042307
000030 77 dd 53 3b d8 88 15 3b 85 47 2a 3b b0 0d ad 3b
       0.0032328048 0.002281716 0.002598257 0.0052811727
000040 5e 6b fe bc 1c 9d c8 3b 01 ce 2c bb 6a cb 45 b9
       -0.031057056 0.0061222445 -0.0026367905 -0.00018863162

momentum_buffer f4 [10, 320]
000000 02 bc 61 bc 0d b9 0c 3b 88 c3 50 bb b4 cf f3 bb
       -0.013777735 0.0021472604 -0.0031854827 -0.0074405316
000010 cc 30 55 bc a6 3f d7 3b da 35 64 bc ec 7f 48 bc
       -0.013012122 0.006568867 -0.013928855 -0.01223753
000020 be 9d 3e bc 53 fd d3 3b a8 4d 27 bc 24 fd 8f bb
       -0.011634288 0.0064694076 -0.010211386 -0.0043941904
000030 88 41 23 bc 55 25 30 bb f2 49 25 bb e0 53 05 ba
       -0.009964354 -0.002687772 -0.0025221077 -0.0005086046
000040 21 07 eb ba 31 2d 2b bb c0 80 81 b8 5c 6e 99 39
       -0.0017931202 -0.0026119465 -6.175181e-05 0.00029264658
000050 70 bc c0 b8 bc e9 0d bb a0 ea 51 3a cb 07 ef ba
       -9.190373e-05 -0.002165421 0.0008007679 -0.0018236575
000060 06 40 67 ba f3 6b 98 bb 99 a2 e0 ba de c9 aa ba
       -0.0008821491 -0.0046515404 -0.0017138302 -0.0013030132
000070 56 5a fe ba ee 54 0e bc 3c 87 4f bb 40 e6 99 37
       -0.0019405584 -0.008687241 -0.00316663 1.834624e-05
000080 ca 3a 82 bb aa 0d 63 bb 33 04 bb bb a8 f7 5c bb
       -0.0039742934 -0.0034645596 -0.0057072877 -0.003371695
000090 d3 83 c8 bb a8 e7 d9 b9 a6 79 69 bb 4b 80 9b bb
       -0.0061192303 -0.00041562063 -0.0035625487 -0.0047455183
0000a0 1e dc 05 bc 06 1d 14 3b 00 ad a7 ba 1a 10 49 bb
       -0.008170156 0.0022600307 -0.0012792647 -0.0030679763
0000b0 a8 cd 18 bc 1c 25 aa bb a8 1e ab bb 0b bf cd bb
       -0.009326376 -0.005192412 -0.0052221604 -0.0062788776
0000c0 1f f1 82 bc 4e a9 40 bc 17 23 59 3b af 1a 82 ba
       -0.015984116 -0.011759115 0.0033132487 -0.0009926165
0000d0 62 ae 92 bc 83 16 05 3b 2a bf 2f bb d9 08 3c bc
       -0.017905418 0.0020307607 -0.0026816824 -0.011476719
0000e0 3f 84 5d bc 42 10 f0 3b 0a cc 5a bc d4 d3 92 bc
       -0.013520299 0.007326157 -0.013354311 -0.017923273
0000f0 06 ef b5 bb 72 b4 3c 3b 9a 57 6d bc 7c af c0 bb
       -0.0055521755 0.0028794077 -0.014486218 -0.0058802944
000100 09 6a 28 39 10 16 94 bb cb 79 c7 bb 5e fe b4 3a
       0.0001606123 -0.0045192316 -0.006087517 0.0013808717
000110 25 c5 0a b9 bb 40 2e bc 87 c7 ac bb 14 a2 48 3b
       -0.00013234148 -0.01063555 -0.005272809 0.0030614184
000120 e0 b3 bb ba 08 87 19 bc 30 51 c2 3a 5e f9 cb ba
       -0.0014320575 -0.009370573 0.0014825221 -0.0015561988
000130 07 c3 5c ba dc 1e 0a ba 29 f0 5a 3b be aa fd bb
       -0.00084213953 -0.00052688806 0.0033407307 -0.0077413013
000140 e2 be 78 3a d2 66 a9 bc 4d 72 82 bc f0 27 78 3a
       0.0009488893 -0.020678911 -0.015923643 0.00094664004
000150 43 75 9c bb 6b 43 de bc 74 6d b7 bb d4 85 de 3a
       -0.004774721 -0.027131757 -0.0055977646 0.001697714
000160 25 64 3d bc 06 ae b0 bc 6d 47 e1 3b 40 6a 16 bc
       -0.011559521 -0.021567356 0.0068749697 -0.009180605
000170 b9 aa 93 bb 0a e1 21 bb a0 82 26 ba 2d 00 8f bc
       -0.0045064357 -0.0024700784 -0.0006351862 -0.017456139
000180 82 03 87 bb 54 fd 4f bb 2a bd 38 bc 24 bb cb bb
       -0.004120291 -0.0031736689 -0.011275569 -0.0062173773
000190 b8 73 93 bb 44 15 bd 3a d9 9c 01 bc 3c 73 81 bb
       -0.0044998787 0.0014425893 -0.007910931 -0.0039505046
0001a0 6a 30 e4 bb 54 23 de 3a 38 4c 24 ba c0 12 3d ba
       -0.006963779 0.0016947784 -0.0006267461 -0.0007212572
0001b0 38 b5 62 bc f4 cf 68 bc 52 f6 6c bb f2 f5 5d bb
       -0.013837151 -0.014209736 -0.003615756 -0.0033868519
0001c0 6c 29 41 39 d0 16 b3 bc 72 fe 31 bc 4c 5d 86 3b
       0.00018421345 -0.021861464 -0.010863887 0.0041004773
0001d0 2e 3c fb bb 7b e2 bd bc 86 ca 20 3a 00 fc f0 b9
       -0.007667086 -0.023179283 0.0006133694 -0.00045964122
0001e0 3a c9 d7 bb f1 f0 38 bc 52 2d c0 3b 22 7b 31 bc
       -0.0065852674 -0.011287914 0.0058647776 -0.01083258
0001f0 d4 b9 89 bb 10 c6 35 b9 65 59 cd bb 8e 68 73 bc
       -0.0042030606 -0.00017335289 -0.00626676 -0.014856471
000200 37 64 2b bc 16 05 6d 3b cc 7c 95 ba ae e4 23 bb
       -0.010460905 0.0036166362 -0.001140499 -0.002500813
000210 e4 f9 b3 bb e0 05 24 3b 5d ef 3f bc 71 46 b6 bb
       -0.005492436 0.0025027916 -0.0117147835 -0.0055625965
000220 86 10 7d 3b b3 cb 15 bb ab 5e 85 bc 30 bf 1a bb
       0.0038614585 -0.002285701 -0.016280493 -0.0023612492
000230 d8 c1 d9 3a e2 9a be b9 c6 22 a0 b9 9d bc df b9
       0.0016613556 -0.0003635502 -0.00030543486 -0.00042674402
000240 ed 3e 2e bc 85 c7 77 3b f4 13 37 bc 4e ac fe bb
       -0.01063512 0.0037808132 -0.011174191 -0.007772005
000250 a6 5d a9 bb 76 c0 d8 ba 98 78 8d bc 88 92 38 bc
       -0.0051686345 -0.001653685 -0.017269418 -0.0112654045
000260 90 aa 87 39 c3 88 21 bc 2d 8f 8a bc aa 6b 88 3a
       0.00025876286 -0.009859267 -0.016913975 0.0010408063
000270 dd 3d 20 bb bf d4 01 3a d9 83 55 3b 83 5f 90 bb
       -0.0024450936 0.0004952661 0.0032579808 -0.004405917
000280 37 07 8f 39 4b be df ba 62 84 96 38 3e 98 f2 b9
       0.0002728046 -0.0017070262 7.1772156e-05 -0.00046271266
000290 ad 5c f0 38 c5 88 2e bb 92 f3 a5 39 b2 3b bf ba
       0.00011461354 -0.0026631814 0.00031652726 -0.0014589934
0002a0 80 a7 31 ba 0c 27 59 bb f6 67 0f 3a ab 95 4a bb
       -0.00067769736 -0.0033134846 0.00054705085 -0.0030911963
0002b0 33 a1 5c ba dc 0d 4b bb 4a ef ec ba c0 40 29 bb
       -0.00084163545 -0.0030983603 -0.0018076685 -0.0025825948
0002c0 fc 10 f5 35 5f 7d 38 38 5c 4e e2 ba 99 d6 b0 ba
       1.8258866e-06 4.398578e-05 -0.0017265785 -0.001349169
0002d0 aa 1a 20 35 c8 db c9 b9 26 b8 2e ba 09 83 9d 39
       5.9643446e-07 -0.00038501457 -0.00066650135 0.00030043002
0002e0 ba 31 04 36 0e 4c e8 b9 17 34 84 38 7d b2 4c 3a
       1.9698477e-06 -0.00044307153 6.303953e-05 0.0007808579
0002f0 66 c9 07 38 05 47 9b 39 aa 37 94 3a 66 fd 78 ba
       3.2374075e-05 0.00029616817 0.0011308093 -0.00094982085
000300 9f 1c a8 bb ee 4b 86 bb de 92 18 bc 02 70 2f bc
       -0.005130365 -0.004098407 -0.00931236 -0.010707857
000310 fd 56 df bb ce 78 1e bc 78 69 61 bb d8 c8 81 bb
       -0.0068157897 -0.009672357 -0.003439514 -0.00396071
000320 c0 5c 7f bc f6 a0 95 bc 60 6b 8f ba 04 d8 e4 3a
       -0.015586078 -0.018265229 -0.0010942034 0.0017459397
000330 f8 39 81 bc 92 b2 bf bc e8 ed 7a bb b9 e9 23 bc
       -0.015774712 -0.023400579 -0.0038288776 -0.010004454
000340 d8 cd f8 39 55 04 7d bb cc c7 8e bb be 8a 03 3a
       0.00047455612 -0.0038607318 -0.0043573137 0.00050179276
000350 42 e5 d2 39 16 58 09 bc e9 02 a4 bb c0 24 df 3a
       0.00040225132 -0.008382818 -0.0050052297 0.0017024502
000360 8b 59 15 b9 73 8c 95 bb 7a 9a 19 3a 8c 71 3f 3a
       -0.00014243105 -0.004563862 0.00058595056 0.00073029916
000370 8f 6e 62 38 db fe de 3a ba fb 27 3b 98 66 77 ba
       5.3985565e-05 0.0017013209 0.0025632218 -0.000943759
000380 00 62 0c b6 e0 9c 6f 3a 3a ea 59 bb a6 86 ab ba
       -2.091867e-06 0.00091405027 -0.0033251182 -0.0013086393
000390 e0 22 5c 39 7b 6e 03 bb 42 b5 d0 bb 4c 57 b0 3a
       0.00020993827 -0.0020054865 -0.006369264 0.0013453751
0003a0 c8 71 6b 39 c0 a4 f8 bb af 7f ba bb 2c d8 c5 3a
       0.00022453733 -0.007587999 -0.0056914906 0.0015094331
0003b0 b4 39 3b 38 cf 3f 2e bb 44 42 2f 3a 94 ac 68 3a
       4.4638015e-05 -0.0026588326 0.00066855946 0.0008875814
0003c0 48 ba ae b9 90 5d 99 b9 1d bb 09 bc b0 99 f0 bb
       -0.00033326657 -0.00029252144 -0.008406428 -0.0073425397
0003d0 40 c6 6d 39 e0 3a 6e bb 26 6e f3 ba f8 e8 39 ba
       0.00022675935 -0.003635101 -0.0018572256 -0.0007091905
0003e0 23 1a 9e bb b4 9c 9b bb 91 9a 86 3b e7 13 44 3b
       -0.004824893 -0.004748905 0.004107781 0.002991909
0003f0 3b 23 fe bb 4e ee 77 bc 36 96 86 bb a2 2c f3 bb
       -0.0077556646 -0.0151325 -0.004107262 -0.007421092

momentum_buffer f4 [10]
000000 05 25 11 bb cc 8b b9 38 88 2a 54 bd 00 be be ba
       -0.002214731 8.8475266e-05 -0.051798373 -0.0014552474
000010 56 b6 aa bb 9e bf 2d 3c 4c 70 e1 3a 60 f0 d0 3c
       -0.0052097244 0.010604767 0.0017199605 0.025505245
000020 39 d7 ad 3c b6 b1 c9 3a
       0.02122079 0.0015388045
