oraclebackend/train/non-iid/checkpoint/mnist/ckpt_1_0.pth (torch, 71489 bytes, 12 tensors)

conv1.weight f4 [10, 1, 5, 5]
00000000: 14d0 cebd 7edc ca3d 88fe 7e3e b89e e5bd
00000010: 2c14 853e 6fc7 32be f091 3c3e d966 8d3c
00000020: ba44 f53b e8cd 603d 291a a1bc 0eab edbd
00000030: 8e5c 15be 772b b0bb fa12 e2bd 9404 d3bd
00000040: 62e5 c4bc 3322 98bd a87b 5dbe c9ce 60bd
00000050: cfd6 4bbe ac1a 4ebd 6399 4cbe 0378 0e3d
00000060: 4053 49be 9f64 96bc c950 7e3e 59f0 2e3b
00000070: 4f45 c63d b2ac 603e e89c a2bd 6bc6 433e
00000080: 9f81 9c3e 3f99 113e b784 543e fc05 153e
00000090: a478 9e3e 498c ce3e e69a 9e3e 2d12 913e
000000a0: 1793 d7bd 23f2 083e 6c08 da3d 40b9 4bbd
000000b0: e0ba 613d aad9 7a3e 5722 3c3e 0fcc 833e
000000c0: e956 28be c454 433b 742b 5a3e cc9c b43d
000000d0: 6090 2bbc a131 043e a395 083e 1378 b83d
000000e0: 5806 323e eba0 12bd 7ab9 8e3e 9739 823e
000000f0: 28a1 ddbc 27e8 c4bd 95c7 29be b83a 513d
00000100: afe0 32bb f920 00be 9b49 1a3e e306 0dbe
00000110: 2781 6a3e dab3 003e e79b 62bd 373b 46be
00000120: ec6c 2e3e 996a fcbd d60c 153e 27d2 28be
00000130: be38 39bc c33a e23d e7fc babc 3231 593e
00000140: 96ec 24bd c8eb 19be 5528 4a3d e94b 5f3e
00000150: 5ec0 683e 1756 c63d 3233 ebbc 71bf 25be
00000160: 1c51 23be bf55 4b3e e2dc 21be 8321 7abc
00000170: 4f2c 293e eaa5 a83d d43a 0c3e 3f21 11be
00000180: 20f1 23bd 46aa bebd 437d f0bd 6052 02be
00000190: f4fc 90bd fd65 5d3e 46bd 8c3e 0e78 a13e
000001a0: 459f 413e cd4b 493c fee6 633e 3bc7 133c
000001b0: 660f 813d 5912 463e 7a46 0f3d 465b 5fbd
000001c0: 00a8 6e3e 52cb 123e 3b31 0d3b bd69 eabb
000001d0: bba3 533b 0c4a 4ebe 04ab 943d a127 ffbc
000001e0: ed02 3bbe 9877 31be 6015 95bd 8634 96bd
000001f0: dc72 453e 8b2c f63d 873f 97bd 5c88 233d
00000200: 6f15 02be d693 1c3d d461 24be b157 993d
00000210: 0ace 14bd a8a6 29be 6408 c33d ee1c 0e3c
00000220: 6002 ae3d e6ab bb3d 9264 04be e1de ecbc
00000230: ec85 2e3e 01c9 00be 9846 18bc d8e0 3f3e
00000240: afd2 efbd 0ccf 11be 8f0a d93d dd3c 3d3e
00000250: 943b 8cbd e838 903d bc0a 3a3e f0ea 323d
00000260: e8ca 553e d4c4 803e 6a21 093e 0097 e6bd
00000270: dab9 b1bc ad21 6d3c f0f9 333e 59eb eebd
00000280: 6b5d 0ebd e9ec d93d 2d0b 6a3e 8c88 a6bd
00000290: 69af 00be c3ed 20be 6619 33be cdf4 9abd
000002a0: 7cb0 c8bc c7e2 f1bc 5436 c13c a1e1 47be
000002b0: 5943 ca3d 9693 703e 12d6 6e3e dbce 53be
000002c0: 205d 24be e9e4 9e3c f11e 473e 162e 01be
000002d0: 0cd0 2fbe 8363 f13d 601b 363c 453b f43d
000002e0: bb47 acbd 7cd0 773e d8ac 073e 157b d0bd
000002f0: 49e5 9fbd 8a60 4abe 2638 6b3e 27a1 94bd
00000300: 3288 403d 974e b43c 395c 10bd 7864 913e
00000310: 6253 873e b56a f23d 778e 4a3e 6f97 8a3d
00000320: fee2 f03d 0017 493e 7aa1 04bd 0243 ec3d
00000330: e3d4 43be 70ce d63d 8b75 d73d cea0 0dbe
00000340: ff3f a03d 5306 df3b a81f afbc 3eea 883e
00000350: d4be b6bd 7551 0abe 5980 60be de0a 99bd
00000360: a14f 943e 30e0 383e 94d7 6abc 5820 b83c
00000370: 38f9 0e3e 9047 e43d 842c 263e 54d1 cf3d
00000380: fc78 d43d 1427 c7bd 2eb3 d83d 9ce9 8bbd
00000390: 72ef c5bd a9c0 9f3d 9ec0 71bc 1f1b 2ebd
000003a0: 0a31 7dbd a507 60bc dbc9 d23c ce64 98bc
000003b0: c1d9 26bd f6c9 bdbd 2bcf 043e 5f82 fc3d
000003c0: e27c b6bd 9881 32be 7bf8 acbd 120c 23be
000003d0: bcb1 78bd 976c ee3d ab8a 08be 12f2 e5bd
000003e0: 4181 1b3e dd84 0f3e
-0.100982815 0.09905337 0.24901783 -0.11211914 0.25991952 -0.1745889 0.18415046 0.017260956
0.0074849995 0.054883868 -0.019665794 -0.11604892 -0.14586088 -0.005376275 -0.11038776 -0.103036076
-0.02403516 -0.07428398 -0.21629202 -0.054884706 -0.19906162 -0.050318405 -0.19980387 0.03478242
-0.19660664 -0.018358527 0.24835505 0.0026693551 0.09681188 0.21940878 -0.07940084 0.19118659
0.30567643 0.14218615 0.20753752 0.14553064 0.30951416 0.40341404 0.30977553 0.2833418
-0.10526102 0.13373618 0.106461376 -0.049737215 0.05510986 0.24497095 0.18372475 0.25741622
-0.16439404 0.0029805163 0.21305639 0.08818969 -0.010471433 0.12909557 0.13338332 0.09007277
0.17385232 -0.035797995 0.27875882 0.25434563 -0.027054384 -0.09614592 -0.16580041 0.05108139
-0.0027294566 -0.12512578 0.15067141 -0.13772158 0.2290083 0.12568608 -0.05532446 -0.19358526
0.17033738 -0.123250194 0.14555678 -0.16486417 -0.011305032 0.11046364 -0.022825671 0.21210173
-0.04026469 -0.1503135 0.04935487 0.21806301 0.22729632 0.09684389 -0.028710935 -0.1618631
-0.1594891 0.19856928 -0.15806916 -0.015266779 0.16520809 0.082347706 0.13694316 -0.14172839
-0.040024877 -0.09309821 -0.11742642 -0.12726736 -0.07079497 0.21620937 0.27488154 0.31536907
0.18908413 0.012286139 0.22256085 0.009019668 0.06301765 0.19342937 0.03497932 -0.054530405
0.23306274 0.14335373 0.0021544236 -0.0071537183 0.0032293636 -0.20145434 0.07259181 -0.031146826
-0.18262835 -0.17330778 -0.072794676 -0.07334237 0.19282097 0.12020215 -0.07385164 0.039924964
-0.12703489 0.038226925 -0.16052943 0.07487429 -0.036329307 -0.1656748 0.09523085 0.00867389
0.08496547 0.091636464 -0.1292899 -0.02891487 0.17043275 -0.12576677 -0.009294175 0.18738115
-0.117101066 -0.14239138 0.10597717 0.18480249 -0.06847301 0.07042104 0.18168157 0.043681085
0.20878184 0.25150168 0.13391653 -0.1125927 -0.021695066 0.014473361 0.17575812 -0.11665983
-0.03475706 0.1064089 0.22855826 -0.08131513 -0.12566914 -0.15715699 -0.17490157 -0.07566223
-0.024498217 -0.029527081 0.023585476 -0.19519664 0.09876127 0.234938 0.23323849 -0.20684378
-0.1605115 0.019396262 0.19445397 -0.12615237 -0.17169207 0.117865585 0.011114925 0.11925367
-0.08412119 0.24200624 0.13249528 -0.10179726 -0.078074045 -0.19763389 0.22970638 -0.072573
0.047004886 0.02201013 -0.0352442 0.28396964 0.26430804 0.11836759 0.19780909 0.06767165
0.11762045 0.1963768 -0.03238056 0.11536218 -0.19124179 0.104885936 0.105204664 -0.13830873
0.07824706 0.006806174 -0.0213774 0.26741213 -0.08923116 -0.13507636 -0.21923961 -0.07472776
0.28967002 0.1805427 -0.014333624 0.02247636 0.13962257 0.11146462 0.16227919 0.10147348
0.103746384 -0.097242504 0.10581051 -0.06831667 -0.09664811 0.07800419 -0.014755396 -0.042506333
-0.061814345 -0.013673698 0.025731018 -0.018602755 -0.04073501 -0.092670366 0.12969653 0.12329554
-0.08910538 -0.17432249 -0.084458314 -0.15922573 -0.060716376 0.116418056 -0.13334148 -0.11227812
0.15186025 0.14015527

conv1.bias f4 [10]
00000000: b68b a33d b440 733e 8f39 393d 3a54 24be
00000010: bd94 533e 4f3b 22be 047a 2f3e 1014 033e
00000020: 77ca 8dbd 99e1 35be
0.07985632 0.23755151 0.045220908 -0.16047755 0.20662208 -0.15842937 0.17136389 0.12800622
-0.06923383 -0.1776184

conv2.weight f4 [20, 10, 5, 5]
00000000: 7735 ddbc da93 433d d694 2bbd c73e 83bb
00000010: b051 06ba 4b92 163d 16dd 03bd 96ec 553d
00000020: 9e4f 04bd 503e fa3c 224a e8bc f231 b8bb
00000030: f04e ab3c dbb4 ecbc 3286 87bd 7001 1d3d
00000040: 3b19 6a3d 91f1 443d 5b51 e53a 742b 1dbd
00000050: 2551 6f3d 5917 7c3c 9604 62bd 747b e3bc
00000060: 824b 34bd c228 0f3b 5e87 0d3c 9618 d4ba
00000070: ea08 a43d 3fe5 b03b 78a3 263c abf9 cfbc
00000080: d117 08bd 4764 803c b88f aabc 3d69 afbc
00000090: e3b4 9c3c 5d6c 63bd 8870 4d3d 5a1a ce3d
000000a0: 1a7a 9ebc d69c 7dbd 2f37 e7bd dda1 3dbd
000000b0: 2eb7 c83d 8c4a 89bd e7cf bbbb 7f67 1cbd
000000c0: 84a7 b03d 11a4 ac3d 0e63 88bd a48e 5b3d
000000d0: f301 e43c 2016 0b3d 6f8c a0bb 0033 3c3d
000000e0: 25d0 bb3c 99e7 4c3d 1280 a13d 4699 053d
000000f0: 0a09 02bc af0d 80bc 767d 8e3b b952 a03d
00000100: fbd6 b53c 2174 14bd 6b91 18bd 5fc3 a1bc
00000110: b7ca 623b 2522 313d 6861 26bc cfe1 08bd
00000120: e568 093c b3fc 293c 93ab f03c 8d94 42bd
00000130: c607 04bd 5bbd fbbc 2f6d 1bbd 8ab9 753d
00000140: fd9b 69bc 0773 483c 6adc 8f3d 006d a73b
00000150: c030 143d c37f 8ebc e7a3 5d3d 93b2 d73c
00000160: 1da6 713d 32bf 7dbb 0f28 f23c 53a1 c33c
00000170: f085 3c3d c371 7c3d 282d b43a 05a6 55bd
00000180: 86d7 33bd c2ed 34bd 3034 523c b005 8e3d
00000190: 5d95 883c 95fd 243c 3c50 793d 0117 853c
000001a0: a906 debc cfe4 f63c 66c0 803d 9e43 993c
000001b0: 8576 a33d 5f9a 693d aa1c 80bd 40ea c2ba
000001c0: 0858 21bd b41b 083d 1060 893d 6d4e 7cbc
000001d0: 150d a6bd 8867 bbbc e722 be3c f295 253d
000001e0: f502 6dbd b205 6cbd 7157 92bc 31e7 49bc
000001f0: 0f25 46bb ed9b f1bc 84f6 d23b 7890 1ebd
00000200: 0dd3 17bb 0b63 803d 2ab5 85bb 4072 7b3b
00000210: 4e20 20bd 9e21 66bd 4139 563d 1b0c 323c
00000220: e1d4 e53c 7a28 8b3c b2ab 6d3d 985d 22bc
00000230: 18b5 3abc b78a 29bd e21a 723d aa94 55bd
00000240: 61b3 8c3c 13ab e9bc e912 b23c 8684 343c
00000250: 6f9a 14bc 4b49 903c 437a 16bd 96b5 863c
00000260: 34a1 493d e6be 143d af71 753d 0aec bfbc
00000270: 73a3 febc b517 613d 3f30 543d 0c37 783b
00000280: e2fa b43c ab47 d3bb 415a 2bbd efcc 943d
00000290: 12e3 333d 828c 83bd 72b0 fcbc 8708 85bc
000002a0: ca38 213d 2675 303d 5e86 6ebd 5673 0dbc
000002b0: f4f5 8b3c cf9e 84bb ea42 6f3d f36b 07bd
000002c0: 91cf 0dbd 31eb c4bc c5fb 91bc bf8e 323d
000002d0: e49a 053d 72a8 113d ff43 f13c 0cfb a6bc
000002e0: 0eee e2bb 9833 7e3c ee00 68bd 3e0d b53c
000002f0: 0299 7fbd 2786 85bd ae4f b2bb 1e3d 51bc
00000300: 136a 2d3d c63f 87bd 58d2 ecbc a816 843c
00000310: a47e 503d 8b79 60bd ff1b 8a3c 34c9 563d
00000320: 7a87 253c 2f34 303d 0d39 49bd 2267 04bd
00000330: 2604 8abc 8ba0 9fbc ed82 38bd 2fdb 84bd
00000340: fc3b 1bbd b075 ca3d a37e 66bb 321a 133d
00000350: 418e 8fbd 366f b7ba c3e6 2bbc 8683 19bd
00000360: 302f 5f3d 0685 5dbd a577 463c 3e94 06bd
00000370: 70c2 d7bc 7084 183d c321 2e3d 350b 073d
00000380: adb0 50bc 5d0e e03c 0515 dd3c 0048 703d
00000390: 5d00 5d3d f193 373d 451e 53bd 845b 81bb
000003a0: 412b 1c3d b49c 5c3d 4388 b1bc dd1c 2fbc
000003b0: 2a83 253d 5e5d b83c 9751 ed3a 838e 943d
000003c0: f956 503d 7997 21bd 94b8 483d b2a9 883c
000003d0: 89dc 05bd 41f8 513d b36c a8bc ed27 ce3b
000003e0: 1696 8abc 0062 ebbc 4567 453c f845 643d
000003f0: 955e 903d 8593 13bc 8d9e a73d e572 203d
-0.027003033 0.047748424 -0.041889988 -0.0040052864 -0.0005123867 0.03676061 -0.032193266 0.05222758
-0.03230249 0.030547291 -0.028355662 -0.0056211883 0.020911664 -0.028894832 -0.066173926 0.03833145
0.057152968 0.04808194 0.0017495559 -0.03837152 0.058426995 0.015386426 -0.055180155 -0.027768828
-0.044017322 0.0021844362 0.008638231 -0.0016181644 0.08009513 0.005398422 0.01017081 -0.025387606
-0.033225838 0.015672816 -0.020820484 -0.021412486 0.019129222 -0.055523265 0.050156146 0.1006362
-0.019345332 -0.06191715 -0.11289822 -0.046296943 0.09800564 -0.06703672 -0.005731571 -0.03818464
0.08625701 0.08429731 -0.06659518 0.05360283 0.02783296 0.033956647 -0.0048995535 0.045947075
0.0229264 0.050025556 0.078857556 0.032616876 -0.007936725 -0.015631525 0.004348452 0.07828278
0.022197237 -0.03624356 -0.037248056 -0.01974648 0.003460569 0.043245453 -0.010155059 -0.033418473
0.008386825 0.01037519 0.029378688 -0.04750495 -0.032233976 -0.03072994 -0.037945922 0.059991397
-0.014258382 0.012234456 0.070244625 0.0051094294 0.036179304 -0.017394906 0.054111388 0.026330268
0.05899631 -0.0038718698 0.029560117 0.023880636 0.04602617 0.06163193 0.0013746368 -0.05216028
-0.04390671 -0.044172056 0.012829825 0.069346786 0.016672784 0.010070224 0.060867533 0.01624632
-0.027102785 0.030138401 0.06286697 0.018709 0.0798159 0.057031985 -0.06255467 -0.0014870837
-0.039390594 0.033229545 0.067077756 -0.015399558 -0.08107964 -0.022876516 0.023210002 0.040426202
-0.05786415 -0.05762262 -0.017863961 -0.012323187 -0.003023449 -0.029493297 0.0064380784 -0.038711995
-0.0023166568 0.06268891 -0.0040804343 0.003836766 -0.03909331 -0.056184404 0.052300695 0.010867144
0.02805561 0.016987074 0.05802507 -0.00991001 -0.011395715 -0.041392054 0.05910767 -0.05214373
0.017175378 -0.028523957 0.021737533 0.011017924 -0.009070023 0.017613074 -0.03673769 0.016444009
0.049226 0.036314867 0.05992287 -0.023427982 -0.031083798 0.05495425 0.051803824 0.0037874607
0.022092286 -0.0064477525 -0.04183412 0.072656505 0.043917723 -0.06423284 -0.030845854 -0.016239418
0.0393608 0.04308047 -0.05823361 -0.008633455 0.017085053 -0.004047252 0.058413424 -0.033061933
-0.03462178 -0.02403793 -0.017820248 0.043593165 0.03261842 0.035561033 0.029451368 -0.02038338
-0.006925351 0.015515231 -0.05664151 0.02210104 -0.06240178 -0.06519728 -0.0054416275 -0.012770919
0.04233749 -0.06603961 -0.028908893 0.016124085 0.050902024 -0.054803412 0.016859053 0.052437976
0.010103101 0.043018516 -0.049126673 -0.032324918 -0.016847681 -0.019485733 -0.045046736 -0.064871185
-0.037899002 0.09885728 -0.0035170696 0.035913654 -0.07009555 -0.0013994935 -0.01049203 -0.037478946
0.05448836 -0.05408194 0.012113486 -0.03285622 -0.026337832 0.037235677 0.042512666 0.032969672
-0.012737435 0.027350599 0.026987562 0.058662415 0.053955425 0.044818822 -0.05154254 -0.003947677
0.038127188 0.05386038 -0.02167142 -0.010688034 0.04040829 0.022505458 0.0018105981 0.072537445
0.050864194 -0.039451096 0.049004152 0.01668248 -0.03268102 0.051262144 -0.020559644 0.0062913806
-0.01691727 -0.028733253 0.012048547 0.05573079 0.0704929 -0.009007339 0.08184538 0.039172072

conv2.bias f4 [20]
00000000: 633c 5b3d cdf6 673d d9d4 6cbd 1e94 a43b
00000010: 08ef 0c3d dab2 0f3d eda3 a4bc 6da1 83bd
00000020: 6fc7 843b c096 0c3d c61c 263d 2b2a 5cbd
00000030: 1168 06bd aa08 4ebd db02 44bd 86c4 f93c
00000040: 7883 0a3d 74f3 41bd 5f53 ff3c 68d5 fc3a
0.053524386 0.056631852 -0.057820175 0.0050225398 0.034407645 0.035082676 -0.020097697 -0.06427274
0.0040520946 0.034323454 0.040554784 -0.053751152 -0.03281409 -0.05030123 -0.047854286 0.030489217
0.033816785 -0.047351316 0.031167684 0.0019289674

fc.weight f4 [10, 320]
00000000: b8f8 5b3d 48b0 2fbd 4a21 6abc 8aea 933c
00000010: a43a 45bd 6608 fc3b ceb8 a53d ceaf bf3d
00000020: a114 2c3c 125c e2bc 2acf c13d e363 b8bc
00000030: ddc6 853d d04b 6dbd 41e9 8cbd bd76 17bc
00000040: 0e72 cebc b9b9 29bd 8ae0 6c3d 7b97 ecbc
00000050: d5e8 5b3d 1f96 4dbc c6cd 01bd d435 a5bd
00000060: b9d9 943a 9d1a 683d 3bbf 343c a498 073c
00000070: 401f 62bd 9d17 e23c bfc4 f03b fa50 6fbd
00000080: 9592 87bd e46d a1bd 5790 91bc 7737 853d
00000090: c3b1 ecbc 93da acbd 22c2 a7bd 65c9 3e3c
000000a0: 32eb c13c e156 0e3d c2b0 093d eef4 893b
000000b0: 6389 d43c 1fc1 d53d 692d 5a3c c7a8 7bbc
000000c0: 7f27 453c f56d 8cbd ad1d 0ebd c9bb e9bc
000000d0: a6f0 f4bc a442 60bd 7cb5 133c fdb1 edbb
000000e0: d613 ae3c 109f 1f3d b4b3 3abd a48b dc3c
000000f0: 5d52 98bc 6494 403d 1b4b 88bd 1093 3fbd
00000100: feed 12bd c0fa 0a3d 6843 213d 64cc 283d
00000110: 98fd a33c b706 9d3d 894a 023d 67f4 56bd
00000120: 1ffb e73c 2fa6 7fbb 93d9 87bd 89cc 94bc
00000130: 1350 533c 8301 e9bc 699f 423d b1e1 c43b
00000140: 5ca8 993c 4b08 79bd 7739 d53d 3ed3 9d3d
00000150: 1897 d0bc 7ed5 25bb 7c48 f73c d0f9 743d
00000160: b208 a5bc 4ac3 97bc f607 a4bd b1c0 8cbd
00000170: 856b ff3c 4eb4 253d 4de5 7dbd ec95 2a3d
00000180: 9055 36bc f7e4 bfbb 09fb 643c 2120 9f3c
00000190: f4cf 8cbc c67b 63bd 034b d43c 2ec7 afbc
000001a0: 4684 10bd b6d7 3b3d b20c cbbb c3f1 363d
000001b0: 5ac5 a33b dea8 63bd 2db0 3fbd 8c6a ccbb
000001c0: 1a6d d1bb 63e5 853c 19de 193d 80f8 0abd
000001d0: 4e38 f83c b425 a4bc 8402 98bd 5129 99bd
000001e0: 92e9 803d 659f 0fbc 8ac5 65bd 69b4 cc3b
000001f0: 2bf8 31bd ade7 cb3c 8992 173d 1f7d 66bd
00000200: 516e 0f3d 5f5b 2d3d ddf7 843b 6529 fbbc
00000210: 97ca b83b f119 7c3d 4a86 063d 44a9 5bbd
00000220: 9d90 02bd 6af5 f23c 0029 883c 3443 97bc
00000230: f57c 94bc a042 2dbc 8a0a 623d a607 0a3c
00000240: 737c df3c 9228 123d dd54 d0bc b827 52bd
00000250: bdae 9e3d 3110 723d 80a1 dbbc 0593 4d3b
00000260: 1bd9 38bc 815b 74bd 8918 643d d5ff 83ba
00000270: f9da 8c3a 8714 9ebd eedc 053d 4ce6 553d
00000280: a67a 1e3c fe62 1c3c db9d 4f3d 1ef3 bb3b
00000290: 366c 2fbd 249b 843c 7e0e 09bd ff6d 103d
000002a0: 8d9f 003d 3899 c9bc 072d 243d 03ee 17bb
000002b0: fc06 a33c 6a9f 03bd f6b5 11bd dde8 26bd
000002c0: 2e37 323d fce9 81bb d020 a43d 32d7 1c3c
000002d0: c2eb b1bc 7404 b4bc 4e7c d13c d327 473d
000002e0: 4c95 bcbc 867b f7bc 3de8 c0bb 2f62 3d3d
000002f0: 8214 793c efd2 223d bbbd c1bc edb6 543d
00000300: 16fe bdbc c68a 23bd 5e3d 0c3c baf0 973d
00000310: 835d d6bc 1805 d73c 15cb 033c 70ff 90bc
00000320: e01b 373c f861 9b3d b1ee bbbd 79df e2bc
00000330: e328 3c3d 8678 79bc 4231 54bd 1132 873d
00000340: b074 d1bc 5d1b 67bc 7f4d 333d 0fa7 943d
00000350: b898 20bd 7685 5abc a8a1 3abc 3ec6 fa3c
00000360: fd28 13bd 6556 10bd 3b5e 28bd a713 173b
00000370: 322e 30bd 15db 22bd c4e1 52bd 0b59 f83c
00000380: d476 bf3c 3556 41bd 212f 723d e4bc f938
00000390: e51d 1ebb 774d 743d 6167 413d c0e9 89bd
000003a0: b92f 39bc b571 9fbb c84f 06bd eeb3 b9bb
000003b0: 407d 60bd af42 113b 013e 9a3d e1e3 6f3d
000003c0: 6588 d537 58c7 4dbd d9c2 81bc 2358 2fbd
000003d0: d64b 5c3c 0853 7e3d 1302 87bd 27b7 19bc
000003e0: f55f a83d 7a99 783d da32 b4bd 6c08 0dbd
000003f0: a370 383d 79a4 493d b9a9 14bd 0ed5 fcbb
0.053703994 -0.042892724 -0.014290163 0.018056173 -0.048151627 0.007691431 0.08091889 0.09359704
0.010502965 -0.027631793 0.094633415 -0.022508567 0.06532071 -0.05793363 -0.06880427 -0.009244618
-0.02520087 -0.041436885 0.057831325 -0.028880825 0.053688843 -0.012547999 -0.03169038 -0.080669075
0.001135639 0.056666005 0.011031921 0.008276138 -0.055205584 0.02759915 0.0073476727 -0.058426835
-0.06619755 -0.07882288 -0.017769022 0.0650472 -0.028893357 -0.08440127 -0.08191325 0.011644696
0.02367172 0.034750823 0.033615835 0.004210106 0.025944417 0.104372256 0.013316491 -0.015360064
0.012033342 -0.0685691 -0.03469627 -0.028531926 -0.029899906 -0.054751053 0.009015437 -0.007253884
0.021249693 0.038970053 -0.045581535 0.026922055 -0.018593961 0.047016516 -0.0665495 -0.04677111
-0.0358715 0.03393054 0.039370924 0.041210547 0.020018384 0.076672964 0.031809364 -0.052479174
0.028317986 -0.0039008965 -0.06633296 -0.018163936 0.012897509 -0.028443104 0.047515307 0.00600835
0.018757038 -0.060798924 0.10411351 0.07706307 -0.025462672 -0.0025304253 0.03018593 0.059808552
-0.020145748 -0.018525738 -0.08009331 -0.068726905 0.031179199 0.040455155 -0.061986256 0.041646883
-0.011128798 -0.005856152 0.013975867 0.0194245 -0.017189004 -0.05553796 0.025914675 -0.021457281
-0.035282396 0.045860015 -0.0061965818 0.044664156 0.0049978914 -0.055580966 -0.046798874 -0.0062382873
-0.0063911797 0.016344732 0.037565324 -0.033928394 0.030300286 -0.02003751 -0.07422355 -0.074785836
0.0629455 -0.00876603 -0.05609659 0.0062470925 -0.043449562 0.024890745 0.03700498 -0.05627167
0.035017315 0.042323466 0.004057868 -0.030659387 0.005639385 0.061548177 0.03284291 -0.05362822
-0.031876195 0.029658038 0.016621113 -0.018464662 -0.01812599 -0.010574967 0.055185832 0.008424675
0.027281022 0.035683222 -0.025431091 -0.05130741 0.077481724 0.059097473 -0.026810408 0.0031368148
-0.011282231 -0.059657577 0.05568746 -0.0010070751 0.0010746411 -0.07718759 0.032681398 0.05222158
0.009672796 0.009545086 0.050687652 0.005735769 -0.042827807 0.016187258 -0.033461086 0.03526115
0.03140216 -0.024609193 0.040082004 -0.0023182638 0.019900791 -0.03213445 -0.035573922 -0.04074942
0.043509655 -0.0039646607 0.08014071 0.009572791 -0.021718863 -0.02197478 0.025571968 0.048621964
-0.023020409 -0.030210268 -0.00588706 0.046236213 0.015202643 0.039751943 -0.02365004 0.051932264
-0.023192447 -0.039927267 0.008559553 0.07418962 -0.026167637 0.026247546 0.008044024 -0.017699927
0.0111760795 0.075870454 -0.09176386 -0.02769445 0.04593743 -0.015226489 -0.05180479 0.06601346
-0.025568336 -0.014105645 0.043775078 0.072584264 -0.039208144 -0.013337484 -0.011391081 0.030612107
-0.03592776 -0.035238642 -0.04110549 0.0023052485 -0.043012805 -0.039759714 -0.051484838 0.030315896
0.023372091 -0.047201354 0.059126977 0.00011908429 -0.0024126705 0.05964419 0.04721773 -0.067340374
-0.011302882 -0.00486585 -0.03279093 -0.0056672012 -0.054806948 0.002216499 0.075313576 0.05856693
2.5455092e-05 -0.050238937 -0.01583998 -0.042808663 0.013445815 0.062090904 -0.065921925 -0.009382046
0.08221427 0.06069324 -0.08798762 -0.03443186 0.045029294 0.04922912 -0.036294673 -0.007715828

fc.bias f4 [10]
00000000: 1b67 08bc 3319 84bb 4e80 1b3d 20c7 04bd
00000010: 892e 173c 65a3 023d 1fcd 1a3d be9b 17bc
00000020: 19ec 1c3d 725b 123d
-0.0083253635 -0.0040313243 0.037964158 -0.032416463 0.009227403 0.031894106 0.037793275 -0.00925344
0.038311098 0.03573174

momentum_buffer f4 [10, 1, 5, 5]
00000000: e5f6 35bc c213 22bc 0574 8ebc ecfa 10bd
00000010: 2043 1fbd f9d8 e9bb e89e 93ba 423e 62bc
00000020: 8848 e2bc c7e9 f0bc b0bc 833c 6c8a b43b
00000030: b36d 8cbb b485 00bc 0007 57ba a49a cb3b
00000040: a0ad 65ba d4c7 c2bb c195 fcbb 6875 c9ba
00000050: a510 ed3a 2f0c 24bb ef7a 08bc 29db 13bc
00000060: 80eb 32bb 946d e73b 6e66 c23c 889c b93c
00000070: 10d2 77bb d19b eabc 666a 683c 4ec2 26bc
00000080: 0ca7 2abd 6784 84bd 6962 66bd 309b 29b9
00000090: 8962 92bc 1fd6 13bd 98a0 32bd b8c0 593b
000000a0: 8f41 1fbb dc02 cebc f245 f9bc 85a9 50bc
000000b0: ee64 c33c b632 123d 5668 083d a8d1 1f3d
000000c0: e459 80ba 7f2b 373c fe3f 3dbc 3984 95bc
000000d0: e6a1 abbc 603e e3bc bb87 e2bc cb83 9dbc
000000e0: 66c5 9dbc ecc3 bfbc 3a7f 0cbd 49ae ffbc
000000f0: bc58 523b 361d 9b3b 2338 0ebc 7a6e c4bc
00000100: a969 16bc de59 b93c fc44 a53c 6292 843b
00000110: a48f 08bc 9ea2 c5bb 5a6d 8f3c 5804 643c
00000120: e28b b23b c642 c5bb e88e b73b d490 cf3b
00000130: f515 2e3c bad4 b73c 86c8 993c 9e3a 4b3c
00000140: 3bb5 933c ee04 7f3c b21f 523c b149 323c
00000150: c810 a83c ce50 e63c 71be fc3c a2a7 cf3c
00000160: 8ee9 3e3c 8e1e 803c fb2f ac3c f666 723c
00000170: ef8e a23c 73b9 573c b89a e33b 8013 1b3c
00000180: 1509 2b3c 9461 053c 31c1 233c 1a75 633c
00000190: 3b25 86bc b6f7 fdbc 85e0 8cbd 65cd 9ebd
000001a0: d913 30bd 3433 27bd d1eb 36bd 8e91 55bd
000001b0: 796a 26bd eafc e8bc c1cc a1bc 413f 14bc
000001c0: b440 19bc e291 a5bc 4605 69bc b0ed 68ba
000001d0: b264 423c da4c 203c 0c61 90bc 80fd eebc
000001e0: 800b f1b9 4ac0 7b3c a2d3 eb3b 2817 b1bc
000001f0: b60c 11bd 42a1 b7bb e037 e9ba 2777 223b
00000200: 9c7d cc3b 4428 24bc 1c97 babb f481 17bc
00000210: ac25 bdbb 8ce1 ecbb 796b 5bbc ece1 6abc
00000220: 7c79 37bc f345 79bc 3eaf 53bc 134e 81bc
00000230: a4ac 5fbc 9ab3 a6bc d2bf bdbc 5f70 54bc
00000240: 7d73 01bc 6a57 11bc b4f7 bebc f217 cebc
00000250: e015 fdbb ad40 c0bb c163 85bc 2055 f9bb
00000260: ebd1 b0bc e5f4 f0bc 5487 6cbc 487f 8abc
00000270: 4ecd f4bc a93d 2bbd c04d f9bc 2005 29bc
00000280: 7dae 74bc fa3b 96bc 124b dfbc 1a88 69bc
00000290: ba15 4cbc 43f5 02bb 5a24 ff3a 1377 b0bb
000002a0: b63b e0bb 5e10 34bc 361a 343a 24e1 153c
000002b0: 1646 d5bb 4585 22bc 2070 f6ba 64fb 793c
000002c0: e2b9 603c b07c b4bb c36c a03b fdb0 843c
000002d0: 2cb9 b73b 9090 a73b 524d efba 7aca 843c
000002e0: adc9 d43c 18bf 64bc 0acf a8bb e02b 7dba
000002f0: 98e6 4d3c 0a82 3e3c 1421 41bc 0ad0 fdbb
00000300: 9c7e ddbb 3ad1 6bbc 5bfa e1bb 9c85 6b3b
00000310: 1067 28ba 0081 5db8 37ec 48bc 053d a3bc
00000320: 09e5 1dbc 4cee 8dbc 126e c8bb e97c a03b
00000330: c4f1 e53b b16b 1ebd 14ab f2bc 7096 15bb
00000340: e1f1 213c 98d7 793c f291 4dbd 4704 04bd
00000350: de45 0fbc 3840 3a3a b201 b13b c8e5 f0bc
00000360: c1b9 8fbc 2c5a 89bc e309 cbbc dd34 6bbc
00000370: b859 16bc f05f 4dbc 726e 1bbc 306e 96bc
00000380: 648d bebc 1ac3 a4bb 2c13 81ba 2916 aabb
00000390: 6c66 27bc 7025 913a 441e 95bb 0dbf 2fbb
000003a0: 6629 94bb b8d8 e5ba 0ca9 333b dcfe d63a
000003b0: cb47 9b3a 80ef c3ba ae78 963b 4e33 9a3b
000003c0: 5c62 ccba e1cc 14bb 8d58 0cbb bc63 673b
000003d0: 6a18 733c 9080 9bba f6f7 8ebb ce4b c03a
000003e0: 8bc9 783c e22d d33c
-0.0111062275 -0.009892406 -0.017389307 -0.035395548 -0.038882375 -0.007136461 -0.0011262568 -0.013808789
-0.027622476 -0.029408349 0.016081184 0.0055096652 -0.004285538 -0.007844377 -0.0008202642 0.006213503
-0.0008761529 -0.0059442315 -0.0077082817 -0.0015370073 0.0018086625 -0.0025031676 -0.008330091 -0.00902442
-0.0027301013 0.0070626233 0.023730483 0.022657648 -0.0037814416 -0.028638752 0.014185524 -0.010178162
-0.041663215 -0.06470566 -0.056246195 -0.00016174908 -0.01786925 -0.036092874 -0.043610185 0.0033226442
-0.002430055 -0.025147848 -0.03042886 -0.012735729 0.023851838 0.035692893 0.033302628 0.039018303
-0.0009792414 0.011179804 -0.011550901 -0.018251525 -0.020951223 -0.027739704 -0.027652612 -0.019227883
-0.019259166 -0.023408853 -0.03430102 -0.031211035 0.0032096347 0.004733707 -0.008680376 -0.02397846
-0.009180465 0.02262586 0.020174496 0.0040457705 -0.008335028 -0.0060313484 0.017508198 0.013917051
0.0054488042 -0.006019923 0.0056017525 0.0063344035 0.010625352 0.022440303 0.018772375 0.012404112
0.018030753 0.01556514 0.01282494 0.010881827 0.020515814 0.028114703 0.030852528 0.025348488
0.011652363 0.01563957 0.021018973 0.014795056 0.019843547 0.013166773 0.006945934 0.009465098
0.010439177 0.00814094 0.009994791 0.0138829 -0.016375175 -0.031001907 -0.06878761 -0.0775402
-0.04298768 -0.040820315 -0.044658486 -0.052140765 -0.040628884 -0.028440911 -0.019750955 -0.009048284
-0.009353805 -0.020211164 -0.014222449 -0.0008885516 0.011864828 0.009783948 -0.0176244 -0.029173613
-0.0004597567 0.0153656695 0.0071968595 -0.021617487 -0.035412513 -0.00560394 -0.0017793141 0.0024790259
0.0062405597 -0.010019366 -0.005694283 -0.009247292 -0.005772313 -0.0072290357 -0.013392323 -0.014336091
-0.011198398 -0.015214431 -0.012920199 -0.015784299 -0.013652001 -0.020349313 -0.023162756 -0.0129662445
-0.00790107 -0.008870939 -0.023311473 -0.025157902 -0.007723555 -0.005867085 -0.016282918 -0.0076090246
-0.021584472 -0.02941365 -0.014436562 -0.016906396 -0.029883053 -0.04180685 -0.030432582 -0.010316163
-0.014934179 -0.018339146 -0.027257476 -0.014253641 -0.012456352 -0.0019982613 0.001946579 -0.0053852885
-0.0068430556 -0.01099023 0.0006870361 0.009147916 -0.006508599 -0.009919469 -0.0018801726 0.01525769
0.013716193 -0.005508028 0.004895778 0.016197676 0.005606791 0.0051136687 -0.0018257296 0.01620983
0.025975073 -0.013961576 -0.005151634 -0.0009657722 0.012567185 0.011627683 -0.011787672 -0.0077457475
-0.006759478 -0.014393145 -0.0068963 0.0035937792 -0.0006424049 -5.2810647e-05 -0.012263349 -0.019926557
-0.009637126 -0.017325543 -0.006116637 0.004897703 0.007017346 -0.03867692 -0.029622592 -0.0022825263
0.009884329 0.015249155 -0.050188012 -0.03223064 -0.008744685 0.0007104906 0.0054018134 -0.029406443
-0.017544629 -0.01676663 -0.024784988 -0.014355865 -0.009176664 -0.01253508 -0.009486781 -0.018363088
-0.02326078 -0.0050281407 -0.0009847633 -0.00519063 -0.01021729 0.0011073779 -0.004550727 -0.0026816756
-0.0045215366 -0.0017535901 0.0027413992 0.0016402858 0.0011846957 -0.0014948696 0.004592023 0.004705823
-0.0015593278 -0.0022705125 -0.0021415085 0.003530725 0.014837364 -0.0011863876 -0.0043630553 0.0014671029
0.01518477 0.025778715

momentum_buffer f4 [10]
00000000: 87a9 3b3c be65 92bc 3b96 21bc 3862 3a3c
00000010: 6a48 96bc 0e0e 3ebc 6446 a3bc 4cf4 71bc
00000020: 3c9f 7fbc 7b4e b03b
0.011453993 -0.01787078 -0.009862478 0.011375956 -0.018345077 -0.011600031 -0.019931026 -0.014767718
-0.015601929 0.0053804494

momentum_buffer f4 [20, 10, 5, 5]
00000000: d1f8 8f3b 3e51 c93b f0b2 18bb 521f ceba
00000010: 5f8c 873b ec87 00bb 28c2 c0bb 5831 f6bb
00000020: 8cd4 383a 52dd 2a3c 7ae7 93ba 4064 db39
00000030: 2237 583a a255 4bba 8b5a d73b cfcf c33b
00000040: 0074 893b 0626 8b3b 0734 033c b4b2 123b
00000050: 6483 0d3c 20d6 be3b 1eb3 cc3b 16ff b73b
00000060: b2eb 8e3b 6d5d 1ebd 64ba 32bd 7b36 cfbc
00000070: 00cc cd3b ec5b 423c a50b e6bc b590 03bc
00000080: 1e5a ef3c ea0d 5a3d 6844 093d c41f fb3b
00000090: b0bb 0f3d 6f48 633d f82f 6d3d 2cc4 113d
000000a0: d94a c33c 80e6 093d 8019 283d 12a3 253d
000000b0: 3ec6 023d 1df3 8e3c 48f2 ce3c ab29 8c3c
000000c0: 68f3 943c d248 4b3d 5502 73bc 9a24 edbb
000000d0: 5896 ddbb ac9e 67bc 0063 b1bb bb5f 81bc
000000e0: 07f4 14bc c035 5e3b f46b 2bbb 8843 913a
000000f0: 1f29 683b 8e60 3a3c fb9c 083d b618 653c
00000100: 0ead 523c 4d74 7e3c 4c0e 783c b695 e43c
00000110: 33c8 723c 4863 8f3c b4b7 9c3c e5e6 783c
00000120: 4dd1 b23c 3159 cd3c a3c1 cb3c 5851 00bc
00000130: 8de9 90bb e40c 84bb 3ebc 04bb 04ac a8bb
00000140: 2830 c9bb ecd9 333b d147 2a3c 482d 1ebb
00000150: 3a03 b8bb 8c62 f73b c75a 2e3c 0d6d 7c3c
00000160: a094 053a 2453 51bb 44a3 083c d1ef c93b
00000170: c274 723c 8f33 043c 0093 afb8 4e8a 0e3c
00000180: 0f6f 113c 1651 143c 70ac 3b3c a4e4 ff3b
00000190: ae18 f9bb c833 70bc b2da b7bc 6888 ebbc
000001a0: c7db 01bc b5ee dbbc 6205 89bc 80d0 b939
000001b0: cace ad3b 32ec 973b 2f60 0abc fafd f53b
000001c0: 6876 093d 0e9c 9b3c 2cca 653c 8925 993c
000001d0: 8419 803c 03fa 023d 7448 073d 1b9a 803c
000001e0: aacb 7c3c cb43 743c 6c4c e23c bce4 043d
000001f0: faa2 973c 129c f1ba 804c 1e38 986e a53b
00000200: a0eb aa3b a89a 673b 3ed0 183b 8072 6b3b
00000210: ddd7 b63a bfcc 943b 7a3a 203b 0040 d73a
00000220: 5ee2 d93a 954b 183b 98d8 0d3b 0159 893b
00000230: 50c8 a8ba cabe 9f3a fc00 0c3b 5e14 b1ba
00000240: 1d89 003c 0e00 f93a 4ee1 e93a a20a 213b
00000250: 3c4a 1f3a 1663 613b 2ca6 d4ba f6f7 90ba
00000260: 4b3d 65bb a6c4 00bc 601e 34bb e6c2 6fbc
00000270: d786 6dbc 2833 33ba 4041 ba3b 7e3f 66bc
00000280: 347b b6bb e1a9 1b3c 3c12 ad3c d83f e73c
00000290: f284 be3b bff7 063c e93d 533c 3fe1 3b3c
000002a0: 4039 d33c 48d9 4c3c 1f1c 363c 5b83 903c
000002b0: be61 be3c d94d 043d 27f5 a03c 8091 f138
000002c0: bdf7 49bc 1e9b 56bb 04b5 843c 4808 e23c
000002d0: 41d4 a83b 553c c83a ada5 5c3c cb12 c23c
000002e0: aa4f 9a3c 3bb7 e03b dd79 8f3c 1213 c43c
000002f0: 8a3a d13c 8017 d13c dff6 493b 380a 9d3b
00000300: d0ad fa3b 358e 173c 00da e2b8 a39b d73b
00000310: 2cac d73b 040d ae3c 2355 8d3c 884f 5f3c
00000320: 13a6 e0bb 8034 d1bb c507 163b a296 213c
00000330: 58df 463b ac4b 253a eaea f8bb 9650 a4ba
00000340: f4c2 613c 56f9 933b 09f3 383b 8e08 673b
00000350: 0055 723c 8c57 063d cb8c c63c 1847 073a
00000360: 9b5a 9c3b 2676 1e3c 6483 5e3c 81a1 613c
00000370: 2968 6a3b d8ea 353c 4271 a53c 6621 bb3c
00000380: 283f cb3c 7021 5f39 0f50 863b a435 fc3b
00000390: c056 fb39 0c92 df3a d39c dd3a 0d07 4e3b
000003a0: 1226 f13b 88ed a4bb 8ce6 9fba ecfd 8e3b
000003b0: dc2a a53b 9053 113c 4d0e 9fbb 847d 9aba
000003c0: 5855 883b 3385 083b 0ea7 9c3b 20d6 35b9
000003d0: 932a bb3a dfb8 913b a0e7 cf38 ea34 683b
000003e0: fd22 7c3b 3d58 8e3b d9cd 75bc 0062 55bc
000003f0: 834a 98bb 46ef b3bb 2690 0fbc 540f b839
0.004393675 0.006143718 -0.0023300014 -0.0015725887 0.0041366066 -0.0019612266 -0.00588252 -0.0075132065
0.0007050715 0.010428743 -0.0011284195 0.00041845627 0.00082479615 -0.0007756596 0.006572073 0.0059757004
0.0041947365 0.004246476 0.00800801 0.0022384347 0.008637283 0.0058238655 0.0062469384 0.0056151254
0.004361593 -0.038663317 -0.043634787 -0.025294533 0.006280422 0.011862736 -0.028081724 -0.008030106
0.029217776 0.053235926 0.033512503 0.007663699 0.035091102 0.055489 0.057907075 0.035587475
0.023839401 0.033667088 0.041039944 0.04043872 0.03192734 0.01744991 0.025262013 0.017109713
0.018182471 0.049629994 -0.014832099 -0.0072370293 -0.006762307 -0.014136951 -0.005413413 -0.015792718
-0.009091384 0.003390655 -0.0026156874 0.0011082748 0.00354249 0.0113755595 0.033352833 0.013982942
0.012858642 0.015530658 0.015140127 0.027903419 0.014818239 0.017503396 0.019130565 0.015191768
0.021828318 0.025066944 0.024872607 -0.007831894 -0.0044223727 -0.004029857 -0.0020253803 -0.005147459
-0.006139774 0.0027443124 0.010393099 -0.0024135876 -0.005615619 0.0075495895 0.01064176 0.015406859
0.0005095694 -0.0031940425 0.008339707 0.0061626215 0.014798345 0.008068933 -8.372031e-05 0.008699967
0.008876576 0.0090525355 0.0114546865 0.0078092385 -0.007601819 -0.014660783 -0.02244315 -0.028751567
-0.007925934 -0.026847223 -0.0167262 0.00035441294 0.005304192 0.004636311 -0.0084457835 0.007507083
0.033560187 0.018995311 0.014025252 0.018694656 0.015637167 0.03197671 0.03302808 0.015698483
0.015429417 0.014908741 0.027624331 0.0324447 0.01851033 -0.0018433353 3.774138e-05 0.005048584
0.005216077 0.0035339985 0.0023317481 0.0035926402 0.001394983 0.004541009 0.0024448917 0.0016422272
0.0016623249 0.002323841 0.0021643993 0.0041915183 -0.0012877081 0.0012187597 0.0021362891 -0.0013510098
0.00784519 0.0018997209 0.0017843635 0.0024572988 0.00060764304 0.0034391335 -0.001622384 -0.0011060226
-0.003497916 -0.007859385 -0.0027483925 -0.01463387 -0.01449748 -0.0006835931 0.005684048 -0.014053224
-0.005568886 0.0095009515 0.021126859 0.028228685 0.005814188 0.008237778 0.0128931785 0.011467277
0.025784135 0.012502976 0.011115103 0.01764076 0.023239966 0.032300804 0.019648148 0.00011518877
-0.012327132 -0.0032746266 0.016199596 0.02759184 0.0051522558 0.0015276769 0.013467235 0.023690602
0.018836815 0.0068577803 0.017514164 0.023934875 0.025540609 0.025523901 0.0030817313 0.004792478
0.0076501146 0.009250213 -0.000108171254 0.0065798326 0.006581804 0.02124644 0.01725251 0.013629802
-0.006855735 -0.0063844323 0.0022892815 0.009862574 0.0030345526 0.00063055265 -0.0075963633 -0.0012536224
0.013779391 0.004515807 0.0028221032 0.0035252902 0.014790773 0.032798335 0.024237057 0.0005160435
0.004771543 0.0096717235 0.013581131 0.013771416 0.003576765 0.011103354 0.020195607 0.022843074
0.024810389 0.00021279394 0.004098899 0.007696824 0.00047939084 0.0017057075 0.0016907699 0.0031437308
0.0073592747 -0.0050331987 -0.0012199446 0.004363766 0.0050405096 0.0088700205 -0.0048539997 -0.0011786674
0.0041605644 0.0020831346 0.0047806567 -0.00017341273 0.0014279656 0.004447087 9.913673e-05 0.003543193
0.0038473003 0.004344015 -0.015002691 -0.013023853 -0.0046475544 -0.00549117 -0.008762395 0.00035106635

momentum_buffer f4 [20]
00000000: 0e06 1a3c 89ea 243c 62aa 59bc 1065 20bc
00000010: eb85 783b dcbf 02ba cb83 513b 2360 48bc
00000020: c534 4ebc d73e 1b3c cff9 4dbb d2c4 5cbc
00000030: 60fa 34bc 00fe 3bba bde9 20bc 6662 263c
00000040: c5fa ce3b 7143 3b3c 82c7 c8ba 451a ebbb
0.009400858 0.010065683 -0.013285251 -0.00978972 0.0037921618 -0.0004987696 0.0031969424 -0.012229952
-0.012585823 0.009475431 -0.0031429415 -0.01347466 -0.011046022 -0.0007171333 -0.009821353 0.010155296
0.006316515 0.0114296535 -0.0015318247 -0.0071747624

momentum_buffer f4 [10, 320]
00000000: fac5 d03c 58ba 22bc 70aa 57bc 7ee9 42bb
00000010: 6096 c03c b10d 06bc f3da 61bc 404d d13b
00000020: 1947 913c 6438 b0bb 2857 ab3b a315 0c3d
00000030: 79c9 003d 6f31 643c 109b fe3a 1a22 be3b
00000040: 88d4 3e3c d0e1 6e3b 7db1 943c a3b0 c23c
00000050: ccaa f93b 904a 023c 28f3 5e3c e466 8d3c
00000060: 7c19 dfbb aca8 2b3c 491c a83c 4460 c43c
00000070: 6a50 39bc 2437 acbb d574 e93c 4a87 143d
00000080: 38dc 5a3c d3e6 0d3d fa92 d83c 1dd3 833c
00000090: 8ccc de3b 0186 4e3c d8a4 113c 3d7e c43c
000000a0: d484 ae3c 0e4d 353d 58e6 053d 8af0 af3b
000000b0: d38e b2bc 8616 0b3d 4acd 493d ad10 093d
000000c0: 567c de3b 3035 a23a f8c8 aabb 1430 82bc
000000d0: 5054 1a3c 4a22 c73c 2a32 603c 6c7f 563c
000000e0: 06ab a63b 8c97 5b3c c926 88bb 4a11 663c
000000f0: 42dd 4d3c dc5b df3c 8365 073d 9cc9 d13b
00000100: 0a13 243b 8d1e 0b3c 352d 19bc 01d1 4bbb
00000110: 4c52 673c 72d1 253c eed9 05bc 05a0 29bb
00000120: 3c37 973c be60 8d3c 7c75 973b 1f0b 5bbc
00000130: d366 8a3c 48f2 9ebb 8e0b abbc f84d 523b
00000140: 6e15 e63b f000 c5bb 42ee 48bc 7c45 76bc
00000150: d256 133c 6290 a63c 8124 f23c cd56 073d
00000160: 12b9 273d ab46 cf3c 4c18 573a 809b 083c
00000170: ca6a 063d 0653 e73c 5c5f 123d bc85 a13c
00000180: 6482 3036 7946 3935 a316 ce30 3045 9136
00000190: af39 3a36 bb57 9835 d6c6 4633 e8c3 ef35
000001a0: 1022 e837 6240 2932 237e 43b5 b923 8431
000001b0: 1477 c638 0a4a 7237 17de 9135 2dc2 0636
000001c0: 3778 1f3c 4f5f 9b3c d6c9 813b f89c bf3b
000001d0: a0ea d53c 45e7 9d3c b6aa 013c 9a0c 3ebb
000001e0: 767d 4a3c 943b fe3b 4a16 013c 8868 0bbb
000001f0: 02db 84bb aecc a3bb a8dc 113b e8f4 063b
00000200: f48c f5ba e8c7 073c b34f 613c 48d5 153b
00000210: 4cc5 afbb a088 913b 18a5 803a 3414 9dbb
00000220: e4a9 af3a 31d4 bc3c d3aa 823c 5800 d63b
00000230: f515 2dbb 60b1 f1b9 48ce 2a3b 8491 5b3c
00000240: 6a79 d13c 909b fbba 4eeb e8bb c6e9 953b
00000250: 24dc 0a3d 32e8 6fbb b33d 14bc e230 30bc
00000260: 26e5 a23c d195 303a 13bf 03bc 77ac 523c
00000270: 2868 af3b 1378 56ba 5e68 2fbc 7614 5d3c
00000280: 01e1 bb39 c092 8239 641f cdb9 8e7c acba
00000290: 28a7 a0b8 7312 d73a 2271 823b 0046 0fb7
000002a0: 1019 8a39 f013 f1ba 93cc c6ba 9694 343a
000002b0: 6896 85b9 ec23 55ba d340 3c3b 0995 bd3b
000002c0: 53a8 b43c c668 943c 4416 cdbb 2047 9b3a
000002d0: 2977 da3c dc73 a13c ccd0 003c 1cec 1e3c
000002e0: 2445 a93c 2412 423c 32e9 023c 78f3 6abb
000002f0: 5815 543b 2c47 93bb 809a b73a d476 893b
00000300: 625c cb3b f069 613c d5a1 bcbc dd3a d0bc
00000310: 5ac1 c03c 11d1 db3c a806 ed3b 1acd 8a3c
00000320: 2035 593d fa50 d83c c2fd 9abb 1c59 40bb
00000330: e66d 2a3d fa42 ed3c b8c7 af3c a48b e13b
00000340: 356b 893b f2d6 1d3c 8346 dabb dcd0 dbbb
00000350: 6a3b c43b 13d6 01bc 67fe eabb f8c0 3a3b
00000360: 7d4f be3c 1169 a33c 7975 d9ba 9c06 a0ba
00000370: 504d 403b eb39 2f3c d0c8 83ba 0045 d6b9
00000380: 2aaf d23b fc7d 33bb acd6 f5bb d0ca 3f3a
00000390: 3663 293c 92f3 2e3c b8cb c13b 7b14 463c
000003a0: f260 0a3c 6825 c93a ac12 043b 00ab 89ba
000003b0: c895 dbba 94c7 c7bb 50d0 72bb 14f0 543c
000003c0: 8e81 b3ba 12cc 593d 43a2 be3c 9cc0 8bbb
000003d0: 4267 9e3c 766b 303d a32b aebb 7030 773a
000003e0: e686 cd3c 0053 3b3d c4ff 6c3c a6e4 2fbc
000003f0: 185e 603b 84e9 f73b 0a08 e73b 2adf b4bc
0.025485028 -0.009932123 -0.013163194 -0.0029741223 0.023509204 -0.008181975 -0.013785112 0.0063873827
0.017734097 -0.005377816 0.0052288957 0.034200322 0.03144214 0.0139278015 0.0019424874 0.005802405
0.011647351 0.0036450513 0.01815104 0.023765868 0.0076192375 0.007952347 0.013607778 0.017260976
-0.006808458 0.010477226 0.0205213 0.023971684 -0.011310676 -0.0052555967 0.028498093 0.036261834
0.013358168 0.03464396 0.026437271 0.016091878 0.006799286 0.012605191 0.0088893995 0.023985976
0.021303572 0.04426294 0.032690376 0.0053692507 -0.02179662 0.033957027 0.049268045 0.03346317
0.0067897243 0.001237547 -0.0052119456 -0.015892066 0.009419516 0.024308342 0.013683835 0.013091903
0.0050863056 0.013402831 -0.004155014 0.014042208 0.012564959 0.027265482 0.033055793 0.0064022075
0.0025035762 0.008491171 -0.009349157 -0.0031099918 0.014118742 0.010120736 -0.008169634 -0.0025882733
0.018458955 0.017258044 0.0046221595 -0.013369351 0.016894734 -0.0048506595 -0.020879533 0.003208993
0.0070215976 -0.0060120746 -0.012263836 -0.015031215 0.008992868 0.020332519 0.029558422 0.033041764
0.04094798 0.025302252 0.00082052196 0.008337855 0.032816686 0.02823783 0.035735473 0.01971709
2.630194e-06 6.902042e-07 1.4994906e-09 4.3293912e-06 2.7749736e-06 1.1350415e-06 4.6281308e-08 1.7863904e-06
2.7672417e-05 9.851734e-09 -7.2826714e-07 3.845767e-09 9.463556e-05 1.4441563e-05 1.0867979e-06 2.0080581e-06
0.009733251 0.018966345 0.0039608283 0.0058475696 0.026112854 0.019275317 0.007914236 -0.002899921
0.012359014 0.007758567 0.007878849 -0.0021272022 -0.004054428 -0.004998765 0.0022256766 0.0020592753
-0.0018734024 0.008287407 0.013751912 0.0022862721 -0.005364096 0.004441336 0.0009814827 -0.004793668
0.0013402072 0.0230504 0.015950596 0.0065308027 -0.0026410792 -0.00046099257 0.0026062895 0.013401393
0.02557059 -0.0019196142 -0.0071081286 0.004574987 0.03390135 -0.0036606905 -0.009047913 -0.010753842
0.019884657 0.00067361916 -0.008041161 0.012858502 0.0053529926 -0.00081813446 -0.010706035 0.013493648
0.0003583506 0.0002490487 -0.00039124035 -0.0013159679 -7.66053e-05 0.0016408697 0.0039807716 -8.539762e-06
0.00026340084 -0.0018392783 -0.0015167169 0.0006888596 -0.00025479798 -0.0008130658 0.0028725162 0.0057855886
0.02205292 0.018116366 -0.006258758 0.0011846758 0.026668148 0.019708566 0.007862281 0.009699848
0.020662852 0.011845145 0.007990168 -0.0035850685 0.0032361355 -0.0044945683 0.0014007837 0.0041950736
0.0062060812 0.013758168 -0.023026386 -0.025418693 0.023529697 0.026833089 0.0072334595 0.016943503
0.05302918 0.0264058 -0.0047299573 -0.0029349988 0.041608714 0.028962601 0.021457538 0.0068831015
0.0041936883 0.0096337665 -0.0066612377 -0.0067082476 0.005988528 -0.007924574 -0.0071714404 0.0028496366
0.023231262 0.01994756 -0.0016590796 -0.0012209001 0.0029342957 0.010694961 -0.0010054354 -0.0004086867
0.0064295726 -0.0027388325 -0.0075023975 0.0007316293 0.010338595 0.010678189 0.0059141777 0.012089844
0.008445965 0.0015346231 0.002015273 -0.0010503232 -0.0016753012 -0.0060967896 -0.0037050433 0.012996692
-0.0013695227 0.053173132 0.023270732 -0.004264904 0.019336347 0.043071233 -0.0053152605 0.000942952
0.025088739 0.04573345 0.014465276 -0.010735666 0.0034235772 0.007565679 0.007050519 -0.02207907

momentum_buffer f4 [10]
00000000: ae77 973b 5928 dc3c 09c3 463c 5836 6f3c
00000010: ffe8 e93b c6d0 e8bc 82c5 57bc 3e28 9c3b
00000020: 40d0 f5bc b6c8 bf3a
0.004622421 0.026874708 0.012131461 0.014600359 0.007138371 -0.028419863 -0.013169648 0.0047655394
-0.030006528 0.001463196
