oraclebackend/train/non-iid/checkpoint/mnist/ckpt_6_2.pth (torch, 71489 bytes, 12 tensors)

conv1.weight f4 [10, 1, 5, 5]
0	0x3df5e169	0.12005884
1	0x3d6c2b0e	0.057658248
2	0xbe1aa464	-0.15101773
3	0xbe513790	-0.20431352
4	0x3ca57bb0	0.02020058
5	0x3db82aad	0.08992515
6	0x3acb92cb	0.0015531419
7	0x3dfeeed0	0.124478936
8	0x3d1cda6f	0.038294252
9	0xbd66b0ba	-0.056320883
10	0x3e989eaf	0.29808566
11	0x3e62ce7a	0.22149077
12	0x3e7ed058	0.24884164
13	0x3df02bbb	0.11727091
14	0xbdebc386	-0.115119025
15	0x3e0a9f25	0.13537271
16	0x3e7de30e	0.24793646
17	0x3ca39bd7	0.019971771
18	0xbd14976c	-0.03627722
19	0x3d7f3333	0.062304687
20	0x3dd8e4c7	0.10590511
21	0x3df2f400	0.118629456
22	0x389494e9	7.0849266e-05
23	0x3e80b40a	0.2513736
24	0x3e8007d2	0.25005966
25	0x3dc30ec2	0.09524299
26	0x3c51350c	0.012768995
27	0xbe046379	-0.12928571
28	0xbc1e5bcd	-0.009665442
29	0xbd015db6	-0.03158351
30	0x3e15eb46	0.14640531
31	0x3df7d206	0.12100606
32	0xbe345fe3	-0.17614703
33	0xbe2915b9	-0.16512193
34	0xbe47ba0a	-0.19504562
35	0xbe12c086	-0.14331254
36	0x3e456e42	0.19280341
37	0xbde8dfa5	-0.11370782
38	0xbdd173e0	-0.102271795
39	0x3d8aa89b	0.0677044
40	0x3e1ac31e	0.15113494
41	0x3e0d0fc9	0.13775553
42	0x3e06cf88	0.13165104
43	0x3d91b5f4	0.07114783
44	0x3e090024	0.1337896
45	0x3e0a34ab	0.13496654
46	0x3bad46c9	0.0052879793
47	0xbbd6073f	-0.0065316255
48	0xbdefe98f	-0.1171447
49	0x3e6fd4c6	0.2342101
50	0x3e0c15ed	0.13680239
51	0xbe303b35	-0.17210086
52	0x3c5415da	0.012944663
53	0x3e11fa9d	0.14255758
54	0xbdab794d	-0.08372746
55	0xbdd56542	-0.10419704
56	0x3cfa0490	0.030519754
57	0xbe46aab0	-0.1940105
58	0xbdc4f3f6	-0.09616844
59	0x3def1612	0.116741315
60	0xbe0d0403	-0.13771062
61	0xbe2eeb82	-0.17082027
62	0xbe1bce22	-0.15215352
63	0xbe1981db	-0.14990942
64	0x3e685312	0.22687939
65	0x3e573316	0.21015581
66	0x3e5f916a	0.21832815
67	0x3c90dd5d	0.01768368
68	0x3e0fee6a	0.14055791
69	0x3dfd7d7e	0.12377451
70	0x3e3393d1	0.17536856
71	0x3d95bc9a	0.073113635
72	0xbdfb0c49	-0.122582026
73	0x3e08baca	0.13352504
74	0x3d850c8c	0.06496534
75	0x3e5a305a	0.21307507
76	0x3e1e1bb4	0.15440255
77	0xbdc04e5b	-0.09389945
78	0xbd53db3e	-0.051722758
79	0x3e730d92	0.23735645
80	0x3d2b64ed	0.041844297
81	0xbc3b7368	-0.011441089
82	0xbd2999a1	-0.041406278
83	0x3d89f164	0.06735495
84	0x3e6cb582	0.23116115
85	0xbe3c5168	-0.18390429
86	0xbe0be918	-0.13663137
87	0xbd81cf5c	-0.06338379
88	0x3e858c98	0.26083827
89	0x3e41b361	0.18916084
90	0xbe1ea7ea	-0.15493742
91	0xbdf18052	-0.11792053
92	0x3c824b29	0.01590498
93	0x3e1c816b	0.15283744
94	0x3e409091	0.18805148
95	0xbc25e701	-0.010125876
96	0xbe048993	-0.12943105
97	0xbe1b9219	-0.1519245
98	0xbdc02eb0	-0.09383905
99	0x3d7083da	0.058719493
100	0x3d4ecc83	0.050488006
101	0x3d8b8a52	0.06813492
102	0x3ba98042	0.00517276
103	0x3dd57629	0.10422928
104	0xbe08f131	-0.13373257
105	0xbdee7aa7	-0.11644488
106	0x3e216ec2	0.15764907
107	0xbe47f631	-0.19527508
108	0xbe2afa7b	-0.16697113
109	0xbe1dcfdc	-0.15411323
110	0xbcedf820	-0.02904898
111	0x3d0e40fd	0.034729946
112	0xbe346736	-0.17617497
113	0xbc7a98d8	-0.01529523
114	0xbd50cc12	-0.050975867
115	0xbc6039e8	-0.013685681
116	0xbe3d6901	-0.18497087
117	0xbe1c856f	-0.15285276
118	0xbd5557cf	-0.052085694
119	0xbe567cc4	-0.20946032
120	0xbe3e2e05	-0.18572243
121	0x3d82468a	0.063611105
122	0xbe19d060	-0.15020895
123	0x3e5775da	0.2104105
124	0x3e5f6451	0.21815611
125	0xbe3f1503	-0.18660359
126	0xbd08ed14	-0.03342922
127	0xbd246919	-0.04013929
128	0x3d6286f4	0.055304483
129	0x3d7a7c4d	0.0611537
130	0xbded4dc5	-0.11587099
131	0xbe3e1083	-0.18560986
132	0xbbc182d0	-0.0059054866
133	0x3dd94fae	0.10610901
134	0x3e612829	0.21987976
135	0xbe34d6a2	-0.17660001
136	0x3d540b2f	0.051768478
137	0xbd33c488	-0.0438886
138	0x3dd941b0	0.10608232
139	0xbdae7fab	-0.085204445
140	0x3e13580b	0.14389054
141	0x3e22d1a9	0.15900292
142	0x3c6c09e1	0.014406652
143	0x3da763c1	0.081733234
144	0xbc7a66f7	-0.015283338
145	0xbb8ff6c4	-0.0043934304
146	0xbddb8f68	-0.10720712
147	0x3d54d0cf	0.051956948
148	0xbdcb72ea	-0.099340275
149	0xbd4ca780	-0.049964428
150	0x3d17b767	0.03704014
151	0xbd212692	-0.039343424
152	0xbdb4b06b	-0.088227116
153	0xbe4e149a	-0.20125046
154	0xbd0297ce	-0.031883053
155	0xbdb9874f	-0.09059011
156	0x3e50dff2	0.20397928
157	0x3d677347	0.05650642
158	0xbda66a98	-0.081258
159	0xbdf45f24	-0.11932209
160	0x3e2ec128	0.17065871
161	0x3e803b07	0.25045034
162	0xbdeb2416	-0.11481492
163	0x3e49f0e1	0.19720794
164	0xbe260af9	-0.16215123
165	0x3e5781a7	0.21045552
166	0xbd94b626	-0.072613046
167	0x3e7dfeea	0.24804273
168	0x3e0064d2	0.1253846
169	0x3d9f0069	0.0776375
170	0x3e2e82e2	0.17042115
171	0x3dfde5aa	0.123973206
172	0x3def1356	0.1167361
173	0x3d6608e7	0.056160834
174	0xbc43c17c	-0.011947986
175	0xbdb34660	-0.08753657
176	0xbd1597ce	-0.036521725
177	0xbca7bd58	-0.020476028
178	0x3d9ecb04	0.07753566
179	0xbe457ef3	-0.19286709
180	0x3d44474f	0.047919568
181	0x3dd376d7	0.10325401
182	0x3e20b716	0.15694842
183	0xbcefa830	-0.029255003
184	0xbde86a97	-0.113484554
185	0xbe02003c	-0.12695402
186	0xbd864106	-0.06555371
187	0x3deff55a	0.11716719
188	0xbd4faadd	-0.050700057
189	0x3e1bce20	0.15215349
190	0x3c6cb1ec	0.014446717
191	0x3d9115a6	0.07084207
192	0x3d580a1e	0.052744024
193	0x3dbc98bd	0.0920882
194	0x3ddbf46e	0.10739981
195	0x3e4703d5	0.19435056
196	0xbcae4e1f	-0.021277485
197	0x3d48049c	0.04883252
198	0x3cc39aa1	0.023877444
199	0xbd9f1c42	-0.077690616
200	0x3d0d7d05	0.034543056
201	0xbe4b73cb	-0.1986839
202	0x3dc28485	0.09497932
203	0xbe340f52	-0.17583969
204	0xbd8c24e7	-0.06842976
205	0x3e5a2e59	0.21306743
206	0xbc280280	-0.010254502
207	0xbd891c48	-0.06694847
208	0x3e6d96a6	0.23201999
209	0x3e8bfac4	0.27339756
210	0x3e379385	0.17927368
211	0xbd1f1d27	-0.03884616
212	0x3e9ea8d4	0.3098818
213	0x3e7da8e0	0.24771452
214	0x3e01cfee	0.12676975
215	0x3e7f6735	0.24941714
216	0x3e6681e5	0.22510488
217	0x3e4da22c	0.20081395
218	0x3d8926d5	0.0669686
219	0x3e71fe16	0.23632082
220	0x3d5692c8	0.052386075
221	0x3e37c610	0.17946649
222	0x3d936d35	0.07198564
223	0xbdf95702	-0.121747985
224	0xbd277217	-0.04088029
225	0xbe0447d7	-0.1291803
226	0x3e1d7d57	0.15379845
227	0xbdfd668b	-0.12373074
228	0x3e483652	0.19551972
229	0x3d869cbf	0.06572866
230	0x3e2fa012	0.17150906
231	0xbdabcfd1	-0.08389247
232	0x3c88315b	0.016625097
233	0xbe1ac5e9	-0.15114559
234	0xbe2f54dd	-0.17122217
235	0xbe1c2ea2	-0.15252164
236	0x3e4aa535	0.19789584
237	0x3c6aceb8	0.014331512
238	0x3dd992d4	0.10623708
239	0xbe27f0c8	-0.16400445
240	0x3e3b7c62	0.18309167
241	0x3cd6b385	0.026208648
242	0x3e1e0825	0.15432794
243	0x3d94710e	0.07248126
244	0x3d8245bd	0.06360958
245	0xbca65c58	-0.020307705
246	0x3d415a3b	0.04720519
247	0xbdf5d4b2	-0.12003459
248	0xbe072e8f	-0.13201354
249	0xbb99bf26	-0.004691976

conv1.bias f4 [10]
0	0x3d088da2	0.033338197
1	0x3e20b3ff	0.15693663
2	0xbc848613	-0.016177213
3	0x3d11d61f	0.035604592
4	0x3e33cef1	0.1755941
5	0x3db00ef3	0.08596601
6	0xbcc150e4	-0.023598142
7	0xbcbf98b4	-0.023388244
8	0x3e39e6da	0.18154469
9	0x3ab4de4f	0.0013799163

conv2.weight f4 [20, 10, 5, 5]
0	0xbd54f480	-0.051990986
1	0xbd90283b	-0.07038923
2	0x3b8c4712	0.004280933
3	0x3c8a82eb	0.01690813
4	0xbd8d63a7	-0.06903773
5	0xbd8d5478	-0.06900877
6	0xba8b8ac0	-0.0010646209
7	0xbd59f692	-0.053213663
8	0x3ca8c0cc	0.020599745
9	0x3bef0701	0.007294536
10	0xbcc6527e	-0.024209257
11	0x3cf51c33	0.029920673
12	0xbd11f8fc	-0.03563784
13	0xbd5e3ce6	-0.054257296
14	0xbbb3a853	-0.0054827123
15	0x3dd08a4f	0.1018263
16	0x3d2c2056	0.042023025
17	0x3cad9a1a	0.021191645
18	0x3d831e1b	0.064022265
19	0xbce4001b	-0.027832082
20	0x3d2af8c7	0.04174116
21	0x3ddbeab5	0.10738126
22	0x3dad92ae	0.084752426
23	0x3da4989c	0.080369204
24	0xbc84300a	-0.016136188
25	0x3c4012ab	0.011723201
26	0xbd7fd9c3	-0.062463533
27	0xbd8c3dd1	-0.06847728
28	0xbcc663f2	-0.02421758
29	0x3ce9455c	0.028475456
30	0xbc6f0e4d	-0.014590812
31	0x3cfadaa8	0.030621842
32	0xbceec32e	-0.029145803
33	0x3c9c3e23	0.019072598
34	0xbb86aec7	-0.0041101906
35	0x3d965b03	0.07341578
36	0xbd448c93	-0.047985625
37	0xbc4dea58	-0.012568079
38	0xbb0719c6	-0.0020614727
39	0x3d77f909	0.060540233
40	0xbd347a6c	-0.044062063
41	0x3d95bc5b	0.073113166
42	0x3da3134a	0.079626635
43	0x3d26090d	0.040535975
44	0x3d8b8f56	0.068144485
45	0x3d5f3a7d	0.05449914
46	0x3d751ad6	0.059840046
47	0x3d60aad1	0.054850403
48	0xbd101d3a	-0.035184123
49	0x3c996c39	0.018728362
50	0x3d16b9a8	0.03679815
51	0xbbe46c02	-0.0069708833
52	0x3d3e8abd	0.04651903
53	0xbd67d115	-0.05659588
54	0xbb590a5f	-0.0033117754
55	0xbb1484c6	-0.0022662147
56	0x3d730cd6	0.059338413
57	0x3c9e609b	0.019333174
58	0x3bbf1949	0.0058318716
59	0x3d71f6ae	0.059073143
60	0x3d9a3cea	0.0753115
61	0xb99a7b04	-0.00029464823
62	0x3cce8918	0.025211856
63	0x3d5e89e2	0.054330714
64	0x3ce679bd	0.028134221
65	0xbd08a45f	-0.03335988
66	0x3d6531bc	0.055955634
67	0xbd092cdf	-0.033490058
68	0xbbc1b536	-0.0059114946
69	0xbd268eb3	-0.040663432
70	0xbb4d9279	-0.0031367822
71	0xbce145fa	-0.027499188
72	0x3cd537f2	0.026027653
73	0x3d3539f4	0.04424472
74	0x3d42dfba	0.047576644
75	0xbd1ee2a9	-0.03879038
76	0x3d2b83f0	0.041873872
77	0x3adb99f1	0.0016754252
78	0xbd7d967e	-0.0619111
79	0x3c49bada	0.012312615
80	0xbc38c0b7	-0.011276416
81	0x3cd8e406	0.026475918
82	0x3cdcd4bd	0.02695691
83	0xbcd02f6b	-0.025413236
84	0x3d17b93f	0.0370419
85	0x3d0e5f8b	0.034759086
86	0xbd366d44	-0.044537798
87	0xbda405f4	-0.08008948
88	0x3c83d5c3	0.01609314
89	0xbcaa8e1d	-0.020819718
90	0xbb728579	-0.0037005825
91	0xbd855e16	-0.06512086
92	0xbd65abf2	-0.056072183
93	0xbcaf8bf7	-0.021429045
94	0xbd8a26f0	-0.06745708
95	0x3d88d93d	0.0668206
96	0x3d6232af	0.055224117
97	0xbd8e5201	-0.06949235
98	0xbd5be71f	-0.05368721
99	0x3b79e01e	0.003812797
100	0x3bd564bc	0.0065122526
101	0xbd5297d1	-0.051414315
102	0x3ce4ee4f	0.027945666
103	0x3d7df310	0.06199938
104	0x3c0905b0	0.008363172
105	0xbd14bc21	-0.036312226
106	0xbcc250e1	-0.023720207
107	0xbcbea1bf	-0.023270486
108	0xbcf81d5a	-0.030287433
109	0x3ca826c3	0.020526296
110	0x3c678111	0.014129893
111	0xbd0d5467	-0.03450432
112	0xbbc86619	-0.0061156866
113	0x3d58a354	0.052890137
114	0xbd180e97	-0.03712329
115	0xbd40b850	-0.047050774
116	0x3b83eee3	0.0040262803
117	0x3d32e153	0.043671917
118	0x3d338c70	0.043835104
119	0x3b856323	0.004070656
120	0xbcb9e116	-0.022690337
121	0xbc892c7a	-0.01674484
122	0xbc6aed4e	-0.014338804
123	0x3d6c4692	0.05768449
124	0x3cc48260	0.023987949
125	0xbcc2f61d	-0.023798997
126	0x3c4ad310	0.012379423
127	0x3bfb2c80	0.007665217
128	0x3d17977d	0.037009705
129	0xbb7e1dd8	-0.0038775112
130	0x3d5d8204	0.05407907
131	0xbd37fc3b	-0.04491828
132	0x3d4b6fc3	0.04966713
133	0xbcc1b435	-0.0236455
134	0xbd248450	-0.040165246
135	0x3c95d956	0.01829211
136	0x3c059f85	0.008155708
137	0x3d551a87	0.05202725
138	0x3abb52fe	0.0014291701
139	0xbd732c88	-0.05936864
140	0x3d4f6c15	0.050640184
141	0xbd8118f3	-0.06303587
142	0x3c82fc34	0.0159894
143	0xbcdbb4f1	-0.026819678
144	0x3d0a32f1	0.033739988
145	0x3c67a30f	0.014137997
146	0xbd8394b3	-0.064248465
147	0x3d7a425c	0.06109844
148	0x3d2c01e4	0.04199399
149	0xb9fa431c	-0.00047733716
150	0x3baf5c61	0.0053515886
151	0xbd8090e0	-0.06277633
152	0x3c3590cc	0.011081886
153	0xbca21d0b	-0.01978924
154	0x3d1eaa42	0.03873659
155	0x3c36d5f6	0.011159411
156	0x3d85c43e	0.06531571
157	0xbc4a0427	-0.012330092
158	0x3b7fa522	0.003900834
159	0xbc6fb863	-0.014631364
160	0x3c421064	0.011844728
161	0x3d7476e4	0.059683695
162	0x3d3ebcce	0.046566777
163	0x3cbab8b7	0.022793157
164	0x3c283ae9	0.0102679515
165	0x3c93c9b6	0.01804052
166	0xbb74072b	-0.0037235718
167	0x3da648b7	0.08119338
168	0xbd377311	-0.04478747
169	0xbc16e313	-0.009209412
170	0x3d93cb79	0.07216544
171	0x3d2dfbae	0.04247635
172	0x3d830f8c	0.0639945
173	0x3ca1e769	0.019763665
174	0xbcf2c1ef	-0.02963349
175	0xbca3f55e	-0.020014461
176	0xbd8c764f	-0.06858503
177	0x380a6452	3.2995194e-05
178	0xbd03c1fe	-0.032167427
179	0xbd8d52ce	-0.06900559
180	0xbc100375	-0.008789887
181	0x3d5553a2	0.05208171
182	0x3cb9503d	0.022621268
183	0x3ca00adf	0.019536434
184	0x3cdbd3b6	0.02683435
185	0x3d405503	0.046956073
186	0x3d5906d1	0.052985016
187	0x3b96516c	0.004587343
188	0x3c6c70e7	0.014431215
189	0x3cf734c3	0.030176526
190	0x3c67e68a	0.014154086
191	0xbbb063f3	-0.0053830086
192	0xbd34caf3	-0.04413886
193	0x3d78939e	0.060687654
194	0x3ca23a43	0.019803172
195	0x3d4eb4ea	0.0504655
196	0x3d64bb23	0.05584253
197	0xbce0ff6e	-0.027465548
198	0x3d00cdb8	0.03144619
199	0xbd02b84e	-0.031914048
200	0x3b02b1b5	0.0019942347
201	0xbd5d9e36	-0.05410596
202	0xbd1c9f46	-0.038237832
203	0xbd732214	-0.05935867
204	0x3d1ee6af	0.038794216
205	0xbcb9e5ba	-0.02269255
206	0x3d5459c4	0.05184342
207	0x3d2d1ab8	0.04226181
208	0xbc3c95f7	-0.011510364
209	0x3d507c7c	0.050899968
210	0x3da697c9	0.081344195
211	0x3da3c014	0.0799562
212	0xbca917ae	-0.020641174
213	0xbc892b41	-0.016744258
214	0x3c23a934	0.009989072
215	0xbc4dcfe9	-0.012561777
216	0xbaaa3baa	-0.0012987752
217	0x3d90323d	0.07040832
218	0x3cc7328b	0.024316093
219	0x3d41ae77	0.047285523
220	0x3def6f64	0.11691168
221	0x3dc46ed8	0.09591454
222	0x3d08aae0	0.033366084
223	0x3cdc0a1b	0.026860287
224	0x3c8cd7c8	0.017192736
225	0xbd289aec	-0.04116337
226	0x3bd4bdef	0.0064923684
227	0xbc20e73d	-0.0098207565
228	0x3d0b63e9	0.03403083
229	0x3c26df0b	0.0101850135
230	0x3cba961d	0.022776658
231	0xbd231b17	-0.039820757
232	0x3d37d96c	0.044885084
233	0x3d51c2e9	0.05121127
234	0xbd071b90	-0.03298527
235	0x3bfc83d4	0.007706145
236	0x3d924646	0.0714231
237	0xba2c3e37	-0.000657055
238	0x3ccd5562	0.025065128
239	0x3d3b39e8	0.04570952
240	0xbb644d0c	-0.0034835963
241	0xbd251f27	-0.040312912
242	0xbd011147	-0.031510618
243	0x3c489ead	0.0122448625
244	0x3b4a96c8	0.0030912627
245	0x3c9de4ea	0.019274194
246	0xbd390066	-0.045166396
247	0x3cee7a38	0.029111013
248	0xbd703919	-0.058648203
249	0x3d159049	0.036514554
250	0xbd879013	-0.06619277
251	0x3cd7f1ab	0.026360353
252	0xbc3aec12	-0.011408823
253	0xbd0fd1ec	-0.035112306
254	0xbd8fae85	-0.07015709
255	0x3cb8a528	0.02253969

conv2.bias f4 [20]
0	0xbd11f700	-0.03563595
1	0xbd2a04ea	-0.041508593
2	0x3d4ced24	0.050030842
3	0xbd3107ab	-0.043220203
4	0xbd22950d	-0.039692927
5	0xbd6e8f3e	-0.058242075
6	0xbc35f94c	-0.0111068
7	0x3c3add4d	0.011405301
8	0x3d6e3f69	0.05816594
9	0xbd4853ba	-0.048907973
10	0xbbe144be	-0.00687465
11	0x3cdd3907	0.027004732
12	0xba8ed991	-0.001089858
13	0x3c4ead80	0.012614608
14	0xbc459e16	-0.012061616
15	0x3d41e183	0.047334205
16	0x3cc41163	0.023934072
17	0x3d239d1c	0.039944753
18	0xbc3a8b0a	-0.011385689
19	0xbd1acc81	-0.037792686

fc.weight f4 [10, 320]
0	0xbd23edc4	-0.040021673
1	0x3d006300	0.031344414
2	0xbd3c102b	-0.045913856
3	0x3b467c18	0.0030286368
4	0xbce8f030	-0.028434843
5	0xbd7ef671	-0.062246744
6	0xbc63e0d7	-0.013908586
7	0x3b8825f1	0.0041549136
8	0xbd4595dc	-0.04823862
9	0x3d012933	0.03153343
10	0xbd87c760	-0.06629825
11	0x3d1d62bc	0.03842424
12	0x3c0e953d	0.008702573
13	0x3cc46e2f	0.02397832
14	0xbce8a439	-0.02839862
15	0x3bfda0d2	0.0077401185
16	0xbd10be2d	-0.035337616
17	0x3d1b7ebd	0.037962664
18	0x3d0278d4	0.031853512
19	0xbd65fade	-0.05614745
20	0xbd66bf3f	-0.05633473
21	0x3d28bc02	0.041194923
22	0x3b12677f	0.002233952
23	0xbce6e718	-0.028186366
24	0xbce44999	-0.027867125
25	0x3ac17d7a	0.0014762126
26	0x3cb4adb0	0.022055477
27	0xbc778af7	-0.015108815
28	0xbbb16121	-0.00541319
29	0xbd215157	-0.039384212
30	0xbd31c7ee	-0.04340356
31	0xbb83ffd9	-0.004028302
32	0x3d1428f8	0.036171883
33	0xbd811c80	-0.06304264
34	0x3ced2bb1	0.028951498
35	0xbd823eef	-0.0635966
36	0xbd891387	-0.06693178
37	0xbd0aa4d0	-0.033848584
38	0xbcd8ea58	-0.026478931
39	0x3cd26baa	0.025686104
40	0x3c4ce931	0.012506769
41	0xbd04dd6a	-0.03243772
42	0xbd9ce8b8	-0.07661575
43	0xbd0b7f47	-0.034056928
44	0xbcb05049	-0.021522658
45	0xbd2a3c07	-0.041561153
46	0xbd42bbc5	-0.047542352
47	0xbc59d1f6	-0.0132946875
48	0xbd39a3cb	-0.04532222
49	0x3d183eb9	0.037169192
50	0xbd628833	-0.05530567
51	0xbd550dd8	-0.052015156
52	0xbc2355c0	-0.009969175
53	0x3d1e47cf	0.0386427
54	0x3a047ecc	0.00050542946
55	0xbca55711	-0.020183118
56	0x3bd8eaae	0.006619773
57	0xbd8054fb	-0.06266209
58	0xbd08dd38	-0.033414096
59	0x3d126bed	0.035747457
60	0x3d23c674	0.03998418
61	0x3cd8abd0	0.026449114
62	0xbbcf8e25	-0.0063340836
63	0xbcd97025	-0.026542732
64	0x3c87242e	0.016496744
65	0x3cd98117	0.026550813
66	0xbd5caf3e	-0.05387806
67	0x3ca617e1	0.020275058
68	0xbd8a4fb9	-0.06753487
69	0x3c604024	0.013687167
70	0xbd1acb7a	-0.037791707
71	0xbd77cf4c	-0.060500428
72	0x3c3df1a5	0.011593257
73	0xbc743906	-0.014906174
74	0x3cb8163e	0.022471543
75	0xbcc1b34b	-0.023645064
76	0xbd3e63e7	-0.046481993
77	0xbd7be87c	-0.06150101
78	0x3c25ef2c	0.010127824
79	0x3c04b6c0	0.008100212
80	0xbd2c1487	-0.042011764
81	0x3d2faef6	0.042891465
82	0x3d1a1d43	0.037625562
83	0xbb98e970	-0.0046665
84	0x3c80e1a2	0.01573259
85	0xbd58f9bb	-0.052972537
86	0xbd4e43c8	-0.05035761
87	0xbcec813a	-0.028870214
88	0xbd4d6762	-0.05014742
89	0x3d1d9031	0.03846759
90	0x3c434e0e	0.011920465
91	0x3ce0ac4f	0.027425913
92	0xbc6728e6	-0.014108872
93	0xbd27d566	-0.040974997
94	0x3d0af94f	0.033929165
95	0x3b882734	0.004155064
96	0xbc30fb39	-0.010802084
97	0xbcad8459	-0.021181272
98	0x3d26e46d	0.040745188
99	0xbc82044a	-0.015871186
100	0xbcc64b8d	-0.024205947
101	0xbcc88831	-0.024479004
102	0x3cfb4db8	0.030676708
103	0x39cedbc8	0.00039455132
104	0x3bf4b435	0.0074677714
105	0xbd2749c8	-0.040841848
106	0x3cc2c4d4	0.023775496
107	0x3ceab77c	0.028651945
108	0xbc1f1bb6	-0.009711197
109	0xbd83adb6	-0.06429617
110	0x3cd6188d	0.026134754
111	0x3d042c52	0.03226883
112	0x3d3de221	0.04635823
113	0x3c9b9733	0.018992996
114	0xbd0e798e	-0.034783892
115	0x3d3d6349	0.046237264
116	0xbd4d8291	-0.050173346
117	0xbd1724f0	-0.03690046
118	0xbd20ace9	-0.0392274
119	0xbc7849ca	-0.015154311
120	0xbbe47f68	-0.006973196
121	0x3d180a17	0.037118997
122	0x3c83bfbc	0.016082637
123	0x3d3a6078	0.045502156
124	0xbd150b77	-0.036387887
125	0xbd65bb85	-0.056087036
126	0xbd71decf	-0.059050377
127	0xbd358bd5	-0.044322807
128	0x3d155975	0.036462266
129	0xbd7dbfff	-0.06195068
130	0x3c9fbd7f	0.019499538
131	0x3c17931f	0.009251385
132	0x3b9b5567	0.0047404054
133	0xbbfab0e5	-0.007650482
134	0xbcd316aa	-0.025767643
135	0x3c1a09ee	0.0094017815
136	0x3ca0e7f2	0.01964185
137	0xbd6bc43c	-0.05756019
138	0xbd79ae4f	-0.06095725
139	0xbcbad6b8	-0.022807464
140	0xbd3d68e5	-0.046242613
141	0xbc52b568	-0.012860633
142	0xbcff61de	-0.031174596
143	0xbc90f8d2	-0.017696772
144	0xbd3d920b	-0.046281856
145	0x3d320968	0.043466
146	0xbc0b0604	-0.008485321
147	0x3d4d641d	0.050144304
148	0x3d0b051d	0.033940423
149	0x3d000822	0.031257756
150	0xbcc88df5	-0.024481753
151	0xbd72f728	-0.059317738
152	0xbd59f82c	-0.05321519
153	0x3d32d010	0.043655455
154	0xbca32db4	-0.019919254
155	0x3cd4f27c	0.025994532
156	0x3cfc284b	0.030780932
157	0x3d222fe7	0.039596464
158	0xbd5b018d	-0.053468276
159	0x3b6e3f1f	0.003635354
160	0xbd74a64c	-0.059728906
161	0xbd13ea82	-0.036112316
162	0xbd1888f4	-0.037239984
163	0x3d40392a	0.046929516
164	0x3c96adf5	0.018393496
165	0xbd277c29	-0.040889893
166	0xbbbd5037	-0.0057773846
167	0xbd25295a	-0.04032264
168	0x3cab75ac	0.020930134
169	0x3c9acc2f	0.01889619
170	0x3d21f660	0.039541602
171	0xbcad8c11	-0.021184953
172	0xbd2d0ade	-0.042246692
173	0xbd366406	-0.044528984
174	0x3b9a450d	0.0047079385
175	0x3d2d17d3	0.04225905
176	0x3ccd4076	0.025055151
177	0xbba5ba94	-0.0050576422
178	0xbd7a6f5c	-0.061141357
179	0x3a4389f3	0.00074592157
180	0x3d22c707	0.03974059
181	0xbcdbd0e5	-0.026833007
182	0xbd1db21d	-0.03849994
183	0xbcb00b4e	-0.021489765
184	0xbc4c7f91	-0.012481586
185	0xbca48a3c	-0.020085447
186	0x3cb629b1	0.022236677
187	0xbcc25cd5	-0.023725906
188	0xbd0ef282	-0.034899242
189	0x3d1c90e2	0.03822411
190	0xbc1d608c	-0.009605538
191	0x3cb0c81d	0.021579796
192	0x3c173702	0.0092294235
193	0x3cecc21f	0.028901158
194	0x3cb81103	0.02246905
195	0xbb4a6e8e	-0.003088865
196	0x3c5997b8	0.0132808015
197	0xbd1318bd	-0.035912264
198	0xbd4bba9c	-0.04973851
199	0x3d3f0f2d	0.046645332
200	0xbc73c58d	-0.014878643
201	0xbd389c64	-0.04507102
202	0xbcdf87a9	-0.027286367
203	0x3bca80e1	0.0061799143
204	0xbd2a211e	-0.04153549
205	0xbbbb8f3a	-0.005723861
206	0xbd650e95	-0.05592211
207	0x3d33ca51	0.043894116
208	0xbd4866eb	-0.048926275
209	0xbd5e963b	-0.05434249
210	0x3c4e31ba	0.012585098
211	0xbd40a1f8	-0.047029465
212	0x3d1f094b	0.03882722
213	0x3c47eeb4	0.012202907
214	0x3cc88478	0.024477229
215	0x3c9361b5	0.017990926
216	0x3cb19a8f	0.021680145
217	0xbc5000ff	-0.01269555
218	0x3c066b87	0.008204347
219	0xbd1af6d6	-0.037833057
220	0xbcfd9156	-0.03095309
221	0x3d340e8a	0.043959178
222	0xbd4bc8ae	-0.04975193
223	0x3c771210	0.01507999
224	0xbd5539e3	-0.05205716
225	0x3d20623d	0.039156187
226	0xbd31034c	-0.043216035
227	0xbd2aff9a	-0.041747667
228	0xbd3c217f	-0.045930382
229	0x3cb646bc	0.022250526
230	0xbc485c6d	-0.012229067
231	0xbc09dcf8	-0.008414499
232	0xbd31b46f	-0.043384966
233	0x3d489e6b	0.048979204
234	0xbd1f7a97	-0.03893527
235	0xbd5d6c0b	-0.054058116
236	0x3d4e5044	0.050369516
237	0xbd2688d0	-0.04065782
238	0xbd1e4a38	-0.038645
239	0xbd32a62d	-0.04361551
240	0x3850a134	4.9741197e-05
241	0x3cca7792	0.024715219
242	0xbd09534f	-0.033526715
243	0x3b957b05	0.004561784
244	0x3c647465	0.013943766
245	0x3d14b2d5	0.03630336
246	0xbc32c75e	-0.010911791
247	0xbd2656c7	-0.0406101
248	0xbce9fd99	-0.028563308
249	0xbd27d0e6	-0.040970705
250	0xbbe63406	-0.0070252446
251	0xbd16df34	-0.036833957
252	0x3bd7bb45	0.0065836036
253	0x39bc69d2	0.00035936997
254	0x3c3f588d	0.011678827
255	0x3c85826f	0.016297547

fc.bias f4 [10]
0	0xbcd5f12d	-0.026115978
1	0xbce14bb2	-0.027501915
2	0x3c3dd674	0.011586774
3	0xbca63aee	-0.020291772
4	0x3d71862e	0.058965854
5	0xbcae9d04	-0.021315105
6	0x3d2d2063	0.042267215
7	0x3daf77a8	0.085677445
8	0x3c9357eb	0.017986258
9	0xbc99f247	-0.018792285

momentum_buffer f4 [10, 1, 5, 5]
0	0xbc9860d8	-0.018600866
1	0xbc390f24	-0.011295114
2	0x3bd891d2	0.00660918
3	0x3c9812ab	0.01856359
4	0x3cddb516	0.027063888
5	0xbc946c16	-0.018117946
6	0xbc2ca4a7	-0.010537303
7	0x3c691d80	0.014228225
8	0x3ca61e75	0.020278195
9	0x3cbdf728	0.023189142
10	0xbc41bd70	-0.011824951
11	0xbc7b26c4	-0.015329067
12	0x3b37f2ea	0.0028068372
13	0x3c5dca72	0.013537036
14	0x3c9fc3df	0.019502578
15	0x3b9ba481	0.004749835
16	0xbc1f7a40	-0.0097337365
17	0xbbddbc19	-0.0067668078
18	0xbbd15222	-0.006387965
19	0x3c4d5596	0.012532612
20	0x3cb90eca	0.02259006
21	0x3bf05d61	0.0073353504
22	0xbb70174f	-0.0036634987
23	0xbacbfeb8	-0.0015563583
24	0x3bf9ce44	0.0076234657
25	0x3c5725e4	0.013131592
26	0x3c997dfe	0.018736836
27	0x3caeb991	0.02132872
28	0x3c87b2f3	0.016564822
29	0x3c0b58a6	0.008505022
30	0x3c45b4fc	0.012067076
31	0x3c671415	0.014103909
32	0x3cbbec46	0.022939812
33	0x3c3b5116	0.011432907
34	0x3c454249	0.012039729
35	0x3c0028a2	0.007822188
36	0x3a90dd23	0.0011052232
37	0x3c0085f6	0.007844439
38	0x3bf7c7fd	0.0075616823
39	0x3c1291e2	0.008945914
40	0xbb4a2e92	-0.0030850512
41	0xbbc2372a	-0.005926986
42	0xbb6917e4	-0.0035567218
43	0x3ad16558	0.0015975637
44	0x3b55bdea	0.0032614418
45	0x3b6e9179	0.0036402626
46	0x3ac54b10	0.0015052278
47	0x3b55776c	0.0032572402
48	0x3bfdd27c	0.007746039
49	0x3bbac810	0.005700119
50	0x3b146ed1	0.002264906
51	0x3a4c9be4	0.0007805212
52	0xbb7f6792	-0.0038971645
53	0xbc0076fc	-0.007840868
54	0xbc0aa63d	-0.008462486
55	0x3b9d8c8c	0.0048080143
56	0x3b153388	0.002276631
57	0x3b9caa1e	0.0047810217
58	0xba0ffb5c	-0.00054924726
59	0xb9c49cc0	-0.0003750082
60	0x37af7e80	2.0920532e-05
61	0x3b6e6508	0.0036376137
62	0x3b0a7d1c	0.00211317
63	0xbc01ea95	-0.007929464
64	0xbc2f6bd1	-0.010706858
65	0x3ac2c4cf	0.0014859679
66	0xbbd33fbc	-0.0064468067
67	0xbc2ca4b3	-0.010537314
68	0xbc825058	-0.015907452
69	0xbc7e5c70	-0.0155249685
70	0xbc4e87ec	-0.0126056485
71	0xbc4cb2d9	-0.0124938125
72	0xbc6041d2	-0.013687568
73	0xbc8eaa64	-0.017415233
74	0xbc9636f6	-0.018336754
75	0xbc4e5423	-0.012593302
76	0xbc0b30db	-0.008495535
77	0xbc0b0b10	-0.008486524
78	0xbc6f0466	-0.014588451
79	0xbc15bfa8	-0.009139933
80	0xbc220c59	-0.009890639
81	0xbc66a042	-0.014076294
82	0xbc7a8cc4	-0.01529235
83	0xbcbf56b6	-0.023356777
84	0xbc2e76ca	-0.010648439
85	0xbbd27485	-0.0064225816
86	0xbc9e7ea6	-0.0193475
87	0xbceca2ec	-0.028886281
88	0xbd201df4	-0.039091066
89	0xbcd8ee16	-0.026480716
90	0xbb845020	-0.004037872
91	0xbc969fed	-0.018386805
92	0xbcfb9344	-0.03070987
93	0xbd0a3f68	-0.033751875
94	0xbccc87c0	-0.024967074
95	0x3b4bcfba	0.0031099156
96	0xbc2f0bff	-0.010684012
97	0xbce5d701	-0.028056623
98	0xbcf72a7f	-0.03017163
99	0xbc7f559a	-0.015584374
100	0xba731800	-0.00092732906
101	0x37705c00	1.4326535e-05
102	0xbb071624	-0.0020612562
103	0xbb8fc8b4	-0.0043879393
104	0x3980c8a6	0.00024563557
105	0x3c1cc468	0.009568311
106	0x3c2e9ec0	0.010657966
107	0x3c1ed246	0.009693688
108	0x3b92010e	0.004455692
109	0x3b9b4cde	0.004739388
110	0x3c873936	0.016506772
111	0x3c6c08ce	0.014406396
112	0x3c347638	0.011014514
113	0x3bca071e	0.006165399
114	0x3b0e75b8	0.0021737646
115	0x3c807d40	0.015684724
116	0x3c2d469b	0.010575916
117	0x3c1168b3	0.00887506
118	0x3b26b7d8	0.002543917
119	0xbb3d323c	-0.0028869053
120	0x3be0c6bd	0.006859629
121	0xba936274	-0.0011244551
122	0xbba71222	-0.005098597
123	0xbbcbe333	-0.0062221526
124	0xbbd82cae	-0.006597123
125	0x3c0b3004	0.008495335
126	0x3c6b3eb7	0.014358214
127	0x3c45ec04	0.012080196
128	0x3b1559b2	0.0022789058
129	0x3a140db8	0.0005647796
130	0x3c906ddd	0.017630512
131	0x3c6e7d30	0.014556214
132	0xb9097dd0	-0.00013112207
133	0xbbd7d92d	-0.0065871687
134	0xbae258d6	-0.0017268907
135	0x3c7c2419	0.015389466
136	0x3c0b3d20	0.00849846
137	0xbb4e6004	-0.0031490335
138	0xbc0ad465	-0.00847349
139	0x3af2b429	0.0018516827
140	0xb94733a0	-0.0001899735
141	0xbb492a00	-0.00306952
142	0xbba0f6f2	-0.0049122507
143	0xbb8de31d	-0.0043300525
144	0x3a8781e0	0.0010338388
145	0xbc0648a0	-0.008196026
146	0xbc2e7c21	-0.010649712
147	0xbc5fdcdf	-0.0136635
148	0xbc5a10f2	-0.013309704
149	0xbbf7a00f	-0.0075569223
150	0xbbef6d14	-0.0073067043
151	0xbbb5d0b4	-0.005548561
152	0x3b42172a	0.0029615858
153	0x3be6aa93	0.007039377
154	0x3c90096a	0.017582614
155	0xbb982d42	-0.004644067
156	0x39964118	0.00028658728
157	0x3c432264	0.011910055
158	0x3cc390f1	0.023872824
159	0x3cee14c3	0.029062634
160	0xbbbca068	-0.0057564266
161	0xba314b68	-0.00067632506
162	0x3c674f45	0.01411802
163	0x3cd0ae85	0.025473842
164	0x3ca38180	0.019959211
165	0xbac20d0c	-0.0014804914
166	0xbb18fa59	-0.0023342578
167	0xbb2ece0b	-0.0026673104
168	0x3b387828	0.002814779
169	0xbb98520a	-0.0046484517
170	0xba239898	-0.0006240695
171	0x3b285bb8	0.0025689434
172	0x3bb1ce8c	0.0054262336
173	0xbb7d0710	-0.0038608946
174	0xbc0d2fdb	-0.008617367
175	0xbb4b87dd	-0.0031056323
176	0xbb056364	-0.002035343
177	0x3a510e00	0.00079748034
178	0x3c0250a3	0.007953796
179	0x3c34efe2	0.011043521
180	0xb8c63400	-9.4510615e-05
181	0x3b9b8778	0.0047463737
182	0x3c321f66	0.010871744
183	0x3c41b03d	0.011821804
184	0x3c6fe9b2	0.01464312
185	0x3b5b74d9	0.0033486395
186	0x3bf344ec	0.0074239876
187	0x3bc70d5a	0.0060745897
188	0x3b3e6ee2	0.002905779
189	0x3c170090	0.009216443
190	0xbbaece70	-0.005334668
191	0x3b3a3ebb	0.0028418738
192	0x3b2408e1	0.0025029706
193	0x3aaa9840	0.0013015345
194	0x3bedbab2	0.007254922
195	0xbc0c5677	-0.008565537
196	0xbbadc0c7	-0.005302522
197	0xbafeb8ec	-0.0019433773
198	0x3be2122c	0.006899139
199	0x3c2efc51	0.010680274
200	0xbc8fb118	-0.0175405
201	0xbbc9fbde	-0.006164058
202	0xbc936640	-0.017993093
203	0xbbf43db0	-0.007453643
204	0x39e36060	0.0004336862
205	0xbb200f54	-0.0024423199
206	0xbbfba014	-0.007678995
207	0xbc3cdbcf	-0.011527016
208	0xbcb83b0a	-0.02248909
209	0xbc94de16	-0.018172305
210	0xbab96788	-0.0014145235
211	0xbc1b0ef3	-0.009464013
212	0xbbd5b136	-0.0065213693
213	0xbc9736ad	-0.018458689
214	0x3995d680	0.0002857931
215	0xbb779a88	-0.0037781317
216	0xbc1ec541	-0.009690584
217	0xbbd45e58	-0.006480973
218	0x3c244996	0.01002731
219	0x3cb3d0e8	0.0219502
220	0xbc6023e6	-0.013680434
221	0xbca209e8	-0.019780114
222	0xbb83f617	-0.004027139
223	0x3c3ecceb	0.011645536
224	0x3c843a9e	0.016141232
225	0xbc3b88c6	-0.011446184
226	0xbc85d8d2	-0.01633874
227	0xbba7c700	-0.005120158
228	0xba510e56	-0.00079748535
229	0x3b37b0c5	0.0028028947
230	0xbcb18298	-0.021668717
231	0xbc87009a	-0.016479779
232	0x3a1f87ea	0.00060856214
233	0x3c442f86	0.011974221
234	0x3bae030e	0.0053104227
235	0xbcaf6da4	-0.021414585
236	0xbc520157	-0.012817702
237	0x3ac77700	0.001521796
238	0x3bc9e558	0.006161373
239	0x3ae767f8	0.0017654886
240	0xbc32eb3e	-0.010920344
241	0xba86ace6	-0.0010274916
242	0x3ae36574	0.0017348961
243	0xbb963291	-0.0045836647
244	0xbbaf96bb	-0.0053585446
245	0x3b8f29b3	0.0043689846
246	0x3bf373c6	0.0074295728
247	0x3bcbcfda	0.006219846
248	0x3b69808d	0.00356296
249	0xbb78a7c2	-0.0037941788

momentum_buffer f4 [10]
0	0x3b644ae0	0.0034834668
1	0x3c114c0c	0.008868229
2	0xbb964b4e	-0.0045866137
3	0xbc45c0b0	-0.012069866
4	0xbc1f5630	-0.009725139
5	0xbafa970a	-0.00191185
6	0xba2a1040	-0.0006487407
7	0x3b25728a	0.0025245273
8	0xbc0adbb6	-0.008475235
9	0xbc0a5de4	-0.008445237

momentum_buffer f4 [20, 10, 5, 5]
0	0xbbca919d	-0.0061819092
1	0xbadc1c32	-0.0016793071
2	0x3b0ac8fc	0.0021176925
3	0xbabad920	-0.0014255382
4	0xbbd4727e	-0.006483375
5	0xbc62cd02	-0.013842823
6	0xbc30424b	-0.010757993
7	0xbc31a8d9	-0.010843479
8	0x3b0e91c0	0.0021754354
9	0xbc6982c6	-0.01425237
10	0x3b8e7c5a	0.00434832
11	0xbc21eeab	-0.009883563
12	0xbc17b9a7	-0.009260572
13	0x3ac65368	0.0015131058
14	0xbbb4d508	-0.0055185594
15	0x3ca998ad	0.020702684
16	0x3cd4bb78	0.025968298
17	0x3cac19e9	0.021008449
18	0x3c1940aa	0.009353796
19	0xbb54f766	-0.0032496094
20	0xbbf6baa4	-0.0075295735
21	0x3bf0f189	0.007353012
22	0x3cc25c0a	0.023725528
23	0x3c8d17cc	0.017223261
24	0xbbd85523	-0.006601946
25	0xbad5b9db	-0.0016306
26	0x3ada2175	0.0016642051
27	0xba96d9b8	-0.0011508977
28	0x3a409e0a	0.00073477684
29	0x3b98fcb2	0.0046687955
30	0xbc03a940	-0.008035958
31	0xbb535308	-0.0032245535
32	0xbc1427a1	-0.009042651
33	0x3b555afb	0.003255545
34	0xbb67e932	-0.0035386798
35	0x3b83597a	0.004008469
36	0x3a988716	0.0011636938
37	0xbb9a5fc9	-0.0047111255
38	0x3b7dec8b	0.0038745727
39	0x3b45f2de	0.0030204575
40	0x3c75f894	0.015012879
41	0x3bda3583	0.006659211
42	0x3bc6b706	0.0060642986
43	0x3bb9f19d	0.0056745545
44	0xba878dfe	-0.0010342
45	0xbc087528	-0.0083287135
46	0xbc1a4890	-0.009416714
47	0x3bd4b3a4	0.0064911414
48	0x3c6e87b8	0.014558725
49	0xbac9f23d	-0.0015407276
50	0x3b47c918	0.0030484851
51	0x3ba4ea2a	0.0050327973
52	0x3bd248e0	0.006417379
53	0xbbc52fd2	-0.0060176635
54	0x3b321c16	0.0027177385
55	0xbbb8b231	-0.0056364764
56	0xbb72e1c0	-0.0037060827
57	0xbbb74d5c	-0.0055939388
58	0xbb6f9eb6	-0.0036563105
59	0x3b14125b	0.0022593949
60	0x3c08640c	0.008324634
61	0x3c29072f	0.010316654
62	0x3bd7823a	0.0065768035
63	0xbadc919c	-0.0016828063
64	0xba641b30	-0.0008701561
65	0x3c5557b0	0.013021395
66	0x3bf26cf7	0.0073982435
67	0x3c458740	0.012056172
68	0x3af60408	0.0018769512
69	0xbb258433	-0.0025255799
70	0xba616940	-0.00085987523
71	0xbb79f231	-0.0038138742
72	0xbbf5134b	-0.0074791065
73	0xbaa3d750	-0.0012500081
74	0x3b0a04f4	0.0021060081
75	0x3bddc6ba	0.006768075
76	0x3bf83f77	0.007575925
77	0x3c04df32	0.0081098545
78	0x3ac1ba62	0.0014780278
79	0x3c94e2bc	0.018174522
80	0x38f40480	0.00011635665
81	0x3bc46c76	0.005994375
82	0x3c16336c	0.009167533
83	0xbbd33371	-0.0064453413
84	0x3bc1f494	0.0059190486
85	0xbc4bbfde	-0.012435881
86	0x3a265340	0.00063448027
87	0xbb815f23	-0.0039481088
88	0xbc644e74	-0.01393472
89	0xbb9557bb	-0.0045575774
90	0x3b5ed6c0	0.0034002513
91	0x3b20602e	0.002447139
92	0xbc367b9b	-0.011137868
93	0xbc07d4d8	-0.008290492
94	0xbb3539c2	-0.0027652835
95	0x3c8c94c2	0.017160777
96	0x3ce86c27	0.028371884
97	0x3b0de53a	0.0021651522
98	0xbc86c99e	-0.01645356
99	0xba1d5032	-0.0006001025
100	0x3a875baa	0.0010327001
101	0x39fbeee0	0.00048052426
102	0x3b97b629	0.0046298695
103	0x3ac1479e	0.0014746075
104	0x37abb540	2.046919e-05
105	0x3b974c56	0.0046172542
106	0x3c0624da	0.008187497
107	0x3bd0af62	0.0063685635
108	0x3bf2e7f8	0.0074129067
109	0x3bcec495	0.0063100555
110	0x3c23577d	0.009969589
111	0x3bf5c818	0.0075006597
112	0x3b86933b	0.0041069067
113	0x3bfd11f1	0.007723086
114	0x3bfbeb39	0.007687953
115	0x3ab87d40	0.0014075413
116	0x3af241bc	0.0018482725
117	0xbac03ad0	-0.0014665965
118	0x3afbae9f	0.0019201821
119	0x3bfabdbd	0.007652013
120	0x3b1b9a4a	0.0023743086
121	0x3b215b5f	0.0024621112
122	0x3a996162	0.0011701996
123	0x3b4366ac	0.0029815836
124	0x3baeaf09	0.0053309244
125	0x3be12360	0.006870672
126	0x3b81d67e	0.003962337
127	0x3b1dac29	0.0024058914
128	0x3b2b6458	0.0026152339
129	0x3b819dfd	0.0039556012
130	0x3aaa8f50	0.0013012681
131	0x39305190	0.00016815052
132	0x3ba3c6a4	0.004998045
133	0xba970ccc	-0.00115242
134	0x3c0ff86b	0.008787255
135	0xbba68eca	-0.0050829398
136	0x3b37d188	0.0028048474
137	0x3c1bae76	0.009502044
138	0x39b5f8f8	0.00034708506
139	0x3b5f651e	0.003408737
140	0xba623060	-0.0008628424
141	0x3c19a042	0.009376587
142	0x3bb3e8f9	0.005490419
143	0x3b80010f	0.003906376
144	0xb83a2580	-4.438078e-05
145	0x3b8ff5bd	0.004393308
146	0x399f5c80	0.0003039576
147	0xbb9b5ce7	-0.0047412994
148	0xbb936b32	-0.0044988627
149	0x39d419ac	0.00040454918
150	0xbaa9b9b4	-0.0012949021
151	0xbb2a4de9	-0.002598638
152	0xbb56b39a	-0.003276086
153	0x3b92283c	0.0044603627
154	0xba0e56ec	-0.00054298225
155	0xbc269564	-0.010167453
156	0xbc391d0f	-0.011298432
157	0xbbcd2f2b	-0.0062617264
158	0x39aa2550	0.00032452727
159	0xbc2910df	-0.010318964
160	0x3b3ffc41	0.0029294642
161	0xbb2f4a86	-0.00267473
162	0xbbf2476a	-0.007393767
163	0x3bdcdad5	0.006739954
164	0xba9b70c6	-0.0011859171
165	0x3c71fc12	0.014769571
166	0x3c455496	0.012044093
167	0x3c870790	0.016483098
168	0x3bff3160	0.0077878684
169	0xbb955f9d	-0.004558517
170	0xbc120d65	-0.008914326
171	0xbb45ed0e	-0.003020111
172	0x3c6b5af1	0.014364944
173	0x3c6385df	0.013886898
174	0xba5eb6f8	-0.00084958924
175	0x3a8a7ced	0.0010565795
176	0xbad21b56	-0.0016029875
177	0x3ae459b0	0.0017421748
178	0x3aac2508	0.0013133595
179	0xba7820cc	-0.00094653363
180	0xba8abb76	-0.0010584432
181	0xbb6384fb	-0.0034716714
182	0xba01d128	-0.0004952126
183	0x3b68be17	0.0035513693
184	0xbbcfd2f8	-0.006342288
185	0x3941f530	0.00018497254
186	0x394af680	0.0001935605
187	0x3b2de412	0.0026533646
188	0x3b2314c7	0.002488421
189	0xbb56d8c8	-0.003278302
190	0x3bc0d4e8	0.0058847554
191	0x3b0a416d	0.0021096126
192	0x3bb39731	0.00548067
193	0x3b2f4b22	0.0026747664
194	0xbb0fb0eb	-0.002192552
195	0xbbb9b2e7	-0.005667079
196	0x3b87d696	0.0041454537
197	0x3b343f21	0.0027503448
198	0xba7c5160	-0.0009625163
199	0xbb441995	-0.0029922475
200	0x39110ea0	0.00013833726
201	0x3c348f0c	0.011020433
202	0x3be74b14	0.0070585106
203	0x3b7df5f4	0.0038751336
204	0x3b9e2da8	0.00482722
205	0xbc1422c6	-0.009041494
206	0xbbbaf1e2	-0.005705104
207	0x3b88b274	0.004171664
208	0xbb899b8e	-0.0041994518
209	0xbc55c3b4	-0.013047148
210	0xbc27e546	-0.010247534
211	0xbc00fb7a	-0.007872457
212	0x3b541808	0.0032362957
213	0xbb3e70e8	-0.0029058997
214	0xbc2e2110	-0.010628
215	0x3d00ec1f	0.031475183
216	0x3cdc5d3c	0.026899926
217	0x3cc9f8fe	0.024654862
218	0x3be747ce	0.0070581203
219	0xbc018369	-0.007904866
220	0x3c872756	0.016498249
221	0x3c56001a	0.013061548
222	0x3c537944	0.01290733
223	0x3bdaa5a6	0.006672579
224	0xbb51d532	-0.0032017943
225	0x3a65b250	0.00087622274
226	0x3a3eff40	0.000728596
227	0x390df735	0.000135389
228	0x3bc69e79	0.006061372
229	0x3b3a1ceb	0.0028398584
230	0xba8409a4	-0.0010073674
231	0xba610594	-0.00085839
232	0x3a178e0c	0.00057813595
233	0x3ba51997	0.005038451
234	0xbb8cb0ea	-0.0042935507
235	0xb9f3ef0c	-0.00046526676
236	0xbba5bbec	-0.0050578024
237	0xba91bfb0	-0.0011119749
238	0x3ac23aec	0.0014818585
239	0x3b475216	0.0030413917
240	0x3ba02382	0.0048870454
241	0x3bc95ae1	0.006144867
242	0x3bdd522f	0.006754182
243	0x3b55758d	0.0032571286
244	0xbb93f828	-0.0045156665
245	0xbbfa7b9a	-0.007644129
246	0xbb92225f	-0.0044596638
247	0x3b91123c	0.0044272225
248	0x3bb3e01e	0.0054893633
249	0xba85d94e	-0.0010211857
250	0xbc475750	-0.012166813
251	0xbca5f040	-0.020256162
252	0xbc84eb52	-0.01622549
253	0xbbe69b5a	-0.0070375623
254	0x3a56b340	0.00081901625
255	0xbcc2a903	-0.023762232

momentum_buffer f4 [20]
0	0x3ba2b316	0.0049651964
1	0xba88082f	-0.0010378415
2	0x3c12bf6a	0.0089567695
3	0x3c1f8487	0.009736187
4	0xbb6834dc	-0.0035431897
5	0xbb66b1cc	-0.003520119
6	0xbb9a2322	-0.004703895
7	0xba5e0a78	-0.0008470188
8	0xb9e79028	-0.00044167158
9	0xbb8695ae	-0.0041071987
10	0xbbb0df0f	-0.0053976844
11	0x3c1b544a	0.009480545
12	0xba9024f4	-0.0010997341
13	0xbbacf62b	-0.005278369
14	0xbc074790	-0.008256808
15	0x3bc34131	0.005958699
16	0x3b705eef	0.0036677679
17	0x3bd217fa	0.0064115496
18	0xb9f820b0	-0.000473266
19	0xbaae0988	-0.0013277987

momentum_buffer f4 [10, 320]
0	0x380266ce	3.109016e-05
1	0x3897ab92	7.2321985e-05
2	0x38cd199c	9.779932e-05
3	0x38bbd1fc	8.9559675e-05
4	0x37987ec0	1.8178835e-05
5	0x386b0bb7	5.6039276e-05
6	0x389b697b	7.410623e-05
7	0x38981530	7.251871e-05
8	0x3769e15f	1.39403555e-05
9	0x37d82e86	2.577087e-05
10	0x387fa050	6.094604e-05
11	0x38812a16	6.1590385e-05
12	0x37249194	9.809057e-06
13	0x37edad3e	2.8333274e-05
14	0x3855d994	5.0985793e-05
15	0x382aa247	4.068229e-05
16	0x37ee65c2	2.8419196e-05
17	0x385b679a	5.2310155e-05
18	0x386b46bf	5.6094254e-05
19	0x38026a0d	3.1093183e-05
20	0x36f37498	7.2555376e-06
21	0x37b08de8	2.1046915e-05
22	0x38150c71	3.5535955e-05
23	0x37ecc2de	2.8224134e-05
24	0x36ccdc21	6.1053e-06
25	0x3799b942	1.8325289e-05
26	0x38060f38	3.1962263e-05
27	0x37e1c7a8	2.6915062e-05
28	0x36be707a	5.6755352e-06
29	0x3739f846	1.1084665e-05
30	0x37a803c5	2.0028916e-05
31	0x379c7726	1.8652132e-05
32	0x3829b900	4.0465035e-05
33	0x38a3fcd8	7.8195415e-05
34	0x38bc76f7	8.9866975e-05
35	0x388711cc	6.4406166e-05
36	0x3817465e	3.606674e-05
37	0x38a0afb6	7.662123e-05
38	0x38b25aa8	8.5045875e-05
39	0x388407f0	6.295729e-05
40	0x37a269bc	1.9361141e-05
41	0x38642cfe	5.440134e-05
42	0x388a3805	6.590787e-05
43	0x385e87db	5.305545e-05
44	0x37a7a5e7	1.9985206e-05
45	0x3845be2e	4.714558e-05
46	0x386729ca	5.511361e-05
47	0x38205ca9	3.823327e-05
48	0x388174fd	6.17299e-05
49	0x38a2bb12	7.7596065e-05
50	0x3863cf5b	5.4314132e-05
51	0x371c7751	9.326105e-06
52	0x3889cd09	6.57086e-05
53	0x38a5f46e	7.913342e-05
54	0x389109fd	6.915999e-05
55	0x3748e784	1.1974833e-05
56	0x383ab428	4.451364e-05
57	0x38954b6e	7.1189235e-05
58	0x388c8ce8	6.701966e-05
59	0x3784fdc8	1.5853802e-05
60	0x37ee2858	2.8390597e-05
61	0x389bf9ed	7.437528e-05
62	0x386590d0	5.473272e-05
63	0x373f9679	1.1419522e-05
64	0x377003a8	1.4305966e-05
65	0x37d1fb2d	2.5031704e-05
66	0x380315d8	3.1253177e-05
67	0x3804bdee	3.164814e-05
68	0x37cf57d2	2.4717217e-05
69	0x38484ed7	4.775714e-05
70	0x38456c6a	4.706943e-05
71	0x3841574c	4.6096087e-05
72	0x37cc2b2d	2.43388e-05
73	0x381d0612	3.743737e-05
74	0x384d0aa6	4.8885726e-05
75	0x38355d26	4.3240514e-05
76	0x37953e8c	1.779131e-05
77	0x38051b51	3.173511e-05
78	0x3859755f	5.1846142e-05
79	0x381509ba	3.5533427e-05
80	0x38303b90	4.2017142e-05
81	0x38707462	5.732885e-05
82	0x385b6ec8	5.2316842e-05
83	0x378c8248	1.6749967e-05
84	0x3815052a	3.5529178e-05
85	0x3836c908	4.3579406e-05
86	0x38425723	4.6334357e-05
87	0x377998b5	1.4877111e-05
88	0x37ae0b15	2.0747577e-05
89	0x3815acfa	3.5685465e-05
90	0x3828a853	4.0211085e-05
91	0x374d7e8f	1.2248419e-05
92	0x37632bb0	1.3540426e-05
93	0x38246088	3.919055e-05
94	0x3801f936	3.0988092e-05
95	0x373704a3	1.090873e-05
96	0x37cf61c6	2.4721852e-05
97	0x380ccef7	3.3571352e-05
98	0x37a0da77	1.9175217e-05
99	0x36b94924	5.5219443e-06
100	0x380b7232	3.3246535e-05
101	0x3830c6c0	4.214677e-05
102	0x3825d877	3.9540664e-05
103	0x3791d942	1.7386516e-05
104	0x38051693	3.1730695e-05
105	0x38505495	4.9669838e-05
106	0x382c32f4	4.105545e-05
107	0x37b3be5c	2.1427106e-05
108	0x3797cff0	1.8097431e-05
109	0x38211f78	3.84147e-05
110	0x3820825e	3.8268387e-05
111	0x37dd0756	2.6348669e-05
112	0x37b5419f	2.1607439e-05
113	0x38043294	3.1518357e-05
114	0x37d4f56e	2.5386656e-05
115	0x37a89aec	2.0099302e-05
116	0x37e8a77f	2.7734552e-05
117	0x3801add9	3.0917905e-05
118	0x379bcdbd	1.8573244e-05
119	0x37803c84	1.5286969e-05
120	0x37d7a5b4	2.5707159e-05
121	0x3803c64b	3.141751e-05
122	0x37bcfb66	2.2528413e-05
123	0x3786dffe	1.607835e-05
124	0x378ea686	1.7005263e-05
125	0x37a4838a	1.9611576e-05
126	0x37ba8688	2.2235574e-05
127	0x37a98c14	2.0211599e-05
128	0x38878ba9	6.4633154e-05
129	0x38b168b8	8.459523e-05
130	0x38a3e8c0	7.815799e-05
131	0x3815c382	3.570645e-05
132	0x38244b2e	3.9170664e-05
133	0x386a61c6	5.5881006e-05
134	0x384adf0f	4.8368292e-05
135	0x37e9ed10	2.7886155e-05
136	0x38058270	3.183115e-05
137	0x385aec62	5.21954e-05
138	0x3842b254	4.6419285e-05
139	0x37fd7956	3.0216452e-05
140	0x37ff9661	3.0468394e-05
141	0x380652b9	3.202513e-05
142	0x37c839bc	2.3868743e-05
143	0x3782954a	1.5566726e-05
144	0x37e86064	2.770144e-05
145	0x38166490	3.5856443e-05
146	0x381be146	3.7164682e-05
147	0x3734a13a	1.07663745e-05
148	0x37d4b099	2.5354604e-05
149	0x3830a10b	4.2111653e-05
150	0x383b259d	4.4619304e-05
151	0x37a8bb40	2.0114356e-05
152	0x37be2f0a	2.267167e-05
153	0x38384335	4.393161e-05
154	0x38489820	4.7825393e-05
155	0x37d67b35	2.556816e-05
156	0x3744b6b4	1.1725049e-05
157	0x37ca10be	2.4088073e-05
158	0x380a1637	3.2922453e-05
159	0x37c4f708	2.3480054e-05
160	0x3806b91a	3.212048e-05
161	0x384d945c	4.901398e-05
162	0x381edbb0	3.7874735e-05
163	0x37237a8c	9.74409e-06
164	0x37ed3572	2.8277489e-05
165	0x384149ed	4.6083635e-05
166	0x381c2390	3.722642e-05
167	0x373c542d	1.1225272e-05
168	0x37c140f3	2.3037637e-05
169	0x3806bc4e	3.2123462e-05
170	0x380f79c5	3.4207264e-05
171	0x37307bc0	1.051923e-05
172	0x375b5fcc	1.3075722e-05
173	0x37fd2ef6	3.0181818e-05
174	0x3812ccac	3.4999728e-05
175	0x3772ea08	1.4478814e-05
176	0x3817c5c6	3.6185396e-05
177	0x387fd7c5	6.099769e-05
178	0x38817a44	6.173973e-05
179	0x380c7635	3.348869e-05
180	0x38172daa	3.6043733e-05
181	0x387ffa66	6.102994e-05
182	0x38aa6f0c	8.126916e-05
183	0x38560d06	5.1033705e-05
184	0x38095d1b	3.2750057e-05
185	0x3852d330	5.0264585e-05
186	0x389ab9ef	7.377925e-05
187	0x384680c8	4.7326816e-05
188	0x378e4208	1.6958467e-05
189	0x3843ff72	4.6729525e-05
190	0x389704df	7.2011484e-05
191	0x383c383a	4.4875058e-05
192	0x381a3b7c	3.677186e-05
193	0x38766e78	5.8753852e-05
194	0x387caf96	6.024501e-05
195	0x3879b6ea	5.953658e-05
196	0x37e645e6	2.7450686e-05
197	0x382edffc	4.1693434e-05
198	0x3843cf4c	4.6684683e-05
199	0x38461c30	4.723313e-05
200	0x377aea25	1.4955677e-05
201	0x37f022f4	2.8626506e-05
202	0x380f6c79	3.419488e-05
203	0x38246f5c	3.920436e-05
204	0x3779f951	1.4899605e-05
205	0x38007872	3.062975e-05
206	0x38023fbd	3.1053776e-05
207	0x38023b6b	3.1049753e-05
208	0x37946ca4	1.7693565e-05
209	0x37789e78	1.4818848e-05
210	0x363ca520	2.8110298e-06
211	0x35d1c678	1.5629475e-06
212	0x37d7eec5	2.5741183e-05
213	0x37eb6310	2.8060313e-05
214	0x36fdfe8a	7.56962e-06
215	0x3663a418	3.392115e-06
216	0x37ef08bf	2.8495093e-05
217	0x38042290	3.150344e-05
218	0x3728868a	1.0044905e-05
219	0x3690b1c4	4.312229e-06
220	0x37dd5084	2.6382746e-05
221	0x37e962a8	2.7821705e-05
222	0x3747c4b7	1.1907126e-05
223	0x36b8db49	5.5091555e-06
224	0x38283448	4.0103012e-05
225	0x3823c38e	3.9044353e-05
226	0x3791f25f	1.739821e-05
227	0x3613da7b	2.203188e-06
228	0x382eb514	4.1653475e-05
229	0x38561de0	5.10494e-05
230	0x380ff54c	3.4322307e-05
231	0x36c5365a	5.877385e-06
232	0x380ba8a6	3.329725e-05
233	0x384cb283	4.8803642e-05
234	0x38075caf	3.2272827e-05
235	0x370ca5bc	8.383238e-06
236	0x37d53e3e	2.5420562e-05
237	0x38311ac8	4.222503e-05
238	0x37d953d4	2.5907451e-05
239	0x36f624eb	7.335669e-06
240	0x380d25c9	3.365221e-05
241	0x3853352e	5.0355848e-05
242	0x38266c04	3.967808e-05
243	0x36e0617e	6.68707e-06
244	0x3867d880	5.5276323e-05
245	0x38bddfd7	9.053916e-05
246	0x38b47e72	8.606621e-05
247	0x37f4b891	2.9173012e-05
248	0x384e556c	4.9193783e-05
249	0x38b8eee0	8.818298e-05
250	0x38ac181a	8.2060884e-05
251	0x380eda8c	3.4058976e-05
252	0x38017898	3.086831e-05
253	0x38946bea	7.0772905e-05
254	0x3890683e	6.885872e-05
255	0x37f742e3	2.9475841e-05

momentum_buffer f4 [10]
0	0x37d372b8	2.520658e-05
1	0x37875033	1.61306e-05
2	0xbb2fe622	-0.002684005
3	0xbaf553a8	-0.0018716948
4	0xbb6fe7ea	-0.0036606737
5	0x3713f861	8.819713e-06
6	0xbbb72070	-0.0055885836
7	0x3bbf0dee	0.005830518
8	0x3d011862	0.031517394
9	0xbcc1465a	-0.023593117
