oracle/train/iid/checkpoint/mnist/ckpt_2_4.pth (torch, 71489 bytes, 12 tensors)

conv1.weight f4 [10, 1, 5, 5]
0	0x3e5bebef	0.2147672
1	0xbddcff15	-0.107908405
2	0x3e5d1b20	0.21592379
3	0xbcb6e143	-0.02232421
4	0xbe63556a	-0.22200552
5	0x3e14926b	0.14508979
6	0x3e692b11	0.22770335
7	0x3d19d85d	0.037559856
8	0x3e7e0a64	0.24808651
9	0x3e07244a	0.13197437
10	0x3d7eac00	0.06217575
11	0x3eb59441	0.3546467
12	0x3ecb90a9	0.39758804
13	0x3e6e8250	0.23291898
14	0x3e1eea3a	0.15519038
15	0x3df39656	0.11893909
16	0x3e4c106e	0.19928142
17	0x3e2ddb79	0.16978253
18	0xbd29ea5b	-0.041483264
19	0x3e47ec9f	0.19523858
20	0xbd8074c1	-0.06272269
21	0xbe4a4c1c	-0.19755596
22	0x3dc6c777	0.09706014
23	0x3d2bb3b0	0.04191941
24	0x3dfb8c8b	0.12282666
25	0xbe34b3a3	-0.17646651
26	0xbe4e9f29	-0.20177902
27	0xbc8c5190	-0.017128736
28	0xbd9f9410	-0.077919126
29	0x3e4e07b0	0.2012012
30	0x3e38323c	0.17987913
31	0xbd07f7f1	-0.03319544
32	0x3cc5d2bf	0.024148343
33	0xbe18cff8	-0.14923084
34	0xbd78b830	-0.06072253
35	0xbe2f2e23	-0.17107444
36	0xbdd06a7d	-0.10176561
37	0xbdb5a299	-0.08868904
38	0xbe375c21	-0.17906238
39	0xbd7f67c1	-0.062354807
40	0x3e716f22	0.2357755
41	0x3d839dcd	0.064265825
42	0x3df92ab8	0.12166351
43	0xbca85b6b	-0.020551404
44	0x3cc92136	0.024551969
45	0x3d37b50c	0.044850394
46	0xbd90034f	-0.07031881
47	0x3e2fb71e	0.17159697
48	0xbd568b95	-0.05237921
49	0xbe2cdf1f	-0.16881989
50	0x3e57f19e	0.21088263
51	0x3d80d9ef	0.062915675
52	0x3e8aa21b	0.27076802
53	0x3d2d5688	0.04231885
54	0x3dc46acb	0.09590682
55	0xbdd19bf4	-0.10234824
56	0x3e9e233b	0.30886254
57	0xbe289476	-0.16462883
58	0xbe14c0f4	-0.14526731
59	0x3db2a0a6	0.087220475
60	0x3e8d87d0	0.2764268
61	0x3e8b5fdf	0.2722158
62	0x3ddc8c1e	0.10768913
63	0xbdfc8cc9	-0.1233154
64	0x3e24fc29	0.16111816
65	0x3e189b9e	0.14903113
66	0xbe0331d4	-0.12811977
67	0xbe0281b8	-0.12744796
68	0x3e319188	0.17340672
69	0x3d0e07ee	0.03467553
70	0x3dec4d5b	0.11538192
71	0xbaeb878c	-0.0017969473
72	0xbdceedb7	-0.10103934
73	0x3d14e039	0.036346648
74	0x3d9b665c	0.07587883
75	0xbe14e4f6	-0.14540467
76	0xbcfc0496	-0.030763905
77	0xbdc79a07	-0.09746175
78	0xbdfd0e17	-0.12356203
79	0x3cfc849a	0.030824948
80	0x3d30393a	0.043023326
81	0x3d6094ef	0.054829534
82	0xbddbf81e	-0.10740684
83	0x3da229f2	0.07918157
84	0x3c319b7d	0.010840294
85	0x3e1e62e4	0.15467411
86	0xbd31942f	-0.04335421
87	0x3d8ab20a	0.067722395
88	0x3dfb65e2	0.12275292
89	0xbcc60774	-0.024173476
90	0xbcf2f851	-0.029659422
91	0xbcd662f0	-0.026170224
92	0xbe4ad57a	-0.19807997
93	0xbe374aaf	-0.17899583
94	0xbd4dc4eb	-0.050236624
95	0xbde4d19c	-0.11172792
96	0xbcde53c2	-0.027139548
97	0xbe09149c	-0.13386768
98	0x3dffc2d0	0.124883294
99	0xbcf4995e	-0.029858287
100	0x3d85b23c	0.06528136
101	0xbd8bca8e	-0.068257436
102	0x3d8abedf	0.06774687
103	0xbe49a3c6	-0.19691381
104	0x3cc146d9	0.023593353
105	0x3e5bd5bf	0.21468256
106	0x3dce38bc	0.10069415
107	0xbc027315	-0.007962008
108	0xbe2f7425	-0.1713415
109	0x3c53b190	0.012920752
110	0x3d15f98b	0.036614936
111	0xbe06e958	-0.13174951
112	0xbdb38784	-0.08766082
113	0xbe1f187c	-0.15536684
114	0xbdf31ed5	-0.11871115
115	0x3e4d4405	0.20045479
116	0xbe0d773c	-0.13815016
117	0xbe2544e8	-0.16139567
118	0xbdeed537	-0.11661761
119	0xbd9377af	-0.07200562
120	0x3e166ab3	0.1468914
121	0x3d15c9e3	0.036569487
122	0x3d99bc7d	0.075066544
123	0xbe197478	-0.14985836
124	0xbb9bcf23	-0.004754917
125	0xbd72ab40	-0.059245348
126	0xbc11bc64	-0.0088950135
127	0x3e02966a	0.12752691
128	0x3e85582a	0.26043826
129	0xbc720f7d	-0.0147742005
130	0xbe6c1b7b	-0.23057358
131	0x3e2505aa	0.16115442
132	0xbda2b5f8	-0.07944864
133	0x3d3b55ab	0.045735996
134	0x3e536a0e	0.20645925
135	0x3dbcd070	0.09219444
136	0xbd284d15	-0.041089136
137	0xbd851f93	-0.06500163
138	0x3e56b76d	0.20968409
139	0x3e1ec1d5	0.15503629
140	0xbe442f4b	-0.19158666
141	0x3e1c9308	0.15290463
142	0x3e719cbe	0.23594949
143	0x3e64823e	0.22315308
144	0x3ea10230	0.3144698
145	0x3db01723	0.08598163
146	0x3e0648fe	0.13113782
147	0x3e236494	0.15956336
148	0xbdf226dc	-0.11823818
149	0x3e951c9b	0.29123387
150	0xbdbecf23	-0.09316852
151	0xbda2b58d	-0.07944784
152	0x3d7bdf6b	0.061492365
153	0xbc343d09	-0.01100088
154	0x3e43d70a	0.19125
155	0x3e9f6f92	0.3113981
156	0x39b18ad8	0.00033863517
157	0x3e783766	0.24239883
158	0x3e995990	0.29951143
159	0x3e83e541	0.25760844
160	0x3e5cdc21	0.21568348
161	0x3ed7a621	0.42118934
162	0x3eb72dfe	0.35777277
163	0x3e5f48b7	0.21805082
164	0x3e4544ce	0.19264528
165	0x3d8e7f3b	0.06957861
166	0xbe28a898	-0.16470563
167	0xbd8efa54	-0.0698134
168	0xbe7b8362	-0.24561837
169	0x3e020844	0.12698466
170	0xbe74d624	-0.23909813
171	0xbe933a91	-0.2875562
172	0xbe9c4bb9	-0.30526522
173	0xbe6e7ea9	-0.23290505
174	0xbd826190	-0.06366265
175	0x3e45ba56	0.19309363
176	0x3c4a4be6	0.012347197
177	0xbccc67c2	-0.02495182
178	0x3e1e36fb	0.15450661
179	0xbca610a6	-0.02027161
180	0xbdec6dd3	-0.11544385
181	0xbe4400a3	-0.19140868
182	0x3e1793de	0.148025
183	0x3e94785a	0.2899807
184	0x3e5f6bbb	0.2181844
185	0xbe6ba34c	-0.23011512
186	0x3dd5b0fe	0.10434149
187	0xbd88aa7d	-0.06673143
188	0x3d1285bc	0.03577207
189	0x3eb32ded	0.34995976
190	0xbe3d3559	-0.18477382
191	0xbd4c2064	-0.049835578
192	0x3e1dc2ea	0.15406385
193	0x3eb2f3d5	0.34951654
194	0x3e90319d	0.28162852
195	0xbe867551	-0.2626138
196	0x3d5c186a	0.05373422
197	0x3e22c671	0.15896012
198	0x3e4a0fd7	0.19732605
199	0xbd732067	-0.059357073
200	0xbd1bd2ae	-0.038042717
201	0x3e828c7c	0.25497806
202	0xbd6e2221	-0.058138017
203	0xbe7aa46a	-0.24476781
204	0xbe763309	-0.24042906
205	0x3e7afaab	0.24509685
206	0x3ea13b21	0.31490424
207	0x3e162293	0.14661627
208	0xbe6236a7	-0.2209116
209	0x3d301a5f	0.0429939
210	0xbdc44836	-0.09584086
211	0x3e4604f4	0.19337827
212	0x3de4c5b8	0.11170524
213	0x3df2e884	0.11860755
214	0xbe6eaf6e	-0.23309109
215	0x3e5d1dc7	0.2159339
216	0xbbca41e2	-0.0061724046
217	0x3e8e7faf	0.2783179
218	0xbb1f90fc	-0.0024347892
219	0xbe261755	-0.16219838
220	0xbe194ede	-0.14971492
221	0x3cf4713a	0.029839147
222	0x3e213d85	0.15746124
223	0x3e2be65a	0.16787091
224	0x3da605a9	0.08106548
225	0x3e0a0564	0.13478619
226	0xbe291b26	-0.16514263
227	0x3b9da89e	0.0048113605
228	0x3d3b937f	0.04579496
229	0x3e11e87a	0.14248839
230	0x3df9cf8f	0.12197792
231	0x3c0bcb10	0.008532301
232	0xbd913c55	-0.070915855
233	0xbd86cb61	-0.0658176
234	0x3e21a86b	0.15786903
235	0xbb7b1e5b	-0.0038317654
236	0xbcc95879	-0.02457832
237	0xbd160dac	-0.036634132
238	0x3eb655d5	0.3561236
239	0x3e56b987	0.2096921
240	0xbd0d36f7	-0.034476247
241	0xb9d8558b	-0.00041262465
242	0x3e93d235	0.28871313
243	0x3e9d87f2	0.3076778
244	0x3e1ca011	0.15295435
245	0x3dc4e257	0.096134834
246	0xbce0ea24	-0.027455397
247	0x3e7842bd	0.24244209
248	0x3e4de190	0.20105577
249	0xbe464196	-0.19360957

conv1.bias f4 [10]
0	0x3cbc51fa	0.022988308
1	0xbd3c0a96	-0.045908533
2	0x3d5574b7	0.05211326
3	0x3dfccbf1	0.12343586
4	0xbcb9b495	-0.022669116
5	0xbde8256c	-0.11335263
6	0xbc28890e	-0.010286583
7	0x3d41ec51	0.04734451
8	0x3dc17b21	0.09447313
9	0x3e04bd8d	0.12962933

conv2.weight f4 [20, 10, 5, 5]
0	0xbd693195	-0.05693205
1	0x3c071556	0.008244833
2	0x3c94a68a	0.018145818
3	0xbd171f9b	-0.036895376
4	0xbd9977a2	-0.07493521
5	0xbd82e6dc	-0.06391689
6	0x3ad4954a	0.0016218808
7	0x3d7ef5cf	0.06224614
8	0xbcc05fbe	-0.023483153
9	0x3c6a5f22	0.014304908
10	0x3c63c59b	0.013902093
11	0xbc3d544c	-0.0115557425
12	0xbc22d95e	-0.00993952
13	0xbc85a66f	-0.016314713
14	0xbd694961	-0.056954745
15	0xbbef78a4	-0.0073080827
16	0x3b10eb0e	0.002211276
17	0x3d3d888d	0.046272803
18	0xbd851e91	-0.06499971
19	0xbda94738	-0.08265537
20	0xbd25b1c9	-0.040452752
21	0x3c7917d1	0.015203432
22	0x3d7b69ff	0.061380383
23	0x3d865392	0.065589085
24	0x3d4b5928	0.049645573
25	0x3b8a0c93	0.0042129247
26	0x3d408098	0.046997637
27	0x3d32ce9e	0.043654077
28	0xbc571d73	-0.01312958
29	0xbd530c47	-0.05152538
30	0x3d23f949	0.04003266
31	0x3d55feab	0.052244823
32	0x3c39c486	0.011338359
33	0x3d25752b	0.040394943
34	0xbcc36a8f	-0.023854522
35	0x3c88f684	0.01671911
36	0xbd1e8b9d	-0.038707364
37	0xbd4d68f4	-0.05014892
38	0x3d1d2292	0.038363047
39	0x3c9393e1	0.01801485
40	0x3ced4145	0.028961787
41	0x3ba6d864	0.0050917137
42	0xbd00dfba	-0.031463362
43	0xbc291e26	-0.010322129
44	0xbd6dd42b	-0.058063667
45	0x3baa7037	0.0052013653
46	0x3d0b151f	0.03395569
47	0xbce2dbe7	-0.027692748
48	0xbd5a4ec6	-0.05329778
49	0x3ccc590c	0.024944805
50	0xbd460445	-0.048343915
51	0xbd566482	-0.052341945
52	0xbbaecbfa	-0.0053343745
53	0x3cbc2c04	0.022970207
54	0x3d016e1d	0.031599153
55	0x3d2e5ffe	0.042572014
56	0xbcea1d0b	-0.028578302
57	0x3d8532b0	0.065038085
58	0x3ca054bc	0.019571654
59	0xbc257a7a	-0.0101000015
60	0x3cbfa86a	0.023395736
61	0x3c1535d6	0.009107074
62	0xbcdbb6e1	-0.026820602
63	0x3cdad403	0.026712423
64	0xbcaf2aa5	-0.02138264
65	0x3c21144f	0.009831502
66	0x3bd2b37d	0.006430088
67	0xbc5ff1a9	-0.013668456
68	0xbc9f14f6	-0.019419175
69	0xbb10da3d	-0.0022102736
70	0xbd05c8b1	-0.032662097
71	0x3cdf90b8	0.027290687
72	0xbc793564	-0.015210483
73	0x3d45e52b	0.048314255
74	0x3c811637	0.015757663
75	0xbc5dcd83	-0.013537767
76	0xbd8dfa4c	-0.06932506
77	0xbd687a27	-0.05675712
78	0x3d510f8f	0.05104023
79	0xbd1c302f	-0.03813189
80	0xba393009	-0.0007064348
81	0x3cf22341	0.029557826
82	0xbd1790eb	-0.03700344
83	0xbd84a505	-0.064767875
84	0xbc8020cd	-0.01564064
85	0xbc1a919e	-0.009434132
86	0xbc230f67	-0.009952403
87	0xbc02e56a	-0.007989267
88	0x3cb92331	0.022599788
89	0x3caece72	0.021338675
90	0x3c8cd2de	0.017190393
91	0xbba53dc9	-0.0050427658
92	0xba54ee0a	-0.0008122629
93	0x3b484412	0.0030558151
94	0xbd09fc3a	-0.033687808
95	0x3d25fec7	0.040526178
96	0x3d6489a7	0.055795338
97	0xbc9548a0	-0.018223107
98	0x3d347ceb	0.044064444
99	0xbd0e5ea4	-0.034758225
100	0xbc2cfbf1	-0.010558114
101	0x3d335653	0.043783497
102	0x3b2d4a99	0.0026442169
103	0x3c9f40e8	0.01944013
104	0xbd145172	-0.036210485
105	0xbd4486e5	-0.047980208
106	0xbd6cf4bb	-0.05785058
107	0xbd010044	-0.031494394
108	0xbccb61d0	-0.024826914
109	0x3ba133a6	0.004919487
110	0x3cda944f	0.026682047
111	0x3cbca473	0.023027634
112	0xbc0c1d7b	-0.008551951
113	0xbcd1ffa8	-0.025634602
114	0xbd250133	-0.040284347
115	0x3c99106c	0.018684588
116	0xbd438c66	-0.047741316
117	0xbd490220	-0.049074292
118	0x3bcf753d	0.0063311146
119	0xbcb2c596	-0.021822732
120	0x3cd68540	0.026186585
121	0x3cefc181	0.029267075
122	0x3c221f24	0.00989512
123	0x3bf36868	0.0074282177
124	0xbd137236	-0.035997592
125	0x3bf73aa6	0.0075448332
126	0xbc9cabca	-0.019124884
127	0xbd1877a6	-0.03722348
128	0xbd25d1b3	-0.040483188
129	0xbd6d608c	-0.057953402
130	0x3d8a170b	0.06742676
131	0x3cd2887a	0.025699843
132	0x3c02a285	0.007973318
133	0xbd85e4c8	-0.06537777
134	0xbce48da0	-0.027899563
135	0x3d37fdaa	0.044919647
136	0x3cdee66d	0.027209485
137	0xbcfcbec9	-0.030852692
138	0xbcab2226	-0.020890307
139	0x3cf59933	0.029980278
140	0x3d030c95	0.03199442
141	0x3da6d866	0.081467435
142	0x3c2dbbf3	0.010603893
143	0x3c86c6a1	0.016452136
144	0xbd254375	-0.040347535
145	0x3c5db690	0.013532296
146	0x3d315c16	0.04330071
147	0x3d849c9b	0.064751826
148	0xbd607fcf	-0.054809388
149	0xbd3b4311	-0.045718256
150	0xbcb13dd9	-0.021635937
151	0xbcce278c	-0.025165342
152	0xbdb5608c	-0.088563055
153	0xbd8a45bc	-0.06751582
154	0xbd318097	-0.043335523
155	0x3c9d6855	0.019214788
156	0x3c2ae22a	0.010429898
157	0xbd800ad0	-0.06252062
158	0xbd94e9a8	-0.07271129
159	0xbcb58976	-0.022160273
160	0xbcbfaa3b	-0.023396602
161	0xbd175d19	-0.03695402
162	0xbda40d4a	-0.08010347
163	0x3a9b8257	0.0011864406
164	0x3d3c87d9	0.046027992
165	0xbd98ca90	-0.07460511
166	0xbd90c403	-0.07068636
167	0x3bc29cfc	0.005939124
168	0xbd123947	-0.035699155
169	0x3c043546	0.008069342
170	0x3cf115fa	0.029429425
171	0xbc3e1a5f	-0.011602967
172	0x3d91ecea	0.07125266
173	0x3db5c00e	0.08874522
174	0x3d68a05c	0.056793556
175	0x3dbf2df7	0.09334939
176	0x3d8a3938	0.06749195
177	0xbd7c3ecc	-0.061583325
178	0xbbb4d7a2	-0.0055188695
179	0xbcc7a3b7	-0.024370058
180	0x3da3b82c	0.07994112
181	0x3c3bd910	0.011465326
182	0x3d79cb1a	0.06098471
183	0x3d295112	0.04133708
184	0x3cc5ec61	0.024160566
185	0x3db68b30	0.08913267
186	0x3c4ea0ed	0.01261161
187	0x3d976add	0.073934294
188	0xbcdc2727	-0.026874138
189	0x3c73f7ab	0.014890592
190	0xbc7f9069	-0.015598395
191	0xbd0d4e01	-0.03449822
192	0x3d6f325b	0.058397632
193	0x3c9ef1b8	0.01940237
194	0xbd4c755a	-0.049916603
195	0xbcd02617	-0.025408788
196	0xbce7edf1	-0.028311701
197	0xbbd6110b	-0.0065327934
198	0xbcdf806a	-0.027282912
199	0xbd256cd8	-0.040387005
200	0x3c8939fb	0.01675128
201	0x3d8a030c	0.067388624
202	0x3d89f369	0.0673588
203	0xbd3d3711	-0.046195094
204	0x3af2ceee	0.0018524805
205	0xbd5693f3	-0.05238719
206	0x3d97ac4b	0.07405909
207	0x3da636c5	0.08115915
208	0xbd5a2ab3	-0.053263377
209	0xbcbd0e9e	-0.02307826
210	0x3d7d0eb2	0.061781593
211	0x3d981346	0.07425551
212	0x3da8389a	0.08213921
213	0xbc48bcaf	-0.012252017
214	0xbd40edd4	-0.04710181
215	0x3d8a1d35	0.06743852
216	0x3c82d783	0.015971905
217	0x3db3d709	0.08781249
218	0x3c8d77f6	0.017269116
219	0x3d8b6ceb	0.06807884
220	0x3c8d953d	0.017283076
221	0x3c917ead	0.017760599
222	0xbd17d853	-0.037071537
223	0xbd2d0959	-0.042245243
224	0x3c2c343f	0.010510503
225	0x3d7a2c4a	0.061077394
226	0xbd6e957e	-0.058248036
227	0xbb5f68ed	-0.003408964
228	0x3c66e2d0	0.014092162
229	0x3c6a9004	0.014316563
230	0xbba28bcf	-0.004960514
231	0x3d923873	0.07139673
232	0x3d2c67aa	0.04209105
233	0xbd8408e9	-0.06447012
234	0xbd26c9e2	-0.040719874
235	0x3c2477c0	0.010038316
236	0x3c68214c	0.014168095
237	0x3d26e26e	0.040743284
238	0xbd18fe4f	-0.037351903
239	0xbcdeef2a	-0.027213652
240	0x3a618818	0.00086033484
241	0x3d304a13	0.043039393
242	0x3d9e08ed	0.07716546
243	0xbce7f8f2	-0.028316949
244	0x3d68faea	0.056879915
245	0x3d9a7c16	0.07543199
246	0x3bc4d8b7	0.0060072797
247	0x3d9156dd	0.07096646
248	0xbb4501f7	-0.0030060986
249	0xbd37390c	-0.04473214
250	0x3c8b573f	0.017009376
251	0xbcc4eab3	-0.024037695
252	0xbd13062c	-0.035894558
253	0x3d74f4d2	0.05980379
254	0x3cd421b0	0.02589497
255	0xbd339ae7	-0.0438489

conv2.bias f4 [20]
0	0x3b908dcb	0.0044114343
1	0x3c9fdfcb	0.019515892
2	0xbcc2a67c	-0.023761027
3	0x3d661ba6	0.05617871
4	0x3cb66a2e	0.022267427
5	0xbc5947d1	-0.013261751
6	0xbd94da76	-0.072682306
7	0x3d062f99	0.032760236
8	0xbd1e225e	-0.038606994
9	0x3d66ba1b	0.056329828
10	0xbc93e769	-0.01805468
11	0x3c2c5f66	0.010520792
12	0xbd6b3c85	-0.057430763
13	0xbd77d0ed	-0.06050198
14	0x3d6e6d2e	0.05820959
15	0x3d8fcb4f	0.070212
16	0xbd3272f6	-0.043566667
17	0xbd0b227a	-0.033968426
18	0x3cbd0f5f	0.023078619
19	0x3d746006	0.059661888

fc.weight f4 [10, 320]
0	0xbbdccb53	-0.0067381053
1	0xbd6ed4fb	-0.058308583
2	0x3d16b850	0.036796868
3	0xbc773a81	-0.015089632
4	0xbcdc5aeb	-0.026898822
5	0x3c8c9634	0.017161466
6	0xbcaa9eed	-0.020827735
7	0x3d1d3795	0.038383085
8	0xbc81f4dd	-0.01586383
9	0x3d9ad8be	0.075608715
10	0x3d2bb217	0.041917887
11	0x3c0b904e	0.008518292
12	0x3d0d97db	0.03456865
13	0x3dbf7636	0.09348719
14	0x3b81d92d	0.003962657
15	0x3b509041	0.0031824263
16	0xbccff7a2	-0.025386635
17	0xbd66e2c3	-0.0563686
18	0x3d4b25e9	0.0495967
19	0xbcbe849b	-0.02325659
20	0xbd6f975e	-0.058493964
21	0xbbe87f62	-0.0070952633
22	0xbbd9ae2f	-0.0066430788
23	0xbd18cbfa	-0.037303902
24	0x3b7f9aff	0.0039002297
25	0xbd32491b	-0.04352675
26	0xbdcf342d	-0.101173736
27	0x3dcb366d	0.0992249
28	0x3c969d70	0.018385619
29	0x3c3ca1f5	0.011513223
30	0x3d015921	0.03157914
31	0x3d86b09d	0.06576655
32	0xbc48e1c4	-0.012260858
33	0x3d9484f5	0.07251922
34	0xbd3b730b	-0.04576401
35	0x3d424082	0.0474248
36	0x3d7a7eb1	0.06115598
37	0x3cf114db	0.02942889
38	0xbd9f24b3	-0.07770672
39	0xbda80c64	-0.08205488
40	0x3cc8b771	0.024501534
41	0x3dc08e3e	0.094021305
42	0xbd1e1340	-0.038592577
43	0x3cca8a57	0.024724169
44	0x391f83b6	0.00015212488
45	0x3d844a9d	0.06459544
46	0x3c58f5e6	0.0132422205
47	0x39a6ad06	0.000317909
48	0xbcb2707b	-0.02178215
49	0x3d343abc	0.044001326
50	0xbcef5dc4	-0.029219516
51	0x3a8c4eef	0.0010704676
52	0x3c7ca7cc	0.015420865
53	0x3c78c84e	0.015184475
54	0xbd49d167	-0.049271967
55	0xbc9371e8	-0.01799865
56	0xbce69f2c	-0.028152071
57	0xbd87ee87	-0.06637292
58	0xbcd4696d	-0.025929177
59	0x3c8a669b	0.01689463
60	0x3caf60d7	0.021408482
61	0x3d8d32f9	0.06894488
62	0x3c45652f	0.01204805
63	0xbd4899e7	-0.048974898
64	0x3a3b20b9	0.000713836
65	0xbca3b979	-0.019985901
66	0xbd333f12	-0.04376132
67	0x3d864400	0.06555939
68	0xbd622f39	-0.055220816
69	0xbc933790	-0.01797083
70	0xbd45e1ea	-0.04831115
71	0x3b4fe3b2	0.003172141
72	0x3b34b9a3	0.0027576468
73	0xbd80795a	-0.06273146
74	0xbd113b99	-0.035457227
75	0xbd03c63e	-0.03217148
76	0xbb905316	-0.004404436
77	0xbd2874f3	-0.041127156
78	0x3bc0a042	0.005878479
79	0x3cf25d45	0.02958549
80	0xbc2407ae	-0.010011597
81	0x3cd1e81b	0.025623372
82	0x3d236ac1	0.03989673
83	0x3d0d4df9	0.03449819
84	0xbce1bcfb	-0.027555933
85	0xbd53ddcb	-0.05172519
86	0x3d537617	0.05162629
87	0x3d35489e	0.044258706
88	0x3d3f1696	0.0466524
89	0xbc1bb158	-0.009502731
90	0x3cf31188	0.029671445
91	0xbd0ff6bd	-0.035147417
92	0xbca85941	-0.020550372
93	0x3d0d2ba4	0.034465447
94	0x3c84be0c	0.016203903
95	0x3c005c72	0.007834541
96	0xbcc59bc9	-0.024122136
97	0xbd613ba7	-0.05498853
98	0xbc94952c	-0.018137537
99	0xbc264776	-0.010148874
100	0x3cd7324c	0.0262691
101	0x3ca65d5b	0.020308187
102	0xbdd63933	-0.10460129
103	0xbd850801	-0.06495667
104	0x3d66af29	0.05631939
105	0x3cd5feed	0.026122535
106	0xbdb0c49b	-0.086312495
107	0x3d37ac26	0.044841908
108	0x3cff3ddb	0.031157425
109	0x3d300e51	0.042982403
110	0xbc608582	-0.013703706
111	0xbd282e65	-0.04105987
112	0x3cabc0e0	0.020965993
113	0x3d75f7df	0.06005084
114	0x3cc94a3e	0.024571534
115	0x3c8e7036	0.01738749
116	0x3c9aa56f	0.018877713
117	0x3bf91ac9	0.00760207
118	0x3d804b6b	0.06264385
119	0xbc8ea0c6	-0.017410647
120	0x3b616b27	0.0034396143
121	0xbdb17f54	-0.08666864
122	0xbae128ca	-0.0017178294
123	0x3cca6a2a	0.024708826
124	0x3c46583b	0.012105997
125	0xbddc9681	-0.10770894
126	0xba1ddba2	-0.00060218025
127	0xbd0a169a	-0.03371296
128	0x3c5f2307	0.013619191
129	0x3ccf3064	0.02529163
130	0x3c17a42b	0.009255449
131	0xbd288e8c	-0.04115157
132	0x3c22558e	0.009908093
133	0x3d95b1fc	0.073093385
134	0x3d7ff7c7	0.06249216
135	0xbd850ee2	-0.06496979
136	0xbde971d5	-0.11398665
137	0xbc96baab	-0.018399557
138	0x3d050e03	0.032484066
139	0xbd098dd0	-0.03358251
140	0xbd50cd25	-0.05097689
141	0xbdbba5a6	-0.09162454
142	0xbd71b5c4	-0.059011236
143	0x3d2cca07	0.042184856
144	0x3b9f1fce	0.0048560863
145	0x3d7875d8	0.06065926
146	0x3d5a8097	0.05334529
147	0xbd08cff1	-0.033401433
148	0x3d7dbfe5	0.061950583
149	0xbd103b3a	-0.035212733
150	0xbd610a97	-0.05494174
151	0xbb468a09	-0.0030294678
152	0xbd862a10	-0.065509915
153	0x3d8fe03c	0.07025191
154	0x3d25cde1	0.040479545
155	0xbd8249ee	-0.06361757
156	0x3c9e7820	0.01934439
157	0x3d1c53bc	0.038165793
158	0x3dda0cad	0.10646949
159	0xbdb57bde	-0.088615164
160	0x3d615dab	0.05502097
161	0x3c7de403	0.015496257
162	0xbd7f1e96	-0.06228503
163	0xbcec837b	-0.028871289
164	0x3d57d012	0.052688666
165	0xbc49a253	-0.0123067675
166	0xbb05fa2e	-0.0020443308
167	0x3d86871a	0.06568737
168	0x3d09163f	0.03346848
169	0xbd8626aa	-0.06550343
170	0x3cd85d2c	0.026411615
171	0x3b9c8748	0.004776869
172	0x3d1d9b0c	0.038477942
173	0xbd6ee995	-0.05832823
174	0xbc91b4f8	-0.017786488
175	0xbc87552b	-0.016520103
176	0xbc5801fe	-0.013184069
177	0xbbb78ab7	-0.005601253
178	0x3b80f7e9	0.003935803
179	0xbd114746	-0.035468362
180	0x3d6a4801	0.057197575
181	0x3e0c3aa5	0.13694246
182	0x3d153529	0.03642765
183	0xbbe5a016	-0.007007609
184	0x3d9646e1	0.07337738
185	0x3cbad607	0.022807134
186	0xbe1479b3	-0.1449955
187	0xbd614b30	-0.055003345
188	0x3bfccf48	0.0077151395
189	0xbc04b673	-0.00810014
190	0xbc84164f	-0.016123919
191	0x3bef0a99	0.0072949645
192	0x3cf36f14	0.029716052
193	0x392cbc89	0.00016473433
194	0xbbdfed5e	-0.0068337163
195	0x3d73c5c7	0.059514787
196	0xba18ba60	-0.0005826112
197	0xba150a29	-0.0005685413
198	0xbda70bb1	-0.08156527
199	0x3d19b427	0.037525322
200	0xbc8624fb	-0.016375056
201	0xbcdc9c70	-0.026930064
202	0xbcee91bc	-0.029122226
203	0x3c9d6efa	0.019217957
204	0xbc098c46	-0.00839526
205	0x3cf06052	0.029342804
206	0x3c51e841	0.012811721
207	0xbd148328	-0.036257893
208	0x3d41ccdb	0.047314506
209	0x3ba0ad34	0.00490346
210	0x3d924c42	0.07143451
211	0x3d684f31	0.056716148
212	0xbcb67d86	-0.022276651
213	0xbd9c0554	-0.07618204
214	0xbb861bf3	-0.0040926873
215	0xbc1e5248	-0.009663172
216	0x3c1a7085	0.009426241
217	0xbce30c80	-0.027715921
218	0xbb0820d9	-0.0020771532
219	0xbda46f20	-0.08029008
220	0x3c375331	0.011189268
221	0x3d99b652	0.07505478
222	0xbc38137e	-0.011235116
223	0xbd5aad90	-0.05338818
224	0xbc209340	-0.009800732
225	0xbc013591	-0.007886306
226	0xbd08869d	-0.033331502
227	0x3cba33ff	0.022729872
228	0xbcfb5c31	-0.030683609
229	0xbd7d6f2f	-0.06187361
230	0xbca84e67	-0.020545198
231	0xbd09a958	-0.033608764
232	0xbd07623c	-0.033052668
233	0xb9c89eda	-0.00038265326
234	0xbc41224f	-0.011787965
235	0xbd02d189	-0.03193811
236	0x3d1b7f64	0.037963286
237	0xbd08020e	-0.033205085
238	0x3ccfd534	0.025370218
239	0x3c9cacd0	0.019125372
240	0xbbebb9a3	-0.0071937605
241	0x3b364782	0.0027813618
242	0x3d4f4ed7	0.050612297
243	0xba508a0e	-0.0007955142
244	0xbc13f9de	-0.009031741
245	0xbcbad838	-0.02280818
246	0x3a044ad3	0.000504655
247	0xbd6d01ce	-0.05786305
248	0xbd7480e5	-0.059693236
249	0xbdaaef17	-0.08346384
250	0xbd87e911	-0.06636251
251	0x3cd05c71	0.025434704
252	0xbd6de546	-0.05807998
253	0xbc7afc51	-0.015318946
254	0xbd5ae249	-0.05343846
255	0x3d6cd2fd	0.0578184

fc.bias f4 [10]
0	0xbd0b3dd9	-0.03399453
1	0x3d296101	0.041352276
2	0x3d13c973	0.03608079
3	0x3d0777f3	0.033073377
4	0xbc2e3ad3	-0.010634142
5	0x3bcabe8e	0.0061872667
6	0x3c000fd8	0.007816277
7	0x3ca8a773	0.020587659
8	0x3d1f9396	0.03895911
9	0xbcaafbc0	-0.020871997

momentum_buffer f4 [10, 1, 5, 5]
0	0xbc28ea36	-0.0103097465
1	0xbc6d8616	-0.014497301
2	0xbc8a9496	-0.016916554
3	0xbb6d1362	-0.0036174883
4	0x3b45cdac	0.0030182404
5	0xbc651ef8	-0.013984434
6	0xbca95e0d	-0.02067473
7	0xbc5e78fa	-0.013578648
8	0x3ab680b4	0.0013923855
9	0x3c443d58	0.011977516
10	0xbc12bc7d	-0.008956072
11	0xbc577978	-0.013151519
12	0xbb84e73c	-0.0040558856
13	0x3c766eb5	0.015041043
14	0x3cafb32e	0.021447744
15	0xbc0e4122	-0.008682521
16	0xbc190646	-0.009339875
17	0x3c26269e	0.010141043
18	0x3cbdccbe	0.023168918
19	0x3cc23e66	0.023711395
20	0xbb8f3e02	-0.0043714056
21	0x3b1e2656	0.0024131737
22	0x3c93a42e	0.018022623
23	0x3cba7cab	0.022764524
24	0x3cab89d4	0.020939745
25	0xb8d79e2a	-0.00010281459
26	0x3a12520c	0.0005581684
27	0x39bdd0c3	0.0003620443
28	0x3aec6191	0.0018034448
29	0x3b08c1ee	0.0020867544
30	0x3a944c9a	0.0011314333
31	0x3b119a32	0.0022217152
32	0x3adabccf	0.001668835
33	0x3a66f42e	0.00088101893
34	0xbac3932e	-0.0014921182
35	0x3aa9278c	0.0012905463
36	0x3b0ef0e5	0.0021811065
37	0x3b4676a1	0.003028311
38	0x3a38fda6	0.00070568395
39	0x3990e06a	0.00027633022
40	0x3c10ab94	0.00882997
41	0x3bf5c63e	0.007500439
42	0x3bd46ae6	0.00648247
43	0x3bb88cb2	0.0056320066
44	0x3bba7768	0.005690504
45	0x3c5dee2c	0.013545554
46	0x3c3a36aa	0.011365572
47	0x3c295382	0.010334851
48	0x3c2f39fb	0.010694976
49	0x3c290b0b	0.010317574
50	0xbcb4b7d8	-0.02206032
51	0xbccb94e0	-0.024851263
52	0xbcc3bea0	-0.023894608
53	0xbc6587e6	-0.0140094515
54	0xbbcae20c	-0.0061914977
55	0xbcbed5d2	-0.023295317
56	0xbd0c379a	-0.034232713
57	0xbca45bcd	-0.020063305
58	0xbbf16d9a	-0.007367802
59	0x3ba24620	0.004952207
60	0xbcca8722	-0.02472264
61	0xbceb56cc	-0.028727911
62	0xbca9705b	-0.020683458
63	0xbbbeef2a	-0.0058268504
64	0x3b09459f	0.0020946038
65	0xbcaee2d7	-0.0213484
66	0xbcb6d7e4	-0.022319742
67	0xbc99beed	-0.018767798
68	0xbbb9faf0	-0.005675666
69	0xbba2bd03	-0.0049663796
70	0xbc9eded9	-0.019393371
71	0xbc98236b	-0.018571576
72	0xbc832f9d	-0.016013915
73	0xbb40a872	-0.0029397276
74	0xbbc718e2	-0.0060759643
75	0xbb4f9626	-0.0031675189
76	0xbbac80ba	-0.005264369
77	0xbb5838fe	-0.0032992954
78	0xbb27f6a1	-0.002562918
79	0xbb5587a4	-0.0032582069
80	0xba7fbdd0	-0.00097557623
81	0xbb7d77b6	-0.003867609
82	0xbb62cfc2	-0.0034608697
83	0xb98ec1c8	-0.0002722873
84	0xba28c3b8	-0.0006437856
85	0x3b10f4ee	0.0022118646
86	0xb74ba000	-1.2136996e-05
87	0x397325b0	0.00023188326
88	0x3ac53f5a	0.0015048787
89	0x3b760470	0.0037539266
90	0x3b8b9ecc	0.0042608734
91	0x39f7eefc	0.00047289568
92	0xbaf0d036	-0.0018372599
93	0xbad209d2	-0.0016024655
94	0x3b593c35	0.0033147458
95	0x3b4614ee	0.0030224877
96	0xbb2f2bfb	-0.0026729095
97	0xbb234b76	-0.0024916804
98	0xb983ff44	-0.00025176455
99	0x3b4db93b	0.0031390924
100	0x3ab41277	0.0013738413
101	0x3936f180	0.00017446838
102	0xbaefc0f0	-0.0018291753
103	0x3a8cd9e2	0.0010746086
104	0x3b8ef298	0.0043624155
105	0xbb655a4f	-0.0034996455
106	0xbb83cc01	-0.004022122
107	0xbab9abc2	-0.0014165568
108	0x3a237c5c	0.00062364875
109	0xb9c558fc	-0.00037641067
110	0xbb4b7f66	-0.0031051277
111	0xbbbbcaa3	-0.0057309433
112	0xba2994d1	-0.0006469014
113	0x3b3061c4	0.0026913742
114	0x3ac8c134	0.0015316368
115	0xbb625413	-0.0034534975
116	0xbb1871be	-0.0023261155
117	0xba862260	-0.0010233633
118	0x3b1c406c	0.002384211
119	0x3b3aeb94	0.0028521763
120	0xbb404e35	-0.002934349
121	0xbb5e8fd8	-0.003396025
122	0xbb236111	-0.0024929682
123	0x3b2c62c5	0.0026303988
124	0x3b55d182	0.0032626097
125	0xba9b0ae0	-0.0011828803
126	0xbb495c3c	-0.0030725142
127	0xbc108e21	-0.008822949
128	0xbc9c2020	-0.019058287
129	0xbc8373ab	-0.016046366
130	0xbb8ac5d0	-0.004235007
131	0xbb5f7ae4	-0.0034100348
132	0xbc5775fb	-0.013150687
133	0xbcaff865	-0.021480748
134	0xbc381cf1	-0.011237369
135	0xbbb0f0e0	-0.0053998083
136	0xbc3f4718	-0.011674665
137	0xbcd2577d	-0.025676483
138	0xbce4307e	-0.027855154
139	0xbcafac78	-0.021444544
140	0xbb9e6273	-0.0048335134
141	0xbc6f9d37	-0.014624885
142	0xbcc1e816	-0.023670238
143	0xbcce6bc1	-0.025197865
144	0xbc977764	-0.018489547
145	0xbc435d38	-0.011924081
146	0xbc91809e	-0.017761525
147	0xbc87e64e	-0.01658931
148	0xbc849f9d	-0.01618939
149	0xbc94ff3c	-0.018188111
150	0x3c179956	0.009252867
151	0x3ca7f768	0.020503715
152	0x3d050bc6	0.03248193
153	0x3d2d8816	0.04236611
154	0x3d26070a	0.040534057
155	0x3cc678f6	0.0242276
156	0x3cd25a7e	0.025677916
157	0x3d20587e	0.039146893
158	0x3d48c131	0.049012367
159	0x3d47d732	0.04878921
160	0x3d2237a6	0.03960385
161	0x3d22eb4c	0.039775178
162	0x3d2b7d92	0.0418678
163	0x3d697b84	0.05700256
164	0x3d5db8d1	0.054131333
165	0x3d277e2a	0.040891804
166	0x3d07794f	0.033074673
167	0x3d103f3d	0.03521656
168	0x3d45c767	0.048285868
169	0x3d53c7cc	0.051704213
170	0x3d258c86	0.040417217
171	0x3d125eb9	0.035734866
172	0x3d0524da	0.032505848
173	0x3d2587ae	0.040412597
174	0x3d289782	0.041160114
175	0x3bda4e70	0.0066621825
176	0x3b6cc756	0.0036129556
177	0xbb7f52cc	-0.0038959263
178	0xbc5fc1a1	-0.013657005
179	0xbc7ad7c8	-0.015310235
180	0x3b4d49b7	0.0031324455
181	0x3a8777bc	0.0010335366
182	0xbc3dcefb	-0.0115849925
183	0xbd0936b7	-0.033499446
184	0xbce81420	-0.028329909
185	0x3b51cf44	0.003201441
186	0x3aba1564	0.0014197049
187	0xbca43e84	-0.020049341
188	0xbd1d76fe	-0.038443558
189	0xbcece88b	-0.028919479
190	0x3c3f7957	0.0116866445
191	0x3c0a9018	0.008457206
192	0xbc56f6f2	-0.0131204
193	0xbcec7907	-0.028866304
194	0xbca7d204	-0.020485885
195	0x3b91890d	0.0044413866
196	0x3a4b71a0	0.0007760767
197	0xbc871671	-0.016490193
198	0xbcc90aee	-0.024541344
199	0xbc812a1c	-0.01576715
200	0xbcb312de	-0.021859583
201	0xbc99b6fe	-0.018764015
202	0xbadad1c8	-0.00166946
203	0x3bc1c04c	0.005912816
204	0x3c05cd99	0.008166694
205	0xbce12122	-0.02748162
206	0xbcd3c8e9	-0.025852637
207	0xbbd42950	-0.0064746514
208	0x3bb67637	0.0055682915
209	0x3bf162f0	0.0073665306
210	0xbccc1034	-0.02491007
211	0xbca82bfd	-0.020528788
212	0xbc00026a	-0.007813076
213	0xbb0c3d52	-0.0021398854
214	0xbb8c8562	-0.0042883614
215	0xbc537cc0	-0.012908161
216	0xbc538024	-0.012908969
217	0xbc09f380	-0.008419871
218	0xbc2e9c67	-0.010657406
219	0xbc1cb028	-0.009563483
220	0xbb96643b	-0.004589585
221	0xbb94c130	-0.0045396313
222	0xbbaaefac	-0.0052165594
223	0xbbad4fd8	-0.005289059
224	0xbc15a355	-0.00913318
225	0xbaccc524	-0.0015622717
226	0xbb48c390	-0.0030634142
227	0xbab0fee8	-0.0013503702
228	0x391be900	0.00014868751
229	0xba77b6f0	-0.0009449562
230	0xbb06a018	-0.00205422
231	0x3835f580	4.3382403e-05
232	0xbaef1040	-0.0018239096
233	0xbb9c8889	-0.0047770184
234	0x3b19d6fe	0.0023474093
235	0x3b4cdb2f	0.0031258573
236	0x3ae88da4	0.0017742408
237	0xbc385c6c	-0.011252504
238	0xbc3bf838	-0.011472754
239	0xbbed95d4	-0.007250527
240	0x3b820c2c	0.003968736
241	0x3a2cef8e	0.0006596976
242	0xbc513a64	-0.012770269
243	0xbcb2a740	-0.021808267
244	0xbc4fe76e	-0.0126894545
245	0xba3bf0a4	-0.0007169342
246	0xbb2c7728	-0.002631614
247	0xbc82a648	-0.01594843
248	0xbc9303f4	-0.017946221
249	0xbc3701e4	-0.011169884

momentum_buffer f4 [10]
0	0x3b8f7ead	0.0043791146
1	0x3c224ffa	0.009906763
2	0xbc0a309c	-0.008434441
3	0x3bf9e004	0.0076255817
4	0xbc044bc0	-0.008074701
5	0xbc7e4a68	-0.0155206695
6	0x3d1c961f	0.038229104
7	0xbc718a7f	-0.014742493
8	0xbc17c234	-0.00926261
9	0xbbf1f0ee	-0.0073834574

momentum_buffer f4 [20, 10, 5, 5]
0	0xbd200421	-0.039066438
1	0xbd2bc6cc	-0.041937634
2	0xbcffdc6c	-0.031233035
3	0xbcb82523	-0.022478646
4	0xbc9ee954	-0.019398369
5	0xbce8fce5	-0.028440902
6	0xbd01e091	-0.031708304
7	0xbccf371a	-0.02529483
8	0xbc85a53c	-0.016314141
9	0xbc6cfda2	-0.014464768
10	0xbcec05a8	-0.02881129
11	0xbd025e98	-0.031828493
12	0xbcc1a769	-0.023639398
13	0xbce34913	-0.027744805
14	0xbc8b96ce	-0.017039683
15	0xbd12b2b0	-0.03581494
16	0xbd105f1e	-0.03524696
17	0xbd1b2f23	-0.03788675
18	0xbd21f8de	-0.03954398
19	0xbce3880c	-0.027774833
20	0xbd3d2856	-0.046181045
21	0xbd61a485	-0.05508854
22	0xbd6b2abd	-0.057413805
23	0xbd4841a2	-0.048890717
24	0xbd09eaab	-0.033671062
25	0xba78962c	-0.00094828266
26	0xbafb7b1d	-0.0019186471
27	0xbb801bb0	-0.0039095506
28	0xbb71b2f2	-0.0036880341
29	0xbada09ff	-0.0016635059
30	0xbb3c3fae	-0.002872448
31	0xba9e7d6a	-0.001209182
32	0xbb3c5b53	-0.0028740957
33	0xbbad4be5	-0.0052885883
34	0xbb9593b0	-0.004564725
35	0xbaf5035f	-0.0018693021
36	0xbb274a40	-0.0025526434
37	0xbb3ea894	-0.002909218
38	0xbb26931c	-0.0025417274
39	0xbbcd1904	-0.0062590856
40	0xbacfa1a2	-0.0015841017
41	0xbb7e7ae5	-0.0038830575
42	0xbb8b4f61	-0.004251406
43	0xbb5672be	-0.00327222
44	0xbb84bf6f	-0.004051141
45	0xbb1edb28	-0.0024239514
46	0xbb2a727c	-0.002600818
47	0xbb19b51d	-0.00234539
48	0xbafb4128	-0.0019169198
49	0xbb2a9db6	-0.0026033944
50	0xbc575936	-0.013143828
51	0xbcb1e7c4	-0.02171696
52	0xbcb3ca9f	-0.021947203
53	0xbc5fdda8	-0.013663687
54	0xbc741b53	-0.014899093
55	0xbc425362	-0.0118607
56	0xbcc30539	-0.023806201
57	0xbca35a82	-0.019940618
58	0xbc2c8d27	-0.0105317
59	0xbc60011e	-0.013672141
60	0xbc7358ac	-0.014852684
61	0xbccec742	-0.025241498
62	0xbc6e39f8	-0.014540188
63	0xbc425ca2	-0.011862906
64	0xbc533767	-0.012891627
65	0xbc921910	-0.017834216
66	0xbcc552ce	-0.024087336
67	0xbc8c4dfd	-0.017127031
68	0xbca95c7d	-0.020673985
69	0xbc913dc9	-0.017729657
70	0xbc9d5ee1	-0.01921028
71	0xbcde2f5a	-0.027122188
72	0xbceb5e5e	-0.028731521
73	0xbcdbc8b6	-0.026829105
74	0xbcb4d9ea	-0.022076566
75	0xbb2a2dbc	-0.0025967201
76	0xbb22433b	-0.002475931
77	0xbb8f14e1	-0.0043665026
78	0xbb5ed869	-0.0034003502
79	0xbb857e6d	-0.004073909
80	0xbb08ee51	-0.0020894
81	0xba310373	-0.0006752528
82	0xbb0445a3	-0.0020183108
83	0xbaf71167	-0.0018849791
84	0xbb3cbed2	-0.0028800261
85	0xbaccefd0	-0.0015635435
86	0xba90b5e6	-0.0011040538
87	0xbac3f72e	-0.0014950985
88	0xbb0288f1	-0.001991805
89	0xbb5cb1c5	-0.0033675295
90	0xba8243f8	-0.0009938469
91	0xba5c7710	-0.00084100757
92	0xbaac9f91	-0.0013170113
93	0xbac458d9	-0.0014980092
94	0xbb4fc593	-0.0031703457
95	0xbb0b1c2e	-0.0021226513
96	0xbafdd795	-0.0019366617
97	0xbb3f6922	-0.002920695
98	0xbb84112d	-0.004030368
99	0xbb4d26f0	-0.0031303726
100	0xbaf99431	-0.0019041357
101	0xbbb71bc5	-0.005588027
102	0xbc30769f	-0.010770469
103	0xbbb52d04	-0.005529048
104	0xbbcba4c8	-0.006214712
105	0xbb299145	-0.002587394
106	0xbc25ef34	-0.010127831
107	0xbc17a1c3	-0.009254876
108	0xbbf57a64	-0.0074913967
109	0xbc0bd4c8	-0.008534618
110	0xbb789580	-0.0037930906
111	0xbc1c541a	-0.009541536
112	0xbbcb67ad	-0.0062074275
113	0xbbf3fa3e	-0.0074456027
114	0xbc1b1cbc	-0.0094673
115	0xbb674a28	-0.0035292003
116	0xbbf16b16	-0.007367502
117	0xbb0642ba	-0.002048655
118	0xbbd6bd9a	-0.006553364
119	0xbc11abb1	-0.008891032
120	0xb7a8a0e0	-2.0102074e-05
121	0xbb57ade6	-0.0032910048
122	0xbaf1cdc4	-0.0018448164
123	0xbbeb2300	-0.007175803
124	0xbc243cf6	-0.0100243
125	0xbd0167c4	-0.0315931
126	0xbcbc6436	-0.022997003
127	0xbc45d7b6	-0.012075355
128	0xbc3c170b	-0.011480103
129	0xbc0b2009	-0.0084915245
130	0xbce09306	-0.027413856
131	0xbcbd4c87	-0.02310778
132	0xbc640610	-0.013917461
133	0xbc353a22	-0.011061223
134	0xbc80fa8e	-0.015744474
135	0xbcd57e38	-0.026061162
136	0xbca0beb8	-0.019622192
137	0xbcc8372d	-0.024440372
138	0xbc966e62	-0.018363182
139	0xbca099f2	-0.019604657
140	0xbd0189b1	-0.031625453
141	0xbcfc781e	-0.030818995
142	0xbd13325c	-0.0359367
143	0xbcf6195e	-0.030041393
144	0xbcc69cc0	-0.024244666
145	0xbd1a632d	-0.037692238
146	0xbd02892a	-0.03186909
147	0xbd0eee23	-0.034895074
148	0xbccce651	-0.025012167
149	0xbc657f18	-0.014007352
150	0xbce91df8	-0.028456673
151	0xbcf6b39f	-0.030114947
152	0xbce88f54	-0.028388657
153	0xbcca6c82	-0.024709944
154	0xbcaebb8e	-0.021329667
155	0xbcc2e84e	-0.023792412
156	0xbcbd215e	-0.0230872
157	0xbc8aa007	-0.01692201
158	0xbbd94b01	-0.0066312556
159	0xbc11b18a	-0.008892426
160	0xbc90f009	-0.017692583
161	0xbc8b984e	-0.017040398
162	0xbc568c10	-0.013094917
163	0xbc122014	-0.008918781
164	0xbbdfdb29	-0.006831546
165	0xbc89a964	-0.016804405
166	0xbc88a656	-0.016680878
167	0xbc9f738b	-0.019464275
168	0xbca0629b	-0.019578269
169	0xbc995f45	-0.018722186
170	0xbd0c4184	-0.034242168
171	0xbd33772f	-0.043814834
172	0xbd4898ef	-0.048973974
173	0xbd2ebb60	-0.042659163
174	0xbd1cdad6	-0.038294636
175	0xbd1d2134	-0.038361743
176	0xbcc7ae39	-0.024375068
177	0xbc3f4042	-0.011673035
178	0xbc5c2eaa	-0.01343886
179	0xbc28804b	-0.010284494
180	0xbd1362ec	-0.03598301
181	0xbc9c8018	-0.019104049
182	0xbcbbb436	-0.02291308
183	0xbc4a4aa8	-0.012346901
184	0xbc796883	-0.015222671
185	0xbd003a3a	-0.03130553
186	0xbc94cdd4	-0.018164553
187	0xbce10a64	-0.027470775
188	0xbc955d54	-0.018232979
189	0xbc9b60f3	-0.018967127
190	0xbd086f65	-0.03330936
191	0xbce0fbc5	-0.027463803
192	0xbd035992	-0.032067843
193	0xbcda19a0	-0.026623547
194	0xbc8c2ca7	-0.017111136
195	0xbd1acdb1	-0.03779382
196	0xbce4eea4	-0.027945824
197	0xbcfd4b63	-0.030919736
198	0xbcc846b1	-0.02444777
199	0xbc2f59d2	-0.010702567
200	0xbc5b807c	-0.013397332
201	0xbccaa403	-0.02473641
202	0xbc9bf505	-0.019037733
203	0xbc1d8f1a	-0.009616638
204	0xbc4d2598	-0.01252117
205	0xbc5e0ece	-0.013553334
206	0xbcdca71a	-0.026935149
207	0xbca19159	-0.019722627
208	0xbc5c61c4	-0.0134510435
209	0xbbeae1fc	-0.0071680527
210	0xbca6f7e5	-0.020381877
211	0xbcbed39a	-0.023294259
212	0xbcac7352	-0.021051083
213	0xbcb4ae3b	-0.022055736
214	0xbc27d152	-0.010242777
215	0xbcd6314c	-0.026146553
216	0xbce41d8f	-0.027846126
217	0xbc9821a8	-0.018570736
218	0xbcd7e39e	-0.026353654
219	0xbc7d3605	-0.015454774
220	0xbcb56b3e	-0.022145864
221	0xbcd78755	-0.026309649
222	0xbcb304f5	-0.02185295
223	0xbcd23d82	-0.025664095
224	0xbc802d43	-0.015646582
225	0xbd1151af	-0.03547829
226	0xbccb1454	-0.024789967
227	0xbc87007d	-0.016479725
228	0xbc676758	-0.01412376
229	0xbbc79156	-0.0060903234
230	0xbcefb4cc	-0.029261015
231	0xbc8da867	-0.017292215
232	0xbc9c2de2	-0.019064847
233	0xbc459cb2	-0.012061285
234	0xbc4b7536	-0.012418082
235	0xbcdb97d5	-0.026805798
236	0xbc8197c7	-0.015819443
237	0xbcd99fa6	-0.026565384
238	0xbc908648	-0.017642155
239	0xbcbd50ce	-0.02310982
240	0xbcddb09a	-0.02706175
241	0xbd135287	-0.035967376
242	0xbd1b53b7	-0.037921634
243	0xbd02ca2a	-0.03193108
244	0xbce67c5c	-0.028135471
245	0xbd120a7e	-0.035654537
246	0xbd168b08	-0.036753684
247	0xbd1ed4f3	-0.038777303
248	0xbcf0a77c	-0.029376738
249	0xbc920176	-0.017822962
250	0x3cf00f12	0.029304061
251	0x3c63f5a6	0.013913548
252	0x3bf033dc	0.007330401
253	0x3c045010	0.008075729
254	0x3c59a902	0.0132849235
255	0x3d2a2aae	0.04154461

momentum_buffer f4 [20]
0	0xbc354d0c	-0.011065733
1	0x3c06af32	0.008220481
2	0x3a458988	0.00075354474
3	0xbba07e82	-0.0048978934
4	0x3c2942b1	0.010330842
5	0xba85baca	-0.0010202762
6	0x3c414d72	0.01179825
7	0x3bc6ad2e	0.006063125
8	0x3be1be79	0.006889161
9	0xbbac3ad9	-0.0052560386
10	0xbb41de69	-0.002958203
11	0xbbc2a548	-0.005940113
12	0xbbe7cb27	-0.007073778
13	0xba895186	-0.0010476566
14	0x3b476453	0.0030424788
15	0xba5bc25e	-0.000838315
16	0x3a8366c9	0.0010025139
17	0xbc27e560	-0.010247558
18	0x3c2c3c00	0.010512352
19	0x3b1dfcd5	0.0024106998

momentum_buffer f4 [10, 320]
0	0xbb60d5e0	-0.0034307167
1	0xbcffb3a4	-0.031213589
2	0xbcb9dfc1	-0.022689702
3	0xbd37085a	-0.0446857
4	0xbc2d3536	-0.0105717685
5	0x3c03f1ae	0.008053226
6	0xbaca1038	-0.001541621
7	0xbd1c96d3	-0.038229775
8	0xbcc2b3a8	-0.023767307
9	0xbca66478	-0.02031158
10	0xbbbc99b0	-0.0057556257
11	0xbcf773d0	-0.03020659
12	0xbd8cdd5a	-0.06878157
13	0xbd6893c6	-0.056781553
14	0xbc518f3e	-0.012790499
15	0xbca9e3f4	-0.02073858
16	0xbd286f6f	-0.041121896
17	0xbcb238e0	-0.021755636
18	0xbda1de56	-0.07903735
19	0xbd37da35	-0.044885833
20	0xbd1c60ff	-0.03817844
21	0xbdb05c3e	-0.08611344
22	0xbdabc8fb	-0.08387943
23	0xbc8e25ec	-0.017352067
24	0xbd1f9270	-0.038958013
25	0xbd0bc3f8	-0.034122437
26	0xbb1dd818	-0.00240851
27	0xbd049dd9	-0.032377098
28	0xb9b56500	-0.0003459826
29	0xbd37547e	-0.044758312
30	0xbdaa65d0	-0.083202004
31	0xbd7c939c	-0.06166421
32	0xbccd1e32	-0.025038812
33	0xbc4a0058	-0.0123291835
34	0xbd0eef74	-0.03489633
35	0xbd537b0e	-0.051631026
36	0xbd5471cc	-0.051866338
37	0xbd1322bb	-0.035921793
38	0xbb9d7656	-0.0048053665
39	0xbd08ac10	-0.033367217
40	0xbd5aecf2	-0.053448625
41	0xbcfbf1c4	-0.030754931
42	0xbd170900	-0.036873817
43	0xbcc39833	-0.023876285
44	0xbc5a0112	-0.013305919
45	0xbd8cf18e	-0.068820104
46	0xbd6a5cc3	-0.05721737
47	0xbca608ca	-0.020267863
48	0xbca853d0	-0.020547777
49	0xbd35b580	-0.044362545
50	0xbd0a0190	-0.033692896
51	0xbcd35656	-0.025798004
52	0xbc473117	-0.0121577
53	0xbc7fda49	-0.015616008
54	0xbc936b1e	-0.017995413
55	0xbcaf0d62	-0.021368686
56	0x3c0799a6	0.008276379
57	0x3baab8a9	0.0052100015
58	0x3aad279a	0.0013210655
59	0xbac3e612	-0.0014945886
60	0xbcb535dd	-0.02212041
61	0xbc9bd671	-0.019023152
62	0xbb81ad42	-0.0039574215
63	0xbc7fdc09	-0.015616425
64	0xbcbee6cd	-0.023303414
65	0xbd43f7a6	-0.047843598
66	0xbd6c9a21	-0.057764176
67	0xbd3da6bf	-0.0463016
68	0x3a768ecd	0.0009405434
69	0xbd1f32e7	-0.038866904
70	0xbdb262bd	-0.08710239
71	0xbd546b24	-0.05185999
72	0x3b6314d8	0.0034649875
73	0xbc9efe79	-0.019408451
74	0xbc913832	-0.017726991
75	0xbc194a61	-0.009356112
76	0xbbff377c	-0.0077885967
77	0x3c22698c	0.00991286
78	0xbc84e3e9	-0.016221957
79	0xbd14316d	-0.03617995
80	0xbc6b5efb	-0.014365907
81	0xbcaa9098	-0.0208209
82	0xbc4ee63b	-0.012628133
83	0xbcd554f0	-0.026041478
84	0xbc4e79b7	-0.012602261
85	0x3aa7d012	0.0012803099
86	0x39eb8b77	0.00044926602
87	0xbbb79f80	-0.0056037307
88	0xbc1019ba	-0.008795196
89	0x3acfbb10	0.0015848596
90	0xbbae60db	-0.0053216047
91	0xbbe48a36	-0.006974484
92	0xbba09cc9	-0.0049015027
93	0xbc57c83a	-0.013170296
94	0xb6900400	-4.292e-06
95	0x3b55bcde	0.0032613794
96	0xbcd3fe2d	-0.025878036
97	0xbc507a93	-0.0127245365
98	0xbcf5deae	-0.030013409
99	0xbcb5a5b9	-0.02217375
100	0xbb692498	-0.003557479
101	0xbcef132c	-0.029183947
102	0xbcaa83cf	-0.020814804
103	0xbc84e22d	-0.01622113
104	0xbd4439bc	-0.047906622
105	0xbcd6651a	-0.026171256
106	0xbc62e837	-0.01384931
107	0xbb674bce	-0.0035292986
108	0xbd337c32	-0.043819614
109	0xbd1ba39b	-0.037997823
110	0xbd0a2995	-0.033731062
111	0xb8fbf600	-0.00012014434
112	0xbbade651	-0.005306997
113	0xba4e9d03	-0.0007881673
114	0x39deb807	0.0004248025
115	0x39a6dd4e	0.00031826872
116	0xbd10ef96	-0.035384737
117	0xbd21e338	-0.039523333
118	0xbd473c82	-0.04864169
119	0xbbdcb79c	-0.006735755
120	0x3b1522c5	0.002275632
121	0xbd3c1e30	-0.045927227
122	0xbd3f08fc	-0.046639428
123	0x39e0b980	0.00042862818
124	0x3bd1dfe6	0.0064048646
125	0x3a6ad578	0.0008958201
126	0x3ada5358	0.0016656918
127	0xbc27630c	-0.010216486
128	0xbd004d2c	-0.031323597
129	0xbc10cf8a	-0.008838544
130	0xbb1b47a5	-0.0023693827
131	0xbadbedd9	-0.0016779258
132	0xbd573182	-0.05253745
133	0xbda3dbfd	-0.08000944
134	0xbd8087f0	-0.06275928
135	0xbc4c7912	-0.012480037
136	0xbd0e71e1	-0.034776572
137	0xbd83a8cf	-0.06428682
138	0xbd36a017	-0.044586267
139	0x3b06ad98	0.0020550247
140	0x3aa26e88	0.001239256
141	0xbb864e35	-0.0040986785
142	0xbc977739	-0.018489467
143	0xbc5771e0	-0.0131497085
144	0xbc969d10	-0.01838544
145	0xbd176fd8	-0.036971897
146	0xbd43f802	-0.04784394
147	0xbd0a83dd	-0.03381716
148	0xbc74a3d2	-0.014931636
149	0x3a8758c0	0.0010326132
150	0x3b949bc7	0.0045351717
151	0xbc75b8f4	-0.01499771
152	0xbd12e0cb	-0.03585891
153	0xbd782e10	-0.060590804
154	0xbcb42bde	-0.021993574
155	0xbcab12e6	-0.020883035
156	0xbd811583	-0.06302931
157	0xbdc32b15	-0.095297016
158	0xbd203551	-0.039113346
159	0xbc6dfd56	-0.014525732
160	0x39e4a780	0.00043612346
161	0xbcae29b2	-0.021260116
162	0xbb2bfbf4	-0.0026242705
163	0xbd1a39ee	-0.037652902
164	0xbd3f1132	-0.046647258
165	0xbd0396a4	-0.032126084
166	0xbc3d2992	-0.011545556
167	0xbd47ba6e	-0.048761778
168	0xbd183cd2	-0.037167378
169	0x3b578553	0.0032885864
170	0xbd36852d	-0.0445606
171	0xbd127166	-0.035752676
172	0x3c5c2ce7	0.01343844
173	0xbc314066	-0.010818576
174	0xbcf3a5c6	-0.029742133
175	0xbbc173d0	-0.0059036985
176	0xbcb8dc72	-0.022566054
177	0x3b21a266	0.0024663447
178	0xbc086474	-0.008324731
179	0xbd1c5350	-0.03816539
180	0xbd17ef78	-0.03709361
181	0xbd237221	-0.039903764
182	0xbce84a2a	-0.028355677
183	0xbd8dc47f	-0.06922244
184	0xbd7a67fa	-0.061134316
185	0xbd4b9e3a	-0.049711443
186	0x3c08a0eb	0.008339147
187	0xbd980b22	-0.074239984
188	0xbbdb8f68	-0.006700445
189	0x3d0eea92	0.034891672
190	0xbd69763c	-0.056997523
191	0xbd440656	-0.047857605
192	0xbd8e6686	-0.069531485
193	0xbd76d814	-0.060264662
194	0xbd2c364f	-0.04204398
195	0xbcc61986	-0.024182092
196	0xbd223589	-0.039601836
197	0xba94ef64	-0.0011362848
198	0x3ad9b9f9	0.001661121
199	0xbb7c6410	-0.003851179
200	0xbc95b5f5	-0.01827524
201	0xbcacd3ea	-0.021097142
202	0xbcc3fb46	-0.023923527
203	0xbbe04f70	-0.006845407
204	0xbc93e928	-0.018055514
205	0xbd0dc97e	-0.034615986
206	0x3b976bdc	0.004621012
207	0xbb8e722c	-0.0043471064
208	0xbcf24cbc	-0.029577605
209	0xbd188a5e	-0.037241332
210	0xbd312d1c	-0.04325591
211	0xbd33138d	-0.043719817
212	0xbc1320ae	-0.008979959
213	0x3aa6b705	0.0012719339
214	0x3a21b539	0.0006168667
215	0x3b35b422	0.0027725776
216	0xbc7ca529	-0.015420237
217	0xbca6a223	-0.020340985
218	0x3b2cf54e	0.002639133
219	0xbd00812b	-0.031373184
220	0xbd59ada0	-0.053144097
221	0xbd42f9ee	-0.047601633
222	0xbccedddb	-0.025252273
223	0xbcc3a0c3	-0.023880368
224	0xbb081034	-0.002076161
225	0xbb924268	-0.0044634826
226	0xbb8f292d	-0.004368922
227	0x39f97bfc	0.00047585357
228	0xbc2214d9	-0.009892666
229	0xbc199e53	-0.009376126
230	0x3acb0d39	0.0015491612
231	0xb98d6a58	-0.00026972848
232	0xbc73624a	-0.014854977
233	0x3a0c9491	0.00053627143
234	0xbbbfbc44	-0.0058513004
235	0xbb0f81e0	-0.002189748
236	0xbc10fa0a	-0.008848676
237	0xbb6072f3	-0.0034248203
238	0x393ad5c0	0.0001781797
239	0x3abd6b3c	0.0014451514
240	0xbcc38dbf	-0.0238713
241	0xbcaa9623	-0.020823544
242	0xbce5a59d	-0.028033072
243	0xbd244c45	-0.0401118
244	0xbc4388be	-0.011934457
245	0xbca1b88a	-0.019741315
246	0x3ad8513f	0.0016503705
247	0x3a86655b	0.0010253595
248	0xbd07debf	-0.03317141
249	0xbbf2991c	-0.007403506
250	0xbb3d61e7	-0.0028897466
251	0x3b33868b	0.0027393426
252	0x39d4f51b	0.0004061841
253	0xbd00e93d	-0.031472433
254	0xbd02a470	-0.0318951
255	0xbc2288b0	-0.009920284

momentum_buffer f4 [10]
0	0xbc2666ee	-0.010156376
1	0xbb8649ad	-0.0040981383
2	0xbc9e6008	-0.0193329
3	0x3c854367	0.016267492
4	0xbbe96578	-0.0071226917
5	0x3c13c8f0	0.009020075
6	0x3ba78a72	0.0051129395
7	0x3bf5176e	0.0074795997
8	0x3b39e3c0	0.002836451
9	0xb6d78b00	-6.423681e-06
