oracle/train/iid/checkpoint/mnist/ckpt_1_2.pth (torch, 71489 bytes, 12 tensors)

conv1.weight f4 [10, 1, 5, 5]
00000000: 5247 43be 4331 4abe 3e31 19be 51f9 563e
00000010: ad16 9abd f17b 8e3c c232 3cbe 15cb 6fbd
00000020: de51 b43d 2e13 0e3e cee6 09be 22c9 9dbc
00000030: dec2 d3ba 7ca6 9a3d dd38 323e a143 56be
00000040: 0ed3 323e fe6d 8abd e2ae 193e f17d fdbd
00000050: b65a 21be 6063 2e3e b2e2 f9bd 1fc9 2a3d
00000060: 27e7 fabc c450 83bd 2da9 7e3e 6c46 4b3d
00000070: db13 0a3d f63c 0dbe 67a0 743e c7f5 8e3e
00000080: 1bfd 41bd d0da db3d 90cb 0bbd 93fd 743e
00000090: 512e 8a3e 218b 863e 70f9 733e 8a93 8b3d
000000a0: a2a1 5e3e 1d8a e3bd 82da 623e c814 6b3e
000000b0: c313 da3c 5479 47be 52cf 5b3d 4ae2 07bc
000000c0: 2e62 5cbc e69d 253e 9d6d c33d 0a2f f0bd
000000d0: c67b 003e c634 83ba 4ffe d43d f1e1 d1bb
000000e0: cc05 ca3c 3000 a13e 0a62 a53e caa0 e7bd
000000f0: 0589 aebd 1ac7 a13e f24c 853e 5d13 773e
00000100: fb23 243e 9bcf b639 c5b9 353e 5aaf d23d
00000110: 41fd 583e 5d86 d53d 4e4f 183e 3d72 24be
00000120: c9fb 1cbd d3b5 443e a4bd 6b3e 50f6 d63c
00000130: ad25 01be d8ad c83d 258e 743e 0373 393e
00000140: 0d63 493d 85d2 f0bd 87da 8b3e 9eb5 153e
00000150: 54e7 843e 23c4 38be 1d4d 583e 04cb 403d
00000160: 4fb2 873e fc83 7b3e 8270 2d3d 1b7b 8f3d
00000170: 3583 893d 6696 53bd d726 4e3e 0b5f 4bbe
00000180: 453d 943c 58ee cc3d 81c5 20bc afd7 4a3e
00000190: 3e22 ebbd 6fc0 06be 46f4 b63a 12f2 0ebe
000001a0: b40e 563d 85ca 62bd 9d65 a73d a3e4 ccbd
000001b0: a18b 4bbb 0d21 a73d 0feb 9e3d 44a5 463d
000001c0: 772e 413d 60a6 14be 9ee9 a93c ed14 7c3c
000001d0: 7698 3a3e 51b3 7c3e 4c63 02be 2184 0dbe
000001e0: 1045 8c3c d5a9 273d 33d8 743e 5908 c7bc
000001f0: dc50 dd3d 4c6b 6d3e 71cf 273e 4dc4 fbbd
00000200: f615 323d 9233 09be 46a9 343e 120c 4b3e
00000210: b923 32be ae25 28be d685 323e 78b1 bcbd
00000220: 7064 f8bd 0895 abbc c8fb eebd 2358 13be
00000230: 7680 b53b 4787 ccbc 9b7d ff3d 0891 293e
00000240: 4134 20be 8353 263e 6924 bfbd 8cdb d13d
00000250: bc32 d8bd 5ac8 383e 0080 fcbc 986e 43bd
00000260: 156a d0bd 8547 593e ddaa d83d 563d 173e
00000270: 5965 5fbd 9529 363e 9db8 0abe 074b e53d
00000280: e5ab 6dbd c04e 0bbe 8775 803d 6552 ff3b
00000290: bcc8 20be 99b7 47be 7313 2fbd e128 6abd
000002a0: 79b7 f6bd 808e 27be 6e52 9e3d cc8b ea3d
000002b0: 6571 78bd 617c 9cbd 8a2f 773d 4b04 5a3d
000002c0: 9657 37be fa03 6b3d 0e1b 52be cae7 0f3e
000002d0: f85e 283d 090c 09be 4553 693e 89f2 dfbb
000002e0: 5540 a3bc d9c4 883e 4cc8 9d3e ecc0 943e
000002f0: 867c 8f3e 1d2e 303e c4fc 023e 8edb 703e
00000300: c68a f13d ebbf 6e3d 6dbd 81bd 7ea0 063d
00000310: 6e07 33be b154 b53d 0abf 8a3d 4393 dbbd
00000320: e9be a03d 69eb 03be 2d9b 18bd bf87 2dbe
00000330: e4ce 4ebe 7ec6 d4bd d638 66be 2c8f 6cbe
00000340: 0383 8cbc e507 b7bc 861a 0cbd 0a51 0a3e
00000350: 3068 a63d 8aff cb3b 53e3 4abd 4ae4 aa3d
00000360: 2529 00bc dfbd f13d 7634 843e 8db3 df3d
00000370: cccc 943e 02e8 2e3e 5350 3a3e 5f42 50bc
00000380: bdf9 cebd 4647 eb3b 1a43 3e3e 3c46 563e
00000390: 632e e7bd 1f9c ad3d 0a8a e43d 7184 f03d
000003a0: aa1e 943e 9122 113c 212f d3bc ea99 8f3e
000003b0: 78c0 303d a311 7c3d 34c7 12be 03b0 29bd
000003c0: fe4c 913e d269 9b3e bc99 d83d b081 a93c
000003d0: f99d 41bd 6a41 7c3e 049b 483e 41bc 5a3e
000003e0: a1e0 6dbd ba81 153e
-0.19070175 -0.19745354 -0.1496019 0.20993544 -0.07523856 0.017393084 -0.18378738 -0.058543283
0.088046774 0.13874504 -0.13466951 -0.019260947 -0.0016156097 0.075512856 0.17404504 -0.20924236
0.17463323 -0.067592606 0.15008119 -0.12377537 -0.1575726 0.17030096 -0.12201442 0.04169571
-0.0306278 -0.06411889 0.24869223 0.049627706 0.033710342 -0.13792786 0.23889314 0.27921888
-0.04736052 0.107350945 -0.03412968 0.23924856 0.26988462 0.26278022 0.23825622 0.0681525
0.21741346 -0.111103274 0.22153667 0.22957146 0.026620751 -0.19479877 0.053664513 -0.008293698
-0.013451142 0.16173515 0.095423914 -0.11727722 0.12547216 -0.0010010235 0.10400068 -0.006405108
0.024660967 0.31445456 0.3230136 -0.11309965 -0.08522228 0.31597215 0.26035267 0.2412848
0.1602935 0.00034868423 0.17746647 0.10287352 0.21190359 0.104260184 0.14874002 -0.16059203
-0.03832606 0.19209985 0.23021561 0.026240498 -0.12612028 0.09798783 0.23882349 0.1811028
0.049166728 -0.117589034 0.2731516 0.14620063 0.2595774 -0.1804357 0.21123166 0.04706861
0.26503226 0.24562067 0.042343624 0.070059024 0.06714479 -0.051657103 0.20132004 -0.19860475
0.018095622 0.10006398 -0.009812714 0.1980884 -0.114811406 -0.13159345 0.0013958297 -0.1395953
0.052260116 -0.05536892 0.08173678 -0.100045465 -0.0031058567 0.08160601 0.077596776 0.048497453
0.047163453 -0.14516592 0.02074128 0.0153858485 0.18222222 0.24677779 -0.12733191 -0.13819934
0.017122775 0.04093345 0.23910598 -0.024295973 0.10806438 0.23185462 0.16387726 -0.12293301
0.043477975 -0.13398579 0.17642698 0.19828823 -0.1739644 -0.16420624 0.17433867 -0.09213537
-0.12128532 -0.020945087 -0.11669117 -0.1438909 0.0055389954 -0.024966849 0.12475129 0.16559231
-0.15644933 0.16242795 -0.093331166 0.10246953 -0.10556552 0.18045178 -0.030822754 -0.047712892
-0.101764835 0.21218689 0.105794646 0.14769492 -0.054540012 0.177893 -0.13546987 0.11195951
-0.05802526 -0.1360426 0.062724166 0.0077918046 -0.15701574 -0.1950363 -0.042743158 -0.05716789
-0.120467134 -0.16362953 0.07730566 0.114524454 -0.060655016 -0.07640911 0.06034807 0.05322675
-0.17904505 0.05737684 -0.20518133 0.14053264 0.041106194 -0.13383497 0.22785671 -0.0068343324
-0.019928137 0.26712683 0.30816877 0.29053438 0.2802469 0.17205091 0.12791735 0.23521253
0.11794047 0.058288496 -0.06334958 0.0328679 -0.17483303 0.08854044 0.06774719 -0.10721447
0.07848913 -0.1288277 -0.037257362 -0.16946314 -0.2019611 -0.10389422 -0.22482619 -0.2310149
-0.017152315 -0.022342632 -0.034204982 0.13507476 0.08125341 0.006225531 -0.0495332 0.08344324
-0.00782231 0.11803793 0.25821275 0.109229185 0.29062498 0.17080691 0.18194704 -0.012711137
-0.101062275 0.0071801273 0.18580285 0.2092523 -0.112881444 0.08477043 0.11159141 0.11744011
0.28929645 0.008858339 -0.025779309 0.28047115 0.043152303 0.061540257 -0.14333802 -0.041427623
0.28379053 0.30354172 0.105761975 0.020691723 -0.047269795 0.24634328 0.19590384 0.21360876
-0.05807555 0.14600268

conv1.bias f4 [10]
00000000: 0e69 dd3d 2239 f0bd 1761 603e a9ce 0e3e
00000010: a5d2 e03d 9c4d 45be 12e7 01bc 1e1f 4a3e
00000020: 085f d53d 4e93 fcbd
0.10811053 -0.11729647 0.21912037 0.13946022 0.10977677 -0.19267887 -0.007928627 0.19738433
0.104185164 -0.12332784

conv2.weight f4 [20, 10, 5, 5]
00000000: 6384 0bbc a670 213d 2345 d53c 6abd 213d
00000010: dbbb 123c 07b7 32ba 7bba 0fbc 7f81 6bbc
00000020: a330 8d3b ade6 febc 0fbd acbc 2932 27bb
00000030: f1ee 17bd 002b 56bd 2dab ebbb c890 623c
00000040: ab65 44bc 2ecc c9bc 9c4f ddbc 8069 2f3d
00000050: 3c83 04bd e62f 5fbd 96fe 56bd ebce 753a
00000060: b443 273c 5765 dbbc 862b 4e3d 51a7 2d3d
00000070: a2c1 d13d 1ecd 9d3d 0a8c 14bc 799e 9abd
00000080: 7e36 693d c18b cb3c d6be 4ebd ca07 8cbd
00000090: 76fa 953c 1838 99bd c586 71bd f359 48bd
000000a0: 3e86 17bd e32f 28bd b490 523d ba74 133b
000000b0: 39ac 98bd 8742 153c b51d abbb fda5 eebc
000000c0: 7f18 ff3c 93f7 63bd 74e2 1bbd 329c ae3c
000000d0: ec9b bf3d bc38 193d 18cb 3fbc 4c2a c0bd
000000e0: e8d3 8cbd 5ab5 ffbc 69e3 be3c 4fec 68bd
000000f0: f84c 94bd 8474 5b3c 59aa 28bd 2d12 adbb
00000100: 4835 edbd d12f 243d 3495 963d b787 c93c
00000110: a8c6 f7bc d04c cdbc 07d4 9abc 4647 7f3c
00000120: 2226 4dbc 5c97 0d3c f48c c5bb a2f2 1cbd
00000130: 76b8 8e3d 00ad d33d 4001 363d 6f5f 63bd
00000140: 7033 5d3c 3732 6fbd 1495 5e3b 8390 8a3c
00000150: a5dd c93c 9710 d53b 3d7f a93c 0f6d cebc
00000160: 3da3 a8bc 8d76 203c 0c1b 1e3d 3d20 18bc
00000170: f73c 0cbd 2f2d c3bd 36e9 1fbd 0cb7 3e3d
00000180: ddb6 913d b52b 163c 822b 6ebd 9259 ef3c
00000190: 82d8 423d ed22 58bd e0d2 14bd d0d4 2e3d
000001a0: 4cbe da3b cab7 203a bdb7 bbbc da25 bcbc
000001b0: 9b4a c93c 91e1 4abd f017 68bd 5cdd abbc
000001c0: 93af 8b3d 724d 31bd 0df9 9f3c 3334 1abd
000001d0: 1b3f 393c f529 893d f919 7ebd 58d1 463b
000001e0: 3873 ca3c 6c33 1dbc e0ef 333d 33ca 293c
000001f0: 7cf7 fd3b f814 0e3d 0496 03bc ade4 b03c
00000200: 00e6 be3b 0b03 703c 337a a0bc 6a3d b2bc
00000210: 0fec 20bc ad0a 83bd 21a2 5b3d 1ba1 2fbd
00000220: 2243 29bd 6b96 24bb 9c9f 573d 84df c7bc
00000230: a4b5 7fbd 5794 063d 3b38 5ebd cabf 323c
00000240: 3dde 52bc ae79 4fbd 72a9 293c 2060 063d
00000250: b3c8 1e3d c7cb 553c 1cc0 e53c 7404 16bd
00000260: 17a6 e4bc 5aba 5f3c 4e0d 6c3d 33b3 613d
00000270: 0307 3c3d 1190 483d 2e52 453d abeb 673d
00000280: 5526 de3b 9899 6d3c 26b4 813d d20b e5bc
00000290: 26f7 c4bc bdc1 c239 e550 383b d4cd b5bb
000002a0: 6014 dcbc c43d 84bd 9c56 17ba d6ad aabc
000002b0: 7257 3c3c 0e86 80bd cd4e c8bb 2f76 663d
000002c0: 9887 6b3d 0416 803d abb8 c53d 70da 883d
000002d0: 87da 8abd ccbf 3f3c f42c ecbc 703b 173d
000002e0: fa55 83bd ecb1 833c 2de4 6abd 85ba 663d
000002f0: 39d2 f9bc a148 92bd 3b2f 453c 396a 0d3d
00000300: 5f69 d23c f774 a6bc 94bd 84bd b154 da3b
00000310: 2f9e 5a3d ca5d 6a3c 2461 13bd 7a2d 16bd
00000320: 26ed 193c 98b6 6dbd 5f7b 313d 5bca d63c
00000330: 688e 27bc 9176 233d ee1a a5bc 0933 ca3c
00000340: 569a 97bc 0c1a 96bd 4bc3 53bc 83c6 013d
00000350: 9725 8a3c 6bcd 68bd bc32 37bd ea06 a73d
00000360: 776d 7d3d dbc6 47bd a376 53bd 6f65 98bc
00000370: a1aa eb3c 3ec4 25bd fb3e e93b b70f 923d
00000380: 5f04 f2bc 522d 373d 0c1a d33c cc90 053c
00000390: 1e77 323d 7f8a 763d db78 6dbc 30e0 a5bd
000003a0: 2fd5 68bd 0bd6 af3d 2a3d a2bb 51ed 803b
000003b0: 18f3 67bd dbf1 9e3a 25fe 75bd 0362 99bd
000003c0: c5bc 2f3d fd28 753d 81fc 23bd c602 eb3c
000003d0: 821b c6bd cfb9 7b3b e370 393c 139a 37bd
000003e0: b078 8a3c 72fc 18bd c2fb 603d 2868 18bc
000003f0: 2533 1f3d caac 0f3d 0fff 84bd 15e7 a23d
-0.00851545 0.03941407 0.026033944 0.03948728 0.008955921 -0.00068174343 -0.008772488 -0.014374136
0.0043087765 -0.031115854 -0.021086244 -0.0025512076 -0.037093107 -0.0522871 -0.0071920366 0.013828464
-0.01198713 -0.024633493 -0.0270155 0.042825222 -0.032351717 -0.05448904 -0.052488886 0.00093768415
0.010209013 -0.026781721 0.050334476 0.042395893 0.10242011 0.077051386 -0.009066591 -0.075497575
0.056936733 0.024846913 -0.050474964 -0.06837423 0.018307906 -0.07481402 -0.058966417 -0.048913907
-0.036993258 -0.041061293 0.05140753 0.0022499994 -0.07454724 0.0091101 -0.005222047 -0.029131884
0.03113961 -0.055656027 -0.03805776 0.021314714 0.093559116 0.03740762 -0.011706136 -0.093830675
-0.068763554 -0.031214405 0.023301797 -0.056865986 -0.07241243 0.013394479 -0.04117808 -0.0052817077
-0.11582428 0.040084664 0.07352677 0.024600847 -0.030246094 -0.025061041 -0.01889993 0.015580958
-0.012521299 0.008642044 -0.006028766 -0.03831733 0.06968777 0.103357315 0.044434786 -0.055510934
0.013501033 -0.058397498 0.003396337 0.016914612 0.024641821 0.006502222 0.020690555 -0.025198488
-0.02058565 0.00979389 0.038600013 -0.00928503 -0.034237828 -0.095301025 -0.039040767 0.046561286
0.071149565 0.009165694 -0.05814696 0.029217515 0.04756976 -0.052767683 -0.03633392 0.042683423
0.006675517 0.00061309023 -0.022914762 -0.022967268 0.024571707 -0.049531523 -0.056663454 -0.020979576
0.068205975 -0.04328675 0.019527936 -0.037647437 0.011306549 0.06697456 -0.06203649 0.003033718
0.024713144 -0.009594779 0.043929935 0.010363149 0.0077504497 0.034687966 -0.008031372 0.021593416
0.005825758 0.014649163 -0.01958952 -0.0217578 -0.009821906 -0.063985206 0.053621415 -0.04287825
-0.04132379 -0.002511407 0.05264245 -0.024398573 -0.062429085 0.03285631 -0.054252844 0.010909984
-0.012870369 -0.050653152 0.01035534 0.032806516 0.03876562 0.013049073 0.028045706 -0.03662534
-0.027911229 0.0136552695 0.057629876 0.05510254 0.045905124 0.048965517 0.048174076 0.056621235
0.006779472 0.014501952 0.06333189 -0.027959738 -0.02404363 0.0003714691 0.0028124389 -0.0055482183
-0.026865184 -0.06457093 -0.00057730987 -0.020834845 0.011495458 -0.06275569 -0.0061129094 0.056265052
0.05750236 0.06254199 0.09654363 0.06682289 -0.06779962 0.011703443 -0.02883003 0.03692192
-0.06412883 0.01607605 -0.05734651 0.056330223 -0.03049575 -0.07142759 0.012035186 0.03452513
0.02568501 -0.020319445 -0.06481472 0.006662928 0.053373512 0.014304588 -0.035981312 -0.036664464
0.0093949195 -0.058035463 0.043330546 0.026219537 -0.010226823 0.039907996 -0.020154443 0.024682539
-0.01850621 -0.07329187 -0.012924979 0.031683456 0.016863627 -0.056836527 -0.04472612 0.08155616
0.061871972 -0.048773628 -0.051626813 -0.018603055 0.028767886 -0.040470354 0.0071181036 0.071319036
-0.0295431 0.044720955 0.025769256 0.008152198 0.04357063 0.060190674 -0.014494146 -0.08099401
-0.056843933 0.08585747 -0.004951139 0.0039345403 -0.056628317 0.0012126522 -0.060056824 -0.074893974
0.042904634 0.059853543 -0.04003573 0.028687846 -0.096732154 0.003841031 0.011318418 -0.04482467
0.016903251 -0.037350126 0.054927595 -0.009302177 0.038867135 0.035076894 -0.06493961 0.07954232

conv2.bias f4 [20]
00000000: 8de6 853d f602 11bb 7ffd 31bc e409 113d
00000010: 8e1d a13c 2a78 133d 99b5 423d a88c 6ebd
00000020: c350 043d c729 773c 8805 3abc d26c 90bd
00000030: d214 3cbd 2a35 983c a545 50bd 54b9 89bd
00000040: f91f b73c 6b2d b4bb bff9 ce3c f68c afbc
0.06538115 -0.002212701 -0.010863661 0.035409823 0.019667413 0.03600327 0.047536466 -0.05823961
0.032303583 0.015085644 -0.011353858 -0.07052006 -0.045918293 0.018580038 -0.05084767 -0.06724802
0.022354113 -0.0054985783 0.025265573 -0.02142952

fc.weight f4 [10, 320]
00000000: 2dab 4cbd b3b9 693b 16d2 31bd 9230 83bd
00000010: a412 333d 033a 463d 3849 6ebd 8dda 1abd
00000020: a0b0 c53b 1420 123d c708 663b d508 213d
00000030: 7d29 c43c 0e2a 8cbd ad6b e13c 68e9 cd3c
00000040: 4f08 823b fab3 18bc bf97 0f3c 07eb ebbc
00000050: 3def ccbd 84f3 f2bc 2404 103d b3a4 af3b
00000060: f24f dbbc 85fd 00be 47a3 50bd 7a97 e03c
00000070: 48df 303d 5286 c6bc c4a4 f33c 99d3 953d
00000080: 10f4 4bbb ce8b 11bd 9f66 043d c263 49bd
00000090: 59e4 453c 42db 09bc 6b69 013d 90e3 7a3c
000000a0: ef94 c83c 7031 d4bc ec03 69bd bffb 413b
000000b0: 29d3 363d 951a 8e3c 02f4 3ebb fd88 1539
000000c0: ca77 193d 3801 60bd fa0a e9bc cd18 d7bc
000000d0: 6b3f cbbc d382 ecbc c4d4 72bd 3736 74bd
000000e0: a269 cc3c 5910 2b3d a14e 0dbd f4ed b13c
000000f0: 8741 f0bc 74b6 80bd 71a2 fa3c f236 00bb
00000100: 6506 d63c bf16 e3bc 6b94 863d 8911 803d
00000110: e7ac 013d 148c 68bd a918 553d 6caa 313c
00000120: c57a 363d e8a4 81bd 0944 463d f020 8f3d
00000130: d667 553c 26de 2ebd f38f a2bd 1e28 043d
00000140: c7d5 0e3d 0c26 353c 8afa 523d 563e 48bd
00000150: 1736 56bc 9937 9bbd 4b35 17bb b45c 8bbc
00000160: 96db 8bbd 0919 55bd 2a4d a9bd bb97 333d
00000170: dc80 bcbc af7c 11bd 831f 50bd 1757 f8bc
00000180: 70a8 92bc fb51 cc3c 9133 8f3c af6b d03d
00000190: 217b 15bc 24a7 bdbd b01e 31bd 97c9 61bc
000001a0: 3cc7 81bc dc80 db3c 9f77 c2bd f8d5 63bd
000001b0: ef5c 7c3d 4216 353d dfeb 8cbb f172 673c
000001c0: 6e2f eabc 4b54 133c 7426 df3c 0138 1d3d
000001d0: 1a5a b0bd f485 47bc 0916 6ebc f70e 11bd
000001e0: 958c 68bd 8f24 c73c ec8d 443c a133 213d
000001f0: 2ca5 af3d f324 d33c 21d3 1b3d f1d7 d1bc
00000200: c225 b1bc 50a4 323d bc5e 80bd 8db2 eb3c
00000210: fc1e 20bd 62b2 7bbd f333 1cbd d87c dfbb
00000220: f6d3 b03c c683 cabc 2c59 823d b9de 833d
00000230: f52f 233d eceb 1bbd e48e 17bd b9b7 00bd
00000240: b2fa 65bb ebff 803d 8863 4f3d 4129 58bd
00000250: 0c1d 463d f508 d73c 49cf 38bd e5c6 12bd
00000260: e4f5 ea3c d593 573c 01bd a6bc 0b84 47bc
00000270: ba9e 3fbd 4ec8 133c 7354 e1bc 353c 503d
00000280: 75d2 3fbc 2f01 2d3d 31ca 1bbc 1ea4 5d3c
00000290: 7aba 6a3d a432 f7bc d1d7 0ebd 1159 37bb
000002a0: f43c 94bc 9ed4 79bb a1ea f73c a8d9 7b3d
000002b0: f3f4 86bc d9a4 a73c c736 4bbd 3cc3 ce3c
000002c0: 3bfd 72bd c1cf 303d c18c 66bc 2c27 003d
000002d0: 4dc1 933d dc50 d23d 2e39 403c be9c afbd
000002e0: e9c1 353d 254e d33d 1fa3 c9bd dabc 60bd
000002f0: 8347 a6ba 8f38 82bc ec8b 07bd b9d5 803d
00000300: 842f 80bc 3877 c1bc a8da 9a3c ca9d 1ebd
00000310: 7c4e 2abc c333 07bb a7b0 01bc e95f 18bd
00000320: 6f99 3ebd 474a 7c3d 2c0c 07bb 0bd7 74bc
00000330: 79dd d5bb b1b4 30bc 406a 433b 03b5 39bb
00000340: b191 68bc 6ef5 b63c de33 abbc 1a08 01bd
00000350: 6f42 9c3d 1a94 223d da65 9fbd e460 2a3c
00000360: 68ff 913d 0abc 18bc 96a0 363d 0372 3a3d
00000370: 0ed4 b43c 7aa4 e33c bad4 20bd f3bd 04bd
00000380: 66bd 56bd db9f 24bd da11 35bc 149a 1abd
00000390: ece3 813b 31aa afbd e01b fabc 5605 b73b
000003a0: 18b9 793d 838e aebc b65e 3a3d a38b 183c
000003b0: 79ad 703d 7d6e 173d 655d b4bc 3362 063d
000003c0: 1851 15bd 2877 5d3c 7c1a 60bc cb95 86bc
000003d0: 6cb6 0dbc 75d5 833d 38ab 33bd 9bed 433d
000003e0: 690d c33d 8de2 4f3d cf85 3a3b 0d46 223d
000003f0: 2ac5 d83d dbde e9bc b16e 06bd 5443 dfbc
-0.049967933 0.0035663664 -0.043413244 -0.064057484 0.04371895 0.048395168 -0.058175296 -0.037806083
0.006033018 0.035675123 0.0035100447 0.039315064 0.023945564 -0.06843959 0.027517164 0.02513571
0.0039682756 -0.0093202535 0.008764206 -0.028798593 -0.100065686 -0.029657133 0.0351602 0.00536021
-0.02677152 -0.1259671 -0.050936963 0.02741598 0.043181688 -0.02423397 0.029741652 0.0731575
-0.0031120814 -0.03553372 0.03232443 -0.049167402 0.012078368 -0.008414092 0.031594675 0.015313044
0.02448508 -0.02590248 -0.056888506 0.0029599515 0.04463497 0.01734666 -0.002913714 0.0001426078
0.037467755 -0.054688662 -0.028447617 -0.026256943 -0.024810513 -0.028870976 -0.05928494 -0.059622016
0.024952713 0.041763637 -0.034498814 0.02171991 -0.02932812 -0.062848 0.030595036 -0.0019564
0.026126096 -0.027720807 0.06571277 0.062533446 0.031659033 -0.056774214 0.05202547 0.010843854
0.044550676 -0.063302815 0.048404727 0.06988704 0.013025245 -0.042692326 -0.079376124 0.03226482
0.034871843 0.011056434 0.051508464 -0.048887573 -0.013074419 -0.07578964 -0.0023072537 -0.017011978
-0.06828992 -0.05202583 -0.08266671 0.043845873 -0.023010664 -0.0355193 -0.050811302 -0.030314965
-0.017902583 0.024941435 0.017480643 0.10176789 -0.0091235945 -0.09260395 -0.043242157 -0.013780973
-0.015842073 0.026794843 -0.09495472 -0.05562398 0.061612066 0.04421068 -0.004300579 0.014126525
-0.02858707 0.008992265 0.027240016 0.038383488 -0.086109355 -0.012177933 -0.014531621 -0.035414662
-0.056774694 0.024309425 0.011996727 0.039355878 0.08576426 0.025774455 0.038043145 -0.025615664
-0.02162445 0.04361373 -0.06268069 0.028771663 -0.03909205 -0.061449416 -0.03813548 -0.0068203025
0.021585446 -0.024721038 0.063646644 0.06438965 0.039840657 -0.03806679 -0.037001505 -0.03142521
-0.0035092053 0.062988125 0.05063203 -0.052773718 0.048367545 0.026249388 -0.045119558 -0.03583421
0.028681703 0.0131578045 -0.020353796 -0.012177478 -0.046782233 0.009019924 -0.027506089 0.050838668
-0.011707892 0.042237457 -0.009508655 0.013527898 0.057306744 -0.030175515 -0.034873787 -0.0027976672
-0.018095471 -0.0038121114 0.030263247 0.06148687 -0.016474223 0.020464348 -0.049612787 0.02523958
-0.05932353 0.04316688 -0.014071644 0.031287357 0.072146036 0.10269329 0.011732383 -0.08574818
0.04437438 0.10317639 -0.09845566 -0.054867603 -0.0012686107 -0.01589611 -0.033092424 0.06290764
-0.015647657 -0.023616418 0.018903092 -0.038724698 -0.010394689 -0.0020630218 -0.007915652 -0.037200842
-0.046533044 0.061594274 -0.002060662 -0.014943848 -0.0065266457 -0.010785268 0.0029817969 -0.002833665
-0.014194892 0.022333827 -0.020898756 -0.031501867 0.07629859 0.039692022 -0.077830985 0.010399077
0.07128793 -0.009322176 0.04458674 0.045518886 0.022073772 0.02778839 -0.03926537 -0.032407712
-0.05242672 -0.040191513 -0.011051619 -0.037744597 0.003963938 -0.08577383 -0.03053087 0.005585353
0.060967535 -0.02130819 0.04550048 0.009310636 0.058759186 0.036970604 -0.02201719 0.032808494
-0.03645429 0.013517179 -0.013678189 -0.016428849 -0.00864945 0.06437198 -0.04386446 0.04783402
0.09524042 0.050753165 0.0028461104 0.039617587 0.10584481 -0.028548649 -0.032820407 -0.027253784

fc.bias f4 [10]
00000000: 8b90 783b 4ba4 bcbc a166 b43c bc2d 053d
00000010: 7e17 63bd a0c4 733d a61c a23c 6173 68bc
00000020: 2303 06bd aadf 723c
0.0037927951 -0.02302756 0.022021594 0.03251432 -0.055442326 0.059513688 0.019789051 -0.014187665
-0.032717835 0.0148238335

momentum_buffer f4 [10, 1, 5, 5]
00000000: bcd9 c83b 9e29 c93b 68aa c63b fa75 7d3b
00000010: 6db9 e43b fb08 bd3b d521 953b a08a 5c3b
00000020: 2a3e 843b 229a 073b d25e 0a3c a98f ec3b
00000030: 29b1 003b e525 2abb b866 85bb 5215 103c
00000040: 3cb1 003b 7834 bcba 90a9 a8bb 49e7 d2bb
00000050: 78ce 473a 3dc9 8bbb e23d 70bb edf9 27bb
00000060: 8c6d 05bc 9242 873b a073 ec3b 669f 3f3c
00000070: 31b1 9f3c e634 a33c 6afc 3abc ebf2 0dbc
00000080: ef04 63bb 79f9 bc3b 262f cf3b e3b8 99bc
00000090: 4698 e8bc 5a66 f2bc 4a65 babc 3bcb 74bc
000000a0: f42f 62bc 5fb2 abbc d443 f5bc cecc 02bd
000000b0: 2aee 03bd b575 82bb 02df f4bb 43d9 bebb
000000c0: 7341 a7bc 35ff f2bc 3c2c 0c3c e692 c73b
000000d0: fe11 293b 38f3 ca3b 9e93 533c 0ce2 fdba
000000e0: cd5a 23bc 24fe 48bc 1238 94bb f215 863b
000000f0: a0c5 6abc f638 f8bc 4e19 fcbc 4a43 c5bc
00000100: e10f 0abc 5fcb b3bc c4c6 cabc 6fb5 eabc
00000110: 02b2 b6bc 4956 65bc d68d 49bc 3e1d b6bc
00000120: 172b 72bc 4ac6 83bc 18c2 70bc d1a2 443c
00000130: fbd3 a83c 8392 803c 4d0e c33b e10b 893b
00000140: 4037 853c 35ad 213c 9cda c1ba 5461 c9bb
00000150: b0c2 30bc bea8 383c c077 43b9 ce54 1cbc
00000160: 539e b3bc 92ca 75bc 545a a8ba 4764 e8bb
00000170: d1af 40bc 27bc 57bc 2dc2 dcbb f590 d2bb
00000180: 6279 50bc f3d3 38bc 4b78 0dbc 75ef 18bb
00000190: f0c4 e239 dff7 5d3a d044 f0bb 7ff6 3ebc
000001a0: e631 12bc 8c83 f63a 1f4f babb 70ae f6bb
000001b0: 45c1 1fbc 0602 8abb 6242 acbb 0083 fabb
000001c0: 0521 d5bb 67d2 3abb 0753 f53a e634 2fbc
000001d0: de2d 33bc a647 19bc b0c5 ac39 663a fd3a
000001e0: 4be3 a9bb 1e79 53bc 801d 20bc 34c5 23bc
000001f0: 5887 413a 409a 85bc 555a 62bc f855 18bc
00000200: 232e b5bb 2046 9dbb 0c83 5bbc e47e ecbb
00000210: dab2 36bb b407 c1ba e028 2c39 22a0 99bb
00000220: b000 9f3a 35f1 773b c2f6 0a3b 305b 793a
00000230: e2b6 6c3b 2e29 8b3b 70f4 b83a 4cd5 6bb9
00000240: f0a5 d5b9 6ee8 8e3b d07a 75ba 3ffc 813a
00000250: 1e7c 79bb 51b2 a1bb 1a12 123a bf0a bbbb
00000260: c533 f6bb 2649 12bc 7c6a 37bc db9a 363b
00000270: 4811 c5bb 2a92 a0bb 0e9b 03bc b4ac 60bc
00000280: c042 4c3b 44b1 54ba 617f 58bb 6793 d6bb
00000290: 1bc3 07bc 8048 e237 9047 99ba 0830 0e3a
000002a0: 3c70 87b9 a4b7 2fba 9065 9eba b4f3 c3ba
000002b0: 3079 9aba 9df0 29ba b69c 6f3a f541 f03a
000002c0: dfcf 2e3c 8fc7 af3c bdc9 be3c 60e9 9f3c
000002d0: 1e5d dfbb 6a72 ca3b b00c 0e3c 9a31 0a3c
000002e0: f204 10ba dea2 6bbc 3aca a4bc 2ccc 8cbc
000002f0: 3fa5 babc d7f7 96bc 5165 b3bc 71c0 d6bc
00000300: fe05 e1bc 8640 c2bc b7cd 03bd e7e3 febb
00000310: be9c 80bc ba8e 77bc 19bd 7abc d7c5 a1bc
00000320: cc2b c13b ac0d e53b 197f ab3b 60d4 5fba
00000330: cced 72ba c9f7 be3b 188a 1f3c a004 223c
00000340: f016 053c 6433 1aba c19f 613b 1af9 403c
00000350: 0ced 323c 3c2f ca39 25a3 6ebb 3d2c 11bc
00000360: 49b9 10bc 8835 fbbb 6c07 14bc 95ad 22bc
00000370: 88da 09bc 1408 5bbc 5f16 30bc dbe7 2fbc
00000380: d99d 8abc 23f4 383c da22 ac3b 389b d6ba
00000390: a014 6f3a cc5a 3f3c 9918 403c 009b d83a
000003a0: 9031 ac39 aa90 f43b cebd 773c 7811 f5ba
000003b0: 75f5 f4bb e0a8 f93a 52cb 5f3c d001 2e3c
000003c0: eed6 a6bc ad8c 36bc a000 1fba 3ce1 5a3b
000003d0: 0094 e837 2e92 9cbc 316f 4fbc a8c4 4dbc
000003e0: e442 7ebc 1a24 81bc
0.0061294716 0.0061389944 0.0060627945 0.0038675056 0.0069801123 0.005768893 0.0045511522 0.0033651963
0.004035731 0.0020691236 0.0084454585 0.007219274 0.0019636846 -0.0025962528 -0.004071083 0.008794146
0.001963689 -0.0014358899 -0.0051471666 -0.0064362627 0.0007622014 -0.004265933 -0.0036657979 -0.0025631145
-0.008143794 0.004127809 0.007215932 0.011695718 0.019493671 0.019922685 -0.011412719 -0.008663873
-0.0034640392 0.005767044 0.006322759 -0.018764919 -0.028392922 -0.02958982 -0.022753377 -0.014941032
-0.013805378 -0.020959077 -0.02993957 -0.0319336 -0.032209553 -0.003981317 -0.0074728737 -0.0058242395
-0.02041695 -0.029662708 0.008555468 0.0060905097 0.0025798078 0.0061935447 0.012913613 -0.0019369735
-0.009970379 -0.012267623 -0.0045232857 0.0040919716 -0.014329344 -0.030300599 -0.030773785 -0.024079937
-0.008426637 -0.02194756 -0.024752982 -0.028650967 -0.022301678 -0.013997623 -0.012301883 -0.02223074
-0.014780781 -0.016085763 -0.014694713 0.012001709 0.020608893 0.015694862 0.0059526325 0.0041823243
0.016261697 0.009867956 -0.0014789882 -0.0061456356 -0.010788605 0.0112707 -0.0001864126 -0.009541703
-0.02192608 -0.01500191 -0.0012844303 -0.007092032 -0.011760668 -0.013167418 -0.0067370147 -0.0064259716
-0.012724252 -0.011281001 -0.008634637 -0.0023336087 0.0004325281 0.00084674166 -0.007332422 -0.011655449
-0.0089230295 0.0018807515 -0.0056857015 -0.007528119 -0.009750669 -0.004211667 -0.005256937 -0.007645011
-0.0065041804 -0.0028506757 0.0018716761 -0.010693764 -0.010936229 -0.009355461 0.00032953685 0.0019319772
-0.005184566 -0.012907295 -0.009772658 -0.009995747 0.00073825335 -0.016308904 -0.013815482 -0.00929784
-0.0055291816 -0.0047996193 -0.013397943 -0.007217275 -0.00278776 -0.0014727027 0.00016418425 -0.004688279
0.0012130942 0.003783298 0.0021204208 0.0009512184 0.003611975 0.0042468524 0.0014110934 -0.00022490806
-0.0004075016 0.004361204 -0.0009364309 0.0009917094 -0.0038068364 -0.004934587 0.00055721554 -0.005708068
-0.0075134956 -0.008928573 -0.011194821 0.0027863297 -0.006014023 -0.0049002366 -0.008032573 -0.013713051
0.0031167716 -0.0008113573 -0.0033034908 -0.0065483334 -0.008286263 2.697506e-05 -0.0011694301 0.00054240273
-0.00025832828 -0.0006703085 -0.0012084711 -0.0014949949 -0.0011785384 -0.00064826926 0.0009140478 0.0018330204
0.0106696775 0.021457462 0.023289556 0.019520462 -0.0068165204 0.00617819 0.008670017 0.0084346775
-0.0005493901 -0.014382092 -0.02011596 -0.0171872 -0.022783874 -0.018428726 -0.021898897 -0.02621481
-0.027468678 -0.023712408 -0.032178607 -0.007778633 -0.01569974 -0.015109712 -0.015303873 -0.019747658
0.0058951136 0.006990155 0.005233657 -0.0008538421 -0.0009267002 0.005827878 0.009737514 0.009888798
0.0081231445 -0.00058822916 0.0034427496 0.01177814 0.010920774 0.00038563635 -0.003641316 -0.008860645
-0.008833238 -0.0076662935 -0.009034973 -0.0099290805 -0.008413918 -0.013368625 -0.010747521 -0.010736431
-0.01692097 0.0112886755 0.005253178 -0.0016373163 0.00091202 0.0116793625 0.011724615 0.0016525686
0.00032843323 0.0074635344 0.015120937 -0.0018697223 -0.00747555 0.0019047521 0.013659315 0.010620549
-0.020366158 -0.011141938 -0.0006065462 0.003339841 2.7725473e-05 -0.019112673 -0.012660787 -0.012559094
-0.015518878 -0.015764285

momentum_buffer f4 [10]
00000000: 8750 13bb 308a dcbb 0aed 1bbc 60d7 a6bb
00000010: 829f db39 74d5 ddba b69a bcba 308f 04bc
00000020: 7f9b 983b b195 7dbb
-0.0022478418 -0.0067303404 -0.009516964 -0.0050915927 0.00041889778 -0.0016924576 -0.0014389369 -0.008090779
0.0046572085 -0.003869396

momentum_buffer f4 [20, 10, 5, 5]
00000000: 340e 9839 071a 0cbb f291 10bb a5e6 d0ba
00000010: ac9d 57b9 b334 c5ba f8a4 b0b9 78b4 723a
00000020: 8794 7eba cf94 c439 9739 c63a b031 69b9
00000030: 0d74 143b c4b9 243b 288f 4b38 e633 d6ba
00000040: eedf b0ba 5a1e 063b 2b58 8e3a 90b1 b43a
00000050: 079e 17bb 1639 bf3a f9ef c93a 0495 8c3a
00000060: 5bd2 8d3a ba56 fa3a 347f 66ba 29ef 1abb
00000070: 321c 073b cce4 e139 5412 ee3b 564d 533b
00000080: 1354 fdba e4be 5e3a 4d78 0fbb 89aa f33b
00000090: f791 d03b 1a9e 1e3c ea19 0f3c de23 913b
000000a0: 5572 bc3b eb7b d03b e685 b93b 3d5e 873b
000000b0: 1a9a 7f3b aee5 563c 3a93 1f3c 9828 073c
000000c0: 2f14 1f3c 8d70 033c 5437 a43b 4ba5 21bb
000000d0: 3e7e 0b3b f8b1 703b 6aa4 98bb 95dd 013c
000000e0: 00e0 ba34 5ac6 cd3a 8a51 a13a 1b52 403a
000000f0: 9248 1a3c 6c4d fe3b ee1b 3e3c ce86 113c
00000100: 9ba7 5a3b 8c59 143c cd29 ff3b 9d9f 103c
00000110: 21a5 023c 86fd a63b e379 233c c2e3 023c
00000120: 9d3c 1d3c b5be 343c c230 fb3b 61ac 3a3b
00000130: e896 193a 72fb 2e3b 06e7 593a da60 c2ba
00000140: b0bf b63a 608d dab9 6001 c139 4b78 55ba
00000150: 724a b63a e8f7 db3b cada ee3b 329a 113c
00000160: 8ea2 983b 86cb 5e38 7cc4 c53b fc63 f33b
00000170: ce4d e03b 5e85 d83b dc0d 3b3b b84c ff3b
00000180: 51dd c73b 66af 033c 0ea2 033c 375c c73b
00000190: 7f24 5c3b 2ec0 41ba fed5 04bb d626 96ba
000001a0: 9c56 d039 e65d 153b 0270 893b ef4e 2b3b
000001b0: 0faa 883b dbd4 873a c2f5 433a c637 f73a
000001c0: 0a65 f63a 7e09 3e3b 0163 063b 2ea5 4f3b
000001d0: e3d4 113b 4bc4 3f3b 8740 383b 3d21 e63a
000001e0: 3ff4 1f3b 6e1b 7c3a fc88 303b 0a16 523a
000001f0: 250a f93a 3125 a8ba ba43 6cba ce96 9c3a
00000200: 5329 213b 1973 823b 69fa 483b c98f 4c3b
00000210: 918b 83b9 0c71 b13a d951 bc3a 8306 473b
00000220: cadd 023b ef04 6c3a 700c a83a fb16 5a3a
00000230: bad2 093b 211d 0f3b 52fc 453b a4b4 8d3b
00000240: 852d 4a3b 7914 e43a d44e 0b3a 003d d936
00000250: 7781 f13a f684 cc3a 9791 913a 0be2 b73a
00000260: cfa5 163a a87b 0aba fa5d 4cb9 8438 c839
00000270: 005c 98ba 5b8e 93ba e00b feba c314 ddb9
00000280: 50f3 dc38 86d6 92ba a9d9 a2ba 8c73 2d39
00000290: 9ef2 08ba 6de5 4eba 0353 14ba 50e2 f4b8
000002a0: 2be6 1b3a f8ce c3b8 1d11 e3b9 8a57 e3b9
000002b0: 16eb 9f39 4292 96ba 6e7a 9dba 83f1 183c
000002c0: bcaf 10bb 1533 d6bb e944 84bb a7d2 34bb
000002d0: 758f 053c 7362 903b 02dd bb3a a505 2eba
000002e0: 6459 5e3a 8cab af3b d665 073c aa59 3f3c
000002f0: e601 213c 9cad 9c3b 182c 883b 0cf9 783b
00000300: 4378 af3b e92f 593b bd08 9b3b 5076 3c3c
00000310: ba1a f43b 418c 083c 5812 243c 24eb 053c
00000320: 8207 ba3b 5c1f e039 6b18 9dbb cea9 bbbb
00000330: 1876 c5ba d82a 8c3b c5ea 093c 15e5 163c
00000340: 03fb 803b de6f f63a 6396 843b cc11 bf3a
00000350: f849 473b 2baf 143b ee77 9f3a 5634 e93b
00000360: 209e 143b f6b4 3d3b 9c46 843b 3af0 4c3b
00000370: 5eaf 5f3b e8f8 a33b 60f2 9d3b ccaa 473b
00000380: d47e 863b bd4b a63b ff73 6b3b f43e ddba
00000390: 5b7a 663b c4f0 40ba b4df f83b 7c50 743b
000003a0: 8ed1 4f3b af04 973b 619e 603b 1589 e23b
000003b0: a21a d33b 8a34 c23b 0abc 373c 88fb bc3b
000003c0: b75e 4e3c 4614 1b3c 7c58 0e3c 8b6c 163c
000003d0: 0d89 013c f6a5 463c c800 b73b dde6 fc3b
000003e0: c97c 053c 9861 fa3b dd08 f3ba 90f0 7838
000003f0: 3a5c b6bb c209 f8bb d8af 243a 8019 ac3b
0.0002900228 -0.0021377818 -0.0022059646 -0.0015937878 -0.00020562735 -0.0015045613 -0.00033692247 0.00092584593
-0.00097114634 0.00037494904 0.0015123364 -0.00022239122 0.002265218 0.002513514 4.8532296e-05 -0.0016342371
-0.0013494471 0.0020464868 0.0010860016 0.0013785828 -0.0023134963 0.0014589156 0.00154066 0.0010725562
0.0010820137 0.0019099333 -0.00087927585 -0.0023641086 0.002061617 0.0004308581 0.0072653685 0.003224214
-0.0019327424 0.0008497073 -0.0021891773 0.007436101 0.0063650566 0.009681249 0.008734206 0.0044293245
0.005750934 0.0063624284 0.005661714 0.004131107 0.0039001764 0.013116283 0.009739691 0.008249424
0.009709402 0.00802244 0.0050114784 -0.0024665173 0.0021284963 0.0036727171 -0.0046582716 0.007926364
3.480818e-07 0.0015699372 0.0012307626 0.00073364534 0.009416716 0.0077606943 0.011603339 0.008882238
0.003336406 0.009054553 0.0077869655 0.008827117 0.00797394 0.0050961403 0.0099777905 0.007988872
0.009596971 0.011031796 0.0076657245 0.0028484093 0.00058589736 0.0026700166 0.0008312318 -0.0014829889
0.0013942625 -0.00041685533 0.00036812853 -0.000814323 0.0013907684 0.0067129023 0.0072892653 0.008886861
0.00465805 5.311847e-05 0.0060353857 0.0074276906 0.0068452125 0.0066076955 0.0028542196 0.007791128
0.006099381 0.008037424 0.008034242 0.006083991 0.003359109 -0.0007391003 -0.002026915 -0.0011455666
0.0003973738 0.0022791564 0.0041942606 0.0026139577 0.004170663 0.0010363118 0.00074752804 0.0018861226
0.0018798423 0.0028997357 0.0020505788 0.0031684148 0.0022252135 0.0029261287 0.0028114633 0.0017557513
0.0024407057 0.00096171245 0.0026937118 0.00080141483 0.0019000216 -0.0012828467 -0.00090127776 0.0011946799
0.0024591282 0.003981006 0.0030666834 0.0031213632 -0.00025090252 0.0013537719 0.0014367654 0.0030368872
0.0019968622 0.0009003421 0.001282109 0.00083194644 0.0021030144 0.002183743 0.003021021 0.0043245126
0.0030849886 0.0017401121 0.00053141755 6.4742053e-06 0.0018425424 0.001560359 0.0011106011 0.0014029158
0.00057467533 -0.00052827084 -0.00019489965 0.0003818908 -0.0011624098 -0.0011257635 -0.0019382201 -0.00042167873
0.00010535738 -0.0011202849 -0.0012424487 0.0001654161 -0.0005224141 -0.00078924635 -0.00056581217 -0.00011676981
0.00059470785 -9.3368755e-05 -0.00043309564 -0.00043362036 0.00030501996 -0.001148768 -0.0012014636 0.009334925
-0.0022077402 -0.006536851 -0.004036535 -0.002759138 0.008151879 0.0044062673 0.0014332833 -0.00066384143
0.0008481948 0.005361026 0.008264026 0.011679092 0.009827113 0.004781438 0.004155647 0.003799024
0.0053549125 0.003314013 0.0047312663 0.011502817 0.007449475 0.00833422 0.010014139 0.008173738
0.0056771645 0.00042747974 -0.0047941706 -0.0057270294 -0.0015065102 0.0042775683 0.00841779 0.009209891
0.003936173 0.001880165 0.004046248 0.0014577447 0.003040908 0.0022687416 0.0012166479 0.0071168346
0.0022677258 0.0028946972 0.0040367376 0.0031271116 0.0034131627 0.005004037 0.004820153 0.0030466793
0.0041044746 0.0050749467 0.0035927293 -0.0016879723 0.0035168144 -0.00073600956 0.007595027 0.0037279418
0.0031710598 0.0046087126 0.0034274089 0.006913314 0.006442384 0.0059266733 0.011214266 0.0057672895
0.012595824 0.009465283 0.0086880885 0.009181152 0.007906211 0.012124529 0.00558481 0.0077179507
0.008147427 0.0076410286 -0.001854207 5.935185e-05 -0.0055651935 -0.0075695226 0.0006282306 0.0052520633

momentum_buffer f4 [20]
00000000: 287d f4b9 9c3f 99ba 6d73 ad3a dc15 883b
00000010: 38cb 6cba 68d1 b5b8 1ea9 883a ee3c dc3b
00000020: 38e5 8dba 6de7 b93a 3631 4e3b 8cbc 92bb
00000030: b156 17ba e8be f1b9 dc12 2abb bea4 c5bb
00000040: 80d3 dcb9 cd54 a8ba 6e42 8d3a 3fee 04bb
-0.00046632555 -0.0011691931 0.0013233252 0.0041529965 -0.00090329675 -8.6697575e-05 0.0010426377 0.0067211306
-0.0010825759 0.001418335 0.0031462437 -0.004478043 -0.0005773111 -0.00046109338 -0.0025951182 -0.0060316017
-0.0004211925 -0.0012842655 0.0010777244 -0.0020283607

momentum_buffer f4 [10, 320]
00000000: 641c 303b 28b2 153a 69bf fc3a b15c 8b3b
00000010: ed74 8c3b 96df 9eba 20b6 fd38 c6cc f239
00000020: 63a7 68bb 31e8 85ba 8192 3d3b 1497 2d3a
00000030: 47e6 c73b 717a 1f3b b642 113b 5b51 0a3a
00000040: 9886 123a c290 3cba 3c86 80bb 88fd c5bb
00000050: 0a62 a339 d047 17ba 473e 883b 7c32 413b
00000060: 55a1 753c d8e6 e23a 78d3 943b 72a7 b43b
00000070: 2667 be3c 6d08 cd3c c9a8 af3c 7ac8 a13c
00000080: 3a9c d2b9 a21d 6dba 5a92 903a f9a1 4f3a
00000090: 1f10 b63a 6d47 413b 4794 913b c647 113b
000000a0: 3a67 b5b9 3858 063a ac3a 27ba 84eb 873a
000000b0: 395b f43b e8ad 8b3b 8042 133b 0413 8d3b
000000c0: 4b27 1ab9 e232 aa3b b067 423b 77f4 833b
000000d0: 6ab4 af3b 9aa5 863b 7a87 583a 2e0e 763b
000000e0: c0f4 01bb 79ce 3bbb 8ef4 d03a 61cd 393b
000000f0: b8b3 84b9 f835 d839 fe58 0d3b 0e54 ef3a
00000100: f296 213b f0f1 3bb9 d7e4 4a3b 0d2a 123b
00000110: 23ef 1d3b 8f27 1f3b d8ee 793b 1edf ce3b
00000120: 049d 5f3c 235f 8c3a d458 da39 40c6 d23b
00000130: 6eaa 0c3c 784f f83b ef8b 133b 4125 cb3b
00000140: b468 0d3b 78a3 6439 9629 6fba 76b8 af3a
00000150: ead0 2c3b 98bb beb8 4ed4 4a3b 45a8 fe3b
00000160: deb8 2c3c d5dc db3b 6b84 e23b 663b de3b
00000170: 41fd 113b f065 003b 6eb9 ee3a 4d7f 193b
00000180: ab1b 103b 4ab2 813b 69b4 02bb fced 3f3a
00000190: 1965 743b 2f87 003b f70f d23a cd2b 0e3c
000001a0: 4496 e53b 4289 253c 04b7 043c 9d2f f13b
000001b0: b842 5abb 4056 3c39 e04b 053a 802f b239
000001c0: 741c 933b 94a3 863b b3b1 34bb 0c0a ae3b
000001d0: cc77 d83b 3dd7 683b 2f2a 843a d3e4 c43b
000001e0: c83f 253c aa7e 0d3c a6fe ed3b cb1d de3b
000001f0: 267b 83bb 1cee 38ba 5cba 43ba e701 65ba
00000200: 06e0 8f3b 4cf2 42ba f58e 8f3b fd4c 853b
00000210: 08db aab9 6459 343b e2b0 793b d708 813b
00000220: 029d a83b a425 9839 9ead 293b 3c8e 8c3b
00000230: 5906 533b 7927 113a ee02 81ba 5e8f 813a
00000240: f88e 013c 2e84 3eba 4084 c8b9 dc95 0d3b
00000250: 960e 1e3b b1ba 49bb 2850 8b3b 1c23 5d3a
00000260: 82c7 c4ba 145a a73a f5d6 d03a 81e3 c53a
00000270: 003b 35b9 2424 69b9 aec3 d2ba 2c56 363a
00000280: 3e99 e13b 3c98 02bb fc72 8d39 60de 4d3b
00000290: c805 a93a a2e8 04ba cad6 803b b041 643b
000002a0: 59db 053b 9ad1 953b 14cf fc3a 70f3 a238
000002b0: 00be 2636 1630 b3ba 2024 5bba 728d bdb9
000002c0: 3757 ff3b 6897 8c3c be12 423b 8c26 303b
000002d0: ff91 663c 5e54 0f3c 0025 9737 f5a7 653b
000002e0: 349c a93b 28d8 3c3b ced8 cb3b 31a7 503a
000002f0: c1d7 b9ba 9a80 b33b bac6 c33b 4811 573b
00000300: 090f d23a b0b1 1a3b 0077 f636 b031 923b
00000310: cc9d 783b dcc3 983b 820e 553b 9990 f63a
00000320: 65d6 9e3a aef6 b93b b95e 833b 043d fe3a
00000330: 7f9b 99b9 3c03 41bb eeef 63ba ec82 c539
00000340: 74be 0d3c f208 5c3b da23 a5ba ce17 b43b
00000350: d210 aa3b aed1 8b3b 00f1 a23b fa0e dc3b
00000360: 8af1 b63a ce25 d63b ba14 753b 3eeb d33b
00000370: ccd9 33bb d423 c9ba ac70 863a c03b 733a
00000380: 3bca 863b e641 a73a 0bfa 333b 5a59 ca3b
00000390: 77da 433b 9028 d63b a7f1 ef3a 2e43 bf3b
000003a0: 9cb3 033c 820c bc3b 4ab2 9e3b 328c eb3b
000003b0: efe3 833a 2045 0bb9 e0a7 ba39 78a3 683b
000003c0: d3ce 663c 36cf 973b 4068 55bb a228 003c
000003d0: 8e01 793c 02ed faba 5857 de3a 88ed ce3b
000003e0: 5e34 c53b 661f 203b 565d b63a 5302 843b
000003f0: b7a2 7bbb 76c5 be39 359a 94ba 648d f3ba
0.002687239 0.0005710446 0.0019283119 0.004252993 0.0042863996 -0.0012121077 0.000120979035 0.00046310405
-0.003550016 -0.0010216293 0.0028926434 0.00066219387 0.0061004492 0.0024334455 0.0022165007 0.0005276405
0.0005589514 -0.00071932015 -0.003922252 -0.006042186 0.00031162828 -0.0005770894 0.0041578147 0.0029479554
0.014992078 0.0017311228 0.0045418106 0.005513125 0.023242544 0.025028432 0.021442788 0.019748915
-0.0004017072 -0.0009045248 0.0011029944 0.0007920559 0.0013890303 0.0029492036 0.004442725 0.0022168024
-0.0003459992 0.000512484 -0.0006379287 0.0010369872 0.0074571637 0.0042626746 0.0022470057 0.0043052454
-0.00014701222 0.005194054 0.0029663853 0.004026945 0.005362083 0.0041090967 0.00082599337 0.0037545073
-0.001982972 -0.0028657003 0.0015942024 0.0028351175 -0.00025310903 0.0004123894 0.0021567936 0.0018259303
0.002465662 -0.00017923838 0.0030959153 0.0022302896 0.0024098835 0.0024285053 0.0038136747 0.0063132187
0.013648275 0.0010709505 0.00041646382 0.0064323246 0.0085855555 0.007577833 0.0022513827 0.0061995094
0.00215773 0.00021804671 -0.0009123323 0.0013406414 0.002636964 -9.094848e-05 0.0030949297 0.007771524
0.010542123 0.006709675 0.006912758 0.006781983 0.0022276195 0.001959201 0.0018213221 0.0023421824
0.0021989148 0.0039580213 -0.0019943959 0.0007321534 0.0037291704 0.0019611826 0.0016026486 0.008677435
0.0070064384 0.010103526 0.008100275 0.0073604123 -0.0033303928 0.00017961208 0.00050848536 0.00033986196
0.004489476 0.0041088555 -0.0027571737 0.0053112563 0.006606078 0.0035528683 0.0010083372 0.0060087233
0.010086007 0.008636156 0.0072630225 0.006778454 -0.004012483 -0.0007054524 -0.00074664294 -0.000873594
0.0043907193 -0.0007436618 0.0043810555 0.0040680156 -0.00032588118 0.0027519101 0.0038099815 0.0039378214
0.00514567 0.00029019744 0.0025890837 0.0042894166 0.0032199828 0.0005537193 -0.0009842792 0.0009884646
0.007907622 -0.0007267621 -0.00038245507 0.0021604216 0.002411758 -0.0030781443 0.0042514987 0.00084357127
-0.0015013071 0.0012767934 0.0015933203 0.0015097709 -0.00017283484 -0.00022234075 -0.0016080046 0.00069555896
0.006884723 -0.0019927165 0.00026979286 0.0031413063 0.00128954 -0.00050700654 0.003931855 0.0034829192
0.002042493 0.0045721056 0.0019287788 7.770106e-05 2.4846522e-06 -0.0013670947 -0.000835957 -0.00036154274
0.0077923792 0.01716204 0.0029613222 0.0026878444 0.014072894 0.008748142 1.8017832e-05 0.0035042737
0.0051760916 0.0028815363 0.0062209135 0.0007959484 -0.001417868 0.005477977 0.005974618 0.0032816697
0.0016026209 0.0023604445 7.3452247e-06 0.0044614896 0.003793585 0.00466202 0.0032509868 0.0018811404
0.0012118338 0.0056751585 0.0040090946 0.0019396846 -0.00029298288 -0.002945139 -0.0008695115 0.00037672312
0.008651365 0.0033574668 -0.0012599186 0.005496002 0.0051899934 0.004266939 0.004972577 0.0067156525
0.0013957482 0.0065352684 0.0037396387 0.006467252 -0.002744305 -0.0015345761 0.0010256968 0.0009278618
0.004113463 0.0012760728 0.002746227 0.0061752023 0.0029884854 0.006535597 0.0018306271 0.005836866
0.008038428 0.0057387957 0.004843031 0.0071883434 0.0010062436 -0.00013281824 0.0003560176 0.0035497826
0.014087397 0.0046328558 -0.0032563359 0.007822188 0.015198125 -0.001914412 0.0016963286 0.006314937
0.0060182055 0.0024432777 0.0013913314 0.0040285974 -0.0038396546 0.00036386744 -0.0011337461 -0.0018581566

momentum_buffer f4 [10]
00000000: 0fe3 ac3a 27af e73a 729c ed3a 4213 873b
00000010: 0616 ffbb da11 e43a f7d5 0bbb a670 5b3c
00000020: 70da 83b8 203a 68bc
0.0013190227 0.0017676101 0.0018128289 0.0041221688 -0.007784608 0.001740034 -0.002133725 0.013393557
-6.287254e-05 -0.014174014
