oracle/train/iid/checkpoint/mnist/ckpt_4_2.pth (torch, 71489 bytes, 12 tensors)

conv1.weight f4 [10, 1, 5, 5]
000000 d1 b4 be 3a 55 83 a5 bd 2a b9 a8 3d 8e df 56 bd
       0.0014549737 -0.0808169 0.08238442 -0.052459292
000010 42 f2 69 bc e2 2f 1c 3c a1 c4 62 3e 27 29 1d 3e
       -0.01427895 0.0095329005 0.2214532 0.1534773
000020 a3 82 70 bd eb 43 f9 3c 98 73 81 3e 1a 34 3d 3d
       -0.058718335 0.030427894 0.25283504 0.046192266
000030 e9 4a bf 3d 81 51 28 3e 7e e1 96 3e b6 12 d9 bc
       0.0934046 0.16437341 0.29468912 -0.02649818
000040 14 11 d6 3d e7 2c 39 3e 68 7a e4 bd 97 0f ea bc
       0.10452476 0.18083535 -0.1115616 -0.028571887
000050 7b b2 85 be 7e 5a 63 be 99 8f 56 be 75 a5 a4 bd
       -0.26112732 -0.22202489 -0.20953216 -0.08039371
000060 dd df a3 3b 0d 7f 69 3e 4e b7 38 3e b5 2c 2f 3e
       0.005001052 0.22802372 0.18038675 0.17106898
000070 13 90 06 be d1 64 22 be 0e 56 fa bc c4 8e 3d 3e
       -0.13140897 -0.15858771 -0.030558612 0.18511492
000080 4b 3e 56 3d f2 24 3f 3e de eb 85 bd 46 c9 bd 3e
       0.0523055 0.18666437 -0.06539129 0.37067622
000090 66 b5 da 3e 61 b0 45 3e 4a 94 6a 3e 8d e9 e9 bd
       0.4271652 0.19305564 0.2290813 -0.114214994
0000a0 e3 49 f9 3d 5f 83 87 3e f1 85 d0 bb eb 20 f3 3b
       0.12172296 0.26467416 -0.0063636233 0.0074196956
0000b0 d2 97 0b bd 3f f5 43 3e d7 72 2e 3e b5 c8 68 3e
       -0.034080334 0.19136523 0.17035995 0.22732814
0000c0 9d 51 af 3c 8c 5e 18 be ae a3 52 be b0 46 8a bd
       0.021401221 -0.14879817 -0.20570251 -0.06751764
0000d0 03 94 fe bd a1 ad 17 3e 8b 6d 1f bd ba e8 d1 bd
       -0.12430575 0.14812328 -0.038922828 -0.10249467
0000e0 0e 02 6c be 58 93 3e 3d fa c9 a2 3d d5 aa 51 3e
       -0.23047659 0.046527237 0.0794868 0.20475323
0000f0 40 9e 03 3d 55 64 de 3d bb 9b ac 3d 92 1b d8 bd
       0.03213334 0.108589806 0.08428141 -0.105521336
000100 de 21 72 3e 0c 7d 59 be 3d fd b9 bd c8 4e c2 3c
       0.23645732 -0.21239108 -0.090815045 0.023719206
000110 71 56 1a 3e 9c b4 a4 3d 01 19 0e 3e 64 ac a4 bd
       0.15072037 0.08042261 0.13876726 -0.080406934
000120 42 d9 0f be e4 2f 2e 3e 50 0b 92 3e 4d 02 83 3e
       -0.14047721 0.17010456 0.28524256 0.25587693
000130 39 d9 c7 3d ad 0e 97 bb f7 4d 6f 3e f3 98 18 3e
       0.09758229 -0.004609904 0.23369585 0.14902095
000140 23 11 1f 3e 46 c2 7e 3c c5 a8 29 3d 8d 0f 76 3e
       0.15533881 0.015549248 0.041420717 0.2402937
000150 91 a4 00 be 18 04 0d be 7d 11 19 be 56 16 b0 3d
       -0.12562777 -0.13771093 -0.14948077 0.0859801
000160 08 cb 29 be 67 3d fc 3d 6b 6b ab 3d 44 da d4 bd
       -0.16581357 0.12316399 0.08370098 -0.10393193
000170 10 6d 5e 3d 7e 76 0c be 61 73 0e 3e ec bd 7f be
       0.05430323 -0.13717076 0.13911201 -0.24974793
000180 25 aa bf bd ed c2 8e bc 50 c1 37 be 9b 4d 5f 3c
       -0.09358624 -0.017426932 -0.17944837 0.013629342
000190 e1 ac 7a 3e c5 7f e9 3d 1a 22 16 be a7 1b 1d 3b
       0.2448001 0.11401323 -0.14661446 0.002397278
0001a0 ef 61 ac bd ca 85 d0 3d 5d bf 93 3d a7 2a 4b 3e
       -0.08417117 0.10181768 0.07214234 0.1984049
0001b0 42 e1 c5 3d cd 32 0a be 49 20 81 3e 72 ca 99 3e
       0.09662105 -0.13495941 0.25219944 0.30037266
0001c0 35 69 22 3c f1 6e 2f 3e a7 3c 09 3e d9 8b ef bb
       0.009912779 0.17132165 0.13402043 -0.0073103723
0001d0 8a 0b c5 3d ca 17 b5 3e e2 ec 62 3e fe e7 ec bb
       0.096213415 0.35369712 0.22160676 -0.007229804
0001e0 9b eb 38 be 0a b8 89 bd 79 c2 90 3e 68 5f 9c 3e
       -0.18058626 -0.06724556 0.2827337 0.3054154
0001f0 0a d8 12 3e 41 c5 0f 3d f6 ed 36 be ba 19 55 be
       0.14340225 0.035100225 -0.17864212 -0.20810595
000200 ac be 6c 3d 4c 7e 3b be 98 b9 33 bd 0a e5 68 bc
       0.057799026 -0.18309897 -0.043878168 -0.014214763
000210 ea df 7a bc f9 22 32 be cf 68 33 be 10 06 20 be
       -0.015312174 -0.17396154 -0.1752045 -0.15627313
000220 09 b1 3a be e7 fa 37 be 83 bc a4 bd 0b 5e 22 be
       -0.18231596 -0.17966805 -0.08043768 -0.15856187
000230 58 ab f5 3d fe 38 01 be 40 ef 90 3d a8 64 33 3d
       0.11995572 -0.12619397 0.07076883 0.043797165
000240 ac 04 2a be 99 4b 3c be 04 0c d6 bd 3e 52 d0 bc
       -0.16603345 -0.18388213 -0.104515105 -0.025429841
000250 62 9e 31 bd 1d ff 82 bd a3 39 9b 3d a9 f1 17 3e
       -0.043363936 -0.06396315 0.07579353 0.1483828
000260 b7 a2 9a 3e 74 95 48 3e 63 df 70 3e 7f 53 ab 3d
       0.30202267 0.19588262 0.23522715 0.08365535
000270 91 54 3d 3d bc e3 1f 3d 57 d3 3a 3e 15 23 78 3e
       0.046223227 0.039035544 0.18244682 0.24232133
000280 19 7c 06 3e 59 52 17 3c 35 ec 9a 3c 62 8c 6d be
       0.13133277 0.009235942 0.01891146 -0.23198083
000290 55 fa 98 bd 00 ad 64 be bf e1 47 be 53 20 26 be
       -0.07469622 -0.2233162 -0.19519709 -0.16223268
0002a0 6a 90 e5 bc 2c da 44 be c1 d6 70 be 3d dd 2b 3c
       -0.028022964 -0.19223851 -0.23519422 0.010489759
0002b0 2f 68 71 be 28 9e 83 bd 39 5d ff 39 90 65 8b 3d
       -0.23574899 -0.0642665 0.00048706846 0.06806481
0002c0 bb 50 65 be c6 86 c7 3d 74 a2 73 be e6 b7 a7 3d
       -0.22394077 0.09742503 -0.2379244 0.08189373
0002d0 f7 97 df bd d9 5c 35 be d5 b6 33 be 84 0d 61 be
       -0.10917657 -0.177112 -0.17550214 -0.21977812
0002e0 0e 8f 9b 3c 8b ee 69 3e bd 86 b5 bd d8 c0 a5 bd
       0.018989112 0.22844903 -0.0886359 -0.08093423
0002f0 06 41 9c bd a1 54 2d 3d c1 82 8d 3e da 12 ae 3d
       -0.0762959 0.042317037 0.2763882 0.084996894
000300 30 23 76 3d de d1 79 3e 51 9a 8a 3e 64 57 82 3e
       0.06009215 0.24396464 0.2707086 0.254573
000310 1d e3 5a 3e 86 38 91 3d a9 36 a4 3e e5 85 2f 3e
       0.213757 0.07090859 0.32072952 0.1714092
000320 69 72 1c 3e fb 29 1c 3d 99 00 bc bd fe 40 87 bd
       0.15278019 0.038125973 -0.091798015 -0.06604193
000330 41 bf e0 3d a3 0a 33 3e 9a 9c 5b 3d 7d 5b b8 3d
       0.10973979 0.17484526 0.053616144 0.09001825
000340 58 62 4c be 7a bc 11 be 69 22 0a bd 71 16 67 be
       -0.1995939 -0.14232054 -0.033724222 -0.22567154
000350 53 f9 08 be d7 b4 c9 bd 41 4c 34 be 23 67 5a be
       -0.1337636 -0.098489456 -0.17607214 -0.21328406
000360 14 39 45 be 8f e5 9e 3d c1 0c 1b be 93 6f ba bd
       -0.19260055 0.077586286 -0.15141584 -0.09103312
000370 54 f9 a6 3d ac 55 0b 3e 81 60 20 be e6 97 23 be
       0.08153024 0.136069 -0.15661813 -0.15975913
000380 8d d7 4d be 52 8d 64 3a 7e 51 6a 3e 62 03 fb 3d
       -0.20101757 0.0008718568 0.2288265 0.122565046
000390 da 2a 3e bc b5 b2 fb bd 60 95 d3 bd 25 d5 90 3e
       -0.011606896 -0.12289945 -0.103312254 0.28287616
0003a0 78 56 bd bd 99 c3 50 3d f5 5f 38 bd 6f fe 30 bb
       -0.09245008 0.050967786 -0.045013387 -0.0027007123
0003b0 2a f1 7a 3e 5c 16 00 3e d2 0a 2a 3e 60 88 e7 3d
       0.2450606 0.1250853 0.1660569 0.11305308
0003c0 88 66 4f 3e 64 a7 e3 3d 07 5c ad bd e1 f2 c0 bc
       0.20253956 0.111159116 -0.084648184 -0.023553314
0003d0 05 88 3a be 54 da 8b bb e0 15 59 3e e4 10 d7 3d
       -0.1821595 -0.00426797 0.21199751 0.105012685
0003e0 1e b1 41 be d4 4d 3c 3d
       -0.18915221 0.04597266

conv1.bias f4 [10]
000000 b3 77 38 3e fc fa 0d 3e 76 06 3d 3e be 93 48 bd
       0.18014412 0.13865274 0.18459496 -0.048969023
000010 21 c6 16 3e a1 84 46 bd e3 ea 06 3d 23 c0 2f 3d
       0.14724018 -0.04846633 0.03293885 0.042907845
000020 dc 39 4e 3e 5f 12 ed 3d
       0.20139259 0.1157577

conv2.weight f4 [20, 10, 5, 5]
000000 fb 96 b2 3c 5d 19 0d 3d 99 f3 c4 bc 33 65 91 bc
       0.021800509 0.034448016 -0.024041938 -0.01774845
000010 fb 73 f4 bc 12 2c 57 3d 78 12 bc 3b a0 ff ac ba
       -0.02984046 0.052532263 0.0057395063 -0.0013198741
000020 18 fd cc bc 28 fa 82 bc 94 21 0a 3d f2 c2 9d 3a
       -0.025023028 -0.015988424 0.03372343 0.0012036248
000030 4d c7 54 3d 0e 51 8f bc 5d bb 89 3c 76 dd 30 bd
       0.05194788 -0.017494705 0.016812975 -0.04317995
000040 33 56 42 3d 20 c0 ca bc e0 43 59 bd 71 dc 20 bd
       0.047445487 -0.024749815 -0.053043246 -0.03927273
000050 85 21 9b bb bc 6b f7 3c bd ae da bc 08 8f cf 3b
       -0.0047342204 0.030202739 -0.02669465 0.0063341893
000060 98 67 25 3d fa 1e 0c bd b8 aa a0 3d 96 ed b9 3d
       0.040381998 -0.03420923 0.07845062 0.09078519
000070 84 1a 6f 3c 57 87 4f 3d db 1c 40 bd d8 86 85 3c
       0.014593724 0.05066618 -0.04690252 0.01629965
000080 81 75 6a bd ea ff 37 bd b9 9f 7b bd 41 b8 8b 3c
       -0.057240967 -0.044921793 -0.06143162 0.017055633
000090 27 d8 ca bb c6 70 22 3d 8c 1f b5 bd 4c 49 84 3a
       -0.006190318 0.03965833 -0.08843908 0.0010092645
0000a0 2a a2 ec bb f6 56 c8 3c 87 9d 71 3c 25 44 32 bd
       -0.00722148 0.024455529 0.01474703 -0.04352202
0000b0 a8 f8 d0 3c 5c 4a b3 b9 4d e0 70 3d 89 9a 25 3d
       0.025509194 -0.00034196943 0.05880766 0.04043058
0000c0 ea 8e 21 bd c9 ba b6 bc 79 a4 81 3d 5e 59 8b 3d
       -0.039442934 -0.022305863 0.06330199 0.06804155
0000d0 24 b6 76 bd 59 49 69 bd 0e 04 05 3d 5d c7 02 3d
       -0.060232297 -0.056954715 0.03247457 0.03192841
0000e0 54 52 0a bd 2e d2 6e bd 8b 33 82 3d 99 c9 94 3d
       -0.03376992 -0.05830591 0.06357487 0.07265014
0000f0 91 59 e3 bc 91 c5 1b 3c 64 60 96 bd 52 d9 6d 3b
       -0.02775267 0.009507553 -0.07342604 0.0036292863
000100 c3 ca 48 3d 06 28 9d 3d 25 3b 07 3c 14 3c 4c bd
       0.049021494 0.076736495 0.008253847 -0.049861982
000110 db 4d 6d 3c 32 7a 79 3d a1 aa a6 bc 41 9c 28 3c
       0.014483894 0.06090755 -0.020345034 0.01029116
000120 99 f3 6c bd d6 ff a9 bb 2c 3e 24 bc 69 7b 34 bd
       -0.0578495 -0.0051879687 -0.010024589 -0.044063006
000130 39 76 2d 3d f6 6e 1e bd 48 95 94 3c 29 92 b8 ba
       0.042349074 -0.03868004 0.01813759 -0.0014081645
000140 be 9f 04 3d 4c 6f be bb 19 22 3d 3d 14 b4 2f 3d
       0.032378905 -0.0058116075 0.046175096 0.042896345
000150 4e c0 82 3c 4b f7 c8 3b 63 81 44 3d 5b 67 45 3d
       0.015960839 0.0061329952 0.047974955 0.04819427
000160 38 12 ef 3c da e9 6e 3d 7e 36 86 3c ae 93 65 3d
       0.029183492 0.058328487 0.016383406 0.05604904
000170 bc 86 23 3d b3 93 ec 3c f3 54 46 bd 25 d8 5b bd
       0.039923415 0.028879022 -0.048420858 -0.05367293
000180 64 c3 52 bd 20 9b 3c bd 50 d1 4c bd ee f4 7c 3c
       -0.05145587 -0.046046376 -0.050004303 0.015439255
000190 a9 32 51 3d 56 e1 77 3d c6 12 0e 3d b8 7a 5e 3c
       0.051073704 0.06051763 0.034685872 0.013579063
0001a0 07 1e d3 3c 71 5a 36 bd 3d 11 e6 bc d4 56 6a bd
       0.025771154 -0.044519845 -0.028084392 -0.057211712
0001b0 8a 86 73 bd e3 ce bd 3c 42 70 38 3d 17 d7 7b bd
       -0.05945448 0.02316994 0.045028932 -0.061484423
0001c0 2e 2f 43 bd 4e 64 af bd 04 4a 39 3d 48 f4 01 3d
       -0.047652416 -0.085640535 0.045236602 0.031727105
0001d0 c6 1b 59 3d 1e 88 60 3b 57 2c 1b bd df 2f 20 3b
       0.053005002 0.003426082 -0.037884083 0.0024442596
0001e0 31 a2 0b 3d 5e bf db 3c c7 69 c9 3d ff fb 9e 3c
       0.034090225 0.02682465 0.098346286 0.01940727
0001f0 85 41 fa bc df 19 ff bc 40 4c 73 bd 1d 1c 57 3d
       -0.03054882 -0.031140266 -0.05939889 0.052517045
000200 e1 e3 56 bd 54 c1 bc bc b2 c7 29 bd ec 05 82 bd
       -0.052463416 -0.023041405 -0.04145021 -0.06348786
000210 a9 96 2d 3c 9e 1a 13 3d 8d 6d 0e bd db b6 81 bd
       0.010595002 0.035914056 -0.034772445 -0.06333705
000220 b8 d4 cb b9 22 6d 3f 3d ce 5f 32 3b 33 b1 12 3c
       -0.00038877665 0.046734937 0.0027217749 0.00895338
000230 d2 32 89 3c 20 92 22 bd 3b b9 3f bd f2 66 c3 3c
       0.016747866 -0.039690137 -0.04680751 0.0238528
000240 e0 a7 63 3c 5a f0 9e bc 1c 0c a8 bb a1 55 66 bd
       0.013895005 -0.019401718 -0.0051283967 -0.056234006
000250 46 42 4b 3d 0b 30 0c 3c e5 0c 29 bd a7 ab 7f 3c
       0.04962375 0.008556376 -0.041272063 0.01560489
000260 7f 0f 45 3c d3 af cb bb 3a af 3a bd 3b c4 11 3d
       0.01202762 -0.0062160282 -0.045577265 0.03558753
000270 25 09 6b bd 26 ae 88 3d f6 93 ef 3c c7 45 46 bd
       -0.057381768 0.06673841 0.029245358 -0.04840639
000280 94 6e 4d 3c 25 d8 59 bd d4 de 36 bd f2 2f 99 bc
       0.012538571 -0.053184647 -0.0446461 -0.01869962
000290 56 bb 80 bd 67 74 4f 3b b4 b1 83 bd 7a a8 04 3d
       -0.062857315 0.0031655075 -0.064303786 0.032387234
0002a0 ac 6c 13 bd 67 54 32 3d f2 d2 36 3d c3 79 6d bd
       -0.03599231 0.043537524 0.044634767 -0.05797745
0002b0 34 f1 93 3c cd 11 f9 3c df fd 1c bd ee 4c fe ba
       0.01805935 0.030403996 -0.038328048 -0.0019401589
0002c0 14 67 11 3d 0e 7e a1 bd ca eb 63 bd f0 7b 9d 3c
       0.035498694 -0.07885371 -0.055644788 0.019224137
0002d0 1a e6 bb 3c 35 42 48 3d 17 08 9d bd 82 cd c8 3c
       0.02293687 0.048891265 -0.07667559 0.024512056
0002e0 7a 1d af 3b 70 83 b5 bd 26 be d4 bc 30 90 25 3c
       0.00534409 -0.0886296 -0.025969576 0.010105178
0002f0 b5 e0 83 3c ba 8c 1c 3d 35 8f 0c bd e1 b2 de bc
       0.01609836 0.038220145 -0.03431626 -0.027184905
000300 c6 a8 03 3c c7 8b 13 bd 84 80 f8 3c 30 4c 2c 3d
       0.008035844 -0.036021974 0.030334719 0.042064846
000310 e1 17 77 bc 19 52 a8 3d d8 be 2c 3d 72 e0 bc 3c
       -0.015081377 0.08218784 0.04217419 0.023056243
000320 41 f1 a7 3c 71 e9 ed bc 3d e8 90 bc 28 92 02 bd
       0.020500781 -0.029041978 -0.017688865 -0.031877667
000330 90 f4 63 3c a5 57 6a bd 53 d1 a7 bc f9 1c 06 3d
       0.013913289 -0.05721249 -0.020485556 0.032742474
000340 9d 08 e6 bc ed db df bc df 7a db 3c 74 8b 23 3d
       -0.028080279 -0.027326548 0.026791988 0.039927915
000350 1c a6 84 3d e7 97 42 bd d4 bf 62 3c 83 e6 d6 3c
       0.06476995 -0.047508147 0.013839681 0.026232963
000360 81 4e 57 3c 6b d8 63 bd a6 0b a6 bc b6 bc 49 3d
       0.013141275 -0.055626314 -0.020269226 0.049252234
000370 63 5d 1f 3c 3f aa 9f 3b 6f e6 4a bc d6 87 64 bd
       0.009726855 0.00487259 -0.012384041 -0.055793606
000380 f2 cc 90 3d 1b c6 cd 3c bf 16 50 3c 60 94 40 3d
       0.0707034 0.025118878 0.012700736 0.0470165
000390 1c b8 10 bd 9f 40 43 bd d3 67 23 bd 62 f0 1e bc
       -0.03533183 -0.04766905 -0.039893936 -0.009700866
0003a0 b0 be 17 bd 35 9c 38 3a 86 79 4d 3d 42 68 eb 3c
       -0.03704709 0.00070423196 0.050164722 0.028736237
0003b0 bd 13 93 3c f8 dc 45 3d 22 fc 24 bd b6 65 26 b9
       0.017953748 0.048306435 -0.040279515 -0.00015868884
0003c0 65 fe 7e 3d 97 9b 26 bd 50 84 8e bd 12 fa 30 bd
       0.06225433 -0.040675726 -0.0695883 -0.043207236
0003d0 57 86 43 bd 40 36 9f 3d 3c 10 80 3d 52 0c 9e bc
       -0.04773554 0.07774019 0.062530965 -0.019292984
0003e0 f3 9c e0 bc b6 e8 83 bd 22 9a 96 3c 38 4c 24 3d
       -0.02741859 -0.064408705 0.018384043 0.04011175
0003f0 c2 8f 0d 3a 9b 41 99 3c 9b 6e bd 3c f8 70 58 3d
       0.0005400145 0.018708041 0.02312403 0.05284211

conv2.bias f4 [20]
000000 65 db 8b bc 1e 8c 55 ba b3 96 f6 bb 22 99 ee bb
       -0.017072389 -0.0008146184 -0.007525289 -0.0072814384
000010 63 e1 c0 3c 08 ff 2b 3d 26 ed cd bc 60 c4 9b bc
       0.023544973 0.041991264 -0.025137495 -0.019014537
000020 dd 38 f1 3c 8e 56 56 3c 49 0d 8e bc e9 a0 71 bb
       0.02944606 0.01308216 -0.01734032 -0.0036869592
000030 1f fa 12 3d ac 3c 39 ba d7 ad b6 bb 74 18 78 3d
       0.035883065 -0.0007066231 -0.0055749225 0.060570195
000040 2a 6d d8 bc c1 fa 6b 3d ff ff 45 bd e0 d6 77 3d
       -0.026419241 0.057612184 -0.04833984 0.060507655

fc.weight f4 [10, 320]
000000 c3 14 26 3d 21 9d 79 3c 29 4e f4 bc 1a 3c 8e 3c
       0.040547144 0.015235216 -0.029822426 0.017362643
000010 cf ed 3f bd 00 1d 6b bc 50 af ef 3c b5 80 76 bd
       -0.04685765 -0.014350176 0.0292584 -0.06018134
000020 04 13 88 ba 2b 34 81 3d 23 8e 3e 3d 42 24 b5 3c
       -0.0010381644 0.063087784 0.04652227 0.022112016
000030 ef 1b 13 3d 09 f9 8e 3d 2a 32 07 bc 9b e6 eb bb
       0.03591531 0.069810934 -0.008251706 -0.007199121
000040 7c 4a b3 3b cb bf 8f bc 73 73 71 bd ab fc 10 3e
       0.0054715257 -0.017547509 -0.05894799 0.14158885
000050 34 28 34 3d cb 6a b4 bd 7d fb 29 bc 2f b2 27 3d
       0.043983653 -0.08809432 -0.010374901 0.040941413
000060 3b fc cd 3d 5e f3 79 3d 6d 40 59 bc 1d 5c c8 bd
       0.10057875 0.06102311 -0.013259989 -0.09783194
000070 69 d4 a6 3d 43 1b 92 3d 54 97 ab 3c 67 a1 cf bd
       0.08145983 0.07134106 0.020946182 -0.10138207
000080 84 5b 25 3d d9 cc 23 bd d0 05 39 bd 7d c1 2a 3d
       0.04037048 -0.03999028 -0.04517156 0.04168843
000090 88 28 b6 3c b0 c4 04 3d a1 02 0b 3d 8c f5 93 bc
       0.022236124 0.03241414 0.033938054 -0.018061422
0000a0 7a bc b8 3c 0e 8e e4 bc 2b e3 1e bd a7 05 ba 3b
       0.02255081 -0.027899768 -0.038790863 0.0056769433
0000b0 6a fc ad bc 4d 9b 09 3d a5 38 85 bc b5 a6 2b ba
       -0.021238524 0.033595372 -0.016262362 -0.00065479736
0000c0 80 1b bd ba 43 bc 09 bd 50 09 d7 bc d1 9c ff 3c
       -0.0014427751 -0.033626806 -0.026249558 0.031202706
0000d0 15 ca 0d bb 40 02 be 3c 40 b1 9b bc f1 b2 f4 3c
       -0.0021635343 0.023194432 -0.019005418 0.029870482
0000e0 27 60 32 3d 7c 8c 9d 3d 15 2f 96 3a 2d 0a 01 bb
       0.04354873 0.07692811 0.0011458123 -0.0019689903
0000f0 90 8f 60 3d 63 9a 5c 3c e2 f9 57 bb f6 f1 73 3b
       0.054824412 0.013464543 -0.0032955338 0.0037223077
000100 6b ad 56 bd a7 8f 2c bd 97 e7 91 ba 88 09 e1 3d
       -0.052411478 -0.042129185 -0.0011131641 0.10988146
000110 c4 99 c3 bc 1d 57 d9 ba 54 18 ef bd cd 38 85 3c
       -0.023877032 -0.0016581748 -0.11674562 0.016262436
000120 5d ff c3 bc a6 2d 01 bd b2 3f 32 bd c9 74 26 bb
       -0.023925478 -0.031537674 -0.043517776 -0.00253992
000130 13 88 75 3d 2d 10 b9 3c b6 9c 4e bc 09 e5 be bd
       0.059944224 0.022590721 -0.012610605 -0.09321029
000140 7e 1d 09 3d 4e 26 85 3b 2e 49 19 bd cf 73 12 3c
       0.03347539 0.004063404 -0.037423305 0.008938744
000150 fa cb 4e bd 9c 96 43 bd a0 67 c2 bc 2b 84 19 3d
       -0.050487496 -0.047751054 -0.023731053 0.03747956
000160 78 b8 5a bd 69 c7 e9 bc ad bf 64 3d ac cc 03 bc
       -0.05339858 -0.028537469 0.05584686 -0.008044403
000170 49 b7 11 bd 41 1f 99 bc 25 74 cf 3b e4 3e d6 3c
       -0.035575185 -0.01869166 0.006330984 0.026153035
000180 e4 30 11 bc 9a 88 db bc b2 1e 50 bc ef 93 24 3c
       -0.008861754 -0.026798535 -0.012702631 0.010045036
000190 d8 27 50 3d 40 3f 2f bc 83 a8 67 bc 17 a5 bb bc
       0.050819248 -0.010696232 -0.014139297 -0.02290587
0001a0 13 80 26 3d 18 c6 da 3c 1c b7 8e bc 55 4b 0f bd
       0.040649485 0.026705787 -0.017421298 -0.03498395
0001b0 50 c9 d1 3b cb ec 1a bc d3 4c 20 bc 86 73 b7 bc
       0.006402172 -0.00945587 -0.009783941 -0.022393953
0001c0 57 b4 18 3d 87 86 8f 3b 82 ac 05 bd 3e 82 05 bc
       0.03728136 0.0043800506 -0.03263522 -0.008148728
0001d0 1d 02 58 3c 20 2e 80 bc 1e dd 45 3d 74 85 60 bd
       0.013184098 -0.015646994 0.048306577 -0.05481477
0001e0 d1 b0 a8 bc d4 cd 3e 3d 22 09 2f 3d 60 6c 2d 3d
       -0.020592125 0.04658301 0.04273332 0.042339683
0001f0 ad 1f c1 3c a4 c7 12 bd ea 52 05 3d 19 26 c5 3c
       0.023574675 -0.035834923 0.032549776 0.024066018
000200 5f 65 0e bc c4 be 68 bd c4 ea 9e bd 4c 5e be bc
       -0.008691161 -0.056822553 -0.07759622 -0.023238324
000210 ae d4 85 3c 3e 33 72 3d 97 c6 48 bd 7a d3 eb bc
       0.016336765 0.0591309 -0.049017515 -0.028787363
000220 de 48 68 3d 5b a7 91 3d a8 f7 f8 3c ef 7a 10 bd
       0.056710117 0.07111999 0.03039153 -0.03527349
000230 18 16 dc 3c ff d3 36 3d 43 2f 79 bd e4 2e 62 b7
       0.026866004 0.04463577 -0.060836088 -1.3481567e-05
000240 8e 5f c0 3c b6 58 1f 3d d3 01 4d 3c 97 1c b1 3d
       0.023483064 0.03890296 0.012512642 0.08648031
000250 70 fe 76 3d b0 90 3e bd 13 3e cf b9 4c 9f aa 3d
       0.060301244 -0.046524704 -0.00039528366 0.08331165
000260 91 8e 83 3d 81 ea 8b bd 74 36 73 ba 48 c8 3f bb
       0.06423677 -0.068318374 -0.00092778285 -0.0029263664
000270 62 99 99 3c a6 28 37 3d ad e6 0a 3b 18 d6 4b 3c
       0.018749896 0.0447165 0.0021194622 0.012441181
000280 83 58 59 bd f4 b6 18 3c 6e 87 94 3c 74 36 65 3d
       -0.053062927 0.009320963 0.018130984 0.055960134
000290 e6 69 c6 3c 01 ce 74 bc 55 9f 9a bd a7 eb 05 bd
       0.024220418 -0.014941693 -0.075499214 -0.03269544
0002a0 5f aa 20 bd 5a d3 14 bd a0 a0 36 bd e9 16 39 bd
       -0.03922498 -0.036334373 -0.044586778 -0.045187864
0002b0 75 d6 47 3d 4f a8 9e 3c c0 e7 bc 3b e3 e9 8c bd
       0.048788507 0.019367365 0.0057649314 -0.06880548
0002c0 02 4a 5f bb dc 4a d5 b9 c9 76 79 3c db fb dd bb
       -0.0034071212 -0.000406823 0.0152260745 -0.0067744083
0002d0 67 b4 13 3d 35 7b d3 bc 22 5a c1 bc 1f bc cc bc
       0.036060717 -0.025815586 -0.023602549 -0.024992047
0002e0 a9 76 a3 bc 5c 96 d1 3c 0a d0 b3 3d 9a a0 4b bd
       -0.019954043 0.025584392 0.08779915 -0.04971371
0002f0 22 10 c1 bc 7f 62 4f bb f5 87 85 3d 4f f1 4a 3c
       -0.023567263 -0.0031644402 0.06520072 0.012386634
000300 66 d4 79 3d 8f 10 b6 3d e5 0c 22 ba 6d 5a d4 bc
       0.060993575 0.08889877 -0.0006181731 -0.025922025
000310 f2 2f 66 3c b4 0c 59 bd 76 d7 59 bd 13 c1 31 ba
       0.014049517 -0.05299063 -0.053183995 -0.00067807845
000320 fb b5 92 bc cb 48 4b bd 45 a6 3e 3d 87 98 20 bd
       -0.01790904 -0.049629968 0.046545286 -0.03920796
000330 95 27 38 bc e7 51 ba 3c be f5 ac 3c ff 0b 91 bd
       -0.011239906 0.022744132 0.021113273 -0.07082366
000340 06 a8 37 bd c6 76 13 bd 35 e9 92 3d e7 6e 66 bd
       -0.044837974 -0.036001943 0.07173387 -0.05625811
000350 a2 2d 38 3d b6 4f c8 bb c5 d1 4e 3d fe 3a 52 bd
       0.044965394 -0.006113018 0.05049302 -0.05132579
000360 36 4e 24 bc 4a 17 60 bd 2c ed c3 bd ed 02 04 3d
       -0.010028413 -0.05470971 -0.09566721 0.032229353
000370 0f 00 86 bc b9 b0 83 3c 1a 3e c4 3d 81 39 ce 3c
       -0.01635745 0.016075479 0.095821574 0.025173904
000380 79 49 0d bd 41 e9 55 bb 79 9f dd bc 34 5a cc bc
       -0.034493897 -0.003264025 -0.027053582 -0.024945356
000390 75 f7 57 bd 0e 97 f0 3b 01 a3 ae bd ff cd cc bd
       -0.052726228 0.007342226 -0.08527184 -0.10000228
0003a0 61 bf b6 bb 5c ef ca bc b3 45 99 bd ab 41 33 3d
       -0.0055770134 -0.024772339 -0.07483997 0.043763798
0003b0 14 5f 04 3a dd f2 d0 bc ef 8c 48 3d 39 ce ea 3c
       0.0005049568 -0.025506431 0.04896253 0.028662788
0003c0 4d 04 5d bd 68 01 7c bd 27 09 69 3c 2c 60 e9 bb
       -0.05395918 -0.06152478 0.0142233735 -0.0071220603
0003d0 8a a1 60 bd 3f e4 d0 39 4f 30 87 3d e5 76 0f bd
       -0.054841556 0.00039842908 0.06601011 -0.035025496
0003e0 81 34 4a b9 ca d0 c5 3d d7 3b 72 3d 44 d7 ad bc
       -0.0001928378 0.09658964 0.0591391 -0.02122081
0003f0 85 be 18 3c 6b 55 c5 3d 22 2c 47 3d 08 3b 9c bd
       0.009322767 0.09635433 0.048626073 -0.07628447

fc.bias f4 [10]
000000 db 82 1c bd b7 97 f2 bb a8 f7 48 bd 46 5c b7 bc
       -0.03821073 -0.0074033397 -0.04906431 -0.022382867
000010 ca 0c e7 bc 22 ee 1e 3d d9 07 da bb 0c d2 23 3d
       -0.02820434 0.03880132 -0.0066537675 0.03999524
000020 6b 68 23 bc 6f f0 27 3c
       -0.009973626 0.010250195

momentum_buffer f4 [10, 1, 5, 5]
000000 ee f1 62 3c da 1a 54 3c 17 c5 bb 3c 5c 66 e5 3c
       0.013851626 0.012945855 0.022921128 0.02800291
000010 2e 81 ed 3c 92 cc 31 3c 41 91 81 3c 53 b7 f1 3c
       0.028992262 0.010851996 0.015816333 0.029506361
000020 de 5e 02 3d 96 39 d9 3c 28 8f fc 3b 08 96 87 3c
       0.031828754 0.026516717 0.0077074952 0.016551033
000030 c9 86 c5 3c 77 04 ae 3c 0e b9 e5 3c 20 d0 e6 3a
       0.024112122 0.021242363 0.028042343 0.0017609634
000040 d7 c8 6d 3c 8f 12 5d 3c 12 5e 99 3b ee 3c 10 3c
       0.014513216 0.013493194 0.0046804035 0.008803589
000050 7d 3a 06 bb 1c de ea 3b 69 36 ad 3a 71 9c a2 bb
       -0.002048164 0.007167591 0.0013215068 -0.004962497
000060 5e aa 2a bb 70 19 32 bb 33 9e 13 bd 2d 66 2d bd
       -0.0026041488 -0.0027175806 -0.036039542 -0.04233377
000070 4f 8f 1d bd d8 b5 f3 bc 37 af 04 bd fc 2c 3a bd
       -0.038466748 -0.029749796 -0.03239366 -0.045453057
000080 1f 1d 40 bd de 02 37 bd db f8 04 bd 9d da 41 bd
       -0.046902772 -0.04468047 -0.03246389 -0.047327626
000090 d7 74 58 bd fb db 1b bd 84 07 15 bd 09 11 ed bc
       -0.052845802 -0.038051587 -0.03638412 -0.028938787
0000a0 f4 f6 00 bd c3 cb f9 bc 98 55 7f ba 9a 1f 9d bb
       -0.031485513 -0.030492669 -0.00097402325 -0.004795027
0000b0 be ae 90 bb ec 9c 56 bc aa 2a 30 bc 6e a1 38 3b
       -0.004415362 -0.0130989365 -0.010752359 0.0028172391
0000c0 00 4e d2 38 b4 04 4d bc be 55 ef 3b b4 c7 83 3c
       0.00010028109 -0.012513328 0.0073039224 0.016086437
0000d0 56 ab 3a 3c 62 11 36 3b 2a 5f 09 bc 9e 33 c5 3b
       0.011393389 0.0027781357 -0.008384505 0.006018116
0000e0 b3 ba 78 3c 1c 53 87 3c a4 dd 91 3b f1 bd 99 bc
       0.015181231 0.016519122 0.0044514704 -0.018767329
0000f0 3c 3e 95 3c bf 35 a4 3c 86 21 82 3c a0 df 41 3b
       0.018218152 0.02004516 0.015885126 0.0029582754
000100 50 dd cc bc 6b e3 cc 3c 18 a4 a4 3c 54 9a 45 3c
       -0.025007874 0.025010785 0.020097777 0.0120607205
000110 ae db 02 bc 1a 58 a3 bc e2 ac a9 3c 59 aa 41 3c
       -0.007986946 -0.019939471 0.02071232 0.011820399
000120 72 e0 39 3b 65 a6 90 bc a2 fd 9b bc dd d7 13 bc
       0.002836254 -0.017657468 -0.01904184 -0.009023634
000130 78 0b d1 3a ac 36 89 3c 88 eb 09 3d 66 b2 ab 3c
       0.0015948853 0.016749702 0.033671886 0.02095909
000140 82 46 7d bb 62 c8 ec 3b 3c 46 97 3c 58 85 c4 3c
       -0.0038646762 0.007226036 0.018466108 0.023989365
000150 d1 eb 2f 3b 6e 41 1c bb 90 0f a9 3b bd 1a 7b 3c
       0.0026843438 -0.002384271 0.005159326 0.015326199
000160 1f d5 82 3b af 31 2d bc dc 17 bd ba 8a b0 da 3b
       0.003992691 -0.0105709275 -0.0014426666 0.006673877
000170 c4 9c 51 3c a1 0c c8 bb 04 04 5f bb c4 7c 8a ba
       0.0127937235 -0.006105021 -0.0034029493 -0.0010565748
000180 56 ea 67 3b 50 c1 dc 3b 60 1d 5b b8 64 a5 1f 3b
       0.0035387478 0.006736912 -5.2241026e-05 0.0024360055
000190 c4 a9 a9 bb 28 a2 2a bb ba d4 94 bb 2a 8a 22 bc
       -0.0051777083 -0.0026036594 -0.0045419605 -0.009920636
0001a0 92 8a 11 3b 2c 60 3a bc d4 53 4e bb 10 db 30 bb
       0.0022207838 -0.011375468 -0.003148307 -0.002698604
0001b0 50 d9 e4 bb ab 34 a0 bb 2e ef c3 bc ca 86 ad bc
       -0.0069839135 -0.004889091 -0.02391776 -0.021182436
0001c0 e6 80 be bc 15 5b f8 bc fc 2f 27 bd c4 83 90 bc
       -0.023254823 -0.030316869 -0.040817246 -0.017640956
0001d0 ce 84 87 bc 3a 5b f6 bc c6 7e 59 bd e4 54 39 bd
       -0.016542818 -0.030072797 -0.053099416 -0.045246974
0001e0 00 9e d8 bc e8 28 89 bc 05 ee 02 bd b2 9d 55 bd
       -0.026442528 -0.016743138 -0.031965274 -0.052152343
0001f0 28 10 4d bd 20 d8 ff bb 10 45 cf 38 50 82 16 3b
       -0.050064236 -0.0078077465 9.883393e-05 0.0022965856
000200 6b 47 53 39 37 f4 ee ba 3b 5c 8a bb 66 fc 39 3b
       0.00020149133 -0.0018230741 -0.0042224205 0.00283792
000210 40 ff 12 3b 59 f3 be 3a 76 31 8e 3a b4 8f 12 bb
       0.0022429973 0.0014568373 0.0010848481 -0.0022363486
000220 be 87 b6 3a 04 8d 27 3b e1 a7 04 3b ab 73 09 3b
       0.0013925952 0.002556623 0.0020241665 0.0020973484
000230 6c 6a 46 3b 38 fc 5b 3b 18 49 75 3b 66 aa 3b 3b
       0.0030275835 0.0033567082 0.00374276 0.00286355
000240 1e 7d e1 3a 2b 74 95 3b 72 08 88 3b ee 51 86 3b
       0.0017203426 0.0045609674 0.0041513974 0.0040991222
000250 60 13 79 3b 04 56 82 39 8d 65 17 3c 20 39 e5 3c
       0.0038005933 0.0002485962 0.00924052 0.02798134
000260 0c cb 45 3d ce e5 6d 3d ff b3 52 3d 94 b3 fa 3b
       0.048289344 0.058080487 0.05144119 0.007650802
000270 ea 90 f8 3c 76 2a 52 3d f6 99 32 3d a7 1f 0b 3d
       0.030342538 0.051310025 0.04360386 0.033965733
000280 4c 0f 08 3c b8 a1 c7 3c 51 ee e3 3c b1 80 8f 3c
       0.008304428 0.024369106 0.027823599 0.01751742
000290 2c 81 90 3c 9e 2c ab 3b 1b 0e 81 3c 54 1e 36 3c
       0.017639719 0.0052238246 0.015753796 0.011115629
0002a0 78 a3 2a 3c 40 01 24 3c 39 f0 20 bc 8a 5d ba ba
       0.010414951 0.010010064 -0.009822899 -0.0014218551
0002b0 f1 03 f8 38 ec ec 4a 3b 98 53 07 3c df eb b8 3c
       0.00011826296 0.003096397 0.008259676 0.02257341
0002c0 84 f8 03 3d aa be 1b 3d 59 34 e4 3c 75 13 bd 3c
       0.032219425 0.03802363 0.027856993 0.023080567
0002d0 00 bf a0 3c d2 39 09 3d 8e 2b 09 3d 3b 5f 8a 3c
       0.019622326 0.033502407 0.033488803 0.016891113
0002e0 48 d5 8d 3c 02 1e 3f 3c b5 0a ab 3c ab 91 44 3c
       0.017313614 0.011664869 0.020879129 0.011997621
0002f0 5c 08 ad bb b4 8e 01 bc 20 e2 b3 bb f3 78 a1 bb
       -0.0052805375 -0.007907558 -0.0054896027 -0.0049277483
000300 d0 07 62 bc 87 09 18 bc 40 23 40 3b b0 d6 9e bb
       -0.013795808 -0.009279615 0.0029317886 -0.00484737
000310 de 59 27 bc 1b ba 62 bc 8c 12 60 3b 1e fc 92 3c
       -0.010214297 -0.013838316 0.0034190742 0.017942484
000320 65 77 a0 bb 70 7a 2c bc f9 0e a1 bb 81 09 cc 3b
       -0.0048970454 -0.010527238 -0.004915115 0.006226719
000330 ef bb 31 3c 80 63 7b bb 26 1c 10 bb 30 be 9f b9
       0.0108480295 -0.0038358867 -0.0021989434 -0.00030468544
000340 af c7 f1 3b b9 c4 2b 3c c8 d4 67 3a 1b d6 11 bb
       0.0073785405 0.010483914 0.00088436576 -0.002225286
000350 c8 8a 4c 3a 22 57 f6 3a 40 48 1c b9 2c 0a cb bb
       0.00078026624 0.0018794278 -0.00014904235 -0.006196281
000360 9e 17 a9 ba 00 a2 46 37 a0 26 98 ba 57 30 6a bb
       -0.0012900715 1.1839438e-05 -0.0011608191 -0.003573438
000370 58 dd 24 bb 6e 1b 3c 3b 74 fe ac b9 c4 d7 a7 ba
       -0.0025156345 0.0028702873 -0.0003299598 -0.0012805392
000380 2a 8e c7 ba 53 db 6c bc d5 b3 16 bd 90 15 08 bd
       -0.0015224863 -0.014456588 -0.036792595 -0.03322369
000390 a6 4a af bc 15 95 8b bc 9a 8a cf bc d9 e4 03 bd
       -0.0213979 -0.017038861 -0.025334645 -0.032200668
0003a0 43 2b f3 bc e9 51 dc bc 50 26 94 bc 79 21 7f bc
       -0.029683715 -0.026894527 -0.018084675 -0.015571945
0003b0 ae 27 cd bc cf cb b1 bc 03 38 be bc 58 99 8d bc
       -0.025043335 -0.021703629 -0.023220068 -0.017285034
0003c0 56 4b a0 bb 6d 54 82 bc d2 de 81 bb ae 96 a6 bb
       -0.0048917932 -0.015909398 -0.00396333 -0.0050838804
0003d0 ad a1 29 bc 30 86 b4 ba 5a 47 18 bb 7e 37 23 3b
       -0.010353488 -0.0013772901 -0.0023235888 0.0024904902
0003e0 b7 57 a4 ba 4f 79 5f bc
       -0.0012538348 -0.013639762

momentum_buffer f4 [10]
000000 42 ed 4a 3c f0 68 c1 bc 2f ad eb bb 38 c4 ff 3b
       0.012385668 -0.023609608 -0.007192276 0.0078053735
000010 00 c3 a1 bc 64 d3 7a bb 2a 0f 52 3c 80 15 57 3b
       -0.019746304 -0.0038272971 0.012820998 0.0032819211
000020 48 8f a1 3a 7e 3d 4d bc
       0.0012326026 -0.012526868

momentum_buffer f4 [20, 10, 5, 5]
000000 bc ce 7a bc 8a 82 49 bc 70 a0 3e b9 3e 19 35 bb
       -0.015308078 -0.012299189 -0.0001817958 -0.0027633454
000010 d4 5d 3a bb 8b f8 7c bc 6c 35 34 bc 0e 97 89 bc
       -0.0028437274 -0.015440117 -0.010999065 -0.016795661
000020 a0 23 35 bc 14 3e 09 bc 44 73 c5 3a 50 02 a1 b9
       -0.011055857 -0.008376617 0.0015064259 -0.00030710036
000030 73 0d 73 ba 2c ef 55 3b c6 f5 a8 3a 27 0f 43 ba
       -0.00092717184 0.0032643778 0.0012890629 -0.00074409175
000040 20 17 8e ba 26 e5 ee 3b 7d 0e 1b 3c 96 32 44 3c
       -0.0010840632 0.0072905 0.0094639035 0.011974951
000050 d4 51 df bb f0 08 2d bc 3c 9c 19 bc 84 da c1 bb
       -0.0068151746 -0.010561213 -0.009375628 -0.0059159417
000060 6a e3 14 bc cc 3b cf bc 48 9d 15 bd ec 65 d4 bc
       -0.009087423 -0.025297068 -0.03652695 -0.025927506
000070 13 eb 3c bc ce 7d 1b 3a 72 0e 37 bc da bf 33 bd
       -0.011530655 0.0005931527 -0.011172878 -0.043884136
000080 0e e0 02 bd d8 04 2f bc 10 e3 9e 3b 24 8d 56 3b
       -0.031951956 -0.010682307 0.0048488453 0.0032737935
000090 a4 b4 bf bc e2 c5 83 bc a8 44 99 3c ae 71 b7 3c
       -0.023401566 -0.016085569 0.018709496 0.022393074
0000a0 55 66 16 bc f6 60 d1 bc f1 3f 82 3b 6a 85 bc 3c
       -0.009179671 -0.02555893 0.0039749076 0.023012836
0000b0 7c fb 1a 3c 02 29 a5 bc 32 34 8f bc ef b2 f8 3b
       0.009459373 -0.020161156 -0.017480943 0.00758969
0000c0 4f a3 9c 3b 91 17 64 bc cf f8 79 bc ca c8 15 bc
       0.00478021 -0.013921634 -0.0152570745 -0.00914211
0000d0 36 47 b6 ba 0a ac 73 3a 49 e7 e6 bb ae 64 63 bc
       -0.001390672 0.000929535 -0.0070466143 -0.013878984
0000e0 80 ec b5 39 04 1d 6f 3a 27 f3 16 3c 35 40 45 bc
       0.00034699216 0.000912145 0.0092132455 -0.012039234
0000f0 fc a1 80 bc 2e 0e c8 3b ba db 62 3c 45 5d 13 3c
       -0.01570224 0.006105206 0.013846332 0.008994405
000100 0e d0 68 bc 67 88 77 bc ce a6 1f 3c bf 9a 9a 3b
       -0.01420976 -0.015108204 0.009744359 0.004718154
000110 04 15 83 bb ec 4e 42 bc 50 62 61 bb e0 b5 0f 3c
       -0.004000308 -0.011859637 -0.0034390874 0.00877139
000120 02 0d 78 bb 69 38 3a bc 5b e6 1e bc e4 1c ad bb
       -0.003784955 -0.011365988 -0.009698476 -0.005282985
000130 37 7c 4e 3b 6a 4a 97 3b 85 40 6c 3b 00 18 02 ba
       0.0031507143 0.004617025 0.0036049199 -0.0004962683
000140 f7 2c 9e bc 69 3e 1c bc f0 89 c4 bb 1a ee a3 bb
       -0.01930855 -0.009536364 -0.0059978887 -0.005002749
000150 64 4b de bb f9 2c 33 bc a4 6c 14 bc 0c d2 53 bc
       -0.0067838896 -0.010936015 -0.009059105 -0.012928497
000160 78 7e 00 bc 7f 40 03 bc 4e ca 01 bb 1c c4 45 3b
       -0.0078426525 -0.008010983 -0.001980442 0.0030176705
000170 77 dd 21 bb c4 02 eb 3b e6 f3 b2 3b 30 88 27 bb
       -0.0024698654 0.0071719605 0.005461204 -0.0025563352
000180 2c b2 e8 ba 4f 24 b8 bb a2 df ec 3a 6e 82 79 3b
       -0.0017753295 -0.0056195627 0.0018072019 0.0038072127
000190 1e d0 16 bd b6 a8 2f bd 45 48 23 bc 1c 01 07 bb
       -0.03681957 -0.042885505 -0.009965961 -0.0020600026
0001a0 6f 3d e8 bb 9e 73 f1 bc 52 16 0a bd b8 a1 85 bc
       -0.0070874016 -0.029474076 -0.033712693 -0.016312465
0001b0 e0 72 ce b8 f0 6f ff bb 2c ca de bb 85 67 ac bb
       -9.8442426e-05 -0.0077953264 -0.006799003 -0.005261364
0001c0 92 19 78 3b 5b 18 96 3c df fe 92 3b a4 5b 7d bc
       0.0037857038 0.01832216 0.0044859494 -0.015463743
0001d0 1a 28 10 bc 21 69 c9 3b 52 3e 85 3b f0 3e 89 3a
       -0.008798623 0.0061465655 0.004066267 0.0010471027
0001e0 54 fb 16 bc 9b 6c 15 bc da bb 5a bb 1d 41 48 bc
       -0.009215195 -0.009120132 -0.0033376128 -0.0122225555
0001f0 03 70 85 bc f6 f4 ba 3a 9e 12 bd 3a 7c dc 4d 39
       -0.016288763 0.0014263678 0.0014425104 0.0001963246
000200 40 83 77 bb 98 87 73 bb 34 33 64 3b ca d8 3e 3a
       -0.003776744 -0.0037159678 0.0034820559 0.0007280229
000210 fc 86 2b ba 32 a6 dd bb c2 72 52 bb be a9 4e 3a
       -0.00065432466 -0.006764197 -0.0032111858 0.000788357
000220 24 d8 fc b9 32 78 06 bb c2 64 0b bc a2 ff 53 bb
       -0.00048226223 -0.002051842 -0.008507909 -0.0032348414
000230 20 81 c0 b8 cd 6b c1 ba ca d1 e1 bb b8 86 bb bb
       -9.179325e-05 -0.0014756859 -0.006891464 -0.005722847
000240 57 51 80 bb f0 1f 2d b8 57 b1 00 bb 0c ed 9d bb
       -0.0039159465 -4.127616e-05 -0.0019636953 -0.004819518
000250 54 18 24 bb 4a 48 2f ba b8 98 21 ba 4a ef 94 3b
       -0.0025038915 -0.0006686492 -0.00061644195 0.004545127
000260 38 6b cc 3b 9f 78 77 3b a4 1d 9a 3a 65 71 d1 bc
       0.0062383674 0.0037761105 0.0011758101 -0.025566766
000270 35 c2 22 bc c4 da 2c bc b6 ad 14 bc d6 67 da bb
       -0.009933998 -0.010550205 -0.009074619 -0.0066652102
000280 49 ff 27 bc a0 b0 88 bc 22 61 44 bc 0a 36 23 bc
       -0.010253736 -0.016685784 -0.011986049 -0.009961614
000290 c3 8b 21 bc 4a e4 90 3b 62 8f 82 3a 54 d9 d4 3a
       -0.009859982 0.0044217454 0.0009960944 0.0016239085
0002a0 e7 32 09 3c d6 e7 65 3c 75 be 86 bb d3 49 b6 bb
       0.0083739525 0.014032325 -0.0041120597 -0.0055629998
0002b0 6c 81 e0 ba 28 b4 98 3b bd 7d 48 3b 04 7e e6 bc
       -0.0017128414 0.004660148 0.0030592524 -0.02813626
0002c0 42 d2 fb bc 09 1a e8 bc 31 53 2d bc 96 96 67 bc
       -0.030739907 -0.028332727 -0.010578916 -0.014135024
0002d0 dc d3 8d 3a 26 ea 20 3b d9 b2 1f ba 44 a5 6b 3c
       0.0010820585 0.0024553626 -0.0006092019 0.014382664
0002e0 48 db 0f bb 94 8e 30 bb 29 31 9e 3c 10 30 9d 3c
       -0.002195077 -0.0026940452 0.01931055 0.019187957
0002f0 7f c5 93 3c 50 82 03 bb 64 46 0a bc fb 11 b1 bb
       0.01803851 -0.0020066686 -0.008439634 -0.0054037548
000300 da de b2 bb de 85 82 bc a2 1f 99 bc 86 78 94 bb
       -0.005458695 -0.015932973 -0.018691842 -0.004530969
000310 1e 3d 9a ba 49 9b 35 bc 60 72 ad bc 3a 6a 90 bc
       -0.0011767482 -0.011084386 -0.021172702 -0.017628778
000320 4e 82 3b 3b aa 1a 8c 3b 04 c5 f6 39 7c 5f 07 bc
       0.0028611603 0.0042756395 0.00047067564 -0.008262511
000330 1f 1d 48 bb 10 4f 70 3b d4 d1 08 bb 5e f5 42 bb
       -0.0030534936 0.0036668219 -0.002087702 -0.00297483
000340 1a 28 c7 bb 05 81 fe ba 4a a6 6e bb e7 64 f4 ba
       -0.0060777785 -0.0019417113 -0.0036415034 -0.0018645794
000350 a1 f2 49 bc 79 3d 3e bc ff d7 91 bb a5 2d 19 3b
       -0.012325914 -0.011611336 -0.0044507976 0.0023373154
000360 8e 9f 48 bb 66 5a 0e bc d8 db 38 bb 60 b9 10 ba
       -0.003061268 -0.008688545 -0.002820721 -0.0005520787
000370 de 7f 41 3a f3 b7 0b bc 00 74 e9 bb a2 0f 8d 3a
       0.00073814194 -0.008527744 -0.007124424 0.0010762105
000380 74 22 8c 3b f3 72 5d bc 90 eb 87 bc 0e b3 13 bc
       0.004276568 -0.013516176 -0.016591817 -0.009014858
000390 04 36 eb bb 01 8a 80 3b 89 bd ae bb fe 24 c8 bc
       -0.00717807 0.0039227013 -0.005332653 -0.024431702
0003a0 8a ae 5c bc 14 e2 e6 bb 35 3f 8c 3b e7 05 34 3b
       -0.013469348 -0.0070459936 0.004279996 0.0027469338
0003b0 48 16 94 bc 0d d2 23 bc 6e cc 38 3c 0f 7f 73 3c
       -0.01807703 -0.0099988105 0.011279209 0.014861836
0003c0 39 ba a5 bb 32 15 8e bc d2 f8 ee 3b 1d bd 44 3c
       -0.0050576 -0.017344091 0.0072928453 0.012007979
0003d0 bc 67 18 3c 61 cd 1f bc 2b 53 2b bc a2 18 d8 3b
       0.009302076 -0.009753556 -0.0104568405 0.0065947333
0003e0 6d cb f0 3b e8 fd 95 bb 6b fe 1e 3c 92 97 da 3b
       0.007348469 -0.004577387 0.009704213 0.0066709006
0003f0 9c 3a c5 3b 79 ee eb 3b 10 2a a8 3b 8b 5b bc bb
       0.0060189497 0.007200059 0.0051319674 -0.0057482175

momentum_buffer f4 [20]
000000 72 c3 8e bb 5d 41 0d 3b 40 f8 27 bb 90 65 be bb
       -0.004356795 0.0021553852 -0.0025630146 -0.005810447
000010 26 5f 40 bc 4c f5 6a bb 8a e7 dd bb ea 5d b5 38
       -0.011741435 -0.0035851775 -0.0067719864 8.6482454e-05
000020 a8 91 9b 3b 06 82 dd bb 72 ab 47 3b 70 ee d3 39
       0.004747588 -0.006759885 0.003046718 0.00040422706
000030 ab 16 53 bb 70 bc b2 3a 0f 57 f6 3b a4 7b 38 bb
       -0.0032209556 0.0013636481 0.0075177024 -0.0028149867
000040 df d0 2a bc a0 ba 3b 38 26 b4 e2 bb 36 41 a7 3b
       -0.010425775 4.4758082e-05 -0.006918448 0.0051042093

momentum_buffer f4 [10, 320]
000000 e8 f8 8b 3b fc 2c a4 3a 5f 8f ef 39 98 5f 1d bc
       0.0042716153 0.0012525613 0.00045692452 -0.009605311
000010 9d 65 88 bc aa 7c 73 bc e8 d0 9a 3c 6d a8 8d 3c
       -0.016650015 -0.014861265 0.018898442 0.017292226
000020 34 28 05 bc 52 b4 41 3b 54 65 70 bc f0 d6 d8 ba
       -0.008127261 0.0029556942 -0.014672596 -0.0016543549
000030 ec 6b c4 b9 22 27 48 3b 90 57 08 3c 38 84 64 3c
       -0.0003746444 0.0030540903 0.008321658 0.013947539
000040 14 4e 9d bc 7d ae 05 bc 5a 85 9d bc 7e 7e 87 3c
       -0.01920227 -0.008159277 -0.019228626 0.016539808
000050 9e ed 46 bc e8 e1 06 bc 6e 8e df 3c f7 e5 63 bd
       -0.012141613 -0.008232571 0.027289595 -0.055639233
000060 3a 92 8a bc 29 77 3b 3c 56 a2 1b 3d 92 17 e3 bb
       -0.01691543 0.011441984 0.037996612 -0.0069303
000070 30 d4 17 3d 6c 3c 07 3b 5c 08 c5 bc bf 4a 33 bc
       0.037067592 0.002063538 -0.024051838 -0.010943114
000080 44 f2 46 bc 68 f5 75 ba 42 40 7d 3c 98 62 2f ba
       -0.012142722 -0.00093825767 0.015457215 -0.0006690412
000090 9c 64 6e ba aa 3c 67 bb c1 10 f8 bb ea b4 27 3b
       -0.00090939715 -0.0035283961 -0.0075703566 0.002559001
0000a0 9c c9 5a bb d4 0f a1 bb 5e b7 e4 bb b1 dc d1 bc
       -0.0033384329 -0.004915217 -0.006979867 -0.02561793
0000b0 a8 d5 35 bc 0d 76 47 bc e1 f4 8b 3b 66 fb 5e bc
       -0.011098303 -0.012174142 0.004271135 -0.013609743
0000c0 6b c0 8a 3a b8 e2 60 bc 94 64 65 bb b0 8e 31 bc
       0.001058591 -0.013725929 -0.0035002576 -0.010837242
0000d0 4f 96 9a bc 53 80 9a bc f4 8e ab 3c 8c 94 0b 3c
       -0.0188705 -0.018860018 0.020942189 0.008519303
0000e0 e5 cf 24 bc 34 0f 0b bb 8b 84 aa bb 5c 82 f5 3c
       -0.010059332 -0.0021218779 -0.0052037886 0.029969387
0000f0 5d dc 28 b8 48 6e 89 ba 01 e5 90 3c 95 cb db 3c
       -4.025955e-05 -0.0010485137 0.017687323 0.026830474
000100 47 bf 57 bc 60 4b 69 ba 3c fd c4 bc 46 34 de bc
       -0.013168163 -0.00088994764 -0.024046533 -0.027124535
000110 b4 bb 17 bc 00 1a a6 3a 11 45 53 bc 70 e4 4b bd
       -0.0092610605 0.0012672544 -0.012894885 -0.0497784
000120 99 cf ad bc 30 e2 0f bd b6 56 4c bd 7e 66 75 bc
       -0.021217154 -0.03512782 -0.04988738 -0.014978049
000130 92 c5 da 3c 42 ea ca 3b 03 ed f3 bc 04 68 d8 bc
       0.026705537 0.0061924765 -0.029776102 -0.026416786
000140 b6 db a6 3c c8 6e 76 3c e5 84 20 3b d1 48 48 bb
       0.020368438 0.015041061 0.0024493274 -0.003056098
000150 f5 cc da 3c 9d 93 2c 3c fc 14 47 3c 05 6a 37 b9
       0.02670906 0.010533241 0.012150999 -0.00017491735
000160 88 51 78 3a e8 b6 2e 3c 9f 96 33 bb ae 3a 2e bc
       0.00094725983 0.010663725 -0.002740301 -0.0106341075
000170 5c fd 24 3b 58 f2 32 3c e5 6e 1e 39 d0 48 34 3a
       0.0025175428 0.010922037 0.00015109366 0.0006877305
000180 37 ae 91 37 70 3f 10 b8 28 81 df 39 25 3b 03 3c
       1.7366472e-05 -3.4391356e-05 0.00042630103 0.008009707
000190 aa 9f 64 38 db 65 90 bc 0e c0 1f bb 42 32 39 3c
       5.4508135e-05 -0.017626693 -0.0024375948 0.011303486
0001a0 4c a4 cf b9 04 4d db bb 60 cc 31 39 61 e5 8b 3b
       -0.00039604527 -0.0066925306 0.00016956171 0.0042692875
0001b0 3b 5c 5a bc 5a 90 c5 3a c4 5e 78 bb fa 6a 14 3c
       -0.0133276535 0.0015072927 -0.0037898282 0.009058708
0001c0 de dd a7 33 b5 ae bd 14 c0 c7 b4 16 6c f5 9c 32
       7.816901e-08 1.9153033e-26 2.9206628e-25 1.8272395e-08
0001d0 b0 a4 40 33 00 00 00 00 00 00 00 00 30 1a f7 33
       4.4853266e-08 0.0 0.0 1.1506597e-07
0001e0 f6 7f c6 31 23 c4 0d ad 65 00 00 80 ab 69 b2 2f
       5.777106e-09 -8.058473e-12 -1.42e-43 3.2453093e-10
0001f0 a0 a7 0e 2f 00 00 00 00 00 00 00 00 0f 28 45 2e
       1.2974377e-10 0.0 0.0 4.4828193e-11
000200 5c cd f7 3b 15 d8 24 bc ec b3 94 bb 2c 01 d9 bb
       0.0075623225 -0.010061284 -0.00453805 -0.006622454
000210 c7 78 12 bd d0 d6 f5 bb d2 50 8a 3c 92 d5 89 3c
       -0.035759714 -0.0075024143 0.016884241 0.016825471
000220 c7 74 8f bc 8a a4 6b 3c 28 ce af bb 8e 0a ff 3c
       -0.017511738 0.014382491 -0.005365152 0.031132963
000230 42 d0 33 3a 7f 97 fe 3b 08 24 bd 3c 8f a3 de 3c
       0.0006859341 0.0077695246 0.02308847 0.0271776
000240 0f 2a 83 bc b8 4c 4d 3c 4f 7b 26 bc 2c 64 a3 3c
       -0.016011266 0.012530498 -0.010161235 0.019945227
000250 b5 bc d0 bc e7 bf dc bb 14 27 41 bc 58 9c cc ba
       -0.025480608 -0.0067367437 -0.011789102 -0.0015610559
000260 26 e1 c0 bc 99 2e 03 bd ef 23 95 3c 64 73 0c bc
       -0.02354486 -0.03202686 0.018205611 -0.008572433
000270 1a 35 86 ba 01 eb 0a bc e6 7a e0 bb 51 a9 19 bc
       -0.0010239214 -0.008478881 -0.006850588 -0.009378747
000280 fc 0b b4 bc bf 39 cb bb 1a 23 5b 3c 93 fd 3c 3c
       -0.02197837 -0.006201952 0.013375068 0.011535066
000290 7e 11 44 bb 36 b1 90 bc 07 8c 45 bd ce ad 2c bd
       -0.0029917653 -0.017662626 -0.048229244 -0.04215794
0002a0 96 b6 64 bc 8a 43 76 bc 7a e8 3c bb da e8 2d bc
       -0.0139595475 -0.015030751 -0.002882509 -0.010614598
0002b0 bf cf d9 bb e7 46 93 bc 54 a3 23 bd fb fd 26 bd
       -0.0066470797 -0.017978145 -0.039950684 -0.04076956
0002c0 91 b4 81 bc f0 a5 09 bc 02 cb a3 bb 00 9c 2b bc
       -0.015833171 -0.008401379 -0.0049985657 -0.010474205
0002d0 ca 3b 6b 3c 2c fd 4f bc 96 94 d5 bc 7c 99 3b bd
       0.014357517 -0.012694638 -0.026071828 -0.04580067
0002e0 e7 0c 49 3c be 70 27 bc 67 f5 a7 bc e2 4b 4a bc
       0.012271143 -0.010219751 -0.02050276 -0.012347193
0002f0 17 1d 46 3b ea 7b ee bb 83 07 19 bd 87 bf ba bc
       0.0030229741 -0.0072779553 -0.03736068 -0.022796405
000300 87 4a c9 bc 32 bc 90 3c 80 c5 94 ba 3e b2 4a 3b
       -0.02457167 0.017667864 -0.0011350363 0.0030928995
000310 39 4d e0 3c 32 61 84 bb d6 eb 98 3b 8a 53 81 bc
       0.027380573 -0.004039907 0.0046667857 -0.015786905
000320 f2 79 69 3c b3 d3 4c 3c 10 ea 96 3c f3 25 04 bc
       0.014250265 0.012501645 0.018422157 -0.008065688
000330 4c cc 22 3b 58 07 8c 3a 7b 4c b8 bc a7 b0 71 bc
       0.0024841009 0.0010683341 -0.022497406 -0.01475159
000340 d0 bb 1e bd 34 74 d9 3b 01 fb 0a 3d 9a 85 18 3d
       -0.03875333 0.006636167 0.033930782 0.037236787
000350 74 14 52 bc 4e 69 3e 3c b5 f4 40 bd 0e 85 d7 bc
       -0.012822259 0.011621786 -0.04710837 -0.026308563
000360 28 79 bf bb 88 14 a6 3b 40 14 4e 3d 50 4a f6 3c
       -0.0058433004 0.0050683655 0.05031228 0.030064732
000370 ef e4 62 bc 5f 37 22 bc 6a e9 eb bc 45 f3 47 bd
       -0.013848527 -0.009900897 -0.028797824 -0.048815984
000380 d4 27 10 bc de f0 8b bc 60 51 a1 3a 1d 53 e9 3c
       -0.008798558 -0.017082628 0.0012307577 0.028482014
000390 8c 32 38 bb e6 16 01 bc 2c 62 4a bd cf b6 5b bd
       -0.00281063 -0.007878995 -0.04941003 -0.053641137
0003a0 04 05 54 bc ac 19 4a bc 29 e3 db 3a 8f 7e 9c 3c
       -0.012940649 -0.012335222 0.0016776073 0.019103317
0003b0 c9 25 d6 bb b1 7e 0f bd 6a 52 2c bd c6 3e 35 bd
       -0.006535266 -0.03503293 -0.042070784 -0.04424932
0003c0 79 88 1e 3a 4b 63 56 ba 77 73 a7 3b 42 a2 48 bc
       0.00060475577 -0.0008178248 0.0051102 -0.0122457165
0003d0 f0 74 01 3b 0d 27 05 bd 0e 84 af 3b 68 8b d4 3a
       0.0019753538 -0.032507945 0.0053563183 0.0016215863
0003e0 a9 b8 af b8 3f bf ab bc 90 51 1b 3a 42 d3 c1 3b
       -8.379046e-05 -0.020965217 0.00059249345 0.0059150765
0003f0 aa 8f bf 38 21 5e 9d 3c ac b3 3b 3b 60 0d e4 3c
       9.134349e-05 0.019209923 0.0028641028 0.027838409

momentum_buffer f4 [10]
000000 96 29 a9 3a ae b3 80 ba d3 fc 97 bb a3 3c ec 3c
       0.001290607 -0.0009819174 -0.0046382933 0.028837508
000010 05 b8 02 3c 2c 38 5a 3b 55 7d 96 3b 9f f1 f8 bc
       0.007978444 0.0033297641 0.0045925775 -0.030388651
000020 e3 63 0b bd 44 b2 c4 3c
       -0.034030806 0.024010785
