oracle/train/iid/checkpoint/mnist/ckpt_3_0.pth (torch, 71489 bytes, 12 tensors)

conv1.weight f4 [10, 1, 5, 5]
00000000: 91fa 423e c4ee 1c3e 4ffe ae3d 2129 2c3b
00000010: 647c 8b3d 4101 26be bcf3 923d ffb5 8fbc
00000020: 666f 14be b853 06bd ab84 8fbd f1b7 c9bc
00000030: b1a0 be3d 6a71 483d 27aa 0b3e 76ae 18bc
00000040: 2860 1ebe a2b6 93bd 2113 9e3c def5 b7bd
00000050: 8449 23bd 3167 cf3a b602 22be eceb d63c
00000060: 3f31 d43c ae5c 753e e531 cbbd 91da 9e3d
00000070: 04de 3c3e 2ea9 bbbd 8e9f 6a3e 0f90 1e3d
00000080: 108c 03bc 16b6 4dbe b581 2a3e 54a9 823e
00000090: 07fa ba3d 2458 223d 181a 0bbd 5aad 073e
000000a0: 308b cc3c e4f5 1abd 3507 a13d 4746 16be
000000b0: aab6 a0bd 0563 103e 0a09 2c3e db04 ec3d
000000c0: 995c 76bd b658 693e 5292 d83c 9c1b 5dbd
000000d0: 809f 673e 7886 9e3e 2002 8f3e 3dfb 853e
000000e0: 9211 ca3e 32f1 d23e 6b90 433d ddbf 4b3e
000000f0: 3cb1 9b3e 17d8 403e 80ce cebc f6a3 a6bd
00000100: d480 2cbd f14a 723e 5d36 843e 0ba4 513e
00000110: a357 7dbd d67d 37be aa95 3e3e bed6 853e
00000120: 7d0c 7cbd de18 18be 5801 fbbd 7ef7 c5bd
00000130: e741 ffbd 69ec dd3d 3bed febd 1a43 22be
00000140: 9ee9 61bc 8077 6fbd 94c2 333c 0007 4cbe
00000150: 4a77 843d dfa9 a73d 7de7 b13d 3664 1d3e
00000160: fb8e 193c 2ea7 c6bd ac33 14be 55e4 203c
00000170: e436 903d 677c 243c 4f45 44bc 59d7 bb3d
00000180: b5a4 023c 4357 cc3d 90fe b4bd b9d3 25be
00000190: 5f65 03be 60b9 c83d 9d1e 3b3e e3e0 f8bd
000001a0: 5842 31be 0ef5 43be 963b a63d 60d8 f13c
000001b0: 5444 693d 28cf 9d3d 72fb 39be ba5f 8f3d
000001c0: cff7 c0ba dea5 c93c c4a6 40be ebc3 7e3d
000001d0: 702f acbd 33cf b2bd 51dc 43be f04a 1abe
000001e0: cc37 1ebe f279 2ebe f705 cfbc 16b8 e0bd
000001f0: c68d 123e 80ff 753e 0bac 953e e75d 21bd
00000200: bab3 dcbd 95fc c9bc 9e32 843e 405a 483e
00000210: a530 8c3e f290 013e 5695 3c3e 1e8c 4e3e
00000220: 1cb8 593e f30d 8dbd 4e87 08be 2e26 0cbe
00000230: 61c4 e73d fb2a 8b3e 2860 833c e9cb e0bc
00000240: 96cb 713e c7de 843e e29a f33d 23aa 6c3d
00000250: 277b 2f3d 51a0 eebd 219d 3a3c db72 2ebe
00000260: aa38 88bd 7deb 023e f643 533d 309d 16be
00000270: a634 323e 991a f0bd f5af 283e 45aa c8bd
00000280: 0ca6 10be 9e00 083e 8690 2c3e d00f 6b3e
00000290: 6a58 5c3e e656 cd3d cc15 e93d b79e cfbd
000002a0: 2f00 0abd bd6d f93d 8b83 f4bd 9858 11be
000002b0: f327 803d cd73 bb3d 32b1 bdbd 2e9e c8bd
000002c0: 5ac8 dfbc 28f8 053e 3736 cebd 9f20 8a3c
000002d0: d89a 3d3d e46f 113e 778b 1bbe 4352 f63d
000002e0: 8d86 0b3e bd5b 7f3c 028b f13d 25aa f23d
000002f0: 3d8e 1e3e 9226 2d3e d542 2039 5938 dbbd
00000300: f5d1 70bd 731d 883e 36e0 7f3e ace3 b73b
00000310: b9d6 bb3d 4af8 0abd c559 cc3c b719 823e
00000320: c985 35be 6a38 05be ff0c 36be 37c5 b1bd
00000330: acec 42be cccc 413d 9e3f 083e 319c c1bd
00000340: cbdf 05be 7181 d8bc 270b ec3d bc6a 26be
00000350: 6885 1abe 3335 413e caeb 54be 7a42 18bc
00000360: 6dcd dbbc 26b3 223e d98b 0e3e 3fd3 ef3c
00000370: a1a8 a83d 71e6 42bd 3498 cc3d 9597 023e
00000380: 10d0 31bd 11bb 943d fefc 20bc b611 473d
00000390: 44bb 1bbe 457a 58bd 64a7 513b dcec 12bd
000003a0: f2dc 353e ae58 4fbd bd4e de3d c7dd 24be
000003b0: 42ae 49be 5574 edbd 72a4 b0bd 70e9 61bc
000003c0: c01a 94bd 3201 11be b8a5 b4bb 87a4 113e
000003d0: f4f7 1c3e 02aa 16be 3f15 bebd 7b64 f7bd
000003e0: ce46 5c3e 10f6 b2bd
0.19040896 0.15325457 0.08544599 0.0026269632 0.06810835 -0.16211416 0.07175395 -0.017542837
-0.1449562 -0.032794684 -0.07007726 -0.024623843 0.09307993 0.048936285 0.13639127 -0.0093189385
-0.15466368 -0.07212569 0.01929623 -0.08982442 -0.03986503 0.00158236 -0.15821347 0.026235543
0.025902389 0.23961136 -0.09921626 0.07756532 0.18444067 -0.09163128 0.22912428 0.038711604
-0.008028999 -0.20088992 0.16651042 0.25519812 0.0912972 0.03963484 -0.03396043 0.13249722
0.024968714 -0.037832156 0.07862703 -0.14675246 -0.078473404 0.14100273 0.16800323 0.115243636
-0.0601469 0.22787747 0.026436958 -0.05398141 0.22619438 0.30961967 0.2793131 0.26168242
0.3946653 0.41199642 0.04774515 0.19897409 0.30408657 0.18832432 -0.025244951 -0.08136742
-0.042115048 0.236614 0.25822726 0.20472734 -0.061851155 -0.17919096 0.1861178 0.26140398
-0.061535347 -0.14853236 -0.12256116 -0.09666346 -0.12463742 0.10836107 -0.12447592 -0.1584591
-0.013788609 -0.058463573 0.010971684 -0.19924545 0.06468065 0.08186697 0.08686731 0.15370259
0.009372468 -0.09699856 -0.14472836 0.009820064 0.070417196 0.010039425 -0.011979415 0.09171934
0.0079738395 0.09977581 -0.088376164 -0.16194047 -0.12831639 0.098009825 0.18273397 -0.12152269
-0.17310464 -0.1913645 0.08116834 0.029522121 0.05694993 0.077055275 -0.18162325 0.0700068
-0.001472229 0.024615224 -0.18813616 0.06219856 -0.084074855 -0.08730926 -0.19127013 -0.15067649
-0.15450972 -0.17038706 -0.025271399 -0.109726116 0.14311895 0.24023247 0.2923282 -0.039396193
-0.107764676 -0.024656573 0.25819868 0.19565678 0.27380863 0.12652948 0.18416342 0.20170638
0.21261638 -0.06887426 -0.13332865 -0.1368644 0.11316753 0.2718123 0.016037062 -0.027440982
0.23612818 0.25951216 0.11894776 0.057779443 0.042842057 -0.11651672 0.0113900015 -0.17036001
-0.06651433 0.12785144 0.051578484 -0.147084 0.17402896 -0.11723823 0.16473372 -0.09798101
-0.14125842 0.13281485 0.16852006 0.2295525 0.21518102 0.1002634 0.113811105 -0.10137694
-0.03369158 0.12179134 -0.11939152 -0.14193952 0.0625762 0.091529466 -0.09262313 -0.097957954
-0.027317215 0.13082945 -0.100689344 0.016861258 0.04629025 0.14202839 -0.1518992 0.12027409
0.13625546 0.015585837 0.11794092 0.11848859 0.15483947 0.16909245 0.00015283686 -0.10704107
-0.05879398 0.26584968 0.24987873 0.0056118574 0.091718145 -0.033928193 0.02494515 0.25410244
-0.17726816 -0.13009802 -0.17778395 -0.08680194 -0.19035596 0.04731445 0.13305518 -0.09453619
-0.13073651 -0.02642891 0.11525565 -0.16251653 -0.15089953 0.1886795 -0.20793071 -0.009293193
-0.026831353 0.15888652 0.13920535 0.029275535 0.082352884 -0.047583047 0.09989968 0.12753136
-0.043411314 0.072622426 -0.009825943 0.048600875 -0.15208155 -0.05285098 0.0031990642 -0.035870418
0.17760065 -0.05062168 0.10854862 -0.16100226 -0.1969538 -0.11594454 -0.086251155 -0.013788566
-0.07231665 -0.14160612 -0.0055129193 0.14222918 0.15328962 -0.1471329 -0.09281396 -0.12079712
0.21511385 -0.08738339

conv1.bias f4 [10]
00000000: cbaa 1ebe 81ec f1bd 1a1b 663e 32f3 bfbc
00000010: ea32 42be fc69 223e 5b59 5f3d 2f45 1d3e
00000020: c6d1 94bd 0872 23bd
-0.1549484 -0.11812688 0.22471276 -0.023431394 -0.18964735 0.15860742 0.054528575 0.15358423
-0.072665736 -0.03990367

conv2.weight f4 [20, 10, 5, 5]
00000000: dcd7 033d f946 dbbc b53d e0ba dcaf e23b
00000010: 7ed4 62bd c42c 523d 495c 9bbb 774a 79bd
00000020: 697d e4b9 eb22 88bd 2ccf 253d cb76 5fbd
00000030: 7795 533c 6009 a23c 3894 b13c f3ae ba3c
00000040: 5310 833c 1811 90bc b945 29bd 6408 843c
00000050: a833 33bd 740d 493c 9be7 06bd a865 473d
00000060: ede6 7fbc 0bb0 41bc 4fcb 1ebb 99d5 08bd
00000070: 4c7e cc3c 8782 893c 8b37 863c 663e 14bd
00000080: 009d 693d ee32 413d 6fcf 643c e450 4fbd
00000090: 2d6b 093d bdad 1d3c 2a7a 4c3b 4a4c d0bc
000000a0: 54b9 613b bd3a b4bb 5b26 783d d4b0 373d
000000b0: 4afe 263d 1e14 713d ea1d aa3c 981e 2d3d
000000c0: 8909 8b3d 539e b3bc 79c7 88bd 5cb4 bbbd
000000d0: ada9 993c f264 aa3c 4eb1 c9bd a3fd 3dbd
000000e0: fb0b 363d ab00 663d 4db5 1e3d b46e dfbd
000000f0: 83c4 863d 1133 e63c 5ed8 1c3d 3a79 f8bc
00000100: e61d 963c 7e4f 1cbd ca34 7dbc 9527 c93a
00000110: 2f67 74ba 1c76 483c f439 053d d11d 5c3d
00000120: bc5e 9a3d ba0b 3e3d 55f9 f63c 55c3 a8bc
00000130: 576c 673d 18a8 ecbb 8f19 e33c 884e 2a3d
00000140: 536a d1bc 8ca3 8d3d e8cd 823c 1cd8 b7bc
00000150: 1c41 97bc e916 e7bb 3c73 12bd ae4c 88bb
00000160: d8b9 9fbb 1e15 22bd 5679 623d 9175 163d
00000170: 4ea4 d8bc 6b57 27bc 0e13 3dbd 3794 5dbb
00000180: 0c3b b63c f96e 803c 21e4 8cbc db21 67bd
00000190: 9ee7 663d 56e5 77bd c775 423d 7072 abbc
000001a0: ef02 8fbc 00e7 e3bc d8c2 00bd cfc6 223d
000001b0: 2fe7 fd3b 4e2a 3fbb 0480 d7bc 941c dabb
000001c0: 82d4 3fbb a851 f93c 6622 7eba c1a2 68bc
000001d0: 8889 503d 4422 843c 934a 74bd 5f85 1bbd
000001e0: 69f5 8cbb 064e 493d 396f 0abd 32c2 afbc
000001f0: 1a93 4fbd 1ae1 0fbd 5527 a13b 6bec 423b
00000200: f671 b4bd 7f9d a5bd 9b39 de3c 7f7e d1bb
00000210: 723b 663d b4f5 ffbc 3c5c 70bd 808d 4fbd
00000220: 8e79 e53a 0a5a 1b3d e96b 273c f6f2 18bd
00000230: f22d 37bd 4e29 eebc 5a0d 263d 705f 9a3a
00000240: 5079 903b 7e05 1d3d 524e 67bd f666 923d
00000250: c288 943d 93b1 b33d 5084 ca3c fedc 0a3d
00000260: 4003 9f3c 07c6 293d f8e5 0b3d 7039 4e3d
00000270: e366 7cbc 56ea a239 223f 113b 4a09 7bbb
00000280: a803 d0bc 76ae 89bc bf7c be3c 9427 31bd
00000290: 7ae2 00bd 6894 88bc 4ef2 cdbc 769b b1bc
000002a0: 0051 21bd b8e8 a9bc bb6a 703c 1a82 d2bb
000002b0: 7d54 3e3d 678f 003d 470c 2d3d 78d7 09bd
000002c0: d997 4c3c 1e93 8bbc b8ce a5bd 438c 1c3d
000002d0: b868 11bd 0e74 8d3d 7903 48bd c96f 72bd
000002e0: 968e c8bc 3922 14bd f962 323d 8bcd fd3a
000002f0: c3b6 97bd b599 193d fa1f 383d aaf4 af3d
00000300: 0bf2 683c 58a3 11bd 2021 a7bc 7d3e 823d
00000310: b80a d9bb 4eac c53d 03d8 703d ef71 563d
00000320: 420b 1f3d 1307 883d 4762 113d 52ee f73c
00000330: 5b11 ef3c 1104 dbbc 30fd be3c 42ee 543d
00000340: 3a77 0dbd d70a 203c ba75 f73a 24e3 52bc
00000350: 4345 6fbd aa1a 2dbc 26fd 003d 58a8 83bd
00000360: 3305 00bd fb55 77bb 771e 8a3d f9f6 3f3d
00000370: d9d3 16bd f2b5 7c3d e80a c7bc fd39 dbbc
00000380: 8c2b 283d 16f8 3e3d 4eda 42bd d347 133d
00000390: 57e1 403c c288 0ebd 9705 95bc 57d1 04bd
000003a0: 2e9e 0fbc 4934 07bb 798e 873c f35b 5b3d
000003b0: 46c5 7e3d 0e38 173d d5f2 533d 4477 703d
000003c0: c801 703c 2467 2c3d 7ef3 3a3d be5e 343d
000003d0: 6942 d7bc 3cdc 1dbd 9f6e 8a3c c1da 233d
000003e0: 6552 af3c 1bc8 c9bc 9b1a 0a3d 2e63 2a3d
000003f0: 4b3c 29bd be42 2fbd 07d3 5c3d 196f 6e3d
0.03218828 -0.02676724 -0.0017108234 0.0069179367 -0.05537843 0.051312223 -0.004741226 -0.06086203
-0.00043580987 -0.06647285 0.040480778 -0.05455665 0.012914053 0.019779861 0.021677122 0.0227885
0.015998995 -0.017586276 -0.04132626 0.016117282 -0.043750435 0.012271274 -0.03293572 0.04868093
-0.015619022 -0.011821757 -0.0024230068 -0.033406828 0.024962567 0.016785873 0.016383907 -0.03619232
0.057034492 0.04716771 0.013965472 -0.050614253 0.033549476 0.009623942 0.0031200745 -0.025427002
0.003444274 -0.005500166 0.060583454 0.04484637 0.040769853 0.058857076 0.020766217 0.042265505
0.06788928 -0.02192608 -0.066786714 -0.0916526 0.018757666 0.020800088 -0.09848271 -0.046384465
0.04444502 0.05615298 0.03874712 -0.10909787 0.065804504 0.028100522 0.03829228 -0.030331243
0.018324804 -0.038161747 -0.01545448 0.0015346879 -0.0009323237 0.012235191 0.03252597 0.053739373
0.075376004 0.046397902 0.030148188 -0.020600954 0.056499805 -0.007222187 0.027722148 0.0415788
-0.025563395 0.0691596 0.015967324 -0.022441916 -0.018463664 -0.0070522917 -0.035754427 -0.0041595316
-0.004874449 -0.03957092 0.055291496 0.036733214 -0.026445534 -0.010213713 -0.04616075 -0.0033810267
0.022244953 0.015677916 -0.017198624 -0.05642877 0.05637323 -0.060521446 0.047475602 -0.020928591
-0.017457454 -0.02782011 -0.031435817 0.03974038 0.0077485065 -0.0029169503 -0.02630616 -0.006656239
-0.0029270952 0.030434445 -0.0009694457 -0.01419896 0.05091241 0.01612962 -0.059641432 -0.03796899
-0.004301716 0.049146675 -0.033797476 -0.021454904 -0.050677396 -0.035126783 0.004918019 0.0029742967
-0.08810799 -0.080866806 0.027127078 -0.0063932533 0.056209035 -0.03124509 -0.05868171 -0.050672054
0.001750754 0.037927665 0.010218599 -0.03734108 -0.04472155 -0.02907243 0.040540077 0.001177771
0.004408993 0.038335316 -0.056471176 0.071485445 0.07252647 0.08774104 0.024721295 0.03390216
0.01941073 0.04144862 0.034154862 0.050347745 -0.0154053895 0.00031073642 0.0022162874 -0.0038305097
-0.025392368 -0.016806822 0.023252843 -0.043250635 -0.031465985 -0.016672328 -0.025139954 -0.021680575
-0.03938389 -0.020740852 0.014673884 -0.0064242007 0.046467293 0.03138676 0.042248037 -0.033652753
0.012487375 -0.017037924 -0.08096069 0.0382197 -0.03550026 0.06906901 -0.048831437 -0.059188638
-0.024482053 -0.03616545 0.04355142 0.0019363625 -0.07407906 0.037500102 0.04495237 0.08591588
0.014217864 -0.035556167 -0.020401537 0.06359575 -0.006623592 0.09652005 0.058799755 0.05235475
0.038829096 0.06641974 0.035494115 0.030265007 0.02918308 -0.026735337 0.023314089 0.051985033
-0.03453753 0.009768209 0.001887969 -0.012871537 -0.058415662 -0.010565439 0.03149142 -0.064285934
-0.03125496 -0.0037740457 0.06744092 0.04686639 -0.036823127 0.061696954 -0.024297193 -0.02676105
0.041057155 0.046623312 -0.047571473 0.03595717 0.011772475 -0.03479839 -0.018191142 -0.032426205
-0.00876574 -0.002063053 0.016547428 0.053554486 0.062199853 0.036918692 0.051745255 0.05870749
0.014648862 0.04209055 0.04564237 0.044035666 -0.026276784 -0.03854011 0.016898451 0.04000354
0.021401593 -0.02463155 0.03371678 0.04159849 -0.041317265 -0.04278826 0.05391219 0.05821142

conv2.bias f4 [20]
00000000: 4e51 51bd 7494 6dbd f7cf 68bd cfb4 afbc
00000010: 4eff 4fbd 1de7 10bc 2f4e 92bb 3165 153d
00000020: f185 163d 24e3 703d 2c77 be3c d073 583d
00000030: 111b 29bd 7e9d 45bd fe10 abbc d505 543d
00000040: a751 cebc c84f 0abd a9b1 40bd 957f 7f3d
-0.05110293 -0.058002904 -0.056838956 -0.021448521 -0.050780587 -0.008844164 -0.0044648866 0.036473457
0.03674883 0.05881037 0.023250185 0.052844822 -0.04128558 -0.0482459 -0.020882126 0.051763374
-0.02518542 -0.03376749 -0.04704443 0.06237753

fc.weight f4 [10, 320]
00000000: c8e7 49ba c708 3bbc 4d1d 09bd be36 7e3d
00000010: 545d 18bd e974 82bc 3473 c4bd 3875 57bd
00000020: eb2d 6c3d 4aa0 3b3d 3fa2 02bb 1203 89bd
00000030: d6d6 b63d 1022 ed3b 0a4a 4abd a1fe 8d3c
00000040: 259b 9cbb 50cf 3f3d ccd6 d43c 0152 39bc
00000050: 8fb7 413c 41ff 8fbd 57c4 513b 7237 813d
00000060: f7bf afbc d361 f43b efd3 9b3b 6304 2c3d
00000070: 1218 513d 2530 09bd 8035 bbbd 3bf8 ef3c
00000080: 126f 46bc ccfb 93bc f4ab d53c 4706 a33d
00000090: 980d 03bd ac40 6ebd bf54 b73c 61ee cf3d
000000a0: 9f05 8b3d b3dd e1bd 87cf f5bc 4594 003d
000000b0: 6acf 7f3d 8d52 883b 7092 84bc 2ffa 0c3c
000000c0: b19f a3bc 62e7 223d 4cdc e23c 8ae2 db3c
000000d0: f767 81bc 0cbe 793c e76a 9cbb 3530 d63b
000000e0: b528 b43c 021b 9c3d 4137 99bc 3763 95bd
000000f0: 3e62 03bd 6cfd a23d 75c7 d03c a106 c0bb
00000100: 0da8 f93c cba1 27bd f47e 51bd 73ae c93c
00000110: c134 40bd 6ae3 293d 55a9 cd3a 50b2 37bd
00000120: 06a4 c23c 0bd1 e13c 725e 78bb ed92 bbbc
00000130: c084 ae3c a521 b4bc eede a43c 3f60 67bd
00000140: 2e5c abbc 3b03 c6bb 03fa 48bd e227 8c3c
00000150: 4ff5 fa3c 16fb cc3d 956d e2bc 5256 17bd
00000160: b16c 8eb9 ca67 9f3c fb64 c0bd 3814 193c
00000170: d98b 333b 7de5 5b3b 8dee 63bd 2559 213d
00000180: 1543 20bd 647d 9ebd ab0a 603d bf7a 9d3c
00000190: e9c8 88bc 17cd 01bd 8766 58bd d4ae 30bd
000001a0: d904 a63d ffad 96bb 1645 d1bd c3d5 033d
000001b0: fd77 373c b3db 8d3d b860 58bd 8574 843b
000001c0: 46e7 503c d3e0 813d 18b8 41bc 80cb 4cbd
000001d0: 08ba 11bc d302 843d 197b 53bc 9209 a43c
000001e0: 623d 4e3d 2c40 1dbd 0e56 97bd d749 3cbd
000001f0: 44dc e43b 2ab1 d53c 20b5 8a3d b48b 3f3d
00000200: fec2 8bbd 587a 41bd 3cde ca3c 6d49 06bd
00000210: 8a0a 5e3d 98d4 b13c 9771 fc3c 42e3 623d
00000220: ce72 a43d a8cd 24bd d20e 41bd f49c 9c3d
00000230: 59f3 683d d548 82bd cd45 eabb c3a2 853d
00000240: e3e1 213c 9207 7abc b57f efbc 28d4 5b3c
00000250: 5ca6 f23c 01e8 fbbc 9e17 323b e14c 2fbd
00000260: 4edc e43c 9ae5 d03c 9ca0 c1ba 2f69 78bb
00000270: dd4e 983c c406 92bc cbfb 903c 6a51 01bd
00000280: 84ee 10bd 0857 2ebc 92f5 813d 0a05 f73c
00000290: 1c3d fabc bf54 013d 3598 fe3c 2cbe e63c
000002a0: aac7 0e3b eefa d33b 9378 123c 3e0b a73d
000002b0: 0a2a 1b3d df42 f4bd 47fc 05bc 3b75 993c
000002c0: 8421 053d 78ea 2dbd 0d20 5b3d ee7a c3bc
000002d0: b23a ccbc 381a 663d 7518 5d3d 98aa 66bd
000002e0: 85e7 0bbd 21f5 3e3d 9ad7 e53c 203e e4bd
000002f0: 148e b93b e676 313c b24f 31bd 0c0b d0bc
00000300: 5cfb f53c 69e9 273d 7f9c a63b b01e 063d
00000310: 889c 2b3d 51c4 a9bc 01eb 113c 1517 b0bb
00000320: de21 10bd 593c 09bd dc56 783d c954 a13d
00000330: f9e5 f53c 97f3 0e3c a312 8c3d 7fba 173d
00000340: c26a 893c d475 683d ce7b ef3c f757 e53b
00000350: 79c0 553d 57c5 923c 50c7 c8bb 4416 1e3d
00000360: 856d 1c3d 7b19 94bd b7f5 9ebc e144 5f3d
00000370: 29b4 23bd 051c 05bd e492 9c3d 2791 543d
00000380: 5006 4c3c a752 4cbc 0b61 ba3c 8338 6c3d
00000390: a5c6 0bbd 01b7 43bc ddf3 b03c 1f91 46bb
000003a0: b67c a3bc e4a2 ee3b fb57 3fbc f334 55bd
000003b0: 3be0 bcbb 4f57 1dba f3f5 153d feda 1dbb
000003c0: b511 0b3c ef1a c93c b2ab 16bc c788 e5bc
000003d0: f6ca 863c 5b9c 91bc 04c2 a53c f16d acbd
000003e0: c12e b5bc 2581 b53c 5063 45bd a3bc 97bb
000003f0: 483e 4ebd 369e 1b3c 1681 473b cd60 0d3d
-0.00077020796 -0.011415667 -0.03347521 0.062063925 -0.03719838 -0.015924888 -0.09592286 -0.052602023
0.05766098 0.04580716 -0.0019933132 -0.06690039 0.089276955 0.0072367266 -0.049387015 0.01733333
-0.004779237 0.046828568 0.02598133 -0.011311055 0.011823549 -0.07031108 0.0032007897 0.063094035
-0.02145384 0.0074579506 0.004755489 0.04199637 0.051048346 -0.03349318 -0.09141064 0.02929317
-0.012111442 -0.018064402 0.02608297 0.07960182 -0.031995386 -0.058167145 0.022379277 0.10152889
0.067881815 -0.11028614 -0.030006183 0.0313914 0.062453665 0.0041602314 -0.016183108 0.00860457
-0.019973608 0.039771445 0.027692936 0.02684142 -0.015796645 0.015243065 -0.004773486 0.0065365084
0.021992067 0.07622339 -0.018703105 -0.07294314 -0.032076113 0.07958493 0.025485734 -0.005860165
0.03047564 -0.040925782 -0.051146463 0.024619317 -0.04692531 0.041476645 0.0015690724 -0.044847786
0.023759853 0.0275655 -0.003789809 -0.022897208 0.021303535 -0.0219887 0.020125832 -0.05648827
-0.020917978 -0.0060428656 -0.049066555 0.017108861 0.03063455 0.10008828 -0.027640143 -0.036947556
-0.00027165332 0.01945867 -0.093942605 0.009343199 0.0027396588 0.0033553534 -0.05564742 0.039391655
-0.039126474 -0.0773876 0.054697674 0.019223569 -0.016697364 -0.03168973 -0.052832153 -0.04313548
0.08106393 -0.0045983787 -0.10218255 0.03218628 0.011198041 0.0692667 -0.052826613 0.0040422105
0.012750452 0.0634171 -0.0118236765 -0.04999876 -0.008894451 0.06445851 -0.012907767 0.020024095
0.050351508 -0.038391277 -0.073894605 -0.045968857 0.0069842655 0.026085455 0.06772828 0.04676409
-0.06824301 -0.047235817 0.024764173 -0.032784868 0.05420927 0.021707818 0.030815883 0.05539251
0.0802971 -0.04023519 -0.047133274 0.07647124 0.0568727 -0.06361548 -0.007149434 0.06525185
0.009880516 -0.015260594 -0.0292357 0.013417281 0.029620342 -0.030750277 0.0027174721 -0.042797927
0.02793708 0.025500108 -0.0014772597 -0.0037904491 0.018592292 -0.017825492 0.01769819 -0.031571783
-0.035383716 -0.010640867 0.06345667 0.03015377 -0.030546717 0.03157496 0.031078437 0.028166853
0.002178649 0.006469122 0.00893988 0.08156441 0.03788189 -0.11926817 -0.008177823 0.018732658
0.032502666 -0.042459935 0.053497363 -0.023862328 -0.024930332 0.056177348 0.053978402 -0.056315035
-0.03415634 0.046620492 0.028056908 -0.11144662 0.005662689 0.01083157 -0.043288894 -0.025395893
0.030027084 0.04099408 0.0050845738 0.03274411 0.041897327 -0.020723494 0.008906127 -0.0053738453
-0.03518855 -0.033504818 0.06062971 0.078774996 0.030016886 0.0087250685 0.06839492 0.03704309
0.016774539 0.056752995 0.02923384 0.0069990116 0.05218551 0.017916365 -0.0061272755 0.038595453
0.038190383 -0.072314225 -0.019404275 0.054509047 -0.039966736 -0.032497425 0.07645205 0.05189624
0.012452677 -0.012470878 0.022751352 0.05767108 -0.03412499 -0.011945487 0.021600658 -0.0030298901
-0.019956928 0.0072826017 -0.011678691 -0.05205245 -0.005764035 -0.00060020847 0.03661151 -0.0024086828
0.008488108 0.024548976 -0.009196209 -0.028019322 0.016454201 -0.017774751 0.020234115 -0.08419407
-0.02211702 0.022156307 -0.048190415 -0.0046306415 -0.050352365 0.00949817 0.0030441931 0.034516145

fc.bias f4 [10]
00000000: 5973 26bd 3155 abbc 52d7 33bd 6854 c3bc
00000010: 894f 88bc 7c3a 833c 39f8 7dbb 97a9 013c
00000020: 00fe 1dbd 45af 06bc
-0.040637348 -0.020914646 -0.043906517 -0.023843959 -0.016639488 0.016019098 -0.0038752689 0.0079139685
-0.03857231 -0.008220498

momentum_buffer f4 [10, 1, 5, 5]
00000000: 444c 8ebc 1cc2 b4bc e06a e8bc a0a8 f5bc
00000010: e106 cbbc caa6 b3bb 7436 fdba f284 d4bb
00000020: 06d4 44bc 337c 94bc 232d 7ebb d09e d13b
00000030: 717f 6d3b bf83 e2bb d201 77bc 02bf 9a3b
00000040: 1082 453c f2fc 173c bab3 013b 2827 28bc
00000050: 44ad 673b 40cc f03b c94f 4d3b 6b0d edbb
00000060: c8ca 71bc 42d5 b3bc ec79 b4bb 0ccc 273c
00000070: b864 b03a 3153 443c 0d9f 4cbc 29bc 3f3b
00000080: 9c21 773c d45e 113c c69c 463b 2456 6b3b
00000090: 0cde 753c cddb 7d3c 2047 803c 7061 91bb
000000a0: 9f06 0b3c f4a6 9c3b a3c6 7f3c fbff 9b3c
000000b0: c7ab 85bb e8cf 23bb 341e 03bc 047e 9bbb
000000c0: 8800 98bc 20d3 e2bc 0c87 2fbc 4669 31bc
000000d0: d8de 8cbc b002 88bb fc8b 8dbc 86c0 76bd
000000e0: 5b0e 77bd 3a28 8cbd 1cf5 36bd dfe3 f3bc
000000f0: a22e 7dbd 3aad 4cbd cddb 37bd 4f88 23bc
00000100: 082d 8c3c fe57 9dbc a438 9dbb 8789 0f3c
00000110: 069b 733c f4a2 c53c 6875 84bb a08c 45bb
00000120: 78e7 a8bb f6ae 8abc 60d9 abbc bfa2 05bc
00000130: e105 8cbb 51c5 423b ab8c 3d3b d289 af3a
00000140: 344c fbbb 6bba 0abc cc30 eab9 cc71 313b
00000150: 3ec1 563b 72ab 4dbc 626b 82bc caf1 82bb
00000160: ef99 51bb b49d ccb9 a900 49bc 7869 7dbc
00000170: 1363 f6bb b5cf bfbb 4cd4 22bb 86e6 70bc
00000180: 9c12 89bc 273e 59bc b1a5 77bb f829 8ebb
00000190: 7a8c cc3a a240 443c 6267 7b3c 4470 89ba
000001a0: 4f15 23bc ac8e af3b 3f2a a73c e17b a43c
000001b0: ec48 f53b 4eb0 e7ba ae74 553b a2fe 7f3c
000001c0: 56aa 7f3c 3e34 c43b 3c54 573b 5bc5 843b
000001d0: 0811 f03b 9e65 0a3c 40ca 6e3b 284f 263b
000001e0: 884c 88ba 00f0 efb8 a07e 253b 0e21 abba
000001f0: bec2 06bb 09c1 0fbd 2475 04bd aeef d9bc
00000200: 47b8 35bc 36e6 0abc 5094 29bd 906e 23bd
00000210: 7b37 0cbd 6c54 f6bc 2e1f 23bc 6459 00bd
00000220: ca89 23bd 7d48 92bc b492 0a3b 7929 593c
00000230: 9c6f bb3a 203e 523a 25b5 613c 3066 0cb9
00000240: 06a6 0d3b 321e 4b3c 00d0 603a f0ec 94ba
00000250: 6af4 7ebb c556 01bc 0cfa 6f3c e945 4a3c
00000260: d093 d4ba cce1 4abc 0be9 59bc c41a 5e3c
00000270: 3ab3 233b 0db6 43bc daf3 74bc 7a7c 36bc
00000280: a88a ad3a 107f 6dbc a86e cebc 1bb3 a2bc
00000290: b4f7 36bc db2f d1bc b600 dbbc b281 8fbc
000002a0: de9e 31bc 9ed0 dfbb 0f39 82bc 6bdc 26bc
000002b0: 4f9f 85bb 915f 92bc 4a53 46bc ca56 a93b
000002c0: 2af6 40bc c069 95bc 122b a9bc 9e8a c5bb
000002d0: 548e d93b a745 00bc 5ff3 90bc dcc6 c3bc
000002e0: 64ac cfbc 0c75 2b3b 8a7c 1dbc ece4 07bd
000002f0: 2e1f 50bd 179a 0fbd c40f 7bbc 4418 b4bc
00000300: 8a59 13bd 160a 4fbd 62ae 41bd 6af6 98bc
00000310: 6098 a2bc 258e 81bc 084a 95bc fd48 a9bc
00000320: 1e2e ff3b dc09 5a3b ca7b 4f3b 0cb4 ef3b
00000330: 5d2f 823c 2834 88bb ddc5 b2bb 534e 92ba
00000340: ea69 0d3c 3de1 8e3c 03e0 59bc 54b3 82bc
00000350: 3bf1 3abc 0446 b3ba 71f0 633c dd74 b6bc
00000360: 5c66 b4bc 3eba 7dbc 90ed d2ba 99e5 283c
00000370: 0e70 babc 95ae 17bc b6d8 d2bb e02f cfba
00000380: c073 71b9 e8ff 7c3a 269a 8f3b 35d6 d13b
00000390: 2cd8 3d3b 9fee 143c 9804 553b 69ad 103c
000003a0: 145d c03b 8ba0 cf3b 416e 273c 789a 45bb
000003b0: ef5b 8f3a b651 d1ba 2003 e739 95b6 2fbb
000003c0: 9fb0 8a3b 9444 893b 5819 6139 f7d6 34bb
000003d0: 5431 2bbc 908a a43b 0a83 1eba fbcd ecbb
000003e0: 4017 80ba 7cc8 9fbb
-0.01737035 -0.022065215 -0.028371274 -0.029987633 -0.024783554 -0.0054825293 -0.0019318596 -0.006485575
-0.012013441 -0.018125629 -0.0038784228 0.0063971058 0.003623929 -0.006912678 -0.015076118 0.004722477
0.012054935 0.009276615 0.0019790963 -0.010263242 0.0035351077 0.0073485672 0.0031328073 -0.0072342656
-0.0147578195 -0.021952275 -0.0055076983 0.01024152 0.0013457751 0.011982725 -0.012489093 0.002925644
0.015083697 0.008872706 0.0030305847 0.0035909498 0.015006553 0.015494299 0.015658915 -0.0044366643
0.008485465 0.0047806446 0.0156113235 0.01904296 -0.0040793153 -0.0024995748 -0.008002806 -0.004745247
-0.01855494 -0.027688563 -0.01071335 -0.010828322 -0.017196104 -0.004150711 -0.017278664 -0.0602422
-0.060316425 -0.0684361 -0.04466735 -0.029771743 -0.06181205 -0.04996989 -0.044887353 -0.009981229
0.017111316 -0.019206997 -0.004798012 0.008760816 0.014868503 0.024125554 -0.004042316 -0.0030143633
-0.0051545464 -0.016929131 -0.020977676 -0.0081564775 -0.0042731618 0.002971966 0.0028922956 0.0013392514
-0.007668996 -0.008467297 -0.00044668315 0.0027075885 0.003276899 -0.012553083 -0.015920345 -0.0039961087
-0.003198262 -0.0003902741 -0.012268224 -0.01546704 -0.007519135 -0.005853618 -0.0024845777 -0.014703399
-0.016732506 -0.013259447 -0.0037787969 -0.004338499 0.001560583 0.0119783 0.015344473 -0.0010485728
-0.009953811 0.005357584 0.020405887 0.020078601 0.0074854996 -0.0017676444 0.0032570767 0.015624674
0.015604576 0.005987673 0.0032856604 0.004051847 0.007326249 0.008447079 0.0036436468 0.002537677
-0.0010398785 -0.000114411116 0.0025252476 -0.0013056116 -0.0020562853 -0.035096202 -0.032338277 -0.026603546
-0.011091298 -0.008477738 -0.041401207 -0.039900362 -0.034232598 -0.030069552 -0.009956164 -0.03133525
-0.039926328 -0.01785683 0.002114457 0.013254517 0.001430023 0.00080201216 0.013776098 -0.00013389508
0.002161385 0.012397336 0.0008575916 -0.0011362117 -0.0038903006 -0.007894223 0.014647018 0.012345769
-0.0016218368 -0.012382936 -0.013300191 0.013556186 0.0024978654 -0.01194526 -0.014950717 -0.011138076
0.0013240175 -0.014495626 -0.02519925 -0.019860795 -0.011167455 -0.025535515 -0.026733737 -0.017517898
-0.0108411 -0.006830289 -0.015896348 -0.010184388 -0.004077829 -0.017867835 -0.012104819 0.0051678168
-0.01177744 -0.018238902 -0.02065042 -0.0060284873 0.0066392813 -0.007829106 -0.017694173 -0.023898534
-0.025350757 0.0026162295 -0.009612212 -0.0331773 -0.050810985 -0.03505906 -0.015323583 -0.021984227
-0.035974063 -0.050546728 -0.047285445 -0.018672187 -0.019848049 -0.01581485 -0.018223777 -0.020664686
0.00778748 0.0033270037 0.0031659477 0.0073151644 0.015891725 -0.004156608 -0.005455716 -0.0011162258
0.008631209 0.017441386 -0.013298037 -0.015954651 -0.011410053 -0.0013677482 0.013912306 -0.022272522
-0.022021465 -0.015486298 -0.0016092528 0.010308647 -0.02275851 -0.009257932 -0.0064345254 -0.0015807115
-0.00023026671 0.000965117 0.0043823896 0.0064037093 0.002896796 0.009090095 0.0032503959 0.008830407
0.005870471 0.006336277 0.010219158 -0.0030151885 0.0010937433 -0.0015969786 0.00044062082 -0.0026811708
0.0042324807 0.0041890834 0.00021467113 -0.002759395 -0.010448772 0.0050214007 -0.0006046748 -0.007226703
-0.0009772554 -0.0048761945

momentum_buffer f4 [10]
00000000: bc65 a0bc 4a50 3cbc c766 99bc 869e 6e3a
00000010: 8d10 e23b e81e 5ebc 47e1 29bc 771e ccbc
00000020: 7819 bcbc bfe2 f73a
-0.01957976 -0.011493752 -0.018725766 0.00091026013 0.0068989457 -0.013557173 -0.010368652 -0.02491687
-0.022961363 0.001891218

momentum_buffer f4 [20, 10, 5, 5]
00000000: 12dc 8dbb 553b 1ebb 2c7c 87ba c041 8fba
00000010: 95fc a03a e13a 62bb ae56 44ba 1945 c8ba
00000020: 3434 d839 942a b6ba 49b9 13bc 4188 99bb
00000030: 3046 553b 9f34 af3b da6f 8c3b e1fc 91bb
00000040: 6489 1cba 603e 89b7 5c62 db3a 1d9f 243b
00000050: c60c 75bb bd43 80b9 a2a6 8bbb 0503 2cbb
00000060: c8ce d3b9 afb3 dfbc c45b c2bc a492 0bbc
00000070: 3043 a93b 7232 ab3c 139e ebbc 7890 0cbd
00000080: dc93 a8bc 3424 d6ba 24e0 733c e200 9abc
00000090: 0a69 fcbc a40b dfbc 90a2 e4bb 25ef c63b
000000a0: e0d9 9fbc 5419 02bd 2a5c fcbc 4007 c8bc
000000b0: 2c65 73bc 96cd cbbc deb5 23bd 9671 01bd
000000c0: 10ad cdbc 1f2c d2bc c15c 57bd de21 79bd
000000d0: 02c9 02bd ec7a 903b 64e5 fd3c 8a3b 98bd
000000e0: 7575 9dbd 58b0 2fbd 1ac1 263c 0a84 1a3d
000000f0: 7035 b2bd 8c0f aabd e26c 21bd bab8 173c
00000100: e04b 3a3d 4cb4 7fbd ba8f 99bd 5696 74bd
00000110: b124 02bd 68ce b83b d071 49bd f388 cbbd
00000120: de30 9ebd 0f58 2dbd ba35 15bd 5f3e 00bc
00000130: 03e5 26bc cf8e 39bc 4a29 8cbb 2ec6 98bb
00000140: a6c4 10bc 518f fbbb d8b0 23bc d2ed a4bb
00000150: 1f2a b5ba 22c0 68bb 0477 94bb 6b04 02bc
00000160: 2c6b 63bc 72e6 0dbc c655 51bb f650 39bb
00000170: 604a f2bb 45f5 72bc acf9 06bc 5a6c fbbb
00000180: 140a d8bb 781e 23bb 051d 30bc f461 f6bb
00000190: 24be 3cbb 9b03 74bb ac94 aabb a6af e1bb
000001a0: 057f e1bb dc93 17ba 26c4 e5ba 88f8 60bb
000001b0: fe4d 91bb e9d7 a2bb c84e a3bb a67c 91ba
000001c0: c6ec a5b9 81aa 93bb 1b53 c4bb b641 1ebb
000001d0: d00e 343a 9e36 8a3a d520 4dbb 4c5a 38bb
000001e0: 40ed cb3a 41ae a3b9 77d6 cdba 6d36 90bb
000001f0: 0d43 53b9 d6d2 54bd 1c3c 35bd 2a43 ccbc
00000200: 68ac d6ba 017c 053d b87a 77bd 532c 77bd
00000210: a07f 0cbd 03ed a53b 43e0 053d b701 67bd
00000220: d12a 8bbd 226e 4bbd e481 04bc 5a93 ba3c
00000230: 48c2 37bd 653f 6dbd 9013 88bd f2a6 21bd
00000240: 1860 09bc ffd5 25bd 3b12 8ebd 14c1 8cbd
00000250: 4bea 42bd 95ab 08bd 99cc 80bc e776 14bb
00000260: 0416 983b afaa eb3b 149c d6ba 8e5f edbc
00000270: 8600 45bc 848a 0b3c 1118 b43c 7f7d 413c
00000280: dcfe c1bc f4e9 8cbc 0cc4 debb a4d8 1a3c
00000290: d206 173b 7c9a 48bc 226f b0bc 9bcb 2fbc
000002a0: b132 aa3b 900d 3abb 1e3e 02bd f662 05bd
000002b0: 87de f5bc 3630 88bc f920 2cbc 0ac7 f9bc
000002c0: 1bd6 2dbc c144 383c 828f a13c 9ca6 be3b
000002d0: 76cf 33bd 9ed7 9dbc bb39 3d3c b8e1 e13c
000002e0: 3749 863c 0111 27bd 9990 f6bc 1348 31bc
000002f0: 4d49 9a3c 3c72 4cbb ea76 08bd 9bae 1fbd
00000300: 4e40 e5bc f4ea 923a f048 7ebb 45a4 58bd
00000310: 63cf 2bbd 247b 1bbd 5ce7 bfbc ac2d aebc
00000320: 0c8a 52bc 02c1 28bc fe33 82bb 9cac 5339
00000330: ded8 7fba 028a 2ebc ab1a 32bc 7f31 58bc
00000340: 219f f3bb 21cf e2bb c8d3 2f3b 6d3f dfbb
00000350: c977 80bc 9bcd 69bc 776e 3abc aa11 8abb
00000360: c343 d5bb 62d4 7ebc 4b5d 63bc 08ab 50bc
00000370: 9ca0 61bc 2bec 0ebc d38b a7bb d5a7 31bc
00000380: 7798 40bc 6bce c8bb b27b 87ba 451f aeba
00000390: 0f8b fbbb b051 ffbb a2af 88bb 0041 acba
000003a0: f2de 65bb 92f7 9abb a8bd 49bb ddc4 13bc
000003b0: 499c 10bc 031a 02bc e12d 9eba 7c2f 78bb
000003c0: 782a 3abc 409d 20bc d6d0 efbb d09e 8f39
000003d0: 388f c4bb 94bc 3dbc 2677 0c3b 98de cbba
000003e0: d06c 90bb e68a 6cbb 2c89 62bb 8640 4dbb
000003f0: 9f26 ebbb 24a3 aabb 0a14 753a 0478 b6ba
-0.004329213 -0.0024144251 -0.0010336689 -0.0010929629 0.0012282307 -0.0034519958 -0.0007489723 -0.0015279382
0.00041237625 -0.0013898187 -0.009016343 -0.004685432 0.0032543056 0.005346849 0.0042857947 -0.0044551943
-0.00059714005 -1.6360718e-05 0.0016737687 0.0025119253 -0.0037391647 -0.0002446453 -0.0042618075 -0.0026246917
-0.0004039912 -0.02730736 -0.023725398 -0.008518849 0.00516548 0.020898078 -0.0287619 -0.034317464
-0.020578317 -0.0016337694 0.014884982 -0.01879925 -0.030811805 -0.02722723 -0.006977387 0.0060709887
-0.01951307 -0.031762436 -0.030805666 -0.02441752 -0.014855664 -0.024878304 -0.039968364 -0.031602465
-0.025106937 -0.025655804 -0.05257869 -0.060823314 -0.031929977 0.0044091847 0.030993171 -0.07433231
-0.07688419 -0.042892784 0.010177875 0.03772358 -0.08701599 -0.083037466 -0.03941048 0.009260351
0.045482516 -0.062427804 -0.07498117 -0.059713684 -0.031773273 0.00563984 -0.049180806 -0.0993823
-0.077241644 -0.042320307 -0.03642819 -0.00782737 -0.010186437 -0.011325552 -0.004277383 -0.0046622967
-0.008835947 -0.0076769968 -0.009990893 -0.005033233 -0.0013821757 -0.003551491 -0.0045307893 -0.007935624
-0.013880532 -0.0086608995 -0.0031941994 -0.0028277016 -0.00739412 -0.014828985 -0.008238237 -0.0076728286
-0.0065929983 -0.0024889987 -0.010749106 -0.007519001 -0.0028799856 -0.0037233594 -0.0052057113 -0.006887394
-0.006881597 -0.00057822256 -0.001752977 -0.0034327824 -0.004434346 -0.004969586 -0.0049837567 -0.001109977
-0.00031647662 -0.0045064096 -0.0059913523 -0.0024148053 0.00068686623 0.0010544842 -0.0031300087 -0.0028129993
0.0015558377 -0.00031219612 -0.0015704174 -0.0044010193 -0.00020147506 -0.05195888 -0.044246778 -0.02493437
-0.0016378285 0.032588962 -0.060419768 -0.060345005 -0.0343014 0.0050636544 0.032684576 -0.05639812
-0.06795276 -0.049665578 -0.008087609 0.02277534 -0.044863015 -0.057921786 -0.06644356 -0.039465852
-0.008384727 -0.040487286 -0.06937071 -0.06872764 -0.04758672 -0.03336676 -0.01572256 -0.002265388
0.0046412963 0.007191978 -0.0016373419 -0.028976228 -0.012024051 0.008516911 0.021984132 0.011809706
-0.023681097 -0.017201401 -0.006798273 0.009451065 0.0023044837 -0.012243863 -0.021537367 -0.010729696
0.005194031 -0.0028389432 -0.03179752 -0.03256508 -0.030013336 -0.016624551 -0.010505908 -0.030490417
-0.010610129 0.011246861 0.01972175 0.005818201 -0.043899022 -0.019267853 0.011549409 0.027573451
0.016392333 -0.0407877 -0.030098246 -0.0108204065 0.01883378 -0.0031196019 -0.03331653 -0.038984876
-0.027984764 0.0011208938 -0.0038800798 -0.052891035 -0.041945826 -0.037959233 -0.02342575 -0.021262012
-0.012850296 -0.010299923 -0.003973483 0.0002018683 -0.0009759794 -0.010653021 -0.010870616 -0.013195395
-0.007434741 -0.0069216643 0.0026829112 -0.006812981 -0.015682118 -0.014270212 -0.011378876 -0.0042135315
-0.006508322 -0.015553566 -0.013877223 -0.0127360895 -0.013771202 -0.008723299 -0.005113104 -0.010843237
-0.0117551 -0.0061281226 -0.0010336547 -0.0013284466 -0.007676489 -0.0077917203 -0.0041713277 -0.001314193
-0.0035075513 -0.0047292197 -0.003078321 -0.009019104 -0.008826324 -0.007940772 -0.0012068116 -0.00378701
-0.011362664 -0.009803116 -0.0073185964 0.0002739341 -0.0059985183 -0.011580605 0.0021433323 -0.0015554009
-0.0044075027 -0.0036093532 -0.0034566624 -0.0031318977 -0.007176235 -0.005207436 0.00093489944 -0.0013921265

momentum_buffer f4 [20]
00000000: 2741 99bc 0027 2238 585d 4fbc 7c35 c73a
00000010: e681 afbb f6c1 813b 7cf7 96bb aadc 693b
00000020: 0040 8d37 ca24 ee3b 62e4 9b3c 5874 cbbb
00000030: ea6a 2b3c c408 5e3c a0ce 4f3c c42e a0bb
00000040: d71c 1e3c 9f33 8ebb 057c d4bb d6e0 7ebc
-0.018707825 3.866013e-05 -0.012656532 0.0015198435 -0.0053560613 0.0039598895 -0.004607139 0.0035684505
1.6838312e-05 0.007267569 0.0190298 -0.0062089376 0.010462502 0.013551895 0.012683541 -0.0048883874
0.009650431 -0.00433965 -0.006484511 -0.015556535

momentum_buffer f4 [10, 320]
00000000: c396 433c 8eef 313d a4c7 493d d946 213d
00000010: d8c4 ac3c 36cf 1b3d dbb5 d93c a00c 023d
00000020: 80be c23c 62df 203d fc80 c43c 87d5 273d
00000030: 1e2d b23c ebf1 e93c 8945 893b 10f7 8b3c
00000040: 3d88 163c 97ad 313d 0577 543d 1286 d83c
00000050: f44f 1d3d 7cde 443d 9fbb 883d 551c ec3c
00000060: f292 bf3c 9596 903d 3075 b43d a0dc 053d
00000070: 5881 333d 8826 853d 7137 8d3d 4ff0 263d
00000080: a0af d93c f091 e33c dc48 e53c 008e 083a
00000090: 5a16 183d 00b0 173d 123c 993d cccb 953c
000000a0: 170a 243d c29c 203d 97fc ae3d 0e86 d63c
000000b0: d19f 803d c0cd a63d 3316 9a3d dc0e 0a3d
000000c0: c09e 723b b4f8 beba 3208 a93c 55d9 043d
000000d0: acfe 253a cf5e 23bb 03d4 023d 0d04 153d
000000e0: 7bd2 a7bb 27a6 6a3c 3731 1b3d a905 3c3d
000000f0: 2914 713a b06e e33c cbe8 043d e031 1a3d
00000100: 785d 583b 689a b13a dc9c 0eb9 b395 6f3a
00000110: 61ac 5c3b 584e 7039 1c66 fcba 03e3 893a
00000120: 9391 113b d44d f4ba 1867 88ba 1461 3f3a
00000130: 185d 0139 26bd 05ba d2bc 5c39 9bf5 203a
00000140: 4a7f 52bb 2c89 9fba 0eca c03c ae8a 483d
00000150: 4a31 cfbc 30eb 2c3a 0ed3 a53c 6823 673d
00000160: c68f 6cbc 103a 063d 0370 803c de92 4d3d
00000170: 0494 df3a 6360 9d3c ef81 103d a911 0d3d
00000180: 44f9 c23c 561c 683d f95c 9d3d 4a4b 253d
00000190: b6d9 253d 8eda a03d 66a5 a83d 029e 543d
000001a0: 46f0 683d f603 913d ff89 4b3d 5904 4a3d
000001b0: 2d0a 893d 2c94 923d e68b e13c 81d8 f83c
000001c0: b4ca 46bc d3f4 06bb 90b4 473b a638 f03c
000001d0: 8201 b6ba 6a34 253c 06ea 693c 0359 aa3c
000001e0: 5e1f 373c 3468 223c 9957 683c dc3e 193c
000001f0: 4059 073d 7b4b 433d 5c10 283d 560e 283c
00000200: 0125 e53b 92cc 083d 2a33 0a3d b47b f43b
00000210: 340e a83b de13 683d e04d 433d cfd0 ff3b
00000220: 4e62 0f3d f92e 703d 25c7 313d 5ede f6bb
00000230: 0acb 453d dcee 013d f7ea f53c 1899 b238
00000240: 8ba8 663c c275 cf3c f081 4e3c d859 25ba
00000250: 95a4 9e3c 87e7 a93c c690 133c 0b45 ffbb
00000260: 3cf0 c03c 8060 563c d8e3 ce3b c12e 10bc
00000270: 58fb 9c3c 394e 3a3b ecc4 833a d1df 8fbb
00000280: 16b5 dfbb f364 c03c 2277 c43c 9b43 b43c
00000290: 0ecd a8bb 12d2 643d 25e5 263d 8abb a53c
000002a0: 8306 923c 2521 753d e647 243d 91b7 e73c
000002b0: 7d50 4a3d 91f1 283d 533b 863d c510 043d
000002c0: e890 c93a 1e06 e4bb 7c5a 063c f22b 3c3d
000002d0: c2a6 bbbb 0e94 60bc a365 f83c b8b5 873d
000002e0: 9859 4bbc 7ac7 dcbb 640d 3b3d fd6b 883d
000002f0: a261 37ba d368 183d eca0 353d 3ebc 943d
00000300: 626f 823b 12e0 053d 5a56 033d a3a0 a13c
00000310: c958 4b3c 22d7 493d 2bc4 f93c ec73 a63b
00000320: 459d 2d3d b4a6 203d 60af 203c 7067 60bc
00000330: e645 153d c028 be3c a0ab a43c c4c6 5ebc
00000340: 0254 c13c 18a4 7f3d 5e64 793d 0811 983c
00000350: 3084 5a3d 5c8f 5d3d e84b 3e3d 90fc 8439
00000360: 0261 963d 38d3 2c3d 8aeb 053d acd4 98bc
00000370: 20be 743d ecac 103d 716b cc3c 3719 15bc
00000380: 5c4e c439 159c e4bb ea07 4b3c 5f71 d63c
00000390: c22a 03bb 8481 453c 1a36 563d 72d4 2f3d
000003a0: 7021 ea3b 8339 e13c ac38 3a3d 54f2 0d3d
000003b0: 4faf 083d 1a10 3b3d 598d 953d 17dc 683d
000003c0: edc5 0a3c 0e58 973c aad3 1f3d 5b23 1f3d
000003d0: f164 f7bb 5bda c53c d341 073d 2537 033d
000003e0: 8529 dc3c 9bbb 763d 2add a33c e7f0 903c
000003f0: 1588 c73c c68b 1b3d c617 193c bd47 2d3c
0.0119378 0.043441348 0.049262658 0.039374206 0.021089956 0.03803941 0.026575973 0.03175032
0.023772478 0.039275534 0.023987286 0.04097512 0.02175003 0.028557738 0.0041891974 0.017085582
0.009187755 0.04337844 0.05187132 0.026431117 0.038406327 0.04806374 0.06676411 0.028822104
0.023385499 0.07059971 0.08811414 0.032681108 0.043824524 0.0650149 0.0689534 0.04075652
0.026573002 0.02777955 0.027988844 0.0005209148 0.03713069 0.03703308 0.07482161 0.018285654
0.040048685 0.039211996 0.085442714 0.02618697 0.062804826 0.081447124 0.075237654 0.033705577
0.0037020892 -0.0014569969 0.02063379 0.032433826 0.00063321996 -0.0024928336 0.03194047 0.036380816
-0.005121527 0.01432184 0.03788873 0.045903835 0.00091964245 0.02776274 0.03244857 0.03764522
0.0033014696 0.0013550045 -0.0001360061 0.00091394334 0.0033672082 0.00022917369 -0.0019256505 0.0010519925
0.0022212013 -0.0018638917 -0.0010406701 0.00073005375 0.00012337079 -0.00051017327 0.00021051176 0.00061401137
-0.0032119327 -0.0012171618 0.023533847 0.04896038 -0.025292058 0.0006596325 0.02024224 0.05643025
-0.014438575 0.032770216 0.015678411 0.05018889 0.0017057662 0.019211 0.035280164 0.03444067
0.0238005 0.05666765 0.07683749 0.040355004 0.04049083 0.07854186 0.08234672 0.0519085
0.056869768 0.070808336 0.04969215 0.049320552 0.06691394 0.07157168 0.02753253 0.030376675
-0.012133289 -0.0020592704 0.0030472614 0.029323887 -0.0013885947 0.010083297 0.014276987 0.020794397
0.011176912 0.009912539 0.014181041 0.009353366 0.0330441 0.047679406 0.041031227 0.010257324
0.0069929366 0.03339822 0.0337402 0.0074610356 0.0051286463 0.05665957 0.04768169 0.0078068743
0.03500586 0.058638547 0.04340281 -0.0075338325 0.048289336 0.031721935 0.030019267 8.516217e-05
0.01407827 0.025324706 0.012604222 -0.0006307638 0.019365588 0.020740284 0.009006685 -0.007790213
0.023552053 0.013084531 0.006313782 -0.0088002095 0.019162819 0.0028427972 0.0010053194 -0.0043906947
-0.006827007 0.023485636 0.023982588 0.022004893 -0.0051513975 0.0558644 0.040745873 0.020231027
0.01782537 0.059846062 0.04010763 0.028285773 0.049393166 0.041246 0.06554284 0.032242555
0.0015378268 -0.006958737 0.008200284 0.045940347 -0.005726666 -0.013707174 0.030321902 0.06626457
-0.0124114975 -0.0067376466 0.045667067 0.06661222 -0.00069954444 0.037209343 0.04434292 0.07262467
0.003980563 0.032684393 0.032064773 0.019729918 0.012411305 0.049277432 0.030489048 0.005079737
0.042386312 0.03922148 0.009807438 -0.013696536 0.036443613 0.02321279 0.020101368 -0.013597194
0.023599628 0.06241235 0.060886733 0.018562809 0.05334872 0.054091796 0.04645911 0.00025365176
0.073427215 0.04219362 0.03269533 -0.018656097 0.05975163 0.03532116 0.024953576 -0.00910025
0.00037442415 -0.0069766142 0.012392024 0.026177106 -0.00200145 0.012054805 0.05229769 0.042927213
0.0071450993 0.027493244 0.045464203 0.03465493 0.033370312 0.045669653 0.073023506 0.05685052
0.008470041 0.018474605 0.039020218 0.038852077 -0.007549875 0.024151972 0.03302176 0.03203501
0.026875267 0.06023751 0.02000292 0.017692996 0.024356881 0.037975095 0.009344047 0.010576186

momentum_buffer f4 [10]
00000000: 249b 493c eb1e 7b3c 85fe e73c 3ccd ddbb
00000010: 8e64 97bc 5c1a 46bd d877 743c bb99 ff3c
00000020: feb5 2c3c d4bf 1fbd
0.012305055 0.015327196 0.028319607 -0.0067688506 -0.018480565 -0.048364982 0.014921151 0.031201234
0.010541437 -0.0390013
