oracle/train/iid/checkpoint/mnist/ckpt_1_3.pth (torch, 71489 bytes, 12 tensors)

conv1.weight f4 [10, 1, 5, 5]
000000 95 fc 45 be ab aa 4d be ac 5b 1b be fa d9 59 3e
       -0.19334634 -0.20084636 -0.15171689 0.21274558
000010 2a 51 8a bd c6 0d 46 3c 81 8c 3e be 73 c9 69 bd
       -0.06753762 0.012088245 -0.18608285 -0.057076883
000020 77 02 c2 3d 57 dc 15 3e 4b 97 11 be 8e 64 cd bc
       0.094731264 0.14634834 -0.1421787 -0.025072362
000030 83 02 13 3b da df ad 3d e2 79 38 3e db 29 5d be
       0.0022431917 0.08489962 0.18015245 -0.21597998
000040 63 89 30 3e 64 4a 75 bd 8f ee 25 3e 52 2e f2 bd
       0.17239909 -0.059885398 0.16204284 -0.11825241
000050 41 0b 25 be ff 38 32 3e cd 33 e2 bd b9 0f 5c 3d
       -0.16117574 0.17404555 -0.110450365 0.05372593
000060 97 24 d7 bc 66 2b 80 bd 5b 5f 7f 3e 06 ae 37 3d
       -0.026262565 -0.062582776 0.24938719 0.044843696
000070 b7 12 bf 3c f5 0f 1c be 81 13 76 3e ae 36 91 3e
       0.023324354 -0.15240462 0.24030878 0.2836203
000080 cb 23 44 bd 3b 39 ce 3d 20 92 34 bd d8 a9 75 3e
       -0.047885697 0.100695096 -0.04408467 0.23990571
000090 6c cf 8d 3e 80 06 8b 3e 73 0b 7a 3e fe 33 90 3d
       0.27697313 0.27153397 0.2441843 0.07041167
0000a0 aa de 5c 3e ab d0 dc bd ff 7b 68 3e 0d 81 73 3e
       0.21569315 -0.10781988 0.22703551 0.23779698
0000b0 d9 a8 1a 3d 54 14 4e be 58 a8 41 3d 8f 9e 62 bc
       0.037758682 -0.20124942 0.047279686 -0.013831749
0000c0 54 12 41 bc d8 b0 32 3e e6 ab b8 3d 77 65 f5 bd
       -0.011784155 0.17450273 0.09017162 -0.119822435
0000d0 94 e8 00 3e 38 3c 2e 3a 57 1c cf 3d c3 02 76 bc
       0.12588722 0.00066465465 0.10112827 -0.015015307
0000e0 6a 42 c1 3c 88 de a5 3e e1 d8 aa 3e 90 c5 ee bd
       0.023591239 0.3239634 0.3336859 -0.11658776
0000f0 7f 90 b4 bd 5e b3 a4 3e 5b a0 8c 3e 71 60 80 3e
       -0.08816623 0.32168096 0.27466092 0.2507358
000100 e2 ae 22 3e 68 85 3e 3b af 70 3b 3e 10 f3 dc 3d
       0.15887025 0.0029071216 0.18304704 0.10788548
000110 bc 2b 5f 3e 0e 39 dd 3d 36 84 17 3e 16 e8 27 be
       0.21794027 0.10801898 0.14796528 -0.16397128
000120 79 8f 27 bd c8 dc 47 3e 3a 4d 72 3e a0 8f ab 3c
       -0.04090831 0.19517815 0.23662272 0.02094251
000130 ce ab 05 be 71 8b c2 3d de 0c 7a 3e f7 8f 41 3e
       -0.1305382 0.094992526 0.24418971 0.18902574
000140 51 04 2f 3d 94 59 fb bd f0 71 8c 3e 9e 31 22 3e
       0.042728726 -0.12272945 0.27430677 0.1583924
000150 b2 b6 89 3e 0a b8 3b be 86 85 56 3e 8a c4 51 3d
       0.26897198 -0.18331924 0.20949373 0.051212825
000160 f8 29 8d 3e 32 a3 80 3e 52 ac 35 3d c2 00 93 3d
       0.27571082 0.25124508 0.04435379 0.07177879
000170 94 72 8d 3d 29 bd 39 bd c4 f7 50 3e 79 fa 48 be
       0.0690662 -0.045346413 0.20407015 -0.19626798
000180 0e e9 98 3c 18 85 cf 3d a1 34 d6 bb 67 ee 4b 3e
       0.018665817 0.101328075 -0.0065370356 0.19915162
000190 32 69 f1 bd 12 b9 0c be e4 46 82 bb 4a d3 11 be
       -0.117876425 -0.13742474 -0.003975736 -0.14240757
0001a0 60 f2 50 3d d2 8f 5d bd 2e 10 a3 3d 86 f8 d4 bd
       0.051012397 -0.054092236 0.079620704 -0.103989646
0001b0 7c 2f a0 bb 30 ec a4 3d e7 b4 ac 3d a0 86 55 3d
       -0.004888473 0.08052862 0.08432942 0.05213034
0001c0 0a e2 42 3d 6b 6b 15 be a9 4c 9b 3c 73 a3 ad 3c
       0.04757885 -0.14591758 0.018957453 0.021196103
0001d0 91 ce 41 3e 0f 74 81 3e 11 15 01 be 7d d2 0e be
       0.18926455 0.25283858 -0.12605692 -0.13947482
0001e0 c9 2e 99 3c 94 cd 39 3d dd 56 7b 3e 9e 3a a2 bc
       0.018699067 0.04536207 0.24544854 -0.019803341
0001f0 55 be e1 3d be 99 75 3e 12 a2 2e 3e 1b f7 fe bd
       0.11022631 0.23984429 0.17054012 -0.124494754
000200 00 5f 22 3d be 81 0a be d9 ab 3d 3e f4 e3 4f 3e
       0.03964138 -0.13526055 0.18522586 0.20301801
000210 c2 ef 33 be 86 ed 2a be 66 a4 31 3e d6 2e b1 bd
       -0.17571929 -0.1669217 0.1734787 -0.08651511
000220 ac 3b f3 bd 44 d1 b1 bc 64 e8 ef bd 71 59 13 be
       -0.11876616 -0.021706231 -0.11714247 -0.14389588
000230 c1 8b ca 3b 5d 4c c4 bc a0 74 00 3e 7f 4b 2c 3e
       0.0061812107 -0.023962194 0.12544489 0.16825674
000240 29 a9 1e be 1e 9d 25 3e ae 48 bc bd f5 d9 d7 3d
       -0.15494217 0.16173217 -0.0919355 0.10539619
000250 09 31 cf bd dd e5 39 3e a0 70 fc bc ca 55 39 bd
       -0.101167746 0.18154092 -0.030815423 -0.04524783
000260 d4 30 c7 bd 72 a1 5f 3e 1d a4 ec 3d 8f c9 17 3e
       -0.0972611 0.2183893 0.115547396 0.14822982
000270 43 00 56 bd 55 ea 37 3e d3 06 07 be ab 5b f7 3d
       -0.052246343 0.17960484 -0.13186197 0.12078031
000280 91 5c 73 bd 11 4d 0e be e0 77 6e 3d 45 3b b5 3b
       -0.05941445 -0.13896586 0.05821979 0.005530747
000290 3b 72 1f be 79 0d 4a be 6e 02 47 bd 8c 5a 83 bd
       -0.15570919 -0.19731702 -0.0485863 -0.06413755
0002a0 17 0b fe bd a3 55 29 be ea db 9f 3d d2 7c e5 3d
       -0.12404459 -0.16536574 0.07805617 0.11205448
0002b0 09 86 84 bd e0 06 9f bd 42 08 7c 3d 32 eb 4a 3d
       -0.06470878 -0.07764983 0.061531313 0.049540706
0002c0 f4 94 42 be 33 b7 34 3d 29 25 5b be 4e 6f 0b 3e
       -0.19002134 0.044120025 -0.21400894 0.13616678
0002d0 f5 97 1f 3d f4 e0 0e be 1e 80 66 3e 8f 6c 1b bb
       0.038963277 -0.13953 0.2250981 -0.002371583
0002e0 59 d8 83 bc 7a 94 8d 3e b7 ba a4 3e e3 54 9c 3e
       -0.016094374 0.2765234 0.32173702 0.30533513
0002f0 a5 0a 96 3e 12 0d 36 3e e4 3d 0f 3e d4 e4 7e 3e
       0.29304996 0.17778423 0.13988453 0.24891979
000300 d7 f8 00 3e 99 61 78 3d 4e 7c 82 bd 44 74 10 3d
       0.12594925 0.06063995 -0.063713655 0.03526713
000310 62 4a 35 be d0 85 a7 3d 70 ee 76 3d 4b 40 e6 bd
       -0.17704156 0.081798196 0.060285985 -0.11242732
000320 2e a9 8a 3d b1 2e 0f be 3b 38 45 bd c0 71 37 be
       0.0677055 -0.13982655 -0.04814933 -0.17914486
000330 08 ff 54 be 74 36 e9 bd ac 0e 75 be f3 a8 7b be
       -0.20800412 -0.11387339 -0.23931378 -0.24576168
000340 8d 6e ee bc fe c6 c7 bc c2 48 10 bd c6 d7 06 3e
       -0.02910545 -0.024386879 -0.035225637 0.13168249
000350 9f 6e a1 3d 95 cd 1d 3c 8d e6 14 bd b9 89 c1 3d
       0.078824274 0.009631534 -0.036352683 0.09450097
000360 a5 b0 dc 3b 40 35 08 3e b4 b9 8c 3e 6d 2b 02 3e
       0.006734925 0.13301563 0.2748543 0.12711878
000370 bb af 9d 3e 72 76 43 3e d1 be 47 3e 9b 2b 8a bb
       0.30798134 0.19088152 0.19506384 -0.004216624
000380 14 cd bb bd d1 0d ff 3b 82 e3 41 3e c6 57 5a 3e
       -0.09169975 0.0077836295 0.18934444 0.21322545
000390 04 8b e7 bd fd 9e a6 3d c4 13 e8 3d 92 01 02 3e
       -0.11305812 0.08135793 0.11331895 0.12695912
0003a0 fe ec 95 3e 5d 8d 94 3b f1 83 00 bd 9a 57 95 3e
       0.29282373 0.0045334534 -0.03137583 0.29168397
0003b0 8d d9 73 3d ec aa 89 3d 67 30 1a be d5 9b 4a bd
       0.059533644 0.06722054 -0.15057527 -0.04946502
0003c0 87 0c 97 3e 0d e8 a1 3e b5 15 d7 3d 49 df 43 3c
       0.29501745 0.31622353 0.10502187 0.011955091
0003d0 f1 17 59 bd e4 a1 82 3e 85 1d 4d 3e 2e 7b 59 3e
       -0.053001348 0.25514138 0.20030792 0.21238396
0003e0 8a 90 6e bd 35 5a 17 3e
       -0.058243312 0.14780505

conv1.bias f4 [10]
000000 95 64 df 3d 90 1b e8 bd 68 69 66 3e 94 7d 11 3e
       0.109078564 -0.11333382 0.22501147 0.1420806
000010 68 77 ea 3d fb 24 45 be a3 f7 99 bb 82 61 50 3e
       0.11448556 -0.19252388 -0.00469871 0.20349696
000020 34 3e df 3d c7 5a fa bd
       0.10900536 -0.12224346

conv2.weight f4 [20, 10, 5, 5]
000000 d7 52 19 bc eb e5 1d 3d fd ff d0 3c 6b 4e 25 3d
       -0.009358129 0.038549345 0.02551269 0.04035799
000010 32 35 12 3c 97 40 dd ba c6 f5 14 bc 16 ba 73 bc
       0.008923816 -0.0016880211 -0.0090918 -0.014875909
000020 8c fe 80 3b c8 9f ff bc 59 be af bc cb 66 08 bb
       0.0039365944 -0.03120412 -0.02145307 -0.0020813223
000030 41 55 15 bd 7c b6 5b bd aa e9 f9 bb 8e 72 64 3c
       -0.036458258 -0.053640828 -0.007626732 0.013943328
000040 66 10 3a bc ad 64 ca bc 70 bb e3 bc 08 ed 2f 3d
       -0.011356449 -0.02470621 -0.027799338 0.04295066
000050 2a 17 08 bd 3c 98 61 bd b9 84 59 bd 3d 92 48 3a
       -0.033225216 -0.055076823 -0.05310509 0.0007651186
000060 26 97 30 3c 28 1e ba bc 3e db 5e 3d 37 a9 39 3d
       0.010778224 -0.022719458 0.054408304 0.04532739
000070 07 20 d2 3d a3 9e 9a 3d 84 aa 19 bc 3d 58 98 bd
       0.10260015 0.07549789 -0.009379033 -0.07438705
000080 64 31 74 3d 95 26 c5 3c cd 79 54 bd ff fe 8d bd
       0.059617415 0.024066249 -0.05187397 -0.06933402
000090 bf 53 8f 3c 86 34 9b bd b1 d4 6d bd ca 71 49 bd
       0.017495988 -0.075783774 -0.058064166 -0.049180783
0000a0 7a cc 0b bd ec 1b 28 bd ca f6 49 3d d3 00 71 3a
       -0.03413055 -0.041042253 0.049307622 0.0009193543
0000b0 ac b9 9b bd 6f 17 1b 3c 4b 0c ed bb 84 70 0c bd
       -0.076037735 0.009466036 -0.0072341315 -0.03428699
0000c0 31 1b d2 3c 02 a5 70 bd bb c0 0e bd 0e 88 ce 3c
       0.025647731 -0.058751114 -0.03485177 0.02521136
0000d0 e3 41 c5 3d 91 53 14 3d fd 27 50 bc 38 79 c1 bd
       0.096317075 0.036212508 -0.012704846 -0.09446949
0000e0 9d 9b 88 bd 3c af ef bc e8 0e bf 3c 3a f4 78 bd
       -0.06670306 -0.029258363 0.023322538 -0.060779788
0000f0 f8 e1 94 bd 79 7c 57 3c 1e 2c 23 bd ed 0c c2 bb
       -0.072696626 0.013152235 -0.039836995 -0.005921951
000100 ef af f1 bd 0a ca 2a 3d 4a 0e 94 3d a9 2c b8 3c
       -0.11801135 0.041696586 0.07229288 0.022482233
000110 7c 52 0f bd bd 7b dd bc 9e d4 9d bc 8d 6e 42 3c
       -0.034990773 -0.027036542 -0.019266423 0.011867178
000120 b1 8b 9a bc 54 ab 91 3b dd 22 05 bc a3 91 11 bd
       -0.018865438 0.0044454727 -0.008125988 -0.03553928
000130 06 d2 94 3d b3 7d d8 3d 35 64 3c 3d f4 12 6b bd
       0.07266621 0.1057085 0.045994002 -0.057391122
000140 f7 8c 62 3c c4 05 66 bd bb 74 a6 3b 73 cf 94 3c
       0.013827554 -0.056157842 0.0050798333 0.018165326
000150 f4 0b af 3c f9 2e a0 3b d5 4b af 3c dd c4 bb bc
       0.021368004 0.004888412 0.021398464 -0.02292102
000160 a0 89 b6 bc 7f ae 03 3c d0 2a 20 3d fb 1a 2c bc
       -0.022282422 0.008037209 0.03910333 -0.0105044795
000170 15 38 10 bd 04 ba c8 bd 77 16 1e bd f4 06 3f 3d
       -0.035209734 -0.09801105 -0.038595643 0.04663749
000180 e4 7c 89 3d 3a d7 aa 3b 67 73 78 bd 3b dc e8 3c
       0.06713274 0.0052136453 -0.06065693 0.028425327
000190 d2 45 40 3d e4 59 56 bd e3 ae 16 bd 4b 7f 2c 3d
       0.046941586 -0.05233182 -0.03678788 0.042113584
0001a0 24 99 b2 3b 82 a8 3d ba f3 08 c9 bc c9 fa bf bc
       0.0054503847 -0.00072348875 -0.0245404 -0.023435013
0001b0 61 d1 cb 3c b5 14 52 bd 96 81 66 bd cc bc a6 bc
       0.024880113 -0.05128928 -0.056275927 -0.020353697
0001c0 88 7f 8b 3d 87 ae 35 bd a3 86 8f 3c 2d 27 16 bd
       0.06811434 -0.044355895 0.017520254 -0.036658455
0001d0 0c 93 41 3c 5e 2e 87 3d e8 64 83 bd 86 5d 9f 3a
       0.011814844 0.06600641 -0.06415731 0.001215861
0001e0 f3 d3 c5 3c 5f 2a 31 bc af d2 31 3d cb fb 2f 3c
       0.024148917 -0.010813325 0.043413814 0.010741184
0001f0 a1 6e 03 3c 55 5a 0a 3d 23 44 f8 bb 3b 41 ac 3c
       0.008021981 0.033777554 -0.007576482 0.021027198
000200 f9 37 9f 3b 07 7a 65 3c 88 7b af bc 61 68 b1 bc
       0.0048589674 0.014006144 -0.021421209 -0.021656217
000210 27 52 1e bc cd e9 83 bd fa 8c 5a 3d b8 4e 34 bd
       -0.009663141 -0.06441078 0.053357102 -0.044020385
000220 4d 32 29 bd 6a bc a2 bb fa bd 58 3d ee ec c2 bc
       -0.041307736 -0.0049663084 0.05291555 -0.023794618
000230 4d 34 83 bd b3 4f 04 3d de 03 64 bd ca 6d 37 3c
       -0.0640646 0.03230257 -0.05566775 0.011195609
000240 ac 45 5d bc a3 6e 51 bd a3 8a 2d 3c ce 0e 0a 3d
       -0.013505381 -0.051130902 0.010592136 0.033705525
000250 cb c5 1e 3d a8 69 42 3c f6 57 e5 3c 2a e5 16 bd
       0.03876285 0.011866011 0.027996045 -0.03683964
000260 ca ca eb bc 4d 35 5f 3c 9a d0 6a 3d 1c cc 64 3d
       -0.02878322 0.013623548 0.057327844 0.055858716
000270 07 f6 39 3d 55 8d 46 3d f8 70 45 3d 5e fd 64 3d
       0.045400646 0.04847463 0.04820344 0.055905692
000280 c4 20 e7 3b b0 60 6e 3c 38 4a 82 3d 0d 74 ec bc
       0.0070534665 0.014549419 0.06361812 -0.028863931
000290 ad 16 d0 bc 91 79 0a 3a 69 f8 82 3b 5d 6d a9 bb
       -0.025401438 0.0005282397 0.003996898 -0.005170508
0002a0 c3 37 df bc 70 de 84 bd 14 f0 49 b9 c0 9b ad bc
       -0.027248269 -0.06487739 -0.0001925829 -0.021192431
0002b0 90 90 35 3c 98 5e 81 bd 52 c1 d0 bb ad de 6e 3d
       0.01108183 -0.063168705 -0.006370702 0.05831783
0002c0 e8 b7 7a 3d 93 58 86 3d 19 40 c6 3d 9a 96 87 3d
       0.061210543 0.06559863 0.096801944 0.06620522
0002d0 cc 60 8d bd 3a 85 23 3c 8b fc dc bc 5d 86 19 3d
       -0.06903228 0.009980494 -0.02697589 0.037481654
0002e0 fa b2 8a bd 48 99 81 3c 3d 57 67 bd f2 b3 6c 3d
       -0.06772418 0.01582016 -0.05647968 0.057788797
0002f0 84 e6 f3 bc 7e 44 97 bd 8c 25 85 3c 1c 5f 1b 3d
       -0.029773004 -0.07386111 0.016253255 0.0379325
000300 e2 3a d1 3c 7c 9d c3 bc bc 83 8a bd a0 ff f6 3b
       0.025540773 -0.023878805 -0.067634076 0.007537797
000310 c2 92 51 3d ab fd e1 3b 54 7e 2e bd 40 73 24 bd
       0.05116535 0.0068966947 -0.042600945 -0.040148973
000320 67 f5 19 3c 3a 7e 6a bd e3 b2 31 3d a0 44 d2 3c
       0.009396887 -0.057249285 0.04338349 0.025667489
000330 15 b1 53 bc 4b aa 16 3d b2 9a af bc 98 3d ca 3c
       -0.012920638 0.036783498 -0.02143607 0.024687573
000340 4a cf 93 bc 83 f1 9a bd 71 11 38 bc 47 1e 0c 3d
       -0.018043179 -0.07565596 -0.011234627 0.034208562
000350 e5 03 9c 3c 9e 50 6f bd fb 02 41 bd 91 ec aa 3d
       0.019044826 -0.058426492 -0.047121983 0.08345903
000360 d2 73 81 3d 51 d5 4e bd 00 72 64 bd 3a ab b1 bc
       0.06320919 -0.050496403 -0.05577278 -0.021688092
000370 9f 1d e8 3c fe bd 2e bd 74 57 b2 3b 18 65 91 3d
       0.028334437 -0.04266166 0.005442554 0.0709936
000380 d1 46 ec bc 63 e8 37 3d 6d c8 ea 3c a3 29 2d 3c
       -0.028842362 0.044899356 0.028660024 0.010569009
000390 a1 f2 3e 3d 98 cf 7d 3d b1 de 8a bc 4f 35 a6 bd
       0.046618108 0.061965555 -0.01695189 -0.081156366
0003a0 44 c3 65 bd 30 8b b7 3d f9 17 28 bb 61 84 8f 3b
       -0.056094423 0.08962095 -0.0025649054 0.0043797945
0003b0 87 48 68 bd 9e 57 94 3a 0a 56 6b bd 3e b0 9b bd
       -0.056709792 0.0011317616 -0.0574551 -0.07601975
0003c0 76 a4 36 3d dc ef 76 3d 0d f8 2b bd d7 0a cb 3c
       0.044590436 0.06028734 -0.041984607 0.024785442
0003d0 4b f8 ce bd 85 79 c1 3b 37 f0 36 3c 26 2f 4a bd
       -0.10105952 0.005904379 0.01116567 -0.04936137
0003e0 91 b2 5f 3c a4 1c 1a bd 25 88 6f 3d d8 0a 1a bc
       0.013653413 -0.03762497 0.058479447 -0.009401999
0003f0 d0 16 15 3d dd bd 13 3d b8 c6 82 bd f7 c3 a7 3d
       0.03639871 0.03606974 -0.06385559 0.08191674

conv2.bias f4 [20]
000000 30 dc 85 3d c5 e0 24 ba 70 7d 2e bc 91 7d 10 3d
       0.06536138 -0.0006289597 -0.010650024 0.035276
000010 2d 5d 97 3c 69 25 15 3d bb 60 42 3d 19 10 74 bd
       0.018477047 0.03641263 0.04745553 -0.059585664
000020 17 14 ff 3c f6 e6 72 3c ce f1 4c bc 8c d8 92 bd
       0.03113751 0.014825573 -0.012508823 -0.07170209
000030 5c 6e 3e bd f8 e7 92 3c 02 b5 51 bd 23 9b 8f bd
       -0.046491966 0.017932877 -0.051198013 -0.07012012
000040 99 68 bf 3c ae 11 d9 bb 16 76 ca 3c 57 56 b5 bc
       0.023365306 -0.006624422 0.02471451 -0.022135897

fc.weight f4 [10, 320]
000000 27 e3 48 bd ac dc a6 3b d3 b0 3b bd 72 c4 86 bd
       -0.049044754 0.005092224 -0.04582293 -0.06580438
000010 b8 38 38 3d 08 4d 44 3d 9a c9 61 bd b3 1c 32 bd
       0.044975966 0.047925025 -0.055123903 -0.0434844
000020 c6 97 39 3b f0 8e 09 3d 9d 49 e5 3b 0c a0 13 3d
       0.0028319224 0.03358358 0.006997301 0.036041304
000030 2d af b4 3c 5c 54 8e bd ec 19 02 3d da 03 e5 3c
       0.022056187 -0.06949684 0.031763002 0.027955938
000040 45 9b 7c 3b e2 35 2e bc fe cc b5 3b e3 0f 07 bd
       0.0038544696 -0.010632964 0.0055481186 -0.032974135
000050 07 76 d7 bd 2a a8 08 bd 2f 26 f1 3c d9 d9 5a 3b
       -0.10520559 -0.0333635 0.029437153 0.0033394007
000060 13 6a de bc 65 94 0b be 74 36 66 bd 1b 00 03 3d
       -0.02715019 -0.13630827 -0.056204274 0.031982522
000070 a0 fd 4c 3d 34 8c 76 bc 32 c1 10 3d 73 00 ab 3d
       0.050046563 -0.0150480755 0.035340495 0.08349695
000080 15 11 47 bb be a5 12 bd 2b 4a 04 3d 21 af 4a bd
       -0.0030375172 -0.035802595 0.032297295 -0.049483422
000090 33 e0 13 3c 99 ca 16 bc 91 6d 02 3d c0 ca 79 3c
       0.009025621 -0.0092035765 0.031842772 0.015246093
0000a0 b4 2e b2 3c 35 91 db bc 7e 3a 73 bd 00 d5 1b 3b
       0.021750785 -0.026802639 -0.059381954 0.002377808
0000b0 30 97 40 3d 1e e4 91 3c 7b 96 6f bb 1a 9c b0 3a
       0.047019184 0.01780897 -0.00365582 0.0013474256
0000c0 b2 8f 19 3d f7 b9 5d bd 1b 99 fc bc c5 eb e6 bc
       0.037490554 -0.054132428 -0.030834725 -0.028188596
0000d0 6f bc be bc 9b a1 01 bd ca 4d 7c bd 90 0a 7f bd
       -0.023283212 -0.03164826 -0.061597623 -0.062265933
0000e0 fc d5 d4 3c b4 fc 27 3d ce 82 0f bd 54 c4 98 3c
       0.025980942 0.04101248 -0.035036854 0.018648304
0000f0 48 d9 f9 bc 40 3a 85 bd 74 82 0e 3d 32 dc e5 3a
       -0.030499116 -0.06505251 0.03479238 0.0017536937
000100 4c ae d5 3c bd 87 bc bc 7b 5d 8b 3d 91 9f 84 3d
       0.026084088 -0.023013944 0.06804939 0.064757474
000110 7b 3d 06 3d 12 c8 5c bd 0c ae 58 3d 5e c9 8e 3c
       0.032773476 -0.05390174 0.05290036 0.017430004
000120 0e 29 59 3d 9d 0a 72 bd 2c 4a 42 3d a2 32 97 3d
       0.05301767 -0.059092153 0.047434017 0.07382704
000130 ec 5b bd 3c fb 87 1d bd 63 ef b3 bd 95 69 01 3d
       0.02311512 -0.03845976 -0.08785894 0.03159483
000140 b0 c7 18 3d 1b 5d 77 3c 33 f5 5f 3d aa b6 42 bd
       0.03729981 0.015097882 0.0546772 -0.047537483
000150 8f f4 50 bc c7 3e 96 bd bd d9 20 b9 bf 1f 7d bc
       -0.01275362 -0.073361926 -0.00015339903 -0.015449463
000160 81 e4 88 bd c7 05 5a bd 38 40 ae bd 88 30 32 3d
       -0.06684209 -0.053228166 -0.085083425 0.043503314
000170 f5 f9 a6 bc f7 86 ea bc 9d 08 5a bd 2c e7 f7 bc
       -0.02038286 -0.02862881 -0.05323087 -0.030261599
000180 9f e3 95 bc f9 98 f1 3c 4e 38 ca 3c 2f 0f e1 3d
       -0.018297015 0.029491888 0.024685051 0.10989224
000190 40 1f 1b bc c6 89 bc bd 94 b8 27 bd f1 1c 5f bc
       -0.0094679 -0.09205966 -0.04094751 -0.01361774
0001a0 2a 1f 7e bc ab 16 c1 3c c9 a2 ce bd cb fa 77 bd
       -0.01551036 0.02357038 -0.100896426 -0.06054191
0001b0 ef 87 7d 3d 37 36 43 3d 34 96 89 bb 13 3a 39 3c
       0.061897215 0.047659125 -0.004198814 0.01130535
0001c0 3e 27 ef bc ca 4d 53 3c 9a c2 07 3d f4 c2 34 3d
       -0.029193517 0.012896964 0.03314457 0.044131234
0001d0 7e 4b b1 bd a2 6f 56 bc f4 cd 7a bc f9 5f 1a bd
       -0.08656977 -0.013088139 -0.015307892 -0.037689183
0001e0 0c 9a 6f bd 5f d0 cf 3c a1 06 f4 3b 8c c7 0c 3d
       -0.05849652 0.025367914 0.0074470793 0.03436999
0001f0 05 8c ad 3d 11 cb 0b 3d 82 a4 26 3d f9 8f e8 bc
       0.08473972 0.034129206 0.04068423 -0.028388964
000200 b0 ea 9b bc 93 ef 3e 3d a7 c2 7e bd 6c f2 e3 3c
       -0.019032806 0.046615195 -0.062197354 0.027825557
000210 73 27 13 bd 15 19 74 bd cd fd 29 bd e7 14 9b bb
       -0.035926294 -0.059594233 -0.04150181 -0.0047327164
000220 2e 83 c9 3c 51 31 d6 bc a7 df 7e 3d 47 e1 8e 3d
       0.024598684 -0.026146563 0.06222501 0.06976562
000230 fe c7 36 3d ad 18 1d bd 30 55 27 bd db cf f9 bc
       0.04462432 -0.03835361 -0.040852726 -0.030494621
000240 14 a3 07 bb 3d c0 89 3d 53 ff 55 3d 4b 45 56 bd
       -0.0020696567 0.0672612 0.05224545 -0.052312177
000250 df ad 4f 3d 75 90 ee 3c 4b 28 3c bd ac b5 27 bd
       0.050702926 0.029121617 -0.045936864 -0.04094474
000260 55 9a d8 3c af 52 6d 3c d8 cd b9 bc d1 50 5d bc
       0.026440779 0.014485045 -0.022681162 -0.013508038
000270 07 8c 3f bd 1d 36 31 3c b7 90 f2 bc 12 f3 52 3d
       -0.0467644 0.010816124 -0.029610021 0.05150134
000280 5a 64 1a bc 6e 01 39 3d 75 7a 81 bb f1 5a 61 3c
       -0.00942334 0.04516738 -0.0039513656 0.013754592
000290 5b f3 70 3d c0 4e d1 bc d2 16 18 bd 5b 55 99 bb
       0.05882583 -0.025550246 -0.03713114 -0.0046793646
0002a0 80 f4 95 bc 91 13 97 bb 39 a5 c9 3c 5b cf 7c 3d
       -0.018305063 -0.004610487 0.024614917 0.061721187
0002b0 82 5f 86 bc 74 b2 b3 3c e9 6c 51 bd 4b 43 d2 3c
       -0.016402964 0.021935679 -0.051129255 0.025666853
0002c0 86 e8 6c bd 67 62 37 3d 5c 34 82 bc fe a3 1e 3d
       -0.05783894 0.04477158 -0.015894108 0.038730614
0002d0 8e 1d 9f 3d 10 4a d5 3d 8c 79 5c 3c fd 18 ab bd
       0.07769309 0.10414517 0.013456713 -0.083543755
0002e0 0b 12 4c 3d 62 e3 d5 3d d7 84 c5 bd b5 0a 5f bd
       0.049821895 0.104437605 -0.09644478 -0.05445357
0002f0 3a 9b 9f bb 1a 29 63 bc 98 df d8 bc da 39 87 3d
       -0.0048707994 -0.01386478 -0.026473805 0.06602831
000300 00 7b 64 bc bf 70 aa bc 11 a2 d5 3c 1c f1 04 bd
       -0.013945341 -0.020805715 0.026078256 -0.032456502
000310 f9 a2 1f bc 7e 15 54 bb da a2 16 bc 09 4e 1d bd
       -0.009743446 -0.0032361443 -0.0091941 -0.0384045
000320 56 ad 45 bd 98 fa 80 3d cf 4d 2f bb 88 c1 a2 bc
       -0.04826101 0.06297797 -0.0026749258 -0.019867674
000330 a9 36 f3 bb d4 12 06 bc d8 c3 cf 3b ba c2 80 bb
       -0.0074222875 -0.0081832 0.006340485 -0.003929463
000340 e2 b6 6a bc 5e f9 b2 3c 3d a6 42 bc f1 35 e6 bc
       -0.014325829 0.021847423 -0.011880455 -0.028101893
000350 bc 2c 9e 3d 28 f0 1e 3d 1a da 94 bd 69 6f 51 3c
       0.07723376 0.03880325 -0.07268162 0.01278291
000360 7f 68 8f 3d 6d 9c c0 bb 02 4d 42 3d a3 e0 37 3d
       0.07002353 -0.0058780224 0.04743672 0.044891965
000370 1f 7d ab 3c 39 d1 e5 3c 6d f4 18 bd 00 fd 14 bd
       0.020933686 0.028053867 -0.037342478 -0.036374092
000380 df 1d 51 bd 22 ce 12 bd e7 82 d2 bb a6 b9 1c bd
       -0.051053878 -0.035841115 -0.006424296 -0.038262986
000390 e7 b8 c5 3b 6d 1a ad bd cb 3d ec bc 33 bf 03 3c
       0.006034005 -0.08452306 -0.028838059 0.008041191
0003a0 53 c6 88 3d 57 26 9b bc a9 2d 46 3d c3 42 53 3c
       0.06678452 -0.01893918 0.04838339 0.012894335
0003b0 34 7b 82 3d 73 ca 1f 3d 8c b0 bf bc 78 c0 07 3d
       0.063711554 0.03901143 -0.023399614 0.033142537
0003c0 ef 4d 12 bd 57 a8 34 3c cc 7e 39 bc 09 70 8b bc
       -0.035718855 0.0110264635 -0.011321735 -0.017021196
0003d0 45 c8 d1 bb 96 46 87 3d 9c 17 2e bd f5 9d 38 3d
       -0.006402048 0.0660526 -0.042502984 0.045072515
0003e0 17 b3 c7 3d 45 5c 6e 3d 25 44 62 3a d1 38 1a 3d
       0.097509556 0.058193464 0.000863137 0.03765184
0003f0 ce 8b d5 3d 03 f6 b3 bc 7b 5c 1d bd f5 80 02 bd
       0.10427056 -0.021967893 -0.038418274 -0.031861264

fc.bias f4 [10]
000000 ac 49 91 3b da 42 c3 bc 85 00 b2 3c c3 0d 04 3d
       0.004433831 -0.023835588 0.021728763 0.032239687
000010 e9 d7 66 bd 16 f9 73 3d 14 0f a1 3c 0d dd 75 bc
       -0.05635825 0.05956372 0.01966051 -0.015006316
000020 3f 7e 02 bd b5 44 87 3c
       -0.03185868 0.016512254

momentum_buffer f4 [10, 1, 5, 5]
000000 30 66 b5 3b ad c3 da 3a 3c a0 b9 3a bf 37 a4 3c
       0.0055358633 0.0016690396 0.0014162133 0.020046113
000010 df 53 13 3c 9c 51 bf b9 34 51 d9 ba d5 97 d2 3b
       0.008992164 -0.00036491163 -0.0016579987 0.006426791
000020 1a 99 3a 3c c0 8a ce bb e6 41 63 bb d3 67 2e 3b
       0.011389041 -0.0063031614 -0.003467673 0.0026612177
000030 50 f2 9c 3c 1a c4 f4 3b db df 5e bc 43 41 7e 3b
       0.019158512 0.007469666 -0.013603176 0.0038796223
000040 2a e8 9c 3c e5 f0 fd 3c f7 06 16 3c 80 ef 33 b9
       0.019153673 0.030998657 0.009156934 -0.00017159991
000050 5f 2a 1b 3c 6e e3 dc 3c 46 f3 e2 3c 61 c0 ae 3b
       0.009470551 0.026963916 0.027703892 0.005332992
000060 12 28 db 3b ce 55 fd 3b 00 d7 72 3c f3 c8 16 bc
       0.0066881264 0.007731176 0.014821768 -0.009203183
000070 06 ae 9e bc 07 12 9b bc a2 9c 3a 3d 58 e6 fb 3c
       -0.01937009 -0.018929495 0.045559533 0.030749485
000080 ed 7d 23 bc fc 0e 82 bc 74 30 0b bc f2 4b 43 3d
       -0.0099787535 -0.015876286 -0.008495439 0.04767985
000090 ff a2 20 3d f0 6f f7 3b 28 70 3f bb 40 e9 44 3c
       0.039217945 0.007551186 -0.0029211137 0.012018502
0000a0 64 a6 15 3d b3 b9 0a 3d cb 7e c3 3c 00 a2 db 3b
       0.036535636 0.033868503 0.02386417 0.0067026615
0000b0 84 6d a6 3c 86 6d dc 3c 7b b5 fa 3c 2c 34 f8 3c
       0.020315893 0.026907694 0.030604115 0.030298315
0000c0 05 8d 4b 3c 1c d4 6f 3c 55 a2 52 bd 98 77 15 bd
       0.012423758 0.014637973 -0.051424343 -0.036491007
0000d0 6a ff 8e bc 51 50 f8 bc 83 ab 50 bd cb ad f6 bc
       -0.017455775 -0.030311735 -0.050944816 -0.030112168
0000e0 9e 52 a0 bc 9d 0c 77 bc c5 06 11 bd 32 5b 5d bd
       -0.019570645 -0.015078691 -0.035406847 -0.05404205
0000f0 df 5d 16 bd 72 c3 81 bc 33 65 18 bc 28 65 10 bd
       -0.036710616 -0.015840266 -0.0093014715 -0.03525272
000100 c8 3e d0 bc a9 a2 e5 bc d8 88 f5 bb cc d7 cd ba
       -0.025420561 -0.028031664 -0.0074931197 -0.0015704571
000110 4f 82 c0 bb ca b3 60 bb e4 52 c4 bb cc ae 46 3c
       -0.005874909 -0.003428685 -0.0059913266 0.012126636
000120 d2 ee d0 3c 34 37 64 3c 24 c7 a2 3b 81 32 d8 bc
       0.025504503 0.013929177 0.004967587 -0.02639127
000130 5e 7f cd bc 50 1b ab bc 1a 21 6b 3b d6 0e 72 3c
       -0.025085147 -0.020887047 0.0035877884 0.014774045
000140 dc d7 a9 bc c8 20 8f ba 34 58 c7 3c 66 5c 2d 3d
       -0.020732813 -0.0010919804 0.02433405 0.042324446
000150 5a 8c 6e 3c 3b 4e 08 bd b0 d4 1c 3a aa 43 0e 3d
       0.01455983 -0.03327773 0.00059826206 0.0347325
000160 e5 9e 1c 3d d1 d1 86 3c a9 5b 0a bd 20 a5 6d 3a
       0.03823747 0.01645747 -0.03377882 0.0009065438
000170 a8 29 08 3d ca d9 b6 3c 18 66 fb 3a 5a f0 54 bc
       0.03324285 0.022320647 0.0019180207 -0.012996757
000180 41 b5 7e 3c 87 7e e0 3c f2 e4 b8 3b c8 86 92 3a
       0.015546144 0.027404083 0.005642527 0.0011179084
000190 7f f6 3a 3c 30 f9 33 3c d0 a6 b8 3b f3 19 49 bc
       0.011411308 0.010984704 0.00563512 -0.012274253
0001a0 20 cc b2 bc 24 6c 46 bb d0 53 3d 3a 70 cf c8 b8
       -0.02182585 -0.003027686 0.0007222267 -9.5753814e-05
0001b0 7a 59 87 bc 44 53 c3 bc 6d d4 21 bc c0 31 ac 39
       -0.016522158 -0.023843415 -0.009877306 0.00032843463
0001c0 5c 0e 21 bc 68 e6 9b bc b6 5b 33 bc 00 a5 2e b9
       -0.009830084 -0.019030765 -0.010947159 -0.000166554
0001d0 90 5a 76 3a 08 52 47 bc 61 ee 67 bc 70 e2 e9 3a
       0.000939765 -0.012165554 -0.014155955 0.0017843973
0001e0 1d 6d 18 3b 76 1c 25 3b 72 2b 83 ba 19 e9 ca 3a
       0.0023258396 0.0025193966 -0.0010007455 0.0015480845
0001f0 e8 45 dc 3a aa 21 13 bb b0 97 d1 bb e4 d6 2f bc
       0.0016805502 -0.0022450485 -0.0063962564 -0.010732386
000200 16 cd 2e bc 3a 5d 37 bc 1e 9f fd bb fc 1f 60 bb
       -0.0106690135 -0.011191661 -0.0077399155 -0.0034198752
000210 70 0d 3b bb ed 02 61 bb 4e 43 ef bb 74 76 37 3a
       -0.0028541945 -0.003433402 -0.0073017245 0.0006998547
000220 ae 48 98 bb 7f 24 42 3b e0 e3 09 3c 8c 7d 05 bb
       -0.004647336 0.0029623804 0.008416146 -0.0020369021
000230 04 dd 62 3c 41 c4 de 3b ea 7c 16 3c 5c 81 be 3b
       0.01384664 0.0067982976 0.009185055 0.0058137607
000240 10 1d 57 bb e9 5f c6 3c 55 00 3d 3c 2c 4e 8f 3b
       -0.003282372 0.024215655 0.011535724 0.0043733325
000250 d6 12 5c 3b 86 61 aa bb 24 46 07 3c 9c 13 4a 3b
       0.0033580563 -0.005199614 0.008256469 0.0030834442
000260 f9 9d ce 3b 8d 59 00 bc 4c 7b 3d bc e3 ef 4a 3b
       0.006305453 -0.007833851 -0.011565041 0.0030965738
000270 50 4e 06 ba 6e f6 e5 bb 9f 86 6e bb 7b bc 07 3c
       -0.0005123364 -0.007017902 -0.0036396158 0.008284683
000280 35 f6 d8 ba 42 87 2e bc 8c 28 6d bc 4f 04 29 bb
       -0.0016552868 -0.010652365 -0.014474999 -0.0025789922
000290 62 91 3c 3c 48 1c 12 bc c1 60 a6 bc 1a d5 91 bc
       0.011509271 -0.008917876 -0.020309808 -0.01780181
0002a0 42 2d 39 bb 1b 96 94 3b 0a 28 6b bc d6 4f c3 bc
       -0.0028255736 0.0045344955 -0.014352808 -0.02384178
0002b0 10 3e 81 bc 25 81 b4 ba b6 89 76 bb 64 42 b1 3c
       -0.015776664 -0.0013771398 -0.0037618703 0.021638103
0002c0 08 b8 f4 3c 1a 2d fb 3b 34 a0 1e 3b f0 32 b4 ba
       0.02987291 0.0076652886 0.0024204375 -0.0013748091
0002d0 50 90 bd 3c 56 b5 ba 3c 67 e6 52 bc 13 63 a4 bc
       0.023140103 0.022791546 -0.012872315 -0.020066774
0002e0 f8 e6 c7 bc c6 ff 19 3c da 29 9e 3a 75 d7 e1 bc
       -0.024402127 0.00939936 0.0012066916 -0.027568558
0002f0 88 ae ef bc dd 92 88 bc a8 3a 0e bc e0 06 fa b8
       -0.029258028 -0.016671592 -0.008680977 -0.000119222095
000300 d2 2a 05 bc 6a cc ba bc f7 64 bb bb 98 37 34 3c
       -0.008127885 -0.02280255 -0.005718823 0.010999583
000310 7d c2 d4 3c dd 28 a3 3c d5 3e 4e 3c 8e 6e 98 3c
       0.025971645 0.019916946 0.0125882225 0.018607404
000320 29 4d 5d 3c 74 ef 34 3b d6 e7 85 3c b6 9b e3 3b
       0.013507166 0.0027608545 0.0163459 0.0069460524
000330 84 b0 df bb 36 f2 3c 3c 37 2b 83 3c 7e 70 f9 3b
       -0.006826462 0.011532357 0.016011817 0.007612287
000340 5d 03 ff bb 1c 4d d4 bc 6a d3 e4 3c 4b c9 e6 3b
       -0.0077823834 -0.025915675 0.027932841 0.007043039
000350 be ed 89 bc 96 95 0f bd 56 0c 29 bd 64 02 d3 3c
       -0.016836997 -0.035054766 -0.04127153 0.025757976
000360 9f 0e 94 bc cb d8 24 bd 29 78 34 bd d7 9c 13 bd
       -0.018073378 -0.040245812 -0.044059906 -0.036038246
000370 b0 e4 d8 3b 1a 52 00 bd b8 86 02 bd 58 da 34 bc
       0.0066190585 -0.0313283 -0.03186676 -0.011038385
000380 30 e1 7b ba 06 02 e5 bc ce 0f ac 3b 1e fb fc 3b
       -0.00096084457 -0.027955066 0.0052509075 0.007720365
000390 c8 d5 40 bc 6e 28 d8 bc f2 90 cb bc b9 bb 52 3c
       -0.011769719 -0.026386466 -0.024849389 0.012862139
0003a0 ee a0 7e 3c 1e 91 e4 bb ec e9 0a 3c c6 b7 4f 3b
       0.015541298 -0.006975307 0.008478623 0.003169523
0003b0 e6 9a 56 3c 5e 91 e1 3b 3d 82 88 3c ef 02 0b 3d
       0.013098454 0.006883784 0.016663665 0.033938345
0003c0 6a 87 14 3d fe 7e 02 3d 7e 37 c1 3c be b2 ff 3c
       0.036261953 0.03185939 0.023586031 0.03121316
0003d0 3a 5a f0 3c 59 67 3a 3d 8a fb 22 3d 39 17 fe 3c
       0.029339898 0.045508716 0.039790668 0.031016933
0003e0 21 66 11 3d dd 77 bb 3c
       0.03549779 0.022884304

momentum_buffer f4 [10]
000000 6c 3b 70 3b bc 8c ec 3b 75 03 b6 bc 80 da d2 3b
       0.0036656512 0.0072189253 -0.022218445 0.0064347386
000010 d6 d9 28 bc 9a a2 e8 3b 02 76 c7 ba ee 09 77 bb
       -0.010305842 0.0070994617 -0.0015217664 -0.0037695128
000020 cc f8 c9 bc 40 8d 05 3c
       -0.024654768 0.008151352

momentum_buffer f4 [20, 10, 5, 5]
000000 16 31 3c bb c4 3c 01 3c aa e7 17 3c 28 e7 5e bb
       -0.002871578 0.007888023 0.009271542 -0.0034012292
000010 aa 1b 1e 3a 8b a9 c5 bb 9c 44 57 3c f2 e1 5f 3c
       0.0006031344 -0.006032174 0.013138916 0.013664709
000020 33 00 dd 3b fe d7 e5 3b 93 24 75 bb 16 e9 e7 bb
       0.0067444085 0.0070142737 -0.0037405833 -0.0070773466
000030 28 a7 e7 b8 6e 63 15 3c 22 5f 0c 3c 9a 6e e8 bb
       -0.000110460736 0.009117944 0.008567603 -0.007093263
000040 1a 51 c2 bb 11 b4 54 3a bc 85 b7 3b 54 2b 34 3c
       -0.005930078 0.000811399 0.005600659 0.010996658
000050 62 20 0e bb 29 1c 41 3b f8 a9 a9 3b 42 55 0f 3c
       -0.0021686782 0.0029466248 0.0051777326 0.008748354
000060 7d 12 4e 3c 1b f5 cd bc b1 b9 f6 bc c0 16 b4 bb
       0.01257765 -0.02514129 -0.030117841 -0.005495876
000070 c3 36 bc 3c da c2 26 3c 1b 02 1d bc 23 61 0c bd
       0.022975331 0.010178292 -0.0095830215 -0.034272324
000080 72 53 2b bc a9 9b 8c 3c 95 16 e4 3c 83 6a 5b 3c
       -0.010456907 0.017164068 0.0278428 0.013392094
000090 f0 21 96 bb 44 c9 42 bc 4f 96 86 bc 47 f4 d9 3c
       -0.0045816824 -0.011888806 -0.016429095 0.026605738
0000a0 82 78 8b 3c 82 6d 58 3c 10 4d 43 3a b0 10 ef 3a
       0.017025236 0.013209702 0.0007450143 0.0018239226
0000b0 33 79 8e 3c 62 77 6d bc 02 be 18 bb 23 10 66 3c
       0.017391777 -0.014493795 -0.0023306613 0.014041933
0000c0 e4 ce b6 3c d1 89 96 3c e0 d7 e2 bc ce a8 dd bc
       0.02231545 0.018376263 -0.027690828 -0.027058031
0000d0 34 fa 07 3c 7a 0b 1b 3c a1 b5 07 3b 32 b7 da bc
       0.008299399 0.009463185 0.0020707624 -0.026698682
0000e0 74 40 08 bd 79 84 3d bc 9a da 08 3c 93 a6 31 3d
       -0.033264592 -0.0115672285 0.0083529 0.04337175
0000f0 17 a5 f8 3a 32 51 3c bc 99 42 f6 bc 76 49 e6 3b
       0.0018970099 -0.011493968 -0.030061053 0.0070278
000100 05 84 1d 3d ce d1 fb 3a 6c 23 6b bb c8 81 24 3b
       0.03845598 0.0019212307 -0.0035879267 0.002510177
000110 bc b5 c2 3c b5 e4 b5 3c c2 16 ac bc 8e 66 ea 3b
       0.023768298 0.022203783 -0.021006946 0.0071533388
000120 74 ea af 3c 50 00 bd 3c a2 66 f1 3c 90 25 bb bc
       0.0214741 0.023071438 0.029467884 -0.02284506
000130 6b c6 1a bc 24 a9 95 3a 99 c2 8c bb 4c b4 08 3b
       -0.009446721 0.0011418206 -0.004295659 0.0020859418
000140 92 b3 f0 bc 3c 44 91 bc 70 ff 37 ba 9c f6 3a 3c
       -0.0293825 -0.017732732 -0.0007018959 0.011411335
000150 36 b7 00 3d 07 12 0c bc 92 ff eb bc 02 17 9e bc
       0.031424724 -0.00854922 -0.028808389 -0.01929808
000160 a8 57 d7 3c ba 4f 1e 3d 6e 34 06 bb 2a 67 49 bc
       0.026286915 0.038650252 -0.0020478028 -0.012292663
000170 a0 25 a0 b9 d8 bb 94 3c 04 24 de 3c 67 86 43 bc
       -0.0003054561 0.018155977 0.027116783 -0.0119338995
000180 c8 e3 13 3c 7d 1d 9f 3c 2e 86 ac 3c de 3b 02 3d
       0.009026475 0.01942324 0.021060076 0.031795375
000190 e2 ff e9 ba 73 91 5f bc a6 d6 82 bb 0e f7 4a 3b
       -0.0017852748 -0.013645518 -0.0039928732 0.003097001
0001a0 72 8c 54 3c a6 5e 4a 3b 29 f7 1b 3b ec 13 14 bc
       0.012972938 0.0030879169 0.0023798442 -0.009037953
0001b0 c3 90 d8 bb a1 8e 4b 3c e7 0c 15 3c e7 1e a5 3b
       -0.006609054 0.012424142 0.009097314 0.0050390842
0001c0 85 85 a4 3a e0 22 85 3a d2 4d af 3b f4 47 9c bb
       0.0012551999 0.0010157488 0.005349853 -0.0047693197
0001d0 6d 67 86 bb fc 6d 33 3c c8 03 0c 3c d2 d2 0a 3c
       -0.004101685 0.010951515 0.008545823 0.008473115
0001e0 3c 3c 46 bc fe 4f aa bb 31 d1 e8 3b 98 12 9f 3b
       -0.012099322 -0.005197524 0.0071050157 0.0048545115
0001f0 c2 a7 11 3c 93 8c 2d bb 48 f7 f2 bb d6 9d 5b 3b
       0.008890094 -0.0026481494 -0.007414732 0.0033510826
000200 26 68 7b 3c b8 b2 12 3c f3 93 d1 3b 42 68 b2 bb
       0.015344655 0.008953743 0.0063958107 -0.0054445574
000210 55 90 0a bc 90 d4 83 3a 41 e2 ec bb b6 f9 b4 3b
       -0.008457263 0.0010057855 -0.00722912 0.005522932
000220 d5 9d 39 ba 10 d0 0c 3b f6 70 54 bc 2b 2f 4d bb
       -0.0007080709 0.002148632 -0.012966385 -0.0031308632
000230 da df d0 3b 02 c5 dd 3a 85 29 82 bb 00 f9 42 bc
       0.0063743414 0.0016919675 -0.0039722347 -0.011900187
000240 90 8b 38 3b 31 2c b6 3b 99 60 98 ba 99 01 fc bb
       0.0028159358 0.0055594672 -0.0011625468 -0.00769062
000250 87 08 a4 3a 06 25 84 3b dc 8d 49 3b ac 42 3a 3b
       0.0012514748 0.004032734 0.003075472 0.0028421087
000260 f7 6d ce 3b 9b 55 1b ba 18 81 7a 3b 88 e6 61 bb
       0.00629973 -0.0005925537 0.0038223919 -0.0034469683
000270 e8 d9 2d 3c 59 a7 e2 3b 3c 44 1b 3b ab 4f 04 3b
       0.010611035 0.006916922 0.0023691794 0.0020189087
000280 d3 a0 07 ba f2 43 8e 3b ce 91 b8 3b 65 cc 2a 3c
       -0.0005173806 0.004341596 0.0056326156 0.010424708
000290 9e 72 ca 3b fb d0 34 3b 5c b5 8c bb b0 27 2b 3a
       0.006178214 0.0027590382 -0.0042940807 0.0006529046
0002a0 3e 01 81 3b 47 f0 97 3b fa f4 a2 3b 94 7e 60 ba
       0.0039369157 0.0046367976 0.004973051 -0.00085637835
0002b0 f1 a5 0a 3b 2f 20 f4 3a fc b9 a1 3b af f5 90 bc
       0.0021156038 0.0018625314 0.004935501 -0.017695276
0002c0 88 00 d2 bc 00 57 63 bc 7f 07 c7 bb 90 d3 3e ba
       -0.025635019 -0.013875723 -0.0060738917 -0.000727945
0002d0 6f 3b 16 bc 37 f7 2c bc bd c8 90 bc 48 13 cd 3b
       -0.0091694435 -0.0105569875 -0.017673844 0.006258402
0002e0 39 4b 28 3d a0 c7 57 3c c8 c3 7a bb ae ab 92 bc
       0.041087363 0.013170153 -0.0038263667 -0.017904129
0002f0 52 b2 41 bb f3 c4 8e 3c 5a 12 dc 3b a0 91 8e ba
       -0.002955575 0.017427897 0.006716055 -0.001087714
000300 e4 08 20 3c 34 27 9c 3c 7a 12 96 3c 01 27 fa bc
       0.009767745 0.019061662 0.018319357 -0.030536177
000310 0c e2 ca bb 76 05 36 3c e9 86 b4 3c b2 16 ac 3c
       -0.0061914977 0.0111097 0.022036986 0.021006916
000320 b7 48 87 bb 48 1a 52 bc 3a 99 81 bc cc 1d 70 bb
       -0.0041285413 -0.012823649 -0.015820134 -0.0036638854
000330 ec 2d b6 3c d0 2d 1c 3c f2 57 0d bb ec b5 c5 bb
       0.022238694 0.009532407 -0.0021567312 -0.0060336497
000340 ee 21 97 3b 23 43 5a 3c ac 3a 25 3c 7c 2f a0 3b
       0.004612199 0.013321671 0.010084789 0.004888473
000350 82 01 57 3c 5f 9b 3c 3c 69 c6 9e 3b 54 e3 5d bc
       0.013122918 0.011511653 0.0048454297 -0.013542969
000360 ba 81 b3 3b 24 a5 46 3c f9 54 53 3c 4f 21 2a 3c
       0.005478111 0.0121243335 0.012898677 0.010383918
000370 b4 a4 2a bc 48 46 fe ba ff c3 c4 3b 16 52 18 3c
       -0.010415245 -0.0019399608 0.00600481 0.009296915
000380 6d 6d 1a 3c 8f 17 a9 bb 61 26 d1 bc b1 c4 32 bc
       0.009425503 -0.005160279 -0.025530996 -0.010911153
000390 70 43 56 3b 12 90 3c 3b ce c1 db 3b 6a de ab bc
       0.0032694004 0.0028772396 0.006706453 -0.020980079
0003a0 10 36 cc bc 0b 9f 05 bd 60 63 67 b9 f6 c3 8a 3c
       -0.024928123 -0.03262238 -0.00022066897 0.016939145
0003b0 cc ec bf 3a 5b 70 e0 bc 0b fb dd bc 11 6c b9 3c
       0.0014642715 -0.027397325 -0.027097246 0.022634538
0003c0 9e 32 b7 bb 42 1f 6f bc 6a 0e 7f bc 69 79 07 3c
       -0.005590751 -0.014594855 -0.015567401 0.0082686925
0003d0 68 33 9b 3c 42 29 b2 bc b2 ac bb bc 32 a5 22 3c
       0.01894541 -0.021748189 -0.022909496 0.009927081
0003e0 f8 1b b8 3c 70 31 a4 3c 21 f5 92 bb 29 76 f5 bb
       0.022474274 0.020043105 -0.004484788 -0.0074908924
0003f0 1e 47 0b bc 94 5b 66 bc e0 02 cd bb ca 6a f9 3b
       -0.008500842 -0.01405992 -0.0062564462 0.007611607

momentum_buffer f4 [20]
000000 a3 56 29 3c 90 31 5d 39 c2 98 7b bb b2 c5 9e 3b
       0.010335597 0.00021094666 -0.0038390611 0.0048453445
000010 10 ad 31 3a 10 52 c5 bb 14 7b 2b bb 82 cc 74 3c
       0.00067778025 -0.0060217455 -0.002616589 0.014941337
000020 c0 da 1f bc 82 2a 5c 3c d0 7b c1 3b 34 f6 be bb
       -0.009756744 0.013437869 0.005904652 -0.0058276895
000030 2a 9a 58 3c 82 97 26 bc 7b de fd bb c8 47 83 3c
       0.013220349 -0.010167958 -0.007747469 0.016025439
000040 56 b6 e5 3b 74 f1 16 3a 83 9a a7 3c 42 8a 2a 3b
       0.0070102615 0.0005758025 0.02045942 0.002602235

momentum_buffer f4 [10, 320]
000000 a7 ab a2 ba 86 78 d1 bb 02 79 c2 b8 11 bf 5c bb
       -0.0012410776 -0.0063925413 -9.27318e-05 -0.003368322
000010 d2 ed 33 bd fd 67 89 bd 72 46 53 bd c0 02 c0 b8
       -0.043927975 -0.06709287 -0.051580854 -9.155786e-05
000020 8a 9e da b9 1e 34 cb bc 9f 4a 48 bc 5e d5 39 bd
       -0.0004169832 -0.024805125 -0.012224822 -0.0453695
000030 93 3c 47 3a 1f 76 20 3a 28 ef c4 3a 65 f1 26 bd
       0.0007600274 0.0006121117 0.0015024887 -0.040757556
000040 58 85 16 be b4 f5 12 be 3b 4c f4 bd 26 99 35 bd
       -0.14699304 -0.14351541 -0.11928602 -0.044335507
000050 2e 5b 52 bd b4 73 10 bd 08 5e a9 bd 49 51 9e bd
       -0.051356487 -0.035266593 -0.08269888 -0.07730348
000060 e6 95 8a 3b 44 f8 20 3c b8 7d 2a bb 67 3a 70 3b
       0.004229295 0.009824816 -0.0026014876 0.0036655904
000070 ef 31 02 bd 60 f3 ce bb f9 06 2c bc 5d 10 42 bd
       -0.0317859 -0.0063156337 -0.010499709 -0.047378886
000080 e4 3f ba bc fa 5f 9d ba 09 25 43 bb f3 fc 39 39
       -0.022735544 -0.0012006753 -0.0029776713 0.00017737206
000090 6d 4c 1d bd 5b c0 18 bd e6 f5 12 bd bd 55 11 bd
       -0.038402963 -0.03729282 -0.03587904 -0.035482157
0000a0 b0 bf e1 bb f5 d4 fa bb 2f 98 8f bc 8a c0 18 bd
       -0.006889306 -0.007654781 -0.017528621 -0.037292995
0000b0 b0 cd b0 bb 8c 5c 96 3a 93 a5 ba 39 3b ac 51 38
       -0.0053956136 0.0011471673 0.00035600047 4.9989885e-05
0000c0 d0 10 2d 39 62 bf 49 bb ff 52 9c 3a 80 85 18 3b
       0.00016504829 -0.003078424 0.001192659 0.0023272932
0000d0 9b a7 bc bc 4d f1 49 bc ce f0 41 bc 36 b3 51 bb
       -0.02302914 -0.012325597 -0.0118371975 -0.0031997687
0000e0 7d e3 c1 ba 6e c1 01 bd 93 25 e0 bc 26 9a 68 bc
       -0.0014792528 -0.03167861 -0.027361667 -0.014196908
0000f0 ac e9 90 39 0a fd b3 bc a2 18 89 bb f0 0a 33 bc
       0.0002763992 -0.021971244 -0.0041838447 -0.010927901
000100 cd a2 4f bd e1 09 31 bd 5f 5f 30 bd 46 ed 21 bc
       -0.05069237 -0.043222312 -0.043059703 -0.009883231
000110 3e c2 47 bd 69 a2 fe bc 4f a3 6d bd 7b ce a1 bd
       -0.04876923 -0.031083303 -0.05801707 -0.07900711
000120 e5 df 1c bd b8 e2 45 3a 6e 36 af bc f9 5c 4f bd
       -0.03829946 0.00075487373 -0.021388259 -0.050625775
000130 8e 20 88 bd 9d 29 12 bd 82 3a 0c ba 24 7f c3 bb
       -0.06646834 -0.035684217 -0.00053492945 -0.005966084
000140 6a 6c 9f bd ae 01 a0 bd de 2c 91 bd 80 33 14 bd
       -0.0778435 -0.078128204 -0.07088636 -0.036181927
000150 a0 e6 60 3a 79 cc 60 3b 84 e8 c7 ba 65 da 1b bc
       0.00085792877 0.0034301563 -0.001525179 -0.0095125185
000160 3c 53 84 bc f4 68 a1 38 6c 21 ec ba c4 1e bf b8
       -0.01615297 7.696627e-05 -0.0018015332 -9.11332e-05
000170 5f e9 3e bd 20 b0 73 bd f9 86 c8 bc 90 7f b2 bc
       -0.04660928 -0.059494138 -0.024478422 -0.021789342
000180 1b 71 50 bd fa 64 91 bd 0d 4e be bd d7 ca c5 bd
       -0.050889116 -0.07099338 -0.09292231 -0.09657829
000190 02 68 71 b9 85 90 67 39 bb a0 02 3c ae c1 81 bc
       -0.00023022297 0.00022083714 0.007972891 -0.015839424
0001a0 2f 0d 97 bc 5a 4d 56 bc 28 b4 67 b9 ac 2f e1 ba
       -0.018438904 -0.0130799655 -0.0002209699 -0.0017180345
0001b0 be e9 ea bc 4d a9 3a bd 06 1d 18 bd 6a 5a ec bc
       -0.02867591 -0.045571614 -0.037137054 -0.028851707
0001c0 01 2a 2c bd 58 00 39 bd bc a1 79 bd 8a b4 4a bd
       -0.042032246 -0.045166343 -0.060945258 -0.04948858
0001d0 0a 1a eb bb 21 95 36 3b e2 ad 4f 3a c2 3b 16 3b
       -0.007174735 0.0027859884 0.0007922334 0.0022923802
0001e0 08 03 66 bc 2f 6f e2 bc 62 d3 a1 bb 05 34 07 bd
       -0.014038809 -0.027640907 -0.004938529 -0.033008594
0001f0 89 26 0d bd 21 ce 82 bd ef 56 0a bd 08 f9 0f bd
       -0.034460578 -0.06386972 -0.033774313 -0.035149604
000200 03 13 a1 bc 0e ea 77 bc fe 02 7b bc 62 ec 20 bc
       -0.019662386 -0.015131487 -0.015320538 -0.009821983
000210 ec 95 0e bd 2c 9e b9 bc 78 de a3 bc b0 fe 02 bd
       -0.034810945 -0.02265843 -0.020003542 -0.03198117
000220 ed 3e 09 bd f6 4b a4 bb 90 fe 1a bd 2b b8 2a bd
       -0.033507276 -0.005013938 -0.037840426 -0.041679543
000230 ae 8a 2f bd d2 99 c0 bc 57 be d6 bc a7 fa 52 b9
       -0.042856865 -0.023510847 -0.026213808 -0.00020120536
000240 7c 88 2e bd 02 9f b2 bc 8c 87 37 bc 19 95 db ba
       -0.04261063 -0.021804336 -0.0112017505 -0.0016752809
000250 e1 df 7b 3a f8 61 51 bb 56 7a 87 bb 14 1c 8f ba
       0.00096082507 -0.0031949263 -0.0041344566 -0.0010918402
000260 28 29 fa bb 53 2c d5 bc 35 bc b8 bb 6b 18 df bc
       -0.0076343007 -0.026022112 -0.0056376704 -0.027233323
000270 9d 31 99 bc 1b 08 60 bc 69 0d f2 bc 7f d5 3c bd
       -0.018700415 -0.0136738075 -0.02954741 -0.046102043
000280 05 83 1b bd f3 51 10 bd ad b0 12 bd 69 e2 fd bc
       -0.037966747 -0.035234403 -0.035813022 -0.03099175
000290 3e e7 cb 39 b6 41 3a bc a6 37 58 ba e2 59 2f bc
       0.00038891466 -0.011368206 -0.00082480384 -0.010702582
0002a0 43 cf d2 bc 9f b5 a2 bc d3 48 c0 bc 67 b0 2b bd
       -0.025733596 -0.019861994 -0.023472225 -0.041916277
0002b0 e3 fb 04 bd 55 13 00 bd 0a 0e 15 bd aa 2b d0 bc
       -0.03246678 -0.031268436 -0.03639034 -0.025411446
0002c0 f4 ef 49 bb 0e 26 29 bc f8 26 ad bc 6e 34 0b bd
       -0.003081319 -0.010324014 -0.021136746 -0.033985548
0002d0 31 a2 a9 bc 49 e4 58 bd a5 12 93 bd 1c e5 9e bc
       -0.020707222 -0.052952085 -0.071812905 -0.019396357
0002e0 0d 8e 3d bb db 9c 64 bd bc f7 8f bd 77 56 3c bc
       -0.002892378 -0.05581365 -0.070296735 -0.011495224
0002f0 29 f0 07 bb 94 7b 4b bd 99 45 4b bc 02 1d 8f bd
       -0.0020742512 -0.0496784 -0.01240673 -0.06987955
000300 93 68 17 b9 3c 9a a5 3a c1 bc 77 bc cd af 3b bd
       -0.00014439439 0.0012634466 -0.015120686 -0.045821954
000310 59 2e b4 ba e1 fb c2 ba 69 b2 8c 39 72 46 70 3b
       -0.0013746723 -0.0014876091 0.00026835807 0.0036663082
000320 a2 21 6b bb 57 3a 04 bd d1 02 bd bc 1c a8 13 bc
       -0.00358782 -0.0322822 -0.023072632 -0.009012248
000330 e3 20 7d b8 90 de 11 bd 20 13 1f bd b6 33 91 ba
       -6.035053e-05 -0.035612643 -0.0388366 -0.0011078033
000340 7d fc 99 bb db b7 e6 bc ae ed 12 bd c7 ff 89 bd
       -0.0046992884 -0.028163841 -0.0358712 -0.06738239
000350 28 5c 35 bb 8e bc 9a bc 74 8a 23 3a 64 06 1c bd
       -0.0027673338 -0.018888738 0.00062385877 -0.038092032
000360 20 2e f1 bb 79 33 2f bd 8a 09 40 bb 2b db 8e bd
       -0.007360235 -0.042773698 -0.002930256 -0.06975397
000370 90 36 65 bb dc c3 e2 bc ed 97 21 bd 42 ef 79 bd
       -0.0034975149 -0.027681284 -0.03945153 -0.06101919
000380 7b 70 9a bc 81 d2 ca bc 51 14 11 bd 80 16 17 bd
       -0.018852463 -0.02475858 -0.035419766 -0.036886692
000390 43 c0 e2 bc 47 95 c8 bc f4 cc ac bc 29 0c 4f bd
       -0.027679568 -0.024485243 -0.021093823 -0.050548706
0003a0 82 32 f5 bc 42 8c 3f bc ba dd d3 bc 24 7a 52 bd
       -0.02993131 -0.011691155 -0.025862563 -0.051386014
0003b0 23 e3 10 bd a6 5d 09 bd 96 78 1a bd f3 e0 e6 bc
       -0.035372864 -0.033536576 -0.037712656 -0.028183436
0003c0 2e 26 a8 bc 6e 31 eb 3a ed 63 ed ba 30 f9 48 bc
       -0.020526018 0.0017943808 -0.0018111445 -0.012266442
0003d0 7b 52 f2 bb 31 b9 e4 bc 4f 74 a0 bb 95 2e eb bc
       -0.0073950863 -0.027920337 -0.0048966776 -0.028708735
0003e0 21 46 d0 bc cc 46 92 bd 33 45 09 bc 82 87 77 bd
       -0.025424065 -0.0714241 -0.008378315 -0.060431965
0003f0 13 5f 27 bd 41 06 96 bd 15 13 43 bb 2e 4f 34 bd
       -0.040862154 -0.073254116 -0.0029766012 -0.044020824

momentum_buffer f4 [10]
000000 a1 d8 33 bc bc 2c a8 bb cd 38 f6 3b 6c af d2 bc
       -0.010976941 -0.005132286 0.0075140954 -0.025718413
000010 6c c6 fe 3c 60 02 e6 3c 0b a6 50 bc d8 92 c5 3c
       0.031100474 0.028077304 -0.0127349 0.024117872
000020 a4 0b 48 3b a9 f8 20 bd
       0.0030524516 -0.03929964
