oracle/train/iid/checkpoint/mnist/ckpt_3_1.pth (torch, 71489 bytes, 12 tensors)

conv1.weight f4 [10, 1, 5, 5]
00000000: 794c 5c3e 9d3d 3b3e 2e63 f63d 6658 2d3d
00000010: 64d1 cf3d e52b 24be ee58 a63d 468f 813b
00000020: fa4b f8bd 7b9c 76bc 7546 acbd 8b8d f9bc
00000030: 5f91 c73d 8fce 633d 5796 0f3e 4af7 bbbc
00000040: ceb1 25be d606 9ebd 693b 423c ed42 c6bd
00000050: 94a0 40bd 3056 27ba bef8 20be 12b0 af3c
00000060: f932 9b3c 4de5 7e3e e4b6 ccbd 3787 893d
00000070: 2456 303e 84d5 d2bd ac26 763e 7d8e 283d
00000080: c712 94bc 92ca 57be 036c 223e 2718 883e
00000090: 8ef1 cf3d 4dfd 243d f648 1dbd f319 073e
000000a0: 3f19 f93c 5b5a f9bc 8c69 ac3d 3a51 11be
000000b0: 557f 94bd 0fdc 0e3e 2462 2f3e dd83 013e
000000c0: 4a68 30bd cbe2 793e 229e b33c ca3a 3dbd
000000d0: 6cbd 7e3e a8d1 ab3e fa87 993e b97e 8d3e
000000e0: 0bfc de3e 6df2 e83e 2149 9b3d 34a2 5c3e
000000f0: 5179 a93e 494e 6c3e 93e8 b7bb c98a abbd
00000100: ec73 3abd 3067 753e 2b34 873e 476a 423e
00000110: 895c a8bd c921 48be ce6f 2d3e 565e 7e3e
00000120: 2daf a0bd b49f 28be 5810 06be 19f0 c6bd
00000130: 034d 02be 8171 d13d cd80 04be 12cd 25be
00000140: 7058 d0bb 60e0 65bd b1c0 0e3c e896 4ebe
00000150: b6be 773d 452c c03d 9e44 c33d 984e 233e
00000160: 288f 4a3c 348f c3bd 942b 0ebe 04e9 5f3c
00000170: bc46 9b3d 8126 893c 5bbb 9ebb 0bec b63d
00000180: 4548 d13b 8c87 d23d b640 aabd d5d3 20be
00000190: 51f8 05be c8dd c13d 1314 383e 17f2 f3bd
000001a0: 1e24 2cbe 5369 49be b334 953d 0612 bd3c
000001b0: 42e1 663d d11e 9f3d 41d1 3fbe 6c8a 7c3d
000001c0: f280 02bc 3942 ae3c d1d8 43be fd06 6b3d
000001d0: 9038 b8bd a0e9 bcbd ffd0 47be a930 1dbe
000001e0: 5804 22be 6d4f 32be 7c52 f3bc 71b3 e6bd
000001f0: 3639 133e f5fa 863e 65ff a03e 1eb5 27bd
00000200: 950f 05be d3d9 3bbd a0a6 923e b183 673e
00000210: a306 8f3e df7d f43d b8e2 363e 74ff 653e
00000220: bb2d 753e 9670 86bd defb 0abe 804c 09be
00000230: 841c f13d adfd 8f3e b36f ab3c f86d 91bc
00000240: 0d62 823e b0ce 7a3e dbff ec3d 5fae 893d
00000250: ffd6 713d 2f17 cbbd 461c 143c c9da 32be
00000260: b254 8bbd a37c 033e 0c54 473d 3ef5 16be
00000270: 7247 353e d7d9 dcbd 31a8 353e 8a25 bbbd
00000280: 893e 07be 1441 173e 53c3 3e3e 2ac4 803e
00000290: daa3 6f3e d694 e93d df24 013e 0101 c1bd
000002a0: 1d88 bebc 814c 0e3e fcf1 f0bd 0152 15be
000002b0: ca8f 683d c182 bf3d 1238 a8bd ac62 bbbd
000002c0: 60f1 bdbc 9a0b 053e a9bd d0bd 250f ec3b
000002d0: 58fd 663d 43fc 1a3e 86d5 0fbe 3ed4 063e
000002e0: 827d 0d3e f77c e23c f9c0 063e d47d 103e
000002f0: 4700 403e 6818 453e 17f8 e83b 368b d2bd
00000300: 5b9f 30bd 34b0 983e 4af9 8f3e 9457 003b
00000310: f754 af3d f2cc 1fbd ec0d ff3c 74eb 8a3e
00000320: 86a4 40be a0a3 11be a481 3fbe 1996 c2bd
00000330: fbc7 4cbe 9d18 443d e4c7 063e bedc c7bd
00000340: ee95 0fbe 46a4 28bd bf6b 053e c070 17be
00000350: 36d0 11be 5b2a 3f3e b14e 5cbe 9e49 763c
00000360: 656f e83a dc9d 3b3e 5729 203e d4b1 2e3d
00000370: 7de1 d43d 1bcb dfbc 2738 f23d e60d 163e
00000380: 849c b7bc 4130 a03d c7d6 f0bb a9ac 4a3d
00000390: 48a8 1abe caef 4bbd c248 d83b 3e24 18bd
000003a0: c5c3 343e 3d12 45bd c725 ef3d 7967 24be
000003b0: db59 4cbe 66ab edbd 28e3 9dbd c80b c83a
000003c0: b81e 9bbd c8c0 14be e41c dfbb 3147 1c3e
000003d0: d69d 2b3e 7f84 1ebe cb01 c6bd 012f f5bd
000003e0: 72d6 673e e2a7 98bd
0.21513547 0.18285222 0.12030636 0.04232063 0.1014736 -0.1603237 0.08122431 0.003953847
-0.121238664 -0.015051956 -0.08411876 -0.030463 0.09744524 0.05561691 0.14022194 -0.022945065
-0.16181108 -0.077161476 0.011854985 -0.09680734 -0.04702814 -0.00063833874 -0.15719888 0.021446262
0.018945204 0.24892159 -0.09995821 0.06715243 0.1722036 -0.10294631 0.2403819 0.041151512
-0.01807536 -0.21073368 0.15861516 0.26580927 0.10153495 0.04028063 -0.03839966 0.13193493
0.030407546 -0.030438593 0.08418569 -0.14191142 -0.07250849 0.13951133 0.17127281 0.12647958
-0.043068208 0.24402921 0.02192599 -0.046198644 0.24876946 0.33558393 0.29986554 0.27635744
0.4355167 0.45497456 0.075823076 0.2154625 0.3310037 0.23076738 -0.005612442 -0.083760805
-0.045520708 0.23965144 0.26406989 0.18985854 -0.08220775 -0.19544138 0.16937181 0.24840674
-0.07845912 -0.16467172 -0.13092172 -0.09713764 -0.1272469 0.10226727 -0.12939759 -0.1619151
-0.006358199 -0.056122184 0.008712933 -0.20174754 0.06048461 0.09383444 0.09534572 0.1594795
0.012363233 -0.09548798 -0.13883811 0.013666395 0.07581851 0.016741993 -0.004844112 0.089317404
0.006386789 0.1027976 -0.08313124 -0.15705808 -0.13083006 0.094661295 0.17976408 -0.11911409
-0.16810653 -0.19669084 0.07285442 0.023079883 0.056367166 0.0776955 -0.18732168 0.061655447
-0.007965313 0.021271812 -0.19125678 0.05737971 -0.089951634 -0.09224248 -0.1951332 -0.15350594
-0.1582197 -0.17413111 -0.029702418 -0.112646945 0.14377293 0.2636334 0.3144485 -0.04094421
-0.12994225 -0.04586203 0.2864275 0.2260883 0.2793475 0.119380705 0.17859924 0.22460729
0.23943226 -0.06564443 -0.13572642 -0.13408089 0.11773017 0.28123227 0.020927286 -0.017752632
0.25465432 0.24492908 0.11572238 0.06722712 0.059042927 -0.09916531 0.009039944 -0.17466272
-0.06803264 0.12840514 0.048664138 -0.1474199 0.17703035 -0.10783737 0.17739941 -0.091380194
-0.13207449 0.14770919 0.18629198 0.2514966 0.23402348 0.11405341 0.12611721 -0.094240196
-0.023258263 0.13896371 -0.11764905 -0.14582063 0.056777753 0.09351111 -0.082138196 -0.091496795
-0.023186386 0.12992707 -0.10192425 0.007203954 0.05639395 0.15135293 -0.14046296 0.13166901
0.13817409 0.027647479 0.1315955 0.141105 0.18750106 0.19247591 0.0071096527 -0.10280459
-0.043120723 0.29821932 0.2811988 0.001958345 0.08561128 -0.03901381 0.031134568 0.2713276
-0.1881276 -0.14222574 -0.18701798 -0.09501285 -0.19998161 0.047875036 0.1316219 -0.097589
-0.14022037 -0.04117229 0.13029383 -0.14789104 -0.14239582 0.18668501 -0.21514393 0.0150322
0.0017733393 0.18321937 0.1564077 0.04265006 0.10394571 -0.027318528 0.118271165 0.1465374
-0.0224135 0.07821704 -0.007349822 0.049481068 -0.15103257 -0.049789228 0.0066004703 -0.03714394
0.17652805 -0.048113097 0.11677127 -0.16055097 -0.19956152 -0.11604957 -0.07709342 0.00152623
-0.075742185 -0.14526665 -0.006808864 0.15261532 0.16759428 -0.15480231 -0.09668311 -0.11971856
0.22640398 -0.07453896

conv1.bias f4 [10]
00000000: a5f5 10be 16d2 f0bd b5f8 793e d360 afbc
00000010: 8d9e 3dbe 32b5 2b3e 9793 873d 0a78 2a3e
00000020: 7c4b 82bd f67c 12bd
-0.14156206 -0.11758821 0.2441128 -0.021408474 -0.18517514 0.1676834 0.066199474 0.16647354
-0.06362054 -0.035763703

conv2.weight f4 [20, 10, 5, 5]
00000000: 1e30 fe3c b3c2 e9bc 4b78 3dbb f1dd aa3b
00000010: 2cf1 6fbd 5037 543d d102 c5bb 1682 7ebd
00000020: 15f3 bdba 40af 8abd 5bbe 2a3d 2b97 60bd
00000030: 1671 1a3c 99c8 7e3c d1e3 963c a602 b83c
00000040: 3746 8b3c 6185 84bc 8fe6 30bd bd78 6b3c
00000050: cbd1 39bd df98 3f3c 4dcc fbbc ba80 4e3d
00000060: 5a26 85bc a824 70bc a57f d9bb ab78 1fbd
00000070: 367d b53c 5ef8 4b3c 8ce1 823c 77f5 11bd
00000080: a06b 753d 99e9 493d c77c 3f3c ce96 4dbd
00000090: d02f 0a3d a5c3 843c 1a8e 1e3c 5589 d7bc
000000a0: bdee 5c3b 1cb2 cabb 0265 823d 0daa 543d
000000b0: 14ed 2e3d 19b0 6b3d 1014 993c 2d13 173d
000000c0: cf2a 903d bdcd 94bc 93a6 a3bd 007c d5bd
000000d0: bd88 453c 79c8 493c 2c90 e2bd 344b 3dbd
000000e0: 41c2 2f3d ced6 773d 894b 063d f7a8 edbd
000000f0: c09c 8c3d 28e3 e53c b73f 253d 9cb5 10bd
00000100: 99c1 2c3c ab2a 27bd 3f96 b7bc e823 0cbc
00000110: c1b8 81bb f910 f93a 3792 b63c 0772 263d
00000120: 8b53 703d 81cd 3b3d 2f99 003d 8b0d 98bc
00000130: b8a6 733d 24e1 66bb c745 ee3c e658 2c3d
00000140: 6219 cfbc e92c 923d 43ca 913c 3e45 b8bc
00000150: 1477 99bc 8f40 e9bb 1c54 11bd 37e0 69bb
00000160: ce8b 77bb ad4c 1cbd 8ec3 5d3d 5b5b 0e3d
00000170: 6da2 debc 300f 11bc c201 37bd cd3d 2dbb
00000180: b758 af3c 3b28 7b3c cf07 80bc cc8c 60bd
00000190: 42d5 673d c2d9 78bd 08f3 403d afd2 afbc
000001a0: 1583 94bc 3fd5 f3bc 6370 0abd dcb9 1c3d
000001b0: b8cc e53b 1f26 57bb 7f86 e8bc 2842 0fbc
000001c0: df89 8dbb 433a f33c 02e3 1dba 10b9 76bc
000001d0: 7fcb 4d3d d512 7e3c 2e3c 76bd 200f 1cbd
000001e0: 1c6b a6bb a556 413d 6a5f 0cbd 2ca8 b2bc
000001f0: 0462 52bd 5129 25bd 2e77 adbb f079 dcbb
00000200: 93ab bcbd 0fa6 b5bd aa01 df3c d3ea ecbb
00000210: 0d14 753d f7d4 fcbc 9d40 81bd 41aa 58bd
00000220: 9086 8f3b 04b6 393d 37cb 743c f9be 2abd
00000230: 7147 4bbd d0a8 ffbc 554c 313d 1421 173c
00000240: 2d5d 833b cc01 0b3d 0681 84bd a3af 803d
00000250: b64a 9d3d 40d0 bb3d b09a b73c 458a 023d
00000260: d73b 923c d7c2 1e3d 7711 033d 705a 543d
00000270: ed7d 56bc 1f5a b3ba 225c c8ba 64be e1bb
00000280: 5ec8 b3bc 6bbe 39bc f42d cc3c a3e1 39bd
00000290: 1710 11bd 8a8d a0bc d5e8 c9bc 0818 a9bc
000002a0: 1781 2fbd 4dbd ccbc 76e9 513c 18bf b8bb
000002b0: 9385 583d c1f1 083d ce99 293d fe3d 0ebd
000002c0: 11c3 373c 1170 acbc a154 abbd 1d61 103d
000002d0: 9e71 f0bc deb2 993d c37b 55bd 1c95 7abd
000002e0: 80c5 febc e99f 03bd 04f8 4d3d 4c45 783b
000002f0: 95f3 9ebd e7d7 fb3c 2241 203d 7fd5 b43d
00000300: bb2b 9d3c 4fab 18bd 6fad d4bc fd70 683d
00000310: da6b f4bb 7db7 d33d fd4e 803d 492f 523d
00000320: 7583 353d 7f5e 933d ec00 1a3d cfec f23c
00000330: cbe1 ed3c ede5 c2bc 78d3 d83c 7ce4 573d
00000340: 70a1 12bd 36a5 023c e920 e0ba 0c6e 93bc
00000350: d720 7fbd ac05 6bbc 81a9 ed3c b048 8dbd
00000360: c58e 1abd e34d eabb 8ebd 853d 2b6c 413d
00000370: 8f2f 13bd 7d66 7c3d 4cd5 d5bc b0ba dbbc
00000380: 5076 2a3d 24c6 383d 58f8 3dbd a263 1a3d
00000390: 1a0f 473c 630d 06bd 57a2 88bc cdb9 f4bc
000003a0: b6fc 0cbc df43 41bb 10f7 843c 5ad9 613d
000003b0: 7f68 833d 0b3f 143d 14ed 453d 886e 693d
000003c0: 2bad 473c 8b65 2c3d 1def 3c3d 172f 273d
000003d0: a088 e0bc 1865 30bd 4cdc 6d3c 3c78 253d
000003e0: 5a09 a33c c60e d3bc dc6e 113d 4109 363d
000003f0: 8a5e 1bbd 4132 1abd 4eea 6d3d 1c8d 643d
0.031028803 -0.028535223 -0.0028910812 0.0052144458 -0.05857961 0.051810563 -0.0060122986 -0.06213578
-0.0014492 -0.067717075 0.041685443 -0.054831665 0.009426376 0.015550756 0.018419178 0.0224622
0.017001254 -0.016176881 -0.043188628 0.014372048 -0.04536609 0.011694162 -0.030737067 0.050415732
-0.016253639 -0.014657177 -0.006637531 -0.038933437 0.022154432 0.012449352 0.01597669 -0.035634484
0.059917092 0.04929504 0.011687464 -0.050192647 0.033737004 0.016206572 0.009677434 -0.026310602
0.0033711635 -0.006185783 0.06366922 0.051919986 0.042706564 0.057540987 0.018686324 0.03688352
0.07039415 -0.01816451 -0.07990756 -0.10424042 0.012056527 0.012315863 -0.11062655 -0.046214297
0.042909864 0.060507588 0.03278688 -0.11604493 0.06865835 0.028062418 0.040343966 -0.035329446
0.010544204 -0.040812176 -0.02241051 -0.008553483 -0.003958792 0.0019002251 0.022286518 0.04063609
0.058673423 0.04585028 0.031396087 -0.018561145 0.059485167 -0.003522941 0.029086007 0.042076968
-0.025280658 0.07137472 0.017796641 -0.022493955 -0.018733539 -0.0071182917 -0.035480604 -0.003568662
-0.003777254 -0.03815906 0.054141574 0.034755092 -0.02717706 -0.008853719 -0.04467941 -0.0026434541
0.021404607 0.015329416 -0.015628723 -0.054821774 0.056599863 -0.060754545 0.047106773 -0.021462766
-0.018128911 -0.02976477 -0.033798587 0.038263187 0.00701293 -0.0032829118 -0.028384445 -0.0087438
-0.004319414 0.029690867 -0.00060229015 -0.015058771 0.050242897 0.01550742 -0.060115986 -0.03810036
-0.0050786864 0.04720177 -0.03427068 -0.021808706 -0.051363006 -0.040322606 -0.0052937483 -0.0067284033
-0.09212413 -0.08869564 0.027222473 -0.0072301417 0.059833575 -0.030863268 -0.06311152 -0.05289674
0.004380055 0.0453396 0.014941028 -0.041686032 -0.04962868 -0.031208426 0.043285687 0.009224195
0.00400891 0.03393726 -0.06469922 0.062835 0.076802656 0.0917058 0.022412628 0.031870145
0.0178508 0.038760033 0.031999078 0.05184406 -0.0130915465 -0.0013683474 -0.0015286247 -0.0068891514
-0.021946128 -0.011336903 0.024924256 -0.0453812 -0.035415735 -0.019598741 -0.024647156 -0.020641342
-0.04284772 -0.02499261 0.012812009 -0.0056380145 0.05286176 0.03343368 0.041406445 -0.03472709
0.011215941 -0.021049531 -0.08365751 0.035248864 -0.029351052 0.07504819 -0.05211998 -0.061177358
-0.031100035 -0.032134924 0.050285354 0.00378831 -0.07761303 0.030742599 0.039124615 0.08829784
0.019185891 -0.037272748 -0.025961606 0.05674838 -0.007459146 0.10337732 0.06265066 0.051314626
0.04431482 0.07195758 0.037598535 0.029653935 0.02903833 -0.023791278 0.026468024 0.052708134
-0.03579849 0.00797396 -0.0017099652 -0.01799681 -0.062287178 -0.014344614 0.02901149 -0.0689863
-0.037733812 -0.007150398 0.06530295 0.047222298 -0.035934027 0.061621178 -0.026102684 -0.026822418
0.041616738 0.045110837 -0.046379417 0.037692674 0.012149597 -0.03272761 -0.016678972 -0.029873753
-0.008605173 -0.0029489917 0.01623109 0.055138923 0.064164154 0.036192935 0.0483218 0.056990176
0.012187283 0.042089026 0.046126474 0.040816393 -0.027408898 -0.04306516 0.014517855 0.040397868
0.01990192 -0.02576388 0.035506114 0.04444242 -0.037931956 -0.037645582 0.05808478 0.055798635

conv2.bias f4 [20]
00000000: be09 57bd 80c9 78bd d9ea 72bd 8f46 bcbc
00000010: 34d8 49bd 8759 2fbc ff0d c5bb dfdf 193d
00000020: 2819 0d3d d875 693d e2f2 a83c ac2c 4f3d
00000030: 53cf 2ebd 3cef 5cbd 36a8 bebc 4a94 433d
00000040: 52d4 c4bc 92e4 10bd 0a3f 47bd cd83 803d
-0.052499525 -0.06073904 -0.059306 -0.022982864 -0.049278453 -0.010702497 -0.0060136314 0.037567016
0.03444782 0.05699715 0.020623628 0.05057971 -0.04267819 -0.05393909 -0.023273569 0.04774884
-0.024027023 -0.03537423 -0.048644103 0.06275139

fc.weight f4 [10, 320]
00000000: a34e cbbb ff66 54bc a68c c8bc ef55 943d
00000010: 777c 1dbd 624b 8ebc 83f5 cbbd 6b56 41bd
00000020: 7f64 4e3d 9598 5c3d 14f0 66bb b737 a4bd
00000030: 627b b83d 2030 cb3c e52d 5cbd 196e 003c
00000040: 66ee e9bb 355a 473d 9bc7 e93c 6eba a8bc
00000050: 4a07 323c 38ca 89bd 5b7a 353c b174 8f3d
00000060: 1145 8abc ee31 de3b f959 2e3c 2b36 433d
00000070: 88b0 693d 4483 a0bc 5ac8 bbbd 0520 e83c
00000080: 083a 50bc fdc0 4cbc 1aeb f03c 2243 993d
00000090: 9df7 1cbd 239f 8abd c444 103c c912 c73d
000000a0: cfde 8b3d 998c fabd 7e65 57bd 237e b83c
000000b0: 8011 843d 5245 1ebc 67fe 05bd 8763 d9b9
000000c0: da8b abbc e313 233d 1d51 e63c 70a1 da3c
000000d0: 7bc4 83bc 3ec7 613c 43cf a03a fc02 1b3c
000000e0: bbe3 be3c 2846 973d 86f8 32bc 5980 92bd
000000f0: 8f9f febc 1b9e a73d 3885 073d e9b9 babb
00000100: 93f0 003d b81a 2abd 5598 53bd b8f4 c93c
00000110: 5fea 40bd 9f67 273d ee81 893a 132b 39bd
00000120: a788 c53c c3d6 e43c 5540 84bb bcfb bebc
00000130: 232e c33c 9cd9 babc bd1f 9f3c a086 66bd
00000140: 1be5 9ebc 54b7 50bb 363f 72bd cc93 833c
00000150: a18f 2c3d a8a3 d93d 54bb debc 8c1e 18bd
00000160: 83c8 0b3c ca7d 963c a098 c6bd 5989 d83b
00000170: 0b83 093c 15f8 cd3a 3995 80bd ed6d 203d
00000180: b5c8 37bd e00c 97bd 7ba5 9a3d f50c 143d
00000190: 5a68 8ebc 933f 24bd eccf 79bd b769 3bbd
000001a0: 30a8 943d fad2 ffbb db12 eabd 458e 983c
000001b0: cb69 4a3c 7a27 aa3d 05e0 6cbd cd5a e1bb
000001c0: 1b40 523c 7f8e 5e3d 9eab bebc 5dfe 85bd
000001d0: 505a aebc fab9 3f3d 303f bfbc 5e25 033c
000001e0: 301c 203d 51c5 44bd a9a1 a3bd 5ede 47bd
000001f0: 88a6 08bc 425d 8d3c bf81 8b3d 106c 413d
00000200: 3f5e 88bd 4ec7 26bd b53b d23c eac8 0abd
00000210: b749 603d 56f7 ba3c 128a 0a3d 0a85 533d
00000220: 2598 b33d ac99 e4bc 4007 61bd 5b66 9e3d
00000230: d072 8f3d fd55 3fbd c44f a7bc ed10 893d
00000240: 3cdb 4c3c 6acc 30bc dcd8 00bd 2dd6 3d3c
00000250: 03a5 053d b0fa c0bc 0b74 803b bea4 28bd
00000260: cfba 063d 600d c13c 9958 6abb 2a44 f039
00000270: 8e8c cc3c b14c bfbc ef72 4b3c 1459 e8bc
00000280: 69eb 07bd 876e c5bb 0d6b 743d 95dd af3c
00000290: 3ec0 25bd 438c 173d 716a 213d 98a6 d53c
000002a0: c81c e5bb ea7f 853c 315e 303c 0942 c23d
000002b0: 6785 243d 3a63 e8bd 0126 0ebc 91db e93c
000002c0: f8d1 053d 1549 24bd b8a3 6f3d 074c d5bc
000002d0: 2c01 c3bc 3f2f 6a3d 014f 713d 5266 58bd
000002e0: 9e2a dabc 8467 3b3d 8532 1e3d c80c d9bd
000002f0: b9f8 253c 1abd 923c 4e70 19bd b840 dabc
00000300: 88ed fa3c 1282 2b3d ca4c 2cb8 6e57 e13c
00000310: 4088 183d e010 bfbc c621 0d3c a157 89bc
00000320: 41ac 15bd b9cd f6bc 7bee 513d 2760 a03d
00000330: 3755 cd3c 7f22 a2ba 09d6 833d 9630 3d3d
00000340: e988 a83c 989a 893d e9a7 103d 495d de3a
00000350: 5c03 703d 3db4 083d 9477 2ebc 825a 043d
00000360: 82a8 373d 4f22 a8bd 16b6 cfbc 08b9 6a3d
00000370: 301c 11bd b342 30bd e343 933d 6c4b 723d
00000380: 3a4b 2e3c 5240 02bc 9278 a03c 0711 563d
00000390: 6667 0ebd 2442 a9bc 9676 af3c 6a53 01bb
000003a0: 02ee e1bc 48ed e63b 97e4 e7bb d043 4fbd
000003b0: 2593 a1bb b9fe 1eba 3cb9 163d f14b d23b
000003c0: 283d 103c eaa6 a43c 50b9 c3bb d5f1 8fbc
000003d0: 669f 9e3c d2a6 99bc bb38 ce3c 09e2 acbd
000003e0: 4983 ccbc 8195 a63c 2f26 4abd 0938 7abc
000003f0: d4b9 47bd 551c 493c 97c4 32bb 42f0 f73c
-0.0062044426 -0.012964009 -0.024481129 0.07242953 -0.038448777 -0.01736993 -0.09958937 -0.047201555
0.05038881 0.05385645 -0.0035238313 -0.08018439 0.090079084 0.024803221 -0.053754706 0.007838749
-0.007139015 0.048670013 0.028537562 -0.02059671 0.010865996 -0.06728023 0.011076535 0.07004679
-0.016878637 0.0067808544 0.010641568 0.04765908 0.05705312 -0.019593842 -0.091690734 0.02833558
-0.012709148 -0.012497184 0.02940898 0.07483508 -0.03832208 -0.06768634 0.0088054575 0.0972038
0.06829607 -0.12233848 -0.052587025 0.022521084 0.0644865 -0.009660082 -0.03271332 -0.0004146362
-0.02094071 0.039813887 0.02811485 0.026688308 -0.0160849 0.013780413 0.00122688 0.009461161
0.02330195 0.07386428 -0.01092351 -0.071533866 -0.031081943 0.08184453 0.03308603 -0.0056984317
0.03147943 -0.041529387 -0.051658947 0.024652824 -0.047098514 0.040870305 0.0010490993 -0.045207094
0.024113012 0.027934438 -0.0040359893 -0.023313396 0.02382571 -0.022808842 0.019424314 -0.056280732
-0.019396355 -0.0031847553 -0.059142314 0.016061686 0.042129163 0.10626918 -0.027188934 -0.037138507
0.008531692 0.018370528 -0.0969708 0.00660817 0.0083930595 0.0015714193 -0.06278462 0.039167333
-0.044869144 -0.073755026 0.07551094 0.03614517 -0.017383743 -0.04009969 -0.060989305 -0.045755114
0.07258642 -0.007807133 -0.11429378 0.018622527 0.012354325 0.08308311 -0.05783083 -0.0068772794
0.012832667 0.054335114 -0.023275193 -0.065426566 -0.021283299 0.04680822 -0.02334556 0.0080045145
0.03908938 -0.048039738 -0.079898186 -0.04879605 -0.008340485 0.017256383 0.068118565 0.047222197
-0.06658601 -0.040717416 0.025663236 -0.033883013 0.0547578 0.022823017 0.03382308 0.051640548
0.08769254 -0.027905308 -0.054938555 0.077343665 0.070043206 -0.046712864 -0.020423777 0.066926815
0.012503441 -0.010790924 -0.031456813 0.011586708 0.03262807 -0.023557037 0.0039200834 -0.041172735
0.032893 0.023565948 -0.0035758375 0.00045827153 0.024969365 -0.023351999 0.012417539 -0.028362788
-0.03318349 -0.006025139 0.059672404 0.021467963 -0.04046654 0.036999 0.03940815 0.026080415
-0.0069919564 0.016296346 0.0107646445 0.094852515 0.040166285 -0.11347051 -0.008676053 0.02854708
0.032670945 -0.04010876 0.058505744 -0.02603723 -0.02380427 0.057173964 0.058913235 -0.052831955
-0.02663165 0.045753017 0.038622398 -0.10598141 0.010130101 0.017912436 -0.037460618 -0.026642188
0.030630842 0.04187209 -4.107951e-05 0.02750751 0.037239313 -0.023323476 0.008614009 -0.016765418
-0.036541227 -0.030127393 0.051252823 0.078308396 0.025065048 -0.00123699 0.06437308 0.046188913
0.020573096 0.067189395 0.03531638 0.0016965057 0.058596954 0.033375014 -0.010648627 0.032312877
0.044838436 -0.08209669 -0.02535538 0.057305366 -0.035427272 -0.04303236 0.07190683 0.05915396
0.010638053 -0.0079499055 0.019588742 0.052262332 -0.034766577 -0.020661421 0.02141885 -0.0019733557
-0.027579311 0.007047329 -0.0070768106 -0.05060178 -0.004930871 -0.00060651783 0.036797747 0.0064177443
0.008803643 0.020099122 -0.0059730187 -0.01757137 0.019363116 -0.018756304 0.025173536 -0.0844155
-0.024964945 0.02033496 -0.04935282 -0.015272149 -0.048761204 0.012274821 -0.0027277821 0.030265931

fc.bias f4 [10]
00000000: 3fd1 2cbd 29b2 afbc 5493 3abd 31f6 c0bc
00000010: a6b7 91bc a420 a73c 7819 8fbb 3cf0 e23b
00000020: 1596 1fbd 004b c9bb
-0.04219174 -0.021447258 -0.04555066 -0.023554893 -0.017787766 0.020401306 -0.00436705 0.006925611
-0.03896149 -0.006142974

momentum_buffer f4 [10, 1, 5, 5]
00000000: 9ea5 993c f35c ee3c 2b23 863c 2fe7 3cbb
00000010: a036 873b 125f 303d d0e7 033d 3158 2b3c
00000020: 06f1 e83b f242 d03c e198 113d 271e 503c
00000030: 77c7 a83a 0f68 c33b e9fe ee3c 359e 2b3c
00000040: 9606 a1bb db88 84bb dd85 3a3c c2d8 d23c
00000050: ed32 0dbc a5b3 0bbc 800a 3bbb a29c 8d3c
00000060: 7440 b63c 828d 07bc e76d 8abb 692c 533b
00000070: b429 363a 7828 7abb e249 b9bc bb4c a0bb
00000080: d910 053c d6da a13b 18db 873b 273f 8fbc
00000090: ac1d 073a d598 fdbb 86e1 7cbb 1afc 093c
000000a0: 44ce b2bb d15c 67bc 6401 93bc 0b81 b9bb
000000b0: 2608 d53b bd93 8ebc 94c5 a4bc e062 0cbc
000000c0: 72cf 1a3b d48d 8b3b f8f4 9bba 1899 01bb
000000d0: c744 28bc d68c e7bb 92fd 533c dcad 9abb
000000e0: 94df edbc d662 aebc ae62 9b3c e94a 703c
000000f0: 5883 97bc 7cd6 0fbd 16a3 853c c26b 2f3d
00000100: 9af8 233c 40e8 62ba 109b c7ba 1467 f73c
00000110: 4216 bc3c 4484 a03c 9e83 253b b265 a23c
00000120: 752c 313c ff84 b83c 20ea f23c d7a0 993b
00000130: 8d5f ce3b 9946 103c f657 883b 7865 e23b
00000140: e0c2 173c fe55 0c3c 1015 083c 2caa d53b
00000150: 346d 5e3c 78b6 d73b 5ab5 f93b b4aa 573c
00000160: d709 803c 3275 903c 9882 d03b f27d 393c
00000170: f85e 3d3c 9171 343c 4421 0a3c d88f 473a
00000180: 7853 5c3b d2fe d43b b61f 143c 3869 d43b
00000190: 9833 b53b 077b 8b3b d73e 9f3b 2e97 8b3b
000001a0: b444 1c3a e250 fc3b 9439 e43b 1274 2c3b
000001b0: f32c 09bb 5e70 24ba 4ffd ca3b 723a a83b
000001c0: d05c 903a dc0c d33a 80fc 953b a88b bb3b
000001d0: ca67 a23b 2cdc 8d3b 44a1 543b 44aa 413b
000001e0: 0611 713b 2264 1e3b 7847 353b 98c4 d0b9
000001f0: bc96 25bc 9682 f8bc 28b5 45bd b301 b1bc
00000200: cd56 e0bb e029 14bc 74cf 11bd 58cd f3bc
00000210: d099 d5bb 0705 283c 5cb3 b5bb 1bd1 cbbc
00000220: b920 8ebc 4c12 953c 7abe 9f3c d265 b13b
00000230: b263 e9bc 4ab1 86bc ae3f 513b b859 8eb9
00000240: eed3 80bb a01e edbc 7904 a8bc 3823 52bc
00000250: 3620 6e3b a53e 1b3c 17cc ac3b 746a e23b
00000260: 46ce d83b 180b c3ba a38d f33b 18ac 97ba
00000270: 4892 73bb 80e4 34bc 78ca b139 4422 913c
00000280: 2411 a8ba 8c55 07bc 44dc 3dbc be63 033b
00000290: dad0 383c aa04 393b d6a9 993a 4551 803c
000002a0: 800f d83c b10c 1a3c a0b4 223b 9449 963c
000002b0: 9fee 153d dd3e b63c e8e4 b73b dab1 95bc
000002c0: e89f 0fbc c035 b73b f444 b93b c3e4 11bc
000002d0: 2ff6 9abc a5a3 83bc 91b1 13bc 9819 c3ba
000002e0: c0e6 d1bb f0ed d6bc 56f9 c0bc d6e3 b5bc
000002f0: cd45 83bc 57f5 2ebc ecee ebbb 303b 08bc
00000300: e4fc 01bc 3903 80bc 4bbe d7bb db5c a23c
00000310: 3aa0 703c 3e9f ef3b f002 feba c31f 1bbc
00000320: 4258 dfbb 0c3f 8bbb f908 9dbb 6a92 94bb
00000330: 76c3 693b ec1a 3dba ceb4 b53b 162d dbba
00000340: 7825 ae3b ba96 ef3b 1f44 ff3b b660 bf3b
00000350: f87e cf3b 3fb0 853c 9644 733c 0a61 c63a
00000360: 80b9 5fba bcc3 9f3c c0ee ae3c 3fe1 983c
00000370: 90a6 8cbb 9e9e 523c a0b3 d63c 6c13 c83c
00000380: af5b 993c 4419 973c d00a c83c 4e11 f23c
00000390: 7368 d53c 9bdc c23b 44fc 2b3c 3e39 833c
000003a0: f227 a23c f63e 6a3c 90d1 50bc 15f7 913a
000003b0: f2c4 c13b 44e8 853b fc2a 96bc 001a 12bd
000003c0: 623d 093b 18d3 663b 0825 58bc 261f 30bd
000003d0: 2844 49bd 6e26 603a 4a95 50bc 6b63 11bd
000003e0: dddb 4abd 331c e3bc
0.01875573 0.029097056 0.016374191 -0.002882432 0.004126385 0.043059416 0.032203496 0.010458038
0.0071088104 0.025422547 0.035546187 0.012702501 0.0012876828 0.0059633325 0.029174285 0.010474731
-0.004914115 -0.0040446348 0.011384455 0.025738124 -0.008618099 -0.008526717 -0.0028540194 0.017286602
0.02224753 -0.008273484 -0.004224527 0.0032222515 0.0006948963 -0.0038171094 -0.022618238 -0.0048919595
0.008121693 0.0049394174 0.004145991 -0.017486168 0.0005154263 -0.0077391663 -0.003858657 0.008421922
-0.0054567177 -0.01412125 -0.017944999 -0.005661135 0.0065012155 -0.017404431 -0.020113744 -0.0085684955
0.0023622182 0.0042588506 -0.0011898568 -0.001977509 -0.010270304 -0.0070663495 0.012938874 -0.0047204327
-0.029037274 -0.021287363 0.018967953 0.0146662975 -0.018495247 -0.035116658 0.016313117 0.042827375
0.010008002 -0.0008655824 -0.0015228707 0.030200519 0.022959832 0.01959432 0.0025255452 0.019823883
0.010813822 0.022524355 0.029652655 0.004688363 0.0062980116 0.008805894 0.0041608764 0.0069090687
0.00926277 0.008565424 0.008305803 0.00652053 0.013575841 0.0065830313 0.0076204957 0.013163257
0.015629692 0.017634008 0.0063632242 0.011321532 0.011558287 0.0110134045 0.008430783 0.0007612682
0.0033619087 0.0065001035 0.009040764 0.0064822696 0.005529832 0.0042566094 0.004859786 0.0042599654
0.00059611653 0.0077000717 0.0069648717 0.00263143 -0.0020931333 -0.00062728475 0.0061947475 0.0051339203
0.0011013988 0.0016101855 0.0045772195 0.0057234354 0.0049562203 0.004329225 0.0032444755 0.002955095
0.0036783828 0.002416857 0.0027661007 -0.00039819325 -0.010106739 -0.030335706 -0.048268467 -0.021607256
-0.006846285 -0.009043187 -0.035598233 -0.029761001 -0.00651858 0.010255105 -0.005545063 -0.024879983
-0.017349588 0.018197201 0.019500006 0.0054137493 -0.028489921 -0.01644196 0.0031928825 -0.00027151196
-0.003931514 -0.028945267 -0.020509945 -0.01282578 0.0036335117 0.009475385 0.005273353 0.006909663
0.0066163866 -0.0014880626 0.007432656 -0.0011571674 -0.0037166048 -0.011040807 0.00033910922 0.017716534
-0.0012822491 -0.008260142 -0.01158816 0.0020048465 0.011280263 0.002823154 0.0011723589 0.015663752
0.026374578 0.00940244 0.00248269 0.018345632 0.03660452 0.022246772 0.0056120045 -0.018273283
-0.008766152 0.0055911243 0.005653972 -0.008904639 -0.018916218 -0.016069243 -0.009014503 -0.0014884947
-0.0064056814 -0.026236504 -0.023556393 -0.022203367 -0.016024495 -0.010678611 -0.0072001126 -0.008314893
-0.007933829 -0.015626537 -0.006583964 0.019819668 0.0146866385 0.0073126843 -0.0019379538 -0.009468022
-0.006815941 -0.004249459 -0.0047923294 -0.0045340555 0.0035669482 -0.00072137895 0.0055452352 -0.0016721811
0.005314525 0.007311669 0.007790103 0.0058403863 0.0063322745 0.016319392 0.014847895 0.0015135121
-0.00085344166 0.019502513 0.02135408 0.018662093 -0.0042923167 0.0128552 0.026208699 0.024423324
0.018720476 0.018444665 0.024419218 0.029549267 0.026050782 0.0059467084 0.0104971565 0.016018506
0.019794438 0.014297238 -0.012745276 0.0011136258 0.0059133703 0.004086526 -0.018331043 -0.035669327
0.0020941128 0.0035221037 -0.013192423 -0.042998455 -0.049137264 0.00085506483 -0.012730906 -0.035495203
-0.049526084 -0.027723407

momentum_buffer f4 [10]
00000000: 9028 b33c 99a4 ab3b 69bd 33bc 0c9d 16bb
00000010: 6e4e 12bc cfec acbc 50ab d5ba 8201 9dbb
00000020: 3639 c13c 0733 20bc
0.021869928 0.0052381274 -0.010970452 -0.002298179 -0.008929832 -0.021109013 -0.0016301665 -0.0047914395
0.02358685 -0.009777791

momentum_buffer f4 [20, 10, 5, 5]
00000000: b88c 353b dee4 5e3b c29c ce3a ae4f 083b
00000010: 4a77 be3a 1b07 033b 98f7 8d3b 545a 733b
00000020: eba4 593b cedc be3a a60f a53b 69d7 073c
00000030: e955 873c 96fc c63b b9e3 8e3b 731b fa3b
00000040: b848 153c 9b3a a13c bb6d 3d3c a22c 463b
00000050: 3a4b 7db9 30f0 2ab9 9f4e 0f3c d7bd 6a3c
00000060: cd42 893a 15bd 553c 1b6f 423c 0e02 f63c
00000070: ff42 a33c 7a76 853b 7416 543c adaa 0b3c
00000080: 2b67 e03c 3c0e 6c3c e4f4 15bc d820 5e3c
00000090: 365f 763c ebeb 933c 02ca bd3b 28d6 3abb
000000a0: 1642 263c 6bcb 3c3c 56e6 46bc d7ba e6bb
000000b0: 6399 90bb bfad 9f3c 12f3 3d3c 05fc 22bc
000000c0: d72f 2abc 753c 3ebb 5ca7 4f3c 2810 013d
000000d0: 99a2 8e3d 19ed 2e3d d2f5 593c 0232 5b3c
000000e0: 451c 6c3d 7d37 933d 48cb ba3c e7b8 5c3c
000000f0: e2de 643d 8dce b13d 56b1 d63c dcdc d63c
00000100: ff5d 513c 7177 983d 90ce 693d 788f 973c
00000110: bec5 773c 9d25 83bc 57d3 9d3d 6cc8 503d
00000120: 90a6 ca3a 52e8 0dbd 56c2 3cbd ae5c 4fbb
00000130: cee8 2c3b 1afe cd3b 14b3 b7b9 576c 583b
00000140: 500f fd3a daa2 e13b 7670 d03b c709 523a
00000150: 0cd1 b03b b9d8 1c3b fea3 0e3a 950f 323a
00000160: 981c 213b 903f a33b 7e69 8a3b 7b67 ce3b
00000170: b4e0 2f3b 8604 b43b 2c3a a23b 0ed3 b33b
00000180: 0590 7f3b c4c7 71bb fdf4 b4b9 c842 6b3b
00000190: 4d03 803b e034 7338 3857 e939 a463 ef3a
000001a0: 50f1 5a3b 2a61 afba d8c3 773a 5d84 093b
000001b0: b191 b33a 87c1 d33b 0ee6 b63a ec55 213b
000001c0: a27b 473b a413 f938 d400 963b 4f95 2e3b
000001d0: 08fa 3b3b 64d9 b03b 76da a93b 2108 9e3b
000001e0: e49b 36ba 8231 0539 3edd ab3b 6062 b83b
000001f0: e25c 623b 5d38 673c 1c68 ba3c 8f78 683d
00000200: 5043 1b3d a1a6 233c 18d7 493c d7f6 e83c
00000210: b6eb 803d c04b ee3c ecd5 05bb c26d e13c
00000220: dd2d 173d 81f9 2b3d 51d4 ac3c bc0e 773b
00000230: 4689 0a3d dbdd f53c c0b9 caba 8082 683a
00000240: 5c3f b5bb 5399 553d 9070 e83c 2b06 85bc
00000250: a2dc 5fbc 8642 3ebc 674a 143c 0e35 a03c
00000260: 314a 593c 0c1a 553b 60cf 14b9 192e cf3c
00000270: ae9b ea3c c59c 513c ad43 e13b 22d6 80bb
00000280: fffe 973c 943b 253c 5e53 a73b c0f6 1cb9
00000290: fe4d 2fbc 1e0c 123c acc7 853b 9c93 ef3b
000002a0: 48e0 813b 5834 5ebc b56c 843b 7a1a 3abc
000002b0: 2286 01bc 55fb 22bc 3ae0 8dbc c148 043d
000002c0: e7d5 113d 93cf 1c3c ffa2 0d3c baa0 98bb
000002d0: 9605 243d 9e11 fe3c bebb 3f3c b900 ce3b
000002e0: 8625 84bc 34f2 b83c 4019 a73c c7ee aa3c
000002f0: 5422 f1bb ca20 cbbc 9a3e bfba 7aff c4bb
00000300: 7e68 9d3b b242 4abc 4a86 aabc 09f6 b63b
00000310: 27ff c5bc c7fa b2bc 33e6 06bc 8516 69bc
00000320: aab2 c33b 8ab6 283c b154 243b f344 35bb
00000330: a843 67ba f4aa 383c 0589 d63b 4cde e33a
00000340: ee1d 943b da1c 2c3a dc4c fd3b 6020 2b3b
00000350: 3d2b 163c 93f6 243c 069e 343b 4e6d 063c
00000360: b881 a53b 89ee 2f3b 1869 803a 1698 da3b
00000370: 825a f73b 6c35 ff3a 2598 c6bb 90cc ce38
00000380: 0542 0d3c 2203 4a3c 32f4 2c3c 5c7d 86bb
00000390: 11dc 2b3b 04ec 49bb f6f3 273c 7020 8a3b
000003a0: 8c93 bebb 6138 ab3b 1d19 cebb e61d 823b
000003b0: a0c6 afb8 b4f8 f83b a4e4 1fbb 83e1 b9bb
000003c0: cb67 b53b 2ec1 733b 4f02 3b3c 9114 b63a
000003d0: f883 083b e87a b03b 80ba 1139 0a08 3d3b
000003e0: f3fd 063c 40b9 8d3b 58ca c8ba fad8 abbb
000003f0: 106e a1bb ab6d 05bc d2c5 6abb 0571 adbb
0.0027702283 0.0034010927 0.001576327 0.0020799446 0.00145314 0.001999325 0.004332494 0.0037132697
0.003320987 0.0014561655 0.005037266 0.008291104 0.016520457 0.006072591 0.0043606427 0.0076326667
0.009111576 0.019681266 0.011561806 0.0030239006 -0.00024155984 -0.0001630194 0.008746772 0.014327488
0.0010472179 0.013045569 0.01186731 0.030030277 0.019929407 0.0040729614 0.012944806 0.008524579
0.027392944 0.014407691 -0.009152625 0.013557635 0.0150373485 0.01805683 0.0057919035 -0.0028508995
0.010147592 0.011523108 -0.012139877 -0.007041316 -0.0044128164 0.019492028 0.011593597 -0.009947781
-0.0103873825 -0.0029027734 0.012674179 0.03150955 0.06964607 0.042706583 0.013303237 0.013378622
0.057644147 0.07188318 0.02280201 0.0134718185 0.05587662 0.086819746 0.026207607 0.02622836
0.012778758 0.07444657 0.05708176 0.018501028 0.015122829 -0.016009146 0.077063255 0.050972387
0.0015461016 -0.034645386 -0.04608377 -0.0031640935 0.002638388 0.006286395 -0.00035037904 0.003302356
0.0019306932 0.0068858685 0.0063610626 0.0008012321 0.005396014 0.0023932888 0.0005441307 0.0006792483
0.0024583694 0.0049819425 0.0042240014 0.006298957 0.0026836814 0.0054937033 0.0049507823 0.005487806
0.0038995754 -0.0036892751 -0.00034514806 0.003589796 0.0039066435 5.798496e-05 0.00044506206 0.0018263948
0.0033407994 -0.0013380398 0.0009451485 0.0020983436 0.0013700036 0.0064622792 0.001395406 0.0024617864
0.003043868 0.000118769036 0.0045777354 0.0026639288 0.0028682966 0.0053970087 0.0051835133 0.0048227464
-0.00069659785 0.00012702312 0.00524488 0.0056269616 0.0034540226 0.014112559 0.022754721 0.0567556
0.03790599 0.009988458 0.012319349 0.028438015 0.06294958 0.029088855 -0.0020421697 0.027518157
0.036908973 0.041985992 0.021097334 0.0037697991 0.03382232 0.030013015 -0.0015466735 0.00088695437
-0.0055312347 0.052148174 0.028373986 -0.016238293 -0.013663443 -0.01161254 0.009050942 0.019556548
0.0132623175 0.0032516746 -0.00014191633 0.025290536 0.028638687 0.012793724 0.0068745227 -0.0039317766
0.018554209 0.010085005 0.0051063737 -0.00014969241 -0.010699747 0.008914022 0.0040826406 0.0073112976
0.003963504 -0.013562284 0.004041279 -0.011358852 -0.007905515 -0.009947618 -0.017318834 0.032295946
0.035604384 0.009570974 0.008644818 -0.004657832 0.04004439 0.03101426 0.011702476 0.0062867072
-0.016131174 0.022576429 0.020397782 0.020865811 -0.0073588286 -0.024795908 -0.00145908 -0.0060119005
0.004803716 -0.012345003 -0.020815987 0.005583529 -0.024169518 -0.021848096 -0.008233595 -0.0142265605
0.005972226 0.010297427 0.0025074894 -0.0027659505 -0.0008822032 0.011271227 0.0065470957 0.0017384975
0.0045201695 0.00065655785 0.0077301096 0.0026111826 0.009165582 0.0100685535 0.002756001 0.008204771
0.005050864 0.002684506 0.0009796945 0.006670962 0.007548631 0.0019470877 -0.0060606175 9.860948e-05
0.008621697 0.0123298485 0.010556268 -0.0041042995 0.00262237 -0.0030810842 0.010251036 0.0042152926
-0.005815929 0.0052252267 -0.006289615 0.0039708493 -8.381647e-05 0.007598007 -0.0024397755 -0.005672635
0.0055360547 0.0037194001 0.011414125 0.0013891627 0.0020830613 0.0053857453 0.00013897754 0.0028843903
0.008239257 0.004325062 -0.0015319092 -0.0052443715 -0.0049264506 -0.008143823 -0.0035823477 -0.005293014

momentum_buffer f4 [20]
00000000: 0532 453c 020c 9d3b 8db0 1e3c 5887 a439
00000010: 6c46 d1bb 35bd 24bc 49bb 5a3c a483 5b3c
00000020: 99bb 8abc d171 9dbc 2ca4 46bc b20a 8fbc
00000030: 4e58 833b 930c 89bb ecbd 16bb fcec 6cbc
00000040: e3de d93b af9e 23bc 6041 733a ce55 ee3c
0.012035851 0.004792691 0.009685648 0.00031381357 -0.006386569 -0.010054876 0.013350316 0.013398085
-0.016935157 -0.019219311 -0.012124103 -0.017461155 0.0040083295 -0.004182407 -0.0023001386 -0.014460798
0.0066488846 -0.009986564 0.0009279456 0.02909365

momentum_buffer f4 [10, 320]
00000000: 6223 5c3d f5b6 c03c 7726 6b3d 442a 4f3d
00000010: acaf 383d aca4 413d 633a 603b ba51 0d3d
00000020: 7733 a63d a9d9 463d 7112 e23c c54a 3c3d
00000030: 182b bf3c bd3b cc3c d884 9c3c baa3 0b3c
00000040: f1a4 783d 2c35 853d e6d4 733d bc6c 5b3d
00000050: ce97 833d 8fe7 db3d f73c da3d 0cea 3b3d
00000060: 7b1d 9a3d 0ed2 ad3d e038 2e3d 5993 823d
00000070: 38b4 be3d 0b4e aa3d d473 673d 2ac8 7d3d
00000080: 7c9b ab3c 69a7 19bc 3d94 053d 909f c23c
00000090: f85b 933d f86c 48ba 571f 003d bc5b 583d
000000a0: 84d1 983d eb45 833c 54c1 123d 958c 763d
000000b0: 147d b83d 9ef9 023e 123d b33d bc58 393d
000000c0: 18a9 c538 9038 c9b8 9da7 673c 1ebf f13c
000000d0: 9f3e 81ba 5397 603d 7d49 4b3d 8a46 e33c
000000e0: 3630 79bb 77de 5e3d 083b b13c 24e4 bb3b
000000f0: 5bc4 74bb 5406 523c e6ad 953c 1b7a 083d
00000100: bd72 d6b9 9247 263a 8f58 af39 851e 783c
00000110: b388 3139 94df f539 3f7c 973b d26c 0d3c
00000120: bc35 e539 480e 3439 3f26 103c 229e b33a
00000130: 44f8 7aba d2c7 8e3a 5a92 0b3a f23f bf39
00000140: 2658 603b 59ba 1c3d 795e 563d 71ac 423d
00000150: 193b b23c 9356 d33d 8daf 223c 3e5f 893c
00000160: 0436 663d 204c db3d e625 3e3c 275d 903c
00000170: 0c01 93ba 8334 f63c f65b c63b 5e90 993c
00000180: fbd1 b93d 448b 143d 0cdd 203d c780 a13c
00000190: 548b 853d 8d33 5d3d 5637 e23c 2eb2 b93d
000001a0: 3774 a33d 344a 743d 3005 d23c 5c83 213d
000001b0: dc6e 773d f671 c83d aa8a be3d 6dab 2c3d
000001c0: 7e8b a0bb dbac 333d 74ac 5c3d fbbf b63c
000001d0: 9718 bb3c 4aa0 ab3c 805a be3b 70e4 b13b
000001e0: 6617 103c 2286 823c 19b3 273c 5a1b d63a
000001f0: 1e51 033d 04e2 4f3c 202f 0e3d 9407 7e3d
00000200: 4626 603c 6eb2 a43d 81c6 a43d 2dff a23b
00000210: 1000 c93d 28eb b33d 065f 563c 3c6b c63c
00000220: 473d ec3d d205 813b 3941 a03c 5ab8 883c
00000230: 739e bb3d a1f8 cdba 1292 993c fa02 113d
00000240: 9ce9 193d 1b85 b73c a151 9e3b 116c 81ba
00000250: 1187 8f3d bc4a 443a 6b40 573b b025 4ab9
00000260: 61d8 633d 7f57 a43a 4547 6a3b 5905 a23b
00000270: 5a16 373c 560b 71b9 289d ee3b 17e4 063c
00000280: 5f92 833a 842e 9f3d 8403 953d 9303 883b
00000290: eed4 bb3d 6d0b a93d b1f1 f73c a60c 04bb
000002a0: ed73 d53d cc57 923b 34c0 363c 8300 c0ba
000002b0: eac3 9e3d f090 0a3c 25d0 843c 3ac5 593d
000002c0: 95e0 433b 4223 503b 1a96 3b3d 1a1b a43d
000002d0: 464b 85b9 1cc9 7f3d 7e4b 9f3d 4076 793d
000002e0: 145d 54bc f5ff c03d e1d7 133d 8645 ac3c
000002f0: 1577 f0bb d75a 283d 260c a83c 0a4c bb3c
00000300: 658a 393d 4112 d13d 8a62 913d 5ecc 4a3c
00000310: 0384 ae3d 18a2 1c3d 83d4 1f3c 441e c23b
00000320: ac88 803d ee0c 863b a40a 933c a79c 9e3a
00000330: 8af4 c73c 1048 1b3a 8eec b73c 704a 0d3d
00000340: b8c5 883d ad8a 553d 4853 503c cb8b 8fbb
00000350: 4690 ea3d df86 923b 90bd bd3b ba5c 563c
00000360: f18a 663d d695 973b a491 643c 96aa 5b3b
00000370: 4c2f 383a 6aec 183c 4d11 d33c bb48 8e3c
00000380: 5aa9 3c3b 68f8 483c 1abd 8e3d 1110 2a3d
00000390: 20ee 9c3c 1132 9a3d 70f6 4e3d 81a4 123d
000003a0: 4c57 1e3d 2f0f b53c eab0 973c c39a 303c
000003b0: 3607 553d 4f23 483d 8a8b 333d d812 563d
000003c0: a821 9439 fc02 1d3d 4a27 7b3c aa90 3d3c
000003d0: 6615 123c 5866 ae3d b80a 653b 75c6 36ba
000003e0: 1707 a33c 0c71 243d c8ad d23b b265 de3b
000003f0: 4c7f 28bb 6859 333b fc7e bbb9 acb1 4a3c
0.05374468 0.02352474 0.05740973 0.050577417 0.04508941 0.047276184 0.0034214489 0.03450177
0.08115285 0.04854742 0.027596684 0.045969743 0.023335978 0.02493083 0.019106314 0.008522922
0.060704175 0.06504282 0.059529208 0.053570494 0.06425439 0.10737526 0.10656159 0.0458775
0.07525154 0.084873304 0.04253471 0.063757606 0.09311718 0.08315667 0.056506947 0.06195847
0.020948164 -0.009378293 0.032612074 0.023757726 0.07195276 -0.0007645632 0.031279888 0.05282186
0.07461837 0.01602455 0.035828903 0.060192663 0.09008232 0.12790534 0.087518826 0.04525064
9.425188e-05 -9.5949625e-05 0.014139083 0.029510077 -0.0009860581 0.054831814 0.04963063 0.027743597
-0.003802312 0.054411378 0.021634594 0.0057339836 -0.0037348482 0.012818892 0.018271398 0.033319574
-0.00040902747 0.0006343062 0.00033444582 0.015143995 0.0001693096 0.0004689662 0.0046229656 0.008631902
0.0004371832 0.00017171458 0.008798181 0.0013703743 -0.00095737376 0.0010893291 0.0005324237 0.00036478002
0.0034232228 0.038263652 0.05233619 0.047527734 0.021756696 0.10319247 0.00992955 0.016769048
0.056203857 0.10707879 0.011605715 0.017622543 -0.0011215522 0.030054336 0.006053443 0.018745597
0.09073254 0.036265627 0.039273307 0.019714726 0.06520715 0.05400424 0.027614277 0.09067188
0.079811506 0.059641078 0.02563724 0.039431915 0.060408458 0.09787361 0.09303792 0.042155672
-0.0048994413 0.04386602 0.0538754 0.02230834 0.022838874 0.020950455 0.0058091283 0.005428843
0.008794641 0.0159331 0.010235571 0.0016335056 0.03205978 0.012688164 0.03471291 0.062018946
0.013681 0.08041845 0.08045674 0.004974267 0.09814465 0.08785087 0.013084179 0.024221055
0.11535125 0.0039374614 0.01956235 0.016689468 0.09161081 -0.0015714356 0.01874641 0.03540323
0.037576303 0.022402337 0.0048315083 -0.0009874125 0.07008184 0.0007487943 0.0032844793 -0.00019278261
0.055626277 0.0012538283 0.0035748046 0.004944485 0.011174763 -0.00022987774 0.007281918 0.008233092
0.0010038129 0.07772544 0.07276061 0.0041508167 0.091714725 0.082541324 0.030266615 -0.002014914
0.10422502 0.0044660326 0.011154223 -0.001464859 0.077522114 0.008457407 0.016212532 0.053166606
0.00298885 0.0031759297 0.045797445 0.08012982 -0.0002542382 0.062447652 0.07778071 0.060903788
-0.012961645 0.0942382 0.03609455 0.021029245 -0.0073384144 0.041102257 0.020513605 0.022863407
0.045298 0.1020856 0.07098873 0.0123778265 0.08521273 0.038240522 0.009755257 0.005924018
0.06276068 0.004090897 0.01794941 0.0012101129 0.024408597 0.0005923519 0.022451665 0.034494817
0.06678337 0.052134205 0.012715168 -0.0043806783 0.11453299 0.0044716443 0.00579042 0.013083631
0.05628485 0.004626016 0.013950739 0.0033518425 0.0007026091 0.009333709 0.025765086 0.017368665
0.0028787465 0.012266256 0.06969662 0.04151923 0.019156516 0.07529081 0.05052799 0.035801414
0.03865747 0.022101967 0.018516976 0.010779086 0.05200883 0.048861798 0.043834247 0.052264065
0.00028253836 0.038332924 0.015329191 0.011570135 0.008916235 0.08515614 0.0034949016 -0.00069723214
0.019900842 0.040146872 0.0064294077 0.0067870254 -0.002571064 0.0027366523 -0.0003576203 0.012371462

momentum_buffer f4 [10]
00000000: b44a 8f3c 0e83 b4bc 409b d5bb 9842 19bc
00000010: 1843 27bd cf8f b33c 18fe 7ebc 9db4 a53c
00000020: a030 943a 225f 093d
0.017491676 -0.022035148 -0.0065187514 -0.009354256 -0.04083547 0.02191916 -0.01556351 0.020227725
0.0011305995 0.03353799
