oraclebackend/train/iid/checkpoint/fmnist/ckpt_3_0.pth (torch, 888853 bytes, 44 tensors)

cnn1.weight f4 [16, 1, 3, 3]
000000 be 4d 3e 3d 11 69 39 3e 62 47 00 3d 3f 76 01 bd
       0.04646086 0.18106486 0.031318076 -0.03160691
000010 0b a2 07 3e 77 a3 8d bd 45 83 f7 3c 47 4d 08 be
       0.13245408 -0.06915944 0.030213961 -0.13310729
000020 43 08 3d 3e 0b 0c 35 3d 3d 9d 9f 3d c3 d6 0f be
       0.18460183 0.04420094 0.07793663 -0.14046769
000030 7b bb 52 3d 28 de 00 be be e7 b5 3d 6e d0 5b be
       0.051448327 -0.12584746 0.08882092 -0.21466228
000040 a9 34 5b 3e 0d cc 88 3d 34 1d fb bd b9 d0 95 bd
       0.21406807 0.066795446 -0.122614294 -0.07315201
000050 35 bb ae 3d bb 57 79 3d 29 2d 3b bd 01 94 a7 3d
       0.08531801 0.060874682 -0.045697365 0.081825264
000060 d5 10 eb bc 61 73 9c be 26 12 81 3e d5 82 08 bd
       -0.02869455 -0.30556777 0.2520916 -0.033327896
000070 c7 cd f2 bc eb 9e b5 bd 82 83 fa 3d 29 46 97 bd
       -0.029639138 -0.08868202 0.122321144 -0.07386429
000080 68 38 ca 3b 19 25 38 bd 87 e2 0c be 84 27 ad 3d
       0.006171275 -0.044957254 -0.13758288 0.08454803
000090 bc cd 56 bc 18 8b 0b 3e 99 42 86 3d 3b 75 11 bd
       -0.013110574 0.13627279 0.06555671 -0.03551219
0000a0 b6 39 43 3d e9 72 87 3d 33 0a 4a 3e 9b 52 18 3d
       0.04766246 0.06613714 0.19730453 0.037188154
0000b0 1c c5 63 3e a1 71 e0 bd 84 a9 7a bd 41 1a 70 3d
       0.2224316 -0.10959173 -0.06119682 0.058618788
0000c0 8a d0 a0 bd 6f 49 0e be cf ec 24 be ed bb d4 3c
       -0.07852276 -0.138952 -0.1610596 0.025968516
0000d0 ee be c7 3d 44 40 02 3e f2 d8 0e bd ab 01 08 bd
       0.09753214 0.12719828 -0.034874864 -0.033204716
0000e0 10 ca f2 3c 51 c9 48 bd 4b 53 a4 3c b1 af a1 3e
       0.029637367 -0.049020115 0.020059248 0.31579354
0000f0 b7 8e bb 3d ad 5b 91 3d ed 10 11 be 7a a8 b0 3d
       0.0915808 0.07097564 -0.14166613 0.08625884
000100 12 5b 2f be 3e 56 15 be 7e 51 33 3e 1f bb 23 3c
       -0.17124584 -0.1458368 0.17511556 0.009993344
000110 74 6b b5 bd 62 f0 24 3e 31 b4 8a 3d e3 93 69 bd
       -0.08858386 0.16107324 0.0677265 -0.0570258
000120 da 27 8a 3d cd 68 3d be 83 85 d0 3d 25 30 d2 3d
       0.06745882 -0.1849701 0.10181715 0.10263089
000130 2e e3 5d 3e 7d f3 b7 3c 02 73 07 be b6 1f 2f 3e
       0.21668693 0.022454971 -0.13227466 0.1710194
000140 51 f2 c4 3a 52 f3 a3 be 2d 9f ee bd 66 85 11 3e
       0.0015025829 -0.32021576 -0.11651454 0.14211044
000150 81 77 b8 bd 17 6c 62 3c ea 8e b1 bd fb 91 ee 3c
       -0.090071686 0.013819716 -0.08669837 0.029122343
000160 7b e8 93 bd d0 0b 83 bd 71 68 65 3e 2e ad 76 be
       -0.072220765 -0.063987374 0.22403122 -0.240895
000170 99 79 1c be bd d3 ec 3d 6c 2e 49 bd 1d a6 3c 3d
       -0.15280761 0.11563823 -0.049116537 0.046056855
000180 b8 2f 7c 3c 01 2a e2 3d 84 83 b3 bd eb 81 e3 bd
       0.015392236 0.11043168 -0.08765319 -0.11108764
000190 d8 9b 8a 3d 69 00 bd be 2d 09 f5 3c b7 40 d3 3d
       0.06768006 -0.36914375 0.029911602 0.10315078
0001a0 4e 4c 41 3d b5 81 9c 3c 04 8b e8 3d bb 84 6e 3d
       0.04719191 0.019104818 0.1135464 0.05823205
0001b0 76 26 e0 3c 31 86 5c be e2 43 0c 3e 9c f7 32 3d
       0.02736209 -0.21535565 0.1369777 0.04369317
0001c0 ec 03 b2 bd b8 55 be bc 4b 38 94 bd fb b3 1d 3e
       -0.08692154 -0.023234233 -0.072372995 0.15400688
0001d0 24 20 28 be f6 0b b6 3d f6 5a d5 3d 57 dc 79 3e
       -0.1641851 0.08889 0.1041774 0.24400459
0001e0 dd 61 b7 3d b9 8c 1f bd cc 2f a8 bd de 07 01 3c
       0.08954213 -0.038952563 -0.082122415 0.007875411
0001f0 9c fd 2f 3c ec ca 98 be e5 29 03 bd b6 18 21 bd
       0.0107416175 -0.29842317 -0.032022376 -0.039330207
000200 cd b9 27 be e8 50 42 3e 11 af 67 3d 18 e4 8e 3d
       -0.16379471 0.18976176 0.05656344 0.06977099
000210 04 39 ea 3d 6c 9b 96 3b 25 0e 58 be 66 75 a5 3d
       0.11436656 0.0045961645 -0.21099146 0.080790326
000220 be e0 f4 3c 2e e5 a0 3c 85 0a 5b 3e 0f 5f 12 3e
       0.029892322 0.019640531 0.21390732 0.14294074
000230 46 a9 ea bc 5b 7d 2d bd 16 3a 58 3c 1a 32 96 3c
       -0.028645169 -0.042355876 0.0131974425 0.018334437

cnn1.bias f4 [16]
000000 6e 40 6d 3e 5e 08 4b be 08 5b dc 3d 06 1c ef bd
       0.23169109 -0.1982741 0.1075955 -0.11675267
000010 fc dc ac 3d ea ee 6d 3e d1 df 84 3e b5 fe 85 3e
       0.08440587 0.2323567 0.25952008 0.2617089
000020 e5 1a 8b 3e f6 ea b1 bd 40 31 99 3d 65 1f 31 3e
       0.27168956 -0.08687393 0.07480097 0.17297132
000030 e0 e5 02 be a5 b9 34 bd 88 cf 1b be 8d c1 cf 3d
       -0.12783003 -0.044122357 -0.15215886 0.10144339

bn1.weight f4 [16]
000000 ad 8b 80 3f ed 7f 7f 3f 86 7f 80 3f b6 76 7f 3f
       1.0042626 0.99804574 1.0038917 0.99790514
000010 22 ba 7f 3f 00 30 80 3f 41 a9 7f 3f 33 ce 7f 3f
       0.9989339 1.0014648 0.99867636 0.9992401
000020 e2 68 80 3f b8 43 80 3f 87 47 80 3f f5 54 7f 3f
       1.0032008 1.0020666 1.0021828 0.9973901
000030 6a 29 7f 3f 81 89 80 3f 0d 4f 7f 3f 95 c5 7f 3f
       0.9967257 1.0041963 0.99729997 0.9991086

bn1.bias f4 [16]
000000 04 aa 03 3b ea c9 1e 3a 2f f9 88 3a a6 2c 9e ba
       0.002009035 0.0006057309 0.0010450239 -0.001206775
000010 d9 ed 4d b9 f6 2e 3d 39 06 7a 36 3a 39 78 29 b9
       -0.00019638929 0.00018041939 0.0006960932 -0.00016161882
000020 85 79 4c 3b 54 b3 75 3a 20 ac ad 3a a7 1e 87 38
       0.003120036 0.000937273 0.001325015 6.443011e-05
000030 53 3b f5 ba 4b 8b 30 3b 7a e5 c5 39 cb 9a 61 3a
       -0.0018709697 0.0026938494 0.0003774574 0.0008606135

bn1.running_mean f4 [16]
000000 a3 59 d6 3e b4 ac 29 be 19 0a 86 3d 29 c2 5a be
       0.41865262 -0.16569787 0.06544895 -0.21363129
000010 ab 94 e6 3e 9c 0b eb 3d 24 fd c9 3e 15 3a 92 3e
       0.450353 0.11476824 0.39450943 0.28559938
000020 07 c7 e9 3e 09 cf bd be 6c aa 8b 3d 93 35 1d 3e
       0.45659658 -0.37072018 0.06819615 0.15352468
000030 62 4e 65 be 6a 42 ab 3c 81 1a 21 be c5 5d a6 3e
       -0.22393182 0.020905692 -0.15732767 0.32493415

bn1.running_var f4 [16]
000000 c5 cf 1b 3e 7c 56 ba 3c d0 04 a6 3d d5 77 51 3d
       0.15215977 0.022746317 0.08106387 0.05113967
000010 3e 73 09 3f d1 f8 c2 3d 47 d7 c9 3d a4 88 d1 3d
       0.5369147 0.09520114 0.09855514 0.1023114
000020 c1 ac 2a 3e 28 e7 b5 3e e4 04 85 3d 8b 01 82 3d
       0.16667463 0.3552792 0.064950734 0.063479505
000030 2c 2a 4d 3d 98 ab c9 3d 52 53 85 3d da 4b 6c 3e
       0.050089046 0.09847182 0.06510033 0.2307581

cnn2.weight f4 [32, 16, 3, 3]
000000 3e 29 0e bd 36 79 85 3c 71 3d a6 3d 42 19 4e bd
       -0.0347073 0.01629315 0.08117188 -0.050317056
000010 51 00 f2 3c 4b dd 91 bd 7d e9 29 3c be 94 47 3d
       0.029541166 -0.071222864 0.010370609 0.048725836
000020 aa c2 df bc 05 74 81 bd af 1e cd 3c b0 df ae 3d
       -0.027314503 -0.06320957 0.025039045 0.08538759
000030 10 12 a4 bc 73 82 e7 bc 3a 5b 8c 3d 6e 2f cd bc
       -0.020028144 -0.028260445 0.068533376 -0.02504703
000040 80 cd f8 bb 65 a5 7b 3d f4 6d 72 bc 52 bd d2 bd
       -0.007592857 0.06143703 -0.014796723 -0.10290016
000050 3e df c7 bd c3 a3 74 3d 69 b2 a0 3b 1e 2b 15 bd
       -0.09759377 0.059726488 0.0049040806 -0.036418073
000060 9a d5 64 bd 99 11 05 bb ce 65 36 3d 43 ae 81 3d
       -0.05586777 -0.0020304678 0.044530682 0.06332066
000070 71 5d 8b 3d e7 6b 1a 3d 82 65 34 be 09 2e 50 3d
       0.06804932 0.03770056 -0.17616847 0.050825153
000080 fe f6 13 bd b4 79 06 3d 40 4c 31 bd 42 1f fe 3d
       -0.036124222 0.03283091 -0.04328561 0.12408306
000090 2b c6 f3 3d cf ad b5 3d 9c c4 99 3d ee 1f 0f bd
       0.11903032 0.08871042 0.075082034 -0.03494256
0000a0 8c b9 fe 3c f0 ce 48 3d 8b a5 9a bc e2 7a 8f 3d
       0.031094335 0.049025476 -0.018877765 0.0700586
0000b0 8f 28 7b bd a7 3e 98 3b 5a ca 89 bd dd d6 90 bc
       -0.061317977 0.0046461406 -0.067280486 -0.01768058
0000c0 2e 07 4a bc 7d 23 31 3d e9 bf 1c 3c fc 27 13 3d
       -0.012330813 0.043246735 0.009567239 0.035926804
0000d0 0c af 5b 3d fa 41 a6 bd e1 35 6a bc 5f 69 0b bd
       0.053633735 -0.08118053 -0.014295072 -0.034036037
0000e0 ad 83 36 3d 80 75 04 bd ff b4 e8 3c 20 f4 9a bd
       0.04455917 -0.03233862 0.028406618 -0.075660944
0000f0 8a 78 ea bd db 24 d9 3c cc be 2a be 53 b5 5e bd
       -0.11448772 0.026506832 -0.16674346 -0.054372143
000100 0e 21 2e bd e8 57 04 bd 24 ec 95 bd 70 24 07 bd
       -0.042511992 -0.032310396 -0.07320431 -0.032993734
000110 7d 70 76 3d c0 42 90 3d cc 36 98 bc 2b 50 20 bd
       0.06016587 0.070439816 -0.018580817 -0.039138954
000120 fa 68 66 bd db b4 8d 3b 4c 7b 04 bd 51 82 cb 3d
       -0.056252457 0.004324538 -0.032344148 0.09936965
000130 0b 9e f7 bd f3 45 20 bd 3d 42 5c bc 4d bb ab bc
       -0.12090691 -0.03912921 -0.013443527 -0.020963335
000140 8b 7f 88 bc 6b 72 c7 3c 19 38 c0 3c 24 ce 02 3e
       -0.01666238 0.02434655 0.02346425 0.12773949
000150 82 a0 ba bc 3e 80 2c bd 11 15 e8 3c 6a ef 01 3d
       -0.022781614 -0.04211449 0.028330358 0.031722464
000160 10 e5 2d 3d 63 64 78 bc fa 98 a9 3d 1b 3f 97 bd
       0.04245478 -0.015160653 0.08281131 -0.07385083
000170 cc 7e 30 3d 52 3c 80 be c7 b6 8e 3c 20 6a ac 3d
       0.043089673 -0.2504602 0.01742114 0.08418679
000180 9b fd 89 bd 1a 68 0d be 3f df 2a be 36 27 5b bd
       -0.067378245 -0.13809243 -0.16686724 -0.05350419
000190 0b 52 fb 3b da 81 aa 3d 43 50 c0 3c 2d 90 e1 bc
       0.0076696924 0.083255485 0.023475772 -0.027534569
0001a0 26 b7 cc 3b 7f 6e ed 3c 8e 80 89 bd 4f fb 8f 3c
       0.006247419 0.028983353 -0.06713973 0.017575888
0001b0 2d e0 f8 3c 21 d2 6f 3d 8c 31 78 bc fd dd 5c bd
       0.030380333 0.058550004 -0.015148532 -0.053922642
0001c0 f8 fb 51 3d 98 d4 ca bd 6a 65 c9 bd db e4 4f 3d
       0.051265687 -0.0990383 -0.09833796 0.050755363
0001d0 16 4a 6c 3d 70 6e 19 bc bc 78 36 3e 03 05 83 bd
       0.05768784 -0.009364709 0.17819494 -0.0639744
0001e0 8e f1 90 3d 23 29 48 bd 79 dd be 3c 8e 03 e7 3c
       0.07077323 -0.048867356 0.023298966 0.028199937
0001f0 c6 73 92 bd ef 45 0a 3e 6e 21 92 bb 17 bb 40 3b
       -0.07150988 0.1350324 -0.0044595515 0.002940839
000200 12 1f 85 3d 2e 80 d1 3d 4b 84 86 bd 6d 9b 88 bd
       0.06500067 0.102295265 -0.06568202 -0.0667027
000210 bc 4a bd bd 2d 02 1b 3d 7e da 76 3c ba 77 c2 3d
       -0.0924277 0.03784387 0.015066741 0.09495492
000220 f8 7a 0c be 6b 8c d4 bd 15 aa 2e bd c0 2c ab bd
       -0.13718784 -0.10378345 -0.04264267 -0.08358145
000230 01 a7 39 3d eb 5c 99 bd 9e 2a 89 3c 04 ea 9c 3d
       0.045325283 -0.07488426 0.016743954 0.076618224
000240 5f 5c 09 be b4 2d 06 3e 10 20 b1 3d a3 4f 30 3e
       -0.13414143 0.13103372 0.086486936 0.17217879
000250 24 18 3d 3c 91 df 79 3d 68 0a 06 bd 9d 30 44 3c
       0.0115414 0.061004225 -0.032724768 0.011974481
000260 c6 5e 01 3c 6a fa e2 3d 37 a5 3f 3d 3a c7 03 3e
       0.007896131 0.11082919 0.04678842 0.12868968
000270 34 c3 8f bd ba be 25 bd 84 b0 e8 bd df a5 b3 bd
       -0.07019654 -0.040465094 -0.11361793 -0.08771872
000280 bf 76 b2 bd ac d8 24 3d 66 15 e5 3b d5 84 8d bb
       -0.08714055 0.040245697 0.0069910763 -0.0043188133
000290 fe 49 ab bd bd da 7f bc f1 c5 e9 3d 55 ae 94 bc
       -0.08363722 -0.015616116 0.114147075 -0.018149534
0002a0 55 49 2d be fe 75 d8 bb 74 3c a2 3d c7 22 cd bd
       -0.16922505 -0.0066058626 0.07921687 -0.10016399
0002b0 53 a0 0f bd 5b 77 04 bd 40 2f 9c bd 78 1a 15 bd
       -0.035065006 -0.03234039 -0.076262 -0.036402196
0002c0 c9 c4 65 bc e2 d4 01 3c 66 6a 9f 3d 28 77 14 bd
       -0.014023968 0.00792429 0.07783966 -0.03624645
0002d0 5c 37 e4 39 44 94 e7 bd 6a 73 2c 3d 97 6b eb 3c
       0.00043528795 -0.11307576 0.042102255 0.028737826
0002e0 d8 c1 a4 bc 3a f8 08 3d 49 16 46 bc 77 c4 9f 3d
       -0.020111963 0.033439852 -0.012090274 0.078011446
0002f0 3c de 9d 3d 17 12 19 3e cd df c3 bd 9c 5d 49 3d
       0.077084035 0.14948307 -0.09564171 0.04916154
000300 37 52 b5 bd 18 cc ea bc 9b 79 a3 bd 11 1e 34 bd
       -0.08853572 -0.028661773 -0.07982179 -0.043973986
000310 31 c4 99 3d 46 fd d4 bd e8 e4 5e bd 35 73 82 bd
       0.07508124 -0.103998706 -0.05441752 -0.0636963
000320 34 0d 1e bd 20 a4 ab bb ca 21 c9 3c 7e d8 6b 3d
       -0.03858681 -0.005238071 0.024552245 0.05757951
000330 a0 57 06 3d 21 66 0d 3d 71 46 8a 3c a9 68 8e 3d
       0.03279841 0.034521226 0.016879292 0.06953556
000340 27 39 f1 3c df 10 da bc 4c c8 d7 3d f2 f3 e2 3d
       0.029446198 -0.026619373 0.105362505 0.11081685
000350 8b ae b1 bc ec 87 bf bd 45 d8 58 bd ce 84 20 3d
       -0.021689674 -0.09352097 -0.052940626 0.039189152
000360 03 f3 eb bc 09 29 1d bd a3 34 1d 3b 4d c7 90 bd
       -0.0288024 -0.038369212 0.0023987673 -0.070692636
000370 df 5d a5 3b 3d 4b fe 3b e2 93 a7 bb 8c d3 17 bd
       0.0050465907 0.007760434 -0.0051140646 -0.03706698
000380 5f 2e 9b bd 2f 30 97 3d 19 dd a8 3c ac cf a8 3d
       -0.07577204 0.07382237 0.02061324 0.08242735
000390 1b d2 32 bb c5 75 9c bd 51 a6 ea bc 18 3c 7a bd
       -0.0027285877 -0.0763965 -0.028643759 -0.061092466
0003a0 b2 51 87 3d 6c 98 df bd 38 73 cf 3d 11 d0 4a bd
       0.06607379 -0.10917744 0.10129398 -0.049514834
0003b0 48 84 f0 bd 90 0e c2 3d 95 e2 60 bd 84 b9 34 3c
       -0.11743981 0.09475434 -0.054903585 0.0110305585
0003c0 c4 7a 11 3d 24 c2 69 3d cc 48 ee 3c e6 17 58 3a
       0.03551747 0.057069913 0.029087447 0.0008243307
0003d0 cf 20 6a bd 20 38 89 3d 69 9b 52 bd ea 02 c2 3b
       -0.057160195 0.06700158 -0.051417742 0.0059207575
0003e0 41 1c 1e 3d 7a 26 55 bd a3 f7 64 bd 7e bf 85 bd
       0.038601164 -0.052038647 -0.055900227 -0.06530665
0003f0 c5 c7 3c bc 5a f1 c6 bc cd 35 53 bd 8a 08 27 bd
       -0.011522238 -0.024285007 -0.05156498 -0.040779628

cnn2.bias f4 [32]
000000 23 31 97 3c 58 b2 85 3d 2c 33 1b 3d f1 a2 64 3d
       0.018456047 0.06528157 0.0378906 0.055819456
000010 4c 3f 6d 3d ae a8 ce bc c4 45 3c 3d 32 2d 77 3d
       0.057921693 -0.025226917 0.04596497 0.060345836
000020 8f 0c 5a bd 0f 35 d5 3c 37 98 88 bd 4b 9d 3e 3d
       -0.053234633 0.026026277 -0.06669658 0.046536725
000030 c0 31 46 3c af f9 a3 bd 3f 5c 03 3d 75 10 70 3c
       0.012096822 -0.08006608 0.032070395 0.014652361
000040 3c 07 07 bb 77 25 07 bd 2e 59 34 bc 1b b3 6c bd
       -0.0020603677 -0.032994714 -0.01100759 -0.057787996
000050 65 85 8a 3d aa 77 a6 bd a8 e8 8c bd 64 bf 0a 3c
       0.06763724 -0.08128293 -0.06880313 0.008468483
000060 ca 23 70 3d 91 05 86 3d b8 1e 89 bd 7c 60 a5 3b
       0.05862788 0.065440305 -0.06695312 0.005046902
000070 ea a6 9c bd 1d a0 8d 3d 07 a6 89 bd ae 36 ff bc
       -0.07649024 0.06915305 -0.0672112 -0.031154003

bn2.weight f4 [32]
000000 9c 20 80 3f 81 1e 80 3f fe 93 80 3f e5 0d 80 3f
       1.0009952 1.0009309 1.0045164 1.000424
000010 e6 14 80 3f ea 77 80 3f 7c e7 7f 3f b9 dc 7f 3f
       1.0006378 1.0036595 0.9996259 0.9994617
000020 10 f4 7f 3f d3 2b 80 3f 50 3f 7f 3f 73 79 7f 3f
       0.99981785 1.0013374 0.9970598 0.9979469
000030 ec 44 80 3f 4e 5e 80 3f 0b 01 80 3f 5a 3d 80 3f
       1.0021033 1.002878 1.0000318 1.0018723
000040 6c e1 7f 3f 98 28 80 3f 96 b1 7f 3f 0c 23 80 3f
       0.9995334 1.0012388 0.9988035 1.0010695
000050 f2 31 80 3f 45 89 7f 3f 8a 27 7f 3f d1 e2 7f 3f
       1.0015242 0.9981883 0.99669707 0.9995547
000060 71 01 80 3f 39 ec 7f 3f 13 e3 7f 3f e9 23 80 3f
       1.000044 0.9996982 0.9995586 1.0010959
000070 e0 0e 7f 3f 34 7a 7f 3f ed 0e 80 3f d8 2f 7f 3f
       0.9963207 0.9979584 1.0004555 0.9968238

bn2.bias f4 [32]
000000 57 04 57 3a 66 8e a4 39 75 ec 15 3a 19 6b 16 3a
       0.0008202246 0.00031386613 0.0005719134 0.00057380047
000010 9c bc af 3a dd 04 e7 3a 7f 96 27 ba 43 83 bb b8
       0.001340765 0.0017625351 -0.000639297 -8.941304e-05
000020 f7 22 17 ba c2 1f 89 3a 12 48 85 b9 76 3c a5 b9
       -0.0005765403 0.0010461735 -0.00025421433 -0.000315163
000030 e2 b2 b4 3a 85 fd 29 3b 4c ab 44 3a 1e 09 83 3a
       0.0013786221 0.0025938463 0.0007502332 0.0009997224
000040 95 be 03 3a 66 97 69 3a 32 c8 87 3a f1 30 2a 3a
       0.00050256524 0.0008910805 0.0010359345 0.0006492278
000050 42 25 9c 3a 8d 91 24 b9 ad dd 45 ba 34 93 d7 38
       0.0011912959 -0.0001569448 -0.0007547986 0.000102794176
000060 4b 7b 8a 38 52 53 f7 39 1c 30 10 39 ce 56 fa 36
       6.603318e-05 0.0004717359 0.00013750832 7.460686e-06
000070 d4 2a 85 ba 56 da 3f ba 5b 05 0d 3a a8 4c ea 39
       -0.0010159859 -0.00073186064 0.0005379521 0.0004468907

bn2.running_mean f4 [32]
000000 b5 12 90 be 37 3b fd bd 13 18 7e bc ed 37 2e 3e
       -0.28139272 -0.1236481 -0.015508669 0.17013521
000010 61 4c 66 3e c3 c3 60 be 1e b5 ef bd 05 cc 8e be
       0.22490074 -0.21949677 -0.11704467 -0.2789003
000020 b1 bc e7 be f3 a6 2d 3f 71 20 98 3e 78 11 3c 3e
       -0.45261148 0.6783287 0.2971225 0.18366039
000030 b0 80 e2 3d fe ad f7 3e 09 4b 3a 3f 3e 33 8a 3e
       0.110597014 0.48374933 0.72770745 0.2699222
000040 00 72 8b bd 5b 49 45 be 68 38 fa 3e 77 6f 0f be
       -0.06808853 -0.19266264 0.4887116 -0.14007364
000050 1f 7c ab 3e 23 6a 84 3e 15 97 63 3e 09 37 c4 bd
       0.33493134 0.25862226 0.22225602 -0.095808096
000060 7e c2 63 3e bb 1e 66 be a0 ae 41 3e fe da b4 bc
       0.22242162 -0.2247266 0.1891427 -0.02207708
000070 eb 1e 22 bd f7 fb 30 3e d1 e6 87 be 0a 4a de be
       -0.039580267 0.17283617 -0.26543286 -0.43415862

bn2.running_var f4 [32]
000000 3e 75 bb 3e 6a fd 4a 3e a9 64 93 3e e9 dd 09 3e
       0.36612886 0.19823232 0.28787735 0.13463558
000010 1c e4 b3 3e a1 d2 df 3e 13 eb 72 3e 71 f0 46 3e
       0.3513497 0.43715385 0.23722486 0.19427659
000020 86 b4 aa 3e ef df 9e 3e 00 eb 04 3f 19 40 4a 3e
       0.33340853 0.31030223 0.5192108 0.19751014
000030 b4 fa 2c 3f 3d bd b6 3f 43 f8 3a 3f f2 a9 b5 3e
       0.6757004 1.4276501 0.7303507 0.3548122
000040 69 5d 4d 3e 46 b3 b6 3e b5 24 f1 3e 6c 14 ea 3d
       0.20055164 0.3568365 0.47098318 0.114296764
000050 b5 40 8e 3e 76 ad 0c 3f 5b b1 14 3e 1a 8e 0b 3e
       0.27783743 0.5495218 0.1452078 0.13628426
000060 ec 82 16 3f 75 c4 bb 3e d4 f1 c2 3e e8 b0 35 3e
       0.5879352 0.36673322 0.38075125 0.17743266
000070 fc 89 9f 3e 98 6c 01 3f 2a 83 2c 3e 77 dc f8 3e
       0.3115996 0.50556326 0.1684691 0.486057

cnn3.weight f4 [64, 32, 3, 3]
000000 fa b4 d3 3c 65 cb b2 bc e3 61 22 bd 50 de 20 bd
       0.025843132 -0.021825502 -0.039644133 -0.039274514
000010 dc ed ae bc d1 49 75 3d 2d df eb 3c f9 43 f6 bc
       -0.021353655 0.05988485 0.028792942 -0.030061709
000020 00 8c 3a 3c 71 9f e9 bb 15 ad 03 bd e3 91 41 bc
       0.011385918 -0.0071296026 -0.032147486 -0.011814567
000030 14 b3 ee 3a f9 ee b8 3c 0f 70 b1 bd 0b 3e c5 3d
       0.0018211328 0.022574889 -0.086639516 0.096309744
000040 91 6c a0 bc 39 70 82 3c 4e 0e c2 bd 9e 61 21 3d
       -0.019583018 0.015922653 -0.09475385 0.039399736
000050 0b 32 d5 bd e3 12 a0 3d 56 16 56 bc e7 5a 6a bc
       -0.104099356 0.07816102 -0.013066849 -0.014303899
000060 14 34 81 3d 3e 38 ef 3b 40 df 2c bd 25 9c 4b bd
       0.06308761 0.0073004058 -0.042205095 -0.049709458
000070 57 81 5a 3d cb 15 c4 3c 13 db fe 3c 4f ed 26 bd
       0.053346004 0.023936173 0.031110322 -0.04075366
000080 06 3d 67 3d ab dd d4 bd db 91 d3 3d fa 89 39 bc
       0.05645468 -0.10393842 0.10330554 -0.0113244
000090 11 a9 b1 bc 8a 3f 46 bd e4 80 ff bc ab 97 4c 3c
       -0.021687062 -0.04840044 -0.03118939 0.012487332
0000a0 6b ef 3c 3c e6 0f 57 3d d2 4c f1 3c d0 4f 8d bc
       0.011531691 0.052505396 0.029455576 -0.017249972
0000b0 57 2b be bc 46 99 46 bd 97 5c 48 3b 71 c2 99 3c
       -0.023214025 -0.048486017 0.0030572766 0.018769475
0000c0 a2 d3 2a bd 32 8f 23 3d 61 1a e3 bc a6 16 44 bd
       -0.041705735 0.039931484 -0.02772254 -0.04787316
0000d0 17 1b cf bd a6 ce 16 3c 78 fc 9f 3b 5f 20 0f bd
       -0.10112589 0.009204542 0.0048823915 -0.03494298
0000e0 76 ea 48 bd ac f4 f5 bd 9b d2 bb 3d 70 be 95 bd
       -0.049051724 -0.12009558 0.09171029 -0.07311714
0000f0 8d 17 08 bd 49 4b 0c 3e af 0f 11 bd 04 1f bc bd
       -0.033225585 0.13700594 -0.035415348 -0.09185603
000100 19 30 49 bd 0b b4 5d 3d a1 a3 0b bc 6a b6 1f bd
       -0.049118135 0.05412678 -0.008522899 -0.038992323
000110 a1 2a 06 bc 01 a7 b3 3b eb fe 55 bc ad 15 27 bd
       -0.008188874 0.005482555 -0.013061265 -0.040792156
000120 1f cf bb 3d 30 89 3f bd a8 94 8a bd 80 df d1 3c
       0.091703646 -0.04676169 -0.06766635 0.025619268
000130 8e 7f bc 3b 81 b4 b6 3d ab 45 eb 3b 61 5a 55 3d
       0.0057525104 0.08921147 0.007179936 0.052088145
000140 fa d2 b5 bb 97 73 ac 3c 07 90 64 bb a1 76 cc 3b
       -0.005548832 0.021051211 -0.0034875886 0.0062397276
000150 1a d9 bd 3d af f9 9a bb 93 82 19 3d 57 2e 45 3c
       0.092699245 -0.0047294716 0.03747804 0.012034974
000160 ca 77 1e 3c 47 04 af bb 01 59 93 bc 66 bc 85 3d
       0.009672115 -0.005341086 -0.017986776 0.06530075
000170 5a 83 4b bd 5b 13 c6 bc ea 04 9c bd d1 2f 30 3d
       -0.049685813 -0.024179151 -0.07618125 0.04301435
000180 a1 c8 c6 bc 33 86 80 3d a7 70 da bb 92 ef 18 3c
       -0.02426559 0.062755965 -0.0066662612 0.009334462
000190 47 04 3a 3d 02 ce b8 3c 5e 89 f9 bc 55 ee 6f 3c
       0.045414235 0.02255917 -0.03046101 0.014644225
0001a0 3c c6 48 bd 56 af b3 bc 77 6b e1 3b af a9 4a bd
       -0.049017176 -0.021934193 0.006879266 -0.04947823
0001b0 70 58 3b bd 17 6d 8d bd 4b f1 6f bd ed 71 9e bc
       -0.045738637 -0.06905573 -0.058579724 -0.019341433
0001c0 41 93 32 3d ae e3 a9 3c 68 60 12 bd eb 83 2e bc
       0.043597464 0.020738449 -0.03573647 -0.010651569
0001d0 ef cc 5a bc 01 1f 1c bc 30 ff 33 3d 29 03 92 b9
       -0.013354524 -0.009528876 0.043944538 -0.00027849645
0001e0 4c 14 09 bd aa 7c 48 3d 99 90 17 bb 37 c6 4b 3c
       -0.033466622 0.048947014 -0.0023126958 0.012437395
0001f0 4c 78 e6 3d 82 9d 58 3d a9 ff 17 3d d1 27 54 bc
       0.112534136 0.052884586 0.03710905 -0.012948946
000200 70 04 82 bc 25 38 35 bc c2 8a b3 bb dc 95 06 3b
       -0.015871257 -0.011060749 -0.0054791877 0.00205361
000210 28 5b 80 3d 1f 5e 40 bd 3f 13 5f 3d b5 3c 7e bb
       0.06267387 -0.04696476 0.054461714 -0.0038793508
000220 ce 42 93 3c 0c e9 93 3c 11 91 85 3d fb 56 a0 3d
       0.01797619 0.018055461 0.0652181 0.0782909
000230 6f 6d 95 3d 45 8c 8c 3c c6 c9 b5 bc 4b 61 a3 bd
       0.072962634 0.01715673 -0.02219094 -0.079775415
000240 38 00 b4 3c b0 4d a4 bd 4e f3 c4 bc 8b 8b 02 3e
       0.02197276 -0.0802263 -0.024041798 0.12748544
000250 4e 17 98 bc cc 81 18 3d 77 75 6c bd c4 fc de 3c
       -0.0185658 0.03723316 -0.05772921 0.027220137
000260 77 93 de 3b 20 81 06 3d d7 e8 20 3d 82 e9 f9 3c
       0.0067924815 0.032837987 0.039284553 0.030506853
000270 2c f8 b7 3c 55 f1 25 3d d9 d9 67 3d 89 f2 49 3d
       0.022457205 0.040513355 0.05660424 0.049303565
000280 8c 9b b7 bc 9c 25 9f bb 03 55 6f 3d 5e 0b b2 bc
       -0.022413038 -0.0048567783 0.058430683 -0.021733936
000290 71 58 3d 3d 96 d8 7a 3d b9 6c f2 bc a0 90 29 3b
       0.046226922 0.06124171 -0.029592859 0.0025873557
0002a0 6b 34 1b 3d 6b 2c d3 bc dd b0 a4 3d 8b cd a0 3c
       0.037891787 -0.025778016 0.080415465 0.01962926
0002b0 38 71 b6 bd 47 eb 5f 3d 96 dc 48 3c 73 d0 e8 bc
       -0.089083135 0.054667737 0.012259623 -0.028419709
0002c0 a3 1d bf 3b b1 ab ae 3c df 3c 9c bd b2 bd 0c bd
       0.0058323904 0.021322103 -0.07628798 -0.034360595
0002d0 29 30 33 3d 3a 11 62 bc 92 1d 39 bd be c0 04 3e
       0.0437471 -0.013798052 -0.045194216 0.1296415
0002e0 b3 8d e2 3c 80 c7 9c 3d a0 87 28 bd cc 93 66 bd
       0.027655458 0.07655239 -0.041144967 -0.056293294
0002f0 51 a7 2e bd 22 ed 13 3c 2f ee 1e 3d a0 42 4b 3d
       -0.042640034 0.009028705 0.03880137 0.049624085
000300 fa f7 ae 3c 26 8a 4c 3d 37 99 c9 bc 80 43 28 bd
       0.021358479 0.049936436 -0.024609191 -0.041079998
000310 16 7a a7 bc c0 2a 40 bc bc 3a f8 bc 1e 28 59 bc
       -0.020443957 -0.011728942 -0.030301444 -0.013254194
000320 5a d6 13 bd 55 83 11 bd 46 b5 a7 bc 70 72 65 3d
       -0.036093093 -0.03552564 -0.02047218 0.05601734
000330 45 c8 b1 bc fb b0 2b 3d 5c 28 40 bd 08 d5 df 3c
       -0.021701941 0.04191683 -0.04691349 0.02732326
000340 c3 48 d6 bd d1 82 8a bb 29 59 a0 3c f1 1d 5c 3c
       -0.10463097 -0.0042270203 0.019573765 0.013434873
000350 65 3a ee 3c 27 4d d0 bc ec 66 84 3c 8b 94 c7 3c
       0.029080579 -0.025427414 0.016162358 0.024362823
000360 b1 50 8e 3c f7 55 bb bc 62 f4 f8 bc a1 c7 ad bd
       0.017372461 -0.02286814 -0.030389968 -0.08485342
000370 8a 5e 5a 3d ff 29 ff bb f7 cc 66 3d 6e bc a0 bd
       0.053312816 -0.0077869887 0.056347813 -0.0784844
000380 42 2c eb 3c de 9f b2 3c e4 1a b4 bb c6 82 4a 3d
       0.028707627 0.021804746 -0.0054963697 0.04944112
000390 c8 d0 ac bc 50 83 a9 3c b1 a1 58 bc 56 0c 07 bd
       -0.021095648 0.020692497 -0.013222144 -0.03297075
0003a0 60 7f 11 3d 4b 94 3f bd 30 22 e3 3d fc 68 ca 3c
       0.035521865 -0.046772283 0.11090505 0.024708264
0003b0 7f 67 6b bd e3 40 61 bd 02 0e 0f 3d 00 2a 87 3d
       -0.05747175 -0.05499352 0.03492547 0.06599808
0003c0 5b 4d 1e bc 9e 04 2c 3d 5f 91 e9 bc e7 3b 55 3c
       -0.009661998 0.04199659 -0.028511701 0.01301477
0003d0 6d dd ad bd 7d f5 21 bd fd d7 80 3d bf 67 38 bc
       -0.08489499 -0.039540756 0.062911965 -0.011255204
0003e0 65 22 b8 bd e0 6d 8b bc f5 3b b5 bd fe 27 4a 3d
       -0.08990935 -0.017020166 -0.088493265 0.049354546
0003f0 86 15 51 bd e9 80 45 3a 38 a0 c3 bc 8c f7 91 3c
       -0.051045917 0.0007534163 -0.02388011 0.017818235

cnn3.bias f4 [64]
000000 06 5d 10 bd e8 f4 46 bc c7 7c fb bc 7d ce 62 bd
       -0.035244964 -0.012143351 -0.030699147 -0.055372704
000010 f3 5d 17 3d 54 c8 8a bc da 43 9c 3c fb 89 93 39
       0.03695483 -0.016941227 0.019075323 0.00028140828
000020 38 d4 51 bc c4 00 4e bc d6 f5 c8 3c b7 e5 6d 3d
       -0.012806945 -0.012573425 0.024531286 0.0580804
000030 76 53 e5 3c 12 c5 02 bd 95 28 52 bd 4c 6b 12 bd
       0.027993899 -0.031926222 -0.051308233 -0.035746858
000040 80 ea 82 bb 55 4e 41 3d dc c5 4f bd c5 a8 04 bd
       -0.0039952397 0.047193844 -0.050725803 -0.032387514
000050 9d cb 27 3d a1 8b 18 bd 96 03 be 3c 9e d2 24 bd
       0.040965665 -0.037242536 0.02319507 -0.040239923
000060 14 0e 75 bc 92 de f9 3c ca f8 bb 3c 59 c3 da 3a
       -0.01495697 0.030501638 0.02294578 0.0016690298
000070 30 69 d3 bc 3d f1 5a 3d bd 51 f0 bc d4 96 2e bd
       -0.025806993 0.05345272 -0.02933585 -0.04262431
000080 30 1b 2e bc 38 32 21 bd 2c 00 35 3c 61 08 34 3d
       -0.010626599 -0.039354533 0.011047404 0.043953303
000090 f3 48 62 3d bc 8b 59 3a 30 18 a1 bb 80 45 bb bc
       0.05524535 0.0008298715 -0.0049162135 -0.022860289
0000a0 af 6c 58 3d 26 70 a6 bc 7a 3a e8 3c 17 73 19 3d
       0.052838024 -0.020317148 0.028348196 0.037463274
0000b0 ca 99 f2 3c 48 c8 c4 bb c3 ae 1e bd 3c 42 a9 bc
       0.029614348 -0.0060053207 -0.038740885 -0.020661466
0000c0 b8 1b c8 3b de d5 14 bd 46 ac 5e bd b0 68 a3 bb
       0.00610682 -0.036336772 -0.05436351 -0.004986845
0000d0 87 31 93 bb fc ca 20 3c bc 2e e8 bc 28 67 46 bc
       -0.004491988 0.00981402 -0.028342597 -0.012109555
0000e0 54 33 e2 bc e1 30 3c bd 26 73 ed 3c 16 2d af 3c
       -0.027612366 -0.045945052 0.028985571 0.021383803
0000f0 b2 20 9f 3c 82 a8 c7 bc 94 11 28 bd 48 3a 40 bd
       0.01942477 -0.024372343 -0.04103239 -0.04693058

bn3.weight f4 [64]
000000 ce 2c 7f 3f d5 b9 7f 3f b0 b8 7f 3f db 14 80 3f
       0.9967774 0.9989293 0.99891186 1.0006365
000010 8c ed 7f 3f d0 b4 7f 3f 15 19 80 3f 04 a5 7f 3f
       0.9997184 0.9988527 1.0007654 0.9986117
000020 b0 f4 7f 3f 3c 0e 80 3f 9f d1 7f 3f 41 95 7f 3f
       0.9998274 1.0004344 0.9992923 0.9983712
000030 cb d4 7f 3f f1 15 80 3f 66 04 80 3f 61 19 80 3f
       0.9993407 1.0006696 1.0001342 1.0007745
000040 80 00 80 3f 22 a3 7f 3f 02 5f 80 3f 0d 98 7f 3f
       1.0000153 0.99858296 1.0028994 0.99841386
000050 f2 24 80 3f 19 d7 7f 3f cc 80 7f 3f 48 82 7f 3f
       1.0011275 0.9993759 0.99805903 0.9980817
000060 fc 0c 80 3f 4a 06 80 3f 84 37 80 3f be e3 7f 3f
       1.0003963 1.0001919 1.0016942 0.9995688
000070 77 06 80 3f db d8 7f 3f 14 70 80 3f db 01 80 3f
       1.0001973 0.9994027 1.0034204 1.0000566
000080 b5 40 80 3f 27 b9 7f 3f 07 0e 80 3f 40 30 80 3f
       1.0019747 0.99891895 1.0004281 1.0014725
000090 7e c7 7f 3f d7 f4 7f 3f 9a b8 7f 3f b4 4c 80 3f
       0.99913776 0.9998297 0.99891055 1.0023408
0000a0 3a 23 80 3f 08 19 80 3f 1d 43 80 3f cf 0e 80 3f
       1.001075 1.0007639 1.0020481 1.0004519
0000b0 94 44 7f 3f a1 4f 7f 3f 40 19 80 3f e0 f3 7f 3f
       0.99714017 0.9973088 1.0007706 0.999815
0000c0 3d 81 80 3f e0 82 7f 3f e3 ed 7f 3f 4c 15 80 3f
       1.003944 0.99809074 0.9997236 1.0006499
0000d0 bb 1b 80 3f bc d4 7f 3f 12 67 80 3f e9 fc 7f 3f
       1.0008463 0.9993398 1.0031455 0.99995285
0000e0 33 5c 80 3f b9 9e 7f 3f bc 8f 7f 3f 62 4d 80 3f
       1.0028137 0.99851567 0.99828696 1.0023615
0000f0 05 ad 7f 3f 0c 57 7f 3f 3e f5 7f 3f 67 ed 7f 3f
       0.9987338 0.997422 0.99983585 0.9997162

bn3.bias f4 [64]
000000 43 ff 41 ba 94 bd f2 b9 63 ae ed b9 81 b6 fd 37
       -0.00074004027 -0.00046299084 -0.0004533409 3.0244935e-05
000010 be 8a 24 b9 9b 9d 92 b9 b9 d5 7c 39 b7 38 7f b9
       -0.00015691944 -0.00027964715 0.0002411221 -0.00024339823
000020 7d 38 84 ba 48 df a2 39 68 4a bb 39 6d 8a c0 b9
       -0.0010087636 0.00031065405 0.00035722856 -0.0003672423
000030 75 b6 9f b9 93 13 50 ba f6 8d ae b8 6a 40 1f 3a
       -0.00030462784 -0.0007937487 -8.323409e-05 0.0006074967
000040 ed 3f 85 b9 58 57 cd b9 af 18 2d 3a fe 94 76 b9
       -0.00025415365 -0.00039165723 0.00066031044 -0.00023515892
000050 07 ab d5 37 c6 79 f0 b7 6e 70 e1 ba c7 59 08 ba
       2.547122e-05 -2.8666935e-05 -0.0017199644 -0.0005201366
000060 cc 57 d5 39 ac 6e cd b7 2c 21 17 3a 93 e9 56 ba
       0.0004069194 -2.448944e-05 0.0005765136 -0.00081982574
000070 d0 a6 d9 b9 1d 2b 0a 39 36 ad d2 3a a8 3f 1f 38
       -0.0004151375 0.00013176767 0.0016073349 3.796784e-05
000080 1a bb af 39 fc 07 37 ba 59 92 59 b8 3c c5 44 3a
       0.00033518003 -0.0006982086 -5.187313e-05 0.0007506197
000090 6f 83 f6 b9 65 05 66 39 08 a7 81 39 dc 6e 15 3b
       -0.00047018702 0.00021936519 0.00024729245 0.0022801673
0000a0 a5 52 6d 3a 6c 4a 4d 3a ae d6 c3 3a c5 39 59 39
       0.00090531475 0.0007831219 0.0014941299 0.00020716253
0000b0 e0 a8 1d ba 83 8a 3f ba 25 fd 58 3a 76 b1 34 39
       -0.0006014239 -0.00073067116 0.00082774676 0.00017232247
0000c0 7c f3 c7 3a 1e 71 89 ba 0e 72 df 37 5d c6 c0 b9
       0.0015255059 -0.0010485982 2.6636782e-05 -0.00036768886
0000d0 67 b3 2a 3a 6c 58 66 ba 4c 31 91 3a 3d e4 50 b9
       0.00065117184 -0.00087869796 0.0011077314 -0.00019921451
0000e0 5f f8 6a 3a a4 ac 08 ba 40 ad ee b9 98 c3 d7 b8
       0.0008963402 -0.0005213714 -0.0004552398 -0.00010288431
0000f0 a2 d6 36 b9 e3 38 9f ba f7 56 9d 39 f7 78 06 ba
       -0.0001743683 -0.0012147691 0.00030010167 -0.00051297195

bn3.running_mean f4 [64]
000000 da c1 9d 3d b1 1f 04 3e 4b 5a 05 be de ad 15 be
       0.0770299 0.12902714 -0.13022725 -0.14617106
000010 6c 8d 6c bc 3c 4d fa 3d a0 dc 2b 3f 57 f0 6a 3e
       -0.0144380145 0.122217625 0.6713352 0.22943245
000020 e3 86 e9 be 5a b2 da 3d 85 ab c2 3e 75 9a b3 3d
       -0.45610723 0.10678549 0.38021484 0.08769695
000030 1b 19 98 3d fb 6d 8b bd 66 51 15 bf 19 31 96 bd
       0.074266635 -0.068080865 -0.5832733 -0.073335834
000040 78 af f4 3c 89 8f 04 bc 16 29 2f be 5f a7 df be
       0.029868826 -0.008090862 -0.17105517 -0.43682382
000050 9e 72 80 3d 9b b0 7e 3d 66 94 08 bf d9 ae 82 be
       0.062718615 0.062180143 -0.5335144 -0.25524023
000060 b1 d1 44 bf f0 ae a4 be 4a 3c 7a be 4b 4c 0d bd
       -0.76882464 -0.32164717 -0.24437061 -0.034496587
000070 b0 8d cf be e8 79 a1 3e 5a e1 6b 3d 81 1e 5b 3e
       -0.40537786 0.3153832 0.05758796 0.21398355
000080 57 f6 cd 3d 06 83 27 3e 1e b8 2b be 51 f0 91 bd
       0.10056751 0.16358575 -0.16769454 -0.07125915
000090 c3 ca 4c be 0e 6d 8d 3b 28 94 87 be 04 70 25 be
       -0.19999222 0.004315979 -0.26480222 -0.16156012
0000a0 8e ec 5b be c0 e2 7e bd b2 46 33 be 24 5d a4 3e
       -0.21476957 -0.062227964 -0.17507437 0.3210231
0000b0 84 8c 28 3f 44 e5 1e 3e 50 58 25 3d 5a 74 9b be
       0.6583941 0.15517145 0.040367424 -0.30362207
0000c0 13 8b 51 3e 6e 13 7f be e3 1b 19 3f 89 70 59 3e
       0.20463209 -0.24909756 0.59808177 0.21234335
0000d0 37 fe 61 be b9 1c 06 3e 38 c0 dc bc 81 62 da 3e
       -0.22069632 0.13096894 -0.026947126 0.42653278
0000e0 1f 6c a6 3d 8b 9f 85 3f e8 15 ae 3e f7 34 c5 3e
       0.08126091 1.0439314 0.34001088 0.3851697
0000f0 5f 44 78 bd de 9d 55 3e 49 fa 5a bc 90 57 99 be
       -0.06061208 0.20861003 -0.013365337 -0.29949617

bn3.running_var f4 [64]
000000 99 a7 7b 3e 35 00 51 3e c5 15 4e 3e 75 1f ae 3e
       0.24575652 0.20410235 0.20125492 0.34008375
000010 c2 53 a0 3e 46 cf 86 3e fb ba a4 3e 5d cc fc 3e
       0.31313902 0.26330012 0.32173905 0.49374667
000020 a2 8b ff 3e 47 e5 76 3e 48 6a b1 3e 4a f3 82 3e
       0.4991122 0.241109 0.346514 0.2557624
000030 83 6f 88 3e 91 64 ac 3e c1 d1 09 3f 63 2f a2 3e
       0.26647577 0.33670476 0.53835684 0.31676778
000040 24 5d 07 3f c8 da 9d 3e 03 4e a3 3e 0f be 9a 3e
       0.52876496 0.3083098 0.31895456 0.30223128
000050 bf 95 8a 3e 81 f6 83 3e 00 98 09 3f 8a 9d 65 3e
       0.27067372 0.25774005 0.5374756 0.22423378
000060 7b ef 42 3f 89 e3 0d 3f de 8a b7 3e ed 84 0f 3e
       0.7614667 0.55425316 0.35848135 0.14015551
000070 02 b1 fd 3e ae 7e 9e 3e 0b 94 89 3e 77 28 9c 3e
       0.4954911 0.30956024 0.2687076 0.30499622
000080 ba d3 1a 3e 2a b8 45 3e 8a 52 45 3e b8 db 96 3e
       0.1511983 0.19308534 0.19269767 0.29464507
000090 90 57 3d 3e 29 c6 ba 3e aa b7 ad 3e 9d 0e 9f 3e
       0.18490434 0.3647931 0.33929187 0.31065837
0000a0 4b dd c6 3e c9 b4 f2 3e 3d 5e b6 3e cc 23 90 3e
       0.38840708 0.47403553 0.35618773 0.2815231
0000b0 1b 00 41 3f ac 69 69 3e 88 c7 a7 3e 46 ac 0e 3f
       0.75390786 0.22794217 0.32769418 0.5573162
0000c0 2f 5e 34 3e c4 b8 8b 3e 8d 44 1a 3f 80 59 d4 3e
       0.17614053 0.27289402 0.6026085 0.41474533
0000d0 48 fc 6c 3e a6 b5 85 3e 27 64 95 3e 1f d4 b5 3e
       0.23143113 0.2611515 0.29177973 0.35513398
0000e0 ce 21 98 3e a7 26 92 3f 6f dd 13 3f 8c d2 cf 3e
       0.2971329 1.1418046 0.57759756 0.40590322
0000f0 72 0d 83 3e 06 4e ff 3e 82 77 4c 3e c7 5d 68 3e
       0.25596195 0.49864215 0.19967464 0.22692023

cnn4.weight f4 [128, 64, 3, 3]
000000 ca 73 0d bd b3 81 91 bc 80 2f 48 bd 35 44 80 3c
       -0.034534253 -0.01776204 -0.048873425 0.015657524
000010 80 bf 3e 3c 04 46 75 bb e5 e3 6e 3b cf bc 0b 3d
       0.011642337 -0.0037425766 0.0036451754 0.03411561
000020 9b 24 e3 bb 14 72 28 3d bc f8 42 bd 9f 5b d2 bc
       -0.006931854 0.04112442 -0.047600493 -0.025678454
000030 bc be ef bd 52 ba 53 3c dd b6 0b bc 47 11 54 bd
       -0.117063016 0.01292284 -0.008527485 -0.05177429
000040 11 27 8e 3c cb 25 54 3d 4f 31 a1 bb 88 ef 10 bd
       0.017352613 0.051793855 -0.004919208 -0.035384685
000050 73 fb 3a 3c 8d a3 6a bc aa cf ab bc 3f 1f 03 bb
       0.011412489 -0.01432122 -0.020973045 -0.0020007638
000060 a1 e0 7a 3d d6 e8 b8 3d 8a d5 4a 3c 05 2a 17 bc
       0.06124938 0.09028785 0.012380013 -0.009226327
000070 c3 93 30 bd 76 dc 9c 3c d9 4e 9f bc 4b c3 78 3d
       -0.043109667 0.019148093 -0.019446777 0.06073312
000080 1c c3 26 3d af 65 2e bd 2b 49 8d bc 48 2c a8 bc
       0.040713415 -0.04257744 -0.017246803 -0.020528927
000090 67 87 e0 bb 22 61 83 bc 82 01 ac 3c 25 62 29 bd
       -0.0068520787 -0.016037527 0.020996813 -0.041353364
0000a0 ab d3 aa 3c ec b3 c6 bc 70 90 50 3c c8 f2 98 3c
       0.020852884 -0.024255715 0.012729749 0.018670455
0000b0 c8 24 56 3d c6 10 be bc 15 52 16 3b f3 27 59 bb
       0.05228117 -0.023201358 0.0022937108 -0.0033135384
0000c0 2e 25 5a bd 98 70 8e bb 51 d5 3d bb 6e 7c 3c 3c
       -0.053258114 -0.0043469183 -0.0028966258 0.011504276
0000d0 d1 b6 67 3c bb 62 2b 3c 49 80 63 bc fd c3 13 3d
       0.014142708 0.010460551 -0.013885566 0.03607558
0000e0 25 86 3f bc 2e 99 09 bd d0 d2 0d bc 6f 89 0b 3d
       -0.011689697 -0.03359335 -0.008656219 0.034066614
0000f0 f1 ba d5 3b e4 65 89 3d aa ab b0 bc 8d 83 34 3c
       0.0065225293 0.06708887 -0.02156623 0.011017692
000100 f2 e3 c5 bd 18 28 2f 3c b8 7b 73 3d 99 1e 59 3c
       -0.09662618 0.010690711 0.05944416 0.013251924
000110 62 45 59 3b d2 e7 2f 3c 33 72 16 bd 96 36 08 3d
       0.0033152928 0.010736423 -0.036730003 0.033255182
000120 8f bc 22 bd 3a b0 23 ba 45 e5 b2 3b 7a 65 f8 bb
       -0.039730605 -0.00062442163 0.00545946 -0.0075804563
000130 f2 94 a1 3c 51 02 9c bc 01 b0 8d bc 6c e3 c9 3a
       0.019724343 -0.019044073 -0.01729584 0.001540286
000140 30 6a 0b 3c 3a 2a 0e bc 34 59 65 3d e7 8c 4e 3d
       0.008509204 -0.00867706 0.055993274 0.050427344
000150 4c b5 99 bb 52 65 16 3b 1b 33 48 3d 4e e3 7d 3c
       -0.0046908017 0.0022948575 0.048876863 0.015496088
000160 a3 90 31 3c f8 67 1e bd fe fa ac 3b 68 ee 01 3d
       0.010837707 -0.03867337 0.005278944 0.031721503
000170 61 1e 2d 3d ef 57 21 3d 77 7c b7 bc 28 44 8b bc
       0.0422653 0.0393905 -0.022398217 -0.017000273
000180 e7 a3 fa 3c a8 40 25 3d b1 2e ba bb 75 59 b8 bd
       0.030595733 0.040344864 -0.0056818356 -0.090014376
000190 c8 30 23 bc 8a 7b 42 bc 81 b8 89 bc e7 b0 0d 3d
       -0.009960361 -0.011870274 -0.016811611 0.034592535
0001a0 50 12 bf bc 39 48 7c bb 1d 58 04 bc 46 de 88 bc
       -0.023324162 -0.0038495196 -0.0080776485 -0.01670755
0001b0 49 a8 20 bd 6d 25 b9 ba 00 ab 60 3d f3 c0 bc 3b
       -0.03922299 -0.0014125534 0.05485058 0.005760306
0001c0 96 59 03 bb a9 de 3b 3c 62 11 a3 3c 59 4e 5d 3c
       -0.002004241 0.011466661 0.01990575 0.013507449
0001d0 ac 85 83 3c 2d 21 a6 ba b1 44 a4 3d d7 f7 91 3c
       0.01605495 -0.0012674682 0.08020914 0.017818375
0001e0 78 61 32 bd e5 a6 a5 bb 47 63 9e ba c6 71 e1 bb
       -0.043549985 -0.005055296 -0.001208403 -0.006880018
0001f0 56 e0 67 bc 37 51 83 3c 25 e9 2e bc 14 dd 16 bd
       -0.014152607 0.016029937 -0.010675703 -0.03683193
000200 7b 53 10 bb f8 c6 46 3c fe f5 65 b9 6a 84 90 3a
       -0.0022022414 0.012132399 -0.00021930781 0.0011025791
000210 7a b1 49 bc ed 21 bb bb 3c 68 16 bc 34 4d a0 3b
       -0.01231038 -0.0057108314 -0.009180125 0.004892016
000220 27 83 18 bd 92 ee 16 bd ea ac d2 3b 87 a4 33 bb
       -0.03723445 -0.036848612 0.0064293044 -0.0027411298
000230 e4 f4 b4 bb bb e7 8c bc 06 53 65 bd 18 4e 94 3b
       -0.0055223573 -0.017200341 -0.05598738 0.004525911
000240 e3 5c 27 3c 57 5b cb 3c 92 7b 9e bd 2f d3 94 3c
       0.010215017 0.024823828 -0.07738413 0.018167106
000250 a4 d0 f5 bc 75 0d 25 bd 18 cd 3b bb 68 4e 42 3d
       -0.030006714 -0.040296037 -0.002865618 0.047438055
000260 1b 35 27 3d ad ac 37 bc 2e 05 d1 3c 7b 43 95 bc
       0.04082213 -0.011210603 0.025515165 -0.018220654
000270 1f 37 12 3c 4b 61 97 3d a9 ab 00 3d ac 55 81 3c
       0.008924275 0.07391604 0.031413708 0.015787922
000280 41 29 06 3d 96 e4 4a 3d 9c a6 d5 3c 42 77 80 bc
       0.032754187 0.049534403 0.026080422 -0.015681867
000290 14 dd fe 3c 9c dd 37 bd f7 9b e8 3c 85 04 03 3c
       0.031111278 -0.044889078 0.028394682 0.007996683
0002a0 77 14 0d bd 8e 6d 27 3d d0 fd 0e 3d 24 8f ae 3c
       -0.034443345 0.040875964 0.034910023 0.02130849
0002b0 2c 44 c9 bc e2 10 1c 3b ef b9 eb bb c6 8f 20 3c
       -0.02456864 0.0023813774 -0.007193796 0.009799903
0002c0 11 18 1a bd d8 85 23 3d 54 40 04 bd b5 69 16 bc
       -0.037620608 0.039922565 -0.03228791 -0.009180476
0002d0 c0 cb 86 bc a8 42 44 3c 37 46 a7 3b 0d 0e 98 bd
       -0.016454577 0.011978783 0.005104806 -0.07424555
0002e0 45 94 60 3d de 13 4f 3d b8 21 4b 3c 10 9c 14 3d
       0.0548289 0.050556056 0.012398176 0.036281645
0002f0 90 c0 bf 3b 4e fb 35 3b 01 8c c7 bd b6 1d dd 3c
       0.0058518127 0.0027768197 -0.097435005 0.026991706
000300 29 bc 42 3d e1 3f 25 bd 91 6f 72 3d 83 63 98 bb
       0.047542725 -0.040344123 0.05918843 -0.0046505346
000310 60 84 13 bd 05 16 8c 3c 77 45 95 bd 3d 69 03 3d
       -0.036014915 0.017100343 -0.0728864 0.032082785
000320 f5 f8 f2 ba 48 6f 47 bc 79 3f 38 bd 54 68 59 3c
       -0.001853733 -0.012172528 -0.044982407 0.013269503
000330 e6 d0 0a 3b 2b b8 44 bd d7 22 85 3c 88 60 c0 3b
       0.0021181642 -0.0480272 0.016251964 0.0058708824
000340 b0 b2 08 bd 83 f1 a2 bc 8b 9c 72 bc 90 07 02 3c
       -0.033373535 -0.019890552 -0.014807831 0.007936373
000350 14 70 c3 bb 90 28 84 3d 7c b4 20 bc d5 a3 fe bc
       -0.0059642885 0.06453049 -0.009808656 -0.03108398
000360 8d 5d d2 3c ef 28 0a 3d 1a 5c 03 3d 6c 07 b8 3c
       0.025679374 0.033730444 0.032070257 0.022464477
000370 f4 92 5b 3c 7b 24 0d bd 2f 17 14 3c 90 04 a7 bd
       0.013401736 -0.03445862 0.0090387305 -0.08155167
000380 8b 70 de bc 79 cd 43 3d 13 12 9e 3b 28 5c 02 3d
       -0.027153274 0.047803376 0.004823932 0.03182617
000390 5d 8b 5c 3b 63 51 31 bd 28 57 c1 bc 5d f4 6a bd
       0.0033652403 -0.043290507 -0.02360113 -0.05736195
0003a0 d8 23 c0 3c 3f 26 44 bd fc ed 69 bd d0 f6 21 bd
       0.023454592 -0.047888037 -0.057111725 -0.03954202
0003b0 b3 f2 ba 3c 3a cf a2 bd 1a 48 0b 3d 57 48 df ba
       0.022820806 -0.079496816 0.03400431 -0.0017035109
0003c0 b5 ca 2b bd c2 db 20 bd 9d 01 8e 3c 62 4b 04 bd
       -0.041941363 -0.039272077 0.017334754 -0.032298453
0003d0 bc 91 2c bc c9 db 02 bc ab 69 27 3c f7 c9 81 bc
       -0.010532793 -0.007986971 0.010218064 -0.015843375
0003e0 c0 f9 80 3d d3 48 dd 3c 34 5e 00 3b 8e 80 56 3d
       0.06297636 0.027012264 0.00195874 0.052368693
0003f0 98 25 82 bc 72 b4 14 3d 6e 33 ce bc 8c a6 0c bd
       -0.015887067 0.0363049 -0.025171008 -0.03433852

cnn4.bias f4 [128]
000000 7d b8 23 3d 73 ee 05 3d 1f 66 18 bd e6 04 e0 bc
       0.039970864 0.032698106 -0.037206765 -0.027346086
000010 6b 44 07 bd 78 73 98 3c ba 04 dc 3c 38 8a ee bc
       -0.033024233 0.018609747 0.026857723 -0.029118642
000020 f0 be 4a 3b 2d 79 25 3d 9e 63 d4 bc a5 fd 23 3d
       0.0030936562 0.040398765 -0.025926407 0.040036816
000030 b2 bb b3 3c 39 a9 12 3d fe 68 92 3c d2 3b f4 3c
       0.021940086 0.035805915 0.01787233 0.02981368
000040 1f 4f 14 bd e0 e5 ed 3a c0 3b 64 ba da 3d b0 3c
       -0.03620827 0.0018150173 -0.0008706413 0.021513868
000050 86 fc dd 3c d0 4d 81 bc 6e a3 df 3c 41 25 07 3d
       0.027097952 -0.015784174 0.027299609 0.032994512
000060 bc 29 4b bc 60 93 5f bc 8b d9 d5 bc 5d 01 27 3d
       -0.012400087 -0.013645977 -0.02610471 0.040772785
000070 b0 fc 67 bb ce 89 95 bc 70 64 b9 bc 2e ae 87 bc
       -0.0035398416 -0.018254187 -0.0226309 -0.016562548
000080 b6 bf cc bc 2c 26 77 3c f2 26 f8 3c 3e 5b df 3c
       -0.024993759 0.0150847845 0.030292008 0.027265187
000090 9e 3c d7 bc aa b5 da 3c bf cf 7d 3a 9a 91 fc 3c
       -0.026274022 0.026697952 0.00096821407 0.030831147
0000a0 a5 e1 29 3d f0 b8 28 bc 80 71 0d bd ae 01 20 bd
       0.041474957 -0.010297999 -0.03453207 -0.039064102
0000b0 73 de 13 3d a4 6f 18 3c 42 ff f8 3c 68 30 97 3c
       0.036100816 0.009303961 0.030395154 0.0184557
0000c0 a0 02 fa 3a bf 26 0d 3d 50 6f 2a bc b0 03 9c 3c
       0.0019074269 0.03446078 -0.0104025155 0.019044727
0000d0 be 5e f8 3c f0 23 15 bb cc b8 17 3c 6b ea fa bc
       0.030318614 -0.0022757016 0.009260368 -0.030629357
0000e0 45 0b 0f 3d 30 fa 48 3c 96 09 f2 3c b3 f6 c6 bc
       0.034922857 0.012266681 0.029545587 -0.024287557
0000f0 85 f8 df 39 8c 0c 2b bc a3 41 f8 bc 3b 90 0d 3d
       0.00042719036 -0.010440003 -0.030304736 0.034561377
000100 f7 7b 08 3d 4b e7 d1 bc 04 0f 57 3c 43 8d 20 3d
       0.033321347 -0.025622984 0.013126139 0.039197218
000110 09 da 11 3d 24 ba 6f 3c 46 98 51 bc 7b de f6 bc
       0.035608325 0.014631782 -0.0127926525 -0.030135384
000120 cd c5 0c 3d 34 38 2a 3c 98 4e e2 3b 36 d5 c4 bc
       0.034368325 0.010389376 0.0069063418 -0.024027448
000130 fb 6a 2a 3d c0 22 4e bb 3d 7b 11 3d 53 27 cc bc
       0.04160593 -0.0031453818 0.03551792 -0.024921095
000140 04 55 0f bc f8 99 9d 3b 5a bb dd 3c fc 8f 43 3c
       -0.008748297 0.0048096143 0.027066875 0.011936184
000150 ef cb 1a 3d a6 0d bc 3c 80 76 35 3c 00 ae 98 bc
       0.037792142 0.022955727 0.011075616 -0.018637657
000160 c8 42 b1 3b 1a 1c fa 3c 3f 71 76 3a 00 f3 4b 3b
       0.0054095723 0.030530978 0.000940103 0.003112018
000170 0c 78 52 3c 3a 96 cf 3c 80 99 9d ba 3a ea ad 3c
       0.012846004 0.025340188 -0.0012023896 0.021229852
000180 50 b4 16 bc b0 1a 18 3c e2 bc ed 3c 20 2b a2 ba
       -0.009198263 0.009283707 0.02902073 -0.0012372471
000190 12 1a 02 bd 9a 0e a5 3c 0e 19 93 bc 93 09 9f bc
       -0.031763144 0.020148564 -0.017956283 -0.019413745
0001a0 70 e6 90 bc 25 62 24 3d 00 2d cc 3a f2 59 08 bd
       -0.017688006 0.04013266 0.0015577376 -0.033288904
0001b0 1e be ed 3c 9e 92 a8 3c 92 40 c6 3c 79 f6 27 3d
       0.029021319 0.020577725 0.024200711 0.04100654
0001c0 e4 e3 1c bc ae 6f 8c 3c a7 51 0b bd 48 6c 8e bc
       -0.009575818 0.017143097 -0.034013417 -0.017385617
0001d0 33 69 03 3d d8 4b c8 3b a6 c5 87 bc 1e 2a ac bc
       0.032082748 0.006112557 -0.016573738 -0.021016177
0001e0 69 bf 1e 3d a0 fa ac 3a 09 b1 26 3d 72 4e bf 3c
       0.03875676 0.0013197251 0.040696178 0.023352835
0001f0 00 1b 13 3c 10 af 0a 3c 94 30 1c bc 40 83 e5 bc
       0.008978605 0.00846459 -0.009533066 -0.028016686

bn4.weight f4 [128]
000000 bd a1 80 3f 56 3c 80 3f 69 1f 80 3f 91 e5 7f 3f
       1.0049359 1.0018413 1.0009586 0.99959666
000010 ec 2b 80 3f ed 51 80 3f 78 bc 80 3f 06 70 80 3f
       1.0013404 1.0025002 1.0057516 1.0034187
000020 a6 2b 80 3f 92 93 80 3f c2 82 80 3f fc 57 80 3f
       1.001332 1.0045035 1.0039904 1.0026851
000030 20 4c 80 3f d2 68 80 3f 5f 56 80 3f 38 4b 80 3f
       1.0023232 1.0031989 1.0026358 1.0022955
000040 7a 37 80 3f d6 15 80 3f 67 56 80 3f 15 33 80 3f
       1.001693 1.0006664 1.0026368 1.0015589
000050 b9 5c 80 3f 96 65 80 3f 75 2a 80 3f d4 be 80 3f
       1.0028297 1.0031002 1.0012957 1.0058236
000060 cc 6a 80 3f e6 64 80 3f 84 27 80 3f ac 49 80 3f
       1.0032592 1.0030792 1.0012059 1.0022483
000070 d2 8e 80 3f 3d 6c 80 3f 55 2a 80 3f bf 35 80 3f
       1.0043585 1.0033032 1.0012919 1.0016402
000080 9c 0c 80 3f f0 48 80 3f ba 32 80 3f 74 26 80 3f
       1.0003848 1.0022259 1.001548 1.0011735
000090 40 16 80 3f 79 44 80 3f de 8d 80 3f 38 1e 80 3f
       1.000679 1.0020896 1.0043294 1.0009222
0000a0 7a 24 80 3f 44 55 80 3f 20 85 80 3f 49 05 80 3f
       1.0011132 1.0026021 1.0040627 1.0001613
0000b0 b4 33 80 3f 88 5c 80 3f 1c 39 80 3f 32 0c 80 3f
       1.0015779 1.0028238 1.0017428 1.0003722
0000c0 15 41 80 3f bd 07 80 3f 05 31 80 3f 09 65 80 3f
       1.0019861 1.0002362 1.001496 1.0030833
0000d0 50 2e 80 3f e4 ee 7f 3f 89 2b 80 3f 0b 4c 80 3f
       1.0014133 0.99973893 1.0013286 1.0023206
0000e0 13 1f 80 3f 3b 4f 80 3f cd 4a 80 3f a3 2c 80 3f
       1.0009483 1.0024179 1.0022827 1.0013622
0000f0 8a 34 80 3f ca 28 80 3f b9 6a 80 3f d6 8b 80 3f
       1.0016034 1.0012448 1.0032569 1.0042675
000100 44 48 80 3f d7 22 80 3f 4e bd 80 3f 7f 61 80 3f
       1.0022054 1.0010632 1.0057771 1.0029753
000110 b1 7e 80 3f a1 31 80 3f 26 09 80 3f cc 5d 80 3f
       1.0038663 1.0015146 1.0002792 1.0028625
000120 7d 32 80 3f be 52 80 3f 9e 59 80 3f c7 58 80 3f
       1.0015408 1.0025251 1.0027349 1.0027093
000130 6b eb 7f 3f 4f 41 80 3f 7b 77 80 3f 59 65 80 3f
       0.99968594 1.0019931 1.0036463 1.0030929
000140 bf 4c 80 3f 78 70 80 3f 65 23 80 3f 57 ce 80 3f
       1.0023421 1.0034323 1.0010802 1.006297
000150 6d 25 80 3f 10 d4 7f 3f b8 48 80 3f 9f a4 80 3f
       1.0011421 0.99932957 1.0022192 1.0050238
000160 e0 71 80 3f 35 56 80 3f 1b 51 80 3f 1a f4 7f 3f
       1.0034752 1.0026308 1.0024751 0.99981844
000170 54 53 80 3f 4e ad 80 3f 74 49 80 3f 11 4b 80 3f
       1.002543 1.0052888 1.0022416 1.0022908
000180 d4 56 80 3f 52 5f 80 3f 53 35 80 3f 82 67 80 3f
       1.0026498 1.002909 1.0016273 1.0031588
000190 8b 0e 80 3f 28 3f 80 3f 42 58 80 3f bb 2d 80 3f
       1.0004438 1.0019274 1.0026934 1.0013956
0001a0 30 4b 80 3f 3d 38 80 3f 4a 3b 80 3f 41 55 80 3f
       1.0022945 1.0017163 1.0018094 1.0026017
0001b0 df 4d 80 3f 05 31 80 3f de 02 80 3f 1b 31 80 3f
       1.0023764 1.001496 1.0000875 1.0014986
0001c0 2f 59 80 3f 93 17 80 3f 06 6a 80 3f ca 29 80 3f
       1.0027217 1.0007194 1.0032356 1.0012753
0001d0 ca 7c 80 3f 6d 2b 80 3f 9e 5e 80 3f 5d 27 80 3f
       1.0038083 1.0013252 1.0028875 1.0012013
0001e0 8b 60 80 3f 5f 19 80 3f e0 18 80 3f 9c 21 80 3f
       1.0029463 1.0007743 1.0007591 1.0010257
0001f0 bf 4a 80 3f 60 0b 80 3f 91 29 80 3f 03 1e 80 3f
       1.0022811 1.0003471 1.0012685 1.0009159
