oracle/train/non-iid/checkpoint/agg/fmnist_ckpt_2.pth (torch, 121269 bytes, 14 tensors)

layer1.0.weight f4 [16, 1, 5, 5]
00000000: d35f dcbe b0fe 1cbc 1101 bf3d 03a7 473e
00000010: c6b8 ef3d 1359 1cbe 919c 013e 1288 0f3e
00000020: 0553 833e 7326 1f3e b251 34be e41e b53a
00000030: c723 683e 4c39 ff3e f5ae 013f 043d 2ebe
00000040: d3c8 5a3e 332d aa3e bc77 1f3e ba5b fb3e
00000050: 6c75 9cbd c3e7 893e c22c 8c3e d006 243e
00000060: 9613 763e 2376 e2be 9c4f 1fbe f6d8 4cbd
00000070: da63 ca3e d8ff 3e3d 4857 42bd 358e 57bd
00000080: 965c b23d 5c5b bd3e cc24 05bc b728 87bd
00000090: 402e 08bd ba36 1b3e a0e1 f33e 1baf 4d3e
000000a0: f799 70be 54b6 8fbe 3f57 0e3e d998 ce3e
000000b0: 3d48 713e 907d 753d ff35 18be ec26 17bd
000000c0: 6eba 703e bbf5 75bb 0a8c e0bd 36ad abbe
000000d0: 07f9 223e 0720 d13c 370e f2be 344a 94bd
000000e0: fe43 b7bd 9b47 1fbe 253e f7be d1d4 3cbf
000000f0: e232 8f3e 3bbe 0f3f 8777 983e b687 13bd
00000100: 9207 36bd a6f1 013e 733a 83be fc95 0a3d
00000110: ab9d 133e 89e9 a03e 5fee 513d 311e 643e
00000120: f93c c53d 1f9e 0a3e 0315 55bd 4c4c 94b9
00000130: 67b7 143e 19e9 863e 6c24 e53d ab28 7c3e
00000140: 7ff5 993e c43b 8c3e c340 4d3e 044a b03e
00000150: dd13 18be 0c09 7a3e cf9f 3c3d 7296 0f3c
00000160: 7872 4cbe 8b24 093d c493 4cbe 2457 ecbe
00000170: ff0c 39be 906b aabe 130f 453e ddfe 6ebe
00000180: 811f 95be b88c 78be aad8 f2bd 78fa a53e
00000190: 6a95 b1be dcb9 5d3e 72d1 8c3e 9a07 5f3d
000001a0: 8de5 bc3e c640 233e 000e 873e 0a99 a33e
000001b0: 629f 963e 434f 433e 7368 463e b02a cd3e
000001c0: c7be 7f3c 2584 afbe 7446 663d a2d1 09be
000001d0: 9860 13be 3783 9d3d 11da febe 9170 04be
000001e0: acaf c93d c403 00be d9f3 87be c922 0fbf
000001f0: a599 bc3c 756b 01bd 88b5 1b3c f098 f1bd
00000200: 62e6 9d3d cb4e 9c3e ffe6 2cbe d2b1 0cbe
00000210: e0e3 44be e07f eb3e 79ab ef3d bdfe adbe
00000220: 05e5 61be 70cc 6a3d 28bd 213a d2b0 e53e
00000230: 7083 c93e f960 83bc e633 e0be a621 cdbd
00000240: e730 b33e 4304 9f3e 66ee 523e 90f0 d6be
00000250: 5c91 71be 3683 4b3e 4993 b53c 7e83 093d
00000260: 5dd0 4cbe ffc5 973d f07b 8b3d 50d2 05be
00000270: df4d d23d d266 07bf 4e36 153f 0023 1abe
00000280: 5e0c 0f3d 40f9 6bbe 055b b4be 293c 303f
00000290: 1865 8bbe a703 1dbd e1b7 7abe a76d 43bd
000002a0: c69b ca3e 99c0 b9bd ef67 9a3d 93c7 35bb
000002b0: aa00 90be 9086 4e3e d2c5 2dbd eb23 06be
000002c0: 9f3e 0a3e d9c8 9f3e 55c5 be3e af50 693e
000002d0: c7f2 89bd d2f8 bbbd 4c37 1ebe 113a 8abd
000002e0: 5839 4d3e 3d45 043e 393b 28be b8a5 01bf
000002f0: cf8c 22bf bd8e f33c f728 863e 4865 a5be
00000300: 72a4 36bf b587 5bbf f291 64be 7071 cdbc
00000310: a6a5 8f3e e86a 893d bacc 9cbe 8bd3 153d
00000320: a909 e53d 4c44 b23d 2d00 0e3e 11ca 48be
00000330: c360 493e cf31 05bf fc04 04bf ce58 93be
00000340: c7fa 38be 7251 b53e 01fa d4be 5c2d 3fbf
00000350: 3d59 05be b586 903d b9ae c33d c27f 923c
00000360: 5a4b 8e3d 15ff 383e fad0 153e 26b3 38be
00000370: 8419 fa3d b641 e9bc 500e 8d3d fca9 043e
00000380: 8bc0 82bd d669 6bbe 0517 7c3e 4f0a 7e3e
00000390: 82d7 68bc 6a24 64bd b71e 5b3d d2a6 3d3d
000003a0: f4d3 0f3d a687 58bd af96 8abc a257 81be
000003b0: f48f c93d 41b0 8a3d 207b ca3c f702 97bb
000003c0: 8a94 cebd c252 b2be d3cf e6be b985 cebe
000003d0: f4f2 88be d0ca 9c3e 6950 d1be d901 1fbf
000003e0: 4ef7 05bf c3b3 80be e286 e5be 616a 5bbe
000003f0: 8e55 da3d 7d72 343e 6520 81bc e7be 90be
-0.43041858 -0.009582207 0.09326375 0.19497304 0.117051646 -0.15268354 0.12657382 0.1401675
0.25649276 0.15542011 -0.1760929 0.001381841 0.22669898 0.49848402 0.5065759 -0.17015463
0.21365671 0.3323761 0.15573019 0.4909342 -0.07639584 0.26934633 0.27377898 0.16018224
0.24030909 -0.44230756 -0.15557712 -0.050011598 0.39529306 0.04663071 -0.04744652 -0.052625854
0.087090656 0.36983764 -0.008126449 -0.065995626 -0.033247232 0.15157595 0.47633076 0.20086329
-0.23496233 -0.28068793 0.13900469 0.40350989 0.23562713 0.0599342 -0.14864348 -0.036902353
0.23508617 -0.00375305 -0.1096421 -0.33530587 0.15915309 0.025527967 -0.4727647 -0.072407156
-0.08948515 -0.15554659 -0.482896 -0.7376223 0.27968508 0.56149644 0.29778692 -0.036018096
-0.044440813 0.12689838 -0.2563053 0.033834442 0.14415614 0.31428173 0.05125272 0.22277142
0.0963077 0.13536881 -0.05202199 -0.00028285605 0.14523087 0.26349714 0.111885875 0.24624889
0.3007011 0.27389348 0.20044236 0.3443147 -0.14851327 0.24417514 0.046050843 0.008763896
-0.19965541 0.033482116 -0.19978243 -0.46160233 -0.18071364 -0.3328519 0.19244032 -0.2333941
-0.29125598 -0.2427243 -0.11857732 0.32417655 -0.34684306 0.21652931 0.27503544 0.05445061
0.36893883 0.15942678 0.2637787 0.31952697 0.29418474 0.19073205 0.19375782 0.4007163
0.01560945 -0.34280506 0.056219533 -0.13458875 -0.14392316 0.07691043 -0.49775746 -0.12933566
0.0984796 -0.12501436 -0.26553228 -0.5591245 0.023022482 -0.03159662 0.00950373 -0.11796749
0.07709958 0.30528864 -0.16884993 -0.13739708 -0.19227552 0.45995998 0.11702628 -0.33983412
-0.2206002 0.057323873 0.0006169849 0.44861466 0.3935809 -0.016037451 -0.43789595 -0.100161836
0.34998247 0.3105794 0.20598754 -0.4198041 -0.23590606 0.19874272 0.022164958 0.033572666
-0.2000136 0.07410812 0.068107486 -0.13068509 0.10268759 -0.52891266 0.5828599 -0.15052414
0.034923904 -0.230443 -0.35225692 0.688418 -0.27225566 -0.03833356 -0.24484207 -0.047711994
0.3957197 -0.09069938 0.07539355 -0.0027737364 -0.28125507 0.20168519 -0.042424984 -0.13099639
0.1350045 0.31207922 0.37259927 0.22784685 -0.06735759 -0.09178318 -0.15450782 -0.067493565
0.20041406 0.12917037 -0.16428842 -0.5064349 -0.63496107 0.029731149 0.2620313 -0.32303834
-0.71344674 -0.8575395 -0.22321299 -0.025078505 0.28056067 0.06709844 -0.30624944 0.036578696
0.11183483 0.08704433 0.13867255 -0.19608332 0.19665818 -0.52029127 -0.51570106 -0.2877869
-0.18064414 0.354137 -0.41596988 -0.7467859 -0.13022323 0.07056943 0.0955481 0.017883185
0.06947966 0.18066056 0.146305 -0.1803709 0.12211898 -0.028473716 0.068874955 0.12955469
-0.06384381 -0.22989592 0.24618156 0.2480862 -0.014211537 -0.05569879 0.05349609 0.04630167
0.035114244 -0.05286374 -0.016917555 -0.2526217 0.0984191 0.06771899 0.024716914 -0.0046085077
-0.10086925 -0.34828764 -0.45080432 -0.40336397 -0.2674786 0.30623484 -0.4088166 -0.62112194
-0.5233048 -0.25137147 -0.4482947 -0.21427299 0.106608495 0.17621799 -0.015762517 -0.28270647

layer1.0.bias f4 [16]
00000000: 9826 8f3e 6311 d03e 95c6 edbe 18b8 9ebe
00000010: c03c c3be 94e3 163e c409 3b3e ff54 ee3d
00000020: 1103 d83d 295e acbd fb47 b53e 1a01 db3e
00000030: 9c8d 51be 7682 32be 0715 debd 8e55 14be
0.27959132 0.40638265 -0.4644057 -0.30999827 -0.38132286 0.14735252 0.18265444 0.116373055
0.1054746 -0.08416397 0.3540648 0.42774278 -0.20464176 -0.1743258 -0.108438544 -0.14485762

layer1.1.weight f4 [16]
00000000: 4355 3e3f 53d0 043f 31ca 7f3f 4334 603f
00000010: 9013 433f 94cc 823f f7ab a83f 77a9 e33f
00000020: 18e2 683f d874 8c3f 3e30 8c3f 3bbd 523f
00000030: cc0f 2e3f e072 cb3f 0a68 203f 45cf a23f
0.7434885 0.5188038 0.99917895 0.87579745 0.76201725 1.0218682 1.317748 1.7786092
0.9096999 1.0973158 1.0952222 0.8231999 0.67992854 1.5894432 0.6265875 1.2719504

layer1.1.bias f4 [16]
00000000: c4c2 97be bda5 87be f798 57be 5c4d 7bbe
00000010: ba10 abbd 1aa9 bdbd 6c8a 833c 3e8c 43bf
00000020: ebe3 e0be 104d 1cbf 99d9 14be 5961 54bd
00000030: 10be 9e3e 7ca0 27bf 35ca d0be 2ceb 16bf
-0.29640782 -0.26493636 -0.21054445 -0.24541229 -0.083528 -0.09260769 0.016057216 -0.7638587
-0.43923888 -0.6105509 -0.14536132 -0.05185065 0.3100438 -0.65479255 -0.40779272 -0.58952594

layer1.1.running_mean f4 [16]
00000000: 1dc0 f43f c348 823f 6920 1cbf e020 87be
00000010: c701 db3c 88c5 113f b222 ed3d 7f52 89bf
00000020: 5549 15bf bae1 c8bf 06d2 ec3c 1fdb 533e
00000030: 7f46 e3be adcc c7bf 5146 b93f d239 28c0
1.9121128 1.0178455 -0.60986954 -0.2639227 0.026734246 0.56942034 0.11578883 -1.0728301
-0.5831502 -1.5693886 0.02890874 0.20689057 -0.44389722 -1.5609337 1.4474584 -2.628529

layer1.1.running_var f4 [16]
00000000: a456 3e41 0405 7740 d831 df3f 545e a73f
00000010: 5fa0 0740 4aee c33f d540 5e3f 9e74 e540
00000020: b68a 4540 04cc 0241 dfb2 3f3f ea55 e73f
00000030: de84 9f3f 4076 2941 59f7 1941 a258 b541
11.8961525 3.8596811 1.7437086 1.3075662 2.1191633 1.5307095 0.86817676 7.1704855
3.0865912 8.1748085 0.7488231 1.8073094 1.2462423 10.59137 9.622888 22.668278

layer2.0.weight f4 [32, 16, 5, 5]
00000000: f6b9 d33d 1ee7 283d c18d 9e3d 80e3 993d
00000010: f5ef da3c 72bb 713d e839 d83c 19a7 963d
00000020: 4086 cb3c 0857 2b3c 6fe1 873e fb97 573e
00000030: 979f 253e 40a9 c33d fc22 4b3d 8bef 313e
00000040: c84d f53d e886 d63d 900b 093e 9af2 ac3c
00000050: 1297 00be 778e 243c 652f 8a3d a896 3a3d
00000060: 4722 093d 030a 9b3d bed7 8abd 22b0 a6bc
00000070: c8f8 3a3c 71b3 6cbd f8ef b33d 093f 21be
00000080: 0923 66bc f6e5 a53d 926b 00be 2c5a 593e
00000090: 0bfe c7bd ed04 633d b4bc c73d 3d30 f2bd
000000a0: f5bc 4a3e 0fca aebd 9106 f93d 6a33 4a3e
000000b0: 27ee 95bc 73b0 0dbc e6aa fcbd 155f 75bb
000000c0: 3487 c93d 32ef fcbc 89dd 413e 8d48 783e
000000d0: 9463 3f3e c51b 813e 507e b93e 6a62 eabd
000000e0: 52f0 4ebd a8a6 fcbd bf9e 4dbd 4d5d cb3d
000000f0: 34df d23e 2f0c a03e a3ff 793e f821 3f3e
00000100: 11f2 833e 5cf5 22be 541b 23be 3567 9bbc
00000110: ce09 1cbd 68f3 363e 0677 babd 6bc1 d7bd
00000120: 8def 91bd 0275 10be 8957 71bd 30a8 1bbe
00000130: 8394 a6bd 7e61 23be 8310 b0bc 0e56 04be
00000140: 0117 5f3d b407 113c 717d 4bbd afdd c8bd
00000150: bae2 9bbe 1f93 d6be a619 8cbe 504b 4dbe
00000160: 7058 9f3c f66c 49be d56f 1c3e d129 9f3e
00000170: 6e60 b03e a436 2c3e 093a cfbd 2dae 8b3e
00000180: 0be2 a83e ec3a 5a3e 3ac8 2d3e 10f7 353d
00000190: b6cd e9bd 40b6 b4bc d649 90bc 680f 89bd
000001a0: 8471 8bbe 308b c1bd cb31 eabc 8b67 21bd
000001b0: 38ae ebbd 2697 82bd 789e 85be 24b6 03be
000001c0: 457e 02be e045 babd 0fda f63d 6a54 1e3e
000001d0: 2a07 923e 131a 643e 86fe f83d d945 4e3d
000001e0: 571b 773e 4cb0 213e 53b7 a9bd d94b 363e
000001f0: 5273 123e 0091 8dbe 43c2 17be fb7e 03bd
00000200: 64db 2abd 08e7 40bd d7a8 adbe edda 16be
00000210: 7813 ecbd 32c7 d2bb c03f a1bd 2a24 01bf
00000220: 4d56 ebbe fa29 91be c1aa 053e 8735 91be
00000230: 8915 a2be 7c6b e5be a184 96be fad5 853c
00000240: 3a6d d4bd 9666 78be acd9 ddbe 49e0 babe
00000250: 48ff 9ebe 91fb 7b3d e6d3 4b3d 1af8 d1bd
00000260: b426 eebd 4fdd c13e 26bc 0d3e 34d0 36be
00000270: d84c d0be 8c8a 4ebe 80ff 0a3e 5283 8dbb
00000280: 6396 a3be 51dc 11bf 3a1f b6be c228 893e
00000290: 251f 26be 101e 94be a9ed 12bf 383c d0be
000002a0: 2558 833e 9a79 b73d e9f4 e7bd 3e76 d3be
000002b0: c9cc a8be 1c67 a0bd 1e3e e3bb cdff 35be
000002c0: 8bfd 97be 1ac8 45be 3042 debe 3d0d 44be
000002d0: df8b 22be 0a7c aabe fbd7 82be c76e eabd
000002e0: 73a9 93be ef3d c8be d129 0bbf 8df5 f1be
000002f0: bf89 d0be 4f8f 52be d182 803c 5f31 22be
00000300: b7db 46be ec8f 01be e494 7abe 0e02 5bbd
00000310: e693 c9bd 5382 6cbe 345c b5be ed81 a6be
00000320: f947 163d befd 01bc cfbf bebb 9832 39bd
00000330: 76db 9dbd 9ef0 023e 9f60 0f3e e3d8 1bbe
00000340: b6a5 57be 7f72 a23c c61c 7dbc cb13 c6bd
00000350: c215 31be 045f 9fbe e2d2 6ebe 18ac 04bd
00000360: 69b2 08bd c541 2fbe 7f87 a0be 55d5 c7be
00000370: c34b 6dbb 2cc5 af3d b9d1 4cbe 755a a3be
00000380: d7d2 00bf 04da 1fbe 3117 a9be 3222 6ebe
00000390: dd37 60be dce9 adbe fdfc e8be 58f2 02bf
000003a0: 3044 dbbe f74c 92be 7118 95be 4c9d bdbd
000003b0: 2ed5 48be cb08 bdbe 09f8 4bbe 5ee8 60be
000003c0: e54e 953e 7bc2 cd3d fad8 44bd c8f1 60be
000003d0: 4ac9 6b3d d47f acba aec1 70bd 6793 32be
000003e0: 13b0 30be 9f68 af3d a204 c4bd 8f47 ec3d
000003f0: d048 943d c4a6 c33b 16aa 6dbc fa49 cfbe
0.103382036 0.041236036 0.07741881 0.07514095 0.026725749 0.059016652 0.0263948 0.0735609
0.024844289 0.010457762 0.2653918 0.2105407 0.1617416 0.09553766 0.04959391 0.17376535
0.11977726 0.1047495 0.13383317 0.021111775 -0.12557629 0.010043732 0.06747321 0.045553833
0.033479955 0.07570269 -0.06779431 -0.020347659 0.011411853 -0.057788316 0.08786005 -0.15746702
-0.014046439 0.08100502 -0.12541035 0.21225804 -0.09765252 0.05542462 0.09752789 -0.11825607
0.19798644 -0.08534633 0.121594556 0.19746175 -0.018302036 -0.008648026 -0.12337284 -0.0037440707
0.09840241 -0.030875776 0.18932165 0.24246426 0.1869033 0.252165 0.3622918 -0.11444552
-0.050522156 -0.12336475 -0.05020022 0.09929905 0.41185915 0.31259295 0.24413924 0.18665302
0.2577062 -0.1591391 -0.15928394 -0.018970111 -0.038095288 0.1786629 -0.09104733 -0.105349384
-0.07125769 -0.14107135 -0.05892137 -0.15200877 -0.08133795 -0.15955159 -0.021492248 -0.12923452
0.054465298 0.008851934 -0.049680177 -0.09807908 -0.30446416 -0.4190912 -0.27363318 -0.2004826
0.01945135 -0.19670472 0.15277036 0.3108659 0.3444857 0.16817719 -0.10118491 0.27281323
0.32984957 0.2131154 0.16970912 0.04442507 -0.114161894 -0.02205956 -0.017613333 -0.06692392
-0.27235043 -0.09450376 -0.028588196 -0.039405387 -0.11507839 -0.063764855 -0.26097465 -0.1286245
-0.1274348 -0.09095359 0.1205331 0.15461889 0.2852109 0.22275572 0.121579215 0.05035958
0.24131523 0.15789908 -0.082869194 0.17802371 0.14301804 -0.2764969 -0.14820199 -0.03210352
-0.041713133 -0.04709533 -0.33917877 -0.14731951 -0.11527151 -0.0064324373 -0.078734875 -0.50445807
-0.4596428 -0.28352338 0.13053419 -0.2836115 -0.31657055 -0.44808567 -0.29398063 0.016337384
-0.10372396 -0.24257883 -0.43330133 -0.3649924 -0.3105414 0.06151921 0.04976263 -0.102524
-0.11628476 0.37864158 0.13841304 -0.1785286 -0.40683627 -0.20170039 0.13574028 -0.004318633
-0.31950673 -0.569768 -0.355707 0.26788908 -0.16222818 -0.28929186 -0.5739389 -0.40670943
0.25653186 0.089587405 -0.1132601 -0.4130115 -0.3296874 -0.078321666 -0.006934895 -0.17773362
-0.29685625 -0.19314614 -0.43409872 -0.19145675 -0.15873669 -0.3329776 -0.25555405 -0.1144691
-0.28840217 -0.39109752 -0.5436068 -0.47257653 -0.40730092 -0.2056248 0.015687378 -0.15839146
-0.19419752 -0.12652558 -0.2447086 -0.053468756 -0.098426625 -0.2309659 -0.35421908 -0.32521
0.036689732 -0.007934032 -0.005821205 -0.045214266 -0.077078745 0.127871 0.14001702 -0.15219454
-0.21059307 0.019829987 -0.015448755 -0.09671744 -0.17293456 -0.3112718 -0.23322633 -0.032390684
-0.03337327 -0.17114933 -0.31353375 -0.39029947 -0.0036208488 0.085825294 -0.20001878 -0.3190495
-0.50321716 -0.1561051 -0.33025506 -0.23255232 -0.2189631 -0.33967483 -0.45505515 -0.5115104
-0.4282546 -0.28574345 -0.2912021 -0.092585176 -0.19612572 -0.3692077 -0.19918837 -0.21963641
0.29161754 0.1004686 -0.048058487 -0.21967232 0.05756501 -0.0013160654 -0.058778457 -0.17439042
-0.17254667 0.08564877 -0.09571196 0.11537086 0.072404504 0.0059708077 -0.014505884 -0.40486127

layer2.0.bias f4 [32]
00000000: a5b8 2c3e ae17 b0bd bcfc 0a3e 224f ffbd
00000010: ecbe 33be c7ec 4dbb 63c4 873d 3f38 983d
00000020: 8153 f83c f243 c83d af7d 333d 021d 90be
00000030: eddf 673e feaa e53d 5079 34bd 3654 8ebe
00000040: c90c 6ebd 080f 8ebd 5794 dc3d b205 5b3e
00000050: 9214 6c3d a39a 4cbd e459 3e3c 766b b53c
00000060: 1d1f 803d 576f 1dbe f12a fdbc 7ddd d93d
00000070: 6118 e2bd 6cc0 bd3d d52c 673d 4a61 3cbb
0.16867311 -0.085982665 0.13572973 -0.12466265 -0.175533 -0.0031421648 0.06629255 0.07432603
0.030313255 0.097785845 0.043821033 -0.2814713 0.22644015 0.11214255 -0.044061005 -0.27798623
-0.05811766 -0.06936461 0.10770481 0.21388891 0.057636805 -0.04995216 0.011618111 0.022145968
0.062559344 -0.15374504 -0.030904265 0.10637949 -0.11039806 0.09265217 0.05643924 -0.0028744512

layer2.1.weight f4 [32]
00000000: 4474 f23e 94bb fd3e ab98 e53e eaac 1b3f
00000010: ca17 383f 50a0 b03e b73d ef3e 1e22 b03e
00000020: ffaf a53e 4ce1 c93e 7f76 143f dfcb 0e3f
00000030: f33e 2e3f 9642 033f bbe8 fb3e f4cb 113f
00000040: 4289 403f 3b50 123f 6087 1e3f d136 c53e
00000050: 553e 243f 6f4c 0f3f 8e7e 293f 8087 ec3e
00000060: c275 fd3e 8c05 263f 394c dd3e 6807 003f
00000070: 1af9 d03e db98 2e3f b4ff e53e d11b c23e
0.4735433 0.49557173 0.4484304 0.6081072 0.719113 0.3449731 0.46726772 0.3440103
0.32360837 0.394297 0.5799331 0.5577983 0.680648 0.5127348 0.49200997 0.5695183
0.7520944 0.5715367 0.61925316 0.38518384 0.6415761 0.55976003 0.6620873 0.46197128
0.49503905 0.64852214 0.43222216 0.500113 0.4081505 0.6820199 0.44921649 0.37911847

layer2.1.bias f4 [32]
00000000: 0592 19bf 9ea5 0dbf 7743 01bf 2ad3 18bf
00000010: df8d 0dbf 4ada 1fbf b186 08bf ee44 dfbe
00000020: 51d6 06bf 1ae3 0cbf 4582 05bf 5321 e7be
00000030: 569d e0be 1d23 06bf 4532 06bf 703e debe
00000040: c28c 0fbf cf5a fabe 0a17 08bf 438e 11bf
00000050: 6c75 0dbf e247 f8be 4950 09bf 3803 05bf
00000060: 1099 0fbf 4298 0dbf a7d8 10bf 1054 ebbe
00000070: 6e47 1abf f9f4 00bf 07ba 05bf 48b2 f4be
-0.59988433 -0.55330837 -0.5049357 -0.5969721 -0.55294603 -0.6244246 -0.5333052 -0.43607277
-0.5267077 -0.5503403 -0.521519 -0.45142612 -0.43870038 -0.5239733 -0.52420455 -0.4340701
-0.56074154 -0.48897406 -0.53160155 -0.568577 -0.55257297 -0.48492342 -0.5363813 -0.51958036
-0.5609293 -0.5531045 -0.56580585 -0.45962572 -0.60265243 -0.503738 -0.5223698 -0.47792268

layer2.1.running_mean f4 [32]
00000000: e888 52c1 22d2 3ec0 5e83 96c0 8c55 a23f
00000010: dec9 19c1 e2e6 1041 5eac 04c1 c2e7 5bbf
00000020: 429f 0b41 1c58 c1c0 104b 0cc1 21b7 cbc0
00000030: 4cb3 37c1 ab55 8bc0 afd3 04c1 b553 d0bf
00000040: e4ad 363f dd74 80c0 9abc aec0 c115 85bf
00000050: fda0 18c1 c168 d7c0 1b2b ddc0 4f5f 53c1
00000060: 1f31 0bc1 d1c6 0bc1 b29b 13c1 1c29 00c1
00000070: 9821 1fc0 ddef 53c1 b5e6 fac0 c237 edbf
-13.158424 -2.9815755 -4.703536 1.2682357 -9.611784 9.056368 -8.292082 -0.8590051
8.726381 -6.0420055 -8.768326 -6.3661046 -11.481274 -4.3542075 -8.301681 -1.6275545
0.71359086 -4.0142655 -5.4605227 -1.0397264 -9.539304 -6.7315373 -6.911512 -13.210769
-8.699492 -8.736039 -9.225512 -8.010036 -2.4864254 -13.24606 -7.8406625 -1.8532641

layer2.1.running_var f4 [32]
00000000: baae 3b42 dbce 8242 1e02 0042 ae5d 4342
00000010: 4144 8142 6e29 3f42 774b 6542 0850 ea41
00000020: 1dfe 4942 e1b3 6242 8242 af42 d7e9 3a42
00000030: b7ad 7042 b039 9142 a984 1142 8800 8342
00000040: 36ce ca41 aaa3 8b42 11b7 2c42 fa62 5442
00000050: f3a3 8e42 5ca8 cb42 7abc 0742 9c5d 3342
00000060: 3c50 2742 41e7 5a42 2f23 a642 87b0 7f42
00000070: bfe6 0642 5fb4 c242 720d 1742 b2f8 2c42
46.92063 65.404015 32.002068 48.841484 64.63331 47.79046 57.323696 29.289078
50.498158 56.675663 87.6299 46.72836 60.169643 72.61267 36.37955 65.50104
25.350689 69.81966 43.178776 53.096657 71.32021 101.82883 33.93406 44.841415
41.828354 54.725834 83.06872 63.92239 33.725338 97.35229 37.76313 43.242867

fc.weight f4 [10, 1568]
00000000: 49b4 2e3c 062f 62be 36f7 8bba 0201 d63d
00000010: bde4 333e 783b a63d 8ae3 9e3e 1085 603d
00000020: 7e4d e83d 175c 9bbd 123d a43c f109 ba3c
00000030: 0638 743e cfc7 a73d 4f71 b9bc 7f9b 483e
00000040: f329 85bc 9f00 413d 0e7f 24be 7cad 41bc
00000050: 8597 c7bd 40ce 063d 4af9 493e 2823 29be
00000060: 5e57 423d b8cd a6be 1cd4 bbbd 0bac 54be
00000070: 36b3 843d 7666 803e b65f 18be 4fc4 8f3d
00000080: 6eb0 86bd 2e1c 84bc ddfc aebd a665 75bd
00000090: 8d0c ff3d 0f81 be3d d8a4 013e 3bf7 d33d
000000a0: 6389 bcbd e8c1 93be 4f09 c9bd a39c 573e
000000b0: 3eeb f03e af72 823e d598 883e 04ef f6bd
000000c0: b2c1 aebd 0021 153d 77ff d7bc 10d6 fabc
000000d0: 9d88 4fbd 75cb 44be b845 333e d9ec d13d
000000e0: bf02 c7bc 8ee5 a73d 0adb 1dbe 7232 2dbe
000000f0: 1600 59bd d687 d03b 032a 093a 4223 a53d
00000100: 9ebb 61be cbcf 5abd 103e c8be 93d4 7abe
00000110: db2d 03be e85e e93c 6430 f53d 5a64 4ebd
00000120: 1287 b2bd d5c3 09bc bd26 c2bd a44a 363d
00000130: e2c3 023e e851 c53c 8a86 363b 4d2b 91bc
00000140: 784e b9bd fc56 f63d 317c 9c3d 0c11 233e
00000150: 98fe 303e 13a8 323d b784 363e 37e4 a8bd
00000160: 0c79 b03d c2c3 13bc ec8b 0cbb 8d79 c53d
00000170: 89f1 4e3c 4e67 dcbd 5a8c 4e3d c227 683d
00000180: 3345 9d3c 1883 1dbe 0d06 0bbe 5a99 61be
00000190: ed8e 383c a16f 15be fcaa 9e3e a6df a3be
000001a0: e05c 1abe 588e 9bbb b24c 003e 69ea 1dbe
000001b0: b59b e0bc 9384 5f3e 7acf 24be 6be2 c73d
000001c0: 39a2 793e 87fb 153d 2b50 4dbd 520e 793c
000001d0: b601 063e 0e67 993d b29e 1b3e bbbd 0c3d
000001e0: a3a3 1c3e 7e52 e43d a646 21bb e415 5a3c
000001f0: 4130 313d d204 5fbd 040b 5a3e 745f 843d
00000200: e6e5 74be aec8 003e e3e4 24bd 0a24 7ebd
00000210: 0107 84be ea3a 0d3e f407 9b3d c8dc 86be
00000220: 42bb 4a3d 38b0 dd3d d497 eebe 89f8 95be
00000230: 84a1 8dbd ebcf c43d ecfc d3bc 92c1 113c
00000240: 40b7 b83e 36b1 293d 7755 19be 0552 4c3e
00000250: eb76 ee3b 53dd c83c 44a4 1bbe 0be2 ac3e
00000260: 8f8c fc3d 5cf0 e83d 8efb 81bd 2885 873d
00000270: 223e bc3d 071a e53c e8b0 9c3c 156f 863d
00000280: 01a8 d8bd 511c c7bd a097 f8bd 6800 c3bc
00000290: 0d9a 073d d1cb bdbe 9159 28bf 595c f83d
000002a0: 9ea8 15bd c181 3dbe 8ee9 423d 4631 64be
000002b0: 4888 23bd 8af3 c1bd 0f96 febc 768d 1d3e
000002c0: 0cab cfbd b279 713d a575 fabd 4347 143e
000002d0: fa93 1b3e d36b 35bc 0d57 ccbd 51ea df3b
000002e0: dd0a 86bd 40e6 1fbd 3f6d 6bbe 7985 a8bc
000002f0: 5ed7 52bd ce1d 34bd 6c41 003d faad 09be
00000300: 1f56 8a3d a8bf b2bd 210a 953d ec03 53bc
00000310: be78 213e 8207 903e 7021 2cbe b6d8 cd3d
00000320: eb79 693d 576b c73d 837e a43d 0aeb 71bd
00000330: 1462 613e f83c 003e 4414 013d c5fc 14bd
00000340: 2813 d1bc 3c0e 113c 5fb2 a1bd f2f1 e1bd
00000350: ddd1 813d c5f4 733d 4497 b53b 6b56 0dbd
00000360: 47fc 05be 465d e5bd 3fc4 efbc 689e 9a3d
00000370: 39a1 51be 6a6b a8bd c9c2 80be 245d 3abe
00000380: 00eb 04bf 9f5e 423d fb9a f53d 6f02 9ebd
00000390: 805a 2dbe a01b cebe 346d e6be 70f4 91bd
000003a0: cc92 7bbe f80a a93d 1513 16be 2273 083e
000003b0: 3da1 19be 08ff c4be f1af f83d 6c07 89be
000003c0: 4868 ab3d 7e73 7bbb 3f16 18bd 2709 47be
000003d0: 2820 623d 643c 453a 8e6d 48be 63ee 15be
000003e0: b69d 0f3e e297 283e e8ed a7bd a00e 043e
000003f0: 82d4 373d cb76 283e a5db cdbc 7ce8 0f3e
0.0106631005 -0.2208825 -0.0010678533 0.10449411 0.17567725 0.081168115 0.31032974 0.0548144
0.113429055 -0.07585924 0.020048652 0.022709819 0.23849496 0.08192407 -0.022637038 0.19590567
-0.016255355 0.047119733 -0.16064093 -0.011821147 -0.09745697 0.03291154 0.19724002 -0.16517317
0.0474466 -0.32578826 -0.09171316 -0.20768754 0.06479494 0.25078171 -0.14880261 0.07019865
-0.0657662 -0.016126718 -0.085443236 -0.059911393 0.12453566 0.0930196 0.12660539 0.1034989
-0.09205892 -0.28858876 -0.098162286 0.21055846 0.47054476 0.25478122 0.26679102 -0.12057307
-0.08533038 0.036408424 -0.026366932 -0.030619651 -0.050667394 -0.19218238 0.17507064 0.10250253
-0.024293302 0.08198081 -0.15415588 -0.16913775 -0.052978598 0.006363849 0.00052323955 0.080633655
-0.22044227 -0.053420823 -0.3910985 -0.24495153 -0.12810461 0.028487638 0.119721204 -0.05038867
-0.08717169 -0.008408506 -0.09480045 0.044504777 0.12770036 0.024086908 0.0027851188 -0.017720843
-0.0904817 0.1202831 0.07640875 0.15924472 0.1728462 0.04361732 0.17824064 -0.082466535
0.08616838 -0.00901884 -0.0021445705 0.096423246 0.012630829 -0.10761891 0.05042682 0.05667854
0.019198036 -0.1538204 -0.13576527 -0.22031155 0.011264545 -0.14593364 0.30989826 -0.32006568
-0.15074492 -0.0047471933 0.12529257 -0.15421452 -0.027417997 0.21827917 -0.16094771 0.09759983
0.2437829 0.03661683 -0.050125282 0.015201168 0.1308659 0.07490359 0.15197256 0.03436063
0.15296797 0.11148547 -0.002460876 0.013310883 0.04325891 -0.054447956 0.21293265 0.06463519
-0.23915824 0.12576553 -0.040257346 -0.06204609 -0.25786594 0.13792005 0.07569876 -0.26340318
0.04949499 0.10824627 -0.4660021 -0.2929118 -0.06915572 0.0960997 -0.025877438 0.008896248
0.3607731 0.041428767 -0.14974009 0.19953163 0.0072773597 0.024519598 -0.15199381 0.33766207
0.12331497 0.1137397 -0.063468084 0.066171944 0.091915384 0.027966512 0.019127324 0.06564156
-0.10578919 -0.09722198 -0.12138295 -0.023803905 0.0331059 -0.37069562 -0.6576167 0.12126989
-0.03653776 -0.18506528 0.047586016 -0.22284421 -0.03992489 -0.094702795 -0.031077413 0.15385994
-0.101400465 0.05895395 -0.1222947 0.14480309 0.15193167 -0.011073071 -0.09977541 0.0068333526
-0.06545041 -0.039037943 -0.22990893 -0.020571457 -0.05147492 -0.043973736 0.03131239 -0.13445273
0.067547075 -0.08727962 0.072773226 -0.012879353 0.15768716 0.28130728 -0.1680963 0.100511
0.057001036 0.0973727 0.08031943 -0.05906204 0.2201007 0.12523258 0.031513467 -0.036373872
-0.02552183 0.008853491 -0.0789535 -0.110324755 0.06338856 0.059559602 0.005541714 -0.034506243
-0.13084517 -0.11199431 -0.029268382 0.07549745 -0.20471658 -0.082236126 -0.2514861 -0.18199593
-0.5192108 0.04745352 0.11992451 -0.07715308 -0.16929054 -0.4025545 -0.4500519 -0.07126701
-0.24567717 0.08254045 -0.14655717 0.1332517 -0.15002914 -0.38475823 0.12142933 -0.26763475
0.083694994 -0.00383684 -0.03713059 -0.19437085 0.055206448 0.00075239525 -0.19573042 -0.14641719
0.14025006 0.16464189 -0.08199674 0.12896204 0.044880398 0.16451566 -0.025129149 0.1405353

fc.bias f4 [10]
00000000: 74ba cbbb 15ca 703c 9917 58bd e89d c93d
00000010: 1362 18bd 1fea 1abd 2f56 ea3d d57c cc3d
00000020: cc20 243d fdce 0bbd
-0.0062172953 0.014696618 -0.05275688 0.09844571 -0.037202906 -0.03782093 0.114422195 0.09984747
0.04007034 -0.034132946
