oracle/train/non-iid/checkpoint/agg/mnist_ckpt_2.pth (torch, 36119 bytes, 6 tensors)

conv1.weight f4 [10, 1, 5, 5]
000000 c7 bb 05 3e bb f7 6c 3e 3d 73 38 3c 29 b6 27 3e
       0.13059913 0.23141377 0.011257944 0.16378082
000010 3e 69 ec 3c 35 22 db 3d 85 81 cc 3c f6 5f 9f 3e
       0.028858777 0.10699884 0.024964103 0.311279
000020 21 e9 c3 3d 7a 59 d1 bd 8c e2 37 be 47 ab a0 3c
       0.0956595 -0.102221444 -0.17957515 0.019612921
000030 2c c5 ba 3e b1 49 db bd d9 f3 94 bd 38 e3 28 3e
       0.36478555 -0.10707415 -0.07273073 0.16492927
000040 2a 98 a3 3d 13 14 18 3e 0d 22 42 3e 59 78 b0 3d
       0.07988007 0.14851408 0.18958302 0.086167045
000050 54 75 ce 3d d1 99 65 3e c6 d5 71 3e 54 d6 ca 3d
       0.10080972 0.22421958 0.23616704 0.09904161
000060 b1 20 28 be 51 33 61 3d 0a a4 32 be cb 95 a0 bd
       -0.16418721 0.05498058 -0.17445388 -0.07841071
000070 21 a4 f3 3d c0 d8 95 bd 8b ab 0d bb f6 17 93 bd
       0.118965395 -0.073167324 -0.002161714 -0.071823046
000080 98 c5 7a be 41 7e 60 3d 06 78 a3 ba cb 94 08 be
       -0.24489439 0.054807905 -0.0012471683 -0.1333801
000090 4f bf 21 bd 68 d9 c7 3d 85 cf 94 bd 2d 57 73 3d
       -0.039489087 0.09758264 -0.07266144 0.05940931
0000a0 55 a9 20 3e 68 26 3d 3e 6c bf 33 3e 6e 0c 1a 3e
       0.15689595 0.18471682 0.1755349 0.15043804
0000b0 cd 5d f0 3d cf aa 8e 3e 45 cc 78 3d 2b 95 7a 3e
       0.11736641 0.27864692 0.06074168 0.24470966
0000c0 60 23 05 be 78 91 2d 3e 62 71 19 3d ca 83 a8 3c
       -0.13001776 0.16950023 0.037461646 0.020570654
0000d0 0d 21 85 3e c9 d6 3d 3e e6 e8 94 3e 27 7c f8 bc
       0.26001778 0.18538965 0.29083937 -0.030332638
0000e0 19 56 24 3e f4 46 91 3e bc 2e 81 3e 68 3a 96 3e
       0.16048469 0.28374445 0.25230968 0.29341435
0000f0 b7 aa e8 bd 9e 7d 0b be 8a 5e 8e 3e 91 aa 3e 3d
       -0.11360686 -0.13622138 0.27806503 0.046549384
000100 b9 76 09 bc 7e cf 4f be 1d db 00 be e9 80 27 3e
       -0.008390122 -0.20293996 -0.12583585 0.16357769
000110 ba 43 33 3e 0b 80 d8 3c 99 a0 28 bd 0a 75 6d be
       0.17506304 0.026428243 -0.041168783 -0.23189178
000120 56 55 8b bb 7d 68 2b 3e 72 5f 04 be bf c0 27 be
       -0.004252116 0.16739078 -0.12927034 -0.1638212
000130 08 ca 81 3e c8 31 d0 bd 99 1a 9d bd d1 8d 41 be
       0.2534945 -0.10165745 -0.07671089 -0.18901755
000140 43 e2 e7 3d 78 fe 4c 3e a6 d5 15 3d 21 cb 58 3e
       0.11322453 0.20018947 0.036580704 0.21171238
000150 1c 45 ce bd 63 13 28 3e a1 f9 79 3e dc 24 38 3b
       -0.10071775 0.16413645 0.24411632 0.0028098142
000160 71 e8 13 3e e3 6f 2b 3d 66 17 8c 3e 36 cc 92 3e
       0.14444138 0.04185475 0.27361602 0.28671426
000170 3b ca 73 3e d3 a8 75 3e 13 2d f9 bd 6e b1 80 3e
       0.23807614 0.23990183 -0.121668 0.25135368
000180 71 ca 9c 3e d4 05 aa 3d dc a2 08 be 99 6f 1c 3c
       0.306232 0.08301893 -0.13343376 0.009548091
000190 b5 21 2d 3d f5 e4 06 3e 68 1f 3b bd d7 a5 6f 3e
       0.042268474 0.13173278 -0.04568425 0.23403107
0001a0 c6 09 c9 3d 5a 0a 37 3d 4e f7 6b 3e 8a 07 9a 3d
       0.09816317 0.044687606 0.23043558 0.07520969
0001b0 f9 52 d9 3d d4 aa 5e 3e 83 04 1f 3e 4e 56 a2 3e
       0.10611529 0.21744853 0.15529065 0.3170647
0001c0 21 a6 c1 bb 1c 20 5a bd a2 01 e1 bd 3c 75 73 3e
       -0.0059096967 -0.053253278 -0.109866396 0.2377519
0001d0 9e c6 58 3d 67 6c 2d 3e 3c 48 42 3e 77 43 f2 3d
       0.05292379 0.16935883 0.18972868 0.11829274
0001e0 81 f7 c6 3d 26 7e d8 3d a1 2c 08 3e f1 78 22 be
       0.097151764 0.10570936 0.13298275 -0.15866448
0001f0 c9 70 c6 3d ab b3 4a 3e 2f e4 21 3e 88 69 90 bc
       0.09689481 0.197951 0.15809701 -0.017628446
000200 be d9 ca bd 83 bd 21 be 93 b9 a0 3d f1 91 56 3e
       -0.09904812 -0.15794949 0.078478955 0.2095411
000210 30 9b d4 bc 60 9a 4b 3d 64 6e 3e be f0 62 92 3e
       -0.025952905 0.04970777 -0.18596798 0.28591108
000220 a9 cd bf 3e 8b f4 33 3e a8 3a 48 3d 06 02 47 3e
       0.37461594 0.17573754 0.048884064 0.19434366
000230 ea f5 f4 bd 1a 1d b5 3d 66 d8 a0 3e 31 51 03 3e
       -0.11960967 0.08843441 0.314151 0.12823941
000240 df f4 15 3e f8 e8 29 3e 52 1f 6e 3e b6 6a 86 3d
       0.14644192 0.16592777 0.23254135 0.06563322
000250 b1 1d 31 bd 3d 92 88 3e 70 35 8f 3d 11 50 cb 3d
       -0.043241207 0.2667407 0.06992614 0.09927381
000260 dc 51 5d bd a7 1c 02 3d 80 fd d1 3d 9d aa 0e 3d
       -0.054033145 0.031765606 0.102534294 0.03483068
000270 0e f4 78 bd 68 22 f7 3c 08 d6 51 3e 66 10 4a 3d
       -0.060779624 0.030167773 0.20491803 0.049332045
000280 52 02 a7 bc c9 1a 6f 3d b8 c4 d8 3c ac ed 9c 3e
       -0.020386849 0.058375154 0.02646099 0.3065008
000290 b1 7d 96 3d 04 f9 23 bc 45 1e b3 bd a5 ab df 3d
       0.073481925 -0.0100081 -0.08746008 0.109214105
0002a0 8b 90 aa bd 0f d0 66 3e b3 87 72 3b c6 97 4c be
       -0.08328351 0.22540306 0.0037007153 -0.19979772
0002b0 03 4c 00 3e 45 56 17 3e 6a b6 92 3d 9b a1 ed bd
       0.12528996 0.14779003 0.07163699 -0.116030894
0002c0 1b ff d5 bd 7b 0f 33 be b8 34 53 be f5 68 4a be
       -0.10449048 -0.17486374 -0.2062558 -0.197666
0002d0 34 46 53 bd a5 fb 40 be 12 98 46 bd 99 a9 f8 3c
       -0.051580623 -0.18845995 -0.04848487 0.030354308
0002e0 96 a1 81 3e a9 2e f8 3d cb 15 5a 3e ae 52 5a 3d
       0.25318593 0.12118275 0.21297376 0.053301506
0002f0 e8 d3 a7 3e 87 5e a0 3e 41 91 9e 3e b6 2a 83 3e
       0.3277886 0.3132212 0.30970195 0.25618523
000300 ba 6e 37 3e df 2c 29 3e e9 4c 64 3e 4e 0e 0d be
       0.17913333 0.16521023 0.22294964 -0.13774988
000310 52 03 1c 3e 50 a3 4f 3e ef 5a 59 3e dc 05 3f 3d
       0.15235642 0.20277143 0.21226095 0.046636447
000320 71 9f 03 be 8f b9 83 bd 5c 6f 6f 3e 24 95 d1 3d
       -0.12853791 -0.06431877 0.23382324 0.102335244
000330 a2 06 da 3d 14 86 3d 3e 21 dd 55 bc d9 23 93 bd
       0.10645796 0.18508178 -0.0130532095 -0.07184572
000340 83 7a 75 3e 85 d3 95 3e c1 e2 26 3e 31 cf 0c be
       0.23972516 0.2926294 0.16297437 -0.13750912
000350 d0 39 60 be b9 9b 66 be be 76 3c be 71 2e a9 bc
       -0.21897054 -0.22520341 -0.18404672 -0.020652028
000360 30 98 45 be 26 e6 5f be 4a dd 79 3d 9d f8 ba bd
       -0.19296336 -0.21865138 0.061002053 -0.091294505
000370 82 55 50 3e bc 2d 2b 3e d2 a8 11 bc 6c da a6 3b
       0.20345119 0.16716665 -0.008890348 0.005091956
000380 ad 2b 98 bd 95 75 b0 3d bb 77 be 3c b1 09 81 3d
       -0.074302055 0.08616177 0.023250451 0.063006766
000390 d4 cd 7c 3d 8c dc 25 be d4 2f f9 bd 4f 92 26 be
       0.06171973 -0.16197413 -0.121673256 -0.1626675
0003a0 a6 84 0c 3e 83 53 87 bd 76 6a f3 bc 78 aa ff bd
       0.13722476 -0.066077255 -0.02971385 -0.12483686
0003b0 48 3a 87 3d 29 9b 2a be a2 48 c8 bd d4 29 ee bc
       0.06602913 -0.16660751 -0.097794786 -0.02907268
0003c0 22 09 34 3d 69 5d 21 bd 03 f8 98 bd 85 67 18 be
       0.043954022 -0.039395723 -0.074691795 -0.1488324
0003d0 35 bc 11 be 3e 83 cb bc 77 62 64 3e 4f aa 00 3d
       -0.14231952 -0.024842855 0.22303186 0.03141242
0003e0 32 9e 33 3e 61 a2 05 3e
       0.17540815 0.13050224

conv1.bias f4 [10]
000000 05 cd db bd f3 25 b4 3d ba 44 b9 3d 46 bb 6c 3e
       -0.10732464 0.08796301 0.09046312 0.23118314
000010 ac a6 bf bd b6 a0 1c be 6c fc 61 3e cc d5 42 3e
       -0.09357962 -0.15295681 0.22068948 0.1902687
000020 9b 9a 14 be 66 3b bc 3d
       -0.14512102 0.09191017

conv2.weight f4 [20, 10, 5, 5]
000000 49 73 3d 3c cb 08 75 bd 7e 40 a6 3b b8 1d 1e bd
       0.011563131 -0.05982284 0.005073606 -0.03860256
000010 42 4e 3a 3d 0f b0 51 3d 4d 3a c9 bc 82 22 83 bd
       0.04548479 0.051193293 -0.024563933 -0.06403066
000020 a5 40 71 bd ab 18 9c 3d 19 92 7a 3d 8f 74 be 3c
       -0.05889954 0.076218925 0.061174486 0.023248939
000030 1f c2 e2 bc 70 1d dc bc 65 66 3d 3d 3b ce 7c 3d
       -0.027680455 -0.026869506 0.04624023 0.061720114
000040 44 4f 7c bd 27 d0 19 3d 3e 88 2d 3c 0a 57 a1 3d
       -0.06159903 0.037552025 0.010591565 0.078779295
000050 82 b6 59 3d 20 40 e6 3c 67 3c 54 b9 6f 84 ae 3c
       0.05315257 0.028106749 -0.00020240397 0.021303384
000060 be 3e f8 3b f6 54 20 3b c9 cb 75 3c 35 4a 1c 3d
       0.007575839 0.0024464703 0.015002199 0.038156707
000070 18 f2 43 3c a7 6f a4 3c ce 5c 82 3d a6 5b 04 3d
       0.011959575 0.020072771 0.06365357 0.032313965
000080 dc f9 b4 bc 67 b7 a3 3c 7f bd 57 3d 98 59 d5 bc
       -0.022091798 0.019984914 0.052670952 -0.026043698
000090 ca 5a 9f 3c 3e 89 bd ba c1 67 96 bc b9 ba bf bc
       0.019452471 -0.0014460457 -0.01836002 -0.023404466
0000a0 5b fe 2f 3d f3 36 17 bd c9 28 70 3d d3 7f 1f 3d
       0.04296718 -0.036917638 0.058632646 0.038940262
0000b0 48 e9 14 bd 4c 3c 87 3d 55 61 c6 b9 8a 90 63 3d
       -0.036355287 0.066032976 -0.0003783802 0.055557765
0000c0 83 9e 7f 3c 90 40 39 bd 4a 87 1f bd af d7 e3 bc
       0.015601757 -0.045227587 -0.03894738 -0.027812807
0000d0 b5 d2 4d bc c4 61 3a bd 59 9f 90 3c 17 84 6f bd
       -0.0125624435 -0.045503393 0.017654108 -0.05847558
0000e0 c8 cc b3 bd 53 c8 ff bd fb 9a 67 3c f1 b6 8f 3d
       -0.08779293 -0.12489381 0.014136071 0.07017315
0000f0 15 9d 01 bd d2 96 80 3b 19 b2 7c bd 6c e7 90 3c
       -0.031643946 0.003924229 -0.061693285 0.017688476
000100 14 f2 34 3d 7b 99 8c bd 7d d6 82 3c b8 3c 3e 3d
       0.044176176 -0.068652116 0.015971417 0.046444625
000110 f2 ba 13 3d 4b 86 e6 bc a4 a4 af bd 4c 0f e1 3c
       0.036066957 -0.028140208 -0.085763246 0.027473114
000120 16 41 39 3d 69 a7 93 3d 29 45 c8 bd f0 51 2b bd
       0.045228086 0.07209665 -0.09778816 -0.04182619
000130 56 de ec bc 25 24 31 3c 8d d0 f4 bd 11 f3 b6 bd
       -0.028914612 0.01081184 -0.119538404 -0.0893308
000140 14 27 4f bc 0e 14 5c 3c ed 3a bb bd 37 bb 9a 3c
       -0.012643594 0.013432516 -0.091420986 0.0188881
000150 c6 e1 95 3d bf 70 8e 3d 79 c6 39 bd 0e b3 ff bc
       0.073184535 0.06955098 -0.045355294 -0.03121331
000160 90 54 8f 3c 60 29 ca 3d 52 49 13 bd d4 1b 23 bd
       0.017496377 0.09871173 -0.035958596 -0.03982146
000170 90 b9 f1 bb 11 e9 63 3d c8 a5 90 3d 58 1a 66 3d
       -0.007376857 0.05564219 0.0706287 0.056177467
000180 73 8a 05 3d e7 fe b3 bb a8 64 c4 3d e4 29 ad bc
       0.03260274 -0.005493033 0.09589511 -0.02113814
000190 b4 d4 09 bc 73 46 9b bc 24 91 89 bd e0 32 4d bd
       -0.008412529 -0.018954491 -0.067171365 -0.050097346
0001a0 c8 42 24 bd 0b bc 3d bd 48 20 71 bd 67 a5 98 bd
       -0.04010275 -0.04632191 -0.058868676 -0.07453423
0001b0 a9 10 a2 bd 27 dd d4 ba fe 1d 92 3d 7f 19 6d bc
       -0.07913334 -0.0016240225 0.07134627 -0.014471411
0001c0 54 82 93 bc 83 25 54 3c 59 81 63 3d 3b b9 85 3d
       -0.018006481 0.012948397 0.055543277 0.065294705
0001d0 ce 53 77 bd 88 91 3b 3d 91 56 cf 3c 6c 1b 72 3c
       -0.060382657 0.045793086 0.025309833 0.014777046
0001e0 f6 fe 59 3c 52 7f 81 3d a7 14 d8 3c cf 61 b4 3d
       0.013305416 0.063231125 0.026377035 0.08807718
0001f0 ba 63 65 bc 88 4c 9c 3c 60 d8 52 bd 97 35 dd bc
       -0.014000827 0.019079462 -0.051475883 -0.027003093
000200 2d 8a c5 bc e5 66 44 bc 58 52 09 bd ef de 44 3d
       -0.024113739 -0.011987423 -0.033525795 0.04806417
000210 fd d7 97 bc 49 7f e0 bd fa 1e cd bc 3b b7 db ba
       -0.018535608 -0.10961778 -0.025039185 -0.0016762981
000220 e5 88 7b bd 83 84 5b 3c 06 56 a0 bd 5f 95 fc 3c
       -0.06140985 0.0133982925 -0.07828908 0.030832944
000230 91 7c 91 bb 26 5b 4a 3b f2 10 c9 bc 81 a4 8f 3c
       -0.0044398983 0.0030877083 -0.024544213 0.017534496
000240 58 d9 d6 bc f0 75 67 bc 1d 38 11 bd 0e 77 4c 3d
       -0.026226684 -0.01412724 -0.035453904 0.049918227
000250 5d 06 7f 3b 36 73 5a bc 58 a5 e3 3c d9 97 1c 3d
       0.0038913705 -0.0133331325 0.027788803 0.03823075
000260 97 c1 56 bd c4 46 5d bd 87 61 a5 b7 fd e9 54 3d
       -0.052430715 -0.054022565 -1.9714947e-05 0.05198096
000270 c5 bd 73 bd d9 57 78 bc 19 36 1e 3c e6 de 51 3d
       -0.05950715 -0.015157663 0.009656453 0.051237963
000280 56 1a 13 bd e0 36 8d bd c5 3b 1c bd 69 19 9b 3d
       -0.035913788 -0.06895232 -0.03814294 0.07573206
000290 ab d7 40 bb f0 3f cf 3c e4 a3 95 bd 98 d0 63 3d
       -0.0029425423 0.025299042 -0.0730665 0.055618852
0002a0 3f 35 a1 3d e1 34 d5 bc 62 05 3e 3d 01 29 b3 3c
       0.07871484 -0.026026191 0.046391852 0.021870138
0002b0 ec 4b 75 3d 0c fb c0 bc f8 5d 07 3c 67 83 8a bd
       0.059886858 -0.023557208 0.00826215 -0.06763344
0002c0 36 83 a1 bd 28 f9 03 be c8 9e b2 bc d3 26 56 3d
       -0.078863546 -0.12888014 -0.021804228 0.05228312
0002d0 e9 ec c8 bc a5 6d 06 3d 6d 6d 38 bd 5d e6 7f 3c
       -0.02452703 0.03281941 -0.04502623 0.015618888
0002e0 eb 2d 9a 3d 58 db 1d 3d 10 9e 67 3c de d9 14 3d
       0.075282894 0.03853926 0.014136806 0.036340587
0002f0 de a8 48 3d 9c 43 e9 bc e7 83 c0 bd e2 e6 be 3c
       0.04898917 -0.028474621 -0.094001584 0.023303453
000300 76 49 e7 3c f6 e4 2d 3c 4f a2 bf bd 4d 49 58 3c
       0.028233271 0.010613671 -0.0935713 0.01320107
000310 8f b8 30 bc cc 6c 81 bc e3 ec 05 3d 2e 5d 04 bd
       -0.01078619 -0.015798949 0.032696616 -0.032315426
000320 54 db 18 bd 4d a6 2a 3d d1 5c 83 bc 91 31 87 bd
       -0.037318543 0.041662503 -0.01603547 -0.06601251
000330 fc 2a 67 bd d6 6d 7c bc bd 5b fd 3c 24 46 f8 bb
       -0.056437477 -0.015407046 0.030927533 -0.007576721
000340 8c 24 91 3c ba 38 19 bd fd 79 0a 3a 63 a6 b7 bc
       0.017717622 -0.037407614 0.000528246 -0.022418207
000350 98 5f 50 bd 14 ac a1 bd 7c 1e 6a 3c 6d 14 e3 bc
       -0.050872415 -0.078941494 0.014289495 -0.0277197
000360 7c e3 30 bd 8e 14 a3 3c 63 94 09 bd 30 45 a8 3c
       -0.043185696 0.019907262 -0.03358878 0.020540804
000370 a5 54 d8 3c 29 3b e7 bc a6 49 6c bd 33 17 0e 3d
       0.02640755 -0.028226452 -0.057687424 0.034690093
000380 3f 5f 96 bc d9 86 85 bb 15 14 89 3d c6 3a 90 3c
       -0.018355964 -0.004074913 0.066932835 0.01760615
000390 5e 63 24 3d 14 59 10 bd 12 71 e0 3c cf 34 5f bd
       0.040133826 -0.0352412 0.027397666 -0.05449372
0003a0 cd 6a 6e bc f1 e8 3c 3d e2 f6 4c 3d 22 cb 87 bd
       -0.0145518305 0.046120588 0.050040133 -0.066305414
0003b0 d5 ce 14 3d 06 1a 0d 3d f6 fa 12 3c 1c 55 27 3d
       0.036330063 0.034448646 0.008970967 0.04085265
0003c0 06 a9 82 bc 9e 72 42 bd 2a 9d f8 bc 76 08 9d bc
       -0.015949737 -0.04747259 -0.03034838 -0.019169074
0003d0 b4 91 bb bc 7e fb 49 bd 13 b9 0d bc 8b 7f ff bc
       -0.022896625 -0.049312107 -0.008650082 -0.031188747
0003e0 fe 56 0d 3d 21 c0 65 3d 1a 07 8a bd 6e bb 1f 3d
       0.03450679 0.05609143 -0.06739636 0.038997106
0003f0 48 aa c0 bc 58 69 50 bc 0d 74 3f 3d b7 88 a5 bc
       -0.023518696 -0.012720428 0.046741534 -0.020206792

conv2.bias f4 [20]
000000 61 b1 83 3c 9e 6a c5 3b bb 94 8a bd 70 4e 0f 3b
       0.016075792 0.0060246726 -0.06766649 0.002186682
000010 b3 80 aa 3c 10 29 ac bc e0 b7 09 3d b4 a2 4b bd
       0.020813322 -0.021015674 0.033622622 -0.049715713
000020 a5 8d ab 3c 6c 74 a0 bc 38 dc 16 bc cf ac 3e 3c
       0.020941565 -0.019586764 -0.009207778 0.0116378805
000030 80 b1 0f bd ff be b9 3c 1c 50 84 3c 38 69 15 bd
       -0.035081387 0.022674082 0.01615148 -0.036477298
000040 ea f8 60 3c 56 91 21 bd b9 44 4e bd 6a 76 dd bc
       0.013731221 -0.039445244 -0.050358508 -0.027034003

fc.weight f4 [10, 320]
000000 45 10 7a 3d ca 7e 76 3c 26 d1 bf bc 9f 93 80 bb
       0.061050672 0.015044877 -0.02341516 -0.003923848
000010 27 15 e1 3d 27 d1 36 3c 91 50 58 bd e8 1b 27 3d
       0.109903626 0.011158264 -0.05281121 0.040798098
000020 25 68 11 bd 7d 6b 77 bd f2 b3 ae 3d 98 1b 01 3d
       -0.03549971 -0.060405243 0.085304156 0.031520456
000030 08 d1 5c bd b1 51 3c 3d cf 22 6f 3d 30 57 2c bb
       -0.053910285 0.045976344 0.058382805 -0.0026297085
000040 4c c4 20 3d b5 e4 2f bd 4a 07 ed 3a 22 48 62 bd
       0.039249703 -0.04294272 0.0018083837 -0.055244572
000050 90 a9 76 bd f5 59 01 bd 1a c6 56 3c 7b 14 00 bc
       -0.0602203 -0.03157993 0.0131087545 -0.007817383
000060 a5 d2 93 bd 7a cb 9f bd bf 3b 93 bd 37 64 27 bd
       -0.07217912 -0.07802482 -0.0718913 -0.040867057
000070 91 34 86 bd f1 62 37 3d 1e 70 00 3b b3 bb 20 3c
       -0.06552995 0.044772092 0.0019598077 0.009810376
000080 92 b2 3a bc f9 44 b5 3c 87 14 82 3d 68 64 7a bb
       -0.011395114 0.022127615 0.063515715 -0.003820682
000090 25 52 83 bd ad f3 9f bc 23 f5 e1 bd 6c cc c0 bc
       -0.06412152 -0.019525373 -0.11033084 -0.023534976
0000a0 56 8f ae bd b0 34 95 bd 93 b0 1a bd 52 75 b9 3c
       -0.08523433 -0.0728544 -0.03776605 0.02263895
0000b0 0a 0c 1c 3c 82 c0 dd 3d 30 54 ad 3c 29 eb 22 bc
       0.009524355 0.108277336 0.021158308 -0.009943762
0000c0 23 97 1c 3d e1 0e 1f 3c 57 4f 2f 3d 20 7d e9 bb
       0.038230073 0.009708137 0.042800274 -0.0071255118
0000d0 29 4e 9a 3c 99 21 03 3d 03 a0 07 3d 34 b3 e4 bb
       0.018836098 0.032014463 0.033111583 -0.0069793705
0000e0 04 39 29 bc e0 7f 82 3b fa b7 81 3c ca 5f 53 3d
       -0.010328535 0.003982529 0.015834797 0.051605023
0000f0 19 b0 ce 3b b2 86 45 3d 9a 1d 7d bc 91 68 96 bc
       0.0063076136 0.04822416 -0.015448952 -0.018360408
000100 1f 08 39 bd 44 7e 83 3c 9c 9e 88 3c 2e 0a f3 3c
       -0.04517376 0.01605142 0.016677193 0.02966794
000110 58 5e 86 bd f7 f2 f9 ba ee 48 00 3d 67 09 55 3d
       -0.065609634 -0.0019069602 0.03131955 0.05201092
000120 05 8e b7 bd 74 b6 b8 bd 7e 32 35 bc da 22 97 3d
       -0.08962635 -0.09019175 -0.011059402 0.07379694
000130 b1 e6 3b 3d 96 c2 53 bd f1 97 82 bd 75 46 91 3c
       0.0458743 -0.051699243 -0.06376637 0.017733792
000140 35 0b 42 3d 0e c2 91 bc e5 4d 7b 3d 01 03 c7 bc
       0.04737397 -0.017792728 0.061353583 -0.024293425
000150 a7 51 dd bc d4 d1 38 bc 2b 73 ac bc 0e 16 87 bd
       -0.027016474 -0.011280496 -0.02105101 -0.065960035
000160 22 bc 52 3d 2e f2 a6 3c 0c db e7 bc 28 4e 56 bc
       0.05144895 0.020379152 -0.028302692 -0.013080157
000170 7a 56 00 3d bd c4 f6 bc d9 2c a0 bb 03 fe 0e bb
       0.03133247 -0.030123109 -0.0048881588 -0.0021818883
000180 b7 52 33 bd 7e 0b 70 3d 46 d1 85 3d f6 6c 89 bc
       -0.043780055 0.05860471 0.06534056 -0.01677559
000190 e1 d0 b2 3b 9c 0c 96 3d 7b 7b 5e bb ad 22 8f bc
       0.005457029 0.07326624 -0.0033948112 -0.01747259
0001a0 89 fb d5 3d 4a e2 c4 bc 3d 68 98 bd c2 23 03 bc
       0.10448367 -0.024033684 -0.07441757 -0.008004131
0001b0 a3 06 c1 3c dc 48 0d 3d 0e 1c 51 bb 91 5f 9d bc
       0.023562735 0.034493312 -0.003190759 -0.019210609
0001c0 dc fb 31 3d d7 26 36 bd 41 c5 b8 bc c3 97 0f 3d
       0.043453082 -0.044470634 -0.022554995 0.03505684
0001d0 a2 45 52 bb fb 59 53 bc 7f 55 a8 bd b6 c8 1d bd
       -0.0032084961 -0.012899871 -0.08219432 -0.03852149
0001e0 0b e0 8b bc a9 c0 51 ba 5e fe e3 3c 2f 6f fa 3c
       -0.017074605 -0.0008001426 0.027831253 0.030570595
0001f0 57 0c 86 bd b4 c2 9b 3d 3c 75 c6 3d fc 3d bd bc
       -0.065453224 0.07605496 0.096903294 -0.023100846
000200 ab 3a 04 3d ee 94 b5 ba 31 a9 ec 3c 17 2b 69 3c
       0.032282513 -0.0013853589 0.02888927 0.014231465
000210 03 7a dc bb 9e e0 a9 bc f3 c4 ee 3b 2f 34 2a bd
       -0.006728412 -0.020736989 0.007286662 -0.041553672
000220 91 75 66 bb ea 76 15 bd c3 f5 2f 3d e5 29 e1 3c
       -0.003516529 -0.03649036 0.042958986 0.027485797
000230 e8 38 4b 3d 7d dc 1b bd 79 47 3e bc 85 53 cf 3b
       0.049614817 -0.03805207 -0.01161372 0.006327095
000240 b5 18 4c bc 77 2a d9 bc c7 4c 15 3d ae c7 6c 3d
       -0.0124570625 -0.026509507 0.036450174 0.057807617
000250 51 28 57 3d 3a 75 f6 bc 10 26 fa bd 4b 74 44 bd
       0.052528683 -0.030085195 -0.12214291 -0.047962468
000260 ab 76 43 bc e9 50 4f 3d c3 5c 41 bd e3 24 c3 bd
       -0.011930148 0.05061427 -0.047207605 -0.0952852
000270 46 bd e9 3c b8 22 98 3d db ed 55 3c 82 26 f1 bd
       0.028532635 0.07428497 0.013057197 -0.11774923
000280 9d 99 2a 3c 6b 68 86 bd 3d fe 12 3d 7b 06 c0 3c
       0.010412601 -0.06562885 0.03588699 0.02344059
000290 9c 7f 1c 3d e3 cd 5b bd c1 92 df 3c d9 81 88 3c
       0.038207635 -0.053663146 0.027291657 0.016663479
0002a0 f9 43 00 3d 61 10 e5 b9 b4 a4 0e bd 0c 24 fa 3b
       0.031314824 -0.00043690487 -0.034825042 0.0076336917
0002b0 7d b5 ce 3b c5 32 94 3d ab 30 3f bc f7 43 92 bd
       0.006308256 0.07236246 -0.011669318 -0.071418695
0002c0 eb c3 48 3d b9 06 25 bc 59 42 49 ba 85 98 a8 bd
       0.049014967 -0.010072404 -0.0007677428 -0.08232216
0002d0 68 23 5d 3b c8 c3 2e 3d 01 ff c9 bd c8 ef 07 3d
       0.0033743028 0.04266718 -0.09863091 0.033187658
0002e0 28 3b 6e bd d1 9f 25 bd 7b 64 82 bd c2 01 1d 3b
       -0.058161885 -0.040435616 -0.063668214 0.0023957347
0002f0 0e b7 af 3b ff 1b 2b bd 58 c1 d4 bc c1 d9 10 bc
       0.005362398 -0.041774746 -0.0259711 -0.008840979
000300 cf fa c1 3c 6a f5 4a 3d 30 31 12 bd fe eb 40 3b
       0.023679165 0.04955045 -0.03569144 0.0029437537
000310 d4 be fa bb 99 b4 0d 3b b5 34 dd bc 40 4c 64 3c
       -0.007652143 0.0021622537 -0.027002672 0.013934195
000320 bc db 69 bd 80 0f bc bc 71 2e 56 3d bf 83 2a 3d
       -0.05709432 -0.02295661 0.052290384 0.04162955
000330 53 98 44 bc 40 5e 9a bc 44 0f 95 3c 0a 70 4c 3d
       -0.011999208 -0.01884377 0.018195756 0.049911536
000340 40 6a c1 bc 64 a8 2a 3d e1 dd 8f 3c e7 93 82 bd
       -0.023610234 0.041664496 0.017561855 -0.063758664
000350 98 bd 42 3d 35 c2 20 3d dc 31 85 3d c4 0a bf bd
       0.047544092 0.03924771 0.065036505 -0.09328225
000360 0b 77 06 3d 45 e4 26 bb 88 7e 15 be 14 8e 9c 3c
       0.032828372 -0.002546565 -0.14599049 0.019110717
000370 6a 2b 14 bd f4 18 d1 bc d2 b6 3e bd 7c 4e d8 3d
       -0.036174215 -0.025524594 -0.04656107 0.10561845
000380 18 31 21 bd 74 7a 97 3c 8d 01 03 bd 7d 43 33 bc
       -0.03935346 0.018491007 -0.0319839 -0.010941383
000390 d3 af 9f 3d ec f1 68 bc 78 64 f4 bc 46 4b 89 bd
       0.07797208 -0.014217835 -0.029833063 -0.067038104
0003a0 1c 18 f1 bc 2b 57 93 3c a9 35 b9 3a 16 04 af 3d
       -0.029430442 0.0179859 0.0014130372 0.08545701
0003b0 46 12 84 3c a3 bc e0 bb 12 1e db bc 2c 03 eb 3c
       0.016121995 -0.0068584247 -0.026747737 0.028688036
0003c0 c2 79 63 bd 1a 1a 4d 3c 32 0b 91 3c a3 6c 90 3d
       -0.05553604 0.01251843 0.017705534 0.07051971
0003d0 c6 11 4d bc 55 ce 98 3b 12 07 4f 3b ae 6c f2 3c
       -0.012516445 0.0046632686 0.0031589908 0.029592838
0003e0 8d 29 17 bd c4 6c 25 3c ba c3 28 bb 15 11 c6 bb
       -0.03690486 0.0100967325 -0.0025751428 -0.006044517
0003f0 88 59 85 3d 37 6f 86 bc c9 b5 97 3d 22 31 b7 bb
       0.06511217 -0.016410453 0.0740772 -0.005590574

fc.bias f4 [10]
000000 b5 8b 0f 3d 7d 33 9a 3c 8c 6f 56 3c 64 9d 44 bd
       0.035045344 0.01882338 0.013088118 -0.048001662
000010 f8 51 53 3c a9 f7 5c 3d 2a c8 ef bb 02 a2 ae 3c
       0.012897961 0.053947125 -0.0073175626 0.021317486
000020 ac 5d 4c bc f8 7f 31 3c
       -0.012473505 0.010833733
