oracle/train/iid/checkpoint/fmnist/ckpt_1_0.pth (torch, 888853 bytes, 44 tensors)

cnn1.weight f4 [16, 1, 3, 3]
000000 a2 88 4a 3e 09 f5 09 3c ce 13 bb 3d 30 ce 97 bd
       0.19778684 0.008420237 0.09134637 -0.07412374
000010 c3 6b 08 bd 99 bd 6c bd bc 4d f2 bd db 62 27 bd
       -0.033305895 -0.057798002 -0.11831233 -0.04086576
000020 c1 f6 07 3e 97 f2 68 bd d6 b3 47 bd ca 8a 96 ba
       0.13277723 -0.056871977 -0.04875549 -0.0011485454
000030 a6 3d 89 bd 04 29 a4 bc 98 22 02 be ae e2 c1 bd
       -0.06701212 -0.020039089 -0.12708509 -0.09467064
000040 a7 a7 29 3e 43 0d 22 3e 75 3a a8 3d ef a9 19 be
       0.1656786 0.15825371 0.08214275 -0.15006231
000050 78 87 26 3e fa 8b 32 39 2d a5 24 be 17 76 07 3e
       0.16262615 0.00017027548 -0.16078635 0.13228641
000060 7c 61 7d 3c da 6c c4 3b b9 4f dd bc 9c cd 46 3e
       0.015465137 0.0059944214 -0.027015554 0.19414371
000070 81 ae 5d 3e f3 71 22 bd 95 97 28 3e 6e c0 87 3d
       0.21648599 -0.03965945 0.16464074 0.066285
000080 4d 5d 14 be 5e d4 89 3e 62 59 fc 3d b1 91 53 3d
       -0.14488716 0.26919836 0.12321736 0.051652614
000090 98 b5 3e be cf 76 54 be 07 1d 2a be 54 eb 99 3d
       -0.1862396 -0.20748447 -0.16612636 0.075155884
0000a0 9b 6f c3 3a 81 a6 16 be 2f d8 3a bd c3 96 82 3e
       0.001491058 -0.14711954 -0.045616325 0.25505647
0000b0 d9 17 ce 3d 88 26 ec 3d 05 a4 99 3d 35 79 f2 3c
       0.10063142 0.11530787 0.07501987 0.029598812
0000c0 f0 b7 a2 bd 22 68 21 be c6 b0 e1 bb de 70 95 bd
       -0.079452395 -0.1576238 -0.006887528 -0.07296918
0000d0 1a 95 53 3b c6 88 77 bd e2 87 50 3d fd bb 2e 3d
       0.0032284916 -0.06043317 0.050910838 0.04265975
0000e0 59 b6 9e bc 0c 97 a0 3c 06 2c 32 bd 15 18 d8 3c
       -0.01937406 0.019603275 -0.043499015 0.02637867
0000f0 84 be aa bd fd 59 4f bd 28 14 f8 3b b7 c6 30 3a
       -0.08337119 -0.05062293 0.007570762 0.0006743478
000100 15 fe b8 bd ec da 74 3e fb 12 08 3d 81 dc 2c be
       -0.09032837 0.23911637 0.033221226 -0.1688099
000110 c7 77 9d bc d2 aa 01 3e 4e a7 89 bd b4 51 40 3e
       -0.019222153 0.12662819 -0.06721364 0.18781167
000120 99 96 5f be 90 aa 6e 3d 22 c5 a5 3b 1a 5e 51 bc
       -0.21834792 0.05826813 0.0050589005 -0.012778783
000130 cc 5f 8d bc 6d a4 48 3e ac a5 ed bd 15 7c 7f 3d
       -0.017257594 0.19593973 -0.11603865 0.062374193
000140 3a b3 ae 3d c4 1f 14 3e 14 50 ef 3d d5 0c dc 3c
       0.085302785 0.14465243 0.116851956 0.026861588
000150 84 38 13 be f2 58 44 bb e4 2d 0d bd 66 b7 44 be
       -0.14377028 -0.0029960242 -0.034467593 -0.19210586
000160 f0 b0 d8 3b 2f 22 0c 3d 80 77 83 bb d9 a1 41 bd
       0.0066128895 0.034212288 -0.0040120482 -0.04727349
000170 f7 0e ef 3d 89 a5 7a bd 4b 85 39 3b 38 85 15 3e
       0.11672776 -0.061193023 0.0028308209 0.146016
000180 b5 b6 ac bd f7 a9 b7 bd c1 f3 5e bd c9 21 07 3e
       -0.08433286 -0.08967965 -0.05443168 0.13196482
000190 95 c1 30 3e 4d d0 b8 3c ba 9e f5 3c b1 49 b3 bd
       0.17261346 0.022560263 0.029982913 -0.0875429
0001a0 65 df 53 3e 33 b1 f3 3d c5 d0 5b bd d3 f4 42 3e
       0.20690687 0.118990324 -0.053665895 0.19038706
0001b0 16 87 2d 3d 14 e9 4f 3e 36 e7 9b 3e 83 f3 41 be
       0.042365156 0.20303756 0.30449837 -0.18940549
0001c0 30 d9 ad 3d 72 90 ea bc a4 22 f9 bd b7 c9 4d 3e
       0.08488691 -0.02863333 -0.1216481 0.2009648
0001d0 c0 5b 8e 3c 95 70 67 bc 83 6c 18 3e 3f 97 c9 bd
       0.017377734 -0.014125963 0.14885144 -0.09843301
0001e0 41 80 8b 3c 94 1e 25 be b2 93 bc 3e 96 8c 00 3e
       0.01702893 -0.16124946 0.36831433 0.1255363
0001f0 10 30 2e 3d fe a2 97 bc f3 dd a1 3d b4 e8 b5 3d
       0.042526305 -0.018510338 0.079036616 0.08882275
000200 c5 2f 35 bd d8 8d 08 3d 95 94 01 bd e4 58 b6 bd
       -0.04423501 0.033338398 -0.03163584 -0.08903673
000210 1c 0f 93 bd ca 39 30 bd 18 a1 3c bd 1a 3e d0 3c
       -0.07180616 -0.043023862 -0.04605207 0.025420237
000220 a7 29 a3 bd 61 1c 17 3c ab 8c 2c 3e 13 6d 94 bd
       -0.07966929 0.009223075 0.16850536 -0.07247367
000230 f1 6c 5f 3e 65 d6 b1 3c b8 c5 19 3e dc 2d b3 bc
       0.21818902 0.021708677 0.1501683 -0.021872453

cnn1.bias f4 [16]
000000 ca 20 4f 3e 6a d2 67 3e d8 60 da 3c be fc 00 3e
       0.20227352 0.2263886 0.026657507 0.12596413
000010 c7 09 a9 3e b5 3d 07 be 6e 97 aa 3e bf 8d f3 3d
       0.33015272 -0.13207133 0.33318657 0.1189227
000020 dc ac 9a be 18 77 05 bd 85 0e 8b 3e 9a d1 52 3e
       -0.30210006 -0.03258428 0.27159515 0.20587769
000030 eb c0 67 be 72 ab 30 3e e2 5f 2f bb 46 a2 08 3e
       -0.22632186 0.17252901 -0.0026760031 0.13343152

bn1.weight f4 [16]
000000 ec f3 7e 3f 74 44 80 3f fc 7b 7f 3f 51 d2 7f 3f
       0.99590945 1.002089 0.9979856 0.9993029
000010 67 6a 80 3f 81 40 80 3f 77 6c 80 3f 27 e4 7e 3f
       1.0032471 1.0019685 1.0033101 0.9956688
000020 ef 6f 80 3f cf 3c 80 3f 90 46 80 3f cf af 7f 3f
       1.003416 1.0018557 1.0021534 0.9987764
000030 dc 8a 7f 3f e4 78 7f 3f e5 32 80 3f 75 bc 7f 3f
       0.9982126 0.9979384 1.0015532 0.9989694

bn1.bias f4 [16]
000000 22 3e 21 39 64 13 c6 3a 38 23 2c 3a 0f 8e e5 3a
       0.00015377303 0.001511198 0.00065665273 0.001751365
000010 70 6e ce 3a d2 1e 8d 3a cc d1 b7 3a 9b 31 6d 3a
       0.0015749466 0.0010766631 0.0014024316 0.00090482243
000020 26 7f 57 3a 8e 94 5b 3a a7 13 07 3a 2a 94 41 39
       0.0008220546 0.00083763234 0.000515277 0.0001846111
000030 98 d6 cb 39 b0 40 a1 39 94 ae 9f 39 85 d0 45 ba
       0.00038879062 0.0003075651 0.00030456914 -0.00075460254

bn1.running_mean f4 [16]
000000 43 b8 82 3e 5c 9f 37 3e 9d fa 82 3d 4a ab 18 3f
       0.25531206 0.17931885 0.06395457 0.59636366
000010 de 73 24 3e 87 c0 58 be 68 d4 98 3e 40 29 7d 3e
       0.16059825 -0.21167193 0.29849553 0.24722767
000020 a9 80 8e be b8 12 59 bd 03 5b 6e 3e c6 98 17 3f
       -0.27832535 -0.052996367 0.23276906 0.5921749
000030 d2 0c 22 3d da 8b c6 3e da 4b 8e bd a3 41 b5 3e
       0.039563008 0.38778573 -0.06948061 0.3540164

bn1.running_var f4 [16]
000000 e1 c1 00 3d 44 38 21 3d 44 84 d6 3c 00 42 6d 3f
       0.031434897 0.0393603 0.026186116 0.92678833
000010 d8 6b 43 3e 45 10 3c 3d f8 a4 33 3c a3 f6 a6 3d
       0.19084108 0.045913953 0.010964625 0.08152511
000020 34 81 99 3d d8 37 1d 3d 6e c9 1e 3d 92 5e 0a 3f
       0.07495347 0.038383335 0.038766317 0.5405055
000030 23 f9 bd 3e 49 f9 3c 3e 19 a6 0f 3d 90 d5 45 3e
       0.3710414 0.1845447 0.035070512 0.19319749

cnn2.weight f4 [32, 16, 3, 3]
000000 55 da 57 3d bc 9b a9 3d 15 a0 db bc a1 53 cf bd
       0.052698452 0.08281657 -0.026809731 -0.10123373
000010 2a 4e e4 3c d2 ed d9 bc ed e4 8f 3b e6 a3 c7 3c
       0.027869303 -0.02660266 0.0043913038 0.024370145
000020 de 45 d2 3d 3f 6c df 3c 17 76 1e 3b b9 e9 0a 3d
       0.10267232 0.027273295 0.0024179274 0.0339143
000030 99 8d d7 3b 45 62 54 3c 0d 24 7f 3d 37 b7 18 3d
       0.006578159 0.012962882 0.06229024 0.037284102
000040 2e 74 10 3b f0 0f a0 3c 67 d7 64 3d 78 dc a1 bd
       0.0022041905 0.01953885 0.055869486 -0.07903379
000050 ee 26 07 bd 7a 79 9a 3d 25 06 f1 bc 04 2d 3f bd
       -0.03299611 0.07542701 -0.029421875 -0.04667379
000060 6d 62 96 bd bb c8 f2 bc fd 6f 36 bd d8 de 9e bd
       -0.07342992 -0.029636731 -0.044540394 -0.07757348
000070 d5 7e 94 3d df cb 7a bb 76 65 66 bd 33 00 20 be
       0.07250754 -0.003826849 -0.056249104 -0.15625076
000080 c4 af 1b 3d d6 15 30 3d f4 da 8c 3d 89 93 45 3d
       0.03800942 0.042989574 0.068776995 0.048236404
000090 76 4b ff bd 05 8b 2f ba 5d 87 5e 3d b8 8d 40 3d
       -0.12465565 -0.0006696436 0.05432831 0.047010154
0000a0 93 28 40 3d 97 10 be bd 04 52 11 3d 06 b9 a5 3c
       0.046913695 -0.09280508 0.035478607 0.020229828
0000b0 14 38 ab bd fe 39 90 3d 95 48 51 3d 23 4e 98 bd
       -0.083603054 0.07042311 0.05109461 -0.074367784
0000c0 19 3a af bd 8e 15 90 3d c8 ce 3f bd 99 b2 94 bd
       -0.08556003 0.07035361 -0.04682806 -0.07260627
0000d0 de d3 37 bd 29 3b 03 bd 89 76 41 bd 7f 0a 2d 3c
       -0.044879787 -0.03203884 -0.047232185 0.0105615845
0000e0 43 09 84 3d 3f 5a dd 3d 3c 31 3a 3d 22 c2 89 3c
       0.06447079 0.10808229 0.04545711 0.016816203
0000f0 e0 61 db bd 57 54 49 3d 28 79 c0 3a 1f 36 cc bb
       -0.107120275 0.0491527 0.0014684545 -0.0062320377
000100 5d b8 0c 3d 0a ac 28 bc 72 c0 5c bd 30 cc 1e 3d
       0.03435551 -0.010294924 -0.053894468 0.038768947
000110 44 de 3f be 47 07 b9 bc 7a 3a 16 3d 51 7e 1e 3c
       -0.18737131 -0.022586478 0.03667686 0.009673671
000120 ed a9 bd bc 38 df dd bd 33 dc 03 3c 72 a5 0a 3e
       -0.023152316 -0.10833591 0.008048105 0.13539675
000130 fd 59 16 bd 77 7c 98 bd 51 0f 14 bd a9 97 52 be
       -0.036706913 -0.07445615 -0.03614742 -0.20565666
000140 5d 0e 2c 3d 83 fc 49 bb 1f f0 c8 bd bb 1a d6 bd
       0.042005885 -0.0030820675 -0.098114245 -0.10454317
000150 51 f3 aa bd cf e2 27 3d 39 bd 11 bd d1 a3 b7 bb
       -0.0834719 0.040987786 -0.035580847 -0.0056042452
000160 e7 6b b6 bd cf 22 85 bd 22 ff 09 3e 68 8c 5e bd
       -0.089072995 -0.0650078 0.13476232 -0.05433312
000170 f8 ce 1a 3c 9e 97 e9 bc 8a e7 83 3d 6e 5e 07 3e
       0.009448759 -0.02851468 0.06440647 0.13219616
000180 bb 08 b0 bc 5d 44 28 3b 11 dd 45 3d e1 97 7c 3b
       -0.021488538 0.0025675513 0.04830653 0.0038542675
000190 90 bb 8a 3c e1 44 fc bc 9f 43 59 bd 03 20 fb bc
       0.01693514 -0.030794563 -0.053043004 -0.030654913
0001a0 3a d6 58 bd e9 df 16 3d 1a 13 03 be 5b 5a 25 bd
       -0.052938677 0.03683463 -0.12800255 -0.040369373
0001b0 bf 5a 0f bb ba c4 f4 3d cf c7 e2 bc 8b 5b f7 3d
       -0.0021874157 0.11951585 -0.027683167 0.12078007
0001c0 a2 58 89 3c 19 ea 6e bc 12 c6 99 bc 5e f7 aa bd
       0.016765896 -0.01458218 -0.018771205 -0.08347963
0001d0 21 4a 22 3d cb fe 4e bd 28 d2 6f bd a6 23 45 bd
       0.039621476 -0.05053596 -0.05855003 -0.0481297
0001e0 4c 1f 72 3d d7 c0 34 3c f7 9f 7a bd 0d 62 82 3d
       0.05911188 0.011032305 -0.06118771 0.06366358
0001f0 14 db 98 bd a8 84 01 3d 79 5f 12 3d 9a 85 a2 bd
       -0.07463661 0.03162065 0.03573558 -0.07935639
000200 84 f3 1e bd bd 85 8c 3d 03 00 9d 3d 32 71 d2 3d
       -0.038806453 0.06861446 0.07666018 0.102754965
000210 07 b0 c6 bd 8c dc 55 bd dd 92 0c be 0f e7 64 3b
       -0.09701543 -0.052212283 -0.13727899 0.003492776
000220 f0 c4 31 3d cc 0a 68 3c d3 f6 a3 3d c7 fa 0f bd
       0.043400705 0.01416273 0.08006062 -0.03515127
000230 4e fb 30 3d 82 3d 83 bc 2b 73 f8 bc 70 cb 61 3d
       0.043208413 -0.01602054 -0.030328354 0.055125654
000240 8f 53 aa 3c e3 42 c4 bc 3e 86 84 3d bf c4 31 3d
       0.020791797 -0.023957675 0.06470917 0.043400522
000250 7c 62 d1 bd 2e cf 8c bd f0 24 83 3d 3b 3f b6 bc
       -0.102238625 -0.06875454 0.0640353 -0.022246948
000260 07 d6 16 3d 77 9c 32 bd 9f 0c c8 bd 82 24 9e 3d
       0.036825206 -0.043606248 -0.09768032 0.07721807
000270 c8 fc 6e 3d b4 18 2b bd 4e 68 83 bd 61 12 c7 bd
       0.05834654 -0.041771606 -0.06416379 -0.097203024
000280 5b 6f 78 bd 6f a3 c0 bc 37 b0 d0 b9 1c 6a 00 be
       -0.06065307 -0.023515431 -0.00039804142 -0.12540478
000290 3b c8 b3 bc 4d 08 e4 3c 9d b7 ec 3c fc d0 50 be
       -0.021946063 0.02783599 0.028896147 -0.20392221
0002a0 df 84 27 3d a9 dc a8 bd c1 68 1a bd 7f ca 24 bd
       0.0408982 -0.082452126 -0.037697557 -0.040232178
0002b0 da dc 08 3e 01 7c 3a be 82 e5 d9 3c a0 3e 21 3c
       0.13365498 -0.18211366 0.026598696 0.009841591
0002c0 d7 ba 36 3d 6d 27 97 3d ba ba 40 bd b6 4b 1f bd
       0.044611778 0.07380567 -0.047053076 -0.038890563
0002d0 75 71 a5 bb 72 d2 11 bd bf c1 f6 3d 4c a5 eb bd
       -0.0050489255 -0.035601087 0.12048673 -0.11506137
0002e0 46 76 a3 3b a7 6b 97 3d f7 b6 37 3d 96 d0 28 bd
       0.0049884645 0.0739358 0.044852223 -0.041214548
0002f0 85 65 21 3c 86 4e d0 bd 9c 6a 2d 3c 5d 68 a2 3d
       0.009850864 -0.10171227 0.0105845 0.07930062
000300 e4 5e bc bc ef 0c 2f bd c8 dd 0f bd 1b 4b 93 3c
       -0.022994466 -0.042736944 -0.035123616 0.017980149
000310 c8 12 e1 bd 10 5c c1 3c c5 24 ae 3d 4b b8 ed 3d
       -0.1098991 0.02360347 0.08503107 0.11607417
000320 3a 07 75 bd 2d ff a2 bd 86 0c c0 3d c0 2e ca bd
       -0.059821345 -0.07958827 0.09377389 -0.09872198
000330 df 63 4a 3d 4a 40 aa 3d 28 cd 64 3b 1b 04 28 3d
       0.04941165 0.083130434 0.0034912322 0.04101954
000340 11 0f 74 bd 86 e0 40 3b 9a 63 ae 3c 29 e0 c4 bd
       -0.05958468 0.0029430701 0.021287728 -0.09613068
000350 11 92 db bc 86 75 a8 3d 69 66 fa 3c 1d 8f 8e 3d
       -0.026803048 0.08225541 0.030566411 0.069608904
000360 4e 34 90 bd 0e e2 8c bd 0d 84 48 bd 18 56 f0 bc
       -0.07041226 -0.06879054 -0.04895406 -0.029337928
000370 64 19 7a bc 24 74 f0 3d 7c c7 53 b9 45 3f 0b 3c
       -0.015264843 0.11740902 -0.00020196842 0.008498971
000380 ba bc 0e 3e a1 28 0a bc 28 2f e6 bc 52 07 05 be
       0.13939181 -0.008432538 -0.028098658 -0.12991074
000390 6f d8 f6 3d 64 62 d1 3d d1 a8 45 bc 41 30 99 bd
       0.12053 0.10223845 -0.012064175 -0.07479907
0003a0 8c b7 20 bd cf 72 1d 3e 87 56 3e 3d b7 0b 7a 3d
       -0.039237544 0.15375827 0.046469238 0.06104633
0003b0 de 16 c0 bd 01 db e8 bb 89 8e ad 3d fa b5 4b 3d
       -0.093793616 -0.0071061854 0.08474452 0.049734093
0003c0 31 52 9f 3d 88 21 b8 3d c0 28 52 3d 76 44 35 3d
       0.07779349 0.089907706 0.051308393 0.044254743
0003d0 7f 4d bf 3d da 1f 16 3c 4b 40 03 3e 09 56 10 3c
       0.09340953 0.009162867 0.12817495 0.008809575
0003e0 1e b0 f2 3a c5 96 8b bd 56 b1 e9 bd f6 e6 a3 bd
       0.0018515622 -0.068158664 -0.11410777 -0.08003037
0003f0 e3 da 0c 3c f2 d2 87 3d c7 c0 d3 bd e4 1c 81 bd
       0.008597109 0.066320315 -0.10339504 -0.063043386

cnn2.bias f4 [32]
000000 46 f7 1d 3d 8b a1 a7 3d 32 f9 87 3c b3 90 26 3d
       0.038565896 0.08185109 0.016598318 0.04066534
000010 b9 5b 22 bd 44 23 9f 3d 74 7d aa 3d 07 92 a2 3d
       -0.039638255 0.07770398 0.083247095 0.07938009
000020 5a 14 4c 3d 52 8e 4f 3d 3b 65 1f bd be 9c 97 bd
       0.049824096 0.050672837 -0.0389149 -0.07402943
000030 6b 63 8d 3d 13 91 d0 3c b2 8a 65 3d 4f fb ae ba
       0.06903728 0.025459802 0.056040473 -0.0013350042
000040 9b 9f 15 bd 37 e6 64 bd 89 0a 03 3d 5f 86 52 bc
       -0.036529165 -0.055883612 0.03199247 -0.012849419
000050 c4 65 87 3c 5f ba 96 3d 95 16 0a bc 79 79 a1 3d
       0.016528018 0.07359766 -0.008428236 0.07884497
000060 92 53 6a 3d 6a 67 87 bd c9 87 12 3d 70 6f 9e bc
       0.057208605 -0.066115215 0.035774026 -0.019340247
000070 92 c3 13 bd a5 79 89 3d e1 e0 8c 3d b7 7b 6b bd
       -0.036075182 0.06712655 0.0687883 -0.05749103

bn2.weight f4 [32]
000000 0f d4 7f 3f 53 c1 7f 3f 2c f8 7f 3f 42 0d 80 3f
       0.9993295 0.99904364 0.99988055 1.0004046
000010 aa 62 80 3f 21 af 7f 3f 5c a8 7f 3f 06 00 80 3f
       1.003011 0.998766 0.9986627 1.0000007
000020 00 10 80 3f f6 48 80 3f 9e af 7f 3f 87 03 80 3f
       1.0004883 1.0022266 0.99877346 1.0001076
000030 96 f8 7f 3f 55 1d 80 3f e4 38 80 3f ad 2e 7f 3f
       0.9998869 1.0008951 1.0017362 0.99680597
000040 2b 43 80 3f 3d cc 7f 3f 33 01 80 3f 94 e6 7f 3f
       1.0020498 0.9992102 1.0000366 0.9996121
000050 e8 59 80 3f d5 5e 7f 3f 98 bb 7f 3f d3 9e 80 3f
       1.0027437 0.9975408 0.9989562 1.0048469
000060 8c 88 7f 3f 6d af 7f 3f 7b b0 7f 3f 61 08 80 3f
       0.9981773 0.99877053 0.9987866 1.0002557
000070 0c 09 80 3f 63 2c 80 3f da 43 7f 3f 15 23 80 3f
       1.0002761 1.0013546 0.9971291 1.0010706

bn2.bias f4 [32]
000000 d2 af 7f 38 32 a1 46 ba 96 d4 62 39 5e 45 b0 38
       6.0960483e-05 -0.00075771206 0.00021632234 8.4052546e-05
000010 ac 2a 9f 3a cb 4c 79 3a 73 1a 23 ba ba 3d 19 3a
       0.0012143455 0.0009510039 -0.0006221898 0.0005845685
000020 8c 94 1d b9 60 d7 cc 3a 41 8a 2d 3a f6 f1 9e b9
       -0.00015028025 0.0015628152 0.00066200277 -0.00030316383
000030 85 06 d5 39 06 99 b1 3a 66 ca 9a 3a 6b ce b8 ba
       0.00040631383 0.0013549633 0.0011809587 -0.0014099603
000040 30 d6 4f 3a ff 64 26 3a 36 27 1a ba 9b 13 42 39
       0.000792834 0.0006347447 -0.00058804767 0.00018508585
000050 4f fe 26 3b 77 7a 10 ba 39 09 2a 38 40 00 d2 3a
       0.002548117 -0.0005511413 4.0539748e-05 0.0016021803
000060 75 90 2c ba 8f 61 ca b7 32 8b 7b b9 32 4f fd 39
       -0.0006582805 -2.4125706e-05 -0.0002398908 0.00048314926
000070 ee b1 9b 3a 66 57 75 3a 27 36 c4 b8 4d 9f 7c 3a
       0.0011878589 0.00093590317 -9.356095e-05 0.0009636775

bn2.running_mean f4 [32]
000000 c1 00 8f be 6b 88 7f bc 88 6c 11 3f 38 86 16 3e
       -0.27930263 -0.015596489 0.5680623 0.14699638
000010 08 2b 32 3e d7 48 05 3e 28 41 cc 3e 8a 70 83 be
       0.17399228 0.13016067 0.3989346 -0.25671798
000020 98 11 0a bf 2e c7 5e 3e 2c b4 6a 3e 51 d3 2a bf
       -0.53933096 0.21755669 0.22920293 -0.66728693
000030 d7 19 c6 3e 58 66 aa be 5e b9 1e 3f c4 48 d9 3e
       0.3869159 -0.33281207 0.620016 0.42438328
000040 b0 c4 cd 3e 36 70 cc 3d cd 6b 8c 3c f2 e1 f7 be
       0.40189123 0.0998234 0.017141247 -0.4841457
000050 8d fb 01 be d5 3f b0 3e 0e 36 5e 3d f5 06 12 bc
       -0.12693615 0.344237 0.05425077 -0.0089127915
000060 94 24 b8 3e 02 64 eb 3d 69 62 34 bd c5 89 87 3e
       0.35965407 0.11493684 -0.044039164 0.26472297
000070 bf 7e c2 3e b1 c4 c2 3d 66 aa ee 3d 1e ea 82 3e
       0.37987325 0.09510172 0.11653595 0.25569242

bn2.running_var f4 [32]
000000 94 71 6c 3e 48 6f 58 3e c5 b4 98 3e 5e 44 0d 3f
       0.23090202 0.211362 0.29825416 0.55182445
000010 a7 ba a5 3e b6 12 b3 3e a0 5c 58 3e aa 1a 6f 3e
       0.32368967 0.34975213 0.21129084 0.23350015
000020 5f f9 2e 3f 22 ce cf 3e c8 89 58 3e f3 ea 90 3e
       0.6834926 0.40586954 0.2114631 0.28304252
000030 4c bb d3 3e c5 2f 30 3e 4d 07 ca 3e 33 7d 7a 3e
       0.41353834 0.17205723 0.39458695 0.24461822
000040 62 a9 ad 3e b1 fe 1f 3e 11 99 4c 3e eb 8f 78 3e
       0.3391829 0.15624501 0.19980265 0.2427365
000050 11 36 90 3e c7 ba ca 3e 56 14 ad 3d 9a 96 03 3f
       0.2816625 0.39595625 0.084511444 0.51401675
000060 3c f2 44 3f 7a 03 d8 3e 39 61 25 3e 55 25 85 3e
       0.7693212 0.42190152 0.16150369 0.26005045
000070 86 1c b1 3e 89 90 8a 3e 2d 3b bd 3e 4d c8 27 3e
       0.34592074 0.27063397 0.3695921 0.16385002

cnn3.weight f4 [64, 32, 3, 3]
000000 dc 34 00 3d 69 69 04 ba af c3 b9 3c 56 d5 52 bc
       0.03130041 -0.0005051108 0.022676317 -0.012868246
000010 bc 51 34 bc 20 0d 36 3d ad 28 7d 3d 9f 3b 4c 3c
       -0.011005815 0.04444611 0.06180637 0.012465387
000020 35 43 67 bd 4d 14 99 bc b6 15 22 bd 31 f5 71 bd
       -0.056460578 -0.018686438 -0.039571486 -0.059071723
000030 7a b9 0c bc 87 50 74 ba 25 6a 67 3c 5b cd ea bc
       -0.008589143 -0.0009319861 0.014124428 -0.028662374
000040 9e cc 20 bd ee 57 f1 bc 9a 7b 95 bd 6e 3d 23 3c
       -0.03925764 -0.029460873 -0.07298966 0.009963376
000050 c4 d7 c0 3c 88 30 ab 3a d7 9d 7e bd b4 4e 62 bd
       0.023540385 0.0013060728 -0.062162247 -0.05525084
000060 fd 33 13 3d aa 6b 7d 3d 30 73 8c bd f6 ae c6 bc
       0.03593825 0.061870255 -0.06857908 -0.02425335
000070 a5 5f 02 bd 04 2f 6d bd 24 ec 31 3d 15 2a a1 bd
       -0.031829495 -0.057906166 0.043438092 -0.07869355
000080 26 c4 1d 3d d9 e1 21 bd 77 3d 4b 3b b3 20 0f 3c
       0.03851714 -0.039522026 0.0031011978 0.008735823
000090 a4 5f 52 bd 72 61 c4 3a 56 31 ca bb 7a 9d 62 bc
       -0.05136074 0.0014982654 -0.006170432 -0.013831491
0000a0 2d dd 7e bd a2 51 69 3c 4a 97 0f 3b d8 c8 9e 3d
       -0.06222265 0.014240654 0.0021910244 0.07753152
0000b0 34 1c 5a bc 65 40 64 bd fa 76 01 3e be 38 e5 bd
       -0.013312388 -0.055725474 0.12643042 -0.11192463
0000c0 4b 3f 83 bd d7 ee 65 3d 8a 5e 19 3c a1 86 89 b8
       -0.064085566 0.05613598 0.009360919 -6.557746e-05
0000d0 ee e9 8f 3b 24 bd c0 bd 4c 50 ad bd 0d df d2 3c
       0.0043919003 -0.09411076 -0.08462581 0.025741125
0000e0 61 e7 67 bc 38 a3 ad bd 65 eb 15 bb 99 21 0d bd
       -0.014154286 -0.08478397 -0.0022875902 -0.03445587
0000f0 5f f3 c0 3d e0 0f 45 bb 05 03 e2 3a 47 d9 83 bd
       0.09421419 -0.0030069277 0.0017243332 -0.06437927
000100 59 f8 c6 bd c8 ff b2 3d a5 f9 1d 3a 12 f0 9c 3c
       -0.09715337 0.08740193 0.00060262746 0.019157443
000110 94 7e c2 bd 97 0b 55 3c dd e4 72 3d 0f 15 07 bd
       -0.09496799 0.0130032515 0.059300292 -0.032979067
000120 96 b5 a2 3c 7b b4 89 3d a4 08 8d bc a4 2c bc bb
       0.019861978 0.06723877 -0.017216034 -0.0057426263
000130 43 a7 b4 bc ab 36 71 3d 2f 94 1e bd ae d3 ab bd
       -0.022052413 0.058890026 -0.038715538 -0.08389984
000140 1e a6 19 bb 4f 16 1b 3b 7d e0 40 3d fd c9 25 3c
       -0.002344496 0.002366442 0.04708909 0.010118959
000150 7f 83 7c bd e2 f7 15 3d 01 b8 c1 bb 68 e4 93 3c
       -0.061648842 0.036613353 -0.0059118276 0.018053249
000160 6d 48 18 b9 d8 94 38 bd 1e 96 b4 bd f2 0e 45 bd
       -0.0001452283 -0.045063823 -0.08817695 -0.048109956
000170 e8 9f df bc c9 20 02 3d 33 0d fe bb 17 db 01 bb
       -0.027297929 0.031769548 -0.0077530383 -0.0019814426
000180 d9 22 1a 3d a6 0b 99 3c b0 dc af bd 5f f8 c0 bc
       0.03763089 0.018682312 -0.08587015 -0.023555933
000190 76 25 be 3c 16 88 98 bc a8 c5 dc ba e7 ba 2b bd
       0.023211222 -0.018619578 -0.0016843574 -0.04192629
0001a0 09 e2 4b 3c e7 ea 1f 3c 86 b5 22 bc 90 65 1e 3d
       0.012444028 0.009760595 -0.009930974 0.038671076
0001b0 6e eb 9e bd cd e5 0d 3e 57 5c 15 bd b3 ab 9c 3c
       -0.077597484 0.13857193 -0.036465015 0.019124841
0001c0 67 92 9c bd 65 e1 9c 3d f7 74 40 3d 9e f1 14 bd
       -0.076451115 0.07660178 0.046986546 -0.036363237
0001d0 ea 4f dc 3c a3 82 ea 3d b7 13 20 3c ab 14 e4 b9
       0.026893575 0.11450698 0.009770325 -0.00043502948
0001e0 7c 60 5e bc 07 44 03 3b f1 fe 5d 3d 39 79 84 3c
       -0.013572808 0.002002956 0.05419821 0.016171085
0001f0 75 48 e8 bc fd 03 18 bc fe 94 35 bc 86 52 29 bd
       -0.028354863 -0.009278295 -0.011082886 -0.041338466
000200 86 21 17 bc e5 3c 8f bb d7 02 6f 3b e7 7a 84 bd
       -0.009224301 -0.004371273 0.0036470199 -0.06468754
000210 3d f2 89 3d b4 d2 1e bd 42 22 33 3d 5d 96 dc 3d
       0.067356564 -0.03877516 0.043733843 0.10770867
000220 2c 40 92 b9 92 6e 4c bb 61 b2 ce 3c dd 28 a5 bb
       -0.00027895102 -0.0031193835 0.025231542 -0.0050402717
000230 3d 23 5c bd 3d 19 9d bd 4d 0e 59 3d 35 a2 55 bb
       -0.053744543 -0.076708294 0.052992154 -0.0032597904
000240 1d 5d 4a 3d 49 68 05 3d 54 d2 10 ba 0e 2a 99 bd
       0.049405206 0.032570157 -0.00055245054 -0.074787244
000250 44 a8 03 3d 17 56 01 bd 49 e1 46 bc d5 cd 85 bc
       0.032142892 -0.031576242 -0.012138673 -0.0163335
000260 43 7c 3f 3d 18 1d 2b 3d 1a 0e 32 bd 3d 68 a2 bc
       0.046749365 0.041775793 -0.04347048 -0.019825095
000270 08 85 3e 3c 96 a4 8f bb 41 a9 9a 3c a3 cd f7 3d
       0.011628397 -0.004383634 0.018879535 0.12099769
000280 ae 7c 5f bc 18 a0 c7 bd 83 da a7 3d 48 5e c7 3b
       -0.013640566 -0.09747332 0.08195975 0.0060842372
000290 e3 9c ad 3c e1 18 d5 3c b4 31 a0 3c 6a bc a3 bc
       0.021192973 0.02601284 0.01955495 -0.019987304
0002a0 17 0f d9 3d 31 7a 46 3d 24 8c 3f bd 3e f9 29 bc
       0.10598581 0.048456375 -0.046764508 -0.010374365
0002b0 e2 10 d5 3a d7 ea 38 3c cc ac c0 3d ee 19 38 3d
       0.0016255642 0.011286459 0.094079584 0.044946603
0002c0 a7 12 8a 3d eb 16 cd 39 e3 52 9f bc 9e 80 7a 3c
       0.06741839 0.00039117722 -0.019448703 0.015289454
0002d0 07 4c 77 bc 69 1b 44 3d 58 f1 43 3d ec 70 2e 3d
       -0.01509381 0.047877703 0.047837585 0.04258816
0002e0 ce ee bb bd 75 29 1b 3d f1 4d a1 bd b0 a8 91 3a
       -0.09176408 0.037881333 -0.07876194 0.0011112895
0002f0 00 49 7b bc 4d c5 e5 ba af f5 ce bc 17 b8 9d b8
       -0.015337229 -0.0017530114 -0.025263635 -7.520633e-05
000300 1e 34 93 3c 0b a7 56 bd df d7 13 3d d7 83 69 3d
       0.017969187 -0.0524054 0.036094543 0.057010498
000310 6f 64 33 bd 13 4b c9 3d ca 3d cb 3b 84 91 09 3d
       -0.043796953 0.098287724 0.006202434 0.03358604
000320 ce 9b e8 bc fc 34 31 bd bf 43 da 3c 16 5a 0d 3d
       -0.028394606 -0.04326342 0.026643632 0.03450974
000330 41 ec 67 3d 8c ee be bc a4 9c d3 3c 22 86 4c bc
       0.056621794 -0.023307107 0.025831528 -0.012483152
000340 0b 05 51 bd 06 01 20 bd 72 b6 20 bd 9a 80 bb 3c
       -0.0510302 -0.039063476 -0.039236493 0.02288847
000350 fa f7 65 3d 76 72 12 bd 91 9b be 3b 1c 5a 89 bd
       0.056144692 -0.03575369 0.005816885 -0.0670664
000360 9b 03 e7 bc 38 09 1e 3c d3 47 96 bd 77 43 f3 bd
       -0.028199961 0.009645753 -0.07337918 -0.11878102
000370 1c a1 dc bd 40 ef 88 bb e7 17 c6 bc 83 7e 56 bb
       -0.10772917 -0.0041789114 -0.02418132 -0.0032729215
000380 6f 35 b4 3d 6b 49 a9 3c 86 03 6a 3c ef 85 91 3d
       0.08799254 0.020664891 0.014283067 0.07105624
000390 7e 78 05 3d 0b aa 1e 3d f7 19 2d bd f8 7b 3c bd
       0.032585613 0.038736384 -0.04226109 -0.046016663
0003a0 25 fb 92 bd 73 a4 29 bd 98 24 38 bd 40 ed f6 bc
       -0.07176808 -0.041416597 -0.044956774 -0.030142426
0003b0 89 24 a3 3c 01 44 1d bb 1d 21 1c bd 75 2d 46 3b
       0.019914882 -0.0023996832 -0.038117517 0.0030239497
0003c0 c3 c6 24 3d 76 af 5a 3b da 26 9c bd 89 56 1f bd
       0.040228616 0.0033368743 -0.07624598 -0.038900886
0003d0 41 61 b3 3d 49 db 3d bd d4 73 4f bd 0e 7a f5 bc
       0.08758784 -0.046351705 -0.05064757 -0.029965427
0003e0 63 09 13 bc ba e9 b1 3b bb 4c b7 3c 62 bd 3e 3c
       -0.008974406 0.0054294737 0.022375455 0.011641832
0003f0 c8 73 0e 3d db f1 92 3d 5e c9 1d bd f0 6e 2d 3d
       0.034778386 0.071750365 -0.038522117 0.042342126

cnn3.bias f4 [64]
000000 df 41 60 3d 48 ac f4 3b b9 82 3f 3d 6a 0c 52 bd
       0.05475032 0.0074668266 0.046755526 -0.05128137
000010 a3 0a 4d bd 6e 9b a7 bc 6d 41 03 3d 33 d4 40 3d
       -0.050058972 -0.020459857 0.032044817 0.04707737
000020 80 33 fa bb ac b4 19 bc ca 78 e5 3c 14 2b 75 3c
       -0.007635534 -0.009381454 0.028011698 0.014963884
000030 c1 d0 66 bd b2 56 a2 3c e6 e9 20 bd f8 a8 c6 3b
       -0.056351427 0.01981673 -0.039285563 0.006062623
000040 dc 2d 44 3c a9 e4 6a 3d 65 2a 5e bd 00 4e 8f bc
       0.011973824 0.057346974 -0.05423965 -0.017493248
000050 10 04 d8 bb ee b1 3a bd 06 f6 f9 3c e2 3f b0 bc
       -0.006592281 -0.045579843 0.03051282 -0.021514837
000060 14 58 2b 3c 23 77 b9 3a 69 f4 66 bd d0 37 aa bb
       0.010458011 0.0014149885 -0.05638543 -0.0051946416
000070 40 c6 29 bd 17 85 5c 3d e2 fc dd 3c fb 96 1f 3d
       -0.04144883 0.053837862 0.027098123 0.038962346
000080 90 8e 78 bc d1 86 59 bd 91 e4 24 bd dc 1c 4d bc
       -0.015170708 -0.053107087 -0.04025704 -0.012519088
000090 e2 c2 3a bd 62 af 54 bd a4 65 07 3c c3 64 2a bd
       -0.04559601 -0.05192507 0.008263979 -0.0416
0000a0 9e 82 dc 3c 89 20 6f 3d 7c d3 38 3c d1 dd 62 bd
       0.026917752 0.058380637 0.011280891 -0.05538732
0000b0 4f bc 61 bd 01 ec 22 ba 0a f9 c4 3c cf 01 48 3d
       -0.055111226 -0.0006214977 0.024044532 0.04882985
0000c0 20 73 0d bd df c0 58 bd be 27 a8 3c 45 70 0c bd
       -0.03453362 -0.05291831 0.020526763 -0.034286756
0000d0 ec d2 3c 3c 1f 8d 6a bd 20 30 0e bd 0e 80 be 3c
       0.011524897 -0.05726349 -0.034713864 0.02325442
0000e0 5d 6b 07 3d ff 55 62 bb f2 54 03 bd fb 8c 6e 3d
       0.033061374 -0.003453612 -0.032063432 0.05823992
0000f0 ae 04 e3 3c 5d 18 26 bd a9 52 4b 3d 20 42 13 bd
       0.027712192 -0.04055058 0.049639378 -0.035951734

bn3.weight f4 [64]
000000 f2 f3 7f 3f b4 2f 80 3f d9 07 80 3f 94 fa 7f 3f
       0.99981606 1.0014558 1.0002395 0.99991727
000010 b6 d5 7f 3f a4 d2 7f 3f 82 f5 7f 3f 27 0d 80 3f
       0.9993547 0.9993079 0.9998399 1.0004014
000020 05 68 7f 3f ed c4 7f 3f a5 46 80 3f 80 0c 80 3f
       0.99768096 0.9990986 1.0021559 1.0003815
000030 d5 e9 7f 3f 9b f4 7f 3f af e8 7f 3f c3 fe 7f 3f
       0.99966174 0.99982613 0.9996442 0.9999811
000040 4a 05 80 3f 36 8c 7f 3f a3 56 80 3f 47 c5 7f 3f
       1.0001614 0.9982332 1.002644 0.99910396
000050 bb b0 7f 3f ff 36 80 3f 6b be 7f 3f 94 e3 7f 3f
       0.99879044 1.0016783 0.9989993 0.9995663
000060 f2 14 80 3f 5b 46 80 3f 3d 80 80 3f ac e1 7f 3f
       1.0006392 1.0021471 1.0039135 0.9995372
000070 f3 30 80 3f 35 33 80 3f ad d1 7f 3f 74 23 80 3f
       1.0014938 1.0015627 0.99929315 1.001082
000080 59 bd 7f 3f 73 7c 7f 3f c5 04 80 3f cc 73 7f 3f
       0.99898297 0.9979927 1.0001456 0.99786067
000090 06 dd 7f 3f 3f 14 80 3f f2 c1 7f 3f 63 09 80 3f
       0.9994663 1.0006179 0.9990531 1.0002865
0000a0 c2 3c 80 3f 56 fd 7f 3f 0b 0c 80 3f 33 58 80 3f
       1.0018542 0.99995935 1.0003675 1.0026916
0000b0 c8 3b 80 3f f1 51 7f 3f c6 11 80 3f 9e 7a 7f 3f
       1.0018244 0.9973441 1.0005424 0.99796474
0000c0 ed 52 80 3f ef dd 7f 3f ca f7 7f 3f 85 fa 7f 3f
       1.0025307 0.9994802 0.9998747 0.9999164
0000d0 4a c2 7f 3f 7b 20 80 3f 1d 27 7f 3f 4e bb 7f 3f
       0.99905837 1.0009912 0.9966906 0.9989518
0000e0 17 24 80 3f af 93 7f 3f 3d 03 80 3f 5e f9 7f 3f
       1.0011014 0.9983472 1.0000988 0.9998988
0000f0 e7 af 7f 3f d2 be 7f 3f 26 09 80 3f 50 0b 80 3f
       0.9987778 0.99900544 1.0002792 1.0003452

bn3.bias f4 [64]
000000 30 7e 5b b9 15 65 43 3a a7 65 5b 39 17 f5 8e b8
       -0.00020932476 0.0007453722 0.00020923336 -6.816739e-05
000010 59 f0 02 ba e0 57 76 ba 4b f2 c1 b9 61 66 3e 37
       -0.0004994921 -0.00093972497 -0.0003699235 1.1348719e-05
000020 26 fa fc b9 c7 8c 19 ba d5 3e 48 3a fe 70 2a 3a
       -0.0004825156 -0.0005857464 0.0007638757 0.00065018225
000030 77 b5 67 ba 16 cc 91 37 1e 80 31 ba bd ba eb b9
       -0.0008838991 1.7380382e-05 -0.0006771105 -0.00044961824
000040 5e 22 26 39 e9 65 39 ba 57 b6 a7 3a 6c 7b 75 b9
       0.00015843796 -0.0007072376 0.001279543 -0.00023410999
000050 d5 a8 4d ba 7d 08 62 3a 14 98 e4 b9 b5 ae 1a ba
       -0.00078452873 0.00086224807 -0.00043600856 -0.0005900667
000060 fd ac 1f 3a 1c 4e 2a 3a 2e 07 ed 39 08 69 1d ba
       0.0006091146 0.00064966246 0.00045209512 -0.00060047256
000070 a9 5a 80 39 f5 92 2c 3a 60 cf b6 b9 e8 39 7c 3a
       0.0002448161 0.00065831776 -0.00034868252 0.0009621666
000080 6c eb 41 b9 b5 8f 94 ba ee 37 9c 39 69 73 e3 b9
       -0.00018493616 -0.0011334332 0.0002979631 -0.000433828
000090 d3 8a 81 b8 3c 26 5d 39 d6 7c 04 ba a3 87 85 39
       -6.1770574e-05 0.00021090446 -0.00050540024 0.00025468794
0000a0 c0 eb ff 39 13 c6 2a 39 ec d8 79 39 06 7f 89 3a
       0.00048813038 0.00016286252 0.000238273 0.0010490126
0000b0 f1 be 9c b7 db e2 4c ba 15 d2 9e 39 09 34 41 ba
       -1.8685563e-05 -0.00078157865 0.00030292632 -0.00073701196
0000c0 4a 49 d2 3a 5f 68 ae b9 e8 eb a1 b9 2c 9c 27 b8
       0.001604357 -0.0003326563 -0.00030884077 -3.996135e-05
0000d0 61 9b 14 ba 31 55 a8 38 e3 7f 9e ba 89 0b b1 b9
       -0.0005668905 8.0267324e-05 -0.0012092557 -0.00033768665
0000e0 b6 7a 80 3a 40 a3 78 b8 4d 53 f3 39 59 48 bc 39
       0.0009802196 -5.9279846e-05 0.00046410636 0.00035912058
0000f0 0a 08 c5 b9 74 f4 75 ba 90 ca f7 39 03 f5 32 3a
       -0.00037580758 -0.00093824347 0.00047262432 0.0006826671

bn3.running_mean f4 [64]
000000 13 5b 80 be dd f0 16 3e 8a 42 2c be fb 01 ae be
       -0.25069484 0.1474032 -0.16822258 -0.33985886
000010 68 d7 0f bf 7f 5c 02 bf a2 16 35 3e e4 40 a3 3e
       -0.5618806 -0.5092239 0.17684415 0.31885445
000020 bf 64 6e 3e a1 8e 2f be ce 20 c8 bd 2b e8 c8 be
       0.23280619 -0.17144252 -0.09771882 -0.3923963
000030 be 86 03 bf b3 41 d4 3c d9 8a 8d be 9a 0b 18 bf
       -0.51377475 0.025910234 -0.27644995 -0.593927
000040 95 3e 55 be cf 45 4d 3c cf ea 63 be 9c 3b 84 bd
       -0.20824654 0.012528851 -0.22257541 -0.06456682
000050 c8 61 00 bf 70 8e 80 3e 3e 50 29 be 27 2d 99 3d
       -0.501492 0.2510867 -0.16534516 0.07479315
000060 89 de 8e 3c 35 43 53 3e 82 8c 01 3e 10 04 d4 bd
       0.017440097 0.20631106 0.12651256 -0.10352337
000070 9c 00 d4 bb b7 67 ed 3e b5 0a 7a be ab 31 2e 3e
       -0.006469799 0.4636819 -0.24418147 0.17011134
000080 de a3 b1 3e 0c ac 6c bd 00 04 0b 3e 62 3f 7e 3e
       0.34695333 -0.057781264 0.13575745 0.24828866
000090 1b b1 17 bf 78 1c b7 bb 24 fc 96 be 0c ec 20 be
       -0.59254616 -0.0055881105 -0.29489243 -0.15715045
0000a0 a0 93 47 3e 06 df 95 3e 3e c9 ea be 89 6a c3 3d
       0.19489908 0.29271716 -0.4585666 0.09541804
0000b0 06 47 01 be 33 08 9e 3d f0 1d 1f bf 74 32 65 3e
       -0.1262475 0.077164076 -0.62155056 0.22382528
0000c0 4d b1 13 be 98 3e 27 3d 59 52 e2 bc f9 e7 89 bf
       -0.14423104 0.04083118 -0.027627157 -1.0773917
0000d0 26 0b 36 bd a4 34 06 3d fc a0 40 3e e1 a1 b1 be
       -0.044444226 0.032765046 0.1881141 -0.34693816
0000e0 0e c5 af be d7 49 5b 3e 88 cf 57 bd 0a bc bc 3d
       -0.34330028 0.21414886 -0.05268815 0.09215553
0000f0 23 28 43 be 59 e8 cd be 71 60 81 3e 2e e0 31 bf
       -0.1905828 -0.4021633 0.2526889 -0.69482696

bn3.running_var f4 [64]
000000 90 fd 86 3e 9a 32 b4 3e 96 81 d8 3e 25 44 8d 3e
       0.26365328 0.35194856 0.42286366 0.27591053
000010 10 68 df 3e ca 34 f2 3e 9f 88 58 3e 9b fa 93 3e
       0.4363408 0.473059 0.21145867 0.28902134
000020 f1 ae 9d 3e 7a fd e6 3e 72 89 8c 3e 8b 50 13 3f
       0.30797532 0.45115262 0.27448612 0.57544774
000030 cc 99 1a 3f 18 69 6c 3e e8 63 ac 3e 70 87 2e 3f
       0.60390925 0.23086965 0.33669972 0.6817541
000040 6e 36 c2 3e 2b 7b 6b 3e e0 c2 a3 3e 3e 0c 42 3e
       0.37932152 0.22996204 0.31984615 0.18949983
000050 3a 66 12 3f c3 59 c5 3e 8d f7 a4 3e 5e 5c 9c 3e
       0.57187235 0.38545045 0.32220116 0.3053922
000060 77 f7 eb 3e 2c 36 88 3e 9a e3 e3 3e 2b 21 09 3f
       0.46087238 0.2660383 0.44509584 0.53566235
000070 89 43 93 3e b7 ab 04 3f fe ad 24 3f 5e 47 4f 3e
       0.28762463 0.51824516 0.6432799 0.20242068
000080 7f f6 cc 3e 44 01 9a 3e 5b 18 2d 3f fe 53 8c 3e
       0.40031812 0.3007909 0.6761529 0.2740783
000090 b2 b3 aa 3e 96 d6 5e 3e 82 84 fa 3e 28 5d 8f 3e
       0.33340222 0.21761546 0.4892922 0.2800076
0000a0 f2 6f 9b 3e 30 35 88 3e 89 9a d2 3e 72 3d 80 3e
       0.30358845 0.2660308 0.41133526 0.2504688
0000b0 c0 8e 96 3e 34 a2 99 3e 7b 87 3e 3f ed 0e 92 3e
       0.29405785 0.30006564 0.74425477 0.28527012
0000c0 09 10 2a 3f e6 7d 97 3e f4 ba a6 3e 26 53 af 3f
       0.6643072 0.2958824 0.3256451 1.369725
0000d0 67 7b 80 3e 8a db bb 3e 9d 62 a2 3e a4 b7 80 3e
       0.2509415 0.36690933 0.3171586 0.25140107
0000e0 2d d5 77 3e 1f 4a 8d 3e e0 bf 53 3e 61 4c c8 3e
       0.24202414 0.27595612 0.20678663 0.39120772
0000f0 9a 11 81 3e 8f 9e 81 3e fa 82 9f 3e 6a 1e 07 3f
       0.2520874 0.25316283 0.31154615 0.52780783

cnn4.weight f4 [128, 64, 3, 3]
000000 f3 ee 10 3d 5a 65 a6 bc 2a 72 fe ba f2 ce 9a 3c
       0.03538413 -0.020312 -0.0019412686 0.018897507
000010 dc 3c fe bc 60 87 35 bd 06 32 6c bb f3 35 e5 3c
       -0.03103488 -0.044318557 -0.0036040558 0.027979827
000020 50 80 1b bd e2 de f3 3c 80 ee bc 3c 3b ce 13 3d
       -0.037964165 0.029769365 0.023062944 0.03608535
000030 6d 7f 83 bd db 4d e6 3b 2c 52 8b 3d a5 f5 99 bc
       -0.06420789 0.007028324 0.068027824 -0.01879389
000040 6f 80 8e 3a 84 4a 08 3c 58 47 fe 3c 82 a3 80 3a
       0.0010872016 0.008318547 0.031039879 0.0009814354
000050 c6 8e fc 3c a3 8a 0b bb cb 82 8c 3c 51 20 f5 bc
       0.030829798 -0.002129235 0.01715221 -0.029922636
000060 bc 5f 20 ba d7 60 7d 3d 73 7b 1f bc 11 08 f3 3a
       -0.0006117781 0.06185993 -0.009734022 0.0018541833
000070 4d 56 3c bc 29 13 21 3d 3d a6 c3 bc f2 fc 97 3c
       -0.011495185 0.039324913 -0.02388298 0.01855323
000080 e8 25 a4 3c aa 8f a1 3c cc 1d 90 3c 5c 9d 86 3b
       0.020037606 0.019721825 0.017592333 0.004108114
000090 7a 1d c6 bb 32 ba 8d bd e6 a9 9a bc e8 40 3f 3a
       -0.0060459943 -0.069202796 -0.018879842 0.00072957436
0000a0 00 23 41 3c 51 5e 2c bc ad aa 1a bd 63 c1 84 3c
       0.01178813 -0.010520534 -0.037760425 0.016205495
0000b0 68 5b 1e bd 7a be b6 3d b9 53 b8 bc de dd 4e bc
       -0.03866139 0.08923049 -0.02250086 -0.012626139
0000c0 c2 08 8a 3d 90 99 46 3d b0 4d 14 bc b8 bc 30 3d
       0.06739952 0.048486292 -0.009051725 0.043148726
0000d0 b5 22 28 bd f6 65 8c 3b fc 8b af 3b 4e 7b 8e 3c
       -0.041048724 0.0042846156 0.0053572636 0.01739278
0000e0 e2 19 6c bd 06 c7 68 bc 62 89 8f 3c cd 1a f9 3c
       -0.05764187 -0.014207607 0.017521564 0.030408287
0000f0 61 ad 2d 3c ff 49 4e 3d 14 7a a7 39 b6 33 ed bb
       0.010600419 0.050363537 0.00031943677 -0.0072388304
000100 12 b6 bc bc 24 e4 d7 3c 45 a4 4f bd 26 a8 69 3d
       -0.023036037 0.026353903 -0.05069377 0.057045124
000110 20 9a 61 3d c3 f8 9b bd 3d cc 4d 3d b8 b5 a3 3c
       0.055078626 -0.07615807 0.050243605 0.019984111
000120 65 97 8c 3c 0e df b0 3d 7d 8c 1f 3c ae 19 07 3d
       0.017162034 0.08636294 0.009738085 0.032983474
000130 16 3f 51 bb 35 bd 3d bc 79 ac 21 3c 62 cc 35 bd
       -0.0031928471 -0.011580755 0.009867781 -0.044384368
000140 57 e6 0e 3c 6b 58 9e bb 54 f6 a5 3c be 8a de bc
       0.0087219095 -0.0048323176 0.02025906 -0.027165767
000150 60 3a 18 3d c8 9d 87 3d 96 ff 98 bc ea 4f 1a ba
       0.037165046 0.06621891 -0.01867656 -0.0005886542
000160 1b b0 33 3d 98 f5 17 3d c3 5f cd bc c1 ac ec 3c
       0.04386912 0.03709945 -0.025070077 0.02889097
000170 1b f9 e5 bc 53 00 53 3d f0 58 3e bd 50 7f da bc
       -0.028072884 0.05151398 -0.046471536 -0.026672035
000180 8e 29 10 3d f9 f6 6b 3c fb 83 d2 3c d3 88 5d 3d
       0.03519588 0.014402145 0.025697699 0.054085564
000190 59 71 11 bc 39 b0 5d bd 99 12 f7 3b 7f f4 3d bd
       -0.008877122 -0.054123137 0.007540059 -0.046375748
0001a0 7c 08 82 3b c9 8a 95 3c f6 91 c6 3c b8 a0 ff bb
       0.0039682966 0.018254654 0.024239521 -0.0078011416
0001b0 4c ad 7a bb 30 c7 71 3d b4 7e 3d bd 10 11 8d bc
       -0.0038250266 0.05902785 -0.04626341 -0.01722005
0001c0 eb 00 95 3c eb 5f 8c bb 02 7b 8f 3d 74 05 34 3c
       0.018188914 -0.0042838953 0.07005884 0.010987628
0001d0 da ca 85 3b 96 e7 1d 3c 53 de 3d bc ca 95 38 3d
       0.0040830197 0.009637734 -0.011588651 0.045064725
0001e0 65 74 bc 3b 5c f6 a0 3c 3b d7 09 bd 50 e9 c9 bc
       0.00575118 0.019648723 -0.033652525 -0.024647385
0001f0 77 f6 6b 3c 5c b2 28 bd 32 16 33 3d 0d 02 a4 3b
       0.0144020235 -0.04118572 0.04372234 0.0050051273
000200 c8 24 d5 3c 06 0b a2 3d 6c 92 0b bd 23 3d 65 bd
       0.026018515 0.07912259 -0.034075186 -0.055966508
000210 2a 70 91 3d 5f 0a 91 bc a4 16 96 3b fe 08 8d 3c
       0.07101472 -0.01770514 0.0045803357 0.017216202
000220 14 90 cf 3c 85 5e 39 bc 58 66 35 3b 46 ce b5 bc
       0.025337256 -0.011314039 0.002767941 -0.022193085
000230 13 78 90 bc 1e 05 12 bc df 74 c0 3b 19 67 e3 bc
       -0.01763538 -0.008912353 0.005873307 -0.027759122
000240 98 b1 21 bc 3e fd 0a bd b7 37 f4 bc 2f 74 7c bd
       -0.009869002 -0.033932917 -0.029811723 -0.06163424
000250 73 7a 45 3c 98 8e d3 3c 6d 93 15 bd a3 f2 62 3c
       0.01205312 0.02582483 -0.03651755 0.013851794
000260 51 91 ce 3c 6b 81 45 bd dc 5a 85 bc 45 23 85 3c
       0.025215777 -0.048219126 -0.016278677 0.01625217
000270 57 fc 91 3c 90 52 e2 3b 2d a7 0f bc f0 07 06 3d
       0.01782052 0.006906815 -0.008767885 0.032722414
000280 7c 9f 3b 3d bb 17 7a 3c 3f be b4 3b fd 69 34 3d
       0.045806393 0.015264447 0.005515843 0.04404639
000290 fc 8b 5b 3d 59 2f c9 bc 81 49 4c bc 3c 34 56 bc
       0.053600296 -0.02455871 -0.012468697 -0.013073977
0002a0 4d a8 9a 3d 88 75 28 3d ff 2c 9c bc 72 63 55 3d
       0.07551632 0.04112771 -0.019064425 0.05209679
0002b0 84 fb 8b 3b 1c 50 61 bd 3c a3 fc bc 8b 6f 04 3d
       0.0042719264 -0.05500804 -0.030839555 0.03233294
0002c0 fb aa 9a ba 76 d0 0a 3d 09 5e 22 bd 5a 9c 51 bd
       -0.0011800224 0.03389021 -0.03964046 -0.0511745
0002d0 0a 6f 86 bc 0d 51 08 bd 55 3a ac bc a1 a7 0b bd
       -0.01641037 -0.03328042 -0.021023909 -0.03409541
0002e0 d3 55 3a 3d bc 4f ff bc e9 29 d2 bb 8e 56 2f bb
       0.045492005 -0.03116595 -0.0064136875 -0.0026754471
0002f0 7e f9 a6 3c 57 e4 38 3c 60 92 24 3b 67 2f 29 bd
       0.020382639 0.011284909 0.002511166 -0.041304972
000300 4a f3 4f 3c 10 08 c8 3b cd d6 bb 3c 52 78 9b 3b
       0.012692282 0.0061044767 0.022929573 0.004744568
000310 f7 b0 70 3c f5 05 91 bb 9f d7 87 3b 5f 2e cd 3c
       0.014690629 -0.004425759 0.004145577 0.025046526
000320 66 b1 3c bd bc 89 4d bc 7d 9a 92 3b e2 f0 92 3c
       -0.046067618 -0.012545045 0.004473983 0.017937128
000330 90 1c 84 3d a0 7d b8 bc 87 40 49 3c e9 41 c6 bc
       0.0645076 -0.02252084 0.012283451 -0.02420135
000340 02 7c 62 bb fb 38 3d bc c4 45 60 bc 22 29 cd bc
       -0.0034558778 -0.01154923 -0.013688508 -0.025044028
000350 b0 48 99 bc 4d 6c e0 bb 09 47 ca bc 49 54 d9 bc
       -0.018711418 -0.006848848 -0.024692075 -0.026529448
000360 5b d5 65 3b 8b 56 e9 3b 56 40 fc 3c cc 4d ab bc
       0.0035069797 0.0071209124 0.030792397 -0.02091112
000370 34 cd 15 bd d9 81 f6 b9 7a 7f 06 bd 22 9e 0e 3d
       -0.03657265 -0.0004701752 -0.032836415 0.034818776
000380 6d a1 ce 3c 05 56 32 bd 69 f7 8b 3c 21 e9 8a bc
       0.025223458 -0.043539066 0.017085748 -0.016956868
000390 84 5c 0a 3d ee 1b 9a bd 16 d2 83 3a 7a b4 ce 3c
       0.033779636 -0.075248584 0.0010057117 0.025232542
0003a0 8a c9 e7 ba 35 50 84 ba aa 01 5e 3c ca d7 e3 3c
       -0.0017683965 -0.0010094704 0.013550201 0.027812857
0003b0 3a ee 5b 3b 1a 7d 8c bb 73 90 3b 3d 19 29 eb 3c
       0.0033558742 -0.004287374 0.045792054 0.02870612
0003c0 1f 9a 20 bd 13 04 2b 3d 6a 62 ec 3b 6c 75 6d 3d
       -0.03920948 0.041751932 0.0072138803 0.05797331
0003d0 ca 4e a6 3c 13 d2 33 bc 26 d0 27 bc 3b 31 1a bd
       0.020301241 -0.010975379 -0.010242498 -0.037644606
0003e0 9d d8 7c bc e8 45 ff 3c 5e 78 02 3d 06 0c f4 3b
       -0.015432504 0.031161264 0.031853072 0.0074477224
0003f0 81 a4 4b bd a3 ef d4 bc 67 8a a3 3c 47 b9 92 3c
       -0.04971743 -0.025993174 0.019963456 0.017910613

cnn4.bias f4 [128]
000000 86 7f be 3c 8a 0f 17 bd 4c 3f 19 bc 00 32 9b 3b
       0.023254167 -0.036880054 -0.00935347 0.004736185
000010 d4 52 0f bc 03 ae 0a bd 7e 24 b9 bc 86 d8 c9 3c
       -0.008747775 -0.033857357 -0.022600409 0.02463938
000020 95 1e 00 3d 40 c6 22 3b c3 b6 b2 bc bc 2b 7b 3c
       0.031279165 0.0024837404 -0.021815663 0.015330251
000030 62 56 d3 3c fa 43 81 3c 06 46 59 bc b3 aa 8e bc
       0.025798026 0.015779484 -0.013261324 -0.01741538
000040 42 58 83 3c 4c 72 28 bc 26 66 a3 3c f0 ea 58 bc
       0.016033296 -0.010281157 0.01994617 -0.013239607
000050 00 b0 5f 3c 20 3d a8 3a 8e 3e dd 3c 44 a1 0f bc
       0.0136528015 0.00128356 0.027007367 -0.008766476
000060 cc c8 2d 3c 56 90 f3 3c 24 9a 19 3c ca f4 cb 3c
       0.010606956 0.02973191 0.009375129 0.024896998
000070 24 e1 56 3c e0 74 d7 ba f8 07 9c bb 90 51 84 3c
       0.013115201 -0.001643803 -0.004761692 0.016152173
000080 00 a2 ad bb 90 3c 4f 3b 26 2e 1e bd e3 57 b7 bc
       -0.005298853 0.0031621791 -0.03861823 -0.022380775
000090 16 4a 02 bd 97 b2 0c 3d 1b c7 e9 bc 5e da 21 bd
       -0.031808935 0.034350004 -0.028537324 -0.03951489
0000a0 1e fc f5 3c 06 3b df bc de a2 bd bc 60 eb 6b 3c
       0.030027445 -0.027249824 -0.02314895 0.0143993795
0000b0 5b 20 c2 bc 17 4d 03 3d ab 7a 29 bd da 1b c1 3c
       -0.023697069 0.03205594 -0.04137675 0.023572851
0000c0 d6 83 d9 3c c0 0f cc bb 80 80 17 bb 78 0d e2 bc
       0.026552122 -0.0062274635 -0.0023117363 -0.027594313
0000d0 17 85 18 3d 03 69 92 bc 33 91 90 bc 98 fb f7 bc
       0.0372363 -0.01787234 -0.017647361 -0.030271336
0000e0 76 f0 9a bc 60 7b e3 3b ba ab 05 bd f3 d9 b7 bc
       -0.018913489 0.0069421977 -0.032634474 -0.022442793
0000f0 67 ec 1c 3d 80 79 67 3c c0 b2 68 3a a7 7a 07 bd
       0.03831139 0.014128089 0.00088767335 -0.033075955
000100 62 c1 89 3c 60 d1 90 3a 50 5d 09 bc a8 9e 0e bd
       0.016815845 0.0011048727 -0.008384064 -0.034819275
000110 83 d8 96 bc 13 e8 c5 bc c8 0c 99 3c 08 67 2a bd
       -0.018413788 -0.024158513 0.018682852 -0.041602165
000120 f6 f7 dd 3c 34 da 0d bc 34 ce 07 bd 1a fc f1 3c
       0.027095776 -0.008657981 -0.033155635 0.029539157
000130 e0 a6 54 bc 8c 1b 26 bc 58 1d 97 bb 66 17 c4 bc
       -0.012979239 -0.010138404 -0.0046116523 -0.023936938
000140 9f e2 09 bd 90 7a 4f 3c 76 ca 36 bc 3c fd 26 bd
       -0.03366339 0.0126634985 -0.011156669 -0.040768847
000150 90 51 3b 3c e3 d1 08 bd bf 3e 0e bd dc 60 7b 3c
       0.01143302 -0.03340329 -0.034727808 0.015342917
000160 82 f5 cb 3c 60 20 9a 3c 48 76 e1 bb 70 6a 27 3c
       0.02489734 0.018814266 -0.0068805553 0.010218248
000170 38 33 a5 3b 84 1b 3f 3c 6b ef 25 3d dd f8 19 3d
       0.005041506 0.011664275 0.04051153 0.03759085
000180 68 c6 04 bd e2 24 10 bd 2f 0d 15 3d 32 8b ce 3c
       -0.032415777 -0.035191424 0.036389526 0.025212858
000190 e6 85 a1 bc dd c5 09 3d 42 b2 03 bd a6 b3 15 bd
       -0.019717168 0.033635963 -0.03215242 -0.03654828
0001a0 80 4c e6 bb 40 6c 23 ba ae d6 bb 3c a6 0a 9a 3c
       -0.0070281625 -0.0006234087 0.022929516 0.018803906
0001b0 d2 b2 11 bd 2d c0 06 3d 9a bb eb 3c e5 8f 08 3d
       -0.035570927 0.032898117 0.028775979 0.033340354
0001c0 98 83 da 3b a0 02 ad bc e4 56 39 3c da f9 eb 3c
       0.006668519 -0.021119416 0.01131222 0.028805662
0001d0 a8 ce fe bb 40 42 4c bc 78 b0 0a bd 10 ca 79 3c
       -0.0077761 -0.012466967 -0.0338597 0.015245929
0001e0 44 82 2e 3c 04 c0 52 3c 00 47 13 bb 00 7e 48 3b
       0.010651175 0.012863163 -0.002247274 0.003059268
0001f0 1d ff 14 3d ba 9d cd 3c 93 a6 19 bd 9c 7b 50 bc
       0.036376107 0.025099624 -0.037512373 -0.012724783

bn4.weight f4 [128]
000000 3c 55 80 3f 9d 0c 80 3f 17 4a 80 3f 43 24 80 3f
       1.0026011 1.0003849 1.002261 1.0011066
000010 44 43 80 3f f5 19 80 3f ed 58 80 3f 94 2f 80 3f
       1.0020528 1.0007921 1.0027138 1.001452
000020 dd 39 80 3f fc 0d 80 3f 19 43 80 3f c6 f2 7f 3f
       1.0017658 1.0004268 1.0020477 0.9997982
000030 80 0a 80 3f 98 26 80 3f cf 2f 80 3f 72 36 80 3f
       1.0003204 1.0011778 1.001459 1.0016615
000040 ce 1d 80 3f b0 65 80 3f c7 21 80 3f 2a 22 80 3f
       1.0009096 1.0031033 1.0010308 1.0010426
000050 70 4b 80 3f 11 25 80 3f 25 ec 7f 3f be 86 80 3f
       1.0023022 1.0011312 0.999697 1.004112
000060 1b 1b 80 3f fc e2 7f 3f a7 20 80 3f db 51 80 3f
       1.0008272 0.99955726 1.0009965 1.002498
000070 83 57 80 3f 89 38 80 3f 74 2c 80 3f f5 5b 80 3f
       1.0026706 1.0017253 1.0013566 1.0028063
000080 3a 06 80 3f a7 15 80 3f 26 5c 80 3f ee 1f 80 3f
       1.00019 1.0006608 1.0028121 1.0009744
000090 5d d5 7f 3f ff 39 80 3f a3 27 80 3f 23 7a 80 3f
       0.9993494 1.0017699 1.0012096 1.0037273
0000a0 5a 0b 80 3f b9 28 80 3f bc 1f 80 3f 91 39 80 3f
       1.0003464 1.0012428 1.0009685 1.0017568
0000b0 23 41 80 3f 5d 33 80 3f 56 71 80 3f d2 4f 80 3f
       1.0019878 1.0015675 1.0034587 1.0024359
0000c0 35 09 80 3f 65 32 80 3f 1d 86 80 3f c5 37 80 3f
       1.000281 1.0015379 1.0040928 1.001702
0000d0 26 08 80 3f 2c 24 80 3f a8 f3 7f 3f 84 48 80 3f
       1.0002487 1.0011039 0.99981165 1.002213
0000e0 8d 29 80 3f b0 e2 7f 3f ca 39 80 3f d2 23 80 3f
       1.001268 0.9995527 1.0017636 1.0010931
0000f0 85 36 80 3f 9b f3 7f 3f 62 57 80 3f 93 1b 80 3f
       1.0016638 0.9998109 1.0026667 1.0008415
000100 61 33 80 3f 09 44 80 3f 83 3b 80 3f 5e 12 80 3f
       1.001568 1.0020763 1.0018162 1.0005605
000110 9b 28 80 3f 03 39 80 3f c6 3c 80 3f 97 50 80 3f
       1.0012392 1.0017399 1.0018547 1.0024594
000120 86 12 80 3f cf 4a 80 3f 2a 53 80 3f 4d 04 80 3f
       1.0005653 1.002283 1.002538 1.0001312
000130 7e 1e 80 3f 5e 30 80 3f 8b 13 80 3f 50 40 80 3f
       1.0009305 1.001476 1.0005964 1.0019627
000140 9f 26 80 3f 4d 36 80 3f 26 20 80 3f 4e 58 80 3f
       1.0011786 1.0016571 1.0009811 1.0026948
000150 b2 4f 80 3f f6 3c 80 3f 7a 4e 80 3f eb 07 80 3f
       1.0024321 1.0018604 1.0023949 1.0002416
000160 aa 34 80 3f 5e ac 7f 3f a5 2f 80 3f 83 48 80 3f
       1.0016072 0.99872386 1.001454 1.0022129
000170 8d 4c 80 3f 46 35 80 3f a0 7f 80 3f 2e 18 80 3f
       1.0023361 1.0016258 1.0038948 1.0007379
000180 9c 1a 80 3f c7 3a 80 3f 71 43 80 3f 4a 81 80 3f
       1.000812 1.0017937 1.0020581 1.0039456
000190 8a 2e 80 3f d3 2c 80 3f 54 11 80 3f 79 6c 80 3f
       1.0014203 1.0013679 1.0005288 1.0033103
0001a0 6f 04 80 3f b1 6f 80 3f 75 01 80 3f 68 fd 7f 3f
       1.0001353 1.0034086 1.0000445 0.9999604
0001b0 e0 0e 80 3f 73 1c 80 3f 44 47 80 3f 13 2f 80 3f
       1.000454 1.0008682 1.0021749 1.0014366
0001c0 34 04 80 3f c6 23 80 3f ca 2a 80 3f cd fa 7f 3f
       1.0001283 1.0010917 1.0013058 0.99992067
0001d0 a7 29 80 3f ca 4c 80 3f 98 29 80 3f 91 5d 80 3f
       1.0012711 1.0023434 1.0012693 1.0028554
0001e0 d3 45 80 3f 4a 45 80 3f 7e 4c 80 3f 55 2e 80 3f
       1.0021309 1.0021145 1.0023344 1.001414
0001f0 80 61 80 3f c0 20 80 3f be 73 80 3f 74 24 80 3f
       1.0029755 1.0009995 1.0035322 1.0011125
