oracle/train/iid/checkpoint/fmnist/ckpt_9_1.pth (torch, 888853 bytes, 44 tensors)

cnn1.weight f4 [16, 1, 3, 3]
0	0xbdc1fcff	-0.09472083
1	0xbda72a7e	-0.081624016
2	0xbdfbb267	-0.12289887
3	0x3bf8d92a	0.0075942473
4	0xbd8dc3cd	-0.06922112
5	0x3da05247	0.07828193
6	0x3db04a6b	0.08607944
7	0x3d2fe1e3	0.04294003
8	0x3d84008e	0.06445418
9	0xbddbbd34	-0.10729447
10	0xbcf274fa	-0.029596794
11	0x3d3154e7	0.04329386
12	0x3b97922a	0.0046255784
13	0xbcdb2645	-0.026751647
14	0xbd234b2a	-0.039866604
15	0x3d96a68c	0.07355985
16	0xbd36fe82	-0.04467631
17	0x3dea984f	0.11454832
18	0xbd794f53	-0.060866665
19	0x3e2368c8	0.1595794
20	0xbdb7ce17	-0.089748554
21	0xbbbf9afc	-0.005847333
22	0xbe546364	-0.2074104
23	0x3dc3089d	0.09523127
24	0xbe26fe0b	-0.16307847
25	0xbd2031b7	-0.03910991
26	0x3e3a3823	0.18185477
27	0x3d84dc9b	0.0648739
28	0xbdeeb1d3	-0.11655011
29	0x3c604c57	0.013690076
30	0x3da045f7	0.07825845
31	0x3dae57eb	0.08512863
32	0xbd99ce77	-0.07510083
33	0x3e23674a	0.1595737
34	0x3e3ea416	0.18617281
35	0xbe278fec	-0.16363496
36	0x3dbacd87	0.091212325
37	0xbe094600	-0.13405609
38	0x3db97fe8	0.09057599
39	0xbde59250	-0.112095475
40	0xbdde4f2a	-0.10854943
41	0xbe49d481	-0.1970997
42	0x3e1780a1	0.14795162
43	0xbd876ff5	-0.06613151
44	0x3d60095e	0.054696433
45	0xbb6bafd5	-0.0035962958
46	0xbcd96715	-0.026538411
47	0x3d1df23c	0.03856109
48	0xbdadc19e	-0.08484195
49	0xbd7be18f	-0.061494406
50	0x3d7624e5	0.06009378
51	0x3dc57110	0.096407056
52	0xbe21ff36	-0.15820011
53	0xbd6ccd0b	-0.05781273
54	0xbdfbb0fe	-0.12289618
55	0x3d881892	0.066453114
56	0x3ded03a9	0.11572964
57	0x3c8f8cfc	0.017523281
58	0xbd991a39	-0.07475705
59	0xbda072fe	-0.07834433
60	0xbdf344db	-0.118783675
61	0x3e137951	0.14401747
62	0x3e077695	0.13228829
63	0xbcdf67b8	-0.027271137
64	0xbdc9f682	-0.09861471
65	0x3df76295	0.1207935
66	0x3d65434e	0.05597239
67	0x3d2d66f8	0.042334527
68	0xbd768361	-0.060183886
69	0x3dd48b00	0.10378075
70	0x3ee73d17	0.45163795
71	0x3d06ba57	0.03289255
72	0xbe0c2091	-0.13684298
73	0x3e103c23	0.1408544
74	0x3d93049d	0.07178614
75	0x3ddca289	0.107731886
76	0x3dbef12b	0.09323343
77	0x3db1e25f	0.08685755
78	0x3d59a446	0.05313518
79	0x3dbdf98c	0.09276113
80	0xbcad9d10	-0.021193057
81	0x3e8da948	0.27668214
82	0xbd88d68b	-0.06681546
83	0xbdebd50a	-0.11515243
84	0xbd6ff8ac	-0.05858676
85	0xbdb8affb	-0.090179406
86	0x3cf22960	0.029560745
87	0xbdd70a8e	-0.1050006
88	0xbd71cb90	-0.059032023
89	0xbd6e0b83	-0.058116447
90	0xbe3a83c1	-0.18214323
91	0x3d1c264a	0.038122453
92	0xbe32478b	-0.17410104
93	0x3e566aa7	0.20939122
94	0xbd5a5d32	-0.053311534
95	0xbde78047	-0.11303764
96	0x3e41d14a	0.18927494
97	0x3cf3ca7c	0.029759638
98	0xbd2bcf7e	-0.041945927
99	0x3e20d235	0.15705188
100	0x3da9b9fd	0.082874276
101	0x3e304503	0.17213826
102	0x3cc3cc5e	0.02390116
103	0x3dcdabdc	0.10042545
104	0xbdcfb55e	-0.10142015
105	0x3d154069	0.03643838
106	0x3d8f9004	0.07009891
107	0xbdd6dc3b	-0.104912244
108	0xbdc77628	-0.097393334
109	0x3c02c71e	0.007982044
110	0x3d4a0101	0.049317364
111	0xbc3ad61e	-0.011403589
112	0xbe354406	-0.1770173
113	0x3ca683e3	0.02032656
114	0xbdc71c41	-0.09722186
115	0x3e149b0f	0.14512275
116	0x3dfe8196	0.1242706
117	0xbd37feb2	-0.04492063
118	0xbe1c1463	-0.15242152
119	0x3daddd6f	0.08489501
120	0xbdd9d10a	-0.10635574
121	0x3ce05c8f	0.027387885
122	0x3e1fcc10	0.15605187
123	0xbb1b524f	-0.0023700183
124	0x3d8b9e83	0.06817343
125	0xbdc23d05	-0.09484295
126	0x3e285bb3	0.1644123
127	0x3dafc39b	0.08582231
128	0x3d9cad91	0.07650293
129	0xbe6b864a	-0.23000446
130	0xbc98242b	-0.018571934
131	0x3d79472e	0.060858898
132	0x3da49cdf	0.08037733
133	0x3e5eb990	0.21750474
134	0x3c4aca33	0.01237731
135	0x3e0b38e8	0.13595927
136	0x3c6d969a	0.014501238
137	0xbdae0140	-0.08496332
138	0x3d075b5f	0.033046123
139	0x3c8a507d	0.016884083
140	0x3c8a3513	0.01687101
141	0xbdf093ae	-0.11746918
142	0x3db4a724	0.08820942
143	0x3def8f37	0.11697238

cnn1.bias f4 [16]
0	0xbe06ef6a	-0.13177267
1	0x3e4f412b	0.20239703
2	0xbdd17abf	-0.1022849
3	0xbe1cddc3	-0.1531897
4	0x3e935f27	0.28783533
5	0x3e11cec3	0.1423903
6	0xbe509978	-0.20371044
7	0xbe95bc2e	-0.29245132
8	0xbe6aa01d	-0.22912641
9	0xbd8d32ff	-0.06894492
10	0x3e98593c	0.2975558
11	0xbd226ba9	-0.039653454
12	0xbdfe05d2	-0.12403454
13	0x3e3b5252	0.18293121
14	0x3e6eb2c3	0.2331038
15	0x3e455ef3	0.19274502

bn1.weight f4 [16]
0	0x3f806090	1.0029469
1	0x3f7f42ec	0.9971149
2	0x3f80a2bd	1.0049664
3	0x3f801182	1.0005343
4	0x3f803cbf	1.0018538
5	0x3f80c62a	1.0060475
6	0x3f7f3ce2	0.99702275
7	0x3f7f47a9	0.9971872
8	0x3f7f61ef	0.9975881
9	0x3f80132c	1.0005851
10	0x3f7f9395	0.9983457
11	0x3f7fcbe4	0.9992049
12	0x3f802dc3	1.0013965
13	0x3f80a6ca	1.00509
14	0x3f806009	1.0029308
15	0x3f7ead8d	0.9948357

bn1.bias f4 [16]
0	0x3a4336ce	0.0007446826
1	0x3b55add6	0.0032604835
2	0x3b1e1e09	0.002412679
3	0x3b6b1f36	0.0035876757
4	0x3b0b99eb	0.002130146
5	0x3b0d7304	0.0021583447
6	0x3b823612	0.003973731
7	0xba99506d	-0.0011696942
8	0x3b061f09	0.0020465276
9	0x3ac8ce7b	0.0015320325
10	0x3b5f4eeb	0.0034074138
11	0x3b1a9007	0.0023584382
12	0x3aea9e6d	0.0017899998
13	0x3a9972e0	0.0011707209
14	0x3b75f5e9	0.0037530607
15	0xb952a2f1	-0.00020087861

bn1.running_mean f4 [16]
0	0xbe2fdf40	-0.17175007
1	0x3e468d5d	0.19389863
2	0xbe29525c	-0.16535324
3	0xbcfc62b6	-0.030808788
4	0x3e31402c	0.17309636
5	0x3d2aed4a	0.041730203
6	0xbe262f04	-0.16228873
7	0x3d0f66e0	0.03501022
8	0x3cd35eb3	0.025801992
9	0xbe453dbb	-0.1926183
10	0x3e7c6ebd	0.24651618
11	0x3e400b00	0.18754196
12	0xbe0f9424	-0.14021355
13	0x3e186b62	0.14884713
14	0x3ef18c90	0.47177553
15	0x3e9d40c7	0.30713484

bn1.running_var f4 [16]
0	0x3d0fa13a	0.035065867
1	0x3c4e96c2	0.012609186
2	0x3d5bd2fe	0.053668015
3	0x3de89280	0.11356068
4	0x3dbc2e63	0.09188535
5	0x3d57b4aa	0.05266253
6	0x3d16ad4d	0.036786366
7	0x3ee9ce97	0.45665428
8	0x3e8a486b	0.27008376
9	0x3dc11c77	0.09429257
10	0x3dae1bd0	0.085013986
11	0x3e682a4f	0.2267239
12	0x3d14d94e	0.03634005
13	0x3cd5e4e2	0.026110116
14	0x3e63a444	0.22230631
15	0x3d66d335	0.056353766

cnn2.weight f4 [32, 16, 3, 3]
0	0xbca9d96e	-0.020733561
1	0xbca8b481	-0.020593883
2	0x3ad78634	0.0016443194
3	0xbca1f7f8	-0.019771561
4	0x3b78e277	0.003797678
5	0xbd5bbebc	-0.053648695
6	0x3d7532c8	0.059862882
7	0x3d56b1f0	0.05241579
8	0xbc3a2030	-0.011360213
9	0x3dc3f4ab	0.09568151
10	0x3c4f2516	0.012643119
11	0xbc407946	-0.011747664
12	0xbe0b2203	-0.13587193
13	0x3cff8fb0	0.031196445
14	0x3b7fbf53	0.003902395
15	0x3dfdfd5f	0.12401842
16	0xbcd5c904	-0.026096828
17	0xbda92cbf	-0.08260488
18	0xbcf5b73e	-0.029994603
19	0xbc2b04a1	-0.010438115
20	0xbe162ef4	-0.14666349
21	0xbbcb737c	-0.006208835
22	0xbe1ae897	-0.15127788
23	0xbd5c1d70	-0.05373901
24	0xbc1c4128	-0.009537019
25	0xbd4dcac4	-0.0502422
26	0x3d4e4759	0.05036101
27	0x3cceb00d	0.025230432
28	0x3aca342d	0.0015426927
29	0xbd235b67	-0.03988209
30	0x3d501f2b	0.050810974
31	0x3b109525	0.0022061553
32	0x3ca71ab3	0.020398473
33	0x3d26dfec	0.040740892
34	0x3d32b94e	0.04363375
35	0xbd40bca6	-0.04705491
36	0xbd796c00	-0.060894012
37	0xbdb86b21	-0.09004808
38	0x3e21fba9	0.15818657
39	0x3cf193f8	0.029489502
40	0xbdb0519b	-0.08609315
41	0x3d926148	0.07147461
42	0xbe10c50d	-0.14137669
43	0x3d13d2f6	0.03608986
44	0xbcc36788	-0.023853078
45	0x3c61d580	0.0137838125
46	0x3dd24213	0.10266509
47	0xbd66da23	-0.056360375
48	0x3db00e0e	0.08596431
49	0xbe1824ec	-0.14857835
50	0x3c7718c3	0.015081587
51	0xbdaf1ad8	-0.08550042
52	0xbc828133	-0.015930748
53	0xbd20ed88	-0.039289027
54	0x3cbac548	0.02279915
55	0xbde7987a	-0.113083795
56	0xbd42641c	-0.047458753
57	0x3dc11f6c	0.09429821
58	0x3e06a4c3	0.13148789
59	0xbc780d72	-0.015139924
60	0xbd31bbaa	-0.04339186
61	0x3d9791e6	0.07400875
62	0xbd872043	-0.0659795
63	0xbd1afc7a	-0.037838437
64	0xbd9f90c7	-0.07791286
65	0x3e2a371a	0.16622582
66	0x3d185f9c	0.037200555
67	0x3b483dbf	0.0030554382
68	0x3d3f7bec	0.04674904
69	0x3e139546	0.14412412
70	0xbda3c7d9	-0.07997102
71	0xbd6e28f8	-0.05814454
72	0xbd36502d	-0.044510055
73	0x3d94f16e	0.072726116
74	0xbcf22e68	-0.029563144
75	0xbdf4585a	-0.11930914
76	0xbd96a7cf	-0.07356226
77	0x3cf82d68	0.030295089
78	0xbc586dd8	-0.013209783
79	0x3d4082bd	0.04699968
80	0x3dc8684f	0.0978552
81	0x3dc99640	0.09843111
82	0x3ca23140	0.019798875
83	0xbc989b02	-0.018628601
84	0xbc8094e4	-0.015695997
85	0xbd704f0a	-0.058669128
86	0x3dfd1052	0.123566285
87	0x3ddd1c88	0.107964575
88	0xbda158d4	-0.07878271
89	0xbe273314	-0.16328079
90	0x3de65f66	0.112486646
91	0xbb2ef798	-0.002669787
92	0xbcfc3c0e	-0.030790355
93	0x3d9cf76d	0.0766438
94	0x3a815a0d	0.0009868756
95	0x3d88c022	0.066772714
96	0xbc926625	-0.017870972
97	0xbd6b1da8	-0.05740133
98	0xbcc34b38	-0.023839578
99	0x3cb79f06	0.022414695
100	0x3db9e5c3	0.09077027
101	0x3d566461	0.052341823
102	0x3c56feec	0.013122302
103	0xbb19458f	-0.0023387407
104	0xbdf8ca03	-0.12147906
105	0x3c3c199e	0.011480717
106	0xbd24865e	-0.040167205
107	0xbcdcc491	-0.026949199
108	0x3d9c079c	0.07618639
109	0xbc2a1bdd	-0.01038262
110	0xbc2fdbdc	-0.010733571
111	0xbe47c624	-0.19509178
112	0x3d7bd999	0.061486814
113	0x3e03fe2a	0.12889925
114	0xbd4463b2	-0.04794664
115	0xbd849951	-0.06474555
116	0xbcb27403	-0.021783834
117	0x3db215ef	0.0869559
118	0x3db8db3d	0.090261914
119	0x3dc8afad	0.097991325
120	0xbdafd5d4	-0.08585706
121	0xbd6a1966	-0.057153128
122	0xbd8d2bba	-0.06893106
123	0x3db4be2b	0.08825334
124	0x3d46e61f	0.048559304
125	0xbda965c3	-0.08271363
126	0x3e1843c4	0.148696
127	0xbd035adc	-0.032069072
128	0x3bdcac0f	0.006734378
129	0xbd685510	-0.056721747
130	0xbcaab5f3	-0.020838713
131	0xbd1baf32	-0.038008876
132	0xbbe272e1	-0.0069106673
133	0x3cf9a601	0.030474665
134	0xbd86c9d5	-0.06581465
135	0x3cea205c	0.028579883
136	0xbd5c83c7	-0.05383661
137	0x3c6d410c	0.01448084
138	0x3dc1c5b8	0.0946154
139	0xbd0f6155	-0.035004932
140	0x3db71070	0.08938682
141	0x3c07bec5	0.008285229
142	0x3d40a5e0	0.04703319
143	0xbd3dcd4c	-0.046338364
144	0x3c911703	0.017711168
145	0xbd2d3e47	-0.04229572
146	0xbd6c240c	-0.057651564
147	0x3df11018	0.11770648
148	0x3d3453a7	0.04402509
149	0xbc9ff784	-0.019527204
150	0x3c9e1903	0.019299036
151	0x3d2121ac	0.039338753
152	0xbd8aaba8	-0.06771022
153	0xbda57c73	-0.080803774
154	0x3db80e86	0.08987145
155	0xbc2fc3f0	-0.0107278675
156	0x3c8a103a	0.01685344
157	0xbd1fc29d	-0.039003957
158	0x3d9d64bb	0.076852284
159	0x3c8c5cf8	0.017134175
160	0xbcd937b3	-0.026515817
161	0xbd8f4feb	-0.06997665
162	0xbd1a8f6e	-0.03773444
163	0xbd50c3fd	-0.05096816
164	0xbd8ec7c9	-0.069717
165	0x3bfc0239	0.0076906946
166	0x3dc23ef4	0.094846636
167	0x3e028bb0	0.12748599
168	0xbdde65c4	-0.10859254
169	0xbc47e33d	-0.012200174
170	0x3d12e6dc	0.035864696
171	0x3c585969	0.013204911
172	0xbc84ed06	-0.016226303
173	0x3cde6595	0.027148047
174	0x3c485e46	0.012229508
175	0xbdb2b9b3	-0.087268256
176	0x3d3a57e7	0.045493986
177	0x3d918bdf	0.071067564
178	0x3dc0ff20	0.09423661
179	0xbc9f1508	-0.019419208
180	0x3c09c205	0.008408074
181	0xbdf47868	-0.11937028
182	0x3d11caec	0.035593912
183	0xbdd0f7b4	-0.102034956
184	0x3ce9e6a1	0.028552355
185	0xbd7ec86e	-0.062202863
186	0x3d5f6180	0.054536343
187	0xbd79f65d	-0.061025966
188	0xbbef95bb	-0.0073115504
189	0x3d63fde3	0.055662047
190	0xbd89ae41	-0.067226894
191	0x3d56d8a8	0.052452713
192	0xbd35b3b0	-0.044360816
193	0xbdfb4a2e	-0.12270008
194	0x3caf50f3	0.021400904
195	0xbdf36f6f	-0.11886489
196	0xbb4ec46d	-0.0031550184
197	0xbdb0a0c0	-0.08624411
198	0x3d0c8d7f	0.03431463
199	0xbd6c7943	-0.05773283
200	0xbcab4570	-0.020907134
201	0xbcaabec8	-0.020842925
202	0x3dc64fc6	0.09683184
203	0xbde10339	-0.10986943
204	0xbcc90d1f	-0.02454239
205	0x3d373e78	0.04473731
206	0xbb002a91	-0.0019556622
207	0x3d8676d4	0.065656334
208	0xbe087db8	-0.13329208
209	0x3d536a82	0.051615246
210	0xbd53d325	-0.051715035
211	0x3c29a108	0.010353334
212	0x3be49dbf	0.0069768126
213	0xbdb7ecdd	-0.08980725
214	0xbe1a0502	-0.15040973
215	0xbdcf7042	-0.10128833
216	0x3cdb8c5e	0.02680033
217	0xbb840ee7	-0.004030097
218	0xbdb410b8	-0.08792251
219	0x3e11ebad	0.1425006
220	0x3d7408ab	0.05957858
221	0x3da3bb1d	0.079946734
222	0xbd82d56e	-0.06388365
223	0xba937c1e	-0.00112522
224	0x3e03a0b3	0.1285427
225	0xbd0fdc36	-0.03512212
226	0xbd2bcac9	-0.041941438
227	0xbe12aa50	-0.14322782
228	0xbde0cd24	-0.109766275
229	0xbd6d1689	-0.05788282
230	0x3c4a3500	0.012341738
231	0x3c6814da	0.014165128
232	0x3d4c3ccf	0.04986268
233	0x3b956bbf	0.0045599635
234	0x3d9ba681	0.076001175
235	0x3e075dc7	0.13219367
236	0x3d282fe5	0.0410613
237	0xbd49374a	-0.049124993
238	0xbc9330b6	-0.017967563
239	0xbdbc7de3	-0.092036985
240	0xbc6245d5	-0.013810595
241	0xbd645967	-0.055749323
242	0x3d34fb0c	0.04418473
243	0x3bdf8c50	0.0068221465
244	0x3db3221f	0.087467425
245	0x3e03ed0a	0.12883392
246	0x3d2b6468	0.0418438
247	0xbd8ead70	-0.06966674
248	0x3c537c5c	0.012908068
249	0xbd12a0a0	-0.035797715
250	0xbcceb046	-0.025230538
251	0x3c6c5b54	0.014426071
252	0x3c5b12f5	0.013371219
253	0xbd58d5f8	-0.05293843
254	0xbdc34397	-0.09534376
255	0x3d941bec	0.07231888

cnn2.bias f4 [32]
0	0xbd4b093b	-0.04956935
1	0x3d3958a2	0.045250542
2	0xbd222ced	-0.039593626
3	0xbbd4bb0b	-0.006492024
4	0x3c945218	0.018105552
5	0x3cd4511c	0.025917582
6	0xbd94f7ea	-0.07273848
7	0x3d875d57	0.066096
8	0x3d8aab25	0.067709245
9	0xbcf0e02d	-0.02940377
10	0xbd1d0775	-0.03833719
11	0x3d4e2dbb	0.05033658
12	0xbd440ceb	-0.047863882
13	0x3d5e31b9	0.054246638
14	0x3c30d946	0.0107939895
15	0x3c1b2a0a	0.009470472
16	0x3d8752f9	0.06607623
17	0x3bdb1714	0.0066861007
18	0x3c7662d7	0.015038214
19	0xbc8b4191	-0.016999038
20	0xbd941f27	-0.07232504
21	0x3d4348d9	0.047676895
22	0x3daa977c	0.083296746
23	0xbd276c4b	-0.04087476
24	0x3c807529	0.015680866
25	0xbc2f1352	-0.010685759
26	0x3d4ccee6	0.050002
27	0x3d1e82e7	0.038699057
28	0xbd16c7e5	-0.036811728
29	0xbc8f0017	-0.017456098
30	0x3d320b5b	0.04346786
31	0x3da1dc6d	0.07903371

bn2.weight f4 [32]
0	0x3f7f89c3	0.9981958
1	0x3f805e16	1.0028713
2	0x3f808205	1.0039679
3	0x3f7ea90e	0.99476707
4	0x3f806c0b	1.0032972
5	0x3f801a09	1.0007945
6	0x3f804b6f	1.002302
7	0x3f7fdd5d	0.9994715
8	0x3f7f7da9	0.9980112
9	0x3f803272	1.0015395
10	0x3f810b5e	1.0081594
11	0x3f7f7d80	0.9980087
12	0x3f7f2ae5	0.99674827
13	0x3f7e92af	0.9944257
14	0x3f801131	1.0005246
15	0x3f800357	1.0001019
16	0x3f7f3c24	0.9970114
17	0x3f7fbb9f	0.9989566
18	0x3f7f9f43	0.9985239
19	0x3f8035cc	1.0016418
20	0x3f7fc835	0.99914867
21	0x3f8099ca	1.0046933
22	0x3f807eea	1.0038731
23	0x3f7f98b9	0.9984241
24	0x3f7eae6f	0.99484915
25	0x3f802f4e	1.0014436
26	0x3f7f386f	0.99695486
27	0x3f802a7c	1.0012965
28	0x3f7fe6fe	0.9996184
29	0x3f7f7c26	0.9979881
30	0x3f80a622	1.00507
31	0x3f80cb95	1.0062128

bn2.bias f4 [32]
0	0xba1cf413	-0.00059872976
1	0x3ab92f7e	0.0014128534
2	0x3afaa013	0.0019121192
3	0xb919da10	-0.00014672452
4	0x39806e76	0.00024496362
5	0x3a8b813d	0.0010643374
6	0x3b3df0fd	0.0028982752
7	0x3a91167e	0.0011069325
8	0x3994d7be	0.000283895
9	0xba07f52d	-0.00051863753
10	0x3b369e86	0.0027865483
11	0xbaad8b59	-0.0013240381
12	0xbb6d5c75	-0.0036218439
13	0xba974ed8	-0.0011543883
14	0xb98ce0e8	-0.0002687045
15	0x3b2db84d	0.0026507557
16	0xbb1a2851	-0.0023522566
17	0x3966a293	0.00021995073
18	0xba869f5b	-0.001027088
19	0x3a3799bb	0.00070038036
20	0x3ab88411	0.0014077445
21	0x3a522626	0.0008016549
22	0x3b04652b	0.0020201902
23	0x3acddd31	0.0015706179
24	0xba449dcf	-0.0007500322
25	0x3b043e04	0.0020178566
26	0xba87325e	-0.0010314693
27	0x3b690c1a	0.0035560192
28	0x39cc9f89	0.00039028775
29	0xbab04bc4	-0.0013450314
30	0x3ae9b5a2	0.001783062
31	0x3b397b27	0.0028302164

bn2.running_mean f4 [32]
0	0xbd82d3ec	-0.06388077
1	0xbe2c12e4	-0.16804081
2	0xbe975767	-0.2955887
3	0x3eaf3e21	0.34227088
4	0xbe9eab99	-0.30990294
5	0x3d993ab6	0.07481901
6	0x3ef1c397	0.47219536
7	0x3f0152a7	0.5051674
8	0x3ea2cce2	0.31796938
9	0xbe34996d	-0.17636652
10	0xbd85b55a	-0.06528731
11	0xbf1beb72	-0.60906136
12	0xbf0c1120	-0.5471363
13	0x3ef0a472	0.47000462
14	0xbda42104	-0.0801411
15	0xbc1b43f4	-0.0094766505
16	0xbe1d5ff0	-0.15368629
17	0xbea476dd	-0.32121935
18	0xbe8017f4	-0.25018275
19	0xbe1799b8	-0.14804733
20	0xbef09120	-0.46985722
21	0x3e2e1e94	0.17003852
22	0x3eadf5cb	0.33976588
23	0x3e6de6a2	0.2323251
24	0xbdacf2e3	-0.084447645
25	0xbe337988	-0.17526829
26	0x3e915349	0.28383854
27	0x3f02b077	0.51050514
28	0xbee8d0ac	-0.45471704
29	0xbeb2e2fd	-0.34938803
30	0x3e1d841e	0.1538243
31	0x3eaefaaa	0.34175617

bn2.running_var f4 [32]
0	0x3e6f82af	0.23389696
1	0x3ec46b2f	0.38363025
2	0x3ea46ef1	0.32115892
3	0x3eb7f5cd	0.3592972
4	0x3e3a3956	0.18185934
5	0x3e4f56f8	0.2024802
6	0x3f909a1b	1.1297029
7	0x3f0a02d9	0.53910595
8	0x3ecb1c5b	0.3967007
9	0x3e5671b9	0.20941819
10	0x3ed4a837	0.41534588
11	0x3f0ffc12	0.56244004
12	0x3eb76121	0.3581629
13	0x3e983061	0.2972441
14	0x3e78fa52	0.2431424
15	0x3e5c6073	0.21521167
16	0x3e6b97de	0.23007151
17	0x3e71e8dc	0.23623985
18	0x3e996fc6	0.2996809
19	0x3e41a7c7	0.18911658
20	0x3eeeefa8	0.46667218
21	0x3e8d0c8b	0.27548632
22	0x3e231912	0.15927532
23	0x3e60a22b	0.21936862
24	0x3d4b54aa	0.04964129
25	0x3e4f74b4	0.20259362
26	0x3eb548c3	0.35407075
27	0x3ed1fba4	0.410123
28	0x3e37e647	0.17958938
29	0x3e736e52	0.23772553
30	0x3f17a363	0.59233683
31	0x3e41d208	0.18927777

cnn3.weight f4 [64, 32, 3, 3]
0	0xbcab7e52	-0.020934258
1	0xbd04c13a	-0.032410838
2	0xbdc05770	-0.093916774
3	0xbb2c3a32	-0.0026279804
4	0xbc8b12b8	-0.0169767
5	0x3c8083cc	0.015687846
6	0xbd130c4a	-0.03590039
7	0xbc879461	-0.016550245
8	0xbabb864d	-0.0014306993
9	0xbcde13bf	-0.027109025
10	0xbd8d74ab	-0.06907018
11	0xbd446130	-0.047944248
12	0x3d74296f	0.059609827
13	0xbce5a63b	-0.028033366
14	0x3d5ed8e4	0.05440606
15	0xbc04270c	-0.00806595
16	0xbcd48169	-0.025940614
17	0xbcab7314	-0.020928897
18	0xbda75df7	-0.08172219
19	0x39f80b32	0.00047310587
20	0xbc89f112	-0.016838584
21	0x3cdbd0ea	0.026833016
22	0x3cca2ae6	0.024678659
23	0x3deabb81	0.11461545
24	0x3ca52a99	0.020161914
25	0x3d0c0f69	0.034194384
26	0x3d07ce5b	0.03315578
27	0xbcc203b7	-0.023683412
28	0x3d284117	0.0410777
29	0x3ce90e71	0.028449269
30	0x3d25bcd3	0.04046328
31	0xbd296b50	-0.041362107
32	0xbd585e33	-0.05282421
33	0x3d8c26b0	0.068433166
34	0xbd4a0d81	-0.049329285
35	0xbb48c112	-0.0030632657
36	0x3d44fb74	0.048091367
37	0x3cf0a467	0.029375268
38	0x3c23bc7b	0.009993668
39	0x3d206261	0.03915632
40	0xbd802422	-0.06256892
41	0xbd613e66	-0.05499115
42	0x3d31c5cd	0.04340153
43	0xbd1001c8	-0.03515795
44	0xbc237718	-0.009977125
45	0xbd6a6b3d	-0.057231177
46	0xbd8a502e	-0.06753574
47	0x3c93aa74	0.018025614
48	0x3d11180d	0.035423327
49	0x3c130466	0.008973217
50	0x3cb1262f	0.021624653
51	0x3dcc79bf	0.09984159
52	0xbaa9a8f4	-0.0012944029
53	0x3da7bb40	0.08190012
54	0xbd512634	-0.051061824
55	0x3db71aa0	0.08940625
56	0x3d00524f	0.031328496
57	0x3c90f394	0.017694272
58	0xbd459daa	-0.048246063
59	0x3cde792f	0.027157394
60	0x3d3f510f	0.046708163
61	0xbd773d5d	-0.060361255
62	0xbce76bb1	-0.028249593
63	0xbd03a19c	-0.032136545
64	0xbce810ec	-0.028328381
65	0x3cd63204	0.026146896
66	0x39006f28	0.0001224844
67	0xbce24d7f	-0.027624844
68	0xbced0100	-0.02893114
69	0xbd82e46e	-0.06391226
70	0xbc311e62	-0.0108104665
71	0xbd9bc011	-0.07604993
72	0xbd015fe8	-0.031585604
73	0xbabcf0a6	-0.001441498
74	0xbb83e3e3	-0.004024969
75	0xbc8850fd	-0.01664018
76	0x3d162fd0	0.03666669
77	0x3d0bf430	0.034168422
78	0x3bd29a9d	0.0064271227
79	0x3d4c2542	0.04984022
80	0xbdb05074	-0.08609095
81	0xbc99b288	-0.018761888
82	0x3d83ca37	0.06435054
83	0xbd0c1e6e	-0.034208708
84	0x3d4740c3	0.048645746
85	0x3db461a5	0.08807687
86	0x3db1edd8	0.08687943
87	0xbccccb49	-0.024999278
88	0x3b856a34	0.0040714983
89	0x3d313831	0.04326648
90	0x3d77e4f3	0.060521077
91	0x3d751f1f	0.059844133
92	0x3b90f4c9	0.004423712
93	0xbc566962	-0.013086649
94	0xbd6d3f69	-0.0579218
95	0xbd554aa3	-0.052073132
96	0xbd10c274	-0.035341695
97	0x3c3b1e77	0.011420838
98	0x3bde74d8	0.006788831
99	0xbb5ea40f	-0.0033972298
100	0x3bf09545	0.007342013
101	0xbd4bfa0c	-0.04979901
102	0x3c9f848b	0.019472381
103	0x3d54ddc4	0.051969305
104	0xbbc14c6e	-0.0058990037
105	0xbd147c26	-0.03625121
106	0xbd80fe60	-0.06298518
107	0x3baff66f	0.0053699533
108	0x3d3054de	0.043049686
109	0xbdfd4506	-0.12366681
110	0xbd5d498b	-0.054025214
111	0x3daa3d7d	0.08312509
112	0x3d755c37	0.059902396
113	0xbcf3ab99	-0.02974491
114	0x3e10f188	0.14154637
115	0xbd4f0ef5	-0.050551374
116	0xbdc654ae	-0.0968412
117	0xbcae8342	-0.021302823
118	0xbcb3182f	-0.021862118
119	0x3d7ff0c4	0.06248547
120	0xbdd341d0	-0.10315287
121	0xbda378d4	-0.079820305
122	0x3c0c4dcc	0.00856347
123	0x3da7f576	0.08201115
124	0x3c7c0ef2	0.015384423
125	0xbd9f46b0	-0.077771544
126	0xbdd5dd2e	-0.10442577
127	0x3c9aef30	0.018912882
128	0x3d52eb5e	0.051493995
129	0xbb2391a4	-0.0024958635
130	0x3c745d96	0.014914891
131	0x3c544669	0.01295624
132	0xbc8f8bf8	-0.017522797
133	0x3d144779	0.036200974
134	0xbc7dddfb	-0.015494819
135	0x3c2be807	0.010492331
136	0xbcc22847	-0.023700846
137	0xbd9f34fe	-0.07773779
138	0xba8eee19	-0.0010904699
139	0x3bdfe425	0.006832617
140	0xbd3849ac	-0.044992134
141	0xbd8ddcf3	-0.06926908
142	0x3cf683c6	0.030092131
143	0x3d53021c	0.051515684
144	0x3c46e25c	0.012138929
145	0xbc966595	-0.018358985
146	0xbc3f06ef	-0.011659368
147	0x3cbe5675	0.023234585
148	0x3d120ff4	0.035659745
149	0x3c89cda7	0.016821695
150	0xbc682844	-0.014169756
151	0x3ceb05bf	0.028689263
152	0xbd9f8c23	-0.07790401
153	0xbda51b98	-0.08061904
154	0xbe01c841	-0.12674047
155	0xbd65d10c	-0.056107566
156	0xbd402870	-0.046913564
157	0x3d1e7c4d	0.03869276
158	0x3d664441	0.056217436
159	0xbd6773c3	-0.056506883
160	0x3bc0a865	0.005879449
161	0xbd6db049	-0.058029447
162	0xbe043370	-0.12910247
163	0xbcb1281c	-0.021625571
164	0xbd148796	-0.036262117
165	0xbd639884	-0.055565372
166	0xbcdbfbf6	-0.026853543
167	0xbb30c71f	-0.0026974154
168	0x3c7c7ecf	0.015411093
169	0xbc4911be	-0.0122722965
170	0x3dbf6b02	0.09346582
171	0xbd6c4869	-0.057686243
172	0xbcacb75e	-0.02108353
173	0x38dd3a5b	0.00010548971
174	0xbd40a3ba	-0.04703114
175	0x3ced5bc2	0.028974418
176	0x3d81b37c	0.06333062
177	0x3a10c7d8	0.0005522943
178	0x3d825c72	0.06365289
179	0xbcc34619	-0.023837136
180	0xbc19d1f3	-0.009388435
181	0x3c7f82ef	0.015595182
182	0x3d87c58d	0.06629477
183	0xbccbe281	-0.024888279
184	0x3cb8ac46	0.022543084
185	0xbcdf2336	-0.02723847
186	0x3d69ff7b	0.05712841
187	0x3d319012	0.043350287
188	0xbc1a2e76	-0.009410491
189	0xbca824fd	-0.02052545
190	0x3ca7deca	0.020491976
191	0xbcb76a9b	-0.0223897
192	0x3c0a46b8	0.008439712
193	0xbd848933	-0.06471481
194	0x3b9a4bcf	0.004708744
195	0x3ccdb640	0.025111318
196	0xbd12c5ab	-0.035833042
197	0x3d16aeb1	0.036787692
198	0xbc8935f0	-0.016749352
199	0x3d757c92	0.059933253
200	0xbc16d056	-0.009204945
201	0xbcd2f398	-0.02575092
202	0xbd682d23	-0.05668367
203	0xbcc1383d	-0.023586387
204	0xbd659ead	-0.05605953
205	0x3c80b989	0.01571347
206	0x3cda5c68	0.02665539
207	0x3d4ff454	0.05077012
208	0x3daf4eac	0.08559927
209	0x3d936516	0.07197015
210	0xbd08f7a9	-0.033439312
211	0x3d960955	0.07325999
212	0x3cac14f8	0.021006092
213	0x3d4ade92	0.049528666
214	0xbaad16e3	-0.0013205673
215	0x3cd5d3e1	0.026102008
216	0xbdbdaf73	-0.0926198
217	0xbd330115	-0.043702204
218	0xbc5414b6	-0.012944391
219	0x3a314efa	0.00067637826
220	0xbb9baae5	-0.004750597
221	0x3d072e87	0.033003356
222	0x3c37337b	0.0111817075
223	0xbd0ca37f	-0.03433561
224	0x3c9b5d99	0.01896553
225	0x3cc496a9	0.023997622
226	0x3d5f7033	0.05455036
227	0x3d962d76	0.0733289
228	0x3bea3305	0.0071471953
229	0xbd5d7a36	-0.054071628
230	0x3d2ca5a9	0.042150173
231	0xbb8edb3f	-0.0043596323
232	0x3c165a55	0.00917681
233	0xbc104c69	-0.00880728
234	0x3d46d9d4	0.04854758
235	0xbd171ec7	-0.036894586
236	0x3c99b250	0.018761784
237	0xbd02056e	-0.03174346
238	0x3d8b3157	0.0679652
239	0xbcc0de18	-0.023543403
240	0x3ab4d39e	0.0013795977
241	0x3d9cb51e	0.07651733
242	0xbd10c3fe	-0.035343163
243	0x3d30a645	0.043127317
244	0xba3c5c7f	-0.0007185414
245	0x3c910ea5	0.017707178
246	0xbcb094a3	-0.02155525
247	0x3d2855a0	0.041097283
248	0xbd4e7151	-0.050401036
249	0x3d5e6639	0.054296706
250	0xbb017134	-0.0019751312
251	0xbd185c75	-0.03719755
252	0xbd49c5a4	-0.04926075
253	0xbc060860	-0.008180708
254	0xbb2e0086	-0.0026550605
255	0x3d8b4fec	0.06802353

cnn3.bias f4 [64]
0	0xbd334a88	-0.04377225
1	0x3b2962e1	0.002584629
2	0xbd5d305e	-0.054001205
3	0x3ce9de66	0.02854843
4	0x3d5bcb1b	0.053660493
5	0x3bc2a858	0.0059404783
6	0xbc8d70f0	-0.017265767
7	0xbbcc1bc8	-0.0062288977
8	0xbd4201ac	-0.047364876
9	0xbd06bdf5	-0.032896
10	0x3d712407	0.05887225
11	0x3bde6918	0.0067874305
12	0xbd6371e4	-0.055528536
13	0x3ca7dbfa	0.020490635
14	0x3bedc2a8	0.007255871
15	0x3d454f87	0.048171546
16	0xbd01bbe4	-0.031673327
17	0xbd428b32	-0.04749603
18	0x3ca48b06	0.020085823
19	0xbbefe8c0	-0.007321447
20	0x3cbcf4b6	0.023065906
21	0xbd15f9d6	-0.036615215
22	0xbd637a2f	-0.055536445
23	0x3bdaf418	0.0066819303
24	0xbd3afad6	-0.045649372
25	0xbd1c1c7a	-0.038113095
26	0x3cdd0506	0.026979934
27	0x3d1e27eb	0.038612287
28	0x3c81f146	0.015862118
29	0xbcd938ec	-0.0265164
30	0xbbdccef0	-0.006738536
31	0x3c0dd7fc	0.008657452
32	0x3cce4d3e	0.025183316
33	0xbba2be4f	-0.004966534
34	0xbc5110c4	-0.012760345
35	0x3cd916fa	0.026500214
36	0xbd6d1940	-0.05788541
37	0x3c775afc	0.015097376
38	0xbcf3e120	-0.029770434
39	0xbd5ce267	-0.05392685
40	0x3d393c45	0.045223493
41	0xbd616fe8	-0.055038363
42	0xbcc6ac38	-0.024252042
43	0x3ce2653e	0.027636167
44	0x3ce64e92	0.028113637
45	0x3b8ca118	0.004291665
46	0xbd4cc33a	-0.04999087
47	0xbc56df38	-0.013114743
48	0xbc20d5ec	-0.009816628
49	0xbcf0a9ba	-0.029377807
50	0x3d5f72eb	0.054552954
51	0x3ca71ad2	0.020398531
52	0x3d295cd1	0.041348282
53	0x3d574d25	0.052563805
54	0xbb905ad0	-0.004405357
55	0xbd3d20f7	-0.046174016
56	0xbc031cf8	-0.008002512
57	0x3d53d84d	0.051719952
58	0x3d5d34fd	0.05400561
59	0xbcae022a	-0.021241266
60	0x3d14e149	0.03634766
61	0x3b6a4571	0.0035746957
62	0xbc8d354e	-0.017237332
63	0x3c0a04a4	0.008423958

bn3.weight f4 [64]
0	0x3f807b45	1.0037619
1	0x3f800448	1.0001307
2	0x3f803fba	1.0019448
3	0x3f7fbab8	0.99894285
4	0x3f802b53	1.0013222
5	0x3f801403	1.0006107
6	0x3f7ec888	0.99524736
7	0x3f807504	1.003571
8	0x3f7f2a77	0.9967417
9	0x3f8029fe	1.0012815
10	0x3f7f8a4a	0.9982039
11	0x3f80351d	1.0016209
12	0x3f7fed40	0.9997139
13	0x3f803c90	1.0018482
14	0x3f801082	1.0005038
15	0x3f8042c2	1.0020373
16	0x3f8002f1	1.0000898
17	0x3f8071d6	1.003474
18	0x3f7fdd54	0.99947095
19	0x3f802d29	1.0013782
20	0x3f804a5a	1.002269
21	0x3f7fa128	0.9985528
22	0x3f80462f	1.0021418
23	0x3f800fb5	1.0004793
24	0x3f7fef27	0.9997429
25	0x3f8049c6	1.0022514
26	0x3f7f58ba	0.9974476
27	0x3f7fb78b	0.9988944
28	0x3f80833e	1.0040052
29	0x3f7feedb	0.9997384
30	0x3f7ffaa1	0.99991804
31	0x3f7fcfc9	0.9992643
32	0x3f7f6ae8	0.997725
33	0x3f7f4879	0.9971996
34	0x3f8064c6	1.0030754
35	0x3f7fca50	0.9991808
36	0x3f7ef18c	0.9958732
37	0x3f801486	1.0006263
38	0x3f80083c	1.0002513
39	0x3f809c28	1.0047655
40	0x3f7f0c19	0.99627835
41	0x3f7f9e89	0.9985128
42	0x3f7f87d4	0.9981663
43	0x3f7fb0bc	0.9987905
44	0x3f801eda	1.0009415
45	0x3f7fa421	0.99859816
46	0x3f7f6fee	0.99780166
47	0x3f7facd9	0.9987312
48	0x3f80105c	1.0004992
49	0x3f806b26	1.0032699
50	0x3f800732	1.0002196
51	0x3f7fe8e3	0.9996473
52	0x3f7faa2c	0.99869037
53	0x3f80021e	1.0000646
54	0x3f7f6065	0.9975646
55	0x3f807b8c	1.0037704
56	0x3f8094fd	1.0045468
57	0x3f80079b	1.0002321
58	0x3f802081	1.000992
59	0x3f7f117e	0.99636066
60	0x3f800a6e	1.0003183
61	0x3f7fb4fa	0.99885523
62	0x3f7e776d	0.9940098
63	0x3f80576c	1.0026679

bn3.bias f4 [64]
0	0x3a97a6fe	0.0011570153
1	0xb9fe920b	-0.00048555466
2	0xb6cddc3e	-6.1351157e-06
3	0x39df7bdd	0.0004262616
4	0x3a044bad	0.0005046677
5	0xb91dfc76	-0.00015066736
6	0xba808a67	-0.0009806872
7	0x3aa8940c	0.0012861504
8	0xba8c784a	-0.0010717001
9	0x39096a60	0.00013104966
10	0xba01a70f	-0.0004945853
11	0x3918a6f5	0.00014558046
12	0x3990cb95	0.000276175
13	0x3a8d70f0	0.0010791104
14	0x390cad4f	0.00013416003
15	0x39b37bbd	0.00034233733
16	0x3965db4f	0.0002192084
17	0xb913b386	-0.0001408589
18	0x3a1ff1e5	0.0006101414
19	0x3ab8be44	0.001409479
20	0xb9d9af72	-0.00041520182
21	0xba1c01a2	-0.0005951171
22	0x379b9d13	1.8550583e-05
23	0xb9bbe7e8	-0.00035840203
24	0xba806ae4	-0.0009797481
25	0x3a1b0fdd	0.00059151446
26	0xbadab7e7	-0.0016686887
27	0x385f2d56	5.3209566e-05
28	0x3b17babd	0.0023152076
29	0xb9bfbea0	-0.00036572386
30	0xba023e1b	-0.0004968361
31	0xba1c1edc	-0.0005955526
32	0xba86065e	-0.0010225286
33	0xbac742ad	-0.0015202366
34	0x3a80228c	0.0009775921
35	0x3a0366b6	0.00050125585
36	0xba6384c6	-0.00086791476
37	0x39663aa8	0.0002195636
38	0x3a1ff892	0.00061024085
39	0x3b6422cd	0.0034810782
40	0xbb5b6837	-0.0033478865
41	0xb9cdf5a0	-0.00039283652
42	0xbb0d2e0d	-0.002154234
43	0xb6e767ff	-6.896443e-06
44	0x3aa2e85e	0.001242887
45	0xbae40eef	-0.001739947
46	0xb9c8c22b	-0.0003829164
47	0xb997bc05	-0.0002894105
48	0xba30e8e3	-0.000674857
49	0x3a98a344	0.0011645337
50	0xba3ff375	-0.00073223497
51	0xb9c4f04c	-0.00037563068
52	0x397716c7	0.00023564241
53	0xbaa1e04a	-0.0012350169
54	0xb97fd54a	-0.00024398151
55	0x3a970cd1	0.0011524205
56	0x3add7b59	0.0016897722
57	0x3a8e2411	0.0010844489
58	0x389b1f04	7.396753e-05
59	0xbaa74f97	-0.0012764808
60	0x39ecf442	0.00045195414
61	0xba0d7308	-0.0005395864
62	0xba989eab	-0.0011643966
63	0x3968c99b	0.00022200348

bn3.running_mean f4 [64]
0	0xbe851759	-0.25994375
1	0x3e0677d6	0.13131651
2	0xbd9a681d	-0.07539389
3	0x3eeebbf6	0.46627778
4	0x3d787e22	0.060667165
5	0xbe8f8e66	-0.2803833
6	0x3ed475a4	0.41496003
7	0x3c874da9	0.016516523
8	0xbdf8e596	-0.12153165
9	0xbaea21dd	-0.0017862875
10	0xbeaf4eed	-0.34239903
11	0x3ee8a9f4	0.45442164
12	0xbe8e5069	-0.27795723
13	0x3e13fbbd	0.144515
14	0xbf249167	-0.64284366
15	0xbbbc13fb	-0.0057396865
16	0xbf02ddf0	-0.511199
17	0xbdf58dab	-0.11989912
18	0xbee08cc3	-0.43857393
19	0x3e43bfc8	0.19116127
20	0xbe3df562	-0.18550637
21	0xbdf679c1	-0.120349415
22	0xbed0db6c	-0.40792406
23	0xbeee66bc	-0.46562755
24	0xbec5c521	-0.3862696
25	0x3dccd0a5	0.10000733
26	0xbc0539ee	-0.008131487
27	0xbc954dfa	-0.018225659
28	0x3d2f65d1	0.04282171
29	0xbe60ebb3	-0.21964912
30	0x3d122fe1	0.035690192
31	0x3d624c58	0.05524859
32	0xbe66f474	-0.22554189
33	0xbeab8964	-0.33503258
34	0x3ee61818	0.44940257
35	0x3d202cd5	0.039105255
36	0x3ed7ddde	0.4216146
37	0xbd7056f9	-0.058676694
38	0xbe847f24	-0.2587825
39	0x3e9b79ab	0.30366263
40	0xbebe76fd	-0.37200156
41	0xbeba3bfb	-0.36373886
42	0xbebcf9c9	-0.3690932
43	0xbc698226	-0.014252221
44	0x3deab71e	0.11460708
45	0xbe72cf6d	-0.23711939
46	0x3c2dc7d0	0.010606721
47	0xbe6fa162	-0.23401406
48	0xbe0b2753	-0.1358922
49	0xbdd9cd79	-0.10634894
50	0xbee157bd	-0.44012251
51	0xbf0d91ae	-0.55300415
52	0x3c7fb2f9	0.015606635
53	0x3efd3a23	0.49458417
54	0x3e250333	0.16114502
55	0xbde45a99	-0.11150093
56	0xbe31bcb5	-0.17357142
57	0x3e051147	0.12994872
58	0x3de162f0	0.11005199
59	0xbe91f1d4	-0.28504813
60	0xbd5c29d3	-0.053750824
61	0xbe1dfd47	-0.15428649
62	0x3f129d46	0.5727123
63	0xbe973c6c	-0.29538286

bn3.running_var f4 [64]
0	0x3e86b43c	0.26309383
1	0x3ea6a641	0.32548717
2	0x3e809524	0.25113785
3	0x3e611183	0.21979336
4	0x3e519010	0.20465112
5	0x3ee15a0a	0.44014007
6	0x3f2b76d4	0.6697819
7	0x3e7f10ec	0.24908799
8	0x3e4fff61	0.20312263
9	0x3e784128	0.24243605
10	0x3e44de62	0.19225457
11	0x3ec315fc	0.3810271
12	0x3e83abb5	0.2571694
13	0x3e6a918a	0.22907081
14	0x3f058801	0.5216065
15	0x3e3a9094	0.18219215
16	0x3ef14a63	0.47127065
17	0x3e44cd97	0.19219051
18	0x3e51b1a5	0.20477922
19	0x3eaaac2f	0.3333449
20	0x3e5d547b	0.21614258
21	0x3ec12b59	0.37728384
22	0x3f3293be	0.69756687
23	0x3ef02ff6	0.4691159
24	0x3e1568ac	0.1459071
25	0x3e621ede	0.22082087
26	0x3e654f9e	0.22393653
27	0x3e638361	0.22218086
28	0x3e07d48e	0.13264677
29	0x3e1d7601	0.15377046
30	0x3edce0db	0.431403
31	0x3e4f6c5c	0.2025618
32	0x3f040d25	0.51582557
33	0x3e4b1d44	0.19835383
34	0x3e9f431f	0.31105897
35	0x3e703b4f	0.23460124
36	0x3f1dbafb	0.61613435
37	0x3ea2a177	0.31763813
38	0x3e88f81e	0.26751798
39	0x3ecc0651	0.3984857
40	0x3eab7710	0.33489275
41	0x3ed2f1cf	0.4120011
42	0x3e970dde	0.29502767
43	0x3ead52ab	0.33852133
44	0x3e877096	0.26453084
45	0x3e957c19	0.29196241
46	0x3eb7f171	0.35926393
47	0x3e233ca1	0.15941097
48	0x3ebe9264	0.37221062
49	0x3eaba32b	0.33522925
50	0x3e99fb23	0.30074415
51	0x3eac05b1	0.33598092
52	0x3ec20f4c	0.37902296
53	0x3ea23331	0.3167968
54	0x3f555c5c	0.83344054
55	0x3e403ee4	0.18773991
56	0x3ead7cfd	0.3388442
57	0x3eba7686	0.3641855
58	0x3e851f32	0.26000363
59	0x3e80c26f	0.2514834
60	0x3e49f86b	0.1972367
61	0x3e72d9f6	0.23715958
62	0x3efcc059	0.493655
63	0x3eb6111f	0.35559937

cnn4.weight f4 [128, 64, 3, 3]
0	0x3cfda8b6	0.030964237
1	0x3c8cac9f	0.017172156
2	0x3ce0e591	0.027453216
3	0xbd9e506f	-0.07730185
4	0x3c9889bf	0.01862037
5	0x3bbb1577	0.005709346
6	0xbbaa6520	-0.0052000433
7	0x3c610bde	0.0137357395
8	0x3d215279	0.039385293
9	0x3d06a487	0.03287175
10	0x3b686066	0.0035457849
11	0x3d4e8245	0.050417203
12	0xbc40486b	-0.011736016
13	0x3cce68e5	0.025196502
14	0x3d0fa36b	0.035067957
15	0xbc9a8a9b	-0.01886492
16	0x3c9c0927	0.019047333
17	0x3cc34150	0.023834854
18	0xbba651fe	-0.005075692
19	0x3d7508c0	0.059822798
20	0x3d01b846	0.031669877
21	0xbaed4d49	-0.0018104698
22	0x3a6a152d	0.0008929547
23	0x3dc73860	0.097275496
24	0x3c8c62a4	0.01713688
25	0xbd6bfcfb	-0.057614308
26	0x3bd7def5	0.006587858
27	0x3c567fcd	0.0130919935
28	0x3d11790e	0.035515837
29	0x3d07b0a6	0.03312745
30	0xbbe813a3	-0.007082419
31	0xbc8f171d	-0.017467076
32	0x3d031716	0.03200444
33	0x3d8695ac	0.065715164
34	0x3ba1fc0c	0.0049433764
35	0xbcb94fc0	-0.022621036
36	0x3d6241ff	0.05523872
37	0x3c852801	0.016254427
38	0xbd0b78ba	-0.03405068
39	0x3c4383f7	0.011933318
40	0x3c67a79d	0.014139083
41	0x3b92e10d	0.0044823945
42	0x3c3a3826	0.011365926
43	0xbcae8e17	-0.021307988
44	0xba6077ea	-0.00085627905
45	0xbcd468c8	-0.02592887
46	0x3d4a4176	0.049378835
47	0xba7911f6	-0.00095012726
48	0x3d20c7ba	0.039252974
49	0x3b4dddf0	0.0031412803
50	0xbc2b4d61	-0.01045546
51	0x3c427d58	0.011870705
52	0xbd3f141e	-0.046650045
53	0xbd01aa65	-0.03165664
54	0x3d7791ea	0.06044189
55	0xbd0ce108	-0.034394294
56	0x3c9d7c7d	0.0192244
57	0xb9126088	-0.00013959606
58	0xbceda0a1	-0.029007258
59	0x3d1d596a	0.03841535
60	0x3cc5575f	0.024089513
61	0x3ce6987b	0.02814888
62	0x3cd93583	0.026514774
63	0x3d475d99	0.048673246
64	0xbcb68afe	-0.022283074
65	0x3c1b91c2	0.009495201
66	0x3caf8f1b	0.021430543
67	0xbd8145f6	-0.06312172
68	0xbb4be58e	-0.0031112167
69	0x3b4c20ef	0.003114756
70	0xbcd9def2	-0.026595566
71	0x3d4b8545	0.049687643
72	0x3c54136f	0.012944086
73	0x3d8b08c6	0.06788783
74	0x3c96e8b1	0.018421503
75	0xbd5e8e11	-0.054334704
76	0x3d327186	0.043565296
77	0x3d8adab2	0.06779994
78	0xbd3a9359	-0.045550678
79	0xbc44a82d	-0.012002987
80	0x3d758182	0.05993796
81	0x3c4e0370	0.012574062
82	0x3ca7af05	0.020469198
83	0xbd2a6945	-0.0416043
84	0x3d2f5962	0.04280985
85	0x3d9db194	0.07699886
86	0x3d882270	0.066471934
87	0x3c8d3137	0.017235382
88	0x3dbb70ac	0.0915235
89	0x3da4feda	0.080564216
90	0x3d70bf23	0.058776032
91	0x3ca8b6db	0.020595005
92	0x3d11715a	0.03550849
93	0x3d36ebbd	0.04465841
94	0x3d10d35a	0.03535781
95	0xbc466f60	-0.012111515
96	0x3c412367	0.011788226
97	0x3d8ceab5	0.06880704
98	0xbcfa28ec	-0.030537091
99	0x3cbafa2f	0.022824375
100	0x3c92e0d7	0.017929478
101	0xbcb5aadc	-0.022176199
102	0x3ad55e09	0.0016278635
103	0xbb935f3f	-0.004497438
104	0xbce33817	-0.027736707
105	0x3d0723ef	0.032993253
106	0xbca963c6	-0.020677458
107	0xbc4802cc	-0.012207698
108	0xbd98276b	-0.074293934
109	0xbc645fb1	-0.01393883
110	0x3d3cb034	0.046066478
111	0xbca3a007	-0.019973768
112	0xbd3510be	-0.04420542
113	0xbdbbc47c	-0.09168336
114	0xba01e696	-0.00049553195
115	0xbc826cc0	-0.015920997
116	0xbc25c475	-0.01011764
117	0x3d925c56	0.07146518
118	0x3dad1129	0.08450539
119	0xbc2cdaa3	-0.010550174
120	0x3b6c6d48	0.003607588
121	0xbd00b9ab	-0.031427067
122	0x3dcb7503	0.099344276
123	0x3d4e4d15	0.05036648
124	0x3d031f28	0.032012135
125	0x3ca5cdd2	0.020239744
126	0x3b8812c9	0.00415263
127	0xbc187fe3	-0.009307834
128	0xbbb49841	-0.005511314
129	0x3d660155	0.056153614
130	0xbd99dd13	-0.0751287
131	0xbd1c69b1	-0.038186733
132	0x3c38a397	0.011269472
133	0xbb769b23	-0.003762909
134	0x3c851a79	0.016247975
135	0xbc87900a	-0.016548175
136	0xbca464cb	-0.020067593
137	0x3a575467	0.0008214176
138	0xbc5d7933	-0.013517666
139	0x3c08bc18	0.008345626
140	0xbb80ea7d	-0.003934203
141	0x3d529fb0	0.05142182
142	0xbd53ee27	-0.05174079
143	0x3c39b335	0.01133423
144	0xbd5109f3	-0.05103488
145	0x3c1a8edd	0.009433475
146	0xbd647440	-0.055774927
147	0x3c462b76	0.012095323
148	0x3bf997b6	0.0076169623
149	0x3d2d1dcc	0.042264745
150	0x3c9bfb5a	0.019040752
151	0x3d65fd5a	0.056149818
152	0x3cb1be65	0.021697232
153	0x3c8dfe8e	0.017333295
154	0x3c925953	0.017864859
155	0xbd00f1af	-0.031480487
156	0xbb998d17	-0.0046860087
157	0x3d2016c1	0.0390842
158	0xbdc23b28	-0.094839394
159	0xbce28b76	-0.02765439
160	0xbccfa2ec	-0.025346242
161	0x3c100986	0.008791333
162	0xbc5393e4	-0.012913678
163	0xbc7cd20e	-0.01543094
164	0x3c8bd894	0.017071046
165	0xbc043601	-0.008069516
166	0xbc951cec	-0.018202268
167	0xbd0c5b35	-0.03426667
168	0xbccfb7c9	-0.02535619
169	0x3d08db01	0.033411983
170	0xbcd2b3c7	-0.02572049
171	0x3d37f2b6	0.0449092
172	0xbc582282	-0.013191821
173	0xbc48722b	-0.012234251
174	0xbcd9e456	-0.026598137
175	0x3ca6e80f	0.020374326
176	0xbb2250fb	-0.0024767506
177	0xbc6bcb93	-0.014391798
178	0xbc4e9356	-0.01260837
179	0x3cc56253	0.024094736
180	0xbd72c9e8	-0.059274584
181	0xbbe9fe03	-0.0071408763
182	0xbd014e2f	-0.031568702
183	0x3bc8feba	0.0061338814
184	0xbdb0d6d6	-0.08634727
185	0x3a32de08	0.00068232464
186	0xbcaa299e	-0.020771798
187	0x3cd741ed	0.026276553
188	0x3cd10e58	0.025519535
189	0x3c78d4dc	0.015187468
190	0x3bccd27f	0.006250679
191	0xbd21397e	-0.03936147
192	0xbb342f71	-0.0027494098
193	0x3c8db477	0.017297966
194	0x3d12af38	0.035811633
195	0xbc576891	-0.013147489
196	0xbc7dfc11	-0.015501992
197	0xbbce1417	-0.006289016
198	0xbca076b1	-0.019587846
199	0x3d376ae9	0.04477969
200	0x3c67f672	0.014157878
201	0x3b24b1d8	0.0025130417
202	0xbd1f9498	-0.03896007
203	0x3d12b889	0.035820518
204	0xbbc5a9b1	-0.0060321917
205	0xbc818822	-0.015811983
206	0xbd155575	-0.03645845
207	0x3ccb42e3	0.024812168
208	0xbb2cb5b5	-0.0026353423
209	0x3cb853d9	0.02250092
210	0x3cb19a6e	0.021680083
211	0xbbb3be75	-0.0054853507
212	0x3bc78782	0.006089152
213	0xbd14a93f	-0.03629422
214	0xbd356173	-0.044282388
215	0x3d1142a3	0.03546394
216	0x3d28af5d	0.041182864
217	0x3ca8549e	0.020548161
218	0xbd342739	-0.04398272
219	0x3d2b73ae	0.041858368
220	0xbd1b87cc	-0.037971303
221	0x3d08514d	0.03328066
222	0x3db25d44	0.08709195
223	0xbd8c5647	-0.068523936
224	0x3c8c26db	0.017108371
225	0x3c8e7ac1	0.017392518
226	0x3cdc717c	0.026909582
227	0x3d29cf8e	0.041457705
228	0x3bd74d7c	0.006570516
229	0x3d29c14b	0.041444104
230	0x3c6e3b0e	0.014540447
231	0xbcf40447	-0.029787196
232	0xbc255045	-0.0100899385
233	0xbbf60706	-0.0075081615
234	0xbd324fb3	-0.04353304
235	0x3aa00a04	0.0012210016
236	0x3aa36b51	0.0012467896
237	0x3c962e99	0.018332766
238	0x3d2ed5d1	0.04268438
239	0xbd355f9a	-0.044280626
240	0x3d422497	0.047398176
241	0x3d2a2f93	0.041549277
242	0xbd0455d7	-0.032308426
243	0xbd1a5a8f	-0.03768402
244	0x3a375b6b	0.00069945183
245	0x3ccb1d34	0.024794199
246	0xbcb3eb1d	-0.021962697
247	0x3d55a264	0.05215682
248	0x3c5bf206	0.013424402
249	0xbd05fd94	-0.032712534
250	0xbc91f19b	-0.017815402
251	0x3d327eb3	0.04357786
252	0x3cfa80c5	0.03057898
253	0x3cabca82	0.020970587
254	0xbc0d1c9d	-0.008612779
255	0xbd2466c6	-0.040137075

cnn4.bias f4 [128]
0	0xbc8dfae8	-0.017331555
1	0xbd1d2712	-0.03836734
2	0xbb9f7b48	-0.004866991
3	0x3c3d59dc	0.011557069
4	0x3d246cdd	0.040142883
5	0x3d266367	0.04062214
6	0x3d111729	0.035422478
7	0xbca42d76	-0.020041209
8	0xbd144088	-0.036194354
9	0xbc9498db	-0.018139293
10	0xbccca2fb	-0.024980059
11	0x3c2f547c	0.010701295
12	0xbc37450c	-0.011185896
13	0x3c04bb9c	0.00810137
14	0xbd0c594b	-0.034264844
15	0xbc66b1c0	-0.014080465
16	0xbce65503	-0.028116709
17	0xbd0e288f	-0.03470665
18	0x3d1d4bb7	0.038402285
19	0xbcd868f6	-0.026417237
20	0xbbe3ad98	-0.006948184
21	0xba92cca0	-0.0011199899
22	0xba943d01	-0.0011309684
23	0x3cd3315a	0.025780369
24	0xbcbe14f6	-0.023203354
25	0x3c8baec6	0.017051112
26	0x3d156307	0.036471393
27	0xbc7f1176	-0.015568128
28	0xbd080312	-0.033206053
29	0xbc828426	-0.015932154
30	0x3cc71f1e	0.02430683
31	0x3ce54dfa	0.027991284
32	0xbb639e50	-0.0034731813
33	0xbca5e6e6	-0.020251703
34	0x3ceb378e	0.028713014
35	0xbca80476	-0.02050994
36	0xbcd732e6	-0.026269387
37	0x3b5ed540	0.0034001619
38	0xbc9808f6	-0.01855896
39	0x3cfa18d2	0.030529413
40	0xbd158e00	-0.036512375
41	0x3ccb419a	0.024811555
42	0xbcc4ac63	-0.024007982
43	0x3cb6d19e	0.02231675
44	0x3b17c310	0.0023157038
45	0xbcb72753	-0.022357618
46	0x3bd0e378	0.0063747726
47	0xbd00e154	-0.03146489
48	0xbcc3a5ee	-0.023882832
49	0x3d255e0d	0.040372897
50	0xbd0b3542	-0.033986337
51	0x3cd81166	0.026375484
52	0xbcffa2c6	-0.031205546
53	0xbcbf0ce3	-0.023321575
54	0xbcc0aa6e	-0.023518767
55	0xbcd610c6	-0.026131045
56	0xbc93f4bb	-0.018061033
57	0xbd18cca2	-0.037304528
58	0x3d105e01	0.0352459
59	0x3d240ed1	0.040053193
60	0x3cebc252	0.028779183
61	0xbd0c3bf8	-0.03423688
62	0x3c28ba74	0.01029836
63	0xbc3b91c0	-0.011448324
64	0x3c90625a	0.017625023
65	0xbcc0975b	-0.023509672
66	0xbd244e8c	-0.04011397
67	0x3c883216	0.016625445
68	0x3ca95426	0.020670008
69	0x3d10728d	0.035265494
70	0x3c1c8ddc	0.009555306
71	0x3b1c2640	0.002382651
72	0x3d18cbb3	0.037303638
73	0x3c92dc20	0.01792723
74	0x3be5f740	0.007018
75	0xbd0c2df0	-0.034223497
76	0x3c394710	0.0113084465
77	0x3ccdee32	0.025137994
78	0x3d1ad889	0.03780416
79	0xbbe43218	-0.0069639795
80	0x3c9f85b6	0.019472938
81	0xbcbaab50	-0.022786766
82	0xbcadcbfb	-0.02121543
83	0xbcc5ff68	-0.024169639
84	0x3d0b54bd	0.03401636
85	0x3c038d14	0.008029241
86	0x3c504324	0.01271132
87	0xbcecf61e	-0.028925952
88	0xbcda2d00	-0.026632786
89	0x3d132ac9	0.035929475
90	0x3cd3007a	0.025757063
91	0x3d1511ad	0.03639381
92	0xbca41003	-0.020027166
93	0xbbb82d58	-0.00562064
94	0x3d1a224d	0.037630368
95	0x3cda3be2	0.026639882
96	0x3c5a9ef4	0.013343561
97	0x3d0f69b3	0.035012912
98	0x3d2855f1	0.041097585
99	0x3c87f086	0.016594183
100	0x3cd5183a	0.026012529
101	0x3d23dca5	0.040005345
102	0x3bf55c08	0.0074877776
103	0xbc17cbb4	-0.009264875
104	0xbb00dd70	-0.0019663237
105	0xbc8cd3f3	-0.017190909
106	0xbb9e4098	-0.0048294775
107	0xbc055400	-0.008137703
108	0xbce2be13	-0.027678525
109	0x3cbb3c1a	0.022855807
110	0xbd019cab	-0.03164355
111	0xbb6edbd0	-0.0036446936
112	0xbcec81e0	-0.028870523
113	0xbc8e6573	-0.01738236
114	0x3c9911ba	0.01868521
115	0xbd000abb	-0.031260233
116	0xbc1ee480	-0.009698033
117	0xbc4b9f2c	-0.012428086
118	0x3cfe09a2	0.031010453
119	0xbae02560	-0.0017100982
120	0x3ba95268	0.0051672943
121	0xbc58e9ec	-0.013239365
122	0xbcac51ee	-0.02103516
123	0xbb5c9140	-0.0033655912
124	0x3ab34380	0.0013676733
125	0x3be432d8	0.006964069
126	0x3c90e0aa	0.017685253
127	0x3cc5d736	0.024150472

bn4.weight f4 [128]
0	0x3f807363	1.0035213
1	0x3f804748	1.0021753
2	0x3f8018b7	1.0007542
3	0x3f808593	1.0040764
4	0x3f80b242	1.00544
5	0x3f807e2d	1.0038506
6	0x3f807098	1.0034361
7	0x3f805a71	1.00276
8	0x3f80c950	1.0061436
9	0x3f80d113	1.0063804
10	0x3f807c6d	1.0037972
11	0x3f80043a	1.000129
12	0x3f803cd0	1.0018559
13	0x3f805b01	1.0027772
14	0x3f80b35e	1.0054739
15	0x3f80581f	1.0026892
16	0x3f80b16c	1.0054145
17	0x3f800b7e	1.0003507
18	0x3f805530	1.0025997
19	0x3f80e467	1.0069703
20	0x3f805012	1.0024436
21	0x3f808b89	1.0042583
22	0x3f80a03d	1.0048901
23	0x3f808b57	1.0042523
24	0x3f803d42	1.0018694
25	0x3f808380	1.0040131
26	0x3f80729d	1.0034977
27	0x3f809353	1.004496
28	0x3f802e3d	1.0014111
29	0x3f809443	1.0045246
30	0x3f8109e0	1.0081139
31	0x3f8077b0	1.0036526
32	0x3f808f7a	1.0043786
33	0x3f80463d	1.0021435
34	0x3f80d263	1.0064205
35	0x3f807322	1.0035136
36	0x3f80e32b	1.0069326
37	0x3f806133	1.0029663
38	0x3f809bc5	1.0047537
39	0x3f808422	1.0040324
40	0x3f8063bf	1.003044
41	0x3f80af20	1.0053444
42	0x3f80b654	1.0055642
43	0x3f80631c	1.0030246
44	0x3f80ab7d	1.0052334
45	0x3f8108b8	1.0080786
46	0x3f80420c	1.0020156
47	0x3f8070aa	1.0034382
48	0x3f80fd3f	1.0077285
49	0x3f804a34	1.0022645
50	0x3f809ab1	1.0047208
51	0x3f801b27	1.0008286
52	0x3f805a78	1.0027609
53	0x3f800ef3	1.0004562
54	0x3f809aaf	1.0047206
55	0x3f80a59f	1.0050544
56	0x3f80818b	1.0039533
57	0x3f804829	1.0022022
58	0x3f80a9fb	1.0051874
59	0x3f805c0a	1.0028088
60	0x3f805e2a	1.0028737
61	0x3f80be46	1.0058067
62	0x3f80736f	1.0035228
63	0x3f80f6e0	1.007534
64	0x3f811eb1	1.0087491
65	0x3f8062c0	1.0030136
66	0x3f804135	1.00199
67	0x3f80ed83	1.0072483
68	0x3f80962f	1.0045832
69	0x3f807922	1.0036967
70	0x3f8047fb	1.0021967
71	0x3f807020	1.0034218
72	0x3f8076ae	1.0036218
73	0x3f803b07	1.0018014
74	0x3f807871	1.0036756
75	0x3f807caa	1.0038044
76	0x3f80787d	1.003677
77	0x3f80ca12	1.0061667
78	0x3f80915d	1.0044361
79	0x3f801d28	1.0008898
80	0x3f809809	1.0046397
81	0x3f8106e7	1.0080231
82	0x3f80c551	1.0060216
83	0x3f80b043	1.0053791
84	0x3f8091ab	1.0044454
85	0x3f8043f6	1.002074
86	0x3f807a01	1.0037233
87	0x3f803cd7	1.0018567
88	0x3f80418d	1.0020005
89	0x3f80b38a	1.0054791
90	0x3f80b4d8	1.0055189
91	0x3f808c2a	1.0042775
92	0x3f809713	1.0046104
93	0x3f80992b	1.0046743
94	0x3f80a1c6	1.0049369
95	0x3f808c4a	1.0042813
96	0x3f808ba1	1.0042611
97	0x3f801e50	1.0009251
98	0x3f805707	1.0026559
99	0x3f80ae3d	1.0053173
100	0x3f80ba93	1.0056938
101	0x3f811137	1.0083379
102	0x3f80722a	1.003484
103	0x3f80634d	1.0030304
104	0x3f808d61	1.0043145
105	0x3f80a3e4	1.0050015
106	0x3f8068a8	1.0031939
107	0x3f80953c	1.0045543
108	0x3f808f50	1.0043736
109	0x3f802bdb	1.0013384
110	0x3f803ba3	1.00182
111	0x3f808d08	1.0043039
112	0x3f80736f	1.0035228
113	0x3f809882	1.0046542
114	0x3f805f04	1.0028996
115	0x3f80673c	1.0031505
116	0x3f807f78	1.00389
117	0x3f802f45	1.0014426
118	0x3f804eb2	1.0024016
119	0x3f8086c2	1.0041125
120	0x3f81022d	1.0078789
121	0x3f80b942	1.0056536
122	0x3f807c76	1.0037982
123	0x3f80245b	1.0011095
124	0x3f80866e	1.0041025
125	0x3f80b863	1.005627
126	0x3f809405	1.0045172
127	0x3f803d21	1.0018655

bn4.bias f4 [128]
0	0x39a2024a	0.00030900753
1	0x3a82d214	0.0009980821
2	0x37d06d1a	2.4846337e-05
3	0x3a41f43b	0.0007398759
4	0x3aa99d6d	0.0012940593
5	0x3ad70ded	0.0016407348
6	0x3a1e874a	0.00060473813
7	0x3a8ef53a	0.0010906823
8	0x3a9092a5	0.0011030032
9	0x3aa21778	0.0012366613
10	0x3a45a1d1	0.0007539066
11	0x3844afeb	4.6893878e-05
12	0xb92681b0	-0.00015879306
13	0x3a9b9f3f	0.001187302
14	0x3ac0c682	0.0014707597
15	0x3a90923f	0.0011029913
16	0x3ac3fb86	0.0014952279
17	0x3915e670	0.00014295592
18	0x3a51306e	0.0007979934
19	0x3adcaf4a	0.0016836908
20	0x3a9b1ca2	0.0011834095
21	0x3a6df87b	0.0009077859
22	0x3a9ee06c	0.0012121326
23	0x3a89bb06	0.0010508008
24	0x3a1dbf85	0.00060176133
25	0x3a3888c7	0.00070394244
26	0x3a7f6c37	0.00097436033
27	0x3ab9c489	0.0014172952
28	0xb84f8736	-4.947857e-05
29	0x3ac5e7e6	0.0015099018
30	0x3b010cd0	0.0019691475
31	0x3a2f410f	0.00066854147
32	0x3a577e89	0.00082204543
33	0x3a2ccca2	0.0006591772
34	0x3ad6ea0c	0.0016396656
35	0x3aafb42c	0.0013405136
36	0x3abb85af	0.0014306809
37	0x3a7f3945	0.0009736012
38	0x3a5344d0	0.0008059265
39	0x3a8ed232	0.0010896383
40	0x3a8118b5	0.0009849282
41	0x3aa671a0	0.0012698658
42	0x3afc5406	0.0019251115
43	0x3a9e96e0	0.0012099408
44	0x3adcd2a7	0.0016847447
45	0x3afadfe0	0.0019140206
46	0x3a336448	0.0006843251
47	0x3a9814e4	0.0011602906
48	0x3adfbc75	0.0017069714
49	0x3a5e432e	0.00084786385
50	0x3a994954	0.0011694827
51	0x398cdd06	0.00026867556
52	0x3a6c0c2e	0.00090045005
53	0x39fa8b7f	0.00047787649
54	0x3a96dff0	0.001151083
55	0x3a33a930	0.0006853519
56	0x3a07cb48	0.00051801326
57	0x3a0a7542	0.0005281755
58	0x3b113837	0.002215875
59	0x3a8bd20b	0.0010667456
60	0x3a87b677	0.0010354061
61	0x3a67db3e	0.00088446203
62	0x3a91144c	0.0011068671
63	0x3b139d27	0.002252409
64	0x3b18644b	0.0023253139
65	0x3a95b2d6	0.0011421095
66	0x398f7918	0.00027365307
67	0x3ae95bb5	0.001780382
68	0x3af10755	0.0018389026
69	0x39839bef	0.00025102447
70	0x39c178dd	0.0003690188
71	0x3ac0068f	0.0014650392
72	0x3a97438b	0.0011540515
73	0x39c84e4c	0.00038205308
74	0x3a86e4bd	0.0010291558
75	0x3a802b31	0.0009778497
76	0x3a71fa7d	0.0009230746
77	0x3afb435d	0.0019169856
78	0x3b040f5c	0.0020150756
79	0x39985dda	0.00029061624
80	0x3add4794	0.0016882294
81	0x3aeab365	0.0017906247
82	0x3ad4b684	0.001622871
83	0x3a31da88	0.0006784578
84	0x3a926a63	0.0011170622
85	0x395432ae	0.00020236775
86	0x3a3a9054	0.00071168435
87	0x3a2656a5	0.00063453085
88	0x39f90f22	0.00047504256
89	0x3aa8ea46	0.0012887202
90	0x3ade7929	0.0016973364
91	0x3ac34a88	0.0014899531
92	0x3a9b0c47	0.001182922
93	0x3ac48f0c	0.0014996245
94	0x3aa35de1	0.0012463891
95	0x3ae50cde	0.0017475148
96	0x3ad18c88	0.0015987316
97	0x398bf07e	0.00026691327
98	0x3a08c803	0.00052177923
99	0x3a951bc6	0.0011376075
100	0x3aa7f63e	0.0012814475
101	0x3b39ee66	0.0028370856
102	0x3a87ad6a	0.0010351364
103	0x3a856dfb	0.0010179871
104	0x3ab0d037	0.0013489787
105	0x3ac7bdf4	0.0015239106
106	0x3aac7657	0.0013157827
107	0x3ac96625	0.0015365524
108	0x3a875439	0.0010324783
109	0x39dacff3	0.00041735134
110	0x3a4ccfd8	0.00078129536
111	0x3a454741	0.0007525571
112	0x3a573384	0.00082092755
113	0x3a5d199d	0.00084342976
114	0x3adb5c1a	0.0016735822
115	0x3ad2cf6f	0.0016083549
116	0x3a988f20	0.0011639334
117	0xb7abb32d	-2.0468224e-05
118	0x37ca3bde	2.4108154e-05
119	0x3a57534d	0.0008214012
120	0x3acc6786	0.0015594817
121	0x3ac866e3	0.0015289452
122	0x3ad4d48c	0.001623766
123	0xb9d2d3cb	-0.0004021212
124	0x3a86f9db	0.0010297851
125	0x3b0ccfa4	0.0021486068
126	0x3a4440a5	0.00074864394
127	0x39c25066	0.00037062465
