oracle/train/iid/checkpoint/fmnist/ckpt_4_1.pth (torch, 888853 bytes, 44 tensors)

cnn1.weight f4 [16, 1, 3, 3]
0	0xbe0baa97	-0.13639294
1	0x3af3ef35	0.0018610718
2	0x3e455a1b	0.19272654
3	0xbd9e050f	-0.077158086
4	0xbe1f49a4	-0.15555435
5	0xbe896b57	-0.26839706
6	0xbdbf855c	-0.09351608
7	0x3ce994bb	0.028513303
8	0x3cd9076e	0.0264928
9	0xbd869152	-0.065706864
10	0xbd8aa730	-0.0677017
11	0x3e1235d5	0.14278348
12	0x3c897c6c	0.016782962
13	0x3b4ce748	0.0031265784
14	0x3d8b3964	0.06798056
15	0xbde284ca	-0.11060484
16	0xbd6cc03f	-0.057800528
17	0x3e1b2b62	0.15153268
18	0x3cdb7aa9	0.026791887
19	0x3d44d33f	0.048053022
20	0x3ce0b791	0.027431281
21	0x3b1c6fd2	0.002387036
22	0x3d3aa772	0.045569845
23	0x3e0e5b7f	0.1390209
24	0xbe0f7cb7	-0.14012419
25	0x3d29d55f	0.041463252
26	0xbce81772	-0.028331492
27	0x3cb8a78a	0.022540826
28	0xbe47f323	-0.19526343
29	0x3db767a7	0.08955317
30	0x3e9c3115	0.30506197
31	0x3a99713f	0.0011706724
32	0xbd56cfee	-0.05244439
33	0x3e14776d	0.14498682
34	0x3dfc090e	0.123064145
35	0x3df8f6fd	0.12156484
36	0xbdc7d1b3	-0.09756794
37	0xbd2beec9	-0.04197577
38	0xbdb31dc6	-0.08745913
39	0x3d7b7e94	0.06140001
40	0xbe4d4249	-0.20044817
41	0x3d313502	0.043263443
42	0x3c5667c4	0.013086263
43	0x3dee4926	0.11635046
44	0xbd93aea5	-0.07211045
45	0xbb210f9a	-0.002457595
46	0x3e0625a8	0.13100302
47	0xbd3f46b7	-0.0466983
48	0x3e09914b	0.13434331
49	0x3cc34918	0.023838565
50	0x3e384951	0.17996718
51	0xbdaea969	-0.08528406
52	0x3e03339a	0.12812653
53	0x3c9f9377	0.019479496
54	0x3d23ba2d	0.039972473
55	0xbdee38b7	-0.11631911
56	0xbe5a07a3	-0.21291976
57	0xbd7fd28d	-0.062456656
58	0xbd48a638	-0.048986644
59	0x3d661ff5	0.05618282
60	0x3d75907b	0.05995224
61	0xbdb1cd7b	-0.086817704
62	0x3e470e6f	0.194391
63	0xbe38bc14	-0.18040496
64	0x3e112d3d	0.14177413
65	0x3e180706	0.14846429
66	0xbe1b7ae0	-0.15183592
67	0x3df0d3eb	0.1175917
68	0x3dd52649	0.10407693
69	0x3dd4830c	0.10376558
70	0xbcf7b7d4	-0.030239023
71	0x3e24e4c0	0.16102886
72	0xbe097fc2	-0.13427642
73	0xbda6a677	-0.081372194
74	0xbe9a34c0	-0.3011837
75	0xbd948429	-0.0725177
76	0x3e562b1e	0.20914885
77	0x3e61d52d	0.22053976
78	0xbe4dbacf	-0.20090793
79	0x3c434a59	0.011919581
80	0xbdb618d6	-0.08891456
81	0x3dda36f2	0.10655011
82	0x3de1103e	0.10989426
83	0xbe6e47c7	-0.23269568
84	0xbd480fcd	-0.048843194
85	0x3d198f50	0.03749019
86	0x3a701fb7	0.00091599993
87	0xbe5263d2	-0.20545891
88	0x3db33e89	0.08752162
89	0xbd8d79e8	-0.069080174
90	0xbe00c0d7	-0.12573563
91	0xbdb89484	-0.09012702
92	0xbdfd3d17	-0.123651676
93	0x3e1a68db	0.15079062
94	0x3da5d7e4	0.080978185
95	0xbe753637	-0.23946463
96	0x3dcdeb92	0.10054697
97	0x3ccfd66f	0.025370805
98	0x3d599cd4	0.05312808
99	0xbd281e73	-0.041044664
100	0x3e2fdb46	0.1717349
101	0xbcf19590	-0.029490262
102	0x3db51a96	0.088429615
103	0xbe12d508	-0.14339077
104	0x3d697018	0.056991667
105	0x3e31b33b	0.17353527
106	0x3cd3ea8e	0.02586868
107	0x3cd83920	0.026394427
108	0x3d09f67d	0.033682335
109	0x3dcf6ae3	0.10127809
110	0xbddef1c5	-0.10885958
111	0x3df7d35a	0.12100859
112	0x3ce972d2	0.028497133
113	0xbdaae0ad	-0.08343635
114	0x3e07f544	0.13277155
115	0x3e161c7c	0.14659303
116	0xbde6f005	-0.11276249
117	0x3dafd872	0.085862055
118	0x3d75c12f	0.059998687
119	0xbe2c6a4c	-0.16837424
120	0x3d648f4d	0.055800725
121	0xbe01b9ab	-0.12668483
122	0xbdb2df83	-0.08734038
123	0xbd99b8aa	-0.07505925
124	0xbdba5116	-0.09097497
125	0xbeab503c	-0.3345965
126	0xbcee5c01	-0.029096605
127	0x3e3a38a7	0.18185674
128	0x3dd8bfa0	0.105834246
129	0x3d36aec1	0.044600252
130	0x3d2f8bd9	0.04285798
131	0xbcbe946a	-0.023264129
132	0xbd297d21	-0.041379098
133	0xbbe24e02	-0.006906272
134	0x3ba542a4	0.0050433446
135	0xbd96d086	-0.073639914
136	0xbd1d2b9b	-0.038371664
137	0x3b7a016c	0.003814782
138	0xbe16fbc6	-0.14744481
139	0x3d68e1a5	0.056855816
140	0xbd2a98b8	-0.04164955
141	0x3de1e8c9	0.11030728
142	0x3d9fe3b0	0.078071
143	0x3e0cc272	0.1374605

cnn1.bias f4 [16]
0	0xbe76b758	-0.24093378
1	0xbea6cd37	-0.32578442
2	0x3d9d4617	0.07679384
3	0x3e8b50cd	0.27210084
4	0xbe406833	-0.18789749
5	0xbe957e92	-0.29198128
6	0xbe0a5400	-0.13508606
7	0xbd7533ab	-0.059863728
8	0xbe0005c8	-0.12502205
9	0x3e6903e9	0.22755398
10	0xbd6b6a3a	-0.057474352
11	0x3d43fdc9	0.04784945
12	0xbe22c0c0	-0.15893841
13	0x3e5f0c0e	0.21781942
14	0xbe269344	-0.16267115
15	0x3e936ed7	0.28795502

bn1.weight f4 [16]
0	0x3f809eec	1.0048499
1	0x3f80b1fd	1.0054318
2	0x3f7f7bc1	0.9979821
3	0x3f7f7197	0.997827
4	0x3f8145e6	1.0099456
5	0x3f802000	1.0009766
6	0x3f817c74	1.0116105
7	0x3f7ee50a	0.99568236
8	0x3f800f87	1.0004739
9	0x3f8058ca	1.0027096
10	0x3f809059	1.0044051
11	0x3f7f1fb0	0.99657726
12	0x3f7e279a	0.9927918
13	0x3f80243a	1.0011055
14	0x3f7e0388	0.9922414
15	0x3f808619	1.0040923

bn1.bias f4 [16]
0	0x3ab9c618	0.0014173416
1	0x3ba37314	0.0049880836
2	0x39d5e9a9	0.00040800616
3	0xbac6a15d	-0.0015154291
4	0x3ad6d1b8	0.0016389405
5	0xba6e733d	-0.00090961513
6	0x3b40dc92	0.0029428345
7	0x3bdcf48b	0.006743019
8	0xba9e68a7	-0.0012085632
9	0x3abe2286	0.0014506138
10	0x3b633069	0.0034666306
11	0x3acd2a2a	0.0015652825
12	0x3a917104	0.0011096303
13	0xb7f4189e	-2.909853e-05
14	0x3b9e1e90	0.0048254207
15	0x3bb055a0	0.005381301

bn1.running_mean f4 [16]
0	0xbefa0b16	-0.48836583
1	0xbe915973	-0.28388557
2	0x3e219d0d	0.15782566
3	0x3f10f1e4	0.56619096
4	0xbea67f48	-0.32518983
5	0xbd35ae3f	-0.044355627
6	0xbe653a96	-0.2238563
7	0x3e1fb115	0.15594895
8	0xbeb68fc1	-0.3565655
9	0x3ddc47f7	0.10755914
10	0xbe111146	-0.14166746
11	0x3e60943d	0.21931548
12	0xbcebf60d	-0.02880385
13	0xbe0e5cf5	-0.13902648
14	0xbc9e9a26	-0.019360613
15	0x3ead3ad3	0.33833942

bn1.running_var f4 [16]
0	0x3e8c3804	0.27386487
1	0x3d58ca05	0.052927036
2	0x3d469581	0.04848242
3	0x3eb99086	0.36243075
4	0x3db24453	0.08704438
5	0x3e85b1a0	0.2611208
6	0x3d90cccb	0.07070311
7	0x3e83eefd	0.2576827
8	0x3e5e4095	0.21704324
9	0x3d914dfe	0.07094954
10	0x3db50bd4	0.08840147
11	0x3ded21bf	0.11578702
12	0x3e0e217e	0.13879964
13	0x3f10adbe	0.5651511
14	0x3dcccc38	0.09999889
15	0x3d23429a	0.039858438

cnn2.weight f4 [32, 16, 3, 3]
0	0xbd1b26fb	-0.03787897
1	0x3cdf1b50	0.027234703
2	0x3aabf7ae	0.0013120079
3	0x3d845649	0.0646177
4	0x3d2fdd92	0.042935915
5	0x3d412561	0.047154788
6	0x3db7a744	0.0896745
7	0xbda14752	-0.078749314
8	0x3ce0abe9	0.027425723
9	0xbd24fcf0	-0.040280282
10	0x3b83c652	0.0040214444
11	0x3d508e9f	0.050917264
12	0x3b8cbbc8	0.004294846
13	0xbd8f040a	-0.06983192
14	0x3db59ee0	0.088681936
15	0xbd737411	-0.05943686
16	0x3dc95f78	0.09832662
17	0x3d112bec	0.035442278
18	0x3cdd99b5	0.027050832
19	0xbc01431f	-0.007889538
20	0x3c212538	0.009835534
21	0x3db9fa66	0.09080963
22	0xbd97e7f0	-0.074172854
23	0x3b05c5ed	0.0020412162
24	0xbcacf88b	-0.021114608
25	0x3d62b44d	0.05534773
26	0x3d94edaa	0.07271893
27	0xbc6f0317	-0.014588139
28	0xbc98f087	-0.01866938
29	0x3d27c0b8	0.040955275
30	0x3d2e84be	0.04260706
31	0x3db1b0af	0.08676278
32	0xbd095810	-0.03353125
33	0xbd9c552a	-0.07633431
34	0xbaee2a46	-0.0018170557
35	0xbdaa1199	-0.08304138
36	0x3d8ac850	0.06776488
37	0xbd68d81d	-0.056846727
38	0x3d217314	0.039416388
39	0x3d850653	0.06495347
40	0xbd71f911	-0.05907542
41	0xbca4c229	-0.020112114
42	0xbcafe59c	-0.021471791
43	0xbcea796f	-0.028622357
44	0x3dae4de4	0.0851095
45	0xbb3752ba	-0.0027972893
46	0x3d831ffc	0.06402585
47	0xbd2d64d0	-0.04233247
48	0x3d6d8645	0.057989378
49	0xbcd2489b	-0.025669387
50	0xbc944331	-0.018098446
51	0xbdbc8838	-0.09205669
52	0x3dafb2df	0.08579039
53	0xbc816da9	-0.01579936
54	0xbc576ded	-0.013148767
55	0xbd97d576	-0.07413761
56	0xbe10ac01	-0.14128114
57	0xbd8c69b0	-0.06856096
58	0xbdafc271	-0.08582009
59	0x3d62f4dc	0.055409297
60	0xbbe6a04b	-0.0070381514
61	0x3d6a3271	0.05717701
62	0xbdc6a39a	-0.09699173
63	0xbd0e523a	-0.034746386
64	0xbd9acace	-0.07558213
65	0xbc825af3	-0.015912509
66	0xbd5d735d	-0.054065097
67	0xbbbc7eb2	-0.005752408
68	0x3dfd0285	0.12353996
69	0x3d932cb9	0.071862645
70	0x3da8d5b3	0.08243885
71	0x3ce54f3a	0.02799188
72	0xbd835788	-0.0641318
73	0xba888ea7	-0.001041849
74	0x3dc004d3	0.0937592
75	0x3cfb9085	0.03070856
76	0x3d4dead8	0.050272793
77	0x3cd50aad	0.026006067
78	0xbe0cc91d	-0.13748594
79	0xbe3940ff	-0.180912
80	0xbc9f6db5	-0.019461492
81	0x3d410ba0	0.047130227
82	0xbc53d8f7	-0.012930146
83	0x3d3bad97	0.045819845
84	0xbe1f91e6	-0.15583
85	0xbd38dc41	-0.045131925
86	0x3cb4a7e2	0.022052709
87	0x3d90fd3a	0.07079549
88	0x3d8ea78e	0.06965552
89	0xbcc33744	-0.023830064
90	0xbdf6c464	-0.12049177
91	0xbde1923d	-0.11014221
92	0xbd853489	-0.06504161
93	0x3e166f76	0.14690956
94	0x3d9ced26	0.0766242
95	0x3d1377d5	0.036002953
96	0xbd098252	-0.03357155
97	0xbd2b40d4	-0.04180987
98	0xbdd68482	-0.104744926
99	0x3cf2bb62	0.029630367
100	0x3c982216	0.018570941
101	0x3c40cd28	0.011767663
102	0x3da9165a	0.08256216
103	0xbc55d564	-0.013051365
104	0x3cc1f4da	0.023676325
105	0xbd9fe1c6	-0.07806735
106	0xbd5c627a	-0.053804852
107	0xbbfa1641	-0.0076320474
108	0x3d111b77	0.035426583
109	0x3a415f1c	0.0007376538
110	0x3d435960	0.047692657
111	0x3c130cbb	0.008975203
112	0xbdb63e14	-0.08898559
113	0x3d68d93d	0.0568478
114	0xbca1d616	-0.019755404
115	0xba8af707	-0.0010602184
116	0xbc9a8519	-0.018862294
117	0xbccd6d0e	-0.025076415
118	0x3d559a64	0.05214919
119	0xbc8f5184	-0.017494924
120	0x3d8dfbff	0.0693283
121	0xbd634931	-0.055489723
122	0xbcd5339d	-0.026025588
123	0xbcf54452	-0.029939804
124	0xb88dc20b	-6.759547e-05
125	0xbd4330f1	-0.047654096
126	0x3dd1d07f	0.102448456
127	0x3e2aa054	0.16662723
128	0x3de0517f	0.10953044
129	0x3d0487e1	0.032356147
130	0xbd8731a6	-0.066012666
131	0x3d651a7c	0.05593346
132	0x3c2ce4fc	0.010552641
133	0xbd122a19	-0.03568468
134	0xbd965675	-0.07340709
135	0x3dcfec17	0.101524524
136	0xbd7bede8	-0.061506182
137	0xbd64b39e	-0.05583536
138	0xbd968720	-0.07349992
139	0xbddc4fd3	-0.10757413
140	0xbccd4c32	-0.025060747
141	0xbdeeffcb	-0.116698824
142	0xbda71b30	-0.081594825
143	0xbdc04c21	-0.093895204
144	0x3ca8328e	0.020531919
145	0x3ce48d3a	0.027899373
146	0xbc74abbd	-0.014933524
147	0xbddd1a53	-0.107960366
148	0x3e1de3ae	0.15418884
149	0x3d1402b5	0.036135394
150	0x3c80bfbd	0.015716428
151	0xbdacaa9d	-0.084309794
152	0xbc93d520	-0.018045962
153	0x3cae1a45	0.02125276
154	0xb8450748	-4.697524e-05
155	0xbc2f3bc0	-0.010695398
156	0xbcc04e4c	-0.023474835
157	0x3c6f9d13	0.014624852
158	0x3d86851a	0.06568356
159	0xbd2ea5eb	-0.0426387
160	0xbd63fbe0	-0.05566013
161	0x3de35fe6	0.111022756
162	0xbcb8ba74	-0.022549845
163	0x3bba8d64	0.0056931246
164	0xbdf92c8f	-0.12166702
165	0x3aa9bed0	0.0012950543
166	0xbcd24bb5	-0.025670866
167	0x3d3a8764	0.045539275
168	0xbe3602ab	-0.17774455
169	0x3cc20b75	0.023687104
170	0x3c81da58	0.015851185
171	0x3d8112d3	0.063024186
172	0x3d55c3ee	0.052188806
173	0xbc12f176	-0.008968702
174	0x3d9b67ab	0.075881325
175	0xbcd334b2	-0.025781963
176	0xbd3d2381	-0.046176437
177	0x3da7bd3e	0.08190392
178	0xbcb33a80	-0.02187848
179	0x3da76a03	0.08174517
180	0x3d1cd3f6	0.03828808
181	0xbb642fbf	-0.0034818498
182	0x3a463b2c	0.0007561918
183	0x3bdbde08	0.006709818
184	0xbca28b98	-0.019841954
185	0xbd6aeb1c	-0.057353124
186	0x3da121e7	0.078677945
187	0x3d45d0f4	0.048294976
188	0xbd6080fe	-0.054810517
189	0x3c950029	0.018188553
190	0x3d5f9499	0.054585073
191	0x3c06abfe	0.008219717
192	0xbd20a6b7	-0.03922149
193	0xbd66131c	-0.056170568
194	0x3cc25ec2	0.023726825
195	0x3da21577	0.0791425
196	0x3c4ab5a3	0.012372407
197	0x3dc5275a	0.09626646
198	0xbc4b58d6	-0.012411317
199	0xbbac891e	-0.005265369
200	0xbd52e8cb	-0.05149154
201	0xbdb97250	-0.090550065
202	0xbd4a957b	-0.049458962
203	0xbc8ae9c1	-0.016957166
204	0x3d203297	0.039110746
205	0xbd055344	-0.03255011
206	0x3d8c21f7	0.06842416
207	0x3dd9eb94	0.10640636
208	0x3ddb408b	0.1070567
209	0x3e2872f9	0.16450109
210	0x3d5fe78c	0.05466418
211	0xbe08a94f	-0.13345836
212	0x3d3976e0	0.045279384
213	0xbbf5f1fe	-0.0075056544
214	0x3d88f42e	0.066871986
215	0xbe05ff4a	-0.13085666
216	0x3c6b7723	0.014371666
217	0x3d37b74a	0.044852532
218	0xbe17459b	-0.14772646
219	0x3d149130	0.036271274
220	0xbd273795	-0.04082449
221	0xbb908a57	-0.0044110226
222	0xb9b8d03a	-0.00035250356
223	0xbdbcc1e7	-0.092166714
224	0x3d3685eb	0.044561308
225	0x3d854d1f	0.0650885
226	0xbdad738f	-0.08469307
227	0xbd7e8e63	-0.06214751
228	0xbca71ef1	-0.020400496
229	0xbdddb419	-0.108253665
230	0x3d04f262	0.032457717
231	0x3c86b37d	0.016443009
232	0x3d8e3a41	0.06944705
233	0x3d121937	0.035668578
234	0x3b097983	0.0020976968
235	0xbc3d2cd9	-0.011546337
236	0xbd552803	-0.05204011
237	0x3b4da874	0.0031380923
238	0xbca59824	-0.020214148
239	0x3ca16e17	0.019705815
240	0xbe2c3834	-0.16818315
241	0x3e0e87c3	0.13918976
242	0x3bd2b656	0.0064304275
243	0xbb68d7d5	-0.0035529037
244	0x3d682c7d	0.056683052
245	0xbdaa0fec	-0.08303818
246	0xbd03ad86	-0.032147907
247	0x3d8f725e	0.07004236
248	0xbda966f9	-0.082715936
249	0x3d9765ce	0.073924646
250	0x3d8a9b8e	0.06767951
251	0x3d9de367	0.07709389
252	0x3c0574bb	0.0081455065
253	0xbd8e2aec	-0.069417804
254	0xbd4c12c1	-0.049822573
255	0xbd5b38da	-0.053521015

cnn2.bias f4 [32]
0	0xbd8d2697	-0.06892126
1	0xbda1ce79	-0.0790071
2	0xbda84e84	-0.08218101
3	0x3cdaf581	0.026728394
4	0xbd99249f	-0.07477688
5	0x3c71ab9f	0.01475039
6	0x3da81d61	0.082087286
7	0xbbb2d431	-0.005457424
8	0xbbe6702d	-0.0070324154
9	0xbaa37c7b	-0.0012473011
10	0x3d8b4825	0.0680087
11	0xbd3f980f	-0.046775874
12	0x3d4e3a48	0.05034855
13	0x3ca5eb65	0.020253846
14	0x3c8b5076	0.01700614
15	0x3c922218	0.017838523
16	0xbda05e4c	-0.07830486
17	0xbd59c4e4	-0.053166285
18	0x3d92855d	0.07154343
19	0xbd63201d	-0.055450547
20	0x3d0445b8	0.03229305
21	0x3d66c487	0.056339767
22	0x3c91167f	0.017710922
23	0xbd3adf75	-0.04562326
24	0x3d8062f1	0.062688716
25	0xbd9d9642	-0.07694675
26	0xbc7784d5	-0.015107353
27	0x3c82ead3	0.015981114
28	0x3b9ed214	0.0048468206
29	0x3d8690d1	0.0657059
30	0xbbe125e1	-0.0068709706
31	0xbd8d0e70	-0.06887519

bn2.weight f4 [32]
0	0x3f7fe770	0.9996252
1	0x3f7eaad7	0.9947943
2	0x3f7f8646	0.9981426
3	0x3f80882c	1.0041556
4	0x3f800813	1.0002464
5	0x3f7fe969	0.9996553
6	0x3f7f625e	0.9975947
7	0x3f805b48	1.0027857
8	0x3f7f2b4c	0.9967544
9	0x3f7fac62	0.9987241
10	0x3f7ff6da	0.9998604
11	0x3f808eee	1.0043619
12	0x3f8094aa	1.0045369
13	0x3f800d85	1.0004126
14	0x3f8046e5	1.0021635
15	0x3f80d430	1.0064754
16	0x3f803126	1.0014999
17	0x3f7e80c0	0.99415207
18	0x3f800190	1.0000477
19	0x3f7fc43d	0.9990881
20	0x3f80523c	1.0025096
21	0x3f7ffcc3	0.9999506
22	0x3f804709	1.0021678
23	0x3f7d5aa2	0.9896642
24	0x3f7f2f79	0.9968181
25	0x3f806285	1.0030066
26	0x3f7fd151	0.99928766
27	0x3f807f60	1.0038872
28	0x3f8029d9	1.0012771
29	0x3f7ffeff	0.9999847
30	0x3f8043c7	1.0020684
31	0x3f804019	1.0019561

bn2.bias f4 [32]
0	0x3980e4b3	0.00024584457
1	0xb9eac404	-0.00044778
2	0x399f28ad	0.0003035715
3	0x3b464790	0.0030255057
4	0x39b3de6d	0.0003430726
5	0x3aa41866	0.0012519478
6	0xb9ba5e3e	-0.000355469
7	0x3b78f459	0.003798744
8	0x3b0c132d	0.0021373734
9	0xba02a3ae	-0.00049834966
10	0xb8ff8600	-0.00012184307
11	0x3b187322	0.0023261984
12	0x3b1d3a4b	0.0023991044
13	0x3a8a38f5	0.0010545539
14	0x3b0d2951	0.002153952
15	0x3b371619	0.0027936755
16	0x399d2890	0.00029975595
17	0x3a698e3e	0.00089094404
18	0x3aa95a1c	0.0012920531
19	0x3a2b3bb6	0.000653203
20	0x3b78db32	0.0037972447
21	0x397dfabb	0.00024221365
22	0xb9f1fe9d	-0.00046156804
23	0x3a979c3a	0.0011566945
24	0xba8e03cc	-0.0010834872
25	0x3b6940af	0.0035591533
26	0xbb1c1853	-0.002381821
27	0x3b16fd03	0.002303899
28	0x3b0ee99f	0.002180673
29	0x39b54c02	0.0003457964
30	0x39c81503	0.00038162628
31	0xb8cbb41e	-9.713344e-05

bn2.running_mean f4 [32]
0	0xbe68c40c	-0.22731036
1	0x3e07a5ab	0.13246791
2	0x3e6d876f	0.23196195
3	0x3cb742ef	0.022370784
4	0xbef9cac3	-0.48787507
5	0xbd002e3f	-0.031294104
6	0xbd48f312	-0.049059935
7	0x3e4053df	0.18781994
8	0x3ee57728	0.44817472
9	0xbebf9241	-0.3741627
10	0x3deaf0ca	0.11471708
11	0x3e53a0b4	0.20666772
12	0x3e59af16	0.21258196
13	0xbebb236a	-0.36550456
14	0xbe105157	-0.14093529
15	0xbeae3564	-0.3402511
16	0xbeb55295	-0.35414568
17	0xbd7c308d	-0.06156974
18	0x3db80a70	0.08986366
19	0xbf166e15	-0.5876172
20	0x3f0ce7e0	0.55041313
21	0xbce871d3	-0.028374588
22	0xbf1d80cc	-0.61524653
23	0x3e1f8ed5	0.1558183
24	0x3e05f78e	0.13082716
25	0x3d218f2d	0.039443184
26	0xbeaba135	-0.3352143
27	0xbee990ff	-0.45618436
28	0xbba90568	-0.005158115
29	0x3d257a58	0.04039988
30	0x3e8c436b	0.27395186
31	0xbe80909a	-0.25110322

bn2.running_var f4 [32]
0	0x3ec17fb5	0.37792745
1	0x3e87a333	0.264917
2	0x3f340f27	0.7033562
3	0x3f166e10	0.5876169
4	0x3e5922b4	0.21204644
5	0x3e74b1e4	0.23895985
6	0x3e3f96e6	0.18709907
7	0x3e9889b2	0.29792553
8	0x3ef37946	0.47553462
9	0x3eee8fc9	0.46594074
10	0x3dec0819	0.11524982
11	0x3eff5b63	0.4987441
12	0x3ea8ca13	0.3296667
13	0x3e42df73	0.19030552
14	0x3f00f818	0.5037856
15	0x3df2a504	0.118478805
16	0x3dfb2944	0.1226373
17	0x3f11a460	0.5689144
18	0x3dd728b3	0.1050581
19	0x3eaad42b	0.33364996
20	0x3ef72304	0.48268902
21	0x3df56233	0.11981621
22	0x3f4db656	0.8035635
23	0x3df35d94	0.11883083
24	0x3dba0983	0.090838455
25	0x3e14a8e2	0.14517549
26	0x3ebc9348	0.36831117
27	0x3fafe690	1.3742237
28	0x3da0a9c1	0.07844878
29	0x3d90a6e1	0.070630796
30	0x3e2854e6	0.16438636
31	0x3e1566b8	0.14589965

cnn3.weight f4 [64, 32, 3, 3]
0	0x3d31df04	0.043425575
1	0x3d83e58d	0.06440268
2	0xbd8ad2e4	-0.067785054
3	0x3cdd8e01	0.027045252
4	0x3d27173c	0.040793642
5	0x3cb2e693	0.021838462
6	0xbd7d705c	-0.061874732
7	0xbc8428e0	-0.016132772
8	0xbd0d64a0	-0.03451979
9	0x3c9aa9bd	0.018879766
10	0xbd927835	-0.07151834
11	0x3c5f9c86	0.013648158
12	0xbdd2f3ed	-0.103004314
13	0x3c585e1b	0.01320603
14	0x3c0671a0	0.008205801
15	0x3d9632c0	0.073338985
16	0xbcc811c5	-0.024422536
17	0x3cd6c4b2	0.026216839
18	0xbc545f22	-0.012962135
19	0x3c19c7d1	0.009386019
20	0x3da35258	0.0797469
21	0x3a3e497a	0.00072588737
22	0x3dc4d70a	0.09611328
23	0xbb40589f	-0.0029349697
24	0x3bbbeb46	0.005734834
25	0xbb39798c	-0.0028301207
26	0x3d104fe6	0.035232447
27	0x3d2cdf5e	0.042205207
28	0xbd78f4d0	-0.060780346
29	0xbd6db541	-0.058034185
30	0xbbfe285b	-0.0077562756
31	0xbd334a0d	-0.043771792
32	0x3d51c036	0.051208697
33	0x3d1a9af4	0.03774543
34	0xbdbc6a58	-0.09199971
35	0xbcbec556	-0.023287456
36	0x3dd2ffe9	0.10302717
37	0xbc9b6bc4	-0.018972285
38	0x3dc119fa	0.09428783
39	0xbd294610	-0.041326582
40	0xbd18da17	-0.03731736
41	0x3b007f6d	0.0019607202
42	0x39d8af82	0.00041329494
43	0x3c8e118f	0.017342357
44	0x3d4ed2b6	0.05049392
45	0xbc50ad98	-0.0127367005
46	0xbce589dd	-0.02801984
47	0x3ce35757	0.027751608
48	0x3d393b88	0.04522279
49	0xbb9ffcea	-0.0048824446
50	0xbdc1f618	-0.09470767
51	0xbce8b7d0	-0.028407961
52	0xbd95ece6	-0.073205754
53	0x3ccb29b2	0.024800155
54	0x3ca5e12c	0.020248972
55	0x3d238170	0.039918363
56	0x3d16d958	0.03682837
57	0xbca744f6	-0.020418625
58	0xbbd75f94	-0.006572673
59	0xbd97a822	-0.07405116
60	0x3d75746d	0.059925485
61	0xbcbf4c52	-0.023351822
62	0xbc3b9be2	-0.01145074
63	0x3c92780f	0.017879514
64	0x3c126c04	0.008936886
65	0x3d619fd0	0.05508405
66	0x3d44ee64	0.04807891
67	0xbc6364a1	-0.013878972
68	0xbca3f979	-0.020016419
69	0x3c0f5309	0.0087478245
70	0xbda438c0	-0.08018637
71	0xbd7fa55d	-0.062413562
72	0xbd3b0d7d	-0.04566716
73	0xbdb3b102	-0.08773996
74	0x3c1f482d	0.009721798
75	0x3b61ce98	0.0034455415
76	0xbd45c191	-0.048280302
77	0x3d7fcfb0	0.062453926
78	0xbba9f7ce	-0.0051870113
79	0x3c605bfa	0.013693804
80	0x3d5ebd35	0.05437966
81	0xbd4cdaab	-0.050013226
82	0xbdbbc796	-0.09168927
83	0xbd4de08f	-0.050262984
84	0x3db2f7dc	0.08738682
85	0xbd5d1fb1	-0.0539853
86	0xbc2425d1	-0.010018782
87	0x3dcaef3a	0.0990891
88	0xbc6efc10	-0.014586464
89	0xbd20b681	-0.03923655
90	0xbcef5e41	-0.029219748
91	0x3d5b2e03	0.053510677
92	0x3d2512aa	0.040301003
93	0x3d4c7eb0	0.049925506
94	0xbdb21071	-0.08694542
95	0xba82e58e	-0.0009986626
96	0xbd429009	-0.047500644
97	0x3b705512	0.00366718
98	0x3d8b6561	0.06806446
99	0x3d0ab158	0.033860534
100	0x3cecb7c8	0.028896227
101	0x3d30052c	0.042973682
102	0xbb4857a7	-0.0030569823
103	0x3d6b7058	0.057480186
104	0x3d3b431d	0.0457183
105	0xbd4944ad	-0.04913776
106	0xbda9c001	-0.08288575
107	0x3c2abb7b	0.010420675
108	0x3d305a70	0.043054998
109	0xbc7da40d	-0.015481007
110	0xbc6f072a	-0.01458911
111	0x3d62aeb8	0.055342406
112	0xbc8b8433	-0.017030811
113	0xbc9e5eb1	-0.019332262
114	0x3d31151c	0.043233022
115	0xbcb57e15	-0.022154847
116	0x3cd7d3e8	0.026346162
117	0xbc81d803	-0.015850073
118	0xbb1e6e39	-0.0024174585
119	0x3d1decb6	0.038555823
120	0x3d44b354	0.048022583
121	0xbd56e50b	-0.052464526
122	0x3d1f56c0	0.03890109
123	0x3cff0da6	0.031134438
124	0x3d8b702b	0.06808504
125	0xbdaca4b7	-0.08429854
126	0xbd4d6953	-0.050149273
127	0xbd9bceb3	-0.07607784
128	0xbd427b9c	-0.047481164
129	0x3b823d5f	0.003974601
130	0x3db5bfa1	0.08874441
131	0xbd4caae3	-0.049967658
132	0xbd2cd941	-0.042199377
133	0xbd613032	-0.054977603
134	0x3c2ac08d	0.010421884
135	0x3d3f087c	0.04663895
136	0xbd787f85	-0.060668487
137	0xbc3904db	-0.011292662
138	0x390822b1	0.00012982894
139	0x3b8be701	0.004269481
140	0xbc94d743	-0.018169051
141	0x38fad59f	0.00011960719
142	0xbc857b7f	-0.01629424
143	0x3c7b565b	0.015340413
144	0x3ca00eb1	0.019538255
145	0xbd2c351e	-0.042042844
146	0x3da09769	0.07841379
147	0x3dcd720c	0.10031518
148	0xbca89c24	-0.020582266
149	0x3d321fa9	0.043487225
150	0x3b9ec967	0.0048457864
151	0x3da4fead	0.08056388
152	0xbcad6717	-0.021167321
153	0x3c63d15f	0.013904898
154	0x3cfda144	0.030960687
155	0x3d91ad68	0.07113153
156	0xbb9b4b00	-0.0047391653
157	0xbc5b1e42	-0.013373913
158	0xbbeeb703	-0.0072850003
159	0x3c938153	0.018006003
160	0xbb8b4b58	-0.004250925
161	0xbc385402	-0.011250498
162	0x3d3494da	0.04408727
163	0x3dc95451	0.09830535
164	0xbdc876c1	-0.097882755
165	0xbdd23d5d	-0.1026561
166	0xbc6a4f3c	-0.0143011175
167	0xbca981a3	-0.020691698
168	0x3de4d218	0.11172885
169	0xbd24304a	-0.040085115
170	0x3b727ae3	0.0036999516
171	0x3d929b9f	0.071585886
172	0xbac13f1b	-0.0014743538
173	0x3b5264e7	0.00321036
174	0xbdb8007c	-0.089844674
175	0x3d3bfcd3	0.04589541
176	0xbd9848d3	-0.07435765
177	0x3ca0f599	0.01964836
178	0x3c168f60	0.009189457
179	0xbd8f81ca	-0.07007177
180	0x3da032ca	0.07822187
181	0xbd43fbca	-0.047847547
182	0xbd3a19b4	-0.04543467
183	0x3dc7d0fc	0.097566575
184	0xbcc7c006	-0.024383556
185	0xbc93c7e0	-0.018039644
186	0x3af3d0e7	0.0018601686
187	0x3ca7ec7c	0.020498507
188	0x3cde5753	0.027141249
189	0x3b88ae1e	0.004171147
190	0x3c6bd506	0.01439405
191	0xbdb84b5d	-0.089987494
192	0xbb62e265	-0.0034619805
193	0xbd47415a	-0.04864631
194	0x3d4c6745	0.049903173
195	0xbb76d8e1	-0.003766589
196	0xbe105ef5	-0.14098723
197	0x3d74c2b8	0.05975601
198	0x3c10de42	0.008842053
199	0xbd5dc0f5	-0.054139096
200	0xbcc295e8	-0.023753121
201	0xbd4b4f4a	-0.049636163
202	0xbd4407b6	-0.047858916
203	0x3de01384	0.10941222
204	0x3d4523a6	0.0481297
205	0xbcdc40d5	-0.026886383
206	0xbcde7df5	-0.02715967
207	0xbdd7265d	-0.10505364
208	0x3c9dd387	0.019265903
209	0x3d43eb9f	0.047832128
210	0x3d6093a2	0.054828294
211	0xbd87f8d4	-0.06639257
212	0x3b7f99e0	0.0039001629
213	0xbcaaf94f	-0.020870833
214	0xbd281e80	-0.041044712
215	0x3c41631e	0.011803417
216	0xbda12f26	-0.07870321
217	0x3c50ebac	0.012751501
218	0xbcbf06c9	-0.023318665
219	0xbbfca984	-0.0077106375
220	0xbcac8f95	-0.021064559
221	0xbcb8e4bc	-0.022570007
222	0xbcfb181f	-0.03065115
223	0xbd327d26	-0.043576382
224	0x3d89cd21	0.06728578
225	0xbc9d38b5	-0.01919208
226	0x3d349a90	0.044092715
227	0x3c1ad946	0.009451216
228	0x3dda2893	0.1065227
229	0x3d9c081f	0.076187365
230	0x3e0644c2	0.13112167
231	0x3d347709	0.044058833
232	0x39d7e30e	0.00041177165
233	0xbd9cb891	-0.07652391
234	0x3ccfee87	0.025382293
235	0x3c256143	0.01009399
236	0xbd308bf5	-0.043102223
237	0x3d067d36	0.032834254
238	0x3c88ba3f	0.016690372
239	0xbd26d410	-0.040729582
240	0x3d0533a0	0.032519937
241	0x3cd4a26d	0.025956357
242	0x3d60fd04	0.054928795
243	0x3d62f7df	0.05541217
244	0xbd3369ec	-0.043802187
245	0x3d5dd54b	0.05415849
246	0xbc3a71ad	-0.0113796415
247	0x3d2f5a69	0.04281083
248	0xbd8d324d	-0.0689436
249	0x3d9b040e	0.07569133
250	0x3db8a581	0.09015942
251	0xbd33d6d3	-0.043906044
252	0xbd8617c9	-0.065475054
253	0x3c4d87b7	0.012544564
254	0xbb85c1e6	-0.0040819524
255	0xbd3b2577	-0.045690026

cnn3.bias f4 [64]
0	0x3cd2202e	0.02565011
1	0x3d579433	0.05263157
2	0xbd25f420	-0.04051602
3	0xbcb02d9c	-0.021506123
4	0xbc8c8570	-0.017153472
5	0xbc935246	-0.017983567
6	0x3d6a13ab	0.057147663
7	0xbd5cbeaa	-0.05389277
8	0xbcea8092	-0.02862576
9	0xbcc010b0	-0.023445457
10	0x3bb49498	0.005510878
11	0x3cbe0362	0.023194972
12	0x3d2e32ef	0.042529043
13	0x3c2220dc	0.00989553
14	0xbd28e075	-0.041229684
15	0x3cc26cb6	0.023733478
16	0x3d6a8275	0.05725332
17	0xbc2bedd4	-0.010493714
18	0xbcfe6691	-0.031054767
19	0x3d42cd4f	0.04755908
20	0x3c79955c	0.015233364
21	0xb998cbf2	-0.0002914365
22	0xbcd1aa66	-0.025593948
23	0x3c4b2f34	0.012401391
24	0xbc899a9a	-0.016797353
25	0x3c8fc96a	0.017552096
26	0xbcfb2987	-0.03065945
27	0x3c6def0c	0.014522325
28	0x3c826266	0.01591606
29	0xbcd5c52c	-0.026094995
30	0x3c978ec6	0.018500697
31	0xbc60486c	-0.013689142
32	0x3cdefd66	0.02722044
33	0xbd308849	-0.04309872
34	0xba4f983f	-0.000791911
35	0x3caa78a6	0.020809483
36	0xbc89ac9a	-0.016805936
37	0x3d00cc15	0.031444628
38	0x3bdb8a58	0.0066998415
39	0x3ce32426	0.027727198
40	0xbcb6bb7e	-0.0223062
41	0xbd6dfd2f	-0.058102783
42	0x3d4beddd	0.04978739
43	0xbcdb254e	-0.026751187
44	0xbc97202c	-0.018447958
45	0x3c2d039c	0.010559943
46	0xbc84febc	-0.016234748
47	0x3d6f2ef5	0.05839439
48	0x3d522567	0.0513052
49	0x3c737064	0.014858339
50	0xbd1803c1	-0.037112955
51	0x3d60ab39	0.05485079
52	0xbb8cd2d8	-0.0042975955
53	0x3d0d5e0b	0.034513514
54	0xbb2f7d35	-0.002677751
55	0x3d2606b7	0.040533748
56	0x3a66f30d	0.0008810021
57	0x3c35b2d4	0.011089999
58	0x3c83eaae	0.016103115
59	0xbc7cc92c	-0.0154288225
60	0x3cd5e616	0.02611069
61	0x3d13d28b	0.03608946
62	0x3cae8ea2	0.021308247
63	0xbcf4060e	-0.029788043

bn3.weight f4 [64]
0	0x3f7f7076	0.99780977
1	0x3f7ff64d	0.999852
2	0x3f7f59db	0.99746484
3	0x3f7fb69f	0.9988803
4	0x3f7fa1a0	0.99855995
5	0x3f7fbb11	0.99894816
6	0x3f8053bd	1.0025555
7	0x3f807191	1.0034658
8	0x3f8047ca	1.0021908
9	0x3f8031f3	1.0015243
10	0x3f8026f7	1.0011891
11	0x3f80081d	1.0002476
12	0x3f7ebfce	0.9951142
13	0x3f7ffe78	0.99997663
14	0x3f7ff9d9	0.9999061
15	0x3f80089d	1.0002629
16	0x3f7fe01e	0.9995135
17	0x3f7e664b	0.99374837
18	0x3f8016f3	1.0007004
19	0x3f802eb9	1.0014259
20	0x3f800a80	1.0003204
21	0x3f7fe576	0.99959505
22	0x3f800692	1.0002005
23	0x3f7fc76a	0.99913657
24	0x3f7fc3e9	0.9990831
25	0x3f7f211e	0.9965991
26	0x3f80439e	1.0020635
27	0x3f7faba0	0.99871254
28	0x3f7fddb7	0.99947685
29	0x3f801f06	1.0009468
30	0x3f7f4b09	0.9972387
31	0x3f7fa93b	0.998676
32	0x3f7f59f8	0.99746656
33	0x3f7feab8	0.9996753
34	0x3f803502	1.0016177
35	0x3f7ebf9f	0.9951114
36	0x3f808279	1.0039817
37	0x3f805ace	1.0027711
38	0x3f801742	1.0007098
39	0x3f8028b0	1.0012417
40	0x3f806810	1.0031757
41	0x3f800104	1.000031
42	0x3f7fa2f4	0.9985802
43	0x3f7ffd59	0.9999595
44	0x3f7f9c72	0.9984809
45	0x3f8013d2	1.0006049
46	0x3f803888	1.0017252
47	0x3f80563b	1.0026315
48	0x3f802f05	1.0014349
49	0x3f800e00	1.0004272
50	0x3f8023df	1.0010947
51	0x3f804ae3	1.0022854
52	0x3f7ffcd6	0.9999517
53	0x3f8007f7	1.0002431
54	0x3f802124	1.0010114
55	0x3f7effe7	0.99609226
56	0x3f7ff0e2	0.99976933
57	0x3f801604	1.0006719
58	0x3f80d4a4	1.0064893
59	0x3f801bdb	1.0008501
60	0x3f8084b9	1.0040504
61	0x3f8028bb	1.001243
62	0x3f7f7395	0.9978574
63	0x3f7eec21	0.99579054

bn3.bias f4 [64]
0	0xb763d6a9	-1.3580234e-05
1	0xba992149	-0.0011682893
2	0xba85da5c	-0.0010212171
3	0xb993df75	-0.00028204513
4	0xba9072fe	-0.0011020598
5	0x38d96e29	0.00010367885
6	0x3abeb916	0.001455101
7	0x3ac61395	0.0015112037
8	0xb979d287	-0.00023824918
9	0xb9f7b6f3	-0.0004724782
10	0x3adfc9a1	0.001707364
11	0xb95935fd	-0.00020714845
12	0xbaf74600	-0.0018865466
13	0xb81fddc1	-3.811508e-05
14	0x39bd7592	0.00036136486
15	0x38b8e204	8.8159024e-05
16	0xbaa85b19	-0.0012844532
17	0xba373a8c	-0.000698962
18	0xba0411a4	-0.0005038029
19	0x37264ca9	9.91222e-06
20	0x3a3ce1a4	0.0007205254
21	0xba12f814	-0.00056064245
22	0xb858e3a6	-5.1710427e-05
23	0x39b27e32	0.00034044828
24	0x3a3d4c23	0.0007221123
25	0xb9ff529e	-0.00048698945
26	0x3a2f5c1b	0.0006689445
27	0xba0545a5	-0.0005083925
28	0xbab1ba11	-0.001355948
29	0xb9a2cc06	-0.00031051057
30	0xba84deaf	-0.0010137166
31	0xba653c28	-0.0008744621
32	0x39790a23	0.00023750267
33	0x386f2c20	5.7023135e-05
34	0xb97daa27	-0.00024191347
35	0xba973465	-0.0011536
36	0x3ac888ec	0.0015299595
37	0x3a85dfa2	0.0010213742
38	0x3a59e17f	0.00083114946
39	0x3a9b3452	0.0011841154
40	0x39a24f71	0.00030958236
41	0x39cb083f	0.0003872532
42	0xb9a1fcf6	-0.00030896784
43	0x39cca62d	0.00039033723
44	0xb99f5e40	-0.00030397065
45	0x38cb5ed3	9.697457e-05
46	0x3a5d64b4	0.0008445487
47	0x3ad93e6b	0.0016574388
48	0x3b017e10	0.0019758977
49	0xb9d4c988	-0.00040585943
50	0x39ce2a40	0.0003932286
51	0x3a9f397d	0.001214787
52	0x393ee135	0.00018203708
53	0xba6530ef	-0.00087429484
54	0xb7e4c326	-2.7270591e-05
55	0xba1fce27	-0.0006096088
56	0xb9ac8f8d	-0.0003291335
57	0x3a9e2cdd	0.0012067814
58	0x3b1a62a2	0.0023557325
59	0xb8ca5143	-9.647247e-05
60	0x3a439e20	0.0007462222
61	0x39ff7773	0.00048726387
62	0xb8edf858	-0.00011347298
63	0xbb2380a6	-0.0024948507

bn3.running_mean f4 [64]
0	0x3e5fa12b	0.21838824
1	0xbf044296	-0.516641
2	0x3da526f2	0.08064069
3	0xbea0915f	-0.3136091
4	0xbee0844e	-0.4385094
5	0x3dc7cdf8	0.09756082
6	0x3ccd5373	0.025064206
7	0x3cdfdcc5	0.02732695
8	0xbdf8788e	-0.12132369
9	0xbe7fe5cc	-0.24990004
10	0x3e8394c8	0.2569945
11	0xbe97c928	-0.29645658
12	0x3e9fc3f7	0.31204197
13	0xbf27b80f	-0.65515226
14	0x3ea06533	0.3132721
15	0x3e9c6a74	0.30549967
16	0xbe783060	-0.24237204
17	0x3f33ce2c	0.7023647
18	0xbf29fda3	-0.66402644
19	0xbdbeb1e0	-0.09311271
20	0x3cad306a	0.02114125
21	0xbeca1330	-0.39467764
22	0xbd4951f1	-0.04915041
23	0x3d0cd619	0.034383867
24	0x3e1b2aba	0.15153018
25	0x3ece1b45	0.4025518
26	0xbe079494	-0.13240272
27	0x3edb5636	0.4283921
28	0x3ef096e1	0.4699011
29	0xbe544b86	-0.20731935
30	0x3ed71e1d	0.42015162
31	0xbeb77b73	-0.35836372
32	0x3ed2a9f0	0.41145277
33	0xbe25ff0d	-0.16210575
34	0x3c0627f8	0.00818824
35	0x3e7bc724	0.24587685
36	0xbd0b4bb0	-0.034007728
37	0xbe7c9396	-0.24665675
38	0xbdfd2aac	-0.12361655
39	0x3f00a089	0.5024496
40	0x3edfc0ad	0.43701687
41	0xbea228cb	-0.31671748
42	0x3e980317	0.29689857
43	0x3e83dd68	0.25754857
44	0xbe393ad8	-0.18088853
45	0xbddd97f8	-0.10820001
46	0xbde43dfa	-0.111446336
47	0xbe9923ab	-0.29910025
48	0x3e9a0049	0.30078343
49	0x3ca9d9d5	0.020733753
50	0x3d8423cd	0.06452141
51	0xbde6f414	-0.11277023
52	0xbe9c4b40	-0.3052616
53	0xbdb77770	-0.08958328
54	0xbd8d4bde	-0.06899236
55	0x3dbe99af	0.093066566
56	0xbeccd282	-0.40004355
57	0xbf2bf8b2	-0.67176354
58	0x3ef0f198	0.4705932
59	0xbdd87449	-0.10569055
60	0xba8acc18	-0.0010589389
61	0xbea6771a	-0.32512742
62	0x3d2cd46c	0.04219477
63	0xbe3674ba	-0.17817965

bn3.running_var f4 [64]
0	0x3e744b5a	0.2385687
1	0x3e77fc09	0.24217238
2	0x3f016068	0.5053773
3	0x3e650b51	0.22367598
4	0x3e4d5575	0.2005213
5	0x3e3005a6	0.17189655
6	0x3e3dec35	0.18547137
7	0x3e662c00	0.22477722
8	0x3e582367	0.21107255
9	0x3e2a6609	0.16640486
10	0x3e862bf6	0.26205415
11	0x3ead8d5d	0.33896914
12	0x3f1d315d	0.6140345
13	0x3e9f16c3	0.31072053
14	0x3ef289fa	0.47370893
15	0x3ebb0266	0.36525267
16	0x3e939e40	0.28831673
17	0x3ebf84ad	0.3740591
18	0x3ed34ef3	0.4127117
19	0x3e273f84	0.16332823
20	0x3e5af217	0.21381412
21	0x3e4bb3d5	0.19892819
22	0x3e9d2165	0.3068954
23	0x3f079ec4	0.5297663
24	0x3f0c9db6	0.5492815
25	0x3f5a8449	0.853581
26	0x3e8e38a1	0.2777758
27	0x3e48e644	0.1961909
28	0x3eb52e61	0.35386947
29	0x3e3f40f3	0.1867712
30	0x3f43c140	0.7646675
31	0x3e6f542f	0.23371957
32	0x3e953601	0.29142764
33	0x3e6813dc	0.22663826
34	0x3e685205	0.22687538
35	0x3ea928da	0.3303898
36	0x3ebef5a5	0.37296787
37	0x3e917de5	0.28416362
38	0x3edb672c	0.4285215
39	0x3eae1eba	0.34007818
40	0x3ebcb0c8	0.36853623
41	0x3e8658da	0.26239663
42	0x3f0d62f2	0.55229104
43	0x3e745f8f	0.23864578
44	0x3e2d6b11	0.16935374
45	0x3e998d5d	0.29990664
46	0x3e3bbb1f	0.183331
47	0x3ea63c82	0.3246804
48	0x3e16a3f3	0.14710979
49	0x3e8ad6fd	0.27117148
50	0x3e5a85c8	0.21340096
51	0x3e6a904d	0.22906609
52	0x3e8cc72f	0.27495715
53	0x3ebc056b	0.36722884
54	0x3e2160ef	0.15759633
55	0x3e5682ab	0.20948283
56	0x3e807b5b	0.25094113
57	0x3e4b5ded	0.19860049
58	0x3e8d38aa	0.27582294
59	0x3e2c8f38	0.16851509
60	0x3e3b9f80	0.18322563
61	0x3ef51c0a	0.47872955
62	0x3e5de206	0.21668252
63	0x3eb3ce42	0.351183

cnn4.weight f4 [128, 64, 3, 3]
0	0x3d81b05a	0.063324645
1	0xbad53f8b	-0.0016269548
2	0xbc9710bd	-0.018440599
3	0x3d106f5c	0.03526245
4	0x3ca03e03	0.01956082
5	0xbd33f68f	-0.04393631
6	0xbda42c07	-0.0801621
7	0x3cd8e99e	0.026478585
8	0x3b5f9a33	0.003411901
9	0x3d5d8c5e	0.054088943
10	0x3beea3c9	0.0072827083
11	0xbca01684	-0.019541986
12	0x3c9bfdf2	0.019041989
13	0x3d344f9d	0.044021238
14	0x3d8d348b	0.068947874
15	0x3b997ab9	0.004683819
16	0x3ce33566	0.027735423
17	0xbbb79f35	-0.0056036958
18	0x3c397c22	0.0113210995
19	0xbc0b102c	-0.008487742
20	0x3c8d1d9f	0.017226039
21	0x3cda9cfb	0.026686182
22	0x3d5e6c5b	0.054302555
23	0xbb8625f9	-0.004093882
24	0xbdb4f01d	-0.088348605
25	0xbc8a2c79	-0.01686691
26	0xbcc4a0c1	-0.024002435
27	0xbb1f0fae	-0.002427082
28	0x3adb50f6	0.0016732502
29	0xbd55c3b3	-0.052188586
30	0xbce18660	-0.027529895
31	0xb9624f60	-0.00021582609
32	0xbc8c65bf	-0.01713836
33	0xbbf6b537	-0.0075289267
34	0xbc7e9b90	-0.015540019
35	0xbbc5f780	-0.006041467
36	0xbca01ec2	-0.019545916
37	0x3d6342ec	0.055483744
38	0xbcc399e4	-0.023877092
39	0x3d0a0c2e	0.03370302
40	0xbcad7813	-0.02117542
41	0xbd0153b3	-0.031573962
42	0x3d8c4ba9	0.068503685
43	0x3cd94dbc	0.026526324
44	0x3d5e5f5a	0.054290153
45	0x3d446b98	0.047954172
46	0x3d38df07	0.04513457
47	0x3c5a2abc	0.013315853
48	0x3bcb03aa	0.006195505
49	0xbbbdf415	-0.005796919
50	0xbd081074	-0.033218816
51	0x3d274c53	0.040844273
52	0x3d2e8a0a	0.042612113
53	0xbcbeaa57	-0.023274584
54	0x3d1fce7d	0.039015282
55	0xbd3bb78f	-0.045829352
56	0x3ccd448a	0.025057096
57	0xbca49dfb	-0.020094862
58	0x3d01c374	0.03168054
59	0xbc60e90a	-0.013727436
60	0xbd94cf73	-0.0726613
61	0xbc5e10ca	-0.0135538075
62	0xba9a6844	-0.0011780341
63	0xbb830569	-0.0039984477
64	0xbc669048	-0.014072485
65	0x3d290533	0.041264724
66	0x3d1a7250	0.037706673
67	0xbc97b2f3	-0.018517947
68	0x3d762f92	0.06010396
69	0x3cc51423	0.024057453
70	0x3d0d5063	0.03450049
71	0xbd0e8866	-0.03479805
72	0xbd12770a	-0.035758056
73	0x3bb7f4e8	0.005613912
74	0xbc52f4db	-0.012875761
75	0x3c0a48ce	0.00844021
76	0xbcb6baeb	-0.022305926
77	0xbc8e1912	-0.017345939
78	0xbb7a5774	-0.0038199099
79	0x3cedca29	0.029027062
80	0x3cb7ddbc	0.022444598
81	0x3c45427b	0.012039776
82	0xbc944bc6	-0.018102538
83	0xbd4ec836	-0.050483905
84	0x3d32354a	0.04350785
85	0x3bc1d64a	0.005915438
86	0xbb1485e3	-0.002266281
87	0x3be51c55	0.006991903
88	0x3b4a1b18	0.0030838903
89	0x3d39efde	0.04539477
90	0xbcd2aaf2	-0.025716279
91	0x3c9232f4	0.017846562
92	0xbcc6a478	-0.024248347
93	0xbc4505f4	-0.012025345
94	0x3bfe8de9	0.007768382
95	0x3a4837aa	0.0007637689
96	0x3cbebf31	0.023284527
97	0x3d0caa1b	0.034341913
98	0xbd409250	-0.047014534
99	0xbca5ce34	-0.020239927
100	0x3c052e40	0.008128703
101	0x39683ac5	0.00022147137
102	0x3d23bb51	0.03997356
103	0xbd27a29b	-0.040926557
104	0x3c65e764	0.014032219
105	0x3d3c3de0	0.045957446
106	0xbcb9009b	-0.022583297
107	0x3c3c9215	0.011509438
108	0x3db3e4ea	0.08783896
109	0x3c292740	0.010324299
110	0x3b6c6788	0.0036072452
111	0x3cb62ee5	0.022239158
112	0x3c5385f4	0.012910355
113	0x3d32e310	0.043673575
114	0xbc887849	-0.016658919
115	0xbbdfdef4	-0.006831998
116	0x3d89c68b	0.06727322
117	0x3c97e0f4	0.018539883
118	0x3d5653d5	0.052326042
119	0x3cee08c9	0.029056923
120	0x3d0ca692	0.03433854
121	0x3bcec77c	0.0063104015
122	0x3cc2ba64	0.023770519
123	0x3d9525e2	0.07282616
124	0xbd05a930	-0.032632053
125	0x3b53e96c	0.0032335175
126	0x3da949fa	0.08266063
127	0x3b82a544	0.0039869864
128	0x3b8cc2f1	0.0042956998
129	0x3cd386b7	0.025821073
130	0x3d2d72a5	0.04234566
131	0xbd6d13b3	-0.057880115
132	0x3d1898da	0.037255146
133	0xbcc028ba	-0.02345692
134	0x3d137714	0.036002234
135	0x3d1156eb	0.035483282
136	0xbc87bcb2	-0.01656947
137	0xbcc35921	-0.02384621
138	0x3b0ce072	0.0021496085
139	0xbd852e11	-0.06502927
140	0x3d098a14	0.033578947
141	0xbd0f35d0	-0.03496343
142	0xbcca6aa7	-0.024709059
143	0xb9fddc39	-0.0004842
144	0x3c26000d	0.010131848
145	0xbd04ce73	-0.032423448
146	0x3c676595	0.01412334
147	0x3c5e8d30	0.013583466
148	0x3c5231be	0.012829242
149	0x3cf7b6c7	0.030238522
150	0x3d01cacb	0.03168754
151	0x3bbcfacc	0.005767202
152	0x3d3ef00e	0.046615653
153	0x3b954d56	0.0045563383
154	0x3c514b74	0.012774337
155	0xbb3dd9e1	-0.0028968977
156	0xbd21ecac	-0.03953235
157	0x3bfe7674	0.0077655856
158	0xbca5d9fd	-0.020245546
159	0xbb1ec357	-0.0024225318
160	0x3d136d83	0.03599311
161	0x3b476c77	0.003042964
162	0xbad7f2f9	-0.001647561
163	0x3d4416e0	0.047873378
164	0xbcd9f81e	-0.02660757
165	0xbb9e28f0	-0.0048266575
166	0xbd1cbf4d	-0.038268376
167	0xbd3126dd	-0.043249954
168	0x3c5b8389	0.01339806
169	0x3b165a04	0.0022941837
170	0x3d54b223	0.051927697
171	0xbd9c4b0c	-0.076315016
172	0x3d6d31a2	0.05790866
173	0x3d0af0db	0.033921104
174	0xbc82ac23	-0.015951222
175	0x3c6de434	0.01451974
176	0x3c303c66	0.010756588
177	0x3caed4bd	0.021341676
178	0x3cd73666	0.026271056
179	0xbca95f47	-0.020675315
180	0xbd153341	-0.036425833
181	0xbd3b147d	-0.045673836
182	0x3d0ac4ee	0.033879213
183	0xbd2f0c83	-0.04273654
184	0xbd136483	-0.035984527
185	0xbcbb9805	-0.022899637
186	0xbd5e41e2	-0.05426205
187	0x3cb18768	0.021671012
188	0xbd54cc04	-0.051952377
189	0x38232f01	3.8906004e-05
190	0xbb0de761	-0.0021652805
191	0x3ca031fc	0.019555084
192	0x3d2573b7	0.040393557
193	0xbd1941f7	-0.037416425
194	0x3c2ad1aa	0.010425964
195	0xbce15add	-0.027509147
196	0xbd75b745	-0.059989233
197	0x3c88e163	0.016709035
198	0x3d3bdef7	0.045866933
199	0xbcb0bff7	-0.021575911
200	0x3b19face	0.0023495439
201	0xbc7b6b47	-0.015345401
202	0xbd13a6da	-0.036047794
203	0xbcd449f0	-0.025914162
204	0x3d0ba92b	0.034096878
205	0x3c758a7d	0.014986631
206	0x3c878ecd	0.016547585
207	0x3c1bc5f0	0.009507641
208	0xbd0e0e5b	-0.03468166
209	0xbbc77cab	-0.0060878596
210	0xbd926390	-0.07147896
211	0xbd2e3b29	-0.04253689
212	0xbd4536ac	-0.048147842
213	0x39c3d9f9	0.000373557
214	0xbcb5090d	-0.022099042
215	0xbd58462f	-0.052801307
216	0x3cb7c8f9	0.022434698
217	0x3af94556	0.0019017856
218	0xbcf31a85	-0.029675731
219	0x39cb14b7	0.0003873461
220	0x3d252ec5	0.040327806
221	0x3d1f910d	0.03895669
222	0xbc9b0616	-0.0189238
223	0x3c632f09	0.0138661945
224	0x3c5478dc	0.012968268
225	0xbd573375	-0.052539308
226	0x3cb2ec68	0.021841243
227	0xbdcc507f	-0.09976291
228	0x3b51ba74	0.0032002004
229	0x3cc0ff02	0.023559097
230	0x39fdad49	0.00048385028
231	0x3d9fe104	0.0780659
232	0xbb9d9755	-0.0048093
233	0x3c90bc2c	0.017667852
234	0x3d3398db	0.043846946
235	0x3d598df4	0.053113893
236	0x3d2b2a90	0.041788638
237	0xbd4bd06f	-0.049759325
238	0xbc36828e	-0.011139525
239	0xbc4b0c66	-0.012393093
240	0x3c34fdd3	0.011046845
241	0xbcb7b174	-0.022423483
242	0x3aca9567	0.0015455902
243	0xbd78704e	-0.060653977
244	0x3d675d91	0.056485716
245	0x3ce87ed7	0.028380794
246	0x3cc98b52	0.024602566
247	0x3c5babcd	0.01340766
248	0xbd607b80	-0.05480528
249	0xbcb658ee	-0.022259202
250	0xbbe2ba3e	-0.0069191745
251	0xbd176b17	-0.036967363
252	0x3d0ad4e7	0.033894446
253	0x3dba9798	0.091109455
254	0xbccb52fa	-0.02481984
255	0xbc9937c9	-0.018703358

cnn4.bias f4 [128]
0	0xbce9ba7b	-0.028531304
1	0xbba26d20	-0.0049568564
2	0x3ca5edb6	0.020254951
3	0x3c32f26c	0.010922056
4	0xbcf68d1e	-0.030096587
5	0x3d023fb7	0.031799044
6	0x3c3e7fb4	0.0116271265
7	0xbc7eafd6	-0.015544852
8	0x3d26a4a1	0.040684346
9	0x3d1692d1	0.03676111
10	0xbd1d5d3c	-0.038418993
11	0x3ccb3c02	0.024808887
12	0x3c3c43c0	0.011490762
13	0x3d1ac909	0.03778938
14	0xbc7f79b0	-0.015592977
15	0x3c9461f2	0.01811311
16	0xbd02195b	-0.031762462
17	0xbcb25e8e	-0.021773603
18	0xbccb36be	-0.024806377
19	0xbcf07cf6	-0.029356461
20	0xbcb26046	-0.021774422
21	0x3a9b1360	0.0011831336
22	0xbd0f0fde	-0.03492724
23	0xbc4c8eec	-0.012485247
24	0x3c377550	0.011197403
25	0x3cfa6d76	0.030569773
26	0x3d1e3e3d	0.038633574
27	0xbb100f00	-0.0021981597
28	0x3d2798b9	0.040917132
29	0xbd0ad054	-0.033890083
30	0x3bdd5cd8	0.0067554526
31	0xbc6fa366	-0.01462636
32	0x3ca4410a	0.020050544
33	0x3aa3aba0	0.0012487061
34	0x3b3e3ab0	0.002902668
35	0x3c058cb0	0.008151218
36	0x3d292527	0.041295197
37	0xbc9695a0	-0.018381894
38	0x3ca81f36	0.020522695
39	0x3ccdd1aa	0.02512439
40	0xbd14daaf	-0.036341365
41	0xbd190e8f	-0.0373674
42	0x3b84a9b8	0.0040485524
43	0x3d210ef5	0.039320905
44	0x3c79a954	0.015238125
45	0x3d0307e3	0.031989943
46	0xbbf08028	-0.007339496
47	0x3cc2b486	0.02376772
48	0x3d10070f	0.03516298
49	0xbbc56ae8	-0.006024707
50	0xbd0b2ade	-0.03397643
51	0x3cdf00ea	0.027222116
52	0x3cd9fa76	0.026608687
53	0x3a637440	0.00086766854
54	0xbc164184	-0.009170894
55	0x3d0a19ef	0.03371614
56	0x3d2a706b	0.041611116
57	0x3c2a9374	0.010411132
58	0x3cf78dde	0.030219015
59	0xbc7b9600	-0.015355587
60	0x3d22836d	0.03967612
61	0xbc02d6d0	-0.007985786
62	0xbccc41f8	-0.0249338
63	0x3cada95a	0.021198917
64	0x3cc5b5f2	0.02413461
65	0x3c87616e	0.01652595
66	0x3cb4ff7a	0.022094477
67	0xbd285147	-0.041093137
68	0x3bff40f8	0.0077897273
69	0x3d02878d	0.031867553
70	0xbbef1ca0	-0.0072971135
71	0x3d07d215	0.033159334
72	0x3d1a3483	0.037647735
73	0x3c35fa70	0.011107072
74	0x3cf134aa	0.029444057
75	0xbcd9d930	-0.02659282
76	0xbbb7d760	-0.0056103915
77	0x3cdc1cba	0.026869167
78	0x3c822f40	0.015891671
79	0x3c665f9c	0.014060881
80	0x3d1f8717	0.03894719
81	0xbd0da898	-0.03458461
82	0xbbf86638	-0.007580545
83	0xbcc10f56	-0.023566883
84	0xbcf40c46	-0.029791009
85	0x3c9dc586	0.019259226
86	0x3cdaec5e	0.026724037
87	0x3b7cf110	0.0038595833
88	0xbc199924	-0.0093748905
89	0x3cd5b4f2	0.026087258
90	0x3d0480bf	0.032349344
91	0x3c9bd216	0.019021075
92	0x3c17df30	0.009269521
93	0xbc767800	-0.015043259
94	0xbcc30bd6	-0.023809355
95	0x3cae97f2	0.021312688
96	0x3cb84622	0.02249438
97	0xbcc3e1d3	-0.023911392
98	0x3be2b600	0.0069186687
99	0x3ce2a126	0.027664732
100	0x3d0f1467	0.034931567
101	0x3c6cc4a4	0.01445118
102	0xbc695d3c	-0.01424342
103	0x3d2187a5	0.039436
104	0x3d06dc99	0.032925222
105	0xbce8bf06	-0.0284114
106	0x3c6c5cc4	0.014426414
107	0xb9076bf2	-0.00012914816
108	0xbd0617ae	-0.032737426
109	0x3cf67f8a	0.030090112
110	0xbbb12bf8	-0.005406853
111	0x3bad2c88	0.0052848496
112	0x3ce12a32	0.02748594
113	0xbd1364d4	-0.03598483
114	0xbcb6bd9e	-0.022307213
115	0xbcb08a5e	-0.021550354
116	0xbd25b8af	-0.04045933
117	0xbc30a866	-0.010782337
118	0x3cdb316a	0.02675696
119	0xbcd9717e	-0.026543375
120	0x3cfb739e	0.030694779
121	0xbbb43e08	-0.0055005588
122	0xbd02455f	-0.03180444
123	0x3d1748d7	0.0369347
124	0x3ceb2df6	0.02870844
125	0xbc3a8716	-0.011384746
126	0x3d036e41	0.03208757
127	0xbd01bdb3	-0.031675052

bn4.weight f4 [128]
0	0x3f807264	1.0034909
1	0x3f801c9f	1.0008734
2	0x3f8073a8	1.0035295
3	0x3f80b94f	1.0056552
4	0x3f80cd5d	1.0062672
5	0x3f809b28	1.004735
6	0x3f807390	1.0035267
7	0x3f81461e	1.0099523
8	0x3f806d3c	1.0033336
9	0x3f80a750	1.005106
10	0x3f802f72	1.0014479
11	0x3f808769	1.0041324
12	0x3f804c5d	1.0023304
13	0x3f8070dc	1.0034442
14	0x3f806f2b	1.0033926
15	0x3f8097ac	1.0046287
16	0x3f807446	1.0035484
17	0x3f80af82	1.0053561
18	0x3f809933	1.0046753
19	0x3f80a079	1.0048972
20	0x3f808472	1.0040419
21	0x3f80657c	1.003097
22	0x3f81272c	1.0090079
23	0x3f801fab	1.0009664
24	0x3f803f2a	1.0019276
25	0x3f8101ba	1.0078652
26	0x3f805dc9	1.0028621
27	0x3f80ad0b	1.0052809
28	0x3f807f5d	1.0038868
29	0x3f811af4	1.008635
30	0x3f813aa9	1.0096027
31	0x3f80ae6a	1.0053227
32	0x3f80611b	1.0029634
33	0x3f80c95e	1.0061452
34	0x3f808182	1.0039523
35	0x3f80ba9a	1.0056946
36	0x3f80d130	1.0063839
37	0x3f8055c1	1.002617
38	0x3f804718	1.0021696
39	0x3f80bcc3	1.0057606
40	0x3f80a0ea	1.0049107
41	0x3f8041c9	1.0020076
42	0x3f813143	1.0093158
43	0x3f80bebf	1.0058211
44	0x3f807860	1.0036736
45	0x3f8037cb	1.0017027
46	0x3f8057fc	1.0026851
47	0x3f805612	1.0026267
48	0x3f80cf30	1.0063229
49	0x3f8063bf	1.003044
50	0x3f808d27	1.0043076
51	0x3f80668b	1.0031294
52	0x3f80fd81	1.0077363
53	0x3f80b07b	1.0053858
54	0x3f8038c0	1.0017319
55	0x3f8022e2	1.0010645
56	0x3f809b9f	1.0047492
57	0x3f809c5c	1.0047717
58	0x3f806462	1.0030634
59	0x3f808a84	1.0042272
60	0x3f801bef	1.0008525
61	0x3f8091d3	1.0044502
62	0x3f80592b	1.0027212
63	0x3f80ab08	1.0052195
64	0x3f809ba9	1.0047504
65	0x3f80b14a	1.0054104
66	0x3f808b8c	1.0042586
67	0x3f806985	1.0032202
68	0x3f801fbf	1.0009688
69	0x3f80c5ca	1.006036
70	0x3f8020b2	1.0009978
71	0x3f8090a9	1.0044147
72	0x3f802709	1.0011913
73	0x3f800d71	1.0004102
74	0x3f80505b	1.0024523
75	0x3f80dfaa	1.0068257
76	0x3f80cfd0	1.0063419
77	0x3f803568	1.0016298
78	0x3f802822	1.0012248
79	0x3f80ae71	1.0053235
80	0x3f80b1c3	1.0054249
81	0x3f802ace	1.0013063
82	0x3f805634	1.0026307
83	0x3f8080b8	1.0039282
84	0x3f80709d	1.0034367
85	0x3f8039e2	1.0017664
86	0x3f808586	1.0040748
87	0x3f80664f	1.0031222
88	0x3f805b42	1.002785
89	0x3f803a8d	1.0017868
90	0x3f80342f	1.0015925
91	0x3f809569	1.0045596
92	0x3f804219	1.0020171
93	0x3f807a46	1.0037315
94	0x3f80734e	1.0035188
95	0x3f8054d3	1.0025886
96	0x3f801ff8	1.0009756
97	0x3f807c7a	1.0037987
98	0x3f804b71	1.0023023
99	0x3f807898	1.0036802
100	0x3f80a945	1.0051657
101	0x3f800009	1.0000011
102	0x3f80b395	1.0054804
103	0x3f807344	1.0035176
104	0x3f80d071	1.0063611
105	0x3f803ed3	1.0019172
106	0x3f8058f0	1.0027142
107	0x3f8031f9	1.001525
108	0x3f808fa4	1.0043836
109	0x3f804a91	1.0022756
110	0x3f808dad	1.0043236
111	0x3f809109	1.0044261
112	0x3f80943c	1.0045238
113	0x3f808064	1.0039182
114	0x3f807429	1.0035449
115	0x3f8062e1	1.0030175
116	0x3f809704	1.0046086
117	0x3f80a62e	1.0050714
118	0x3f8053f9	1.0025626
119	0x3f807285	1.0034949
120	0x3f8059c6	1.0027397
121	0x3f805e6a	1.0028813
122	0x3f80b28b	1.0054487
123	0x3f8086b6	1.004111
124	0x3f80a62d	1.0050713
125	0x3f809047	1.004403
126	0x3f8021de	1.0010335
127	0x3f80ab5f	1.0052298

bn4.bias f4 [128]
0	0x3aa5c641	0.0012647585
1	0x39c203c0	0.00037005357
2	0x3a60677a	0.0008560341
3	0x3ab644f5	0.0013906049
4	0x3afefb34	0.0019453526
5	0x3ae774d9	0.0017658725
6	0x3aad0f71	0.0013203454
7	0x3b1bfda7	0.0023802312
8	0x3aa23e27	0.0012378142
9	0x3afe5f22	0.0019407014
10	0x397ede58	0.00024306157
11	0x3a8eb05d	0.0010886301
12	0x3a9672e9	0.0011478338
13	0x3a525fcc	0.0008025139
14	0x3aa877a5	0.001285304
15	0x3a9fd38f	0.0012193787
16	0x3a908a58	0.0011027558
17	0x3b02e17f	0.0019970832
18	0x3ac06120	0.0014677383
19	0x3ad03205	0.0015884048
20	0x3aff783a	0.0019490786
21	0x3a82f2e3	0.0009990599
22	0x3b51d01b	0.003201491
23	0x3994af11	0.00028359194
24	0x39b2bacb	0.00034089977
25	0x3b07f603	0.0020746
26	0x3a958469	0.0011407259
27	0x3b09fde6	0.0021055876
28	0x3a570110	0.00082017574
29	0x3b29a9df	0.0025888605
30	0x3b3b5e03	0.002858997
31	0x3ae55939	0.0017497904
32	0x3ab34d8f	0.001367973
33	0x3af12788	0.0018398622
34	0x39ba2741	0.0003550593
35	0x3aede942	0.0018151181
36	0x3aaaf696	0.0013043459
37	0x3ac6e705	0.001517505
38	0x3a763d3b	0.00093932793
39	0x3abf5dd9	0.0014600112
40	0x3a59018e	0.0008278125
41	0x3aa359a2	0.0012462626
42	0x3b32b9a9	0.0027271307
43	0x3b02a43e	0.0019934322
44	0x3a3455c1	0.00068792334
45	0x3a2c2292	0.00065664307
46	0x3a08dcfe	0.00052209187
47	0x3a57f431	0.00082379865
48	0x3afa3c4b	0.0019091455
49	0x3a03f818	0.0005034222
50	0x3a8d5962	0.0010784084
51	0x3a390a41	0.0007058718
52	0x3b0e23b1	0.0021688754
53	0x3ae2725d	0.0017276515
54	0x38b17c15	8.46313e-05
55	0x39f09814	0.00045889674
56	0x3a85271c	0.001015875
57	0x3aed5920	0.0018108226
58	0x3a9b42d2	0.0011845476
59	0x3a8d0f44	0.0010761996
60	0x38474e38	4.7518144e-05
61	0x3ad017ba	0.0015876212
62	0x3abd2333	0.0014430046
63	0x3ab58a96	0.0013850506
64	0x3ab76d82	0.0013994428
65	0x3ab1d27e	0.001356676
66	0x3ab5ed8c	0.0013879999
67	0x3a397823	0.00070750917
68	0x3a0b218d	0.00053074287
69	0x3adbded4	0.0016774782
70	0x3a4a29ac	0.0007711898
71	0x3aa70a3e	0.0012744141
72	0x39d94310	0.0004143943
73	0x399ac454	0.00029519445
74	0x3a57413b	0.0008211319
75	0x3b0f3de8	0.0021856967
76	0x3afaf9c6	0.0019147925
77	0x3a202d26	0.0006110243
78	0x39d6305d	0.00040853294
79	0x3afa55fd	0.0019099113
80	0x3a9019fb	0.0010994071
81	0x3a034d3c	0.0005008762
82	0x3a45625e	0.00075296115
83	0x3ab723ad	0.0013972424
84	0x3a0c4cdc	0.0005352029
85	0x39327546	0.0001701909
86	0x3a7c2ffa	0.0009620186
87	0x3a94badb	0.0011347191
88	0x3a90487d	0.0011007931
89	0x3a176cb7	0.00057763926
90	0x3a2b18f4	0.00065268506
91	0x3a585c52	0.0008253503
92	0x3a517e3d	0.0007991528
93	0x3a914e40	0.0011085942
94	0x3a41c115	0.0007391137
95	0x3a73bd78	0.00092979474
96	0x399f9eb2	0.0003044508
97	0x3aacd00b	0.001318456
98	0x39bf00c3	0.00036430926
99	0x3a9c8559	0.0011941596
100	0x3ab0b05c	0.0013480294
101	0xba041e6d	-0.0005039934
102	0x3aa646e0	0.0012685917
103	0x3a9cb757	0.0011956495
104	0x3aa51925	0.0012595995
105	0x3a5de97a	0.00084652717
106	0x3a71e593	0.00092276296
107	0x3a1f54ac	0.0006077986
108	0x3adee803	0.0017006401
109	0x39ef77e2	0.00045674952
110	0x3aa48f62	0.0012554938
111	0x3ab2ea71	0.0013650191
112	0x3aa380e2	0.0012474323
113	0x3af5632b	0.0018721571
114	0x3a7ccb76	0.0009643355
115	0x3a8b63c6	0.0010634593
116	0x3aaf1b11	0.0013359507
117	0x3b13e858	0.0022568908
118	0x3a68a84d	0.00088751764
119	0x3a958c1c	0.0011409554
120	0x3a32f13d	0.00068261084
121	0x3a0d464f	0.00053892
122	0x3af38300	0.001857847
123	0x3a625be6	0.000863491
124	0x3afb2b0f	0.0019162613
125	0x3a6920a6	0.00088931096
126	0x3846a558	4.7360867e-05
127	0x3ac3c0a5	0.0014934732
