oraclebackend/train/non-iid/checkpoint/fmnist/ckpt_3_0.pth (torch, 358777 bytes, 34 tensors)

layer1.0.weight f4 [16, 1, 5, 5]
000000 8c 54 a9 be dd a3 cf 3d 80 31 a5 3e 1f d4 38 3e
       -0.33072317 0.10138676 0.32264328 0.18049668
000010 8a 24 e4 3d c5 58 33 bd 28 f3 35 3e ff c4 bc 3e
       0.11139782 -0.04378583 0.17768538 0.36869046
000020 71 34 3e 3e 9e 08 39 3e ca 1f db bb 00 99 60 b6
       0.18574692 0.18069693 -0.006687139 -3.3467659e-06
000030 1d b3 97 3e 88 6c a2 3e 55 34 b2 3e 01 a1 c4 bd
       0.2962884 0.31723428 0.3480555 -0.096010216
000040 cd a2 ad 3d 33 7c 87 3e f5 36 4d 3c ad a6 a0 3e
       0.084783174 0.26461944 0.01252531 0.31377164
000050 d1 11 7b bd 7d a3 74 3e 6e 6c a6 3e 65 50 4f 3e
       -0.061296288 0.23890491 0.325046 0.20245512
000060 57 f8 f1 3d d2 44 b2 be ed 5d 7e bd e2 17 79 3d
       0.11814945 -0.3481813 -0.062101293 0.060813792
000070 fc c9 ec 3e 0b a3 3c 3c 99 d6 f6 bc b5 02 a2 bd
       0.46247852 0.011513482 -0.030131625 -0.079106726
000080 c1 10 fd 3d c0 fc b3 3e 6e 02 5e bc 65 89 73 bd
       0.12356711 0.3515377 -0.013550384 -0.0594572
000090 60 0c 8a bd 0c 6b 03 3e 4e 3e ee 3e d0 11 02 3d
       -0.067406416 0.12833804 0.4653191 0.03175527
0000a0 ce 81 81 be 50 78 74 be 0e 40 8b 3e e3 92 db 3e
       -0.25294346 -0.2387402 0.27197307 0.42885503
0000b0 19 48 69 3e ea e2 b2 3d 89 f2 3e be ed 7e 25 3b
       0.2278141 0.08734687 -0.18647207 0.0025252656
0000c0 a6 b1 7c 3e 9b cc 55 bd f6 e2 03 be 02 a6 81 be
       0.24677143 -0.05219708 -0.12879547 -0.25321966
0000d0 f0 a6 48 3e 54 6b 90 3d 70 ed c4 be 1d e6 bc bd
       0.19594932 0.07051721 -0.384624 -0.09223578
0000e0 69 b7 e8 3c f4 55 92 bd 2a cf a2 be 97 c3 f9 be
       0.02840777 -0.071453005 -0.3179868 -0.48782036
0000f0 5c 9d 60 3e f9 5d 14 3f f0 b8 be 3e 96 d7 45 be
       0.21935028 0.5795589 0.3725047 -0.19320521
000100 15 49 cf bd 6b d0 9d 3c f0 c6 44 be 7a 91 2c 3e
       -0.10121361 0.01926442 -0.19216514 0.1685237
000110 be 62 78 3d 48 16 50 3e fd 4d ad bc 95 f6 01 3e
       0.060641043 0.20321 -0.021155352 0.1269172
000120 72 c0 e5 3d 1d f3 ad bc 5f f8 e2 bd af bd 0b bd
       0.11218347 -0.02123409 -0.11082529 -0.034116443
000130 bd 6d ec 3d 0d 76 1a 3e 5d 7f 42 3d 80 80 12 3e
       0.115443684 0.15084095 0.047484744 0.14306831
000140 4a 2c 67 3e f7 4e 6c 3e b7 e0 13 3e e3 4a 92 3e
       0.22575489 0.23076998 0.1444119 0.2857276
000150 7f df 40 be 41 bb 4c 3e 97 85 80 3d c3 81 71 bd
       -0.18835257 0.19993307 0.0627548 -0.05896164
000160 5e 8f 8a be 97 44 f9 bd c7 51 23 be 44 37 a9 be
       -0.27062505 -0.121712856 -0.15949164 -0.33049977
000170 8e 14 75 be 1f 28 a2 be 29 05 07 3e 73 d6 88 be
       -0.23933622 -0.31671235 0.13185562 -0.26726112
000180 2e 3b 81 be 9c d5 8b be f7 52 5a be dd 0e 66 3e
       -0.25240463 -0.2731141 -0.21320711 0.22466607
000190 cc 9d 53 be be 56 4f 3e 59 6c 9e 3e 4b da 4d 3c
       -0.20665663 0.20247933 0.30942038 0.012564252
0001a0 b2 a1 b3 3e 3e e8 78 3e e5 7b 54 3e 20 b8 98 3e
       0.350843 0.24307343 0.20750387 0.29827976
0001b0 2b 06 86 3e 80 1e 77 3e b0 49 62 3e c4 94 b2 3e
       0.2617658 0.24132729 0.22098422 0.34879124
0001c0 9f d1 9f 3c 7d 96 b5 be 22 2d 2c 3c 45 02 66 bd
       0.019509135 -0.35466376 0.010508807 -0.05615451
0001d0 bc 65 82 bd 5e 1e da 3d de 4a d2 be 75 73 8f bc
       -0.063670605 0.10650323 -0.41072744 -0.017511109
0001e0 9a d9 c9 3d 1f 6d d9 bd b6 26 86 be 47 87 f4 be
       0.09855957 -0.10616516 -0.2620141 -0.47759458
0001f0 87 47 b9 3d ed e3 a7 3d 1a 41 4f 3d ea 79 39 bd
       0.09046846 0.0819777 0.050599195 -0.045282282
000200 91 b4 5a 3d 2d 47 9d 3e ca 09 a2 bd b5 eb 20 be
       0.053394858 0.30718365 -0.07912023 -0.15714915
000210 ef f0 29 be d0 94 c3 3e 7c 99 25 3e 61 c1 1d be
       -0.16595815 0.38199472 0.16171831 -0.154058
000220 fc 87 60 be d0 04 9c 3d 38 53 4a bd b7 d8 cd 3e
       -0.21926874 0.076181054 -0.04939577 0.40204403
000230 0e 98 b5 3e 44 4d d1 bd d8 36 bd be 22 c6 b0 bd
       0.3546757 -0.102198154 -0.36955905 -0.08631541
000240 95 1b 9b 3e dc 59 a2 3e d4 96 d4 3d a8 c9 b4 be
       0.3029448 0.31709182 0.10380331 -0.35310102
000250 de 06 6c be 80 2e ee 3d 1a 55 da 3d e6 94 00 3d
       -0.23049495 0.11629963 0.10660763 0.031392
000260 ea 67 23 be 71 d2 27 3e 28 94 7f 3d 54 da e1 bd
       -0.15957609 0.16388871 0.062397152 -0.11027971
000270 42 47 2a 3d 47 35 e3 be a2 3e 14 3f d0 4c c6 bd
       0.041571863 -0.44376585 0.5790807 -0.096826196
000280 04 60 7e 3b e5 4e 59 be 53 cd 84 be b5 f7 21 3f
       0.0038814554 -0.21221502 -0.259379 0.63268596
000290 94 e8 64 be 64 e0 0b 3d 45 22 7a be 9f 6f 21 bd
       -0.22354347 0.034149542 -0.24427135 -0.03941309
0002a0 01 39 a6 3e a3 7a be bd da 91 ec 3d 45 fc e7 3b
       0.32465366 -0.09300735 0.115512565 0.0070796334
0002b0 8c 7c 72 be 07 e6 54 3e 5a 84 a6 bd dc cf dd bd
       -0.23680323 0.20790873 -0.08130713 -0.10830662
0002c0 ee 7a 72 3d 75 b4 94 3e d8 84 99 3e 59 e2 eb 3d
       0.059199266 0.29043928 0.29984164 0.11517782
0002d0 fd ac c5 3d f2 4e 26 bd 2a 34 85 bd 38 10 88 bd
       0.096521355 -0.040602632 -0.0650409 -0.066437185
0002e0 90 09 29 3e 34 a7 93 3d b2 b4 49 be 9f 79 8f be
       0.16507554 0.07209626 -0.19697836 -0.28022477
0002f0 04 58 ed be b3 43 e5 bd 1f e6 5e 3e 02 cb c8 be
       -0.46356213 -0.11194553 0.21767472 -0.39217383
000300 72 75 34 bf 1c 2a 42 bf 23 dd a7 be 64 fb 28 bd
       -0.7049171 -0.75845504 -0.327859 -0.04125537
000310 57 90 82 3e 24 e8 65 bc b2 c4 86 be 76 a8 3f bd
       0.25500748 -0.014032397 -0.26321942 -0.046791516
000320 e4 14 19 bd 92 31 39 bd f8 12 0a 3d 5d ee 1a be
       -0.03737344 -0.04521329 0.033709496 -0.15129991
000330 ac 32 8f 3e b8 fb af be dd 18 89 be 92 f3 61 be
       0.27968347 -0.34371734 -0.26776782 -0.22065571
000340 df 09 29 be 03 61 c8 3e 22 63 8c be d8 5f cf be
       -0.16507672 0.39136514 -0.27419382 -0.4050281
000350 ca e3 65 bd ef b3 51 3d 70 14 4e 3d d2 0f 7f bd
       -0.05612544 0.05119699 0.05031246 -0.062270947
000360 8c a6 07 3d 5a 56 46 3e d3 af d8 3d 5b e4 33 be
       0.033117816 0.19368878 0.10580411 -0.1756758
000370 43 fe c9 3d b4 22 ed 3b 8b 71 fa 3d ee d1 32 3e
       0.0986295 0.007236803 0.12228688 0.17462894
000380 56 1e 32 be 6d 2f 46 be 47 2f 63 3e 1a f3 82 3e
       -0.17394385 -0.19354029 0.22186004 0.25576097
000390 00 22 a5 ba 41 df c5 bc b6 6e c1 3d b4 3b 71 bc
       -0.0012598634 -0.024154307 0.094449446 -0.014723707
0003a0 fb 41 23 3d 5c 33 16 bd dd 33 f0 3c 27 8c 72 be
       0.039857846 -0.036670074 0.029321605 -0.23686276
0003b0 7c d0 ce 3d 3d 29 ee 3d 26 47 b7 bc 7a e2 17 3d
       0.10098359 0.11628959 -0.022372793 0.03708122
0003c0 06 5c 90 bd c9 34 1f be 16 8d 96 be d2 30 ae be
       -0.07048802 -0.1554748 -0.29404515 -0.34021622
0003d0 6b 52 01 be 4d a4 8e 3e be c5 bf be 47 8a 0c bf
       -0.12629096 0.27859727 -0.37455553 -0.54898494
0003e0 2e 11 0e bf c9 7f 98 be 9d 7f bf be 29 dc 8b be
       -0.55494964 -0.29784992 -0.3740205 -0.27316406
0003f0 c3 ca 97 3c 19 18 df 3d 84 f5 6b bd 1f 5f 9e be
       0.018529302 0.10893268 -0.05760719 -0.30931947

layer1.0.bias f4 [16]
000000 33 f4 71 3d 53 f9 ad 3e 80 1f 59 be 3d 3e ac be
       0.059070777 0.33979282 -0.21203423 -0.33641234
000010 9d c5 c6 bd 2d 3d 5e bd 8a cd 9a bb 10 ca a3 be
       -0.097056605 -0.05425756 -0.004724209 -0.319901
000020 53 bb 19 3e e5 9d f9 bd 32 9e 88 3e 0f 32 d3 3e
       0.15012865 -0.12188319 0.26683193 0.4124913
000030 d9 a6 57 be 44 ee 0f 3e db f3 15 3e 1d 53 3a be
       -0.21059741 0.14055735 0.14643805 -0.18195768

layer1.1.weight f4 [16]
000000 b8 69 3a 3f 97 f3 16 3f 7b 89 8a 3f e9 e2 5b 3f
       0.72817564 0.5896544 1.0823206 0.8589311
000010 43 dc 67 3f 3f 4a 84 3f 01 62 9c 3f ec fe d8 3f
       0.9057047 1.0335158 1.2217408 1.6952796
000020 ce c3 6b 3f ec 68 7f 3f ad cc 89 3f 10 a1 62 3f
       0.9209565 0.99769473 1.0765587 0.8852701
000030 e7 93 5d 3f 05 5f c7 3f f8 be 17 3f ec f4 a2 3f
       0.86553806 1.5575873 0.5927577 1.2730994

layer1.1.bias f4 [16]
000000 f7 cb 80 be cf 65 61 be 0d 5b 41 be e9 83 54 be
       -0.25155613 -0.22011493 -0.1888239 -0.20753445
000010 5f a8 47 bd 81 35 20 be e0 53 31 bd ee 83 1e bf
       -0.048744556 -0.1564541 -0.04329288 -0.6192006
000020 7d ac 8b be 82 e8 ed be f3 55 0d be e6 f8 30 be
       -0.27280036 -0.46466452 -0.13802318 -0.17282447
000030 fa 7e 2b 3e f0 1b 02 bf 51 31 b3 be b8 c8 01 bf
       0.16747656 -0.5082388 -0.34998563 -0.506969

layer1.1.running_mean f4 [16]
000000 3a 26 e7 3f 51 0e 7e 3f 1f f9 04 bf 6c 38 25 bf
       1.8058541 0.99240595 -0.5194263 -0.6453922
000010 1d 5e 96 3e 24 03 0e 3e 1e a9 9b 3d 7b 34 aa bf
       0.29368678 0.13868386 0.07600616 -1.3297266
000020 85 0c a5 be 0d ff 60 bf d9 e3 8b bd ca d0 2e 3e
       -0.32236114 -0.87889177 -0.06830568 0.17071834
000030 96 d5 9f be f8 5a b6 bf 4e 22 d2 3f 6e ad d2 bf
       -0.3121764 -1.4246511 1.6416719 -1.6459177

layer1.1.running_var f4 [16]
000000 f0 69 45 41 6f 32 5f 40 fc 10 96 3f 04 73 bf 3f
       12.338364 3.4874532 1.1723933 1.4956975
000010 78 de fb 3f d1 f9 73 3f b6 16 20 3f 81 87 c5 40
       1.9677267 0.95303065 0.62534654 6.172791
000020 ac d4 d1 3f 4b a7 57 40 b0 7c 5c 3f ed e9 c3 3f
       1.6393027 3.3695858 0.8612776 1.5305763
000030 97 06 25 3f 30 2e 42 41 fa 48 14 41 fe c4 1a 41
       0.6446318 12.136276 9.267817 9.673094

layer2.0.weight f4 [32, 16, 5, 5]
000000 7a 61 9b 3d 1d ca cd 3d 95 33 c0 3c d4 5d 20 3d
       0.075869516 0.10048316 0.023462096 0.03915198
000010 6d d6 a3 bc 15 c1 13 3d 25 4d 37 3d d8 fb f9 3c
       -0.019999707 0.03607281 0.044751305 0.030515596
000020 b1 c7 99 bb 5c f3 d6 bc a9 e8 1c 3e d9 e7 1b 3e
       -0.0046929945 -0.02623909 0.15323128 0.15225162
000030 af 23 8b 3d c2 85 17 3d 44 d7 12 3d c1 e4 4f 3e
       0.067939155 0.036992796 0.035849825 0.20302106
000040 7a cf 03 3e d7 e8 8a 3d c9 5d cc 3d 44 d3 bd 3c
       0.12872115 0.06782692 0.099788256 0.023172028
000050 f0 23 35 bd 49 22 8f 3d 32 65 c0 3d 44 36 a4 3d
       -0.044223726 0.06988961 0.093943015 0.08018163
000060 30 0a ac 3b 7d eb a6 3d a2 c5 55 3c 12 48 d8 bd
       0.005250238 0.081503846 0.013047608 -0.10560621
000070 af 99 bc bc a9 aa 05 be 52 33 b2 3d ba 95 ae bd
       -0.0230225 -0.13053383 0.08701195 -0.08524652
000080 90 ec 9c bd d2 5d c2 3d 3c ea 04 be b6 4b e3 3d
       -0.07662308 0.09490551 -0.12979978 0.11098425
000090 8e 56 a5 bd 97 d7 ac bc 5a a1 c3 3d cb 5d ff bd
       -0.080731496 -0.021098895 0.0955226 -0.124690615
0000a0 01 45 01 3e 99 6e cf bd b7 41 7c 3d f1 8e 3c 3e
       0.12623979 -0.10128517 0.061586108 0.18413903
0000b0 0a 18 29 bd 9b 96 31 bd 6f db 00 be 7f 10 90 bd
       -0.04128269 -0.04335652 -0.12583707 -0.070343964
0000c0 32 1f ad 3d 1c e3 65 bd f6 97 9f 3d 6a f0 6c 3e
       0.08453216 -0.05612479 0.07792656 0.23138586
0000d0 21 97 81 bc d4 e0 81 3e 27 20 ac 3e 35 95 c9 bd
       -0.015819134 0.25366843 0.3361828 -0.09842912
0000e0 94 90 1a bc c2 62 8d bd 20 41 72 bd 95 12 e0 3d
       -0.009433884 -0.06903602 -0.05914414 0.10941044
0000f0 77 33 ad 3e ab bd 83 3e 33 57 3f 3e 57 ab 2d 3e
       0.33828327 0.25730643 0.18685608 0.16959892
000100 b8 09 a8 3e 5a 32 5f 3d 60 70 a1 bc 41 1a d0 bc
       0.32819915 0.05449138 -0.019706905 -0.025403144
000110 65 93 b6 bd c0 aa 1d 3e 5a 21 db bd d2 9d 03 be
       -0.08914832 0.15397167 -0.10699721 -0.12853172
000120 8d 4b 18 be c7 cd 55 bd 9c 1b 85 bc 66 8f bd bd
       -0.1487257 -0.052198198 -0.016248517 -0.09255867
000130 4e 8d cf bd 09 15 1d be cb 7d 27 3c 7b 9e 88 be
       -0.101343736 -0.15340056 0.0102228625 -0.2668341
000140 a2 b8 ce bd cd 6b f3 bd 49 6a 45 bd 5d d2 28 3d
       -0.1009381 -0.11885796 -0.048197065 0.041216243
000150 ea c3 99 be 72 37 6a be 54 85 08 be f5 ae 77 bd
       -0.30032283 -0.22872713 -0.1333211 -0.060469586
000160 d9 a4 f6 3d 03 ac 67 be bd ec 3c 3d 90 6a 42 3e
       0.12043161 -0.22624211 0.04612421 0.18985963
000170 3c b9 69 3e f4 11 80 3d 7b 11 dc bc f3 cc 73 3e
       0.22824568 0.06253424 -0.026863804 0.2380865
000180 84 d9 83 3e 49 04 5c 3e 46 e9 42 3e e7 09 01 3e
       0.2575189 0.2148601 0.19034299 0.12601434
000190 71 f1 1b be c4 b3 4e be e9 f4 02 be 96 c1 3e be
       -0.15228821 -0.20185763 -0.12788738 -0.18628535
0001a0 8a 19 3f be b6 6f 43 be 3d 37 64 be 3a e3 a3 bd
       -0.18662086 -0.19085583 -0.22286697 -0.080023244
0001b0 0e ce 25 be 5e 52 08 be 6f 7d 65 be 18 6b 43 be
       -0.16191885 -0.1331267 -0.2241113 -0.19083822
0001c0 23 ff e5 bd 95 ed 9f bd 43 82 38 bd 32 81 ed 3c
       -0.11230304 -0.07808987 -0.045046102 0.02899227
0001d0 d5 72 d4 3d 11 83 d4 3d 2a f5 97 bb 53 e8 4f 3d
       0.10373465 0.103765614 -0.00463738 0.05075867
0001e0 81 4d 78 3e 5c 18 33 3e 9c 0b 34 3b a7 b7 3f 3e
       0.24248315 0.17489761 0.002747274 0.18722402
0001f0 df 66 1d 3e 9e 16 48 be c8 5b 73 be c3 0c a0 bd
       0.15371273 -0.19539878 -0.2376548 -0.07814934
000200 4d 5b e5 bd db 79 9d bc 6f 54 89 be 72 0b 14 be
       -0.11199055 -0.019223144 -0.2682223 -0.14457491
000210 38 f0 29 be 1e 79 48 bd 83 3d 76 be 46 d9 86 be
       -0.16595542 -0.04894363 -0.24046902 -0.2633764
000220 3c eb a6 be d9 f9 3d be b5 5f 11 bd f3 51 94 be
       -0.32601345 -0.1855234 -0.035491664 -0.28968772
000230 c2 6b 6c be 57 23 82 be c8 c1 a4 be 0e 39 ab bc
       -0.23087981 -0.25417587 -0.32179093 -0.02090123
000240 d8 b9 56 be 3c d2 45 be 03 65 7c be 53 eb 36 be
       -0.20969331 -0.1931848 -0.24647908 -0.17863207
000250 ed ea 86 be 50 9a 1e be 06 92 39 3e 96 eb 64 be
       -0.2635111 -0.15488553 0.1812211 -0.22355494
000260 ea 2f e0 bc 89 a6 9c 3e aa c4 6a 3b 52 8d 18 3c
       -0.027366597 0.30595806 0.0035822787 0.009311037
000270 34 32 af be a8 c6 05 be 50 4b 55 3e 72 d8 09 be
       -0.3421799 -0.13064063 0.2082951 -0.13461474
000280 a6 74 cc bd ec b9 b7 be 1d 0a 50 be c2 c5 a0 3e
       -0.099831864 -0.35884035 -0.20316358 0.31400877
000290 7f 21 47 be 72 ad 2a be 9f 50 af be 8d d0 a9 be
       -0.19446371 -0.16667727 -0.34241197 -0.33166924
0002a0 80 ff 77 3e c3 ce c9 bd ac f4 7e be 57 02 bc be
       0.2421856 -0.0985389 -0.24898022 -0.36720535
0002b0 a5 b3 96 be 1a aa c4 3c 3f 80 5d be 24 9e 0c be
       -0.29433933 0.024006892 -0.21630953 -0.13732201
0002c0 5c fc 39 be e4 14 06 be 68 c6 a6 be e7 ac 2e bd
       -0.18162674 -0.13093907 -0.32573247 -0.04264536
0002d0 43 8a 49 be 16 64 93 be 56 3b 61 be 54 31 4e be
       -0.19681649 -0.28787297 -0.21995291 -0.20136005
0002e0 f7 d1 61 be 04 11 af be 07 f5 af be 28 fc 6b be
       -0.22052751 -0.3419267 -0.3436663 -0.23045409
0002f0 d6 e7 87 be a6 a5 5c be a6 e7 3c bd eb 22 80 be
       -0.26544064 -0.21547565 -0.046119355 -0.2502664
000300 b2 f0 7e be 86 b9 8d be da 94 2b be c5 cc 7c 3d
       -0.24896505 -0.27680606 -0.16756001 0.06171872
000310 7b 57 ba 3d 25 cd 31 3c 3d c9 b0 bd d3 bb 05 3d
       0.09098717 0.010852133 -0.08632133 0.032649826
000320 3e 75 e9 bd 50 ee c8 bd 51 bf de bb 9a 63 2d bd
       -0.11399315 -0.098110795 -0.006797709 -0.042331316
000330 ca 67 09 3d 02 21 88 bd 9f 6e 9a bc 2d 08 0f be
       0.033546247 -0.06646921 -0.018851576 -0.13967963
000340 b5 66 98 bd 1e a2 e7 bc fc 3a 9c bd 21 c5 40 bd
       -0.07441465 -0.028275546 -0.07628438 -0.047062997
000350 b2 3b aa bc 30 d2 66 be 03 8e 28 be 43 c3 50 be
       -0.020780418 -0.22541118 -0.16460423 -0.20386986
000360 a4 5d 50 be 3e ec d8 bd af 88 48 be cb aa ad be
       -0.20348221 -0.105919346 -0.1958339 -0.33919367
000370 1e cc 21 be bc d0 dd bd 8e 5d 26 be ac 58 5b be
       -0.15800521 -0.108308285 -0.16246626 -0.21420544
000380 24 7b 9e be 2c fc d9 bd 52 c8 3d be 40 ad 06 be
       -0.30953324 -0.10643801 -0.18533447 -0.13152027
000390 a2 d1 cf bd 90 94 a7 be f9 36 0a be c5 1c 3e be
       -0.10147406 -0.32730532 -0.13497533 -0.18565662
0003a0 23 88 59 be cb 13 30 be 65 f4 92 be d4 83 7e bd
       -0.21243338 -0.1719505 -0.28702083 -0.06213744
0003b0 30 dc ae bd dd 63 eb bd a4 b9 2f be 23 d4 19 be
       -0.08538091 -0.11493657 -0.1716066 -0.1502233
0003c0 db 66 42 3e b2 39 f5 3d e2 58 ae 3c ed 63 dd bd
       0.18984549 0.11973895 0.021282617 -0.10810075
0003d0 1f 36 82 3d e8 b2 89 3d 4d 1a dc 3d 6b 77 0b 3e
       0.06357979 0.06723577 0.10747204 0.13619773
0003e0 97 46 91 3d 48 65 4a 3e 6a 76 19 bd 41 af 9a 3d
       0.07093542 0.19765198 -0.037466444 0.07552958
0003f0 ac 52 19 bd 46 f8 c8 3d 52 cb b9 3d b6 4f a8 be
       -0.037432358 0.098129794 0.090719834 -0.32873315

layer2.0.bias f4 [32]
000000 49 15 e3 bc 65 c5 9f bd 69 0c 51 3d e2 c6 53 bd
       -0.02772011 -0.07801322 0.051037226 -0.05170334
000010 78 42 43 bd 05 a5 3c 3d 32 dc 0d 3c b2 45 88 3d
       -0.04767081 0.046055812 0.008658456 0.06653918
000020 c2 9a 09 3b b7 40 c5 3d 74 fe 52 3c 64 ec 13 be
       0.0020996784 0.09631484 0.012878049 -0.14445645
000030 71 ba 6d 3e f4 10 00 3e 8f fc a2 3c 4f b5 0d be
       0.23215653 0.12506467 0.01989582 -0.13838695
000040 7a fc b0 bc 54 39 83 bd 4b 6b dd 3d f3 f2 36 3e
       -0.021604765 -0.06407419 0.1081148 0.17866115
000050 0c 6e 45 3d e3 4a 8d bd 02 32 24 bd 1d af b3 3c
       0.048200652 -0.06899049 -0.040086754 0.021934086
000060 29 2e 8a 3d 0d 8b 48 be e5 3e 6d 3c 1f 5a 75 3d
       0.067470856 -0.19584294 0.014480327 0.0599004
000070 10 20 4a bc c9 fb 9c 3c a9 28 d1 3d 98 10 af bd
       -0.012336746 0.01916303 0.102128334 -0.08548087

layer2.1.weight f4 [32]
000000 34 66 ea 3e 22 4b 10 3f d0 cc a7 3e b4 fb 1c 3f
       0.457811 0.56364644 0.32773447 0.6132157
000010 47 52 3c 3f 3d 04 c3 3e 46 83 fc 3e 52 96 e0 3e
       0.73563045 0.3808917 0.49318904 0.43864685
000020 36 d5 87 3e b2 0a bd 3e bd 70 07 3f 09 fa 2a 3f
       0.26529855 0.36922222 0.529064 0.66787773
000030 5e 2f 2c 3f d4 10 07 3f 72 91 d7 3e c6 51 1c 3f
       0.67259777 0.5276005 0.42103153 0.61062276
000040 31 88 4c 3f f1 c8 1d 3f e4 8a 21 3f 50 0f e0 3e
       0.7989531 0.6163474 0.63102555 0.43761683
000050 b8 84 26 3f 80 d7 0a 3f ce 1c 19 3f bf f0 d3 3e
       0.6504626 0.54235077 0.5980958 0.41394612
000060 34 fd 00 3f 7e f1 27 3f e2 1e ef 3e f0 14 f4 3e
       0.5038636 0.6560286 0.4670325 0.47672224
000070 ac 7a 12 3f 50 7b 24 3f 5c 60 08 3f 10 7b 71 3e
       0.5721843 0.6425066 0.5327203 0.23582101

layer2.1.bias f4 [32]
000000 28 ae fd be 6f f7 04 bf a5 c4 16 bf 86 98 01 bf
       -0.49546933 -0.51940054 -0.58893806 -0.5062336
000010 4e bd 11 bf 8a a5 ff be ae 5c fa be e8 38 d2 be
       -0.5692948 -0.49930984 -0.48898834 -0.4105904
000020 30 d1 0d bf aa 00 03 bf 06 ca 09 bf cd 25 b5 be
       -0.5539732 -0.5117289 -0.5382389 -0.35380402
000030 db 16 e7 be c5 60 fb be 2e e3 01 bf 58 4d e8 be
       -0.45134625 -0.49097267 -0.50737274 -0.4537151
000040 47 31 ec be ba 18 f2 be 75 af f9 be b4 96 03 bf
       -0.46131346 -0.4728449 -0.48766676 -0.5140183
000050 d6 ae fe be 32 37 02 bf 0a 87 19 bf f0 4d 02 bf
       -0.49742764 -0.5086547 -0.5997168 -0.50900173
000060 98 f6 0b bf de 8d f5 be 67 12 03 bf 63 43 ec be
       -0.5467315 -0.479598 -0.51199955 -0.46145162
000070 9e 32 03 bf 44 d2 08 bf 59 c9 e3 be 78 ab 18 bf
       -0.5124911 -0.5344584 -0.44489554 -0.5963664

layer2.1.running_mean f4 [32]
000000 f3 8c 22 c1 20 a3 3d c0 6a b8 84 bf f2 d9 24 3f
       -10.159411 -2.9630814 -1.0368779 0.6439506
000010 2e 31 df c0 15 67 d1 40 4d a5 17 c1 aa 03 0b c0
       -6.9747534 6.5438333 -9.477857 -2.1720986
000020 76 cd 2e 41 4e a5 3e c0 c0 13 02 c1 00 db 96 c0
       10.925161 -2.9788394 -8.129822 -4.7142334
000030 37 57 10 c1 7c 50 ba bf 4f 8f ee c0 f9 e8 51 bf
       -9.021293 -1.4555812 -7.4549937 -0.81996113
000040 1c f1 82 3f 94 d2 0e c0 ca 82 dc c0 1f f6 bb be
       1.0229831 -2.2316027 -6.8909655 -0.36711213
000050 1d 24 01 c1 f2 16 77 c0 d2 01 83 c0 3a cb 4e c1
       -8.071317 -3.8607755 -4.093972 -12.924616
000060 10 ff 07 c1 50 e2 9f c0 0e 20 cb c0 13 26 0b c1
       -8.499771 -4.996376 -6.347663 -8.696795
000070 65 7e 52 c0 2c 6a 11 c1 17 31 fd c0 ba c6 7d 40
       -3.2889645 -9.088421 -7.9122424 3.9652543

layer2.1.running_var f4 [32]
000000 5c 43 0d 42 8f 35 6b 42 a7 c4 03 42 0a 22 2b 42
       35.31578 58.802303 32.942043 42.78324
000010 a8 9e 1d 42 ee f0 a9 41 9e 6e 14 42 e0 2e dd 41
       39.404938 21.242641 37.108025 27.647888
000020 66 b9 10 42 25 2a 11 42 77 13 5c 42 aa 62 01 42
       36.181053 36.291157 55.01901 32.34635
000030 1e 4b 2b 42 3e 82 14 42 65 10 e0 41 65 8f 60 42
       42.823357 37.12719 28.008005 56.140034
000040 0e 1a c7 41 5e f2 46 42 d6 08 17 42 8e 37 24 42
       24.887722 49.736687 37.75863 41.054253
000050 e2 7e 43 42 5f 7d ae 42 03 67 bc 41 a2 a4 26 42
       48.87391 87.244865 23.550299 41.660774
000060 a5 c3 03 42 4c 57 08 42 a7 9b 75 42 8e 27 f2 41
       32.94106 34.08525 61.402004 30.269314
000070 65 3f 25 42 c9 a5 51 42 2f 0f d1 41 5d 30 c7 41
       41.31191 52.4119 26.132414 24.898615

fc.weight f4 [10, 1568]
000000 8d 05 8f 3d a4 9e ed bc 02 bb 63 bc a7 c2 8b 3c
       0.069834806 -0.02900631 -0.013899567 0.01706059
000010 a8 9f df 3d 3c b9 ed bc 19 19 9a 3d 82 43 b9 3d
       0.10919124 -0.02901899 0.07524318 0.09046079
000020 82 30 77 3d 0a b4 8e bd 48 29 3d 3d 16 0e a9 3a
       0.060348995 -0.069679335 0.046181947 0.0012897875
000030 e3 a9 75 3d 2b 0b c3 3d 22 03 b1 bb 20 05 2f 3e
       0.05997647 0.095236145 -0.005401985 0.17091799
000040 5d 3b af bd e8 df 3c 3d f2 b8 27 be fc d6 31 be
       -0.085562445 0.04611197 -0.16379145 -0.17367166
000050 73 58 a9 bd 09 6e 14 bc 90 7a f5 3d a8 f0 70 bd
       -0.082688235 -0.009059438 0.119862676 -0.058823258
000060 62 1a 46 3c 9e 4c 48 be ae 86 4e be 91 fb 07 be
       0.012091251 -0.19560477 -0.20168564 -0.13279559
000070 e8 b5 2c bc b1 1c 74 be ad 1f 28 be aa ab 23 3d
       -0.010541417 -0.2383907 -0.16418333 0.039958633
000080 a4 81 2c bd 8c c9 95 be 2e b4 f1 bd 8e 8b 9a bc
       -0.042115822 -0.2925533 -0.11801945 -0.018865373
000090 11 22 82 be bd 7a 72 3c f4 1d 11 3e 4d 9d d6 3d
       -0.25416616 0.014799771 0.14171582 0.104792215
0000a0 b4 4f ca bd e0 74 16 be 34 cd ec bc 27 bb 97 3c
       -0.098784834 -0.14693022 -0.028906442 0.018521858
0000b0 4d 87 82 3e 94 ab 22 3e ba cc 28 3e fe 56 d0 3d
       0.2549385 0.15885764 0.16484347 0.101728424
0000c0 ef cf 51 3d b1 c5 f5 bd 6b a2 89 be 49 2d 4e 3e
       0.05122369 -0.12000597 -0.26881728 0.20134462
0000d0 1b fc 43 3e 1d 65 25 be 32 8e 1a 3e 6d b4 c0 3d
       0.1913914 -0.16151853 0.15093306 0.094094135
0000e0 3b d9 4c 3c 98 61 15 be d2 f7 97 bd 96 27 3e be
       0.012502964 -0.1458801 -0.07420315 -0.18569788
0000f0 a8 c4 b8 bd 90 a1 72 3e 49 c9 14 3d 27 1f 8f 3d
       -0.09021884 0.23694444 0.036324773 0.06988364
000100 ff dc b8 be 9e 80 54 3d a6 a9 2b be 1a 36 08 be
       -0.36106107 0.05188047 -0.16763934 -0.13301888
000110 1e 1a d6 bc 18 b0 27 bd 60 39 81 3d ee 73 e1 bc
       -0.0261355 -0.04093942 0.063097715 -0.0275211
000120 90 42 8c bd c8 43 ad bd ad 33 1e bc cc 87 69 3d
       -0.06848633 -0.08460194 -0.009655875 0.05701427
000130 a9 48 03 3d 1b 53 1d be 24 f0 eb 3d 5d 60 68 bd
       0.032051716 -0.15363733 0.115204126 -0.056732524
000140 e6 92 ba bd 63 08 2c be 2e 36 fc 3b 68 22 00 bd
       -0.0911005 -0.16800074 0.0076968884 -0.031282812
000150 ef b9 c6 3d 43 01 4c 3e 2a 8c e0 3c 85 29 46 be
       0.09703433 0.19922356 0.027410585 -0.19351776
000160 fd 4a 3e be ca 14 d1 bb a6 6b 2a 3c 9f a5 c2 3d
       -0.18583293 -0.006380652 0.010401642 0.09504246
000170 22 05 49 bc 4b 53 39 bd 74 c0 cd bd 5e f7 a5 3d
       -0.01226929 -0.04524545 -0.10046473 0.08103822
000180 2f 9b af 3d cd 09 8c be 5b bd 75 3e 40 74 97 bc
       0.08574521 -0.27351227 0.23998015 -0.01848805
000190 d7 e9 2d be f4 9a 16 3d 2a 23 93 3e ff 38 bd bd
       -0.16983734 0.03676887 0.28737766 -0.09239387
0001a0 cf 1e 88 3d fd e3 6b 3e 98 a7 99 bc 41 f2 c8 bd
       0.06646501 0.2303619 -0.018756673 -0.09811831
0001b0 af b0 ce 3c 5c 68 0d 3e ab 38 35 3e b7 00 80 3d
       0.025230734 0.13809341 0.17697398 0.06250136
0001c0 23 63 77 3d d1 31 ed bb 82 e7 ca 3d b1 37 5e bd
       0.06039728 -0.0072386046 0.09907438 -0.05425233
0001d0 f2 ae 71 be 05 c3 d1 bc a6 cb 84 3c 2c 07 6a 3d
       -0.23601893 -0.025605688 0.016210388 0.057135746
0001e0 74 87 8a 3d 4a bf 46 3e 16 8e f2 3c 0a 0a 9b bd
       0.06764117 0.19408908 0.029608767 -0.07570274
0001f0 97 cf a6 3d d4 36 e4 bd 08 78 d2 3d 5c f2 a1 3d
       0.08145063 -0.1114327 0.102768004 0.079075545
000200 d0 0b 08 be b2 33 e7 bd b9 65 3d be df 5c a0 bd
       -0.13285756 -0.11289157 -0.18495835 -0.07830214
000210 2a e6 1d be 72 af 06 3e fc fb 10 3e 5d 4a c1 bd
       -0.15419832 0.13152865 0.14158624 -0.09438012
000220 b3 70 10 3d ce c6 b1 bc b5 c7 d5 bd 95 ec 15 be
       0.03526373 -0.021701243 -0.10438482 -0.1464103
000230 03 25 ea 3d 6d b3 34 bd d4 80 02 be f1 a7 0a bd
       0.11432841 -0.044116426 -0.12744457 -0.033851568
000240 84 86 8a 3d a2 05 6b bd 23 c8 1a bb 54 ea d3 3a
       0.06763938 -0.05737842 -0.0023617826 0.0016167858
000250 74 01 09 3e cf c4 91 3d 02 6b 20 39 48 a7 5d 3e
       0.1337946 0.071176164 0.00015298653 0.21645844
000260 6c b7 48 3d e5 78 c9 3d 22 ab 6b bd e5 ce 94 3d
       0.04900305 0.09837512 -0.05753625 0.072660245
000270 ad 86 32 3e 6c ed a1 bd cd f0 06 bd 09 cc 8e bd
       0.17434187 -0.07906613 -0.03294449 -0.0697251
000280 30 98 fc bc d0 57 92 3c b9 2f 1a be fc 58 15 bd
       -0.030834287 0.017864138 -0.15057267 -0.036461815
000290 5a cf 74 be 64 a2 08 bf 05 17 d7 be 08 1a 55 bd
       -0.23907223 -0.5337279 -0.4200975 -0.05202678
0002a0 e2 8f 42 be 0b da e1 bd 49 0b 3f 3d ba 3c a2 be
       -0.190002 -0.110279165 0.04664162 -0.31686956
0002b0 6d 70 af be 64 81 09 bd 73 75 59 bd a9 84 44 be
       -0.34265462 -0.033570662 -0.053090524 -0.19191231
0002c0 a2 b8 e0 bd 60 9d 57 3d 2b e0 c7 be 35 ca 17 3d
       -0.10972716 0.05264032 -0.39038214 0.037058074
0002d0 7d 97 2d 3e 60 d2 c1 bc 15 63 4d bd 36 0e 65 bd
       0.1695232 -0.023659885 -0.05014332 -0.055921756
0002e0 7b 8f 37 bd e8 60 99 be 6b e3 67 bd 47 d5 b1 3d
       -0.044814568 -0.29956746 -0.056613367 0.086832576
0002f0 f6 c5 93 3d a3 dc 40 be 10 91 ad bc c4 b2 50 bd
       0.072154924 -0.18834166 -0.021187335 -0.050951734
000300 1b ee 4a be 6f 53 60 bd cb 5f 65 3e 60 17 d5 3d
       -0.19817393 -0.05476707 0.22399823 0.10404849
000310 77 18 4e 3d fe a9 13 3e 0e 00 1b be 33 17 02 3e
       0.0503163 0.14420316 -0.1513674 0.12704162
000320 be 79 b8 3d cd 05 08 3e ca b0 5b 3e 6f 27 ff 3b
       0.090075955 0.13283463 0.21454158 0.0077866833
000330 87 dc 05 3e d2 e3 64 3e 72 de af 3d 06 cb 9f 3b
       0.13072406 0.22352532 0.0858735 0.004876497
000340 dd 4e 90 3d 09 19 96 3d 81 70 4f 3e 7a d0 80 3c
       0.07046292 0.07328994 0.2025776 0.01572441
000350 f3 a6 eb 3c 4f 99 31 bc dc f0 e2 3d 7b c3 8a 3d
       0.028766131 -0.010839774 0.110810965 0.06775566
000360 e3 32 42 be 75 2a 45 be 3e fe 01 3e a5 0e 91 bd
       -0.18964724 -0.19254477 0.12694642 -0.07082871
000370 41 02 9a bc ec 4e 94 bd f9 72 2b be fa 06 b1 bd
       -0.018799903 -0.07241616 -0.16743077 -0.08643909
000380 68 ce 63 be 6c fe 1f bd 3a be a5 3c 90 2a a7 3b
       -0.22246706 -0.039060995 0.020232309 0.0051015094
000390 f8 5e 22 be 21 52 b8 be 62 26 db bd ca cf 1d 3c
       -0.1585654 -0.3600016 -0.1070068 0.00963206
0003a0 d1 5d 53 be 5a d5 50 bd bb a2 10 3d 6a 8e ee 3d
       -0.20641257 -0.050984718 0.035311442 0.11648257
0003b0 34 1f f5 bd 6b bd 62 be a5 2e c8 3d 4d aa 18 be
       -0.11968842 -0.2214257 0.09774522 -0.14908715
0003c0 2e 60 49 3e b8 27 07 bd 86 86 d0 bb 63 e8 3e 3c
       0.19665596 -0.032996863 -0.0063636927 0.011652085
0003d0 67 c5 93 3d b4 55 36 3d ef ba 60 be 95 e1 28 be
       0.07215386 0.044515327 -0.2194631 -0.16492303
0003e0 5c e9 61 3d 0c d4 0d 3e 02 38 1a be 47 56 92 3e
       0.05515419 0.1385042 -0.15060428 0.2858145
0003f0 04 63 38 3d f1 af d9 3d c2 9d 70 bd 77 ef a7 3d
       0.045016304 0.10629261 -0.0587442 0.08199971

fc.bias f4 [10]
000000 29 33 3e 3d ed f7 9d 3c ee 2f b5 3a 70 fa 99 3c
       0.04643551 0.01928326 0.0013823488 0.018796176
000010 63 5d 74 bc 0b 65 b7 bc 5d 75 26 3d 75 1e ee 3d
       -0.014914843 -0.022387048 0.04063927 0.11626903
000020 64 95 29 3c 1e 50 0d bd
       0.010350559 -0.034500234

exp_avg f4 [16, 1, 5, 5]
000000 4d 65 11 b9 c0 1c 30 b9 2f df 0e ba 01 f2 5f 39
       -0.00013866015 -0.00016795378 -0.0005450127 0.00021357091
000010 04 5d 09 b7 3d 8d 40 39 05 90 97 37 52 ad 53 ba
       -8.187493e-06 0.00018363162 1.8067667e-05 -0.0008074838
000020 1b c2 a2 38 67 5d 19 b9 f4 dd e7 38 12 af 1f 39
       7.760917e-05 -0.00014626012 0.0001105628 0.0001522864
000030 76 d9 f0 b9 8b d2 4d 39 5a ac 4d 38 ad 0c e1 39
       -0.00045938388 0.00019628757 4.9036324e-05 0.00042924788
000040 f8 2a e4 39 5b db 99 38 46 4a 1c 3a d5 fe 9e 39
       0.00043519563 7.336467e-05 0.00059619953 0.00030325973
000050 15 57 09 39 15 7c 70 39 dc bc 3b 39 86 e3 03 3a
       0.00013097779 0.00022934408 0.00017904065 0.0005031157
000060 13 9d 0b 39 30 15 0a 3a e3 ba 18 3a 7d 7a a9 39
       0.00013314588 0.00052674394 0.0005826188 0.00032325453
000070 6b 98 b1 38 f1 07 19 3a bf c3 5c 3a 8e 57 1e 3a
       8.468408e-05 0.000583767 0.00084215024 0.00060402683
000080 c1 13 a6 38 80 41 b4 b9 51 51 e5 39 fc 90 f3 39
       7.919176e-05 -0.00034381077 0.0004373887 0.00046456594
000090 ff 2d ba b9 67 90 2e ba 75 8d 27 ba a5 21 ec b9
       -0.00035510954 -0.0006659091 -0.0006391623 -0.00045038495
0000a0 22 c6 0e 3a 92 32 8d 39 d3 7f ed 39 6b f1 3f 3a
       0.0005446394 0.00026931294 0.000452994 0.0007322046
0000b0 30 82 24 39 be 48 01 3a c4 27 07 3a d0 2b 85 3a
       0.00015688757 0.0004931799 0.0005155767 0.0010160152
0000c0 13 9e 8c 3a e1 fb e2 39 91 d2 8f b7 12 b4 e1 ba
       0.0010728262 0.00043293744 -1.7144981e-05 -0.0017219803
0000d0 d1 e6 1b bb cb 95 20 bb 76 0b 4a bb 45 92 96 bb
       -0.00237887 -0.0024503346 -0.0030829585 -0.0045950734
0000e0 52 d3 f9 bb 41 3b 89 bb f6 86 97 bb d7 41 26 bb
       -0.0076240683 -0.004187972 -0.004624243 -0.0025368833
0000f0 5a 55 b3 bb bd 8a b4 bb 6f 7e 4b bb 81 e7 00 bb
       -0.005472821 -0.005509703 -0.0031050702 -0.0019669237
000100 ec ff 3a 39 b0 ed f4 bb 54 24 ed bb 77 1e f6 bb
       0.0001783368 -0.0074746236 -0.0072369967 -0.007510956
000110 13 4d ab bb 1b fd 20 bb 3b f8 9e bb 06 82 04 bc
       -0.005227694 -0.0024564925 -0.0048513687 -0.008087641
000120 31 ff f2 bb 58 30 97 bb fa c0 36 ba c2 4a cc 3b
       -0.007415675 -0.0046139173 -0.0006971505 0.0062344978
000130 dd 90 e9 3b bf 06 e0 3a b6 e2 0b 3b 89 ac ce b8
       0.0071278648 0.0017091854 0.0021344847 -9.8549826e-05
000140 d3 14 01 3c b2 50 08 3c 02 10 26 3b 67 09 86 3a
       0.0078785 0.0083200205 0.0025339131 0.0010226191
000150 ee e5 9a ba 1d a5 d5 3b bf 8f d1 3b f9 29 fb 3a
       -0.0011817792 0.006519927 0.0063953097 0.0019162289
000160 fa 6f 88 3a 9c ff d6 b9 02 19 c5 3b 3f 3a 91 3b
       0.0010409348 -0.00041007705 0.006014944 0.0044319923
000170 1f 7d 3d 3b 7c 83 3e 3b 5a 48 ef 3a b3 40 a8 3b
       0.002891369 0.002907007 0.0018255815 0.005134666
000180 ae 06 7b 3b 93 14 a1 3b ac e4 9c 3b bc a6 30 3b
       0.0038303542 0.0049157827 0.004788002 0.002695485
000190 33 06 7f bb 09 c3 80 3a 3c fe fc ba b7 4f 56 bb
       -0.0038913607 0.000982375 -0.0019301842 -0.0032701322
0001a0 f3 df 81 bb 1a 01 4f bb 25 3c b9 3a 1e f0 38 ba
       -0.0039634644 -0.003158635 0.0014132304 -0.0007054823
0001b0 2a 12 8a bb a7 bf 93 bb 21 e9 9a ba a7 71 84 39
       -0.004213591 -0.0045089307 -0.0011818745 0.0002526168
0001c0 49 73 11 bb de f2 5c bb 4d 28 59 bb 5d c1 93 ba
       -0.002219396 -0.0033714096 -0.0033135593 -0.0011272837
0001d0 e7 fe ab b8 66 ea 4c bb a1 0d 39 bb d0 4a 42 bb
       -8.201395e-05 -0.0031267642 -0.0028236883 -0.0029646643
0001e0 b8 4e d2 ba f6 52 3d ba a6 4c d6 ba 1e ca 42 ba
       -0.0016045189 -0.000722214 -0.0016349747 -0.00074306305
0001f0 1d be ff b8 27 30 c9 3b c0 a7 9e 3b a2 8c 54 3b
       -0.00012194759 0.0061397734 0.0048417747 0.0032432457
000200 73 21 80 3b f4 74 15 3b 19 9c c1 3b 48 60 fd 3b
       0.0039102375 0.0022805305 0.005908501 0.007732425
000210 cf 4b 78 3b 3d 3d 3b 3b 62 35 3f ba 09 a6 d8 3b
       0.0037886982 0.0028570436 -0.00072940264 0.00661159
000220 23 f5 ed 3b 95 b6 06 3c 0a e8 a2 3b 06 1d a6 3a
       0.0072618886 0.008222242 0.004971509 0.0012673445
000230 03 ba 44 3b 17 52 91 3b 8d 9e b6 3b 89 4c be 3b
       0.0030018098 0.0044348347 0.0055731 0.0058074635
000240 dd d0 b9 b9 34 5b af 3a 73 a0 1c ba 32 57 7b 39
       -0.00035441565 0.0013378621 -0.00059748365 0.00023969708
000250 ef 70 ba b9 1c 31 37 bb 11 35 6e 3c 39 38 03 3c
       -0.00035560827 -0.0027952855 0.014539019 0.00800901
000260 dd 5c df 3b ab 49 37 3c 57 eb 66 3c 6f d3 30 3c
       0.00681649 0.011186997 0.014094195 0.010792597
000270 45 0b 34 3c c2 7a ae 3b 35 1e 74 3b d1 fe 2f 3c
       0.010989015 0.0053246925 0.003724945 0.010741905
000280 ab 81 3f 3c b8 62 1f 3c ac 88 33 3b 4e 46 00 bb
       0.01168863 0.009728126 0.0027394695 -0.0019573155
000290 92 ca e1 3b 61 3b 06 3c 9f 3d af 3b 00 31 1b 3a
       0.0068906033 0.008192868 0.005347922 0.00059200823
0002a0 78 61 dd 3a 17 5c 8d 3b c8 b3 ee 3b 57 7f 35 3b
       0.001689001 0.0043139565 0.007284615 0.0027694309
0002b0 6c b1 87 bb b5 a8 9f ba 79 a9 1c bb f9 c8 b3 3b
       -0.0041410234 -0.0012181016 -0.0023904725 0.0054866043
0002c0 f1 88 18 3c 55 30 26 3c c5 93 27 3c 44 d5 cb 3b
       0.009309993 0.010143359 0.010228102 0.0062204916
0002d0 1c 73 b4 3b 9d 1b 02 3c 2e 48 b2 3b ad f2 89 3b
       0.005506886 0.007941154 0.0054407334 0.0042098374
0002e0 2d 9e 00 3b 42 89 87 3b 29 99 9d 3b 93 48 20 3b
       0.001962553 0.0041362355 0.004809518 0.002445732
0002f0 6d d5 f7 3a f1 d3 b1 3a f0 ef d0 3a 43 c4 3c 3b
       0.001890821 0.0013567192 0.0015940648 0.0028803505
000300 24 07 0d 3b c6 ed 27 3b 44 99 7b 3b 42 d5 09 39
       0.0021519149 0.0025623902 0.0038390914 0.00013144783
000310 97 2a 91 3a 22 21 97 3a 5c 48 1d 3b b0 8b 20 3b
       0.0011075315 0.001153026 0.0023999428 0.0024497323
000320 85 7b 4c ba 13 59 bf 39 30 f2 77 3a 09 0a a8 39
       -0.0007800388 0.00036496724 0.0009458391 0.00032050934
000330 3e 9d aa 3a ff 7f c1 ba d8 7a cd ba 9f 43 fa 39
       0.0013016833 -0.0014762877 -0.0015676869 0.00047734097
000340 37 1a 97 3a 7e 5c 0c bb 88 b4 a3 b8 83 d9 63 b8
       0.0011528198 -0.0021417434 -7.806072e-05 -5.432359e-05
000350 09 38 d8 ba 48 e9 ee ba a4 0a c4 ba 7c 68 a2 ba
       -0.0016496192 -0.0018227482 -0.0014956784 -0.0012390758
000360 d1 40 48 bb ec d3 73 bb 3d b5 8b bb 02 3a 72 bb
       -0.0030556212 -0.0037205173 -0.0042635486 -0.0036960845
000370 36 0b 54 bb 5f 52 95 bb 09 da 10 bb 84 11 7a bb
       -0.0032355315 -0.0045569385 -0.0022102615 -0.0038157413
000380 5c f2 b5 bb 17 e9 b0 3b a5 71 01 3c ab cd dc 3b
       -0.005552573 0.00539888 0.00790063 0.0067383847
000390 a7 9a e7 3b 69 97 9e 3b 2e c5 b5 3b 89 4a e9 3b
       0.0070679965 0.004839827 0.0055471873 0.007119481
0003a0 24 57 ca 3b c4 ec da 3b b0 17 93 3b c4 53 86 3b
       0.0061749388 0.0066810567 0.0044889078 0.004099341
0003b0 3d 0d cc 3b 74 c4 ab 3b 0f d3 ab 3b 0a 28 52 3b
       0.006227164 0.005241925 0.005243666 0.0032067322
0003c0 d0 d8 55 3b db ef 75 3b 78 74 64 3b fb ab 22 3b
       0.003263045 0.0037526998 0.003485946 0.0024821747
0003d0 5f 6c c8 3a f0 24 15 3b c9 ca 03 3b 57 47 d6 3a
       0.0015291086 0.0022757612 0.0020109883 0.0016348165
0003e0 e4 4f e7 3a f6 6d ea 3a d9 87 b4 3b c0 a4 cf 3b
       0.0017647711 0.0017885554 0.0055093584 0.0063367784
0003f0 7c 2c 27 3c 35 40 24 3c 64 2b 0c 3c dc af 86 3b
       0.010203477 0.010025074 0.008555267 0.0041103195

exp_avg_sq f4 [16, 1, 5, 5]
000000 eb be 4f 36 2f 7e 11 36 fe 63 0c 36 fc 52 0e 36
       3.0956533e-06 2.1680132e-06 2.0919829e-06 2.1207952e-06
000010 ce ca 1a 36 67 61 2c 36 23 d6 c7 35 7e 97 9b 35
       2.3065836e-06 2.5686693e-06 1.4888977e-06 1.159249e-06
000020 01 ae 9d 35 52 da c9 35 98 18 1f 36 52 51 ba 35
       1.1748053e-06 1.5039207e-06 2.3707162e-06 1.3881747e-06
000030 9c 09 3b 35 72 63 0c 35 91 83 6d 35 19 8c 20 36
       6.967691e-07 5.2298776e-07 8.8480834e-07 2.3923405e-06
000040 ec 59 d5 35 5b 38 7c 35 a4 cd 63 35 42 29 9e 35
       1.5895907e-06 9.3959324e-07 8.4863336e-07 1.1783925e-06
000050 b9 b1 26 36 66 11 f4 35 ab cf 97 35 8a 07 9f 35
       2.4839376e-06 1.818448e-06 1.1310816e-06 1.1848617e-06
000060 18 75 e8 35 72 08 da 36 3f f3 d1 36 1e 8f 84 36
       1.7319426e-06 6.4978894e-06 6.257003e-06 3.9505676e-06
000070 b3 20 46 36 80 1b 86 36 54 11 d6 36 57 4a b8 36
       2.9523333e-06 3.9967126e-06 6.3797143e-06 5.4922816e-06
000080 a6 99 43 36 81 a4 fe 35 af d5 55 36 50 e3 c7 36
       2.91467e-06 1.8972352e-06 3.1863854e-06 5.957125e-06
000090 f2 ff b6 36 f6 ff 34 36 61 ee cf 35 99 53 34 36
       5.4538186e-06 2.697108e-06 1.5492079e-06 2.687075e-06
0000a0 b4 5b b5 36 60 d4 9d 36 16 46 42 36 fd f7 d5 35
       5.404896e-06 4.7036883e-06 2.8949048e-06 1.5941911e-06
0000b0 ef ba 3a 36 3e 81 cc 36 a5 46 9c 36 0f 36 50 36
       2.782497e-06 6.0947195e-06 4.6573864e-06 3.1025882e-06
0000c0 2b dd 03 36 4a a4 3e 36 0e 50 d9 38 c2 e3 be 38
       1.9649258e-06 2.8407835e-06 0.00010362278 9.102329e-05
0000d0 c9 78 a5 38 37 4d 55 38 ba 1d 1a 38 0c 64 fd 38
       7.890311e-05 5.085507e-05 3.6744146e-05 0.00012082615
0000e0 8a 30 d6 38 3b 15 b0 38 77 2d 5e 38 f0 72 2d 38
       0.00010213356 8.3962885e-05 5.2971267e-05 4.1353458e-05
0000f0 f4 86 bb 38 e0 38 b1 38 90 53 a2 38 91 15 88 38
       8.941992e-05 8.4506115e-05 7.740327e-05 6.4890024e-05
000100 d8 8f 8b 38 c9 1f 99 38 a9 3b 98 38 7c 2a 9d 38
       6.6548295e-05 7.301529e-05 7.2590374e-05 7.494257e-05
000110 df b3 97 38 27 f9 a3 38 f4 0a 83 38 1f 03 99 38
       7.233745e-05 7.818854e-05 6.248607e-05 7.29619e-05
000120 9d f4 9c 38 46 66 93 38 95 d0 81 38 7e 50 49 38
       7.4842224e-05 7.028556e-05 6.190051e-05 4.79971e-05
000130 c0 74 51 38 52 62 52 38 2b df 61 38 f2 ff 87 38
       4.9938215e-05 5.015947e-05 5.385202e-05 6.484975e-05
000140 9c 12 70 38 62 95 77 38 c8 46 83 38 db 83 8f 38
       5.723779e-05 5.9028513e-05 6.259751e-05 6.843331e-05
000150 f0 85 97 38 db d1 82 38 96 b3 6a 38 75 f4 5b 38
       7.225189e-05 6.237972e-05 5.59572e-05 5.2441337e-05
000160 5e a9 51 38 84 15 64 38 b9 ec 54 38 8a 59 2d 38
       4.998722e-05 5.4379474e-05 5.0765204e-05 4.1329804e-05
000170 e4 25 2b 38 ec 80 21 38 d3 47 53 38 12 9f 4b 38
       4.0804865e-05 3.850546e-05 5.037321e-05 4.8547117e-05
000180 4c 4a 4a 38 39 bf 49 38 1d 3a 38 38 aa ba 4a 38
       4.8229747e-05 4.8100224e-05 4.392314e-05 4.8334397e-05
000190 15 96 d7 37 da 6d f6 37 5e 34 0c 38 52 d3 1f 38
       2.5699885e-05 2.9376639e-05 3.342737e-05 3.810536e-05
0001a0 41 e5 46 38 62 78 e7 37 e7 af 0d 38 4c 81 22 38
       4.7420388e-05 2.7593404e-05 3.378084e-05 3.8744227e-05
0001b0 0d f5 51 38 d6 10 6c 38 15 68 1b 38 d4 37 3a 38
       5.0057704e-05 5.6282464e-05 3.7051814e-05 4.439785e-05
0001c0 13 a5 45 38 4a 3a 53 38 6a 69 85 38 b2 dc 40 38
       4.7122197e-05 5.0360606e-05 6.361569e-05 4.5981906e-05
0001d0 97 f3 6a 38 73 78 6b 38 ea 93 5d 38 fc 0c 8a 38
       5.601681e-05 5.6140543e-05 5.282826e-05 6.582771e-05
0001e0 8a 1b 4e 38 d9 e1 5d 38 0d 77 64 38 4a ca 5e 38
       4.9139875e-05 5.2900843e-05 5.447031e-05 5.311732e-05
0001f0 e6 2f 75 38 3c 47 15 39 a9 6b 02 39 62 4e 01 39
       5.845716e-05 0.00014236284 0.00012437873 0.00012331599
000200 54 18 f5 38 14 c6 05 39 4f 3e 11 39 28 4c f0 38
       0.00011687042 0.00012757658 0.0001385149 0.00011458277
000210 ce 89 10 39 dd a8 01 39 38 b9 00 39 b5 b1 08 39
       0.00013784246 0.00012365305 0.0001227603 0.00013036172
000220 13 69 ea 38 9d 47 1b 39 b0 90 00 39 51 13 f3 38
       0.00011177561 0.0001480863 0.00012260932 0.00011590741
000230 9e ee 12 39 0b 76 e6 38 91 37 09 39 e3 af ee 38
       0.00014012537 0.00010989242 0.00013086038 0.00011381486
000240 41 23 ef 38 8a 4f 0a 39 84 4e f0 38 2d d7 07 39
       0.000114029746 0.00013190336 0.000114587165 0.00012954762
000250 92 ea e4 38 fc 4c f4 38 2e 45 00 3a 3c 82 00 3a
       0.00010915579 0.00011649166 0.0004893121 0.0004902219
000260 b3 8a 0b 3a d0 56 0c 3a df 6c 3e 3a eb 46 e6 39
       0.0005323097 0.0005353512 0.0007264148 0.00043921857
000270 06 a7 ef 39 16 68 03 3a 2e c8 dc 39 10 34 1a 3a
       0.00045710074 0.00050127634 0.00042110815 0.00058823917
000280 00 fd 03 3a 14 11 03 3a 86 d4 10 3a 5d 4b e2 39
       0.00050349534 0.0004999798 0.00055248325 0.0004316223
000290 21 a1 0e 3a 40 bc ff 39 a1 dc 01 3a 0f 66 0d 3a
       0.000544088 0.00048777647 0.0004953836 0.0005393931
0002a0 40 4e f2 39 d3 c4 0a 3a a7 5c f9 39 77 03 fc 39
       0.00046216138 0.00052936113 0.00047562012 0.00048067767
0002b0 bb 9b 01 3a be 6c ea 39 46 e9 f6 39 08 da a2 38
       0.0004944165 0.00044712977 0.0004709458 7.7653734e-05
0002c0 8d d4 ad 38 11 80 b1 38 b1 91 a8 38 bd a5 a2 38
       8.2888735e-05 8.463872e-05 8.0380014e-05 7.755633e-05
0002d0 d2 f8 8f 38 24 b8 81 38 35 14 4c 38 a5 80 2e 38
       6.865118e-05 6.185498e-05 4.865621e-05 4.1604642e-05
0002e0 91 dc 58 38 e1 8a 82 38 5c 38 01 38 9c 79 68 37
       5.170383e-05 6.224751e-05 3.0808485e-05 1.3856592e-05
0002f0 33 d7 45 37 46 4c c8 37 df da 88 38 6a ab e6 37
       1.179222e-05 2.3877375e-05 6.525753e-05 2.7497957e-05
000300 3d b9 0a 37 20 36 f1 36 54 d1 85 37 a2 04 6c 38
       8.26857e-06 7.1886607e-06 1.5952312e-05 5.62711e-05
000310 06 20 42 38 d6 12 c1 37 64 1f 68 37 c2 4a ab 37
       4.628303e-05 2.3016164e-05 1.3835586e-05 2.04196e-05
000320 9a 66 b8 37 3f c1 cb 37 4e c2 1b 38 e0 d8 29 38
       2.1982287e-05 2.4289473e-05 3.713584e-05 4.049472e-05
000330 71 e4 2c 38 c7 e0 80 37 9a 75 7e 37 41 22 02 38
       4.122075e-05 1.536346e-05 1.5166961e-05 3.1026317e-05
000340 df c4 25 38 51 1c 36 38 d7 d5 c0 37 e5 a0 ab 37
       3.9522416e-05 4.3418553e-05 2.298776e-05 2.045971e-05
000350 92 3b 26 38 3e b9 6d 38 84 78 53 38 f8 76 76 38
       3.9632963e-05 5.6677723e-05 5.041856e-05 5.876177e-05
000360 31 34 5e 38 09 c7 58 38 7d 7a 4c 38 f4 f8 2b 38
       5.297753e-05 5.168378e-05 4.8751466e-05 4.1001433e-05
000370 a7 c2 96 38 41 c8 7a 38 c5 13 5b 38 ec 2b 3d 38
       7.188814e-05 5.9791146e-05 5.223208e-05 4.5102017e-05
000380 d3 d2 0e 38 9e 63 e9 37 2b 57 13 38 92 cd 13 38
       3.4051784e-05 2.7822152e-05 3.5128713e-05 3.5238983e-05
000390 d0 c4 04 38 a7 7a f4 37 88 0a df 37 c0 0f f9 37
       3.165455e-05 2.9144181e-05 2.6588576e-05 2.9690447e-05
0003a0 11 5d ef 37 6f 94 ec 37 e4 e0 de 37 0e 9f b3 37
       2.8534358e-05 2.8202512e-05 2.6569185e-05 2.1412528e-05
0003b0 3e 98 cb 37 da 91 af 37 e3 38 9b 37 77 3f 9b 37
       2.4270379e-05 2.0929543e-05 1.850393e-05 1.8506993e-05
0003c0 c5 b9 ad 37 49 ef 53 37 b7 23 02 37 bc fe db 36
       2.0709713e-05 1.2632293e-05 7.756919e-06 6.5563636e-06
0003d0 9a 5d 06 37 68 fe a7 37 d7 c6 07 37 9d 15 93 36
       8.008816e-06 2.0026418e-05 8.092923e-06 4.3834575e-06
0003e0 6d 7b 8d 36 44 c8 a2 36 0a de 34 39 53 8e 26 39
       4.216496e-06 4.85129e-06 0.00017248854 0.00015884014
0003f0 52 9b 3a 39 94 ca 3f 39 f6 e1 60 39 aa 3a 5f 39
       0.00017796204 0.00018290646 0.00021446482 0.00021288791

exp_avg f4 [16]
000000 1a 87 1e 33 b8 70 a5 32 d0 32 73 34 2f 24 6f b2
       3.6910116e-08 1.9259787e-08 2.2649624e-07 -1.3919858e-08
000010 1e df 0e 34 b9 2d 9f b4 b4 c5 3d 35 b8 3a a6 33
       1.330595e-07 -2.9649325e-07 7.069568e-07 7.740658e-08
000020 86 4d f9 32 65 d0 c9 32 d6 96 8b 34 ee 0e bd 33
       2.9022669e-08 2.3494247e-08 2.6000515e-07 8.803714e-08
000030 ff 81 52 b3 ac b6 e8 b2 a7 af db b2 ca d3 72 33
       -4.9012666e-08 -2.7091424e-08 -2.5574833e-08 5.6537637e-08

exp_avg_sq f4 [16]
000000 b3 40 1a 28 c7 88 b5 27 eb ed 79 29 b6 de 04 29
       8.562747e-15 5.0385886e-15 5.5495468e-14 2.950306e-14
000010 7b db 26 29 c2 57 35 2a b9 10 3d 2b 2f b7 6f 29
       3.7049773e-14 1.6106477e-13 6.7169496e-13 5.3227547e-14
000020 db 72 81 28 32 e0 80 28 1d 15 2a 2a ae cf 34 2a
       1.4371688e-14 1.4308084e-14 1.5106358e-13 1.6059265e-13
000030 34 56 33 29 04 23 4d 29 ae cb 13 28 5b 49 4e 29
       3.9820754e-14 4.5549515e-14 8.204305e-15 4.5804814e-14

exp_avg f4 [16]
000000 8e 39 8d bb 92 09 fa ba fa 13 ad ba d2 75 91 3b
       -0.0043098396 -0.0019076339 -0.0013204806 0.004439094
000010 bf 44 ee 3b 58 94 98 bb cc e6 31 bb 93 9c c4 3a
       0.0072713788 -0.004656356 -0.0027145622 0.0015000276
000020 d9 87 c7 ba 7b c7 d6 3a c2 64 1c 3c 49 ea b4 bb
       -0.0015222981 0.0016386354 0.009545507 -0.005521093
000030 9b 01 36 bb 83 b0 11 bb e2 c0 6c bb 8b 88 d1 ba
       -0.0027771953 -0.0022230453 -0.003612571 -0.0015986128

exp_avg_sq f4 [16]
000000 6b 0b 00 39 ba 93 9d 38 a6 97 04 39 2e 1a 99 38
       0.00012211285 7.5138596e-05 0.00012644994 7.300485e-05
000010 8a a3 aa 38 5b d0 92 38 c2 97 ef 38 5c 6e 04 38
       8.136693e-05 7.000632e-05 0.00011424675 3.1574033e-05
000020 5e a2 f8 37 6e cb a5 37 f5 89 ab 38 66 8c de 38
       2.9639512e-05 1.9764262e-05 8.179612e-05 0.00010611936
000030 52 90 1a 38 a1 91 58 38 08 76 d1 38 b1 e7 46 38
       3.685087e-05 5.163404e-05 9.987882e-05 4.7422658e-05

exp_avg f4 [16]
000000 e8 f5 1e bb 90 48 b6 ba 5a a7 8d 35 cc 63 10 bb
       -0.0024255458 -0.0013907123 1.0554024e-06 -0.002203214
000010 af a9 22 3b 41 35 fc b8 b4 21 ef 3a 0e e4 35 39
       0.0024820378 -0.00012026216 0.0018244297 0.00017346462
000020 8e ae 08 ba 53 57 56 b9 ff 34 33 3c 1c 2e 4f bb
       -0.0005213999 -0.00020441161 0.010937928 -0.0031613177
000030 dd 3f 07 b9 dd 51 b4 ba d8 68 c2 ba 48 87 0f bb
       -0.00012898394 -0.0013757307 -0.0014832271 -0.0021900702

exp_avg_sq f4 [16]
000000 eb bd 89 38 15 4b 2c 38 9d 19 30 38 3b aa d4 37
       6.568044e-05 4.107792e-05 4.1985524e-05 2.535164e-05
000010 ce c0 08 38 9b 88 70 38 d2 dd 72 38 3b 8d 6e 38
       3.260449e-05 5.7347683e-05 5.7903882e-05 5.6875153e-05
000020 11 15 b4 37 d9 f1 02 38 6d 3e 19 38 7c 68 8c 38
       2.1467482e-05 3.1219653e-05 3.653618e-05 6.695182e-05
000030 04 24 86 37 14 0b 6f 38 36 78 54 38 f9 62 74 38
       1.5990816e-05 5.6992358e-05 5.0656694e-05 5.826631e-05
