oraclebackend/train/non-iid/checkpoint/fmnist/ckpt_2_0.pth (torch, 358777 bytes, 34 tensors)

layer1.0.weight f4 [16, 1, 5, 5]
0	0xbeba8846	-0.36432093
1	0x3d58dcd8	0.052944988
2	0x3e47b922	0.19504216
3	0x3e5ced5c	0.2157492
4	0x3de4672b	0.1115249
5	0xbdc43bbd	-0.09581707
6	0x3e02bd7f	0.127676
7	0x3e318152	0.17334488
8	0x3e5723c5	0.21009739
9	0x3e044244	0.12915903
10	0xbdd693f9	-0.10477442
11	0x3aadccd0	0.0013259891
12	0x3e61f0eb	0.22064559
13	0x3ee2ac0d	0.4427189
14	0x3eab7eb2	0.33495098
15	0xbe1668ca	-0.14688411
16	0x3e2c4b47	0.16825591
17	0x3e841ea0	0.25804615
18	0x3e140c66	0.14457855
19	0x3eac6cd9	0.33676794
20	0xbdfb9361	-0.1228397
21	0x3e421770	0.18954253
22	0x3e7e4f53	0.24834947
23	0x3e81f83d	0.25384703
24	0x3e1ff109	0.15619291
25	0xbeb5aad8	-0.35481906
26	0xbdaafa9d	-0.08348582
27	0x3c9df4b2	0.019281719
28	0x3edc35d4	0.43009818
29	0x3da33e2b	0.07970842
30	0x3b812180	0.003940761
31	0xbd6f0c5a	-0.05836139
32	0x3d9ee2bd	0.07758091
33	0x3ea28eca	0.31749564
34	0xbb6f663d	-0.0036529445
35	0xbd684f3a	-0.05671618
36	0xbc933e73	-0.017974114
37	0x3dd73796	0.10508649
38	0x3ec1bbcb	0.37838587
39	0x3dc04543	0.093882106
40	0xbe548ad8	-0.2075609
41	0xbe757c90	-0.23973298
42	0x3e425748	0.18978608
43	0x3ebd1e82	0.36937338
44	0x3e38a79d	0.1803269
45	0x3d8b963f	0.068157665
46	0xbe173825	-0.14767511
47	0xbb486a73	-0.0030581027
48	0x3e648299	0.22315444
49	0xbd5b6628	-0.05356422
50	0xbd75c68b	-0.0600038
51	0xbe7524db	-0.2393984
52	0x3e289a98	0.16465223
53	0x3d4f21b6	0.05056926
54	0xbee6377a	-0.449642
55	0xbd5d04ff	-0.053959843
56	0xbd75ac46	-0.059978746
57	0xbdc44f18	-0.095853984
58	0xbec1dbb1	-0.37862924
59	0xbf193ebf	-0.5986137
60	0x3e816e35	0.25279394
61	0x3f0b21db	0.54348534
62	0x3ea88922	0.32917124
63	0xbdd911fc	-0.10599133
64	0xbd36efc1	-0.04466224
65	0x3dffbe0e	0.12487422
66	0xbe23bc13	-0.15989713
67	0x3debd3ee	0.11515032
68	0x3df55d1f	0.11980652
69	0x3e8274cb	0.2547973
70	0x3cddc599	0.027071761
71	0x3e504a31	0.20340802
72	0x3dee4c8f	0.11635696
73	0x3dcfd5f9	0.10148234
74	0xbd9b5b7d	-0.075858094
75	0xbd27530e	-0.04085069
76	0x3dc104d4	0.09424749
77	0x3e290f6b	0.16509788
78	0x3cfa3fe6	0.030548047
79	0x3e3a9ace	0.18223116
80	0x3e635714	0.22201186
81	0x3e4b9a28	0.19883025
82	0x3de957ab	0.113936745
83	0x3e8794fa	0.26480848
84	0xbe22a59b	-0.15883486
85	0x3e49cfc9	0.1970817
86	0x3cda201e	0.026626643
87	0xbc3e1a93	-0.0116030155
88	0xbe5a6706	-0.21328363
89	0xbc13d86d	-0.009023768
90	0xbe492296	-0.196421
91	0xbed96d26	-0.42466086
92	0xbe1a4e41	-0.15068914
93	0xbea46f7c	-0.32116306
94	0x3e20f133	0.1571701
95	0xbe89fcd2	-0.269507
96	0xbea4a56c	-0.32157457
97	0xbe76d06f	-0.24102949
98	0xbe47098c	-0.19437236
99	0x3e79be69	0.24389042
100	0xbe9580b8	-0.29199767
101	0x3e42a102	0.19006732
102	0x3e40c4a6	0.18825015
103	0x3ca84111	0.020538839
104	0x3ea79744	0.32732594
105	0x3e316f36	0.1732758
106	0x3e3a86d5	0.18215497
107	0x3e6f679d	0.23379369
108	0x3e72b3ee	0.2370145
109	0x3e333de7	0.17504083
110	0x3e247515	0.16060288
111	0x3eb11096	0.34582967
112	0xbc7ed0e5	-0.015552734
113	0xbeaa43f6	-0.33254975
114	0x3d40c378	0.047061414
115	0xbdede0aa	-0.11615117
116	0xbdefe4e6	-0.11713581
117	0x3db932c7	0.09042888
118	0xbed19029	-0.40930298
119	0xbd8af69f	-0.067853205
120	0x3d9962a5	0.07489518
121	0xbe0ded5c	-0.13860077
122	0xbe8752ca	-0.2643035
123	0xbefb7b34	-0.49117434
124	0x3c4fd9c4	0.012686197
125	0xbc09732d	-0.008389276
126	0x3c3b2aec	0.011423808
127	0xbde486c9	-0.11158521
128	0x3d36ee99	0.04466114
129	0x3e8e6afc	0.27815998
130	0xbe1a7da4	-0.1508699
131	0xbe082778	-0.13296306
132	0xbe4ca296	-0.19983897
133	0x3ed2e20a	0.4118808
134	0x3ddace38	0.10683864
135	0xbe8a0909	-0.26960018
136	0xbe4b1b22	-0.19834569
137	0x3d449245	0.047991056
138	0xbd4c9242	-0.04994417
139	0x3ea90a9c	0.33015907
140	0x3eb5c43d	0.3550128
141	0xbd263be4	-0.04058446
142	0xbed25f35	-0.41088262
143	0xbde926be	-0.113843426
144	0x3e85ba59	0.26118734
145	0x3e9887d9	0.29791144
146	0x3e0f6158	0.14001977
147	0xbebfa8fd	-0.37433615
148	0xbe6a23f0	-0.22865272
149	0x3e11c8cc	0.14236754
150	0x3db86e3b	0.090054
151	0x3d06b865	0.032890696
152	0xbe306560	-0.17226171
153	0x3daa79b5	0.08323995
154	0x3d525474	0.051350072
155	0xbdb27685	-0.08714012
156	0x3db5ad87	0.08870988
157	0xbee85aca	-0.45381767
158	0x3f092cf3	0.5358421
159	0xbdf5e381	-0.120062836
160	0x3d3c204d	0.045929242
161	0xbe435b4c	-0.19077796
162	0xbe94492c	-0.28962076
163	0x3f1894f2	0.5960227
164	0xbe599b35	-0.21250613
165	0x3cd3ec7b	0.025869599
166	0xbe4ab16e	-0.19794247
167	0xbd1b2cf2	-0.03788466
168	0x3ead06df	0.33794305
169	0xbde24eb8	-0.11050171
170	0x3dd36b5c	0.103232116
171	0x3c757426	0.014981305
172	0xbe80a1b7	-0.2512338
173	0x3e539d7a	0.20665541
174	0xbd8936a1	-0.06699873
175	0xbddfaae9	-0.109212704
176	0x3d9a3724	0.075300485
177	0x3e985944	0.29755604
178	0x3ea5dec6	0.32396525
179	0x3e3a73eb	0.18208282
180	0xbc871624	-0.01649005
181	0xbddef75b	-0.10887023
182	0xbe0413d2	-0.12898186
183	0xbd871850	-0.06596434
184	0x3e5f343b	0.21797268
185	0x3ddda5fa	0.10822673
186	0xbe4485a2	-0.19191602
187	0xbec240c2	-0.3794003
188	0xbeedf2b3	-0.46474227
189	0x3b7da95c	0.0038705682
190	0x3e3f2419	0.18666114
191	0xbeb97dba	-0.36228734
192	0xbf31b590	-0.6941767
193	0xbf37e41e	-0.71832454
194	0xbe8782b6	-0.26466912
195	0xbd8a0aa8	-0.06740314
196	0x3e50c822	0.20388845
197	0xbd71927b	-0.058977585
198	0xbe84f857	-0.25970718
199	0xbd81e705	-0.063428916
200	0x3da25574	0.07926455
201	0x3d25397c	0.040338024
202	0x3d26f29a	0.040758707
203	0xbe3c6a63	-0.18399958
204	0x3e4cc072	0.19995287
205	0xbeec73e2	-0.46182162
206	0xbed4899f	-0.41511247
207	0xbe88474b	-0.26616892
208	0xbe137789	-0.14401068
209	0x3ea86d6b	0.3289598
210	0xbea89a55	-0.32930246
211	0xbf0b0c4b	-0.5431563
212	0xbda0c7fb	-0.07850643
213	0x3d724e05	0.059156436
214	0x3dae7d66	0.085200116
215	0x3b049167	0.0020228268
216	0x3d28f606	0.04125025
217	0x3e3172f9	0.17329015
218	0x3e1bb081	0.1520405
219	0xbe068401	-0.13136293
220	0x3dfbf78c	0.12303075
221	0xbc886d36	-0.016653638
222	0x3e07d732	0.13265684
223	0x3e28326d	0.16425486
224	0xbda4ece2	-0.08052994
225	0xbe4b94df	-0.19881009
226	0x3e4a7569	0.19771351
227	0x3e7c8bbc	0.2466268
228	0x3cafb682	0.021449331
229	0xbcdf802e	-0.0272828
230	0x3db4a5ce	0.08820687
231	0x3bf2cae7	0.0074094418
232	0x3d83a17a	0.064272836
233	0x3c1bab8a	0.009501347
234	0x3c80e10d	0.015732313
235	0xbe5b3732	-0.21407774
236	0x3db696db	0.08915492
237	0x3de461c4	0.1115146
238	0x3d99e082	0.075135246
239	0x3db07758	0.08616513
240	0xbdfbc106	-0.12292676
241	0xbe80ebb1	-0.25179818
242	0xbeb8f725	-0.36126056
243	0xbe9c56e9	-0.30535057
244	0xbdf64dbe	-0.12026547
245	0x3e892144	0.26783192
246	0xbeb01c5d	-0.3439664
247	0xbf19cfc7	-0.6008267
248	0xbf0074e3	-0.50178355
249	0xbe84f911	-0.25971273
250	0xbebaa180	-0.3645134
251	0xbe451f73	-0.19250278
252	0x3d9910bf	0.07473897
253	0x3dfabd5f	0.12243151
254	0xbd19f98f	-0.037591513
255	0xbe760539	-0.2402543

layer1.0.bias f4 [16]
0	0x3dcf7a2b	0.101307236
1	0x3e6eb6b7	0.23311888
2	0xbeb5bc18	-0.35495067
3	0xbec7b369	-0.39004067
4	0xbe89fc56	-0.2695033
5	0x3e9174fc	0.28409564
6	0x3e933672	0.28752476
7	0x3dece6fb	0.115674935
8	0x3d99adeb	0.07503875
9	0x3c791c72	0.015204536
10	0x3e3b4a55	0.18290074
11	0x3ea69c46	0.32541102
12	0xbe0c4096	-0.13696513
13	0xbe618bc6	-0.22025976
14	0xbcda62c8	-0.02665843
15	0x3d2c5cba	0.04208062

layer1.1.weight f4 [16]
0	0x3f4662b4	0.7749436
1	0x3f0ed2a2	0.5579015
2	0x3f89f31e	1.0777318
3	0x3f541561	0.8284512
4	0x3f5fe26a	0.87454855
5	0x3f85bd2a	1.0448353
6	0x3fa649db	1.2991289
7	0x3fd4f85e	1.6638296
8	0x3f71da95	0.94474155
9	0x3f864fd9	1.0493118
10	0x3f8a3037	1.0795964
11	0x3f5e3ce8	0.86811686
12	0x3f291f60	0.660635
13	0x3fc39106	1.5278633
14	0x3f2359cf	0.6380891
15	0x3f997f58	1.1991987

layer1.1.bias f4 [16]
0	0xbe4f0a61	-0.20218803
1	0xbe32245d	-0.17396684
2	0xbe2e3569	-0.17012562
3	0xbe5f23c9	-0.21790995
4	0xbdf3bf3d	-0.1190171
5	0xbdc1e223	-0.0946696
6	0xbc114efc	-0.008868929
7	0xbf3398d0	-0.7015505
8	0xbea14796	-0.31499928
9	0xbf0cd036	-0.55005205
10	0x3c982081	0.018570187
11	0xbe114ea9	-0.14190163
12	0x3ea281bf	0.31739613
13	0xbf0c5e73	-0.5483162
14	0xbe8bf734	-0.2733704
15	0xbf120025	-0.5703147

layer1.1.running_mean f4 [16]
0	0x3fe86e7e	1.815872
1	0x3f6a68ca	0.91566145
2	0xbe4bf1c4	-0.19916445
3	0xbf170a75	-0.5900033
4	0xbe1187fd	-0.14212032
5	0x3ef30fc5	0.4747297
6	0x3e98fd70	0.29880857
7	0xbf8e0dc5	-1.1097952
8	0xbf154888	-0.583138
9	0xbf7c7e8b	-0.9863059
10	0xbd38ad1a	-0.045086958
11	0x3d6e47c4	0.05817391
12	0xbee4a52c	-0.44657266
13	0xbfd5e6bf	-1.6711043
14	0x3fca4bd4	1.5804391
15	0xc002f430	-2.046154

layer1.1.running_var f4 [16]
0	0x4132b13f	11.168273
1	0x40556e62	3.3348622
2	0x3fd3827c	1.6524196
3	0x3f99550d	1.197908
4	0x3f9834b1	1.189108
5	0x3f7978cc	0.97449946
6	0x3f23f00b	0.6403815
7	0x40d55d16	6.667613
8	0x40239ca4	2.5564356
9	0x40835bf3	4.1049743
10	0x3f00121e	0.50027645
11	0x3fc3cf80	1.5297699
12	0x3f7ba701	0.983017
13	0x411e3e84	9.890263
14	0x410faba3	8.9794035
15	0x4175fd75	15.374379

layer2.0.weight f4 [32, 16, 5, 5]
0	0x3d37b2f0	0.044848382
1	0x3c9751cb	0.01847162
2	0x3d4157eb	0.047202986
3	0x3d2e8903	0.042611133
4	0x3c9ee091	0.019394191
5	0xbbf3b069	-0.007436801
6	0xbc2eb8f7	-0.010664216
7	0x3d23d700	0.03999996
8	0x3cd93097	0.026512427
9	0x3cef8ee0	0.029242933
10	0x3e2c4678	0.16823757
11	0x3e2567ae	0.16152832
12	0x3dedb685	0.116070785
13	0x3db92b6a	0.09041484
14	0x3dcd2e68	0.10018617
15	0x3dfa3cd9	0.12218637
16	0x3dddf0ac	0.1083692
17	0x3dba53c1	0.09098006
18	0x3e0a9106	0.13531885
19	0x3d6dcf09	0.058058772
20	0xbdaecec6	-0.08535533
21	0x3d3e112a	0.046403088
22	0x3daf3427	0.08554869
23	0x3dd294c7	0.10282283
24	0x3d8f0303	0.06982996
25	0x3d58de5d	0.052946437
26	0xbdd607e6	-0.10450725
27	0xbd9f0b67	-0.07765847
28	0xbbd6ce1c	-0.006555332
29	0xbdbd5235	-0.09244195
30	0x3d4b9227	0.04969993
31	0xbe3849bb	-0.17996876
32	0xbd8aa09a	-0.067689136
33	0x3dd92d46	0.10604338
34	0xbdf2755f	-0.11838793
35	0x3e0b5ac3	0.13608842
36	0xbdf66ddd	-0.120326735
37	0x3c80d5db	0.015726974
38	0x3df1aa7c	0.118000954
39	0xbd879dbe	-0.06621884
40	0x3e1573d3	0.14594965
41	0xbdc085c2	-0.09400512
42	0x3dd31d79	0.10308356
43	0x3e487557	0.19576012
44	0x3cd28040	0.02569592
45	0xbc5aae4a	-0.013347218
46	0xbdc9aad3	-0.09847035
47	0x3c9da007	0.019241346
48	0x3e2cffcf	0.16894458
49	0x3d0b238d	0.03396945
50	0x3e231903	0.1592751
51	0x3e306b54	0.17228442
52	0x3e1cb6c7	0.15304099
53	0x3e9b5af5	0.30342832
54	0x3e9e143e	0.3087482
55	0xbdbea0fc	-0.09308049
56	0xbd7b01a4	-0.06128086
57	0xbdf204cb	-0.118173204
58	0x3d5d10a0	0.053970933
59	0x3e30714e	0.17230722
60	0x3ebf5fa1	0.37377647
61	0x3e96e689	0.2947276
62	0x3e7eee51	0.24895598
63	0x3e849272	0.2589298
64	0x3ea08c29	0.31356934
65	0xbd1cff45	-0.03832938
66	0x3b48cc4e	0.0030639353
67	0x3cfb8eb0	0.030707687
68	0x3db9e4d5	0.09076849
69	0x3e5352ad	0.20637007
70	0xbde1cedd	-0.11025784
71	0xbd1914b7	-0.03737327
72	0xbd426b16	-0.047465406
73	0x3cc2c2f7	0.023774607
74	0x3d5922fe	0.053011887
75	0xbd750cd5	-0.05982669
76	0xbd875ec1	-0.0660987
77	0xbd83e895	-0.06440846
78	0x3d6b7d1e	0.057492368
79	0xbe1a1a89	-0.15049185
80	0x3d5b38fb	0.053521138
81	0xbcd39d8e	-0.025831964
82	0xbc36b748	-0.011152096
83	0xbb9ef316	-0.0048507554
84	0xbe6cc355	-0.23121388
85	0xbea795e5	-0.32731548
86	0xbea6bdaf	-0.32566592
87	0xbe30763e	-0.17232606
88	0xbbef755e	-0.0073076924
89	0xbe458341	-0.1928835
90	0x3d79d3e4	0.06099309
91	0x3e4fb24b	0.20282857
92	0x3e6973f2	0.22798136
93	0x3db47750	0.088118196
94	0xbdf14146	-0.11780028
95	0x3e647fb3	0.22314338
96	0x3e85206c	0.26001298
97	0x3e20a096	0.15686259
98	0x3e114f17	0.14190327
99	0x3d453e70	0.04815525
100	0xbe15e234	-0.14637071
101	0xbd9a83ea	-0.07544692
102	0xbe1f1383	-0.15534787
103	0xbe3a77ba	-0.18209735
104	0xbe388388	-0.18018925
105	0xbe697897	-0.22799908
106	0xbe200543	-0.15627007
107	0xbe4b1a47	-0.19834243
108	0xbe65980f	-0.22421287
109	0xbd520245	-0.051271696
110	0xbea19a97	-0.31563255
111	0xbe5e2c6b	-0.21696632
112	0xbe50503a	-0.20343104
113	0xbdce8155	-0.10083262
114	0x3dd0e7f3	0.10200491
115	0x3c9bae45	0.019003997
116	0x3e0f4ca5	0.13994081
117	0x3dc79161	0.09744526
118	0x3cddfd06	0.02709819
119	0x3cdd8b8e	0.027044084
120	0x3e11d969	0.14243092
121	0x3da32090	0.07965195
122	0xbe051f44	-0.13000208
123	0x3e045dd8	0.12926424
124	0x3e1a0539	0.15041055
125	0xbea1d2df	-0.31606194
126	0xbe646f7c	-0.22308153
127	0xbd8b14f2	-0.067911044
128	0xbcead60f	-0.028666524
129	0x3c872a61	0.0164997
130	0xbeb912c4	-0.3614713
131	0xbe367702	-0.17818835
132	0xbe3217d8	-0.17391908
133	0x3bb06901	0.005383611
134	0xbddffc81	-0.10936833
135	0xbf03a324	-0.5142081
136	0xbec1a897	-0.37823936
137	0xbe97facc	-0.2968353
138	0x3dff62d6	0.12470023
139	0xbe8b8f2c	-0.2725767
140	0xbe8ed6fb	-0.27898392
141	0xbebe8561	-0.37211135
142	0xbeb217e8	-0.34783864
143	0x3b98ad3e	0.004659324
144	0xbdb9502f	-0.09048497
145	0xbe095955	-0.13412984
146	0xbecc9942	-0.39960676
147	0xbe9e69fb	-0.30940232
148	0xbe32523f	-0.17414187
149	0x3c133fe0	0.008987397
150	0x3c1babfc	0.0095014535
151	0xbe279a15	-0.16367371
152	0xbe48f471	-0.19624497
153	0x3e8e75a2	0.27824122
154	0xbc6dc5a6	-0.014512455
155	0xbe3e0eca	-0.18560329
156	0xbebe7450	-0.37198114
157	0xbe5eaab0	-0.217448
158	0x3e2ab3eb	0.16670196
159	0xbe1741eb	-0.1477124
160	0xbe8fa313	-0.28054103
161	0xbed3a51e	-0.41336912
162	0xbe9bc219	-0.30421522
163	0x3e7c1223	0.24616294
164	0xbe16faf1	-0.14744164
165	0xbe9d484d	-0.30719224
166	0xbeddde6e	-0.43333763
167	0xbeaacf00	-0.33361053
168	0x3e5c3f9e	0.21508643
169	0x3d48ac04	0.048992172
170	0xbe4f8449	-0.20265307
171	0xbeb53841	-0.3539448
172	0xbe725b40	-0.23667622
173	0x3d1529e7	0.036416914
174	0xbccbec65	-0.024892995
175	0xbd9af9dc	-0.07567188
176	0xbe146b2d	-0.1449401
177	0xbde54048	-0.11193901
178	0xbeb3a5bc	-0.35087383
179	0xbdd76dd0	-0.10518992
180	0xbde57297	-0.11203497
181	0xbe43bc6e	-0.19114849
182	0xbe3e56e8	-0.1858784
183	0xbe44909c	-0.19195789
184	0xbe657f2b	-0.22411792
185	0xbe8f5e9c	-0.2800187
186	0xbea8b291	-0.32948735
187	0xbe85c03c	-0.26123226
188	0xbe9418b7	-0.28925106
189	0xbe5f06d4	-0.21779948
190	0xbcd43e6a	-0.025908668
191	0xbe3b8f9b	-0.183165
192	0xbe2631d0	-0.1622994
193	0xbe8208ae	-0.25397247
194	0xbe9c9df4	-0.3058926
195	0x3b9e71bc	0.0048353355
196	0xbd98fb92	-0.07469858
197	0xbe12e57e	-0.14345357
198	0xbe9e8b5f	-0.30965707
199	0xbe6b7804	-0.22995001
200	0xbceefa3b	-0.029172054
201	0xba2a7ac0	-0.00065032765
202	0x3c9f2894	0.019428529
203	0x3c273cc8	0.0102073625
204	0xbc83348f	-0.016016273
205	0x3da5838c	0.08081731
206	0x3c5b8111	0.013397471
207	0xbe11c447	-0.1423503
208	0xbdc5068d	-0.0962039
209	0xbd181661	-0.037130717
210	0x3d0e6ea2	0.034773476
211	0xbcac01d6	-0.02099697
212	0xbd7eede0	-0.062238574
213	0xbe373c62	-0.17894128
214	0xbe166c12	-0.14689663
215	0xbc512350	-0.012764767
216	0xbde80ac2	-0.11330177
217	0xbdeddd34	-0.11614457
218	0xbe498fc9	-0.19683756
219	0xbe850f34	-0.25988162
220	0xbde177d2	-0.11009182
221	0xbc375cd0	-0.011191562
222	0xbe470b95	-0.19438012
223	0xbe346f28	-0.17620528
224	0xbec89ef1	-0.39183763
225	0xbdbfcd26	-0.09365301
226	0xbe28a535	-0.16469271
227	0xbddfd00c	-0.10928354
228	0xbe48ba3f	-0.19602297
229	0xbe8b5334	-0.27211916
230	0xbe802b20	-0.25032902
231	0xbe92cc8e	-0.28671688
232	0xbe828b7f	-0.25497052
233	0xbe9488f8	-0.2901075
234	0xbe82b0e7	-0.2552559
235	0xbdfb1e37	-0.122616224
236	0xbe11b407	-0.14228831
237	0xbe8775e9	-0.26457146
238	0xbe4ec264	-0.20191342
239	0xbe5f31d6	-0.21796355
240	0x3e21291e	0.15738341
241	0x3cd348b8	0.025791511
242	0xbda69e13	-0.08135619
243	0xbe89d71b	-0.26921925
244	0xbdb239f3	-0.08702459
245	0xbc9ccfd3	-0.019142067
246	0xbd610e1a	-0.05494509
247	0xbdc0098a	-0.093768194
248	0xbe2a25fd	-0.16616054
249	0x3d010226	0.03149619
250	0xbd6ccec6	-0.057814382
251	0x3dd0c1b0	0.10193193
252	0x3d1a57d7	0.037681427
253	0x3db0055b	0.085947715
254	0x3dfe0b76	0.1240453
255	0xbe827e3b	-0.2548693

layer2.0.bias f4 [32]
0	0x3df7f6d6	0.12107627
1	0xbdcbdb4b	-0.09953936
2	0x3dd85c7e	0.105645165
3	0xbdafa756	-0.08576839
4	0xbe002f23	-0.12517981
5	0xbd011292	-0.03151185
6	0x3ca5372b	0.020167908
7	0x3d66d5ae	0.056356125
8	0x3d294b22	0.041331418
9	0x3da8da4d	0.082447626
10	0x3d651f15	0.055937845
11	0xbe760980	-0.24027061
12	0x3e2316c5	0.15926655
13	0x3dbf4694	0.093396336
14	0xbbddb1ac	-0.006765565
15	0xbe8025c1	-0.25028804
16	0xbd784e78	-0.06062171
17	0xbdabff84	-0.08398345
18	0x3e2e1de4	0.1700359
19	0x3e5ac41b	0.21363871
20	0x3cefc0a7	0.029266668
21	0xbd57cd26	-0.05268588
22	0xbd268fdf	-0.04066455
23	0x3a5fde73	0.00085399224
24	0x3d5a460a	0.05328945
25	0xbe044dd4	-0.12920314
26	0xbc606d65	-0.013697957
27	0x3dd2a652	0.10285629
28	0xbd7b9001	-0.06141663
29	0x3cd4bb59	0.02596824
30	0x3d3fd549	0.046834264
31	0xbd0e0239	-0.03467009

layer2.1.weight f4 [32]
0	0x3ef0d466	0.47037047
1	0x3ef9c4df	0.48783013
2	0x3ef8d304	0.48598492
3	0x3f0d5b3e	0.5521735
4	0x3f3eac75	0.744819
5	0x3eb7c7a8	0.35894513
6	0x3efb9b41	0.49141887
7	0x3ebd5e5e	0.3698606
8	0x3e9f9d12	0.31174523
9	0x3ec09b7c	0.37618625
10	0x3f14ee0f	0.5817575
11	0x3f150238	0.5820651
12	0x3f277f1e	0.6542834
13	0x3f026c03	0.5094606
14	0x3efc944b	0.4933189
15	0x3f023cfd	0.5087431
16	0x3f4365bc	0.7632711
17	0x3f151bf2	0.58245766
18	0x3f2a29ef	0.66470236
19	0x3ef2fe82	0.474598
20	0x3f25dba6	0.6478828
21	0x3f10ae73	0.5651619
22	0x3f1a77af	0.6033887
23	0x3ef8c60d	0.485886
24	0x3ee5bdc4	0.44871342
25	0x3f265a2e	0.64981353
26	0x3ed4af3a	0.41539937
27	0x3eec9230	0.46205282
28	0x3eed87a4	0.46392548
29	0x3f2916e0	0.6605053
30	0x3edc7d8e	0.4306454
31	0x3ea8d024	0.329713

layer2.1.bias f4 [32]
0	0xbf0b949e	-0.54523647
1	0xbf11e529	-0.56990296
2	0xbedd693b	-0.43244347
3	0xbf193409	-0.59845024
4	0xbf0c862a	-0.5489222
5	0xbf134935	-0.5753358
6	0xbf002c7c	-0.5006788
7	0xbee09573	-0.4386402
8	0xbf04f3d6	-0.51934564
9	0xbf06ff56	-0.5273336
10	0xbef31432	-0.47476345
11	0xbedbbd2a	-0.42917758
12	0xbeeb2dd1	-0.45933393
13	0xbef53c65	-0.4789764
14	0xbf05e6aa	-0.5230509
15	0xbf03d203	-0.5149233
16	0xbefff200	-0.4998932
17	0xbef450c2	-0.47717863
18	0xbeffab4e	-0.49935383
19	0xbefc2bdd	-0.49252215
20	0xbf0036a8	-0.500834
21	0xbef0d477	-0.47037098
22	0xbf0dde7f	-0.5541763
23	0xbef351b4	-0.47523272
24	0xbf13c115	-0.57716495
25	0xbf04eff6	-0.5192865
26	0xbf0f066f	-0.5586919
27	0xbefbfe52	-0.49217469
28	0xbf0f3087	-0.5593342
29	0xbf088a9f	-0.5333652
30	0xbf00eb1e	-0.5035876
31	0xbf08ca28	-0.53433466

layer2.1.running_mean f4 [32]
0	0xc1085645	-8.521062
1	0xbff1097a	-1.8831017
2	0xc0b75c98	-5.730053
3	0x3f037e28	0.51364374
4	0xc0f20641	-7.5632634
5	0x411f4f0a	9.956797
6	0xc10aa69e	-8.665678
7	0x3e2b6266	0.16736755
8	0x411683ae	9.407148
9	0xc0b1aef5	-5.552607
10	0xc0be19de	-5.9406576
11	0xc0bcf160	-5.9044647
12	0xc122e8cf	-10.181838
13	0xc08977f5	-4.295893
14	0xc0d49f02	-6.64441
15	0xbed8a6fc	-0.423149
16	0x3dcb32f2	0.099218264
17	0xc0466b76	-3.100309
18	0xc08acbfc	-4.3374004
19	0x3ebef61e	0.37297148
20	0xc10beb63	-8.744967
21	0xc0c293f3	-6.08056
22	0xc088aa51	-4.2707906
23	0xc12c2ff2	-10.761705
24	0xc0ff3311	-7.9749837
25	0xc0fd9fd7	-7.9257617
26	0xc09e33ff	-4.943847
27	0xc1148ce8	-9.284401
28	0xbfb487a2	-1.4103892
29	0xc119b6f0	-9.607162
30	0xc0ede11d	-7.4337296
31	0x3e819d61	0.25315383

layer2.1.running_var f4 [32]
0	0x420b09c4	34.759537
1	0x42305185	44.07961
2	0x41e1822a	28.188557
3	0x41cf5a22	25.91901
4	0x4239ac87	46.418484
5	0x4218836a	38.128334
6	0x420490a0	33.141235
7	0x41eb1de6	29.389599
8	0x42100747	36.007107
9	0x42106161	36.095097
10	0x42540e93	53.014233
11	0x421b2c20	38.79309
12	0x424259c9	48.58768
13	0x424cc003	51.18751
14	0x41cf36a2	25.901676
15	0x4235c22b	45.439617
16	0x41c88560	25.065125
17	0x423bb6af	46.928402
18	0x41ee628a	29.798115
19	0x42075b6a	33.83927
20	0x4262b6c7	56.678493
21	0x4295cb57	74.89715
22	0x41a9df20	21.233948
23	0x42123d9f	36.560177
24	0x42081930	34.024597
25	0x4215d1e6	37.45498
26	0x4232d0be	44.70385
27	0x4249c31d	50.44054
28	0x41eeaeb5	29.835306
29	0x42682f71	58.04633
30	0x4201062c	32.256027
31	0x41dd6016	27.671917

fc.weight f4 [10, 1568]
0	0x3ddca1d9	0.107730575
1	0xbdf0677f	-0.1173849
2	0xbcb02c75	-0.021505574
3	0x3d9d23f8	0.07672876
4	0x3e0e3525	0.1388746
5	0x3d60b152	0.054856606
6	0x3e83d266	0.2574646
7	0x3deaafcc	0.11459312
8	0x3d1b7b5a	0.037959434
9	0xbce434c9	-0.027857201
10	0x3cf11ab1	0.029431673
11	0x3c0188d7	0.00790616
12	0x3e4b8c48	0.19877732
13	0x3da8d5c7	0.082439
14	0x3cc1019f	0.023560343
15	0x3e6014b0	0.21882892
16	0xbd1f7529	-0.038930092
17	0x3d1f1ca8	0.038845688
18	0xbe1d5102	-0.15362933
19	0xbd459e2d	-0.04824655
20	0xbd38871e	-0.045050733
21	0x3d6b32c5	0.057421464
22	0x3e5e7249	0.21723284
23	0xbe2bf6c8	-0.16793358
24	0x3ce96cf1	0.02849433
25	0xbe7e7d73	-0.24852543
26	0xbe0486c9	-0.12942041
27	0xbe090005	-0.13378914
28	0x3dc1dae3	0.094655775
29	0x3e2c522f	0.16828226
30	0xbe115085	-0.14190872
31	0x3d00cfbd	0.031448115
32	0xbd6cc782	-0.057807453
33	0xbd811101	-0.06302071
34	0xbdd60f93	-0.10452189
35	0x3d02d457	0.031940784
36	0x3db15a54	0.08659807
37	0x3dc02740	0.09382486
38	0x3deb009d	0.11474726
39	0x3dc75ba6	0.097342774
40	0xbd79b448	-0.060962945
41	0xbe5e9853	-0.21737795
42	0xbd5d711e	-0.054062955
43	0x3e047035	0.12933429
44	0x3eb48d0b	0.35263857
45	0x3e23cd48	0.15996277
46	0x3e4deeee	0.20110676
47	0xbc0c105e	-0.008548824
48	0x3cf3ade6	0.029746007
49	0x3d1490c4	0.03627087
50	0xbd3081cf	-0.043092545
51	0xbc200ef9	-0.009769195
52	0x3d50f1cf	0.051011857
53	0xbe01b476	-0.12666497
54	0x3dea7c62	0.114495054
55	0x3d9a587c	0.07536408
56	0xbcc801a3	-0.024414843
57	0x3d771be5	0.060329337
58	0xbd9e890a	-0.07740982
59	0xbc326b3b	-0.010889824
60	0x3c868ca6	0.016424488
61	0xbd347df2	-0.044065423
62	0x3d040161	0.032227878
63	0x3da556a4	0.08073166
64	0xbe54611e	-0.20740172
65	0x3b674c7e	0.0035293396
66	0xbe920729	-0.28521088
67	0xbe2f3f24	-0.1711393
68	0xbdd619b3	-0.104541205
69	0x3d3ccb3b	0.046092253
70	0x3df597dd	0.11991856
71	0x3c81e771	0.01585743
72	0xbdd0a122	-0.10186984
73	0xbcea3884	-0.028591402
74	0xbe1c4553	-0.1526082
75	0x3d78e025	0.060760636
76	0x3df5ef04	0.12008479
77	0x3cc7b697	0.024379058
78	0x3dc62ade	0.09676145
79	0xbd6a4cac	-0.057202026
80	0xbd3a936c	-0.04555075
81	0x3d2a152c	0.041524097
82	0x3de2be49	0.1107145
83	0x3defc5f9	0.11707682
84	0x3e2efdd5	0.17089017
85	0x3d4e26eb	0.050330084
86	0x3e2f107f	0.17096137
87	0xbd226418	-0.039646238
88	0xbc8c9d25	-0.017164776
89	0x3d43e55e	0.047826163
90	0x3baea9e3	0.0053303107
91	0x3dbff5c2	0.093730465
92	0xbc425bef	-0.011862739
93	0xbddbd4a4	-0.10733917
94	0xbd161677	-0.036642518
95	0xbc520bc1	-0.012820185
96	0x3d73c8a1	0.059517507
97	0xbda8586d	-0.08219991
98	0xbdc59e81	-0.09649373
99	0xbd9e45c6	-0.07728152
100	0xbd0ef2f5	-0.03489967
101	0xbd9723d7	-0.07379883
102	0x3e81effc	0.25378406
103	0xbe1fbcf5	-0.15599425
104	0xbe07aa38	-0.13248527
105	0x3d30257d	0.0430045
106	0x3da82a78	0.08211225
107	0xbdbb4538	-0.09144062
108	0xbdb83c75	-0.08995906
109	0x3e55ce61	0.20879509
110	0xbd977659	-0.0739562
111	0x3d22cacc	0.039744183
112	0x3e4682f8	0.19385898
113	0x3d1fdef3	0.03903098
114	0x3b056aca	0.002035784
115	0xbd305391	-0.043048445
116	0x3d17a7f4	0.037025407
117	0x3c9af43c	0.018915288
118	0x3dda5e8e	0.10662566
119	0x3d0bcacb	0.034128945
120	0x3dc3dd5e	0.09563707
121	0x3deea486	0.11652474
122	0xbd3ec275	-0.046572167
123	0xbc1bcf10	-0.009509817
124	0x3dc99ccf	0.09844362
125	0xbdace35c	-0.08441803
126	0x3d53e6a2	0.05173362
127	0x3d5e353f	0.05425
128	0xbe325ad1	-0.17417456
129	0x3c8537e0	0.016261995
130	0xbd1387b9	-0.036018107
131	0xbd8efbd6	-0.06981628
132	0xbe82e9bd	-0.25568953
133	0x3d19776d	0.03746741
134	0x3d445f57	0.047942486
135	0xbe40e974	-0.18839055
136	0x3ca4b9d9	0.02010815
137	0x3df6272a	0.12019189
138	0xbeaaa98e	-0.33332485
139	0xbe8ef325	-0.2791988
140	0xbca60e73	-0.020270562
141	0xbd7b55f6	-0.061361276
142	0xbd411719	-0.04714117
143	0xbd3ae5b4	-0.04562922
144	0x3ea0588e	0.31317562
145	0x3c5eeeb4	0.013606716
146	0xbe1b7cdd	-0.1518435
147	0xbcda9d32	-0.026686285
148	0x3cce74f7	0.025202258
149	0xbd0e7cd5	-0.034787018
150	0xbe20b929	-0.15695633
151	0x3e232b0c	0.1593439
152	0x3d2d9d1f	0.04238617
153	0x3dae49c4	0.085101634
154	0xbdfbfa49	-0.123035975
155	0x3d0d552d	0.034505058
156	0x3da566e2	0.08076264
157	0xbc9f0a9c	-0.019414239
158	0x3d0f00e0	0.034912944
159	0xbd2512c2	-0.040301092
160	0xbd5dce75	-0.05415197
161	0xbd93a255	-0.07208697
162	0xbe810fc3	-0.25207338
163	0xbd5360bd	-0.05160593
164	0xbd80b88b	-0.06285199
165	0xbeab2fa6	-0.3343479
166	0xbecba2c4	-0.39772618
167	0xbb8b657c	-0.0042540412
168	0xbd1e8b8b	-0.038707297
169	0xbde74a2a	-0.112934425
170	0x3d136f8a	0.035995044
171	0xbe5521ed	-0.20813723
172	0xbd9bb274	-0.076023966
173	0x3c86d4bd	0.016458863
174	0xbc720b6d	-0.014773232
175	0x3dbcb8b7	0.09214919
176	0xbd274372	-0.040835805
177	0x3d7fbaa7	0.062433865
178	0xbe28a6ba	-0.16469851
179	0x3d4c5d7b	0.049893837
180	0x3e251c86	0.16124162
181	0x3ab97439	0.0014149017
182	0xbcb2bf6e	-0.021819796
183	0x3c749ede	0.014930455
184	0xbd3206e0	-0.043463588
185	0xbe28e63c	-0.16494077
186	0xbe1e031a	-0.1543087
187	0x3c776498	0.015099667
188	0xbc1f6af6	-0.009730091
189	0xbd1c1a23	-0.038110863
190	0x3d6baab6	0.05753585
191	0xbe03ba64	-0.12864071
192	0xbdb08cab	-0.0862058
193	0xbd39b494	-0.04533823
194	0x3cd9a429	0.026567535
195	0x3a5c5355	0.00084047514
196	0x3e1c01f8	0.15235126
197	0x3e68dbb1	0.22740056
198	0xbe141c3a	-0.14463893
199	0x3da4b3fc	0.08042142
200	0x3d34ccdd	0.044140685
201	0x3dcf2243	0.10113957
202	0x3ce4f727	0.027949883
203	0x3d81a38c	0.06330022
204	0x3e1613ca	0.14655986
205	0x3d860afc	0.06545064
206	0xbd1232af	-0.035692867
207	0xbcb5170b	-0.022105714
208	0x3c26b8cd	0.010175896
209	0x3cc1e24a	0.023667473
210	0x3e0c0285	0.13672836
211	0xbd599d66	-0.053128622
212	0x3d23b174	0.039964154
213	0x3d94afea	0.072601154
214	0x3b880b56	0.004151742
215	0xbd13abc1	-0.03605247
216	0xbe04353d	-0.12910934
217	0xbd2f76e3	-0.04283799
218	0xbd810602	-0.06299974
219	0x3c954cd0	0.018225104
220	0xbd9dcaeb	-0.07704719
221	0xbd995c7a	-0.07488342
222	0xbe2bb204	-0.16767126
223	0xbdcfc979	-0.1014585
224	0xbe9916ab	-0.29900107
225	0xbe0f922b	-0.14020602
226	0x3d8ec4b2	0.069711104
227	0xbd805efb	-0.06268116
228	0xbe126dc7	-0.14299689
229	0xbeb7655c	-0.3581952
230	0xbe8dd5b7	-0.27702114
231	0x3d87eb78	0.06636709
232	0xbe91f6f1	-0.28508714
233	0x3d2fc70d	0.04291444
234	0xbbf72222	-0.0075419107
235	0x3da18b84	0.078879386
236	0xbdf2e321	-0.11859728
237	0xbeafee97	-0.34361717
238	0x3df1d4fd	0.118082024
239	0xbe349878	-0.17636287
240	0x3ddebe62	0.108761564
241	0x3c4c30e2	0.012462826
242	0xbca9841a	-0.020692874
243	0xbde228bc	-0.11042926
244	0xbd3bbc43	-0.045833837
245	0x3a453c64	0.00075239525
246	0xbe82179b	-0.25408635
247	0xbdbc3f5e	-0.09191774
248	0x3da1a610	0.07893002
249	0x3d597b36	0.05309602
250	0xbe12547d	-0.14290042
251	0xbd46e4e4	-0.04855813
252	0x3cf6ee8e	0.030143049
253	0x3dd79a60	0.105274916
254	0xbd762f30	-0.060103595
255	0x3deb2cee	0.11483179

fc.bias f4 [10]
0	0x3c5954fa	0.013264889
1	0x3c60b88c	0.013715874
2	0xbd3b902a	-0.045791782
3	0x3d8a01ea	0.06738646
4	0xbceb291a	-0.028706122
5	0xbbc5dafd	-0.0060380683
6	0x3dd3a4c0	0.10334158
7	0x3daaeecf	0.083463304
8	0x3ccfe1dc	0.025376253
9	0xbd100b68	-0.035167128

exp_avg f4 [16, 1, 5, 5]
0	0x3a9d0bc8	0.001198166
1	0x3a3370b4	0.0006845102
2	0xb735adcc	-1.0828906e-05
3	0xbaaf82ca	-0.0013390419
4	0xba11d719	-0.0005563363
5	0x3afc5842	0.0019252377
6	0x3a958f5d	0.0011410523
7	0x39e71755	0.00044077137
8	0xba5a9c0a	-0.00083392917
9	0xb9cf8814	-0.00039583503
10	0x3b2723ba	0.0025503472
11	0x3ac5f788	0.0015103677
12	0x3a1a3d6a	0.0005883785
13	0xb965dad8	-0.00021920667
14	0xb9018ec3	-0.00012355582
15	0x3b159752	0.002282579
16	0x3acacfa2	0.0015473256
17	0x3a0b41cd	0.0005312234
18	0x39540515	0.00020219789
19	0x3a299f23	0.00064705516
20	0x3b126c8c	0.002234253
21	0x3ae148de	0.0017187854
22	0x3a5fb2d1	0.00085334206
23	0x3a63080f	0.00086605636
24	0x3a8011ce	0.0009770931
25	0xb90fbe09	-0.00013708336
26	0xba087d24	-0.00052066357
27	0xba2407fc	-0.0006257293
28	0xba11210b	-0.0005536235
29	0xba93b607	-0.0011269458
30	0xba1c6bab	-0.00059669715
31	0xba51f323	-0.00080089475
32	0xba22e567	-0.0006213993
33	0xba046b38	-0.0005051377
34	0xba3471cf	-0.0006883414
35	0xba54552a	-0.00080998486
36	0xba9f20c3	-0.0012140501
37	0xb9d887e9	-0.0004129999
38	0x390ca529	0.00013412967
39	0xb9fd90a5	-0.0004836369
40	0xb9adbf40	-0.00033139624
41	0xba879c7c	-0.0010346319
42	0xba0834be	-0.00051958475
43	0xb9cdc073	-0.00039244033
44	0x39908a24	0.00027568743
45	0xb9811a1a	-0.00024624245
46	0xba256b6f	-0.00063102593
47	0x389b4a63	7.4048316e-05
48	0x37cc5ec8	2.4362831e-05
49	0x39b62e42	0.0003474821
50	0x3b0c3d85	0.0021398973
51	0x3b8edaaf	0.004359565
52	0x3bc8f4e7	0.0061327103
53	0x3bba40fb	0.005684016
54	0x3bbb052b	0.005707403
55	0xb938b3bd	-0.00017614565
56	0x3b7eada4	0.0038860822
57	0x3baef464	0.005339192
58	0x3c0bb5de	0.008527247
59	0x3c1572fb	0.009121652
60	0x39d973f4	0.00041475857
61	0x3be68687	0.00703508
62	0x3c2387f1	0.009981141
63	0x3c2a3b70	0.010390148
64	0x3c0ec740	0.008714497
65	0x3b5d79e2	0.0033794572
66	0x3bd481e0	0.006485209
67	0x3be22d2e	0.0069023585
68	0x3c0b9596	0.008519551
69	0x3bb86fd2	0.0056285644
70	0x3b9a2030	0.004703544
71	0x3b23b4d5	0.002497961
72	0x3bc347ee	0.0059595024
73	0x3bdb2953	0.006688276
74	0x3be2d392	0.006922194
75	0xbb27b1cf	-0.002558816
76	0x39923dd6	0.0002789336
77	0xba94880b	-0.0011332048
78	0x3a97d9e5	0.0011585323
79	0x3a0e0944	0.0005418251
80	0xbb539680	-0.003228575
81	0xbaa1f537	-0.0012356405
82	0xbb0a3689	-0.0021089634
83	0xba0a337b	-0.00052719534
84	0x39dadbdc	0.00041744008
85	0xbb11c299	-0.0022241233
86	0xba8aa29f	-0.0010577029
87	0xb93fd4f1	-0.00018294506
88	0x3b05b960	0.0020404682
89	0x3af0a674	0.0018360154
90	0xbb1fe7b6	-0.0024399585
91	0xba722fa6	-0.00092386676
92	0xb84deea6	-4.9098067e-05
93	0x3a648c0b	0.0008718378
94	0xbab06905	-0.0013459033
95	0xbafc422a	-0.0019245793
96	0xb83ae710	-4.456105e-05
97	0x3a119816	0.00055539736
98	0xbaa54152	-0.0012607968
99	0xbb31f3ea	-0.002715344
100	0x3b89ba9c	0.004203154
101	0x3b408bbd	0.0029380166
102	0xba05eead	-0.0005109113
103	0x3b25daff	0.0025307534
104	0x3b7f0d6c	0.0038917912
105	0x3acb95da	0.001553233
106	0xba0b9c05	-0.0005325678
107	0x3a3fd68e	0.0007318043
108	0x3b4556e6	0.003011161
109	0x3b958478	0.0045629106
110	0x3b6a7508	0.0035775322
111	0xb73ea79c	-1.1363907e-05
112	0x3abfc9f6	0.0014632333
113	0x3b7b049c	0.0038302308
114	0x3b661b44	0.0035111466
115	0x3ae7710f	0.0017657595
116	0xbabdcc24	-0.0014480394
117	0x3b058bcb	0.0020377513
118	0x3b025ce1	0.0019891786
119	0x3b2c103c	0.0026254794
120	0x3a61f278	0.00086191995
121	0x3a1567b1	0.000569935
122	0x3bad2427	0.0052838507
123	0x3b039fdf	0.0020084304
124	0x3b0610ed	0.0020456866
125	0xbaa7a9e8	-0.0012791725
126	0xbbac8786	-0.005265179
127	0xbbfca75b	-0.00771038
128	0xbbc253ab	-0.005930384
129	0xbc02d0f2	-0.007984387
130	0xbb4fc257	-0.003170153
131	0xbbf71b33	-0.007541084
132	0xbc74f071	-0.014949904
133	0xbc57c299	-0.013168954
134	0xbc0f23e5	-0.008736585
135	0x3ac1e3ad	0.0014792584
136	0xbc249c1b	-0.010046984
137	0xbc8ec7f5	-0.017429331
138	0xbc556bbc	-0.013026174
139	0xbc4e07c3	-0.012575093
140	0xbbcf13a0	-0.006319478
141	0xbc655954	-0.013998348
142	0xbc53a658	-0.012918077
143	0xbc13e5ea	-0.009026984
144	0xbc8c9b6d	-0.017163957
145	0xbbe09cda	-0.0068546357
146	0xbc8174f6	-0.015802842
147	0xbc8f2437	-0.017473323
148	0xbc7f8cce	-0.015597535
149	0xbcbe02f9	-0.023194777
150	0xbc7daf52	-0.015483694
151	0xbcfb435f	-0.030671773
152	0xbd0be5e1	-0.034154776
153	0xbccd4ecb	-0.025061985
154	0xbcf6ad8d	-0.030112052
155	0xbcad4bde	-0.02115434
156	0xbd0a80ee	-0.033814363
157	0xbd1495e9	-0.036275778
158	0xbd1c8d7e	-0.038220875
159	0xbceccf7b	-0.028907528
160	0xbc9e2e3b	-0.019309154
161	0xbcdfc312	-0.027314696
162	0xbcf9e34f	-0.030503897
163	0xbd0a4d26	-0.03376498
164	0xbccee1d3	-0.025254166
165	0xbc9aeda0	-0.018912137
166	0xbd0272ab	-0.031847637
167	0xbd1ab5cb	-0.037771028
168	0xbd2d59c4	-0.042321935
169	0xbcfcdf65	-0.030868242
170	0xbca75bf9	-0.020429598
171	0xbcfeba62	-0.031094734
172	0xbce39231	-0.02777967
173	0xbd16111a	-0.036637403
174	0xbd08f754	-0.033438995
175	0x3acef430	0.0015789326
176	0xb9d139bc	-0.00039906602
177	0xbb562a13	-0.0032678887
178	0xbb24be8f	-0.0025137996
179	0x3ae0fe90	0.0017165709
180	0x3b2cfdce	0.0026396397
181	0xba1b2830	-0.0005918769
182	0xbb6d2ed2	-0.0036191237
183	0xbba93d35	-0.005164767
184	0xb8233978	-3.891575e-05
185	0x3b95e63a	0.0045745643
186	0x3b1dc219	0.002407199
187	0x3a8a74e2	0.0010563398
188	0xba74bd7d	-0.0009336097
189	0x3ac21ef2	0.0014810248
190	0x3b655c91	0.00349978
191	0x3b1b0424	0.002365359
192	0x3a4f06a5	0.00078974135
193	0x394094c7	0.00018365971
194	0xb826170b	-3.9598945e-05
195	0x3b84cc54	0.004052678
196	0x3af25655	0.0018488864
197	0xbab05285	-0.0013452327
198	0xbaa850d0	-0.0012841467
199	0xbb2724a6	-0.0025504022
200	0xb9061de4	-0.00012790371
201	0x39dda039	0.0004227178
202	0x3aa2e779	0.0012428603
203	0x3b053b39	0.002032949
204	0x3ad4a88c	0.0016224547
205	0x37b1bdc0	2.1188403e-05
206	0x3a8329c9	0.001000696
207	0xba2b7031	-0.000653985
208	0x3a49bff3	0.0007696144
209	0x3ab59a81	0.001385525
210	0xb9a88f34	-0.00032150152
211	0xb9e24b5d	-0.0004316223
212	0xbb2b2420	-0.0026114061
213	0x3a3201a0	0.0006790403
214	0x36bba9e7	5.5928135e-06
215	0xbb29f57e	-0.0025933678
216	0xbbae2308	-0.0053142346
217	0xbb9f841b	-0.004868043
218	0x3ab5ce81	0.0013870747
219	0xb9d72d70	-0.0004104185
220	0xbbc80b1d	-0.0061048404
221	0xbbc1ec12	-0.0059180344
222	0xbb4bf144	-0.0031119147
223	0x37c22a43	2.3146282e-05
224	0xbb0831bd	-0.00207816
225	0xba0b9fe1	-0.0005326253
226	0xb9e31ae0	-0.00043316837
227	0x39f4fb87	0.0004672671
228	0x3a48c0df	0.00076581346
229	0x3a92c3a7	0.0011197225
230	0xba0bb705	-0.0005329701
231	0xbb052a2e	-0.002031933
232	0xba3ea2d4	-0.0007272188
233	0x39897c00	0.00026223063
234	0xb8a028f0	-7.63702e-05
235	0x397048d9	0.00022915321
236	0xbb0ce869	-0.0021500832
237	0xba2f818b	-0.00066950236
238	0xb9dc15b6	-0.00041977846
239	0x3a404307	0.00073342066
240	0x3acc23a3	0.0015574585
241	0x3a10944a	0.0005515261
242	0xb688364a	-4.059436e-06
243	0xb91ad0f6	-0.00014764428
244	0x3993f6b8	0.00028221845
245	0x392ff716	0.00016781347
246	0xb920f6ae	-0.00015350684
247	0x394c4d19	0.00019483677
248	0xb7efc61e	-2.8583276e-05
249	0x38268069	3.9697075e-05
250	0xbb0dd6f2	-0.002164301
251	0xbbf0f588	-0.0073534884
252	0xbbf78f5b	-0.007554931
253	0xbb2001d7	-0.002441516
254	0xbb665972	-0.0035148528
255	0xbc2c395b	-0.0105117215

exp_avg_sq f4 [16, 1, 5, 5]
0	0x37080e64	8.109582e-06
1	0x36c240a2	5.789175e-06
2	0x36955b22	4.4511553e-06
3	0x367c7350	3.7618047e-06
4	0x368d1103	4.204108e-06
5	0x36b5a49e	5.4133843e-06
6	0x3657d550	3.216166e-06
7	0x361eacdf	2.364446e-06
8	0x3609381a	2.0447246e-06
9	0x3636f709	2.7263907e-06
10	0x36936599	4.392769e-06
11	0x3629c416	2.52971e-06
12	0x35c6dcd2	1.4816417e-06
13	0x355ad758	8.1524695e-07
14	0x35b716bd	1.364118e-06
15	0x367d8374	3.7776454e-06
16	0x3600fdd3	1.9221231e-06
17	0x3568131b	8.6454537e-07
18	0x35999e5f	1.144548e-06
19	0x35bd3c97	1.4099231e-06
20	0x3680d14e	3.8390635e-06
21	0x36231e03	2.4306362e-06
22	0x359b8aa3	1.1588749e-06
23	0x35cf222e	1.543265e-06
24	0x36097311	2.0481568e-06
25	0x37567c49	1.2784331e-05
26	0x37571f67	1.282231e-05
27	0x371dfc14	9.416621e-06
28	0x36d5e238	6.37423e-06
29	0x36f0a53f	7.1717946e-06
30	0x375eda39	1.328304e-05
31	0x37587d5b	1.290379e-05
32	0x3708d307	8.155365e-06
33	0x36ac795a	5.1401266e-06
34	0x36be62d1	5.673945e-06
35	0x376e965a	1.4220912e-05
36	0x376e8cc8	1.4218684e-05
37	0x36f8ef5c	7.418841e-06
38	0x368767ca	4.035396e-06
39	0x369f1348	4.740814e-06
40	0x376a9cbc	1.3983979e-05
41	0x3776e1fb	1.4715358e-05
42	0x370df8e6	8.462206e-06
43	0x369e0c3c	4.710191e-06
44	0x36954d7c	4.4495664e-06
45	0x37735715	1.4504204e-05
46	0x376b68b4	1.403147e-05
47	0x37002519	7.638032e-06
48	0x36a28a4c	4.844076e-06
49	0x36b41eed	5.3680183e-06
50	0x38a913da	8.0622456e-05
51	0x38a78aca	7.989032e-05
52	0x38b47fa8	8.606847e-05
53	0x388cc93f	6.713205e-05
54	0x383ffe95	4.5775047e-05
55	0x38b3f98e	8.581868e-05
56	0x389f2789	7.589075e-05
57	0x38b2ecbc	8.5317966e-05
58	0x38978d59	7.226569e-05
59	0x386a3dc7	5.5847482e-05
60	0x38905cb9	6.883726e-05
61	0x3885eb26	6.385734e-05
62	0x389df9c7	7.532868e-05
63	0x38ae88c6	8.3224426e-05
64	0x38bbe3b2	8.9592664e-05
65	0x38702ded	5.726323e-05
66	0x38822bb1	6.207021e-05
67	0x38998848	7.320993e-05
68	0x38c06648	9.174325e-05
69	0x38e765b0	0.00011033879
70	0x38640ff5	5.4374297e-05
71	0x389bb0dc	7.4239186e-05
72	0x38a14cbf	7.691373e-05
73	0x38af3a70	8.355535e-05
74	0x38cca926	9.7589844e-05
75	0x38a97b76	8.0815444e-05
76	0x38af8924	8.370195e-05
77	0x38ab03fe	8.154659e-05
78	0x38ce9f09	9.852468e-05
79	0x38cf7b34	9.8934775e-05
80	0x38c28413	9.2752416e-05
81	0x38b88f7f	8.800532e-05
82	0x38b86a75	8.793633e-05
83	0x38edef6f	0.000113456386
84	0x38dd119c	0.00010541381
85	0x38c06ccb	9.175538e-05
86	0x38b32dc8	8.5439126e-05
87	0x38b04c70	8.4065716e-05
88	0x38c3ba9b	9.3330826e-05
89	0x38bd204d	9.018239e-05
90	0x38a29c9f	7.753935e-05
91	0x389e4cc3	7.548325e-05
92	0x389fe197	7.62373e-05
93	0x3899cc96	7.3337156e-05
94	0x38b76ffb	8.746978e-05
95	0x38b004ad	8.393205e-05
96	0x38ad5084	8.26428e-05
97	0x38a586a3	7.892891e-05
98	0x3895092b	7.106581e-05
99	0x38a946bb	8.0717226e-05
100	0x3841f3c5	4.6241814e-05
101	0x3869a9ad	5.570955e-05
102	0x38880e05	6.487597e-05
103	0x38b82301	8.780324e-05
104	0x38a794f0	7.990922e-05
105	0x386510cd	5.46135e-05
106	0x38797c83	5.9482187e-05
107	0x38924c31	6.976014e-05
108	0x38d16ab8	9.9857745e-05
109	0x38babcf5	8.904367e-05
110	0x3871fe28	5.769558e-05
111	0x38904158	6.878626e-05
112	0x3897ee33	7.244609e-05
113	0x38bc8592	8.989418e-05
114	0x38b73e0d	8.737678e-05
115	0x3882f1d0	6.243924e-05
116	0x38a05c6b	7.646609e-05
117	0x38a381e8	7.7966426e-05
118	0x388f83ca	6.843319e-05
119	0x3895be49	7.140317e-05
120	0x3880f0cb	6.148367e-05
121	0x38940794	7.0586015e-05
122	0x3899d649	7.335522e-05
123	0x38838fce	6.2733525e-05
124	0x38873e18	6.4488675e-05
125	0x39a7b6d2	0.00031988934
126	0x39cf79f0	0.00039572967
127	0x39df720d	0.0004261885
128	0x39cd500d	0.0003916029
129	0x39d11f69	0.0003988699
130	0x3994da92	0.00028391607
131	0x39cacd8e	0.00038681593
132	0x39ecc572	0.00045160536
133	0x39d09222	0.0003978173
134	0x39b7899b	0.00035007004
135	0x3985ebec	0.00025543512
136	0x39beaf5d	0.0003637028
137	0x39e30c1b	0.00043305833
138	0x39b0c9d2	0.00033719704
139	0x399f486d	0.00030380805
140	0x399b995e	0.0002967817
141	0x39b5250e	0.00034550618
142	0x39d5e67a	0.00040798244
143	0x39ae017c	0.00033188972
144	0x39a6eff2	0.0003184076
145	0x399e9735	0.00030248766
146	0x39a739d8	0.0003189582
147	0x39c3ffd1	0.00037383896
148	0x39a2f0f4	0.00031078572
149	0x399d50b2	0.00030005496
150	0x3a59c20a	0.0008306807
151	0x3a830b10	0.0009997804
152	0x3a891e08	0.001046122
153	0x3a89e1cb	0.0010519562
154	0x3aa33b1f	0.0012453533
155	0x3a4790a0	0.00076127984
156	0x3a768ea1	0.00094054086
157	0x3a811d85	0.0009850716
158	0x3a7d159b	0.00096544035
159	0x3a90c2ce	0.0011044384
160	0x3a50c3e0	0.0007963758
161	0x3a786e17	0.0009476854
162	0x3a81f3f6	0.0009914625
163	0x3a671e8d	0.0008816503
164	0x3a843f27	0.0010089622
165	0x3a459595	0.0007537243
166	0x3a68e1dd	0.0008883754
167	0x3a73729d	0.0009286793
168	0x3a6a9df8	0.0008949931
169	0x3a812e17	0.0009855655
170	0x3a39a9f3	0.00070825143
171	0x3a4e7452	0.00078756094
172	0x3a53fad7	0.0008086389
173	0x3a5cf309	0.0008428549
174	0x3a675332	0.0008824348
175	0x38d5bc5f	0.00010191718
176	0x38ceb817	9.857135e-05
177	0x38ceabff	9.854882e-05
178	0x38b2af32	8.520334e-05
179	0x389b1f43	7.396799e-05
180	0x38abdda6	8.195201e-05
181	0x3894b9fb	7.0918315e-05
182	0x38665c00	5.4921955e-05
183	0x38355eff	4.3242235e-05
184	0x38528d3b	5.0199433e-05
185	0x389a13a9	7.346954e-05
186	0x38256f60	3.944279e-05
187	0x378b90d1	1.6637527e-05
188	0x375a86fc	1.3025241e-05
189	0x37e9d423	2.7874548e-05
190	0x38a265c1	7.743715e-05
191	0x3813c378	3.5229576e-05
192	0x371d4dd1	9.376047e-06
193	0x36f8f846	7.419879e-06
194	0x378ad9da	1.6552327e-05
195	0x389b709d	7.411952e-05
196	0x3882e3fd	6.241349e-05
197	0x37f19a70	2.8801354e-05
198	0x37912012	1.730028e-05
199	0x37c0d0e6	2.298546e-05
200	0x372dfaea	1.0370024e-05
201	0x372df218	1.036797e-05
202	0x378fb9da	1.7133472e-05
203	0x37c8237c	2.3858382e-05
204	0x38032d5c	3.1275078e-05
205	0x36c56dec	5.883854e-06
206	0x36b1f600	5.3036492e-06
207	0x3747047c	1.1862368e-05
208	0x37ce644d	2.460382e-05
209	0x38271d69	3.9843293e-05
210	0x36fcab63	7.5301373e-06
211	0x36e805f7	6.914833e-06
212	0x37ba8d30	2.2238673e-05
213	0x3842e103	4.6462763e-05
214	0x38618708	5.3769938e-05
215	0x38666c1b	5.4936954e-05
216	0x38353053	4.319877e-05
217	0x38089046	3.2559292e-05
218	0x3813fbfd	3.5282214e-05
219	0x38264e78	3.9650564e-05
220	0x388856d0	6.5011554e-05
221	0x3867836f	5.51971e-05
222	0x383286ee	4.256417e-05
223	0x3809e3d7	3.2875538e-05
224	0x37f1b7e3	2.8815068e-05
225	0x381128a5	3.4608547e-05
226	0x38193d9d	3.6535424e-05
227	0x3823f42c	3.908963e-05
228	0x381c8f39	3.7326685e-05
229	0x37ea4b4a	2.7930033e-05
230	0x380f981b	3.4235516e-05
231	0x3808fb8e	3.2659205e-05
232	0x3804cdc5	3.166289e-05
233	0x37ff25fe	3.041606e-05
234	0x37c1e32a	2.3113174e-05
235	0x37c13d08	2.3035813e-05
236	0x37bbea81	2.2401337e-05
237	0x379f6839	1.900281e-05
238	0x378f541a	1.7086091e-05
239	0x375c9ed2	1.315e-05
240	0x37908c05	1.723134e-05
241	0x372034fe	9.549081e-06
242	0x369b2e9d	4.6247865e-06
243	0x3691fcfe	4.350789e-06
244	0x369fb041	4.759088e-06
245	0x37a5f79d	1.9784837e-05
246	0x36ee3485	7.099067e-06
247	0x3632d92a	2.6650473e-06
248	0x3637c18f	2.738179e-06
249	0x364bf9b4	3.0394704e-06
250	0x39b41c8c	0.00034353544
251	0x39aa16af	0.00032441827
252	0x39ad7eb4	0.00033091533
253	0x39b9e957	0.000354598
254	0x39c154ad	0.00036874917
255	0x39ca5e9f	0.0003859894

exp_avg f4 [16]
0	0xb2a080a6	-1.8684954e-08
1	0xb1a05ab5	-4.666925e-09
2	0xb42378cd	-1.5224505e-07
3	0xb3f96a30	-1.16142814e-07
4	0xb41bad66	-1.4498582e-07
5	0x33e1131e	1.04808564e-07
6	0xb4b5bda9	-3.3851873e-07
7	0xb4756bcb	-2.2856618e-07
8	0xb251dd8c	-1.2215775e-08
9	0x3326b4b9	3.8814253e-08
10	0xb3fe5b23	-1.18443744e-07
11	0x344f9db6	1.9335752e-07
12	0xb2fd7d73	-2.9510124e-08
13	0x33a1f64c	7.541948e-08
14	0x3301135b	3.0052757e-08
15	0x328477bc	1.5421271e-08

exp_avg_sq f4 [16]
0	0x2894d526	1.652374e-14
1	0x2808717e	7.574126e-15
2	0x28ee1895	2.6433969e-14
3	0x295dcd5f	4.924999e-14
4	0x293c8905	4.186323e-14
5	0x2a8997cf	2.4441427e-13
6	0x2b2897a6	5.9896044e-13
7	0x29226d85	3.606622e-14
8	0x28713af1	1.3390968e-14
9	0x2863e578	1.26507894e-14
10	0x2a8af39b	2.468276e-13
11	0x2a0ad449	1.2330513e-13
12	0x2941a6ea	4.2999384e-14
13	0x296994d0	5.1865467e-14
14	0x27fe2aa0	7.0545376e-15
15	0x28a986bc	1.88212e-14

exp_avg f4 [16]
0	0xbbaff5fb	-0.0053698993
1	0xbc31abcb	-0.010844181
2	0x3b410fa6	0.002945879
3	0xbb74fc4c	-0.0037381826
4	0x3a055121	0.00050856365
5	0x3b2d3ecb	0.0026435133
6	0x3b928734	0.004471684
7	0xbacf3e4b	-0.0015811411
8	0x3b58d81a	0.003308779
9	0xb96f731b	-0.00022835696
10	0xbbe5053b	-0.006989149
11	0x3c352c30	0.011057898
12	0x3ab51666	0.0013815879
13	0x3abafac5	0.0014265409
14	0xbb95286a	-0.004551937
15	0xbb167975	-0.0022960578

exp_avg_sq f4 [16]
0	0x39097a77	0.0001311096
1	0x38b674bb	8.700179e-05
2	0x390cddd4	0.00013434078
3	0x38b2c7a7	8.5248896e-05
4	0x38d5125f	0.00010160053
5	0x38bbaa7f	8.948612e-05
6	0x38d61964	0.000102090446
7	0x38270dad	3.982864e-05
8	0x3805774a	3.1820768e-05
9	0x37d1411e	2.4945064e-05
10	0x38e829fe	0.00011070444
11	0x38d333e1	0.00010070927
12	0x385eb960	5.310157e-05
13	0x38592595	5.1771833e-05
14	0x38d5ec5d	0.000102006576
15	0x3884f07a	6.339043e-05

exp_avg f4 [16]
0	0xbb63122b	-0.003464828
1	0xbbdc03f4	-0.0067143384
2	0xbad7dd98	-0.0016469238
3	0x36b7dd6e	5.479603e-06
4	0xbbbf83c0	-0.0058445632
5	0xbbc1281c	-0.005894674
6	0xbbf33e5c	-0.0074232053
7	0xbafe34e1	-0.0019394421
8	0x3badf094	0.00530822
9	0x3a40f2e1	0.00073604105
10	0xbc0a6241	-0.008446277
11	0x3c472da9	0.012156882
12	0xbba89dfb	-0.005145786
13	0x3b52cfad	0.0032167241
14	0xbb303460	-0.0026886687
15	0xba195438	-0.00058490364

exp_avg_sq f4 [16]
0	0x3897fc9e	7.247295e-05
1	0x38729bdb	5.7842448e-05
2	0x38477dd2	4.7562477e-05
3	0x37fc5ed5	3.00849e-05
4	0x3815d7c3	3.5725312e-05
5	0x38e40170	0.00010872155
6	0x38df09da	0.000106353036
7	0x385c9447	5.259018e-05
8	0x37f0601b	2.8654982e-05
9	0x3819080f	3.6485548e-05
10	0x3822db25	3.8827904e-05
11	0x38a8e3fe	8.053331e-05
12	0x3814c0b2	3.546541e-05
13	0x3878c393	5.930995e-05
14	0x3872a6af	5.7852532e-05
15	0x388e9768	6.799289e-05
