oraclebackend/train/non-iid/checkpoint/agg/mnist_ckpt_1.pth (torch, 36119 bytes, 6 tensors)

conv1.weight f4 [10, 1, 5, 5]
0	0xbcdc2ad1	-0.026875885
1	0xbe21f1b0	-0.15814853
2	0x3c35eabe	0.01110333
3	0xbe47ba56	-0.19504675
4	0xbe14cedb	-0.14532034
5	0xbe122a28	-0.14273894
6	0xbdbbd19e	-0.09170841
7	0xbe0185d5	-0.12648709
8	0xbd9f8c9b	-0.0779049
9	0xbe10d9b8	-0.14145553
10	0x3c775451	0.015095786
11	0xbd66ed47	-0.05637863
12	0xbe45a720	-0.19302034
13	0xbe26d626	-0.16292629
14	0x3ce9db3f	0.028546927
15	0x3e42407b	0.1896991
16	0x3d995198	0.07486266
17	0x3c42bd7e	0.011885999
18	0x3e159944	0.14609247
19	0xbd323f76	-0.043517552
20	0x3e888843	0.2666646
21	0x3e88ed05	0.26743332
22	0x3e08acf5	0.13347228
23	0x3e4d5f9a	0.20056
24	0xbd1eb379	-0.038745377
25	0x3e01da3a	0.12680903
26	0x3db7b4fc	0.08970067
27	0x3e7a1ee8	0.24425852
28	0x3e0e5dc4	0.13902956
29	0xbd83854f	-0.06421911
30	0xbe10e307	-0.14149104
31	0x3e07c7a6	0.13259754
32	0x3e6dbafd	0.23215862
33	0x3e5ebabd	0.21750923
34	0x3e2732fc	0.16328043
35	0x3df4e17b	0.119570695
36	0xbd63b126	-0.055588864
37	0x3e90970f	0.2824025
38	0x3d534c4a	0.051586427
39	0x3dacb907	0.08433729
40	0xbe1e9906	-0.15488061
41	0xbe09c184	-0.13452727
42	0x3e740551	0.23830153
43	0x3dd587f0	0.10426319
44	0x3b0d31b2	0.0021544513
45	0xbdbc56e2	-0.09196259
46	0x3d267d89	0.040647063
47	0xbbabadf1	-0.0052392413
48	0xbdf983be	-0.12183331
49	0x3e4f3f67	0.2023903
50	0x3dd34f0b	0.103178106
51	0x3e3f913d	0.18707748
52	0x3dd48a21	0.103779085
53	0x3de70a00	0.11281204
54	0x3dd33ba0	0.10314107
55	0x3e1a0be1	0.15043594
56	0x3cbad494	0.022806443
57	0x3d06028b	0.03271727
58	0xbd8d8181	-0.069094665
59	0x3e146d73	0.14494877
60	0x3e89a538	0.26883864
61	0x3dc1d2b6	0.09464018
62	0x3be0949d	0.0068536536
63	0xbe2e2924	-0.17007881
64	0xbd312ae1	-0.043253783
65	0x3e84cb7a	0.2593649
66	0x3e038698	0.12844312
67	0xbde08272	-0.109623805
68	0x3c5c64da	0.013451779
69	0xbe600e80	-0.21880531
70	0x3cb47564	0.022028632
71	0x3e4fdad7	0.20298325
72	0x3e5dbee5	0.21654852
73	0xbe39f619	-0.18160285
74	0xbd89314e	-0.06698857
75	0x3d8c8f49	0.06863267
76	0x3e4a8514	0.19777328
77	0x3e591569	0.21199574
78	0xbde8e66f	-0.11372077
79	0xbe1758f2	-0.14780024
80	0x3dc03410	0.0938493
81	0x3be3e165	0.0069543594
82	0x3b65e0e3	0.003507667
83	0xbd9ade79	-0.075619645
84	0x3d3819d2	0.0449465
85	0x3e3e308b	0.18573205
86	0x3e4bc4e6	0.1989933
87	0x3e54b3c1	0.20771696
88	0xbd6979f5	-0.057001073
89	0xbe2ee467	-0.17079316
90	0xbe26f2b7	-0.16303526
91	0x3dabb405	0.083839454
92	0x3e1fe3a6	0.15614185
93	0xbd2a07c5	-0.041511316
94	0x3e58581a	0.21127358
95	0xbe33c2a7	-0.17554723
96	0xbc98ae49	-0.018637793
97	0x3e337c4e	0.17527887
98	0xbdb0ade4	-0.08626917
99	0xbd0d6cc3	-0.03452755
100	0x3d09408b	0.03350882
101	0xbe0479f9	-0.12937154
102	0x3e3e399b	0.18576662
103	0xbd6a327b	-0.05717705
104	0xbd023b56	-0.03179487
105	0x3cbcd82c	0.023052298
106	0x3db16c46	0.0866323
107	0x3d010a6a	0.031504072
108	0x3e1b0917	0.15140186
109	0xbd94aee4	-0.0725992
110	0x3e6e1f08	0.23254025
111	0xbda57759	-0.080794044
112	0xbd9ee4f1	-0.07758511
113	0xbdcaf34b	-0.09909686
114	0x3d0bc6b2	0.034125037
115	0x3e834983	0.25642022
116	0x3e635ff0	0.22204566
117	0xbd04607d	-0.03231858
118	0x3e75c9b5	0.24002726
119	0x3d1cab96	0.038249575
120	0x3c006d02	0.0078384895
121	0xbd6892d6	-0.05678066
122	0xbd9f72f1	-0.07785595
123	0xbe1677ea	-0.14694181
124	0x3decb117	0.11557215
125	0xbd4d1e04	-0.050077453
126	0xbe1ecb61	-0.1550727
127	0xbcc2942a	-0.02375229
128	0xbd93b76f	-0.072127216
129	0x3c005c7e	0.007834552
130	0xbe134d6c	-0.14385003
131	0xbd81de56	-0.06341235
132	0x3da7a67f	0.081860535
133	0xbcea06bf	-0.02856767
134	0x3e3f7336	0.18696293
135	0x3df941ba	0.121707395
136	0xbdf7375c	-0.12071106
137	0x3e4d1876	0.20028862
138	0x3e4a489f	0.19754265
139	0xbdaa270f	-0.08308231
140	0x3da6737a	0.08127494
141	0xbdadda93	-0.08488955
142	0x3d248f1b	0.04017554
143	0x3c9f0fbb	0.01941668
144	0x3e6e6cf3	0.23283748
145	0xbe007108	-0.12543118
146	0x3d0064d4	0.031346157
147	0x3de31b4c	0.11089191
148	0x3d559b06	0.052149795
149	0x3e4db3af	0.20088075
150	0xbdd08237	-0.101810865
151	0x3e4eb345	0.20185573
152	0x3c655672	0.013997661
153	0x3e83a1d0	0.2570939
154	0x3c41a676	0.011819473
155	0xbd5b880d	-0.053596545
156	0x3dd0c514	0.1019384
157	0xbd307ceb	-0.04308788
158	0x3e72c32a	0.23707262
159	0x3de52d57	0.111902885
160	0x3df87481	0.12131596
161	0xbd6c744e	-0.057728104
162	0x3e83daef	0.2575297
163	0x3e4951e8	0.19660151
164	0xbd753d1c	-0.05987273
165	0xbd2451bf	-0.04011702
166	0x3e168558	0.14699304
167	0x3e4679e3	0.19382434
168	0xbd597895	-0.05309351
169	0xbc088279	-0.008331888
170	0x3e77f1b0	0.2421329
171	0x3c664c1d	0.014056233
172	0x3e3bebcc	0.18351668
173	0xbd51e0cc	-0.051239774
174	0x3d679169	0.05653516
175	0xbe2c4b20	-0.16825533
176	0xbda61d01	-0.08111001
177	0xbd9ce391	-0.07660592
178	0x3e2243cc	0.15846175
179	0xbe12bfec	-0.14331025
180	0xbe06ac15	-0.13151582
181	0xbe14fcad	-0.14549513
182	0x3d5b1858	0.053490013
183	0xbe030c38	-0.1279763
184	0xbb978f07	-0.0046252045
185	0xbd74563b	-0.05965255
186	0x3ddd98aa	0.10820134
187	0xbdb52c1f	-0.08846306
188	0xbdd3cb78	-0.10341543
189	0x3e2bf9b1	0.16794468
190	0x3e20aeb6	0.15691647
191	0x3de2d87e	0.11076449
192	0xbe4c2b14	-0.19938308
193	0xbe02ce4d	-0.1277401
194	0xbdaccd57	-0.08437603
195	0xbdfde57b	-0.123972856
196	0x3e447dbc	0.19188589
197	0xbe1c8a08	-0.1528703
198	0x3e029ab7	0.12754332
199	0xbde2812b	-0.11059793
200	0x3e814c23	0.252534
201	0x3dad1fa9	0.08453304
202	0x3d8b85c8	0.06812626
203	0x3e174ff5	0.14776595
204	0x3de828c0	0.113358974
205	0x3de83310	0.113378644
206	0x3dc7b277	0.09750836
207	0xbd16f276	-0.036852323
208	0x3e80fd87	0.25193426
209	0x3cfb2a1a	0.030659724
210	0xbd617e68	-0.05505219
211	0x3e2274ed	0.15864916
212	0x3e1e1291	0.1543677
213	0x3e449b18	0.19199789
214	0x3e932765	0.28740993
215	0xbd9650bf	-0.0733962
216	0x3e5ced85	0.21574982
217	0x3e087592	0.133261
218	0x3dd567cb	0.104201876
219	0x3e5d5fb4	0.21618539
220	0xbc6f596b	-0.014608721
221	0xbe2160c8	-0.15759575
222	0x3deaa075	0.11456386
223	0x3e71872c	0.2358672
224	0xbe1a4c88	-0.15068257
225	0x3cee0d13	0.029058969
226	0x3ded2ef1	0.11581219
227	0x3e87a7b1	0.26495126
228	0x3da56578	0.08075994
229	0x3e5c033d	0.2148561
230	0x3e029527	0.1275221
231	0xbcc09108	-0.023506656
232	0x3e7cbb04	0.24680716
233	0x3e88f6f5	0.26750913
234	0x3e589d6d	0.21153803
235	0x3c84404f	0.016143946
236	0x3d56aec3	0.05241276
237	0x3e3b1e26	0.1827322
238	0xbd25b75d	-0.040458072
239	0xbcb2d497	-0.021829886
240	0xbc7f83c3	-0.015595379
241	0xbe4f17b0	-0.2022388
242	0x3e3e68ca	0.18594661
243	0x3e7535bd	0.23946281
244	0x3e1e643e	0.15467927
245	0xbdd286ae	-0.10279594
246	0x3df87860	0.12132335
247	0x3d3f3bb0	0.04668778
248	0xbde92f49	-0.11385972
249	0x3e1e9a69	0.1548859

conv1.bias f4 [10]
0	0x3e3dc535	0.1853226
1	0x3d125db5	0.035733897
2	0xbcf1a696	-0.02949838
3	0xbd88c614	-0.066784054
4	0x3e2497eb	0.16073577
5	0x3e201e8d	0.15636654
6	0xbcd096a9	-0.025462465
7	0xbe1dd7a5	-0.15414293
8	0x3e3edbf1	0.18638588
9	0xbd984c3c	-0.074364156

conv2.weight f4 [20, 10, 5, 5]
0	0x3a9830a9	0.0011611182
1	0xbd46f447	-0.048572805
2	0x3c367277	0.011135689
3	0xbd46bd68	-0.048520476
4	0xbd1d4f5a	-0.038405754
5	0x3d3129f8	0.043252915
6	0x3d16724a	0.03673009
7	0xbd63c88a	-0.05561117
8	0xbd8c39e2	-0.06846978
9	0xbcf42eab	-0.02980741
10	0xbca80308	-0.020509258
11	0x3cde2952	0.027119312
12	0xbd47624e	-0.048677735
13	0x3c246ed2	0.010036187
14	0x3c434ca7	0.011920131
15	0x3cdf988a	0.027294416
16	0x3cedf6ef	0.029048411
17	0x3bb6f8f8	0.0055838786
18	0x3d859a03	0.06523516
19	0xbd0b077b	-0.03394268
20	0x3d52c1f0	0.051454484
21	0x3cefc12d	0.029266918
22	0x3b17ba2a	0.0023151734
23	0xbd07cc5f	-0.033153888
24	0x3bc72c9c	0.006078316
25	0x3ca6496d	0.020298684
26	0x3c029bac	0.007971685
27	0xbcd365f1	-0.025805445
28	0x3d492881	0.049110893
29	0x3be50f44	0.006990345
30	0xbd6ce505	-0.057835598
31	0x3d3acedd	0.045607436
32	0xbcd80737	-0.026370628
33	0x3d384d32	0.044995494
34	0x3bd5721c	0.006513847
35	0xbd580d73	-0.0527472
36	0x3d8d4161	0.06897236
37	0x3d591e15	0.053007204
38	0xbd31248e	-0.043247752
39	0xbd63f7d2	-0.05565626
40	0xbc16b351	-0.009198026
41	0x3c880b2b	0.016606888
42	0x3cb9bd7f	0.022673367
43	0xbd1f37ff	-0.03887176
44	0xbb9f682e	-0.004864714
45	0xbd61e5da	-0.055150844
46	0x3c3f59ea	0.011679152
47	0xbc9d34ee	-0.019190278
48	0xbd2f9f42	-0.04287649
49	0x3d943c3a	0.0723805
50	0x3cb9de14	0.022688903
51	0x3aa1df64	0.0012349901
52	0xbd827af4	-0.06371108
53	0xbcec7ee2	-0.028869096
54	0xbd417992	-0.04723508
55	0xbd7ffcb3	-0.062496852
56	0x3ccdfef3	0.025145983
57	0x3d788b4d	0.060679723
58	0xbc62fdd8	-0.013854466
59	0x3c83416e	0.01602241
60	0xbd123479	-0.035694573
61	0xbcb89863	-0.022533601
62	0x3b4dba83	0.0031391687
63	0x3d906a5e	0.07051538
64	0x3d0a3253	0.0337394
65	0x3c554fb9	0.013019496
66	0xbceb05d4	-0.028689303
67	0xbd0613e1	-0.0327338
68	0x3c68d826	0.01421169
69	0xbd8559c8	-0.06511265
70	0xbd075c7f	-0.033047196
71	0x3c2815de	0.01025912
72	0xbd522ce8	-0.051312357
73	0xbd190aa8	-0.03736368
74	0xbc2201f5	-0.009888162
75	0xbd66df0e	-0.056365065
76	0x3d25b3ec	0.04045479
77	0xbd7f7034	-0.062362865
78	0x3c4fafcc	0.012676191
79	0xbd6424b5	-0.05569907
80	0xbd2c23b2	-0.04202623
81	0x3ceb4c4a	0.0287229
82	0xbd2ac9ed	-0.041696478
83	0x3d46ccd0	0.04853517
84	0x3d593600	0.053030014
85	0xbcb5b0ac	-0.02217897
86	0xbcf014f3	-0.029306864
87	0xbd09c275	-0.033632714
88	0x3d9e06b2	0.07716121
89	0x3d11d984	0.03560783
90	0x3d4f7d13	0.05065639
91	0x3d50e26c	0.050997183
92	0x3b2c90db	0.0026331458
93	0x3d4d5654	0.050131157
94	0x3d03a3cc	0.03213863
95	0x3d0419b7	0.032251086
96	0x3a4ba508	0.0007768427
97	0x3b834d19	0.0040069935
98	0x3d2c83b4	0.04211779
99	0xbbe5d014	-0.0070133302
100	0x3d49b0e3	0.049240958
101	0x3cf8ada7	0.030356241
102	0x3c408d99	0.0117525095
103	0x3d4840aa	0.048889793
104	0xbd097799	-0.033561323
105	0x3d345154	0.044022873
106	0xbd0ca840	-0.034340143
107	0x3c5411ae	0.012943668
108	0x3d3e2682	0.046423443
109	0x3d083030	0.03324908
110	0x3cf50f96	0.029914659
111	0x3d31d24c	0.043413445
112	0x3da27e2c	0.079342216
113	0x3d9db28f	0.07700073
114	0xbcbec95b	-0.023289373
115	0xbbc86d4d	-0.0061165453
116	0x3d81e8c2	0.06343223
117	0x3d832a4c	0.06404552
118	0x3d2b6c80	0.04185152
119	0x3d0b9943	0.03408171
120	0x3cd9869c	0.026553445
121	0xbd3b2f6f	-0.045699533
122	0x3c10dfca	0.008842418
123	0x3c9c05ff	0.019045828
124	0x3d423425	0.04741301
125	0xbd69c5e3	-0.057073485
126	0x3ca866eb	0.020556888
127	0x3d74d1fc	0.05977057
128	0x3d97607a	0.07391448
129	0xbb077806	-0.0020670905
130	0xbb6e9206	-0.0036402955
131	0x3d340d92	0.043958254
132	0x3ba972ff	0.0051711793
133	0x3d814149	0.0631128
134	0x3c25b7d2	0.010114627
135	0x3d7919d4	0.060815647
136	0x3d485851	0.04891235
137	0x3ca39cbf	0.019972203
138	0x3c34d740	0.011037648
139	0x3cefa7b8	0.02925478
140	0x3d780302	0.060549743
141	0x3c626da6	0.013820088
142	0xbd4a81e1	-0.04944027
143	0xbd70d927	-0.058800843
144	0x3d690bf2	0.056896158
145	0xbd5894da	-0.05287633
146	0x3c443b13	0.011976975
147	0x3ccd8e31	0.025092216
148	0xbc566816	-0.013086339
149	0xbc2df8cf	-0.010618403
150	0x3bcccd49	0.006250058
151	0xbd021e8a	-0.031767406
152	0xbcf134f9	-0.029444205
153	0x3d18da4a	0.03731755
154	0xbc4039f6	-0.011732569
155	0xbd915659	-0.07096548
156	0x3ced484c	0.028965138
157	0x3db6ac33	0.08919563
158	0x3d8f043d	0.0698323
159	0x3d861937	0.06547778
160	0xbb8567f5	-0.0040712305
161	0x3b1356df	0.00224822
162	0x3bb4dcfe	0.0055195084
163	0x3d96fef6	0.07372849
164	0x3ba793d7	0.0051140594
165	0xbc51bec0	-0.012801826
166	0x3d83f2a8	0.064427674
167	0xbd2ab409	-0.0416756
168	0xbd45e221	-0.048311356
169	0xbd2bee51	-0.041975323
170	0x3c06cfb4	0.008228231
171	0x3cdadcfd	0.026716704
172	0xb9e826a9	-0.00044279292
173	0xbd9be872	-0.07612695
174	0xbc3df3f2	-0.011593806
175	0x3c26b19a	0.010174179
176	0x3d2cf78d	0.04222827
177	0xbcdf58be	-0.027263995
178	0x3ba6eadf	0.005093917
179	0xbd6a1a04	-0.057153717
180	0x3ce049bc	0.02737891
181	0x3d66370e	0.056204848
182	0xbd1c9e5f	-0.038236972
183	0x3c629e79	0.013831728
184	0x3c746dc8	0.014918752
185	0xbd757dbd	-0.059934366
186	0xbcaef6e1	-0.021357955
187	0xbd480264	-0.048830405
188	0xbd295c2a	-0.04134766
189	0x3cd645ed	0.02615639
190	0xbd4fde9b	-0.050749402
191	0x3c946e26	0.01811893
192	0x3c8b0ca5	0.016973803
193	0x3d2300ad	0.039795566
194	0xbbb71f45	-0.0055884444
195	0x3caa3519	0.020777272
196	0xbd2b2f8b	-0.041793387
197	0xbd071b13	-0.032984804
198	0xbb7a65e1	-0.0038207697
199	0x3d06e1f0	0.032930315
200	0xb7d28073	-2.5093765e-05
201	0x3c5d771a	0.013517166
202	0x3d446f88	0.047957927
203	0x3be47441	0.0069718664
204	0xbcb3bae8	-0.02193971
205	0xbd200b58	-0.03907332
206	0xbd436003	-0.047698986
207	0x3d9f5a44	0.07780889
208	0x3cb2cd7f	0.021826504
209	0xbcb0d5fc	-0.02158641
210	0xbc914d00	-0.017736912
211	0x3d8a1947	0.067431025
212	0xbd2300a6	-0.03979554
213	0xbcb0ec2c	-0.02159699
214	0xbcf338e8	-0.029690221
215	0x3d95b73d	0.073103406
216	0x3ca187c4	0.019718058
217	0xbc94aae2	-0.01814789
218	0x3c28c2cb	0.0103003485
219	0x3d58bffb	0.05291746
220	0x3d3312e5	0.04371919
221	0xbd2dc515	-0.04242428
222	0xbd6286eb	-0.05530445
223	0x3d0c2874	0.034218267
224	0xbc16fcb8	-0.009215526
225	0xbcc6ac12	-0.024251971
226	0xbd4f85a1	-0.050664548
227	0xbcfe81dd	-0.031067783
228	0xbceb929f	-0.028756438
229	0x3d56c6a8	0.052435547
230	0x3c6f51dc	0.014606919
231	0x3b2d3063	0.0026426546
232	0xbc979242	-0.018502358
233	0xbbc17b1e	-0.0059045693
234	0x3cdd1b71	0.026990624
235	0xbd37a4da	-0.04483495
236	0x3d31b248	0.043382913
237	0xbbf7af7d	-0.0075587616
238	0x3c2221ee	0.009895785
239	0x3ceba9a1	0.028767409
240	0xbcfb405a	-0.030670334
241	0x3d3e8153	0.046510052
242	0x3d0c7b7b	0.034297448
243	0x3d6a7980	0.057244778
244	0xbd63d4c9	-0.05562285
245	0xbc9a6a5d	-0.018849546
246	0xbd22ee9b	-0.039778333
247	0x3d27a02b	0.040924232
248	0x3d83af93	0.064299725
249	0xbd543604	-0.051809326
250	0x3cacd9cf	0.021099953
251	0xbc8005ab	-0.015627703
252	0xbc1598e1	-0.009130687
253	0x3d0d9e8e	0.034575038
254	0xbd93c56c	-0.072153896
255	0x3d2d062b	0.04224221

conv2.bias f4 [20]
0	0xbba3de68	-0.005000878
1	0xbc34a923	-0.011026653
2	0xbd3404e7	-0.043949988
3	0xbc15b2b0	-0.009136841
4	0x3bdfa521	0.006825105
5	0xbc832cdb	-0.0160126
6	0xbd6587eb	-0.056037825
7	0x3c67de07	0.014152057
8	0x3c8c0f98	0.01709728
9	0xbcc31618	-0.023814246
10	0x3c86afaf	0.016441194
11	0xbcb8bdf4	-0.022551514
12	0x3d22e25a	0.039766647
13	0x3d3296c0	0.043600798
14	0x3d46a9d7	0.048501816
15	0x3cd59ce1	0.026075782
16	0x3c1fbdc3	0.009749833
17	0x3a47bd16	0.00076194236
18	0xbceef5c7	-0.02916993
19	0xbd80c8b4	-0.06288281

fc.weight f4 [10, 320]
0	0xbd668417	-0.056278314
1	0xbcac9678	-0.021067843
2	0x3d0eaf77	0.034835305
3	0xbbfd2fdb	-0.007726652
4	0x3ce8fe8c	0.02844169
5	0xbaeb29d6	-0.0017941545
6	0x3c313467	0.010815716
7	0xbd050061	-0.032471064
8	0x3da0a7e3	0.07844522
9	0x3bf39ec4	0.007434698
10	0xbcf4d1f3	-0.029885268
11	0x3d38db43	0.04513098
12	0xbbd70d97	-0.0065628993
13	0xbd57a187	-0.05264428
14	0x3d1cd45f	0.03828847
15	0xbcaebed0	-0.02133122
16	0x3b2d9495	0.0026486267
17	0x3cb02d3f	0.02150595
18	0x3cbc16a8	0.022960022
19	0x3d3db7f7	0.04631802
20	0xbc139e3f	-0.009009897
21	0xbd0ed4b2	-0.03487081
22	0x3bdc4e99	0.0067232368
23	0xbd4eccf6	-0.050488435
24	0xbca82584	-0.020525701
25	0x3c494f0f	0.012286915
26	0x3d892b05	0.066976584
27	0x3ba454ad	0.005014977
28	0xbcbc7700	-0.023005962
29	0x3b0b4f6f	0.0021257063
30	0x3bdf9cfe	0.006824135
31	0x3b79bdd7	0.0038107538
32	0x3d350b47	0.044200208
33	0x3d65fffa	0.05615232
34	0xbc01fd4c	-0.007933926
35	0xbcd4e7cc	-0.025989436
36	0x3c10aa77	0.0088297045
37	0x3d0d29dd	0.034463752
38	0x3b900f2a	0.004396339
39	0xbd12bb56	-0.03582319
40	0x3bf44645	0.007454666
41	0xbcdfeeb2	-0.027335498
42	0xbd3a77ee	-0.04552453
43	0xbb36dd99	-0.0027903079
44	0xbcf5d258	-0.030007526
45	0x3cf4c4fc	0.029879086
46	0xbc914273	-0.01773188
47	0x3c94a0f5	0.018143157
48	0x3cbe3eee	0.023223367
49	0xbc8c6d95	-0.017142097
50	0xbbc80dd0	-0.006105162
51	0xbd925a5f	-0.07146143
52	0x3c1b0bd3	0.009463268
53	0x3dba48c9	0.09095914
54	0x3c643071	0.013927565
55	0xbd8c786b	-0.068589054
56	0x3df20dc0	0.11819029
57	0x3dc79bf8	0.097465456
58	0xbd8b9b0b	-0.068166815
59	0x3d823c0e	0.06359111
60	0x3d2d8751	0.042365376
61	0xbc8b7e78	-0.017028078
62	0x3b7a9e2b	0.0038241248
63	0x3d455cd6	0.04818424
64	0xbcbaea82	-0.0228169
65	0x3d3839d4	0.044977024
66	0xbcce856a	-0.025210101
67	0x3ca4eae4	0.020131536
68	0x3a6d8eb1	0.0009062095
69	0xbd0d390b	-0.03447823
70	0x3d06eeb7	0.0329425
71	0x3d105fff	0.0352478
72	0x3d020219	0.03174028
73	0xbd050385	-0.03247406
74	0xbcf28bbd	-0.029607648
75	0xbcc7dc71	-0.024397107
76	0xbd54311b	-0.051804643
77	0xbc830b5c	-0.015996628
78	0xbcdb03e2	-0.02673525
79	0x3c6eefde	0.014583556
80	0xbbc2c1ee	-0.0059435284
81	0xbc03e587	-0.008050329
82	0xbb861f3e	-0.00409308
83	0xbb343c0b	-0.0027501609
84	0x3c80a8f0	0.015705556
85	0xbce1352f	-0.02749118
86	0xbbd53708	-0.0065068044
87	0x3ccec6f7	0.025241358
88	0xbd12d101	-0.035843853
89	0xbd8994a8	-0.06717807
90	0xbd315413	-0.04329307
91	0xba5c319f	-0.0008399728
92	0x3d356ffa	0.044296242
93	0xbc0832b1	-0.008312867
94	0xbc133cd9	-0.008986675
95	0xbd53d380	-0.051715374
96	0x3ce537ed	0.027980769
97	0x3d67c8f0	0.056588113
98	0x3b404a68	0.0029341225
99	0xbd009667	-0.031393435
100	0x3d14d503	0.036335956
101	0x3b45e472	0.0030195978
102	0x3ce453be	0.027871963
103	0xbcc083bb	-0.023500314
104	0x3ba91e0a	0.0051610516
105	0xbda0cb3d	-0.078512646
106	0x3da15734	0.07877961
107	0x3d812f55	0.06307856
108	0x3c6f738d	0.014614952
109	0xbd46d8e0	-0.048546672
110	0xbd9cf630	-0.07664144
111	0xbccfad32	-0.02535114
112	0x3b967efa	0.0045927735
113	0xbca980d3	-0.020691311
114	0x3b532cd6	0.003222277
115	0xbd77c2b9	-0.060488436
116	0xbc600e40	-0.013675272
117	0x3cc8354b	0.024439475
118	0x3d7b9546	0.061421655
119	0x3c6e0f5c	0.014530029
120	0xbd2aa0d5	-0.041657288
121	0x3cf0c24e	0.029389527
122	0x3ca8d41e	0.020608958
123	0x3d226575	0.03964754
124	0xbd4b3b0c	-0.04961686
125	0x3c664fa0	0.01405707
126	0xbc7a6805	-0.015283589
127	0x3d6539af	0.055963214
128	0xbcb68690	-0.022280961
129	0x3ccce32b	0.025010666
130	0x3cc9cdac	0.024634205
131	0x3d6f40fe	0.05841159
132	0xbcb41c95	-0.021986285
133	0xbcd42b44	-0.025899537
134	0x3ca9dfd6	0.020736616
135	0x3c312d94	0.010814089
136	0xbd36d732	-0.04463882
137	0xbc2d6211	-0.010582463
138	0x3cffcace	0.031224634
139	0xbd4325d0	-0.047643483
140	0xbc71b7fb	-0.014753337
141	0x3d9fc941	0.07802058
142	0xbcf3c8d5	-0.02975885
143	0xbc8d2674	-0.01723025
144	0xbb2021f4	-0.00244343
145	0xbc518a74	-0.012789357
146	0xbd0d328f	-0.034472045
147	0xbd1cdb8d	-0.038295317
148	0xbd40882b	-0.04700486
149	0xbce725d3	-0.028216278
150	0xbc17e8d0	-0.009271815
151	0xbc33679a	-0.0109499935
152	0x3cf2c072	0.02963278
153	0x3d696341	0.05697942
154	0x3b6c718f	0.0036078428
155	0xbca73105	-0.020409117
156	0xbd1c7fad	-0.0382077
157	0x3c5844e1	0.013200016
158	0x3cda88a6	0.026676487
159	0xbd80b145	-0.062838115
160	0x3cb3ac2c	0.021932684
161	0x3d220fa7	0.03956571
162	0x3db139bb	0.08653589
163	0x3cdf451d	0.027254635
164	0x3ca1d359	0.019754099
165	0x3cc1068f	0.023562698
166	0x3dcb3f78	0.09924215
167	0xbd2fcd0b	-0.042920154
168	0x3b78b3a7	0.0037948878
169	0x3d8a8742	0.0676408
170	0xbde6b149	-0.11264283
171	0xbc151cc3	-0.009101096
172	0xba0fb5aa	-0.0005482087
173	0x3d2bcc7b	0.041943055
174	0xbcbb6d1e	-0.02287918
175	0x3c9fe4fe	0.019518372
176	0xbd3ca3c7	-0.046054628
177	0xbccea059	-0.025222944
178	0xbcfc6aa7	-0.030812575
179	0xbc0f88ea	-0.00876067
180	0xbc3087f7	-0.010774604
181	0xbd288ccc	-0.0411499
182	0xbc59cef9	-0.013293975
183	0xbd5efd34	-0.054440692
184	0x3bbb709b	0.0057202107
185	0xbbcd49bd	-0.006264894
186	0x3bcaa609	0.0061843437
187	0x3d23c53c	0.03998302
188	0x3d30f4b6	0.043202125
189	0x3d1e79d7	0.038690414
190	0x3d5bfc6e	0.053707533
191	0xbd400c5d	-0.04688679
192	0xbc5bbe29	-0.013412037
193	0x3bfa83d4	0.0076451097
194	0xbd2e4e3c	-0.04255508
195	0x3d1a24f9	0.037632916
196	0xbd44fa90	-0.048090518
197	0xbdd03146	-0.10165648
198	0xbd7a5def	-0.06112474
199	0xbd3c7858	-0.046013206
200	0x3d44bba5	0.048030514
201	0x3be916c2	0.0071133086
202	0x3d213f80	0.0393672
203	0xbd86e206	-0.06586079
204	0x3d15b7cc	0.036552235
205	0x3d922f4d	0.07137928
206	0xbc3161c9	-0.010826536
207	0xbd0e61bf	-0.034761187
208	0xbc4936b6	-0.0122811105
209	0x3d3f1594	0.046651438
210	0x3d3b52c6	0.045733236
211	0x3d3ab342	0.04558111
212	0xbd63fdc0	-0.055661917
213	0xbd393aae	-0.045221977
214	0xbc60adaf	-0.013713284
215	0xbd1af0bb	-0.037827235
216	0x3cf4b7f6	0.029872876
217	0x3c6a0a9b	0.014284755
218	0x3c8b3b7d	0.01699614
219	0xbc3c9830	-0.011510894
220	0xbc1ffffa	-0.009765619
221	0x3d320d1f	0.043469545
222	0xbd1c05a5	-0.03809132
223	0xbd39d597	-0.04536971
224	0xbcec6cd4	-0.028860487
225	0xbcc87251	-0.024468573
226	0xbce17def	-0.02752587
227	0xbd0394a7	-0.032124188
228	0xbcbcedad	-0.023062551
229	0xbcfab04d	-0.030601645
230	0x3d0dbf8a	0.034606494
231	0xbc229608	-0.009923466
232	0x3bffb0a8	0.0078030415
233	0x3d1b4045	0.03790309
234	0xbcc71959	-0.024304079
235	0x3bed0a23	0.0072338744
236	0x3d13d10b	0.03608803
237	0xbd459e96	-0.048246942
238	0x3cc170ba	0.023613323
239	0x3c98c068	0.018646434
240	0x3cde019a	0.027100373
241	0xbd8b07c9	-0.06788594
242	0xbc2d9d08	-0.010596521
243	0x3ce13662	0.027491752
244	0x3d476d9f	0.048688527
245	0xbc9b3b9a	-0.018949319
246	0x3b7d0cd6	0.0038612387
247	0x3d53c905	0.05170538
248	0x3c56ac7e	0.013102649
249	0xbd27a566	-0.04092922
250	0xbda3b563	-0.07993581
251	0xbd1737e3	-0.036918532
252	0x3d88e30b	0.0668393
253	0xbbbde653	-0.005795279
254	0xbcc84fb8	-0.024452075
255	0xbd800742	-0.06251384

fc.bias f4 [10]
0	0xbd463959	-0.048394535
1	0x3d24b191	0.040208403
2	0xbcdeb7a4	-0.027187176
3	0x3d358012	0.04431159
4	0x3c3ba28b	0.0114523275
5	0x3bafcaea	0.0053647654
6	0xbd251393	-0.04030187
7	0x3d1d3dc5	0.038388986
8	0xbd5aa602	-0.053380974
9	0xbd3e5b43	-0.046473753
