oracle/train/non-iid/checkpoint/fmnist/ckpt_3_1.pth (torch, 358777 bytes, 34 tensors)

layer1.0.weight f4 [16, 1, 5, 5]
0	0xbec782e1	-0.3896704
1	0x3d31de1d	0.043424714
2	0x3e54ecab	0.20793407
3	0x3dccfd4d	0.10009251
4	0x3da0269c	0.07819864
5	0xbdc9c9e6	-0.09852962
6	0x3e373cdd	0.17894311
7	0x3ec34610	0.3813939
8	0x3e729d7f	0.23692892
9	0x3e3f328e	0.18671629
10	0x3b140154	0.00225838
11	0x3d51a3a6	0.051181458
12	0x3ebd6404	0.36990368
13	0x3f0e5d77	0.55611366
14	0x3ef89522	0.4855128
15	0xbd9e311f	-0.07724213
16	0x3e381154	0.1797536
17	0x3ec695f2	0.38786274
18	0x3d6163eb	0.05502693
19	0x3eca0827	0.39459345
20	0xbcb7decd	-0.022445107
21	0x3e7b3613	0.24532346
22	0x3e8140ac	0.25244653
23	0x3e2d75cd	0.16939469
24	0x3e2114ca	0.15730587
25	0xbec72833	-0.38897857
26	0xbd9a2191	-0.075259335
27	0x3db27e48	0.087154925
28	0x3ee768ce	0.45197147
29	0xbd2450ed	-0.04011624
30	0xbdc0156d	-0.09379087
31	0xbd676498	-0.056492418
32	0x3e1de733	0.15420227
33	0x3f01643a	0.5054356
34	0x3cf2c6e9	0.029635863
35	0xbd87e671	-0.0663575
36	0x3c415590	0.011800185
37	0x3e47e3f8	0.19520557
38	0x3f2e477b	0.6807782
39	0x3e51baaf	0.2048137
40	0xbeb03290	-0.34413576
41	0xbe7db260	-0.24775076
42	0x3e669b82	0.22520259
43	0x3efce67c	0.49394596
44	0x3e9eda86	0.31026095
45	0x3dcb0a39	0.09914059
46	0xbe3eac56	-0.18620428
47	0xbda5ac1e	-0.080894694
48	0x3e4c2304	0.19935232
49	0xbd958a1c	-0.07301733
50	0xbe141d3f	-0.14464281
51	0xbea17160	-0.3153181
52	0x3e66d5e1	0.22542526
53	0x3e24f476	0.1610888
54	0xbedc8369	-0.43069008
55	0xbd469448	-0.048481256
56	0x3dd65717	0.1046583
57	0xbe14c377	-0.14527689
58	0xbe9c76a2	-0.3055926
59	0xbf072b11	-0.5280009
60	0x3e847ec7	0.25877973
61	0x3f305c53	0.68890876
62	0x3ec7743a	0.3895586
63	0xbe5a47ed	-0.213165
64	0xbe0afe32	-0.1357353
65	0x3d8f9f58	0.07012814
66	0xbe2118b2	-0.15732077
67	0x3e1b9198	0.15192258
68	0x3d1fe13a	0.039033152
69	0x3e824181	0.254406
70	0x3cff2025	0.031143257
71	0x3e22c6a0	0.15896082
72	0x3d5021bd	0.050813425
73	0xbd0225c5	-0.0317743
74	0xbd9267ef	-0.0714873
75	0xbd39e24b	-0.045381825
76	0x3e367cd8	0.17821062
77	0x3e6a6051	0.22888304
78	0x3e0b4734	0.1360138
79	0x3e408235	0.1879967
80	0x3e82b96f	0.255321
81	0x3e949526	0.2902004
82	0x3e6f0098	0.2334007
83	0x3eafdbfc	0.34347522
84	0xbe52ddc7	-0.20592414
85	0x3e859e13	0.26097164
86	0x3dc46ae8	0.09590703
87	0xbda57ea8	-0.080807984
88	0xbe90e2d8	-0.28298068
89	0xbe125a36	-0.14292225
90	0xbe3df405	-0.18550117
91	0xbeadf240	-0.33973885
92	0xbe8f0f6d	-0.27941456
93	0xbea731e5	-0.32655254
94	0x3da4b9a2	0.08043219
95	0xbea8144b	-0.32827982
96	0xbe9ea900	-0.30988312
97	0xbeabdb48	-0.33565736
98	0xbe522889	-0.20523275
99	0x3ea60a3a	0.32429677
100	0xbe9bbdc8	-0.3041823
101	0x3e4474fb	0.1918525
102	0x3ea02ddb	0.31284985
103	0x3c22b066	0.009929752
104	0x3ebed5ae	0.372724
105	0x3e47fa6b	0.1952912
106	0x3e8c81de	0.2744283
107	0x3ea02894	0.3128096
108	0x3e8de270	0.2771182
109	0x3e72101a	0.23638955
110	0x3e2510b0	0.16119647
111	0x3ec38580	0.3818779
112	0xbc386217	-0.011253855
113	0xbee39fee	-0.44457954
114	0xbd699a7a	-0.057032086
115	0xbdfb3d76	-0.12267582
116	0xbdbc7ca5	-0.092034616
117	0x3db5e9c9	0.088824816
118	0xbf07d819	-0.53064114
119	0xbcec9214	-0.02887825
120	0x3d94c1bf	0.07263517
121	0xbe0d5d9a	-0.13805237
122	0xbea3b7b3	-0.3197609
123	0xbf16151c	-0.5862596
124	0x3e05ec05	0.13078316
125	0xbbb92204	-0.005649807
126	0x3d18ee42	0.037336595
127	0xbd794b11	-0.060862605
128	0x3d1f6707	0.038916614
129	0x3ea17f83	0.31542596
130	0xbe2b47b0	-0.16726565
131	0xbe5e133f	-0.2168703
132	0xbe40895c	-0.18802398
133	0x3ec8f214	0.3924719
134	0x3e072afc	0.13199991
135	0xbe4b0902	-0.19827655
136	0xbe4eb804	-0.20187384
137	0x3cad6857	0.021167917
138	0xbddb2f40	-0.107023716
139	0x3ee408c6	0.44537944
140	0x3ede33f1	0.43399003
141	0xbe186322	-0.14881566
142	0xbefe63df	-0.4968557
143	0xbe303a1d	-0.17209668
144	0x3ecb5c59	0.39718893
145	0x3ebc7eca	0.36815482
146	0x3e1cff1f	0.15331696
147	0xbed8d338	-0.42348647
148	0xbe907cc0	-0.28220177
149	0x3e031722	0.12801793
150	0x3d9bcb1e	0.07607101
151	0x3d2ceb4a	0.042216577
152	0xbe227969	-0.15866627
153	0x3e27ce0d	0.16387196
154	0xbc0096a0	-0.007848412
155	0xbd87c6cc	-0.06629714
156	0x3d969454	0.0735251
157	0xbefc760a	-0.49308807
158	0x3f2c807e	0.67383564
159	0xbe092d13	-0.133961
160	0x3952c490	0.00020100386
161	0xbe741f98	-0.23840177
162	0xbeb547bd	-0.35406294
163	0x3f36a5aa	0.71346533
164	0xbe917711	-0.28411153
165	0x3d0b7ad7	0.034052696
166	0xbe6ff076	-0.23431572
167	0xbd3c9355	-0.046038944
168	0x3ebd37ab	0.36956534
169	0xbe013eb6	-0.12621579
170	0x3dbadbf7	0.09123986
171	0x3cc33c07	0.023832334
172	0xbe68f6aa	-0.22750345
173	0x3e728120	0.2368207
174	0xbdd7b6fc	-0.105329484
175	0xbe05355d	-0.13008638
176	0x3d9ad7d0	0.07560694
177	0x3e97e526	0.29667014
178	0x3ea681af	0.32520816
179	0x3e1f4d9c	0.1555695
180	0x3db3fec4	0.08788827
181	0xbcfe2a9d	-0.031026179
182	0xbdbe202f	-0.09283482
183	0xbdc67756	-0.0969073
184	0x3e5abfb3	0.2136219
185	0x3ddca250	0.10773146
186	0xbe4eb2a2	-0.2018533
187	0xbeb2a504	-0.34891522
188	0xbf19ff1a	-0.6015488
189	0xbd5f1988	-0.054467708
190	0x3e860b9a	0.26180726
191	0xbed70514	-0.41996062
192	0xbf4b1ba7	-0.7933907
193	0xbf67cede	-0.9055003
194	0xbe892f2d	-0.26793805
195	0xbd8a90b7	-0.067658834
196	0x3e9d668d	0.30742303
197	0xbb9ced6e	-0.004789046
198	0xbe8df849	-0.2772849
199	0x3d49dc1a	0.04928217
200	0xbd73d1ac	-0.05952613
201	0xbd1524c7	-0.036412027
202	0x3cfc6844	0.030811436
203	0xbe5d4f0e	-0.21612188
204	0x3eb1360a	0.3461154
205	0xbedc32e7	-0.43007585
206	0xbeaec3bd	-0.3413371
207	0xbe927668	-0.28605962
208	0xbe314b79	-0.17313947
209	0x3ef4c434	0.4780594
210	0xbeb29a59	-0.34883383
211	0xbeea09a8	-0.45710492
212	0xbcccf749	-0.025020259
213	0x3df96be5	0.121787824
214	0x3d6c4454	0.05768235
215	0x3b933464	0.0044923294
216	0x3d9bedd9	0.07613725
217	0x3e524906	0.20535669
218	0x3dd3d877	0.10344022
219	0xbe740aa6	-0.23832187
220	0x3dfb9708	0.12284666
221	0x3c267bc4	0.010161344
222	0x3de1f9d1	0.11033977
223	0x3e22a103	0.15881734
224	0xbe5b1033	-0.21392898
225	0xbe57ad1b	-0.21062128
226	0x3e831afa	0.2560652
227	0x3e80da49	0.25166538
228	0xbd313e31	-0.0432722
229	0xbd375884	-0.04476215
230	0x3d9fc0e6	0.07800464
231	0x3d074e82	0.033033855
232	0xbc01bfbb	-0.007919247
233	0xbd9bb835	-0.07603494
234	0x3d7d55e2	0.061849482
235	0xbe8b7241	-0.27235606
236	0x3e03e233	0.12879257
237	0x3ddf25d7	0.10895889
238	0xbd7a245e	-0.06106984
239	0xbad4a287	-0.0016222753
240	0xbdc007e9	-0.09376509
241	0xbe268c82	-0.16264537
242	0xbeb95d9b	-0.36204228
243	0xbee944be	-0.4556026
244	0xbe42c472	-0.1902025
245	0x3e828ca2	0.2549792
246	0xbedf6f62	-0.43639666
247	0xbf1dfea7	-0.61716694
248	0xbf1ab54e	-0.604329
249	0xbeb1ff3d	-0.34765044
250	0xbedf9a2a	-0.43672305
251	0xbe88be80	-0.2670784
252	0x3d9be560	0.07612109
253	0x3e2196ff	0.15780257
254	0xbb43540d	-0.0029804737
255	0xbeb05575	-0.344402

layer1.0.bias f4 [16]
0	0x3d6648cc	0.05622177
1	0x3ee6f6c6	0.45110148
2	0xbe432322	-0.19056371
3	0xbe3b04ae	-0.18263504
4	0xbe964ab3	-0.29353866
5	0xbea1f267	-0.3163025
6	0xbe16ee36	-0.14739308
7	0xbef13410	-0.47110033
8	0xbe1d9d8e	-0.15392134
9	0xbd9b877a	-0.075941995
10	0x3e10e4b0	0.14149737
11	0x3ed38e2f	0.41319415
12	0xbeb588ac	-0.35455835
13	0x3e0ce033	0.137574
14	0x3e011731	0.12606503
15	0xbe03adaa	-0.12859216

layer1.1.weight f4 [16]
0	0x3f3823b8	0.719295
1	0x3f0c3f12	0.5478374
2	0x3f8230bb	1.0171121
3	0x3f5513a1	0.83233076
4	0x3f6de862	0.92932713
5	0x3f70c09d	0.94043905
6	0x3f9df4e0	1.2340355
7	0x3feb9a8b	1.8406538
8	0x3f732de8	0.9499192
9	0x3f81d56e	1.0143259
10	0x3f8cf3e6	1.1011932
11	0x3f574e5f	0.8410396
12	0x3f5fe331	0.8745604
13	0x3fd29b51	1.6453649
14	0x3f1f4f66	0.6223053
15	0x3fa5121d	1.2896153

layer1.1.bias f4 [16]
0	0xbea1353d	-0.3148593
1	0xbebce19a	-0.3689087
2	0xbe51f377	-0.2050303
3	0xbddc0616	-0.10743348
4	0x3d91c2e3	0.0711725
5	0xbe4de17e	-0.2010555
6	0xbc9cfcf1	-0.01916358
7	0xbf2f0ec0	-0.6838188
8	0xbea25c1c	-0.317109
9	0xbf07e92c	-0.5309017
10	0xbe1606f0	-0.14651084
11	0xbd805f78	-0.06268209
12	0x3e0f2f41	0.1398287
13	0xbf197fc5	-0.59960586
14	0xbed351ab	-0.41273245
15	0xbf0fea4a	-0.5621687

layer1.1.running_mean f4 [16]
0	0x40023128	2.0342503
1	0x3fb36350	1.4014683
2	0xbed57e82	-0.4169808
3	0xbed384fe	-0.41312402
4	0xbd0f84b6	-0.035038672
5	0xbe02131d	-0.12702604
6	0xbdc01ed8	-0.09380883
7	0xbfca5d9d	-1.5809819
8	0xbf1e510f	-0.61842436
9	0xbfb04d84	-1.3773656
10	0x3cf85ee4	0.030318685
11	0x3f28d1ce	0.65945137
12	0xbf337c78	-0.701118
13	0xbfbb6270	-1.4639416
14	0x3fe7f47a	1.8121483
15	0xc00a4cf8	-2.1609478

layer1.1.running_var f4 [16]
0	0x41853ebd	16.655634
1	0x40ce3db6	6.445033
2	0x3fa1e2aa	1.2647297
3	0x3fec0e7e	1.8441923
4	0x40015685	2.0209057
5	0x3f948f7b	1.1606287
6	0x3f477761	0.7791653
7	0x40ea5356	7.322673
8	0x3ff5d568	1.9205751
9	0x40f4ec56	7.6538496
10	0x3f2e9fa7	0.6821236
11	0x3fa063d7	1.2530469
12	0x3f95c17b	1.169967
13	0x415d86ed	13.845441
14	0x413e424e	11.891188
15	0x4190e18a	18.110126

layer2.0.weight f4 [32, 16, 5, 5]
0	0x3d9d496f	0.07680022
1	0x3de39e98	0.11114234
2	0x3d6b0587	0.05737832
3	0xbbe06e2c	-0.006849071
4	0xbd818438	-0.06324047
5	0x3de8cc5a	0.11367102
6	0x3de76b39	0.11299748
7	0x3da7feb7	0.0820288
8	0xbcd0824f	-0.025452761
9	0xbda81165	-0.08206443
10	0x3e91bb42	0.2846318
11	0x3e6e9aba	0.23301211
12	0x3e06b73e	0.13155839
13	0x3d763b9f	0.060115453
14	0xbc976390	-0.018480092
15	0x3eac4b2d	0.33651105
16	0x3e5ec1d0	0.21753621
17	0x3e1adf18	0.15124166
18	0x3dee9c04	0.11650851
19	0x3c2d7cc6	0.01058883
20	0x3d9015b3	0.07035389
21	0x3e1a2031	0.15051343
22	0x3e46d93c	0.19418806
23	0x3e07ccf8	0.13261783
24	0x3d3354f1	0.04378218
25	0x3da4fbb6	0.080558226
26	0xbafe8ee1	-0.0019421243
27	0xbda8d15e	-0.082430586
28	0xbdd73858	-0.105087936
29	0xbe06bb56	-0.131574
30	0x3e3c6dae	0.18401214
31	0xbd5eff07	-0.05444243
32	0xbd4f43ea	-0.050601877
33	0x3d534180	0.051576138
34	0xbe2d7e11	-0.16942622
35	0x3e84dc5e	0.25949377
36	0xbd7e9a6e	-0.062158994
37	0x3c54aa6b	0.012980084
38	0x3da03fef	0.07824694
39	0xbe71df30	-0.23620296
40	0x3e58a2f5	0.21155913
41	0xbdca30fa	-0.09872623
42	0x3dec5b4d	0.11540852
43	0x3e3c6970	0.18399596
44	0xbe0630eb	-0.13104598
45	0x3cd9e688	0.026599184
46	0xbdcb5c18	-0.09929675
47	0xbc93f537	-0.018061263
48	0x3e06e183	0.13171963
49	0xbd7254eb	-0.059163015
50	0x3e50c71f	0.20388459
51	0x3eb36499	0.35037687
52	0x3d488b73	0.048961114
53	0x3e856175	0.26050916
54	0x3e8c5516	0.27408665
55	0xbd9db71f	-0.07700943
56	0x3d277c48	0.04089001
57	0xbd4b9534	-0.049702838
58	0xbd0406ca	-0.032233037
59	0x3d88acc3	0.06673577
60	0x3ee3f504	0.4452287
61	0x3ead7b82	0.3388329
62	0x3e9b338b	0.30312762
63	0x3e7cd00a	0.24688736
64	0x3ed49127	0.41516992
65	0xbcc2c0c9	-0.023773568
66	0xbd79390e	-0.060845427
67	0x3c82d47a	0.015970457
68	0xbdb691f5	-0.08914558
69	0x3e04ac9a	0.12956467
70	0xbe0ab5fc	-0.13545984
71	0xbe6ae128	-0.22937453
72	0xbd8fce88	-0.070218146
73	0x3db2a52c	0.0872291
74	0xbcee5485	-0.029093036
75	0xbe2a6fb2	-0.16644171
76	0xbe5e072c	-0.21682423
77	0xbe726c56	-0.2367414
78	0x3dacb4fb	0.08432957
79	0xbe4ddc75	-0.20103629
80	0xbe83b092	-0.2572065
81	0xbe577e84	-0.21044356
82	0x3b20a93c	0.0024514934
83	0x3cbe7b04	0.023252018
84	0xbec45e74	-0.38353312
85	0xbe32865d	-0.17434068
86	0x3bcd7ebc	0.0062712114
87	0xbcdb8954	-0.026798882
88	0x3e6a36d3	0.22872476
89	0xbdb75a8c	-0.08952817
90	0x3e170258	0.14746988
91	0x3e8a6e87	0.2703745
92	0x3e953f14	0.29149687
93	0x3dbf52d3	0.09341969
94	0xbd1c1084	-0.038101688
95	0x3e84f952	0.25971466
96	0x3e81451c	0.2524804
97	0x3e791340	0.2432375
98	0x3e3fe115	0.18738206
99	0x3dd173e4	0.102271825
100	0xbe62a17a	-0.22131911
101	0xbea5c10f	-0.32373855
102	0xbea2eabf	-0.31819722
103	0xbe43fb24	-0.19138771
104	0xbe8ff7aa	-0.2811864
105	0xbe8ab201	-0.2708893
106	0xbe76b9ec	-0.24094361
107	0xbe03eb08	-0.12882626
108	0xbe49cf40	-0.19707966
109	0xbe1f6c24	-0.15568596
110	0xbdc679c2	-0.09691192
111	0xbd8313cb	-0.064002596
112	0xbd868a6b	-0.0656937
113	0x3db84ede	0.08999418
114	0x3d225d4c	0.039639756
115	0x3da19d69	0.07891352
116	0x3e02bac3	0.12766556
117	0x3df8fbc1	0.12157393
118	0x3d04d3fa	0.03242872
119	0x3d677142	0.056504495
120	0x3e8406ef	0.2578654
121	0x3e3990c4	0.1812163
122	0x3b27612d	0.00255401
123	0x3e67affb	0.22625725
124	0x3e2e2b5e	0.17008731
125	0xbe8c30c5	-0.27380958
126	0xbe4f5ee3	-0.2025104
127	0xbd8747ea	-0.066055134
128	0xbdf5529a	-0.119786456
129	0x3d7095a5	0.058736462
130	0xbe8c98d6	-0.27460355
131	0xbe11e34d	-0.14246865
132	0xbde91216	-0.11380403
133	0xbde13c7b	-0.10997864
134	0xbe7a090b	-0.24417512
135	0xbe83c02e	-0.2573256
136	0xbecb0fe3	-0.39660558
137	0xbdd33950	-0.10313666
138	0xbd243f46	-0.040099405
139	0xbec74fcf	-0.38928077
140	0xbe94bd59	-0.2905071
141	0xbe7b214a	-0.24524418
142	0xbea3d8a5	-0.32001224
143	0xbd5e21d9	-0.0542315
144	0xbe89557c	-0.26823032
145	0xbe51a902	-0.20474628
146	0xbe359e8f	-0.17736267
147	0xbdb40ec9	-0.087918825
148	0xbe8b0dcc	-0.27158964
149	0xbe67369c	-0.22579426
150	0x3e20b2a7	0.1569315
151	0xbe9719cc	-0.2951187
152	0x3bbf2db1	0.0058343043
153	0x3ea403fd	0.32034293
154	0x3e49d9dd	0.19712014
155	0x3c0b00a1	0.008484037
156	0xbf03c5d7	-0.51473755
157	0xbe0027d7	-0.12515198
158	0x3e3422e1	0.1759143
159	0x3c03f56e	0.0080541205
160	0xbe233ed3	-0.15941934
161	0xbf08aa3c	-0.5338476
162	0xbe7fba3f	-0.24973391
163	0x3ecd7b8b	0.40133318
164	0xbe3f73b3	-0.1869648
165	0xbe9e50c1	-0.30920985
166	0xbf01b10e	-0.5066079
167	0xbeba0306	-0.36330432
168	0x3ea2e198	0.3181274
169	0xbdde6157	-0.1085841
170	0xbe7df389	-0.24799933
171	0xbef938b7	-0.48676082
172	0xbe834c42	-0.25644118
173	0x3dd7526b	0.10513767
174	0xbe6c1993	-0.23056631
175	0xbe84d840	-0.25946236
176	0xbe555648	-0.20833695
177	0xbe5330c9	-0.20624079
178	0xbe890aa5	-0.26765934
179	0x3a146314	0.0005660516
180	0xbe8ce3c8	-0.27517533
181	0xbeafe0a6	-0.3435108
182	0xbeb766b7	-0.35820553
183	0xbe43f8df	-0.19137906
184	0xbe6a9521	-0.2290845
185	0xbf079112	-0.52955735
186	0xbf09b910	-0.5379801
187	0xbeaee2ab	-0.3415731
188	0xbec9d52e	-0.39420456
189	0xbe517357	-0.20454155
190	0x3b8af3c4	0.004240485
191	0xbe938a56	-0.2881648
192	0xbeae5af8	-0.3405378
193	0xbe3cbf7b	-0.18432419
194	0xbdab8216	-0.08374421
195	0x3ca62ab9	0.020284044
196	0x3dcd8383	0.100348495
197	0xbd0a757e	-0.033803456
198	0xbdf8dcc3	-0.12151482
199	0x3d8b0500	0.06788063
200	0xbddbc9f6	-0.1073188
201	0xbd3c4487	-0.04596379
202	0x3d1787d2	0.036994763
203	0xbd014e58	-0.031568855
204	0x3da09feb	0.07843002
205	0xbd20f965	-0.03930034
206	0xbc2dd7ca	-0.01061053
207	0xbe5651c7	-0.20929633
208	0xbe0c118e	-0.13678572
209	0x3cb0e41c	0.021593146
210	0xbdc8b7f8	-0.09800714
211	0xbd324dd4	-0.043531254
212	0xbd84ae0d	-0.0647851
213	0xbeb59f50	-0.35473108
214	0xbe9a4aaa	-0.3013509
215	0xbe5de137	-0.21667944
216	0xbe6c3c9f	-0.2307
217	0xbe5844c4	-0.21119982
218	0xbe785ad7	-0.24253403
219	0xbeb56b4a	-0.35433418
220	0xbe02667d	-0.12734409
221	0xbda5bfe2	-0.08093239
222	0xbe6f32fb	-0.23359291
223	0xbe81728b	-0.25282702
224	0xbe9ff849	-0.31244114
225	0xbe7517e2	-0.23934892
226	0xbe942e0e	-0.28941387
227	0xbe71267d	-0.23549838
228	0xbe16ec33	-0.1473854
229	0xbec5b683	-0.38615808
230	0xbe7ca15e	-0.24670932
231	0xbe9ff2dd	-0.31239977
232	0xbeae9eb5	-0.3410546
233	0xbe5c156d	-0.21492548
234	0xbe98bbd4	-0.298308
235	0xbdb4c244	-0.08826116
236	0xbe055e02	-0.13024142
237	0xbe33e22c	-0.17566746
238	0xbdd35ee8	-0.10320836
239	0xbdd02ff5	-0.10165397
240	0x3e55e772	0.2088907
241	0x3d9d4158	0.07678479
242	0xbd43b93c	-0.047784075
243	0xbe0a4887	-0.1350423
244	0x3e22e1ab	0.15906398
245	0x39b499df	0.00034446918
246	0x3d697a53	0.057001423
247	0x3dc94119	0.098268695
248	0x3d10b3e3	0.035327803
249	0x3e815a90	0.25264406
250	0xbe2c1510	-0.1680491
251	0x3e182168	0.14856493
252	0x3e3e6616	0.1859363
253	0x3e43552b	0.19075458
254	0x3d5cf62a	0.053945698
255	0xbed1fafd	-0.410118

layer2.0.bias f4 [32]
0	0xbd40c42e	-0.04706209
1	0xbda2a5d9	-0.07941789
2	0x3d373951	0.044732396
3	0xbcb5a060	-0.0221712
4	0x3be212b9	0.0068992046
5	0x3d072903	0.032998096
6	0x3d3986a9	0.045294438
7	0x3cfee243	0.03111375
8	0xbc2251c6	-0.009907192
9	0x3d92929f	0.07156872
10	0xbd155cc3	-0.036465418
11	0xbe0c2f1e	-0.13689849
12	0x3e847cf1	0.25876573
13	0x3dca76f9	0.098859735
14	0xbc6142c8	-0.013748832
15	0xbded0865	-0.11573867
16	0x3cbb5892	0.022869382
17	0xbcadbc30	-0.021207899
18	0x3df45b5c	0.11931488
19	0x3e433f08	0.19067013
20	0x3d0e4c23	0.03474058
21	0xbd639371	-0.055560533
22	0xbd5c8537	-0.05383798
23	0x3d4c6860	0.049904227
24	0x3d93d04f	0.07217466
25	0xbe9ba247	-0.30397245
26	0x3c855839	0.01627742
27	0x3d938146	0.07202391
28	0x3a566de2	0.0008179826
29	0xbcb342fa	-0.021882523
30	0x3db46b1b	0.08809491
31	0xbda2db5c	-0.07951996

layer2.1.weight f4 [32]
0	0x3ef21e0b	0.47288546
1	0x3f159090	0.5842371
2	0x3eb2dac3	0.34932527
3	0x3f2d91d7	0.6780066
4	0x3f404980	0.7511215
5	0x3eb669ad	0.356275
6	0x3ef43b8d	0.47701684
7	0x3eca083b	0.39459404
8	0x3e88d184	0.26722348
9	0x3eb92519	0.36161116
10	0x3f08bc06	0.534119
11	0x3f165a79	0.587318
12	0x3f2f5e20	0.68503
13	0x3f0dd822	0.5540792
14	0x3ee1091d	0.43952265
15	0x3f1f20ca	0.6215941
16	0x3f467858	0.7752738
17	0x3f16b7d5	0.58874255
18	0x3f2bc02e	0.6709012
19	0x3ee5b277	0.4486272
20	0x3f217311	0.630662
21	0x3f1e1997	0.61757797
22	0x3f23c4d6	0.6397222
23	0x3edaa584	0.42704403
24	0x3f0c7b90	0.5487604
25	0x3f317d2b	0.69331616
26	0x3ec58af4	0.38582575
27	0x3f061b71	0.5238562
28	0x3f102569	0.56307083
29	0x3f2f82bc	0.6855886
30	0x3efa00bf	0.48828694
31	0x3e936c21	0.28793433

layer2.1.bias f4 [32]
0	0xbef9f0f8	-0.48816657
1	0xbf0ac1a3	-0.54201716
2	0xbf1d4f69	-0.61449295
3	0xbef8f227	-0.48622248
4	0xbf122d1a	-0.5710007
5	0xbf0ba9c6	-0.5455593
6	0xbf0307db	-0.5118386
7	0xbeef8ee6	-0.4678871
8	0xbf171e98	-0.5903106
9	0xbf091128	-0.53541803
10	0xbf1d651b	-0.614824
11	0xbef19f30	-0.47191763
12	0xbefe1470	-0.49624968
13	0xbee52088	-0.44751382
14	0xbf0e36de	-0.5555247
15	0xbeeefd63	-0.46677694
16	0xbf00aa38	-0.50259733
17	0xbefc8632	-0.49321133
18	0xbef25056	-0.47326916
19	0xbefee164	-0.49781334
20	0xbf01b224	-0.50662446
21	0xbede37e8	-0.43402028
22	0xbf12e933	-0.57387084
23	0xbf0189f9	-0.50601155
24	0xbf1160a0	-0.56788063
25	0xbf0092f2	-0.5022422
26	0xbf189091	-0.5959559
27	0xbedb07c9	-0.42779377
28	0xbf0627d0	-0.524045
29	0xbf0f5f43	-0.5600473
30	0xbefa85e7	-0.48930284
31	0xbf0b06db	-0.54307336

layer2.1.running_mean f4 [32]
0	0xc147914c	-12.472973
1	0xc0201288	-2.501131
2	0xbfc27f26	-1.5195053
3	0xc01472b2	-2.3195004
4	0xc11c6fcd	-9.777295
5	0x40af019b	5.468946
6	0xc11c8e54	-9.784748
7	0xbe6d55b8	-0.2317723
8	0x412ab013	10.667987
9	0xc0dc5a83	-6.886049
10	0xc110ec66	-9.057714
11	0xc0dd9565	-6.9244866
12	0xc138a9ab	-11.541423
13	0xbfe0dd8a	-1.7567608
14	0xc0ce3d38	-6.444973
15	0x3cc82bee	0.02443501
16	0x3eba1d0c	0.36350286
17	0xbff2dfc7	-1.8974541
18	0xc0f7c0b8	-7.742275
19	0xbf941a3d	-1.1570507
20	0xc112184c	-9.130932
21	0xc08267d0	-4.0751724
22	0xc086966f	-4.2058635
23	0xc16cc606	-14.798346
24	0xc15014ee	-13.00511
25	0xc10189b7	-8.096122
26	0xbfbed467	-1.490857
27	0xc0f64ece	-7.6971197
28	0xc0b5d9e1	-5.6828465
29	0xc13dede5	-11.87058
30	0xc0f93c9f	-7.78865
31	0x3e6a53ef	0.2288358

layer2.1.running_var f4 [32]
0	0x4259c71d	54.444447
1	0x429a5116	77.15837
2	0x420ef5aa	35.739906
3	0x4293ebe1	73.9607
4	0x4264927d	57.143055
5	0x42021d15	32.5284
6	0x422e01e9	43.501865
7	0x4231f430	44.488464
8	0x425c3b02	55.057625
9	0x42283d6c	42.059982
10	0x427b5f7e	62.843254
11	0x424cc59e	51.192986
12	0x429438ea	74.11116
13	0x4274c970	61.196716
14	0x420df411	35.488346
15	0x42816702	64.70119
16	0x421ed010	39.703186
17	0x42a8f329	84.47492
18	0x425bc36d	54.940845
19	0x4277a226	61.908348
20	0x42995f37	76.68597
21	0x42e1120a	112.53523
22	0x4202867c	32.631332
23	0x426651fc	57.580063
24	0x42725fcf	60.593563
25	0x42503faa	52.062172
26	0x428ea659	71.3249
27	0x425d8248	55.377228
28	0x427a191e	62.52453
29	0x429744f0	75.63464
30	0x4235d39c	45.45665
31	0x4218a994	38.165604

fc.weight f4 [10, 1568]
0	0x3da1df2b	0.07903894
1	0xbd87e790	-0.06635964
2	0xbc91ab4d	-0.017781878
3	0xbc160ff0	-0.009159073
4	0x3e10c6e5	0.14138372
5	0xbdffa9a6	-0.1248353
6	0x3e883aee	0.2660746
7	0x3ca65b0b	0.020307085
8	0x3dafa783	0.08576872
9	0xbd68f292	-0.056871958
10	0x3d7fc0f0	0.06243986
11	0xbb8e4fdc	-0.004343016
12	0x3db23f49	0.08703477
13	0x3df63ab5	0.12022916
14	0xbcaa6ca4	-0.020803757
15	0x3e5b9dac	0.21446866
16	0xbc18fa87	-0.009337074
17	0x3ce5a06c	0.028030597
18	0xbe5b9ad3	-0.2144578
19	0xbe4889d6	-0.1958383
20	0xbe2c98dd	-0.16855188
21	0x3cd47f4e	0.02593961
22	0x3df664a0	0.120309114
23	0xbca4af15	-0.020103017
24	0x3d48ccb6	0.049023353
25	0xbe6c8815	-0.23098786
26	0xbe69aa1d	-0.228188
27	0xbe3f65c3	-0.18691163
28	0xbdd5f08e	-0.10446273
29	0xbdbb742d	-0.09153018
30	0xbdac7752	-0.08421196
31	0x3d9068dd	0.07051251
32	0xbd716ffd	-0.05894469
33	0xbe7a14c7	-0.24421988
34	0xbe1af208	-0.1513139
35	0xbdc9c385	-0.098517455
36	0xbd1428c8	-0.036171705
37	0x3d4fd068	0.05073586
38	0x3e247307	0.16059504
39	0x3dbc3c6f	0.09191214
40	0xbdfdcba0	-0.12392354
41	0xbe1610f1	-0.146549
42	0xbe6dea69	-0.23233952
43	0xbd00957d	-0.031392563
44	0x3e90a2a4	0.28249085
45	0x3e468299	0.19385757
46	0x3e3265d0	0.17421651
47	0xbd2475d6	-0.04015144
48	0x3dbd0e0c	0.09231195
49	0xbe0096d1	-0.12557532
50	0xbe7bd733	-0.2459381
51	0x3de8bed2	0.11364521
52	0x3ddc1786	0.10746674
53	0xbe22d76e	-0.15902492
54	0x3e05d500	0.13069534
55	0x3dd15007	0.10220342
56	0x3caaed3a	0.020865072
57	0xbdbbd69a	-0.091717914
58	0xbe224de1	-0.15850021
59	0xbeb67637	-0.35637066
60	0xbe1bce72	-0.15215471
61	0x3e181173	0.14850406
62	0xbc990886	-0.018680822
63	0x3d6a39f5	0.05718418
64	0xbf1c0161	-0.60939604
65	0x3e8c6886	0.27423495
66	0xbecc270d	-0.39873543
67	0xbe8429ef	-0.25813243
68	0xbdb9ad44	-0.09066251
69	0xbd487c08	-0.04894641
70	0x3e6b476e	0.22976467
71	0xbdaa645f	-0.083199255
72	0xbdb442bb	-0.0880179
73	0xbe17bba3	-0.14817671
74	0xbd4ce015	-0.05001839
75	0x3db9037d	0.090338685
76	0x3cca1c33	0.02467165
77	0xbe1d74e8	-0.15376627
78	0x3e1c7582	0.152792
79	0xbdf4dfb4	-0.119567305
80	0xbe68744f	-0.22700618
81	0xbddeeacb	-0.10884627
82	0xbb107d75	-0.0022047434
83	0xbd9ce264	-0.07660368
84	0x3df4b3ba	0.119483426
85	0x3e7422ad	0.23841353
86	0x3d90ed45	0.070765056
87	0xbee20d47	-0.44150755
88	0xbd4b3d65	-0.049619097
89	0xbddfc90b	-0.10927018
90	0xbc8fa138	-0.01753293
91	0x3da5657f	0.080759995
92	0xbc7e63e2	-0.015526744
93	0xbcfd7a3c	-0.030942075
94	0xbe252ac7	-0.161296
95	0x3e3b13d8	0.18269289
96	0x3d112e08	0.03544429
97	0xbea76eff	-0.3270187
98	0x3e72f8a1	0.23727657
99	0x3d2668be	0.040627234
100	0xbead6371	-0.3386493
101	0xba84e90e	-0.0010140256
102	0x3ebfc48f	0.3745465
103	0xbe7ee9d3	-0.24893884
104	0x3d4aecb7	0.049542155
105	0x3e590759	0.21194209
106	0x3cf823cf	0.030290512
107	0xbe33eedd	-0.17571588
108	0x3cdb2e86	0.026755583
109	0x3e21f2f6	0.15815338
110	0x3e2d9b8b	0.16953866
111	0x3e275c59	0.16343822
112	0x3d3de23b	0.04635833
113	0x3d84017c	0.064455956
114	0xbc8a6369	-0.016893106
115	0xbd85d994	-0.0653564
116	0xbe4d227f	-0.2003269
117	0xbd870185	-0.06592087
118	0xbc55d6d5	-0.013051708
119	0x3d86df8b	0.06585606
120	0x3e17b8ff	0.14816664
121	0x3de61c33	0.11235847
122	0xbdf1ca9f	-0.11806225
123	0xbde87bc6	-0.11351733
124	0x3d3a6bc8	0.045512944
125	0xbe1dede9	-0.15422787
126	0x3de02df6	0.10946266
127	0x3dd6a873	0.10481348
128	0xbe9d7c95	-0.3075911
129	0xbe236dea	-0.15959898
130	0xbe02d1b4	-0.12775308
131	0xbdc3e310	-0.09564793
132	0xbe4d252b	-0.2003371
133	0x3e10b1b1	0.14130284
134	0x3e45e10a	0.19324127
135	0xbe48d44a	-0.19612232
136	0x3cd360cd	0.025802994
137	0x3dda2e06	0.106533095
138	0xbd86e580	-0.065867424
139	0xbe10dcde	-0.14146754
140	0x3dcd71a3	0.1003144
141	0xbd82c470	-0.06385124
142	0xbe1efd75	-0.15526374
143	0xbc31aa53	-0.010843831
144	0x3e57d718	0.21078146
145	0x3d8bc20b	0.0682412
146	0xbd900be4	-0.07033518
147	0x3e1810e8	0.14850199
148	0x3e0b6f20	0.1361661
149	0xbcb6095f	-0.022221265
150	0xbd330d0c	-0.043713614
151	0x3e0b4f0c	0.13604373
152	0xbdac2563	-0.084055685
153	0x3e4b1b49	0.19834627
154	0xbe28ef42	-0.1649752
155	0xbc3c2c16	-0.01148512
156	0x3dde2194	0.10846248
157	0xbe086292	-0.13318852
158	0xbe4b151c	-0.19832271
159	0xbde34b16	-0.11098306
160	0xbdaa6fa5	-0.08322076
161	0x3d5f9ca3	0.05459274
162	0xbe07ea55	-0.13272984
163	0x3e0194d3	0.12654428
164	0xbe427e96	-0.18993601
165	0xbf2f72b7	-0.68534416
166	0xbf06f7b7	-0.5272173
167	0x3d27b808	0.04094699
168	0xbe52e0b3	-0.20593528
169	0xbe14d852	-0.14535645
170	0x3e08bae8	0.13352549
171	0xbebd2f5a	-0.3695019
172	0xbed53b71	-0.41646913
173	0xbe040849	-0.12893786
174	0xbe59dde3	-0.2127605
175	0xbedf838a	-0.43655044
176	0xbd8ae603	-0.067821525
177	0x3d836fd7	0.06417816
178	0xbf110152	-0.5664264
179	0xbc0a1df0	-0.008429989
180	0x3d9b50b0	0.07583749
181	0x3d9b4272	0.07581033
182	0xbea77b03	-0.32711038
183	0x3ddff2fa	0.10935016
184	0xbd719a28	-0.058984905
185	0xbec7d9a3	-0.3903323
186	0xbe21e48b	-0.15809838
187	0x3dcfcf54	0.101469666
188	0x3e5e7749	0.21725191
189	0xbeadcf04	-0.33947003
190	0x3d746709	0.059668574
191	0xbda725d7	-0.08161514
192	0xbe6dc241	-0.23218633
193	0x3a2ee420	0.00066715665
194	0x3eb062fc	0.3445052
195	0x3dd4f3fa	0.10398097
196	0x3ad12ed4	0.001595939
197	0x3e168441	0.14698888
198	0xbe563ef8	-0.20922458
199	0x3dff2425	0.12458066
200	0x3c0e9666	0.00870285
201	0x3dae3751	0.085066445
202	0x3e81a974	0.25324595
203	0xbd87d215	-0.06631867
204	0x3e1c8b57	0.15287529
205	0x3e4ae189	0.19812597
206	0x3d97e17b	0.07416054
207	0x3af29ca3	0.0018509816
208	0x3b8a5231	0.0042212238
209	0x3d5c2931	0.05375022
210	0x3e05748e	0.13032743
211	0xbd7e34f0	-0.062062204
212	0x3c346c0b	0.011012088
213	0xbdb837a9	-0.08994991
214	0x3e1a38af	0.15060686
215	0x3d675ba7	0.05648389
216	0xbeb4c9f3	-0.35310325
217	0xbecbd691	-0.3981214
218	0x3dcf3983	0.10118391
219	0xbdcd4fe5	-0.10025004
220	0xbc9e8b55	-0.019353548
221	0xbd997599	-0.07493133
222	0xbe55615c	-0.20837921
223	0xbe183e90	-0.14867616
224	0xbed5de1e	-0.41771024
225	0xbdb877a2	-0.09007193
226	0x3d87dd30	0.06633985
227	0xbcda5c77	-0.026655419
228	0xbe3abbe3	-0.18235736
229	0xbee0c88b	-0.43903002
230	0xbe421c06	-0.18956003
231	0x3d649432	0.055805393
232	0xbe93b07a	-0.28845578
233	0xbb749b1c	-0.0037323898
234	0x3d2647e7	0.040595915
235	0x3e1586b8	0.14602172
236	0xbe470b11	-0.19437815
237	0xbe763dd7	-0.24047028
238	0x3c47d1d8	0.012196027
239	0xbdfa97cb	-0.122359835
240	0x3e785ae4	0.24253422
241	0xbd82dfa8	-0.06390315
242	0xbd66bfc9	-0.056335244
243	0xbe1f9d79	-0.15587415
244	0xbd925154	-0.07144418
245	0x3e34c8ee	0.17654774
246	0xbe69801e	-0.22802779
247	0xbe935d9b	-0.28782353
248	0xbe25a19f	-0.16174935
249	0x3e0b79ad	0.13620634
250	0xbe510d3f	-0.20415209
251	0x3f062455	0.5239919
252	0x3d87cb64	0.066305906
253	0x3dbf072a	0.09327538
254	0xbdba6893	-0.09101977
255	0xbd892bbd	-0.066977955

fc.bias f4 [10]
0	0xba30d0e4	-0.00067449943
1	0xbb705fdc	-0.003667823
2	0x3c019319	0.007908606
3	0xbb7c15db	-0.0038465175
4	0xbc0c0e0f	-0.008548274
5	0xbd8fc185	-0.07019333
6	0x3d98c99c	0.07460329
7	0x3e1fa58a	0.15590492
8	0x3d58dc57	0.052944507
9	0xbd814bb5	-0.06313268

exp_avg f4 [16, 1, 5, 5]
0	0x398f922d	0.00027383995
1	0x39951696	0.00028436322
2	0xb851d8b3	-5.00313e-05
3	0xba8ff586	-0.0010983206
4	0xbaa4e44a	-0.0012580242
5	0x3a270a27	0.0006372057
6	0x39ac97e6	0.0003291957
7	0x394a3755	0.00019284834
8	0xba71b1cc	-0.0009219914
9	0xba9b6cfb	-0.001185804
10	0x3ac93d0a	0.0015353274
11	0x3a7bfb3f	0.0009612329
12	0x3a831f5a	0.001000385
13	0xb950cf9d	-0.00019913768
14	0xba0340e0	-0.00050069205
15	0x3a84f948	0.0010145092
16	0x3a38b97e	0.00070466835
17	0x39f6e4d5	0.0004709127
18	0xb9d04caa	-0.0003972997
19	0xba1d1b1b	-0.0005993114
20	0x3a89e8e3	0.0010521676
21	0x3a4c18e9	0.00077856943
22	0x3a5834d6	0.0008247619
23	0x396052d4	0.0002139316
24	0xb8e5fb3b	-0.00010966366
25	0x3ad58213	0.0016289375
26	0x3ad7e0e6	0.0016470223
27	0x3ab8927a	0.0014081739
28	0x394cd1a4	0.00019533053
29	0xba04b39f	-0.0005062166
30	0x3adaae9d	0.0016684119
31	0x3a97071b	0.0011522503
32	0x3a826364	0.0009947834
33	0x3a210b9a	0.00061433914
34	0xb80ba75e	-3.3296055e-05
35	0x3adc068c	0.0016786619
36	0x3ab867f5	0.0014069068
37	0x3ab0bb96	0.0013483639
38	0x39ed5b3c	0.00045272138
39	0x39b8db4b	0.000352586
40	0x3afbe17c	0.001921698
41	0x3ae6dfd1	0.001761431
42	0x3ad6a86a	0.0016377096
43	0x3a24dabd	0.0006288698
44	0x390065ec	0.00012245
45	0x3ad8e968	0.0016549053
46	0x3ad34ab2	0.0016120283
47	0x3ab5b9c3	0.0013864565
48	0x39f57dca	0.00046823762
49	0x3954b447	0.00020285054
50	0xbb54ffd7	-0.0032501125
51	0xbb9eb24a	-0.004843031
52	0xbba57627	-0.0050494852
53	0xbbb13c52	-0.005408802
54	0xbb98cd9d	-0.004663183
55	0xbbaf14e0	-0.0053430647
56	0xbbdedbab	-0.006801089
57	0xbbdcec4e	-0.006742037
58	0xbc0a628a	-0.008446345
59	0xbbfc57e0	-0.007700905
60	0xbbcf62d2	-0.006328919
61	0xbc0e7a80	-0.008696198
62	0xbc30c31f	-0.010788708
63	0xbc281c64	-0.010260675
64	0xbc326195	-0.010887523
65	0xbc170800	-0.009218216
66	0xbc2e4388	-0.010636218
67	0xbc102c98	-0.0087996945
68	0xbc06a335	-0.0082176225
69	0xbc348d1d	-0.011019972
70	0xbc2273cc	-0.009915303
71	0xbc26d996	-0.0101837125
72	0xbbd58447	-0.006516013
73	0xbc17bff1	-0.009262071
74	0xbc3770a0	-0.0111962855
75	0x3b3945a7	0.0028270276
76	0x3a9238cf	0.0011155846
77	0x3adc9c3a	0.0016831227
78	0x3aaab8c2	0.0013025033
79	0x3a23a86d	0.0006243054
80	0x3abcc1b3	0.0014400989
81	0x3b066760	0.0020508394
82	0x3b206d53	0.0024479225
83	0x3b3490bc	0.0027552089
84	0x3b2fbf4a	0.0026816898
85	0xb9fdca24	-0.00048406527
86	0xb89984e4	-7.320361e-05
87	0x3a9fb271	0.0012183917
88	0x3b053581	0.002032608
89	0x3a060552	0.0005112487
90	0x3ade9ef0	0.0016984623
91	0x3a0f1397	0.0005457936
92	0x3959e5c4	0.00020780327
93	0xb9c87030	-0.0003823056
94	0xba90d6f4	-0.0011050389
95	0x3b02c2d0	0.0019952543
96	0x3b2da9d3	0.0026498928
97	0x3af1ef10	0.0018458087
98	0x3a6c11e5	0.0009005352
99	0x3a6784c2	0.0008831733
100	0x3b1cb250	0.0023909993
101	0x3b8abb51	0.0042337556
102	0x3bc54c84	0.0060210843
103	0x3b4384eb	0.0029833864
104	0x3b538bd1	0.0032279382
105	0x3af64a23	0.0018790405
106	0x3b59ebe9	0.0033252186
107	0x3bbd03d6	0.0057682795
108	0x3b8121a5	0.0039407783
109	0x3bc221b3	0.0059244274
110	0x3ab38302	0.001369566
111	0x3b10453b	0.002201392
112	0x3ba85e10	0.0051381662
113	0x3bc391ed	0.0059683234
114	0x3bd1ac2e	0.0063986992
115	0x3b60cdbb	0.0034302312
116	0x3b22ad1d	0.0024822422
117	0x3b938d5e	0.0045029363
118	0x3badb91e	0.0053016087
119	0x3b59a42a	0.0033209422
120	0x3b65d585	0.0035069895
121	0x3b7f1a32	0.0038925526
122	0x3bc87398	0.0061172955
123	0x3bc512f6	0.006014223
124	0x3b9a9a0a	0.00471807
125	0x3be8b562	0.0071017006
126	0x3bc0fd82	0.0058895955
127	0x3b5de3ca	0.0033857697
128	0x3b682443	0.0035422004
129	0x3b273359	0.0025512783
130	0x3c138fa6	0.009006416
131	0x3b80efda	0.0039348425
132	0x3b408a67	0.002937937
133	0x398371eb	0.00025071143
134	0x39879293	0.00025858413
135	0x3c22d091	0.009937421
136	0x3b9e1a8a	0.004824941
137	0x3ba8da82	0.0051530013
138	0x3b918d13	0.004441866
139	0x3b5a52e1	0.003331356
140	0x3c082dc6	0.0083116945
141	0x3bcbd373	0.006220275
142	0x3be393dd	0.006945117
143	0x3be5fd30	0.0070187077
144	0x3bbdbf68	0.0057906397
145	0x3c089e4d	0.008338523
146	0x3c0dcc53	0.008654672
147	0x3ba96a4e	0.005170143
148	0x3b89e3c7	0.0042080614
149	0x3ae09607	0.0017134555
150	0xbc849a97	-0.016186995
151	0xbc3bcdd4	-0.0114626475
152	0xbc4b53a2	-0.012410076
153	0xbc17be75	-0.009261717
154	0xbbc10416	-0.0058903797
155	0xbc217b4f	-0.009856059
156	0xbb9a6a24	-0.00471236
157	0xbb670633	-0.0035251498
158	0xbbe60898	-0.0070200674
159	0xbbdc4eb1	-0.006723248
160	0xbc2a4c05	-0.010394101
161	0xbb768423	-0.003761538
162	0xbba0789d	-0.0048971907
163	0xbbd3b9df	-0.0064613665
164	0xbba7fafe	-0.005126356
165	0xbb7b2160	-0.0038319454
166	0xbabe7c7d	-0.001453295
167	0x3924bbed	0.00015710267
168	0x3a7d9a9a	0.00096742215
169	0xba3b7247	-0.00071505125
170	0xba2ce177	-0.0006594876
171	0xbb064cf6	-0.002049265
172	0xbb869361	-0.0041069244
173	0xbb82f03f	-0.0039959247
174	0xbbeb4c8f	-0.0071807574
175	0x3bd396e6	0.0064571975
176	0x3bacbdca	0.005271648
177	0x3b18128a	0.002320441
178	0x3b080389	0.002075406
179	0xbadbfa00	-0.001678288
180	0x3b455e04	0.0030115852
181	0x3b18186e	0.002320792
182	0xb8cc8743	-9.7526725e-05
183	0x3a7417aa	0.00093113875
184	0xbb4d681a	-0.0031342567
185	0x3adb0663	0.0016710277
186	0x3a71eb15	0.00092284504
187	0x3a0a91b1	0.0005285992
188	0x3ad8bfec	0.0016536689
189	0xbb1a503f	-0.0023546366
190	0xbaf31849	-0.0018546666
191	0xbafa2af8	-0.0019086292
192	0x37a8176d	2.003807e-05
193	0x3970ca67	0.00022963584
194	0xba96320c	-0.0011459007
195	0xbb507c23	-0.0031812273
196	0xbbafa663	-0.005360411
197	0xbb594987	-0.0033155398
198	0xbb53c77f	-0.0032314954
199	0xbb95c11c	-0.0045701396
200	0x3a61df2d	0.00086163246
201	0xba9627d2	-0.0011455959
202	0xbac68374	-0.0015145377
203	0xba8c0f35	-0.0010685684
204	0x3a823812	0.0009934923
205	0x3ab5746a	0.0013843898
206	0xb84846ff	-4.7749836e-05
207	0xb9ff88d0	-0.00048739323
208	0x399256e7	0.00027912037
209	0x3a091e94	0.0005230692
210	0xb8d46c1f	-0.00010129087
211	0x3a641c40	0.00087017193
212	0x39c5254f	0.00037602565
213	0x38e9f2f9	0.00011155563
214	0x3a578116	0.00082208344
215	0xba27f4cd	-0.00064070226
216	0xbb01b4e5	-0.001979166
217	0xba1d79ef	-0.0006007244
218	0x3a194bc1	0.0005847775
219	0x39b91220	0.00035299454
220	0xbae1827e	-0.0017205027
221	0xbaa19bdb	-0.0012329774
222	0x38f8ca8b	0.00011863288
223	0x394f5274	0.00019771775
224	0x38ee1f2b	0.0001135453
225	0x3a762e0f	0.00093910185
226	0x3ad093e9	0.0015913221
227	0x3afe0593	0.0019380323
228	0x3aedc9a7	0.0018141762
229	0x3a9df231	0.0012050328
230	0xb6062dfd	-1.9994325e-06
231	0x38e38f57	0.000108509026
232	0x3a886a18	0.0010407595
233	0x3aac4d1f	0.0013145542
234	0x39fc5176	0.0004812588
235	0xba329db8	-0.0006813663
236	0xb8892890	-6.5402244e-05
237	0x39a9c6b6	0.00032382243
238	0x3a926dde	0.0011171659
239	0x3a21f3ae	0.00061779737
240	0xbaf7098a	-0.0018847447
241	0xba5152ef	-0.00079850754
242	0x392b93de	0.00016362916
243	0x3a15952b	0.00057061267
244	0x39d7c3b1	0.00041153797
245	0xbb284b24	-0.0025679553
246	0xba26e126	-0.0006365947
247	0x37dc0446	2.6228034e-05
248	0x39a07473	0.0003060434
249	0x3a1c5ae0	0.0005964469
250	0xb8b160f8	-8.4580795e-05
251	0x3b0e8f31	0.002175283
252	0x3bd7233e	0.0065654805
253	0x3b736eca	0.0037144893
254	0x3af9e6e4	0.0019066003
255	0xbaca4d08	-0.0015434334

exp_avg_sq f4 [16, 1, 5, 5]
0	0x36984307	4.537756e-06
1	0x364e8252	3.0772248e-06
2	0x3637f4d9	2.7411645e-06
3	0x362bf705	2.562477e-06
4	0x36415b7a	2.8812487e-06
5	0x366149fe	3.3570682e-06
6	0x35fd5230	1.8873889e-06
7	0x35c47d20	1.4639554e-06
8	0x35ba355f	1.3873613e-06
9	0x35fd3e03	1.8868017e-06
10	0x36479dfc	2.974527e-06
11	0x35dc03cf	1.6392386e-06
12	0x356b8e57	8.7751454e-07
13	0x3533fc0a	6.704946e-07
14	0x35989931	1.1369467e-06
15	0x36420e10	2.8916438e-06
16	0x35f78b88	1.8443543e-06
17	0x358efaaa	1.0652777e-06
18	0x358be0ae	1.0421697e-06
19	0x35b7dfc4	1.3699687e-06
20	0x3651e5b1	3.1277125e-06
21	0x36171dd7	2.2518122e-06
22	0x35c96e9e	1.5007861e-06
23	0x35d4ddf8	1.5859832e-06
24	0x360911ce	2.0424955e-06
25	0x371df4ed	9.4149555e-06
26	0x37112fbf	8.65379e-06
27	0x36c01c7a	5.725361e-06
28	0x368774af	4.0368973e-06
29	0x36b18f75	5.2917117e-06
30	0x3714085f	8.8234365e-06
31	0x36fd6734	7.552002e-06
32	0x368a78ab	4.126768e-06
33	0x36264d61	2.4780968e-06
34	0x368ac248	4.135338e-06
35	0x37192503	9.128128e-06
36	0x3706cf5b	8.035301e-06
37	0x367e2c37	3.7874686e-06
38	0x3608a613	2.0362247e-06
39	0x36718a13	3.5992168e-06
40	0x3710980a	8.618468e-06
41	0x36ecf9b6	7.0624183e-06
42	0x3683133a	3.9063425e-06
43	0x36076bb5	2.0179261e-06
44	0x366b2eed	3.5045043e-06
45	0x371bd379	9.287957e-06
46	0x36ecfccb	7.062777e-06
47	0x3698179a	4.5327006e-06
48	0x363a784a	2.7786177e-06
49	0x3680dc7e	3.840366e-06
50	0x390b3143	0.00013274424
51	0x38f9dcc6	0.000119143675
52	0x38fe0938	0.00012113381
53	0x38af7d15	8.3679486e-05
54	0x3870f59e	5.7449208e-05
55	0x391be48e	0.00014867095
56	0x3908ed2c	0.00013058324
57	0x3904eaf5	0.0001267603
58	0x38b5fbcb	8.677653e-05
59	0x388af439	6.625843e-05
60	0x38e01c7c	0.00010686458
61	0x38d51481	0.000101604506
62	0x38f95dc0	0.000118907075
63	0x38e32f2d	0.00010832991
64	0x38dbd3ad	0.000104821615
65	0x38c1d0ee	9.241873e-05
66	0x38b7c61f	8.763023e-05
67	0x38ef8939	0.00011421968
68	0x3901aff7	0.0001236795
69	0x390c06f1	0.00013354026
70	0x38beae60	9.092386e-05
71	0x38d8c7b3	0.000103368795
72	0x38f3364e	0.00011597258
73	0x38f8fc9c	0.00011872614
74	0x38e794a0	0.00011042622
75	0x388a7f29	6.604038e-05
76	0x3891a66f	6.9451395e-05
77	0x38926870	6.9812755e-05
78	0x389ad94e	7.3837684e-05
79	0x38b110b4	8.443129e-05
80	0x38949e82	7.086714e-05
81	0x389c575b	7.454931e-05
82	0x38a6040d	7.916251e-05
83	0x38be10d6	9.063042e-05
84	0x38cb3394	9.6894015e-05
85	0x38ab44cc	8.16673e-05
86	0x38a282bd	7.749114e-05
87	0x3895f6f1	7.15087e-05
88	0x389e2223	7.5403856e-05
89	0x38a32b78	7.7805424e-05
90	0x38900b61	6.8685746e-05
91	0x387a290c	5.9642873e-05
92	0x3875f1b1	5.8637645e-05
93	0x3871b2c2	5.762536e-05
94	0x3890e50b	6.909118e-05
95	0x38843163	6.3034495e-05
96	0x3889428e	6.545066e-05
97	0x388561e2	6.360166e-05
98	0x387e1a4e	6.0582817e-05
99	0x388e3a1d	6.781912e-05
100	0x38397c4b	4.4223194e-05
101	0x38499ba5	4.806709e-05
102	0x385e3053	5.297393e-05
103	0x387becff	6.0063783e-05
104	0x388d19d1	6.7282126e-05
105	0x384d14a2	4.8895025e-05
106	0x38641bcf	5.4385335e-05
107	0x3878deaa	5.933518e-05
108	0x38a09f17	7.659027e-05
109	0x38ae2afe	8.3049745e-05
110	0x38777ff2	5.9008547e-05
111	0x3888cbf1	6.5229724e-05
112	0x388a6159	6.598485e-05
113	0x38960023	7.152583e-05
114	0x38b3bfe7	8.57113e-05
115	0x388f0930	6.820483e-05
116	0x38990a43	7.29752e-05
117	0x388f0911	6.82046e-05
118	0x38872497	6.444117e-05
119	0x38a3d3fd	7.8119316e-05
120	0x38956b8b	7.124905e-05
121	0x389360e7	7.027556e-05
122	0x3889d90f	6.5730994e-05
123	0x38834648	6.259658e-05
124	0x3892377e	6.972159e-05
125	0x397e810c	0.00024271401
126	0x39788940	0.00023702253
127	0x39708c38	0.00022940419
128	0x39593583	0.00020714667
129	0x395a5e62	0.0002082526
130	0x39814191	0.00024653648
131	0x39782484	0.00023664726
132	0x39820573	0.00024799592
133	0x3963ab71	0.00021712274
134	0x3958546a	0.00020630812
135	0x3976e788	0.0002354664
136	0x3974ef45	0.00023358788
137	0x398a318f	0.00026358335
138	0x396513d3	0.00021846527
139	0x39556b9a	0.00020353348
140	0x398073cd	0.0002450034
141	0x39706a46	0.00022927774
142	0x3984b55d	0.00025312128
143	0x3961a3fb	0.0002151876
144	0x3957be9c	0.00020575005
145	0x3968657b	0.00022163049
146	0x3968e64c	0.00022211036
147	0x397a5bdb	0.00023876077
148	0x39537155	0.00020164748
149	0x3952b0b2	0.00020092985
150	0x3a5a6f62	0.00083326374
151	0x3a71e52b	0.0009227569
152	0x3a816abe	0.0009873731
153	0x3a7e3ca7	0.0009698369
154	0x3a9e63a0	0.0012084134
155	0x3a499283	0.00076893735
156	0x3a6122ce	0.0008588255
157	0x3a68c8a3	0.0008879995
158	0x3a5415a8	0.0008090385
159	0x3a836dfd	0.0010027286
160	0x3a4ce416	0.000781597
161	0x3a5052af	0.0007946891
162	0x3a5ed398	0.0008500158
163	0x3a40cb3d	0.00073545036
164	0x3a624f0f	0.00086329965
165	0x3a4167e9	0.00073778495
166	0x3a48b292	0.00076560036
167	0x3a5608f2	0.0008164785
168	0x3a44d947	0.00075091835
169	0x3a5ed669	0.00085005775
170	0x3a34fa18	0.0006903722
171	0x3a38a331	0.00070433604
172	0x3a42958e	0.0007422798
173	0x3a342538	0.0006872001
174	0x3a42d848	0.0007432741
175	0x38e8a05e	0.00011092493
176	0x39087404	0.0001301319
177	0x3913b31c	0.00014085736
178	0x3909a4ac	0.00013126683
179	0x38fdd02e	0.000121027566
180	0x38c0b7ce	9.18951e-05
181	0x38be583d	9.076342e-05
182	0x38a64eb7	7.9301586e-05
183	0x388ffcfa	6.865892e-05
184	0x38af00a1	8.3447674e-05
185	0x38bbd675	8.9568006e-05
186	0x3832c546	4.2622232e-05
187	0x37a1539a	1.9231626e-05
188	0x378a1819	1.6462103e-05
189	0x381e6151	3.776077e-05
190	0x38c1e201	9.245054e-05
191	0x382399b4	3.9005376e-05
192	0x373e0b78	1.1327553e-05
193	0x3720e1b3	9.589293e-06
194	0x37d7e128	2.5734844e-05
195	0x38b4b43c	8.61664e-05
196	0x38967fd3	7.1763665e-05
197	0x381b8143	3.7075264e-05
198	0x37b7dbb5	2.1917609e-05
199	0x380d588c	3.3699485e-05
200	0x37ef4feb	2.8528235e-05
201	0x3800224d	3.0549523e-05
202	0x38506c2b	4.9691804e-05
203	0x3876bf41	5.882909e-05
204	0x38949537	7.0849834e-05
205	0x37ad7f9b	2.0682628e-05
206	0x37a8488d	2.0060945e-05
207	0x382e17f4	4.150714e-05
208	0x3864aadb	5.4518558e-05
209	0x38823edf	6.210594e-05
210	0x37e596c7	2.7369138e-05
211	0x37d51059	2.5399191e-05
212	0x3851232a	4.9862232e-05
213	0x3899b0c3	7.328533e-05
214	0x388e446d	6.783833e-05
215	0x388df22e	6.7685134e-05
216	0x388e5b33	6.788075e-05
217	0x389bc4ad	7.42761e-05
218	0x388e6a70	6.790913e-05
219	0x3875a7d6	5.856886e-05
220	0x38af152e	8.348595e-05
221	0x38ab5376	8.169461e-05
222	0x389e89c8	7.559691e-05
223	0x3886319a	6.398857e-05
224	0x385a7ead	5.2093226e-05
225	0x38016812	3.085292e-05
226	0x38256a35	3.943798e-05
227	0x382ac3dc	4.0713567e-05
228	0x381a2779	3.6753223e-05
229	0x3805b610	3.187923e-05
230	0x37ef8e55	2.8557299e-05
231	0x38096494	3.2757016e-05
232	0x38076f0e	3.2289936e-05
233	0x380403bc	3.147473e-05
234	0x37ee171e	2.8382576e-05
235	0x37bf93be	2.2837772e-05
236	0x37d62b22	2.5530873e-05
237	0x37b9fad1	2.2170514e-05
238	0x37a3aecc	1.951251e-05
239	0x379a3489	1.8382694e-05
240	0x37be1da6	2.2663571e-05
241	0x374ffc49	1.2396901e-05
242	0x36ec9902	7.0511605e-06
243	0x36c5b60d	5.892251e-06
244	0x36feac06	7.589816e-06
245	0x37bab189	2.22556e-05
246	0x36fe2f9b	7.575332e-06
247	0x36805721	3.8248404e-06
248	0x36799c61	3.7194916e-06
249	0x3697ce6c	4.5241813e-06
250	0x3988c33f	0.0002608541
251	0x398bd44b	0.00026670317
252	0x399f2dd6	0.00030360994
253	0x399d5303	0.00030007222
254	0x39a8cf3b	0.00032197856
255	0x3998d731	0.0002915203

exp_avg f4 [16]
0	0x32142908	8.624063e-09
1	0xb195d5a0	-4.360757e-09
2	0xb3f8a03a	-1.1577545e-07
3	0xb30bc192	-3.253951e-08
4	0x32a7f0b8	1.9550825e-08
5	0xb3ee5eb4	-1.1099965e-07
6	0x34b49bec	3.364106e-07
7	0xb41cba2f	-1.4596365e-07
8	0x3324cf1e	3.8372598e-08
9	0xb234e243	-1.0528825e-08
10	0x339af820	7.2163175e-08
11	0xb3481c2d	-4.6591754e-08
12	0x3329e37c	3.9555275e-08
13	0xb29a9ecf	-1.8000177e-08
14	0x33528155	4.9012062e-08
15	0x329f969d	1.8578527e-08

exp_avg_sq f4 [16]
0	0x2857dc3a	1.19826515e-14
1	0x28326c0c	9.904414e-15
2	0x29b068eb	7.8341705e-14
3	0x294ad164	4.5034628e-14
4	0x295c8208	4.8962597e-14
5	0x2a96e252	2.6802394e-13
6	0x2b92d6bf	1.0433528e-12
7	0x29b3cf63	7.985173e-14
8	0x28f73e08	2.744941e-14
9	0x2891e0a8	1.6195663e-14
10	0x2a73ee3f	2.1665394e-13
11	0x2a84b5a7	2.3573957e-13
12	0x298daf43	6.292061e-14
13	0x2996d270	6.697843e-14
14	0x283bd974	1.0427738e-14
15	0x298942c2	6.095603e-14

exp_avg f4 [16]
0	0x3b3252ac	0.002720992
1	0xbaf00fb6	-0.0018315229
2	0xbc92ed8e	-0.01793554
3	0xb625d5f4	-2.4711453e-06
4	0x3bc8aad2	0.006123879
5	0xbad30583	-0.0016099665
6	0x3b956259	0.004558843
7	0xbb8697f0	-0.004107468
8	0x398f85e7	0.0002737485
9	0xbb34eb3d	-0.0027606033
10	0x3af56300	0.0018721521
11	0x3bbf5bb7	0.0058397907
12	0x3b960195	0.0045778253
13	0xbac3e1b1	-0.0014944581
14	0x3b79dde6	0.0038126647
15	0x3aacb3cd	0.0013176143

exp_avg_sq f4 [16]
0	0x397a1874	0.00023850967
1	0x3929a997	0.00016180273
2	0x398035a3	0.00024454025
3	0x391d9c1a	0.00015030839
4	0x3901ae35	0.00012367296
5	0x391cc827	0.00014951882
6	0x394f6bbc	0.00019781193
7	0x387643af	5.8714006e-05
8	0x3877875b	5.901545e-05
9	0x383364e5	4.277089e-05
10	0x391779a6	0.000144458
11	0x3929519d	0.00016147499
12	0x38a42b3a	7.828181e-05
13	0x38b5544f	8.646456e-05
14	0x395b82ea	0.00020934237
15	0x38c485a4	9.370901e-05

exp_avg f4 [16]
0	0x3b57ecda	0.003294757
1	0xb85ca754	-5.2607924e-05
2	0xbbe77bca	-0.0070643174
3	0xbb384936	-0.002811981
4	0x3aaafb03	0.0013044778
5	0x3a782f96	0.000946754
6	0x3b84bf58	0.0040511303
7	0xbb7153fa	-0.0036823736
8	0xb91e5939	-0.00015101292
9	0xbb86ef39	-0.004117873
10	0x3aa9f2bf	0.0012966021
11	0x3b3600fb	0.002777158
12	0x39e6a4b8	0.00043991744
13	0xb9e55fde	-0.0004374971
14	0x3b3ddf9e	0.0028972398
15	0x3b3e7a73	0.0029064685

exp_avg_sq f4 [16]
0	0x39035150	0.00012523425
1	0x38b2113f	8.490914e-05
2	0x389f7990	7.6043536e-05
3	0x384ac3e2	4.8342983e-05
4	0x385ffeaf	5.3404536e-05
5	0x38fd4865	0.000120774646
6	0x390f3369	0.00013656695
7	0x38c5344c	9.403433e-05
8	0x383a7836	4.445781e-05
9	0x388a4af8	6.594317e-05
10	0x38812286	6.15763e-05
11	0x38ee3a6e	0.00011359608
12	0x3809216c	3.2694472e-05
13	0x38d11cbf	9.971251e-05
14	0x38d47c8f	0.000101321486
15	0x38e953d1	0.00011125918
