oracle/train/non-iid/checkpoint/fmnist/ckpt_2_1.pth (torch, 358777 bytes, 34 tensors)

layer1.0.weight f4 [16, 1, 5, 5]
000000 d3 5f dc be b0 fe 1c bc 11 01 bf 3d 03 a7 47 3e
       -0.43041858 -0.009582207 0.09326375 0.19497304
000010 c6 b8 ef 3d 13 59 1c be 91 9c 01 3e 12 88 0f 3e
       0.117051646 -0.15268354 0.12657382 0.1401675
000020 05 53 83 3e 73 26 1f 3e b2 51 34 be e4 1e b5 3a
       0.25649276 0.15542011 -0.1760929 0.001381841
000030 c7 23 68 3e 4c 39 ff 3e f5 ae 01 3f 04 3d 2e be
       0.22669898 0.49848402 0.5065759 -0.17015463
000040 d3 c8 5a 3e 33 2d aa 3e bc 77 1f 3e ba 5b fb 3e
       0.21365671 0.3323761 0.15573019 0.4909342
000050 6c 75 9c bd c3 e7 89 3e c2 2c 8c 3e d0 06 24 3e
       -0.07639584 0.26934633 0.27377898 0.16018224
000060 96 13 76 3e 23 76 e2 be 9c 4f 1f be f6 d8 4c bd
       0.24030909 -0.44230756 -0.15557712 -0.050011598
000070 da 63 ca 3e d8 ff 3e 3d 48 57 42 bd 35 8e 57 bd
       0.39529306 0.04663071 -0.04744652 -0.052625854
000080 96 5c b2 3d 5c 5b bd 3e cc 24 05 bc b7 28 87 bd
       0.087090656 0.36983764 -0.008126449 -0.065995626
000090 40 2e 08 bd ba 36 1b 3e a0 e1 f3 3e 1b af 4d 3e
       -0.033247232 0.15157595 0.47633076 0.20086329
0000a0 f7 99 70 be 54 b6 8f be 3f 57 0e 3e d9 98 ce 3e
       -0.23496233 -0.28068793 0.13900469 0.40350989
0000b0 3d 48 71 3e 90 7d 75 3d ff 35 18 be ec 26 17 bd
       0.23562713 0.0599342 -0.14864348 -0.036902353
0000c0 6e ba 70 3e bb f5 75 bb 0a 8c e0 bd 36 ad ab be
       0.23508617 -0.00375305 -0.1096421 -0.33530587
0000d0 07 f9 22 3e 07 20 d1 3c 37 0e f2 be 34 4a 94 bd
       0.15915309 0.025527967 -0.4727647 -0.072407156
0000e0 fe 43 b7 bd 9b 47 1f be 25 3e f7 be d1 d4 3c bf
       -0.08948515 -0.15554659 -0.482896 -0.7376223
0000f0 e2 32 8f 3e 3b be 0f 3f 87 77 98 3e b6 87 13 bd
       0.27968508 0.56149644 0.29778692 -0.036018096
000100 92 07 36 bd a6 f1 01 3e 73 3a 83 be fc 95 0a 3d
       -0.044440813 0.12689838 -0.2563053 0.033834442
000110 ab 9d 13 3e 89 e9 a0 3e 5f ee 51 3d 31 1e 64 3e
       0.14415614 0.31428173 0.05125272 0.22277142
000120 f9 3c c5 3d 1f 9e 0a 3e 03 15 55 bd 4c 4c 94 b9
       0.0963077 0.13536881 -0.05202199 -0.00028285605
000130 67 b7 14 3e 19 e9 86 3e 6c 24 e5 3d ab 28 7c 3e
       0.14523087 0.26349714 0.111885875 0.24624889
000140 7f f5 99 3e c4 3b 8c 3e c3 40 4d 3e 04 4a b0 3e
       0.3007011 0.27389348 0.20044236 0.3443147
000150 dd 13 18 be 0c 09 7a 3e cf 9f 3c 3d 72 96 0f 3c
       -0.14851327 0.24417514 0.046050843 0.008763896
000160 78 72 4c be 8b 24 09 3d c4 93 4c be 24 57 ec be
       -0.19965541 0.033482116 -0.19978243 -0.46160233
000170 ff 0c 39 be 90 6b aa be 13 0f 45 3e dd fe 6e be
       -0.18071364 -0.3328519 0.19244032 -0.2333941
000180 81 1f 95 be b8 8c 78 be aa d8 f2 bd 78 fa a5 3e
       -0.29125598 -0.2427243 -0.11857732 0.32417655
000190 6a 95 b1 be dc b9 5d 3e 72 d1 8c 3e 9a 07 5f 3d
       -0.34684306 0.21652931 0.27503544 0.05445061
0001a0 8d e5 bc 3e c6 40 23 3e 00 0e 87 3e 0a 99 a3 3e
       0.36893883 0.15942678 0.2637787 0.31952697
0001b0 62 9f 96 3e 43 4f 43 3e 73 68 46 3e b0 2a cd 3e
       0.29418474 0.19073205 0.19375782 0.4007163
0001c0 c7 be 7f 3c 25 84 af be 74 46 66 3d a2 d1 09 be
       0.01560945 -0.34280506 0.056219533 -0.13458875
0001d0 98 60 13 be 37 83 9d 3d 11 da fe be 91 70 04 be
       -0.14392316 0.07691043 -0.49775746 -0.12933566
0001e0 ac af c9 3d c4 03 00 be d9 f3 87 be c9 22 0f bf
       0.0984796 -0.12501436 -0.26553228 -0.5591245
0001f0 a5 99 bc 3c 75 6b 01 bd 88 b5 1b 3c f0 98 f1 bd
       0.023022482 -0.03159662 0.00950373 -0.11796749
000200 62 e6 9d 3d cb 4e 9c 3e ff e6 2c be d2 b1 0c be
       0.07709958 0.30528864 -0.16884993 -0.13739708
000210 e0 e3 44 be e0 7f eb 3e 79 ab ef 3d bd fe ad be
       -0.19227552 0.45995998 0.11702628 -0.33983412
000220 05 e5 61 be 70 cc 6a 3d 28 bd 21 3a d2 b0 e5 3e
       -0.2206002 0.057323873 0.0006169849 0.44861466
000230 70 83 c9 3e f9 60 83 bc e6 33 e0 be a6 21 cd bd
       0.3935809 -0.016037451 -0.43789595 -0.100161836
000240 e7 30 b3 3e 43 04 9f 3e 66 ee 52 3e 90 f0 d6 be
       0.34998247 0.3105794 0.20598754 -0.4198041
000250 5c 91 71 be 36 83 4b 3e 49 93 b5 3c 7e 83 09 3d
       -0.23590606 0.19874272 0.022164958 0.033572666
000260 5d d0 4c be ff c5 97 3d f0 7b 8b 3d 50 d2 05 be
       -0.2000136 0.07410812 0.068107486 -0.13068509
000270 df 4d d2 3d d2 66 07 bf 4e 36 15 3f 00 23 1a be
       0.10268759 -0.52891266 0.5828599 -0.15052414
000280 5e 0c 0f 3d 40 f9 6b be 05 5b b4 be 29 3c 30 3f
       0.034923904 -0.230443 -0.35225692 0.688418
000290 18 65 8b be a7 03 1d bd e1 b7 7a be a7 6d 43 bd
       -0.27225566 -0.03833356 -0.24484207 -0.047711994
0002a0 c6 9b ca 3e 99 c0 b9 bd ef 67 9a 3d 93 c7 35 bb
       0.3957197 -0.09069938 0.07539355 -0.0027737364
0002b0 aa 00 90 be 90 86 4e 3e d2 c5 2d bd eb 23 06 be
       -0.28125507 0.20168519 -0.042424984 -0.13099639
0002c0 9f 3e 0a 3e d9 c8 9f 3e 55 c5 be 3e af 50 69 3e
       0.1350045 0.31207922 0.37259927 0.22784685
0002d0 c7 f2 89 bd d2 f8 bb bd 4c 37 1e be 11 3a 8a bd
       -0.06735759 -0.09178318 -0.15450782 -0.067493565
0002e0 58 39 4d 3e 3d 45 04 3e 39 3b 28 be b8 a5 01 bf
       0.20041406 0.12917037 -0.16428842 -0.5064349
0002f0 cf 8c 22 bf bd 8e f3 3c f7 28 86 3e 48 65 a5 be
       -0.63496107 0.029731149 0.2620313 -0.32303834
000300 72 a4 36 bf b5 87 5b bf f2 91 64 be 70 71 cd bc
       -0.71344674 -0.8575395 -0.22321299 -0.025078505
000310 a6 a5 8f 3e e8 6a 89 3d ba cc 9c be 8b d3 15 3d
       0.28056067 0.06709844 -0.30624944 0.036578696
000320 a9 09 e5 3d 4c 44 b2 3d 2d 00 0e 3e 11 ca 48 be
       0.11183483 0.08704433 0.13867255 -0.19608332
000330 c3 60 49 3e cf 31 05 bf fc 04 04 bf ce 58 93 be
       0.19665818 -0.52029127 -0.51570106 -0.2877869
000340 c7 fa 38 be 72 51 b5 3e 01 fa d4 be 5c 2d 3f bf
       -0.18064414 0.354137 -0.41596988 -0.7467859
000350 3d 59 05 be b5 86 90 3d b9 ae c3 3d c2 7f 92 3c
       -0.13022323 0.07056943 0.0955481 0.017883185
000360 5a 4b 8e 3d 15 ff 38 3e fa d0 15 3e 26 b3 38 be
       0.06947966 0.18066056 0.146305 -0.1803709
000370 84 19 fa 3d b6 41 e9 bc 50 0e 8d 3d fc a9 04 3e
       0.12211898 -0.028473716 0.068874955 0.12955469
000380 8b c0 82 bd d6 69 6b be 05 17 7c 3e 4f 0a 7e 3e
       -0.06384381 -0.22989592 0.24618156 0.2480862
000390 82 d7 68 bc 6a 24 64 bd b7 1e 5b 3d d2 a6 3d 3d
       -0.014211537 -0.05569879 0.05349609 0.04630167
0003a0 f4 d3 0f 3d a6 87 58 bd af 96 8a bc a2 57 81 be
       0.035114244 -0.05286374 -0.016917555 -0.2526217
0003b0 f4 8f c9 3d 41 b0 8a 3d 20 7b ca 3c f7 02 97 bb
       0.0984191 0.06771899 0.024716914 -0.0046085077
0003c0 8a 94 ce bd c2 52 b2 be d3 cf e6 be b9 85 ce be
       -0.10086925 -0.34828764 -0.45080432 -0.40336397
0003d0 f4 f2 88 be d0 ca 9c 3e 69 50 d1 be d9 01 1f bf
       -0.2674786 0.30623484 -0.4088166 -0.62112194
0003e0 4e f7 05 bf c3 b3 80 be e2 86 e5 be 61 6a 5b be
       -0.5233048 -0.25137147 -0.4482947 -0.21427299
0003f0 8e 55 da 3d 7d 72 34 3e 65 20 81 bc e7 be 90 be
       0.106608495 0.17621799 -0.015762517 -0.28270647

layer1.0.bias f4 [16]
000000 98 26 8f 3e 63 11 d0 3e 95 c6 ed be 18 b8 9e be
       0.27959132 0.40638265 -0.4644057 -0.30999827
000010 c0 3c c3 be 94 e3 16 3e c4 09 3b 3e ff 54 ee 3d
       -0.38132286 0.14735252 0.18265444 0.116373055
000020 11 03 d8 3d 29 5e ac bd fb 47 b5 3e 1a 01 db 3e
       0.1054746 -0.08416397 0.3540648 0.42774278
000030 9c 8d 51 be 76 82 32 be 07 15 de bd 8e 55 14 be
       -0.20464176 -0.1743258 -0.108438544 -0.14485762

layer1.1.weight f4 [16]
000000 43 55 3e 3f 53 d0 04 3f 31 ca 7f 3f 43 34 60 3f
       0.7434885 0.5188038 0.99917895 0.87579745
000010 90 13 43 3f 94 cc 82 3f f7 ab a8 3f 77 a9 e3 3f
       0.76201725 1.0218682 1.317748 1.7786092
000020 18 e2 68 3f d8 74 8c 3f 3e 30 8c 3f 3b bd 52 3f
       0.9096999 1.0973158 1.0952222 0.8231999
000030 cc 0f 2e 3f e0 72 cb 3f 0a 68 20 3f 45 cf a2 3f
       0.67992854 1.5894432 0.6265875 1.2719504

layer1.1.bias f4 [16]
000000 c4 c2 97 be bd a5 87 be f7 98 57 be 5c 4d 7b be
       -0.29640782 -0.26493636 -0.21054445 -0.24541229
000010 ba 10 ab bd 1a a9 bd bd 6c 8a 83 3c 3e 8c 43 bf
       -0.083528 -0.09260769 0.016057216 -0.7638587
000020 eb e3 e0 be 10 4d 1c bf 99 d9 14 be 59 61 54 bd
       -0.43923888 -0.6105509 -0.14536132 -0.05185065
000030 10 be 9e 3e 7c a0 27 bf 35 ca d0 be 2c eb 16 bf
       0.3100438 -0.65479255 -0.40779272 -0.58952594

layer1.1.running_mean f4 [16]
000000 1d c0 f4 3f c3 48 82 3f 69 20 1c bf e0 20 87 be
       1.9121128 1.0178455 -0.60986954 -0.2639227
000010 c7 01 db 3c 88 c5 11 3f b2 22 ed 3d 7f 52 89 bf
       0.026734246 0.56942034 0.11578883 -1.0728301
000020 55 49 15 bf ba e1 c8 bf 06 d2 ec 3c 1f db 53 3e
       -0.5831502 -1.5693886 0.02890874 0.20689057
000030 7f 46 e3 be ad cc c7 bf 51 46 b9 3f d2 39 28 c0
       -0.44389722 -1.5609337 1.4474584 -2.628529

layer1.1.running_var f4 [16]
000000 a4 56 3e 41 04 05 77 40 d8 31 df 3f 54 5e a7 3f
       11.8961525 3.8596811 1.7437086 1.3075662
000010 5f a0 07 40 4a ee c3 3f d5 40 5e 3f 9e 74 e5 40
       2.1191633 1.5307095 0.86817676 7.1704855
000020 b6 8a 45 40 04 cc 02 41 df b2 3f 3f ea 55 e7 3f
       3.0865912 8.1748085 0.7488231 1.8073094
000030 de 84 9f 3f 40 76 29 41 59 f7 19 41 a2 58 b5 41
       1.2462423 10.59137 9.622888 22.668278

layer2.0.weight f4 [32, 16, 5, 5]
000000 f6 b9 d3 3d 1e e7 28 3d c1 8d 9e 3d 80 e3 99 3d
       0.103382036 0.041236036 0.07741881 0.07514095
000010 f5 ef da 3c 72 bb 71 3d e8 39 d8 3c 19 a7 96 3d
       0.026725749 0.059016652 0.0263948 0.0735609
000020 40 86 cb 3c 08 57 2b 3c 6f e1 87 3e fb 97 57 3e
       0.024844289 0.010457762 0.2653918 0.2105407
000030 97 9f 25 3e 40 a9 c3 3d fc 22 4b 3d 8b ef 31 3e
       0.1617416 0.09553766 0.04959391 0.17376535
000040 c8 4d f5 3d e8 86 d6 3d 90 0b 09 3e 9a f2 ac 3c
       0.11977726 0.1047495 0.13383317 0.021111775
000050 12 97 00 be 77 8e 24 3c 65 2f 8a 3d a8 96 3a 3d
       -0.12557629 0.010043732 0.06747321 0.045553833
000060 47 22 09 3d 03 0a 9b 3d be d7 8a bd 22 b0 a6 bc
       0.033479955 0.07570269 -0.06779431 -0.020347659
000070 c8 f8 3a 3c 71 b3 6c bd f8 ef b3 3d 09 3f 21 be
       0.011411853 -0.057788316 0.08786005 -0.15746702
000080 09 23 66 bc f6 e5 a5 3d 92 6b 00 be 2c 5a 59 3e
       -0.014046439 0.08100502 -0.12541035 0.21225804
000090 0b fe c7 bd ed 04 63 3d b4 bc c7 3d 3d 30 f2 bd
       -0.09765252 0.05542462 0.09752789 -0.11825607
0000a0 f5 bc 4a 3e 0f ca ae bd 91 06 f9 3d 6a 33 4a 3e
       0.19798644 -0.08534633 0.121594556 0.19746175
0000b0 27 ee 95 bc 73 b0 0d bc e6 aa fc bd 15 5f 75 bb
       -0.018302036 -0.008648026 -0.12337284 -0.0037440707
0000c0 34 87 c9 3d 32 ef fc bc 89 dd 41 3e 8d 48 78 3e
       0.09840241 -0.030875776 0.18932165 0.24246426
0000d0 94 63 3f 3e c5 1b 81 3e 50 7e b9 3e 6a 62 ea bd
       0.1869033 0.252165 0.3622918 -0.11444552
0000e0 52 f0 4e bd a8 a6 fc bd bf 9e 4d bd 4d 5d cb 3d
       -0.050522156 -0.12336475 -0.05020022 0.09929905
0000f0 34 df d2 3e 2f 0c a0 3e a3 ff 79 3e f8 21 3f 3e
       0.41185915 0.31259295 0.24413924 0.18665302
000100 11 f2 83 3e 5c f5 22 be 54 1b 23 be 35 67 9b bc
       0.2577062 -0.1591391 -0.15928394 -0.018970111
000110 ce 09 1c bd 68 f3 36 3e 06 77 ba bd 6b c1 d7 bd
       -0.038095288 0.1786629 -0.09104733 -0.105349384
000120 8d ef 91 bd 02 75 10 be 89 57 71 bd 30 a8 1b be
       -0.07125769 -0.14107135 -0.05892137 -0.15200877
000130 83 94 a6 bd 7e 61 23 be 83 10 b0 bc 0e 56 04 be
       -0.08133795 -0.15955159 -0.021492248 -0.12923452
000140 01 17 5f 3d b4 07 11 3c 71 7d 4b bd af dd c8 bd
       0.054465298 0.008851934 -0.049680177 -0.09807908
000150 ba e2 9b be 1f 93 d6 be a6 19 8c be 50 4b 4d be
       -0.30446416 -0.4190912 -0.27363318 -0.2004826
000160 70 58 9f 3c f6 6c 49 be d5 6f 1c 3e d1 29 9f 3e
       0.01945135 -0.19670472 0.15277036 0.3108659
000170 6e 60 b0 3e a4 36 2c 3e 09 3a cf bd 2d ae 8b 3e
       0.3444857 0.16817719 -0.10118491 0.27281323
000180 0b e2 a8 3e ec 3a 5a 3e 3a c8 2d 3e 10 f7 35 3d
       0.32984957 0.2131154 0.16970912 0.04442507
000190 b6 cd e9 bd 40 b6 b4 bc d6 49 90 bc 68 0f 89 bd
       -0.114161894 -0.02205956 -0.017613333 -0.06692392
0001a0 84 71 8b be 30 8b c1 bd cb 31 ea bc 8b 67 21 bd
       -0.27235043 -0.09450376 -0.028588196 -0.039405387
0001b0 38 ae eb bd 26 97 82 bd 78 9e 85 be 24 b6 03 be
       -0.11507839 -0.063764855 -0.26097465 -0.1286245
0001c0 45 7e 02 be e0 45 ba bd 0f da f6 3d 6a 54 1e 3e
       -0.1274348 -0.09095359 0.1205331 0.15461889
0001d0 2a 07 92 3e 13 1a 64 3e 86 fe f8 3d d9 45 4e 3d
       0.2852109 0.22275572 0.121579215 0.05035958
0001e0 57 1b 77 3e 4c b0 21 3e 53 b7 a9 bd d9 4b 36 3e
       0.24131523 0.15789908 -0.082869194 0.17802371
0001f0 52 73 12 3e 00 91 8d be 43 c2 17 be fb 7e 03 bd
       0.14301804 -0.2764969 -0.14820199 -0.03210352
000200 64 db 2a bd 08 e7 40 bd d7 a8 ad be ed da 16 be
       -0.041713133 -0.04709533 -0.33917877 -0.14731951
000210 78 13 ec bd 32 c7 d2 bb c0 3f a1 bd 2a 24 01 bf
       -0.11527151 -0.0064324373 -0.078734875 -0.50445807
000220 4d 56 eb be fa 29 91 be c1 aa 05 3e 87 35 91 be
       -0.4596428 -0.28352338 0.13053419 -0.2836115
000230 89 15 a2 be 7c 6b e5 be a1 84 96 be fa d5 85 3c
       -0.31657055 -0.44808567 -0.29398063 0.016337384
000240 3a 6d d4 bd 96 66 78 be ac d9 dd be 49 e0 ba be
       -0.10372396 -0.24257883 -0.43330133 -0.3649924
000250 48 ff 9e be 91 fb 7b 3d e6 d3 4b 3d 1a f8 d1 bd
       -0.3105414 0.06151921 0.04976263 -0.102524
000260 b4 26 ee bd 4f dd c1 3e 26 bc 0d 3e 34 d0 36 be
       -0.11628476 0.37864158 0.13841304 -0.1785286
000270 d8 4c d0 be 8c 8a 4e be 80 ff 0a 3e 52 83 8d bb
       -0.40683627 -0.20170039 0.13574028 -0.004318633
000280 63 96 a3 be 51 dc 11 bf 3a 1f b6 be c2 28 89 3e
       -0.31950673 -0.569768 -0.355707 0.26788908
000290 25 1f 26 be 10 1e 94 be a9 ed 12 bf 38 3c d0 be
       -0.16222818 -0.28929186 -0.5739389 -0.40670943
0002a0 25 58 83 3e 9a 79 b7 3d e9 f4 e7 bd 3e 76 d3 be
       0.25653186 0.089587405 -0.1132601 -0.4130115
0002b0 c9 cc a8 be 1c 67 a0 bd 1e 3e e3 bb cd ff 35 be
       -0.3296874 -0.078321666 -0.006934895 -0.17773362
0002c0 8b fd 97 be 1a c8 45 be 30 42 de be 3d 0d 44 be
       -0.29685625 -0.19314614 -0.43409872 -0.19145675
0002d0 df 8b 22 be 0a 7c aa be fb d7 82 be c7 6e ea bd
       -0.15873669 -0.3329776 -0.25555405 -0.1144691
0002e0 73 a9 93 be ef 3d c8 be d1 29 0b bf 8d f5 f1 be
       -0.28840217 -0.39109752 -0.5436068 -0.47257653
0002f0 bf 89 d0 be 4f 8f 52 be d1 82 80 3c 5f 31 22 be
       -0.40730092 -0.2056248 0.015687378 -0.15839146
000300 b7 db 46 be ec 8f 01 be e4 94 7a be 0e 02 5b bd
       -0.19419752 -0.12652558 -0.2447086 -0.053468756
000310 e6 93 c9 bd 53 82 6c be 34 5c b5 be ed 81 a6 be
       -0.098426625 -0.2309659 -0.35421908 -0.32521
000320 f9 47 16 3d be fd 01 bc cf bf be bb 98 32 39 bd
       0.036689732 -0.007934032 -0.005821205 -0.045214266
000330 76 db 9d bd 9e f0 02 3e 9f 60 0f 3e e3 d8 1b be
       -0.077078745 0.127871 0.14001702 -0.15219454
000340 b6 a5 57 be 7f 72 a2 3c c6 1c 7d bc cb 13 c6 bd
       -0.21059307 0.019829987 -0.015448755 -0.09671744
000350 c2 15 31 be 04 5f 9f be e2 d2 6e be 18 ac 04 bd
       -0.17293456 -0.3112718 -0.23322633 -0.032390684
000360 69 b2 08 bd c5 41 2f be 7f 87 a0 be 55 d5 c7 be
       -0.03337327 -0.17114933 -0.31353375 -0.39029947
000370 c3 4b 6d bb 2c c5 af 3d b9 d1 4c be 75 5a a3 be
       -0.0036208488 0.085825294 -0.20001878 -0.3190495
000380 d7 d2 00 bf 04 da 1f be 31 17 a9 be 32 22 6e be
       -0.50321716 -0.1561051 -0.33025506 -0.23255232
000390 dd 37 60 be dc e9 ad be fd fc e8 be 58 f2 02 bf
       -0.2189631 -0.33967483 -0.45505515 -0.5115104
0003a0 30 44 db be f7 4c 92 be 71 18 95 be 4c 9d bd bd
       -0.4282546 -0.28574345 -0.2912021 -0.092585176
0003b0 2e d5 48 be cb 08 bd be 09 f8 4b be 5e e8 60 be
       -0.19612572 -0.3692077 -0.19918837 -0.21963641
0003c0 e5 4e 95 3e 7b c2 cd 3d fa d8 44 bd c8 f1 60 be
       0.29161754 0.1004686 -0.048058487 -0.21967232
0003d0 4a c9 6b 3d d4 7f ac ba ae c1 70 bd 67 93 32 be
       0.05756501 -0.0013160654 -0.058778457 -0.17439042
0003e0 13 b0 30 be 9f 68 af 3d a2 04 c4 bd 8f 47 ec 3d
       -0.17254667 0.08564877 -0.09571196 0.11537086
0003f0 d0 48 94 3d c4 a6 c3 3b 16 aa 6d bc fa 49 cf be
       0.072404504 0.0059708077 -0.014505884 -0.40486127

layer2.0.bias f4 [32]
000000 a5 b8 2c 3e ae 17 b0 bd bc fc 0a 3e 22 4f ff bd
       0.16867311 -0.085982665 0.13572973 -0.12466265
000010 ec be 33 be c7 ec 4d bb 63 c4 87 3d 3f 38 98 3d
       -0.175533 -0.0031421648 0.06629255 0.07432603
000020 81 53 f8 3c f2 43 c8 3d af 7d 33 3d 02 1d 90 be
       0.030313255 0.097785845 0.043821033 -0.2814713
000030 ed df 67 3e fe aa e5 3d 50 79 34 bd 36 54 8e be
       0.22644015 0.11214255 -0.044061005 -0.27798623
000040 c9 0c 6e bd 08 0f 8e bd 57 94 dc 3d b2 05 5b 3e
       -0.05811766 -0.06936461 0.10770481 0.21388891
000050 92 14 6c 3d a3 9a 4c bd e4 59 3e 3c 76 6b b5 3c
       0.057636805 -0.04995216 0.011618111 0.022145968
000060 1d 1f 80 3d 57 6f 1d be f1 2a fd bc 7d dd d9 3d
       0.062559344 -0.15374504 -0.030904265 0.10637949
000070 61 18 e2 bd 6c c0 bd 3d d5 2c 67 3d 4a 61 3c bb
       -0.11039806 0.09265217 0.05643924 -0.0028744512

layer2.1.weight f4 [32]
000000 44 74 f2 3e 94 bb fd 3e ab 98 e5 3e ea ac 1b 3f
       0.4735433 0.49557173 0.4484304 0.6081072
000010 ca 17 38 3f 50 a0 b0 3e b7 3d ef 3e 1e 22 b0 3e
       0.719113 0.3449731 0.46726772 0.3440103
000020 ff af a5 3e 4c e1 c9 3e 7f 76 14 3f df cb 0e 3f
       0.32360837 0.394297 0.5799331 0.5577983
000030 f3 3e 2e 3f 96 42 03 3f bb e8 fb 3e f4 cb 11 3f
       0.680648 0.5127348 0.49200997 0.5695183
000040 42 89 40 3f 3b 50 12 3f 60 87 1e 3f d1 36 c5 3e
       0.7520944 0.5715367 0.61925316 0.38518384
000050 55 3e 24 3f 6f 4c 0f 3f 8e 7e 29 3f 80 87 ec 3e
       0.6415761 0.55976003 0.6620873 0.46197128
000060 c2 75 fd 3e 8c 05 26 3f 39 4c dd 3e 68 07 00 3f
       0.49503905 0.64852214 0.43222216 0.500113
000070 1a f9 d0 3e db 98 2e 3f b4 ff e5 3e d1 1b c2 3e
       0.4081505 0.6820199 0.44921649 0.37911847

layer2.1.bias f4 [32]
000000 05 92 19 bf 9e a5 0d bf 77 43 01 bf 2a d3 18 bf
       -0.59988433 -0.55330837 -0.5049357 -0.5969721
000010 df 8d 0d bf 4a da 1f bf b1 86 08 bf ee 44 df be
       -0.55294603 -0.6244246 -0.5333052 -0.43607277
000020 51 d6 06 bf 1a e3 0c bf 45 82 05 bf 53 21 e7 be
       -0.5267077 -0.5503403 -0.521519 -0.45142612
000030 56 9d e0 be 1d 23 06 bf 45 32 06 bf 70 3e de be
       -0.43870038 -0.5239733 -0.52420455 -0.4340701
000040 c2 8c 0f bf cf 5a fa be 0a 17 08 bf 43 8e 11 bf
       -0.56074154 -0.48897406 -0.53160155 -0.568577
000050 6c 75 0d bf e2 47 f8 be 49 50 09 bf 38 03 05 bf
       -0.55257297 -0.48492342 -0.5363813 -0.51958036
000060 10 99 0f bf 42 98 0d bf a7 d8 10 bf 10 54 eb be
       -0.5609293 -0.5531045 -0.56580585 -0.45962572
000070 6e 47 1a bf f9 f4 00 bf 07 ba 05 bf 48 b2 f4 be
       -0.60265243 -0.503738 -0.5223698 -0.47792268

layer2.1.running_mean f4 [32]
000000 e8 88 52 c1 22 d2 3e c0 5e 83 96 c0 8c 55 a2 3f
       -13.158424 -2.9815755 -4.703536 1.2682357
000010 de c9 19 c1 e2 e6 10 41 5e ac 04 c1 c2 e7 5b bf
       -9.611784 9.056368 -8.292082 -0.8590051
000020 42 9f 0b 41 1c 58 c1 c0 10 4b 0c c1 21 b7 cb c0
       8.726381 -6.0420055 -8.768326 -6.3661046
000030 4c b3 37 c1 ab 55 8b c0 af d3 04 c1 b5 53 d0 bf
       -11.481274 -4.3542075 -8.301681 -1.6275545
000040 e4 ad 36 3f dd 74 80 c0 9a bc ae c0 c1 15 85 bf
       0.71359086 -4.0142655 -5.4605227 -1.0397264
000050 fd a0 18 c1 c1 68 d7 c0 1b 2b dd c0 4f 5f 53 c1
       -9.539304 -6.7315373 -6.911512 -13.210769
000060 1f 31 0b c1 d1 c6 0b c1 b2 9b 13 c1 1c 29 00 c1
       -8.699492 -8.736039 -9.225512 -8.010036
000070 98 21 1f c0 dd ef 53 c1 b5 e6 fa c0 c2 37 ed bf
       -2.4864254 -13.24606 -7.8406625 -1.8532641

layer2.1.running_var f4 [32]
000000 ba ae 3b 42 db ce 82 42 1e 02 00 42 ae 5d 43 42
       46.92063 65.404015 32.002068 48.841484
000010 41 44 81 42 6e 29 3f 42 77 4b 65 42 08 50 ea 41
       64.63331 47.79046 57.323696 29.289078
000020 1d fe 49 42 e1 b3 62 42 82 42 af 42 d7 e9 3a 42
       50.498158 56.675663 87.6299 46.72836
000030 b7 ad 70 42 b0 39 91 42 a9 84 11 42 88 00 83 42
       60.169643 72.61267 36.37955 65.50104
000040 36 ce ca 41 aa a3 8b 42 11 b7 2c 42 fa 62 54 42
       25.350689 69.81966 43.178776 53.096657
000050 f3 a3 8e 42 5c a8 cb 42 7a bc 07 42 9c 5d 33 42
       71.32021 101.82883 33.93406 44.841415
000060 3c 50 27 42 41 e7 5a 42 2f 23 a6 42 87 b0 7f 42
       41.828354 54.725834 83.06872 63.92239
000070 bf e6 06 42 5f b4 c2 42 72 0d 17 42 b2 f8 2c 42
       33.725338 97.35229 37.76313 43.242867

fc.weight f4 [10, 1568]
000000 49 b4 2e 3c 06 2f 62 be 36 f7 8b ba 02 01 d6 3d
       0.0106631005 -0.2208825 -0.0010678533 0.10449411
000010 bd e4 33 3e 78 3b a6 3d 8a e3 9e 3e 10 85 60 3d
       0.17567725 0.081168115 0.31032974 0.0548144
000020 7e 4d e8 3d 17 5c 9b bd 12 3d a4 3c f1 09 ba 3c
       0.113429055 -0.07585924 0.020048652 0.022709819
000030 06 38 74 3e cf c7 a7 3d 4f 71 b9 bc 7f 9b 48 3e
       0.23849496 0.08192407 -0.022637038 0.19590567
000040 f3 29 85 bc 9f 00 41 3d 0e 7f 24 be 7c ad 41 bc
       -0.016255355 0.047119733 -0.16064093 -0.011821147
000050 85 97 c7 bd 40 ce 06 3d 4a f9 49 3e 28 23 29 be
       -0.09745697 0.03291154 0.19724002 -0.16517317
000060 5e 57 42 3d b8 cd a6 be 1c d4 bb bd 0b ac 54 be
       0.0474466 -0.32578826 -0.09171316 -0.20768754
000070 36 b3 84 3d 76 66 80 3e b6 5f 18 be 4f c4 8f 3d
       0.06479494 0.25078171 -0.14880261 0.07019865
000080 6e b0 86 bd 2e 1c 84 bc dd fc ae bd a6 65 75 bd
       -0.0657662 -0.016126718 -0.085443236 -0.059911393
000090 8d 0c ff 3d 0f 81 be 3d d8 a4 01 3e 3b f7 d3 3d
       0.12453566 0.0930196 0.12660539 0.1034989
0000a0 63 89 bc bd e8 c1 93 be 4f 09 c9 bd a3 9c 57 3e
       -0.09205892 -0.28858876 -0.098162286 0.21055846
0000b0 3e eb f0 3e af 72 82 3e d5 98 88 3e 04 ef f6 bd
       0.47054476 0.25478122 0.26679102 -0.12057307
0000c0 b2 c1 ae bd 00 21 15 3d 77 ff d7 bc 10 d6 fa bc
       -0.08533038 0.036408424 -0.026366932 -0.030619651
0000d0 9d 88 4f bd 75 cb 44 be b8 45 33 3e d9 ec d1 3d
       -0.050667394 -0.19218238 0.17507064 0.10250253
0000e0 bf 02 c7 bc 8e e5 a7 3d 0a db 1d be 72 32 2d be
       -0.024293302 0.08198081 -0.15415588 -0.16913775
0000f0 16 00 59 bd d6 87 d0 3b 03 2a 09 3a 42 23 a5 3d
       -0.052978598 0.006363849 0.00052323955 0.080633655
000100 9e bb 61 be cb cf 5a bd 10 3e c8 be 93 d4 7a be
       -0.22044227 -0.053420823 -0.3910985 -0.24495153
000110 db 2d 03 be e8 5e e9 3c 64 30 f5 3d 5a 64 4e bd
       -0.12810461 0.028487638 0.119721204 -0.05038867
000120 12 87 b2 bd d5 c3 09 bc bd 26 c2 bd a4 4a 36 3d
       -0.08717169 -0.008408506 -0.09480045 0.044504777
000130 e2 c3 02 3e e8 51 c5 3c 8a 86 36 3b 4d 2b 91 bc
       0.12770036 0.024086908 0.0027851188 -0.017720843
000140 78 4e b9 bd fc 56 f6 3d 31 7c 9c 3d 0c 11 23 3e
       -0.0904817 0.1202831 0.07640875 0.15924472
000150 98 fe 30 3e 13 a8 32 3d b7 84 36 3e 37 e4 a8 bd
       0.1728462 0.04361732 0.17824064 -0.082466535
000160 0c 79 b0 3d c2 c3 13 bc ec 8b 0c bb 8d 79 c5 3d
       0.08616838 -0.00901884 -0.0021445705 0.096423246
000170 89 f1 4e 3c 4e 67 dc bd 5a 8c 4e 3d c2 27 68 3d
       0.012630829 -0.10761891 0.05042682 0.05667854
000180 33 45 9d 3c 18 83 1d be 0d 06 0b be 5a 99 61 be
       0.019198036 -0.1538204 -0.13576527 -0.22031155
000190 ed 8e 38 3c a1 6f 15 be fc aa 9e 3e a6 df a3 be
       0.011264545 -0.14593364 0.30989826 -0.32006568
0001a0 e0 5c 1a be 58 8e 9b bb b2 4c 00 3e 69 ea 1d be
       -0.15074492 -0.0047471933 0.12529257 -0.15421452
0001b0 b5 9b e0 bc 93 84 5f 3e 7a cf 24 be 6b e2 c7 3d
       -0.027417997 0.21827917 -0.16094771 0.09759983
0001c0 39 a2 79 3e 87 fb 15 3d 2b 50 4d bd 52 0e 79 3c
       0.2437829 0.03661683 -0.050125282 0.015201168
0001d0 b6 01 06 3e 0e 67 99 3d b2 9e 1b 3e bb bd 0c 3d
       0.1308659 0.07490359 0.15197256 0.03436063
0001e0 a3 a3 1c 3e 7e 52 e4 3d a6 46 21 bb e4 15 5a 3c
       0.15296797 0.11148547 -0.002460876 0.013310883
0001f0 41 30 31 3d d2 04 5f bd 04 0b 5a 3e 74 5f 84 3d
       0.04325891 -0.054447956 0.21293265 0.06463519
000200 e6 e5 74 be ae c8 00 3e e3 e4 24 bd 0a 24 7e bd
       -0.23915824 0.12576553 -0.040257346 -0.06204609
000210 01 07 84 be ea 3a 0d 3e f4 07 9b 3d c8 dc 86 be
       -0.25786594 0.13792005 0.07569876 -0.26340318
000220 42 bb 4a 3d 38 b0 dd 3d d4 97 ee be 89 f8 95 be
       0.04949499 0.10824627 -0.4660021 -0.2929118
000230 84 a1 8d bd eb cf c4 3d ec fc d3 bc 92 c1 11 3c
       -0.06915572 0.0960997 -0.025877438 0.008896248
000240 40 b7 b8 3e 36 b1 29 3d 77 55 19 be 05 52 4c 3e
       0.3607731 0.041428767 -0.14974009 0.19953163
000250 eb 76 ee 3b 53 dd c8 3c 44 a4 1b be 0b e2 ac 3e
       0.0072773597 0.024519598 -0.15199381 0.33766207
000260 8f 8c fc 3d 5c f0 e8 3d 8e fb 81 bd 28 85 87 3d
       0.12331497 0.1137397 -0.063468084 0.066171944
000270 22 3e bc 3d 07 1a e5 3c e8 b0 9c 3c 15 6f 86 3d
       0.091915384 0.027966512 0.019127324 0.06564156
000280 01 a8 d8 bd 51 1c c7 bd a0 97 f8 bd 68 00 c3 bc
       -0.10578919 -0.09722198 -0.12138295 -0.023803905
000290 0d 9a 07 3d d1 cb bd be 91 59 28 bf 59 5c f8 3d
       0.0331059 -0.37069562 -0.6576167 0.12126989
0002a0 9e a8 15 bd c1 81 3d be 8e e9 42 3d 46 31 64 be
       -0.03653776 -0.18506528 0.047586016 -0.22284421
0002b0 48 88 23 bd 8a f3 c1 bd 0f 96 fe bc 76 8d 1d 3e
       -0.03992489 -0.094702795 -0.031077413 0.15385994
0002c0 0c ab cf bd b2 79 71 3d a5 75 fa bd 43 47 14 3e
       -0.101400465 0.05895395 -0.1222947 0.14480309
0002d0 fa 93 1b 3e d3 6b 35 bc 0d 57 cc bd 51 ea df 3b
       0.15193167 -0.011073071 -0.09977541 0.0068333526
0002e0 dd 0a 86 bd 40 e6 1f bd 3f 6d 6b be 79 85 a8 bc
       -0.06545041 -0.039037943 -0.22990893 -0.020571457
0002f0 5e d7 52 bd ce 1d 34 bd 6c 41 00 3d fa ad 09 be
       -0.05147492 -0.043973736 0.03131239 -0.13445273
000300 1f 56 8a 3d a8 bf b2 bd 21 0a 95 3d ec 03 53 bc
       0.067547075 -0.08727962 0.072773226 -0.012879353
000310 be 78 21 3e 82 07 90 3e 70 21 2c be b6 d8 cd 3d
       0.15768716 0.28130728 -0.1680963 0.100511
000320 eb 79 69 3d 57 6b c7 3d 83 7e a4 3d 0a eb 71 bd
       0.057001036 0.0973727 0.08031943 -0.05906204
000330 14 62 61 3e f8 3c 00 3e 44 14 01 3d c5 fc 14 bd
       0.2201007 0.12523258 0.031513467 -0.036373872
000340 28 13 d1 bc 3c 0e 11 3c 5f b2 a1 bd f2 f1 e1 bd
       -0.02552183 0.008853491 -0.0789535 -0.110324755
000350 dd d1 81 3d c5 f4 73 3d 44 97 b5 3b 6b 56 0d bd
       0.06338856 0.059559602 0.005541714 -0.034506243
000360 47 fc 05 be 46 5d e5 bd 3f c4 ef bc 68 9e 9a 3d
       -0.13084517 -0.11199431 -0.029268382 0.07549745
000370 39 a1 51 be 6a 6b a8 bd c9 c2 80 be 24 5d 3a be
       -0.20471658 -0.082236126 -0.2514861 -0.18199593
000380 00 eb 04 bf 9f 5e 42 3d fb 9a f5 3d 6f 02 9e bd
       -0.5192108 0.04745352 0.11992451 -0.07715308
000390 80 5a 2d be a0 1b ce be 34 6d e6 be 70 f4 91 bd
       -0.16929054 -0.4025545 -0.4500519 -0.07126701
0003a0 cc 92 7b be f8 0a a9 3d 15 13 16 be 22 73 08 3e
       -0.24567717 0.08254045 -0.14655717 0.1332517
0003b0 3d a1 19 be 08 ff c4 be f1 af f8 3d 6c 07 89 be
       -0.15002914 -0.38475823 0.12142933 -0.26763475
0003c0 48 68 ab 3d 7e 73 7b bb 3f 16 18 bd 27 09 47 be
       0.083694994 -0.00383684 -0.03713059 -0.19437085
0003d0 28 20 62 3d 64 3c 45 3a 8e 6d 48 be 63 ee 15 be
       0.055206448 0.00075239525 -0.19573042 -0.14641719
0003e0 b6 9d 0f 3e e2 97 28 3e e8 ed a7 bd a0 0e 04 3e
       0.14025006 0.16464189 -0.08199674 0.12896204
0003f0 82 d4 37 3d cb 76 28 3e a5 db cd bc 7c e8 0f 3e
       0.044880398 0.16451566 -0.025129149 0.1405353

fc.bias f4 [10]
000000 74 ba cb bb 15 ca 70 3c 99 17 58 bd e8 9d c9 3d
       -0.0062172953 0.014696618 -0.05275688 0.09844571
000010 13 62 18 bd 1f ea 1a bd 2f 56 ea 3d d5 7c cc 3d
       -0.037202906 -0.03782093 0.114422195 0.09984747
000020 cc 20 24 3d fd ce 0b bd
       0.04007034 -0.034132946

exp_avg f4 [16, 1, 5, 5]
000000 7b 2a 88 38 95 33 3c b9 04 54 8c 3a 18 cc 37 3a
       6.492898e-05 -0.00017948293 0.0010706191 0.00070113083
000010 d4 fe 48 3a c3 f8 a7 35 ca 24 09 b9 c3 ca a3 39
       0.0007667367 1.2514869e-06 -0.00013079043 0.00031240852
000020 0a ec 44 39 2a e5 66 3a 3f 15 0d 38 e7 f7 a2 b9
       0.00018779948 0.0008807952 3.3636807e-05 -0.0003108375
000030 bf 1a 58 b9 68 39 e4 b9 28 c3 37 39 0b a6 95 38
       -0.00020609329 -0.0004353032 0.00017524941 7.1358016e-05
000040 9d 81 0e ba 93 be f6 b9 f5 6f 97 b9 fb bd 56 37
       -0.0005436184 -0.00047062765 -0.0002888438 1.2799627e-05
000050 d1 27 07 b9 43 83 02 ba 9c dc 29 ba 02 e3 ab 37
       -0.00012889436 -0.0004978666 -0.0006479712 2.0490497e-05
000060 43 a8 cd b8 73 b0 21 ba 50 de b4 b9 89 0d 6e 39
       -9.806503e-05 -0.00061679556 -0.0003449791 0.00022702491
000070 c7 27 48 39 7d 5d b2 3a 6b c7 bf b8 19 96 0b 3a
       0.00019088305 0.0013608184 -9.144734e-05 0.00053247955
000080 6d bf ca 39 13 94 be 38 4b f6 e1 3a 95 b8 1e 3a
       0.00038671066 9.087487e-05 0.0017239539 0.00060547265
000090 31 72 7f 3a 41 db 7e 37 55 73 12 ba 69 36 1a 3a
       0.0009744494 1.5190629e-05 -0.0005586644 0.00058827415
0000a0 d1 bd 95 3a 23 25 ce 3a e8 ca ee 39 59 e1 88 b9
       0.0011424368 0.001572762 0.00045546074 -0.00026107838
0000b0 ae 51 98 3a 35 db 8a 3a 77 fe a3 3a 37 45 84 39
       0.0011621022 0.0010593893 0.001251175 0.0002522857
0000c0 41 96 8a 39 ef 76 17 3a 08 bf c0 3b af dc 7a 3a
       0.0002643336 0.00057779154 0.0058821477 0.00095696276
0000d0 1b 46 31 bb 34 67 00 ba 35 75 09 b9 cf d5 01 3c
       -0.0027049843 -0.0004898191 -0.00013109001 0.007924511
0000e0 b7 bb 30 3b 31 73 ef b9 86 fd ea 39 ab d7 ba b9
       0.0026967356 -0.00045671457 0.00044820848 -0.0003563737
0000f0 45 b3 ae 3b ac a2 4d ba 22 65 dc b9 fb a1 df 3a
       0.005331429 -0.00078443694 -0.0004203702 0.0017061824
000100 ae b0 54 ba 13 cb 22 3b 8a 46 5c 39 44 0d a0 ba
       -0.00081134855 0.002484028 0.00021007113 -0.0012210985
000110 5d 43 6c 3a 87 cf 8f b9 65 d2 f9 39 ac 5e d3 ba
       0.00090127235 -0.00027429705 0.00047649737 -0.0016126237
000120 2f df eb ba 87 3d b6 b8 b4 39 75 ba 0e ca 4d 3b
       -0.0017995591 -8.689897e-05 -0.0009354607 0.0031400952
000130 34 90 e1 3a b2 ab a3 3a 5b 32 ab ba a2 35 26 bb
       0.0017209114 0.0012487082 -0.0013061272 -0.0025361557
000140 a1 14 3c 3b 27 cc c4 3a 62 18 98 3a cc 67 0d bb
       0.002869882 0.0015014455 0.0011603946 -0.002157676
000150 9e e0 7f bb 84 78 7f 3b b5 de c4 3a ad 25 e2 b9
       -0.0039043794 0.0038981745 0.0015019985 -0.0004313415
000160 ca cb 2e bb b5 e0 05 bb 09 91 81 3b 0e e1 1c 3b
       -0.002667176 -0.0020428125 0.003954057 0.0023937854
000170 b4 f9 d2 3a f0 c6 d4 ba a7 51 34 ba 40 8d 18 3b
       0.0016096146 -0.0016233604 -0.0006878622 0.002327755
000180 7f a6 26 3b 36 cc 39 3b a0 8b 05 b9 17 3d 65 3a
       0.002542883 0.002835048 -0.00012735883 0.000874476
000190 15 93 22 3b 44 15 09 3b db f2 2e 3b 23 06 51 3b
       0.0024806906 0.0020917216 0.0026695046 0.0031894527
0001a0 9c f2 13 3b 2a 57 00 3b 9e 8a ca 3a 6f 6b 1a 3b
       0.0022575026 0.0019583204 0.0015452688 0.002356257
0001b0 d1 b1 25 3b fe 92 8c 3a a9 53 dc 3a 15 12 16 3b
       0.0025282989 0.001072496 0.0016809601 0.0022898961
0001c0 e0 3f 18 3b 96 62 2b 3b 16 c7 19 3b 32 c0 95 3a
       0.0023231432 0.002615129 0.0023464612 0.0011425077
0001d0 57 a1 20 3b 5e 7f 32 3b 4d e1 84 3b 1c a2 30 3b
       0.0024510229 0.0027236561 0.0040551783 0.0026952093
0001e0 19 63 a7 b9 54 34 13 3b 66 54 14 3b de 98 71 3b
       -0.00031926556 0.002246161 0.0022633313 0.0036864798
0001f0 44 dd 3c 3b b8 41 6d 3b 25 cb ac 3b e0 b6 e4 3b
       0.0028818408 0.0036202502 0.00527324 0.006979808
000200 91 a1 cf 3b 97 65 f8 3b c3 be e6 3b 9e 78 e2 3b
       0.006336399 0.00758047 0.0070417835 0.0069113513
000210 19 10 35 3c 3a 5a 12 3c 7d f9 0e 3c 5c 08 1d 3c
       0.011051201 0.0089326445 0.008726475 0.009584513
000220 01 7b 42 3c b7 e5 69 3c 4d d2 23 3c e3 56 b3 3b
       0.011870147 0.01427596 0.00999887 0.005473004
000230 8d 6f 3b 3c 72 07 40 3c ba e4 6f 3c 5a 5b 42 3c
       0.01144017 0.011720525 0.014641935 0.0118626
000240 e0 40 da 3b 73 d6 2a 3c 4f 25 08 3c e8 37 7a 3c
       0.0066605657 0.010427105 0.008309676 0.015272118
000250 c0 e4 56 3c 1b be f4 3b 90 bf be 3b 20 25 3a 3c
       0.013116062 0.0074689514 0.005821176 0.01136139
000260 8b 6b 2a 3c a5 8b 45 3c 97 76 ba 3b dc db c3 3b
       0.010401617 0.01205722 0.0056904065 0.005977137
000270 80 cf 9d 3b bb b2 b4 3a 9d f5 82 3a ad 74 42 3b
       0.0048159957 0.0013786176 0.0009991411 0.0029671595
000280 8f c6 26 3c 3b 25 4e 3c 10 2f af 3b eb c8 83 b9
       0.010179176 0.012582119 0.0053461865 -0.00025135963
000290 58 b0 1b 3b 25 b9 50 3c 6b 39 47 3c 7d 34 16 3b
       0.0023756232 0.012739454 0.012159686 0.002291947
0002a0 5d 81 fe 3a cf ae 87 ba f0 7f f7 3b c4 27 62 3b
       0.0019417215 -0.001035178 0.007553093 0.0034508565
0002b0 e3 a9 01 3a 63 44 a4 3b 14 1a 17 bb c9 d1 a4 bb
       0.00049462746 0.005013035 -0.0023056315 -0.005029891
0002c0 1d 59 fe bb 64 c2 18 bc 64 5f fb bb 98 fe 0b bc
       -0.007762088 -0.00932369 -0.0076712836 -0.008544587
0002d0 d6 c4 0c bb 30 91 63 bb bd 13 8a bb 06 d8 a4 bb
       -0.0021479628 -0.003472399 -0.004213779 -0.005030635
0002e0 60 80 ca bb af a0 29 bb 85 82 cd ba ac ab a5 ba
       -0.0061798543 -0.0025883128 -0.0015679157 -0.0012639663
0002f0 3a b0 16 bb 82 f1 b3 bb 9f 62 41 39 39 08 09 bb
       -0.0022993223 -0.0054914365 0.00018442654 -0.0020909442
000300 03 67 d8 ba 98 e7 e1 ba 74 ff a5 bb 16 1a 3e 3a
       -0.0016510192 -0.0017235158 -0.005065853 0.0007251812
000310 74 1c 58 3a 56 55 78 3a 2a f4 5b 3a 6c d0 ee ba
       0.0008243986 0.0009473165 0.00083905703 -0.0018220074
000320 71 cc bf 39 89 82 eb 36 9d 6e 4d ba de d5 7f b9
       0.0003658268 7.018742e-06 -0.0007836612 -0.00024398367
000330 3b 98 e6 38 e7 2a 3a 3a 60 24 0e 3a f5 ea 9f 39
       0.0001099561 0.000710173 0.00054222904 0.000305019
000340 71 dd bb 38 52 8a 99 39 54 1b 5e 3a 23 a0 93 3a
       8.9581015e-05 0.0002928549 0.00084727 0.0011262934
000350 1a 23 01 3a ad cb a0 b9 75 d1 b9 3a bf d9 2b 3b
       0.000492619 -0.00030669328 0.0014176803 0.0026222316
000360 57 e3 81 3b c4 58 34 3b 02 e6 b4 3a a6 37 00 3b
       0.0039638686 0.0027518729 0.0013801458 0.001956442
000370 29 1a 87 3b 33 a4 03 3b f6 57 c6 3a 27 aa a8 3a
       0.0041229916 0.0020086884 0.0015132416 0.0012868092
000380 9d 1a ba 3a a0 df 72 ba 44 de 10 bb 3a 42 13 bb
       0.0014198605 -0.000926489 -0.0022105137 -0.0022469894
000390 cd ae 2e bb 85 e1 22 bb 09 c4 64 ba 67 97 c4 ba
       -0.0026654482 -0.0024853658 -0.0008726721 -0.0014998735
0003a0 75 81 b8 ba d6 7d f3 ba 43 8c 04 bb db 4c 04 39
       -0.0014076667 -0.0018576931 -0.0020225204 0.00012617132
0003b0 dc 89 fc b8 d0 39 67 b9 cd dd 3f ba d1 8d d0 b9
       -0.00012041975 -0.00022051414 -0.00073191227 -0.00039778513
0003c0 2b e7 36 39 fa a7 05 ba b3 93 8c b8 99 ac 2d b9
       0.0001744299 -0.0005098578 -6.703231e-05 -0.00016562863
0003d0 9e e9 5d b9 14 45 21 3a 20 cc 8a b9 cc c7 17 39
       -0.00021163232 0.0006151956 -0.00026473496 0.00014474912
0003e0 62 5b 19 39 8a 5a 58 38 d7 7d ff 3b 11 94 33 bb
       0.0001462526 5.1582734e-05 0.0077969837 -0.0027401487
0003f0 9e 7a 0f bc ce 34 67 bc d6 07 66 bc f4 d7 9a 3b
       -0.008757262 -0.014111711 -0.014039954 0.0047254506

exp_avg_sq f4 [16, 1, 5, 5]
000000 65 22 61 37 6d 70 2b 37 fc 94 f5 36 d0 df d9 36
       1.3419053e-05 1.021857e-05 7.318913e-06 6.493159e-06
000010 1d 7f f8 36 78 85 10 37 64 a9 ba 36 a6 47 70 36
       7.405774e-06 8.6141445e-06 5.5629516e-06 3.5804492e-06
000020 97 5d 44 36 9a 97 7b 36 0c c2 00 37 bb 26 9f 36
       2.9260752e-06 3.7490158e-06 7.674575e-06 4.743078e-06
000030 9b 38 21 36 ae 8c ae 35 5c 91 eb 35 d3 98 f9 36
       2.4023818e-06 1.3004953e-06 1.755117e-06 7.4385694e-06
000040 14 59 86 36 cd f4 00 36 b1 84 ed 35 59 7f f1 35
       4.0038813e-06 1.921598e-06 1.7696494e-06 1.7992962e-06
000050 51 e8 fe 36 23 70 97 36 5a 72 0f 36 32 b4 18 36
       7.596835e-06 4.513205e-06 2.1375222e-06 2.2754652e-06
000060 37 27 2a 36 80 da 9a 37 58 20 9d 37 6c 1c 5b 37
       2.53548e-06 1.8459978e-05 1.873092e-05 1.3060035e-05
000070 f6 73 1d 37 a7 df 39 37 1f 0d 93 37 29 e5 8b 37
       9.3849285e-06 1.1078932e-05 1.7529876e-05 1.6676802e-05
000080 23 ed 2c 37 02 52 de 36 ca 65 08 37 05 a7 9e 37
       1.0307212e-05 6.6256625e-06 8.129931e-06 1.8912842e-05
000090 b7 20 95 37 2b fe 17 37 a2 62 aa 36 57 31 cc 36
       1.7777418e-05 9.059479e-06 5.077877e-06 6.0854177e-06
0000a0 26 6b a7 37 70 40 9c 37 1f 30 2a 37 1b e9 bd 36
       1.9957846e-05 1.8626655e-05 1.0143994e-05 5.659776e-06
0000b0 8f ea c7 36 3c 9b b5 37 92 74 9a 37 f0 36 27 37
       5.9579684e-06 2.1649168e-05 1.8412513e-05 9.966767e-06
0000c0 e0 05 d7 36 7a e6 e5 36 a8 52 05 39 13 f4 03 39
       6.4081833e-06 6.851563e-06 0.0001271466 0.00012584058
0000d0 a0 80 14 39 1d bf eb 38 a1 cd a4 38 d6 9a 0c 39
       0.00014162296 0.00011241271 7.858431e-05 0.00013409121
0000e0 36 a8 04 39 ad 49 11 39 90 35 ed 38 bd 59 ac 38
       0.00012651164 0.00013855724 0.000113110174 8.218314e-05
0000f0 92 fc e1 38 47 ac d2 38 dd 0c 04 39 d6 f1 14 39
       0.00010775881 0.000100456695 0.00012593293 0.00014204471
000100 bc 8e 07 39 e6 ac bc 38 1f b5 c6 38 ff 9c fa 38
       0.00012927776 8.9967434e-05 9.475112e-05 0.00011950172
000110 5e 50 19 39 81 fa 1e 39 8f 3d c0 38 68 1e f1 38
       0.00014621156 0.00015161374 9.1667396e-05 0.00011497439
000120 c9 89 05 39 3e a5 0c 39 da 2d 11 39 41 a7 e3 38
       0.00012735197 0.00013412998 0.00013845359 0.00010855357
000130 5b 17 df 38 9e 20 d7 38 a9 8d f5 38 5b cf fb 38
       0.00010637819 0.00010258074 0.00011708897 0.00012007236
000140 9d 0d ff 38 2d 76 f7 38 c3 82 f0 38 f8 ee 0c 39
       0.00012161883 0.0001179989 0.00011468448 0.00013440463
000150 d9 b0 06 39 f0 e1 f8 38 fc e6 e7 38 f2 7c e5 38
       0.00012845117 0.00011867646 0.000110579625 0.00010942844
000160 db 88 f2 38 2d 3a f3 38 76 10 cd 38 59 bf ba 38
       0.000115649505 0.00011597979 9.778228e-05 8.9048124e-05
000170 40 2b c6 38 91 80 bb 38 45 c7 f2 38 32 58 d2 38
       9.449432e-05 8.940802e-05 0.00011576576 0.00010030008
000180 4a da c8 38 f3 8f cc 38 36 30 b8 38 a6 53 df 38
       9.577403e-05 9.754291e-05 8.782784e-05 0.00010649049
000190 9e f0 88 38 cd 9f 9e 38 fc 1a ab 38 1f 85 dc 38
       6.529804e-05 7.563792e-05 8.158942e-05 0.00010515213
0001a0 f3 a8 d6 38 6d 9c 99 38 09 c3 a0 38 ae 9f b0 38
       0.000102357844 7.324745e-05 7.665723e-05 8.422077e-05
0001b0 1a b8 f9 38 03 e0 ed 38 14 c8 a4 38 34 d6 c1 38
       0.00011907537 0.00011342766 7.857397e-05 9.2428556e-05
0001c0 1b d2 be 38 b5 e0 eb 38 9c ce f7 38 c8 eb b7 38
       9.099041e-05 0.00011247528 0.00011816362 8.770038e-05
0001d0 30 2c ea 38 6f 49 e2 38 cf 9f c5 38 45 c5 dc 38
       0.0001116622 0.00010790198 9.423459e-05 0.00010527162
0001e0 92 3f bf 38 37 bd d6 38 75 bb d7 38 4a 81 c0 38
       9.1194306e-05 0.00010239559 0.000102869155 9.1793554e-05
0001f0 c1 21 da 38 1d 5c 08 3a a8 71 2a 3a 0e 3b 37 3a
       0.00010401337 0.0005201714 0.00065019215 0.0006989696
000200 63 7a 21 3a a3 2c 1e 3a fc 42 02 3a ae d5 2c 3a
       0.00061598996 0.0006033873 0.0004969088 0.000659312
000210 66 f2 49 3a 31 a3 2d 3a 92 d5 15 3a d5 a4 03 3a
       0.00077036617 0.00066237437 0.00057157234 0.00050218153
000220 26 23 31 3a 67 64 54 3a bf 98 1d 3a 86 66 0a 3a
       0.00067572517 0.00081021193 0.00060118356 0.00052795594
000230 a4 2f 18 3a 02 6a 30 3a 1e 89 4b 3a 67 64 1a 3a
       0.0005805439 0.00067296636 0.00077642675 0.0005889595
000240 37 36 0b 3a 7b b0 1c 3a 02 a9 29 3a 9d 02 43 3a
       0.0005310508 0.00059772254 0.00064720225 0.0007439049
000250 e4 c2 17 3a 3a b2 0e 3a e4 1c c7 3a 16 7c e6 3a
       0.0005789234 0.0005443428 0.0015191105 0.0017584588
000260 17 1f e8 3a 4f 04 e8 3a dd ff 09 3b 40 4c be 3a
       0.0017709461 0.0017701479 0.0021057047 0.0014518574
000270 f4 61 e3 3a b1 2a e3 3a 5a a4 d9 3a 5e 1b ff 3a
       0.0017347918 0.0017331449 0.0016604767 0.0019463112
000280 a0 f3 c5 3a 6a a9 e4 3a f8 29 e3 3a 25 b1 c5 3a
       0.0015102513 0.0017445509 0.0017331233 0.00150827
000290 74 89 eb 3a 15 85 c3 3a 4f a7 e5 3a 74 87 df 3a
       0.0017970041 0.0014916981 0.0017521175 0.0017053918
0002a0 d3 dc ce 3a 96 01 f0 3a b2 bd be 3a d6 46 d8 3a
       0.0015782363 0.001831102 0.0014552383 0.0016500603
0002b0 30 8e ce 3a a1 d1 d0 3a 3e 22 e2 3a f2 d8 2c 39
       0.0015758928 0.0015931615 0.0017252637 0.00016484017
0002c0 9f 79 33 39 fb b2 36 39 e0 b0 1b 39 01 fc 05 39
       0.00017116078 0.00017423548 0.00014847843 0.00012777747
0002d0 85 93 08 39 d0 d8 ec 38 70 66 c1 38 2e 0a a3 38
       0.00013024926 0.000112937414 9.2220376e-05 7.774342e-05
0002e0 a8 8c c0 38 5b 6d f6 38 b8 f7 85 38 2c 22 db 37
       9.181473e-05 0.00011750563 6.3880754e-05 2.6122747e-05
0002f0 95 80 bc 37 23 0e 5f 38 9e 99 05 39 49 a8 76 38
       2.2471222e-05 5.318051e-05 0.00012741095 5.88077e-05
000300 85 56 77 37 73 ee 59 37 8b 5e 04 38 ae 1e fe 38
       1.4742492e-05 1.2989726e-05 3.1559302e-05 0.00012117378
000310 78 a2 d6 38 5c bf 4d 38 89 d0 f3 37 b5 c5 26 38
       0.00010234577 4.9054026e-05 2.9064964e-05 3.9761613e-05
000320 66 b9 85 37 ab 7f 85 37 7a de ce 37 fc 99 09 38
       1.5941168e-05 1.5914286e-05 2.4660712e-05 3.2806754e-05
000330 7d a1 3d 38 5b 18 02 37 76 ab f3 36 ed 14 89 37
       4.521151e-05 7.7542745e-06 7.261925e-06 1.6341417e-05
000340 dd 07 0b 38 3c 0e 6b 38 6d 8d 2e 37 95 5f 1c 37
       3.3147506e-05 5.6041623e-05 1.0404136e-05 9.320579e-06
000350 d2 9e 00 38 a5 f4 7f 38 02 ca 97 38 ba b6 a2 38
       3.066549e-05 6.102458e-05 7.237868e-05 7.7587974e-05
000360 1b 43 88 38 57 5a 41 38 34 3b 40 38 0b ef 60 38
       6.497485e-05 4.609892e-05 4.5831504e-05 5.3628388e-05
000370 bb ce b7 38 be 54 a3 38 a2 53 7a 38 a9 99 3d 38
       8.7646265e-05 7.78823e-05 5.9682534e-05 4.520422e-05
000380 cc 95 2d 38 76 e5 2c 38 23 b8 3f 38 db eb 42 38
       4.1385923e-05 4.1221698e-05 4.570944e-05 4.6472862e-05
000390 43 5a 3e 38 12 a8 14 38 c2 16 26 38 57 c1 20 38
       4.5383593e-05 3.5442477e-05 3.959868e-05 3.8327034e-05
0003a0 43 40 1a 38 1e 14 18 38 90 0a f7 37 be 83 e1 37
       3.677631e-05 3.625836e-05 2.9449613e-05 2.6883437e-05
0003b0 ab 00 d1 37 d1 64 b0 37 9a 14 a0 37 1c c7 82 37
       2.4915053e-05 2.1027781e-05 1.908308e-05 1.5589925e-05
0003c0 d5 50 b9 37 38 5c 29 37 8a 5f 9a 36 97 3f 92 36
       2.2091359e-05 1.0094656e-05 4.60068e-06 4.358542e-06
0003d0 dc b9 b4 36 c1 e2 d9 37 b4 33 01 37 3b c3 3c 36
       5.386055e-06 2.5974006e-05 7.701037e-06 2.8127822e-06
0003e0 69 55 42 36 e8 bf 74 36 8a 08 0c 3a d4 8e 02 3a
       2.8957968e-06 3.6470537e-06 0.00053418486 0.00049803895
0003f0 28 ce 09 3a 7d be 16 3a ed 19 16 3a 1c 26 1e 3a
       0.0005256855 0.0005750431 0.0005725909 0.00060329004

exp_avg f4 [16]
000000 79 43 73 b3 fc d8 a7 b2 f3 59 15 33 88 07 e2 32
       -5.6639212e-08 -1.9540032e-08 3.4773574e-08 2.6313288e-08
000010 fa 90 9a b3 ec 09 e9 33 97 4d 17 b5 dc 56 a4 32
       -7.197555e-08 1.0851713e-07 -5.636479e-07 1.9131612e-08
000020 a1 d9 ca b2 93 09 82 32 69 e6 7e b4 4e b1 a7 33
       -2.3614861e-08 1.5138346e-08 -2.3739416e-07 7.808795e-08
000030 c4 36 87 32 99 3f 53 33 bb 7e 92 b2 0f 79 8a 2f
       1.5740973e-08 4.9185108e-08 -1.7054267e-08 2.518807e-10

exp_avg_sq f4 [16]
000000 3a 00 ba 28 22 c7 57 28 df ce 41 29 98 82 93 29
       2.0650247e-14 1.19780776e-14 4.303404e-14 6.550766e-14
000010 2d 38 58 29 22 af d5 2a e6 3d a5 2b 0b 51 9b 29
       4.801036e-14 3.7957923e-13 1.1741135e-12 6.8974415e-14
000020 f7 28 a8 28 e5 da a3 28 55 c6 a1 2a e0 90 45 2a
       1.8669512e-14 1.8191566e-14 2.8736966e-13 1.7547378e-13
000030 41 d6 81 29 d0 25 8b 29 71 e0 19 28 e8 52 ee 28
       5.765918e-14 6.1793994e-14 8.541874e-15 2.6459263e-14

exp_avg f4 [16]
000000 f0 21 21 3b 17 91 98 3b c0 9b 25 3b 58 c7 d4 ba
       0.0024586879 0.004655968 0.0025269836 -0.0016233725
000010 7c ad 99 ba 06 eb d3 3b 39 a1 ab ba 14 13 71 39
       -0.0011724676 0.006467226 -0.0013094313 0.00022990658
000020 de c9 73 b9 a9 34 16 ba c9 cf 4d bb 1f 2c 8d bb
       -0.00023249487 -0.0005729893 -0.0031404367 -0.004308238
000030 0f 45 87 bb aa cf ad 3a 94 96 c8 3b 4e 0e e0 ba
       -0.0041281055 0.0013260741 0.006121466 -0.0017094107

exp_avg_sq f4 [16]
000000 53 32 88 39 83 46 31 39 16 b1 aa 39 20 d1 0b 39
       0.00025977436 0.00016906303 0.00032556866 0.00013333978
000010 21 31 2e 39 0c 09 2d 39 bf 82 3c 39 80 20 d2 38
       0.00016612235 0.00016501936 0.00017977784 0.00010019634
000020 ad 0e 54 38 1a d6 85 38 4b b7 57 39 3d fa 46 39
       5.0558407e-05 6.381814e-05 0.0002057228 0.00018975972
000030 ca 88 d2 38 60 77 c1 38 fe d9 57 39 6c e7 dd 38
       0.00010039059 9.2251925e-05 0.00020585206 0.00010581207

exp_avg f4 [16]
000000 60 59 cb 3a e8 3c 48 3b 08 6b 80 ba d1 65 a4 ba
       0.0015514307 0.003055388 -0.0009797523 -0.0012542551
000010 70 7c d3 39 94 b2 87 39 de d5 8c bb 8b dd 99 3b
       0.0004033777 0.00025882258 -0.004297956 0.0046955994
000020 c4 af aa ba 2b 00 90 38 ff 0f a7 3a 04 8e de bb
       -0.0013022353 6.8664864e-05 0.0012745856 -0.006791832
000030 84 7f ce ba 12 62 21 39 9e 33 9e 3b 58 3d d4 ba
       -0.0015754555 0.0001539069 0.0048279306 -0.0016192598

exp_avg_sq f4 [16]
000000 7b 96 0c 39 d8 38 dd 38 6e 47 cb 38 0c b2 79 38
       0.00013407499 0.00010548689 9.693099e-05 5.9532045e-05
000010 fe dd 86 38 da d5 72 39 0c f9 6b 39 02 f7 ff 38
       6.430967e-05 0.00023158584 0.00022504124 0.00012205356
000020 bf 12 5d 38 c2 93 af 38 14 00 ba 38 f4 d0 28 39
       5.2707965e-05 8.372172e-05 8.869186e-05 0.0001609957
000030 46 05 84 38 e8 b9 e6 38 de 06 d8 38 5b bc f0 38
       6.295233e-05 0.000110018824 0.00010300962 0.00011479176
