oracle/train/non-iid/checkpoint/fmnist/ckpt_2_1.pth (torch, 358777 bytes, 34 tensors)

layer1.0.weight f4 [16, 1, 5, 5]
0.044944745 0.19008507 0.39970526 0.17593178 0.1530695 0.018257188 0.3584221 0.120658524
-0.004273967 -0.13737573 0.590925 0.5961688 0.1411914 -0.097356945 0.023791324 0.061164927
0.42914456 0.35625142 -0.031132575 -0.21629333 -0.07661144 0.03677256 0.07923051 -0.020026771
-0.052862406 -0.03184341 -0.09583169 -0.006988057 0.21303515 0.06842519 -0.028992265 -0.2438408
0.0016755917 0.09604434 0.23300366 0.21000592 -0.26116392 -0.2598153 0.55688274 -0.03726963
-0.24208744 -0.28281876 0.35050422 0.5858821 -0.28588754 -0.14369233 -0.28688344 0.46884403
0.11623801 -0.33280134 0.17199302 -0.16352402 -0.090229936 -0.43197048 0.09825833 0.25905624
0.045328908 -0.39589965 -0.65008533 0.2180593 0.3975341 0.1462251 -0.070769615 -0.21352762
0.19143377 0.02085383 0.17542596 -0.07528739 -0.1796904 0.39622316 -0.25142944 0.04232569
-0.15501265 -0.07698569 0.3239544 0.31367716 0.30773595 0.12827335 0.054099638 0.0072493586
-0.07999582 -0.34228733 -0.055764135 0.11917716 0.18427862 -0.8488749 -0.87961006 -0.69004065
-0.32912993 0.18276681 -0.036830246 -0.5889928 -0.48138925 0.10295074 0.11734235 0.24921201
0.29052576 0.1514413 0.03624877 -0.22886348 0.00698407 0.19744125 -0.2459666 0.0320295
0.05883934 -0.23897031 -0.16616349 -0.25846475 -0.18088901 -0.12417594 -0.3853615 -0.35868415
-0.2127465 0.24675119 0.056564156 -0.85112053 -0.749778 -0.23365204 0.016212946 0.13414453
-0.08994311 -0.31795934 -0.17934966 -0.107691124 0.14535268 0.04259809 -0.17157723 -0.43188736
-0.13347678 -0.28928602 0.13509825 -0.28131226 -0.4737207 -0.28854162 0.045447364 -0.42799774
-0.32115805 -0.32716048 0.24669793 0.3672798 -0.21561481 -0.27331367 -0.17215535 0.36050776
0.17389165 0.13610223 0.28542414 -0.0652418 0.22257821 -0.0052406234 0.3242896 0.37023306
0.51352656 0.32366765 -0.11670045 0.23328081 -0.33177838 -0.758778 -0.7713492 -0.55665004
0.0035380316 -0.13915756 -0.7035677 -0.54839736 0.39364097 -0.044965923 0.059278164 0.24610595
0.28994912 0.16356547 0.1434649 0.1265851 0.02633087 -0.07369518 0.105101325 -0.06258752
-0.06324781 -0.057423703 0.36415213 -0.12988624 -0.19304936 -0.15521248 0.21813543 0.14755888
-0.16290116 -0.18024518 0.4899474 0.3431068 -0.38838094 -0.4776447 0.004483044 0.16768047
0.6750426 -0.25564578 -0.58249295 0.10848453 0.10908329 -0.05050367 -0.15829338 -0.19635272
-0.285515 0.21704088 0.042807583 0.050794136 0.30059633 -0.08940352 0.19245239 0.53472275
0.2647224 0.5134282 0.09756843 0.06789877 0.085524395 0.35945275 0.6296835 -0.26180056
-0.21390149 0.25224862 0.117528446 0.23741563 -0.21583429 -0.15909591 -0.00859502 -0.12925741
0.05310329 -0.17221518 -0.2907625 -0.23147914 0.013253253 -0.12077949 -0.7538927 -0.5903007
-0.50834405 -0.1939262 -0.3806235 -0.5024118 -0.8354993 -0.40171477 -0.19321503 0.22506633
-0.05551167 -0.120183975 -0.029129378 0.0027806545 0.001118578 0.07348101 0.017487342 0.147108
0.16680413 0.3616778 -0.32753307 -0.49477133 -0.42679706 -0.123915374 -0.2931128 -0.1329845
00000000: fb17 383d a9a5 423e 2ba6 cc3e 7627 343e
00000010: 40be 1c3e 1990 953c 1a83 b73e d11b f73d
00000020: a20c 8cbb 39ac 0cbe dc46 173f 859e 183f
00000030: 7a94 103e 1463 c7bd 06e6 c23c 1388 7a3d
00000040: d6b8 db3e 9666 b63e be09 ffbc 007c 5dbe
00000050: 75e6 9cbd d39e 163d 9b43 a23d 2f0f a4bc
00000060: 4086 58bd 3c6e 02bd 6843 c4bd 12fc e4bb
00000070: e325 5a3e 8222 8c3d 3081 edbc 67b1 79be
00000080: 879f db3a e5b2 c43d 8398 6e3e cb0b 573e
00000090: 47b7 85be 8306 85be de8f 0e3f 0aa8 18bd
000000a0: c5e5 77be 9fcd 90be 4a75 b33e 5ffc 153f
000000b0: da5f 92be 1524 13be 63e2 92be 530c f03e
000000c0: 320e ee3d f064 aabe f01e 303e d772 27be
000000d0: 79ca b8bd 3c2b ddbe aa3b c93d 05a3 843e
000000e0: ceaa 393d 5cb3 cabe fe6b 26bf f04a 5f3e
000000f0: 9789 cb3e 08bc 153e a9ef 90bd fca6 5abe
00000100: 3707 443e a7d5 aa3c dda2 333e 4630 9abd
00000110: c300 38be c3dd ca3e 5cbb 80be b45d 2d3d
00000120: a3bb 1ebe acaa 9dbd 5add a53e 4b9a a03e
00000130: 918f 9d3e 175a 033e 9597 5d3d 078c ed3b
00000140: d9d4 a3bd 4940 afbe ef68 64bd 2813 f43d
00000150: 89b3 3c3e de4f 59bf 202e 61bf 81a6 30bf
00000160: b883 a8be 3927 3b3e 50db 16bd 3bc8 16bf
00000170: a778 f6be d6d7 d23d 3051 f03d 6f31 7f3e
00000180: cbbf 943e 6e13 1b3e 9779 143d 305b 6abe
00000190: a0da e43b 0a2e 4a3e abde 7bbe 5d31 033d
000001a0: 8501 713d a2b4 74be c326 2abe 7e55 84be
000001b0: f83a 39be f54f febd 1a4e c5be 73a5 b7be
000001c0: 38da 59be 58ac 7c3e d1af 673d 09e3 59bf
000001d0: 73f1 3fbf 7b42 6fbe 03d1 843c 2f5d 093e
000001e0: 1834 b8bd 91cb a2be 70a7 37be 2a8d dcbd
000001f0: 55d7 143e 567b 2e3d f1b1 2fbe 5720 ddbe
00000200: 23ae 08be 4c1d 94be 3257 0a3e 2908 90be
00000210: 858b f2be babb 93be 0427 3a3d 8522 dbbe
00000220: d46e a4be 9481 a7be 629e 7c3e 190c bc3e
00000230: 21ca 5cbe c5ef 8bbe 7e49 30be 7994 b83e
00000240: a710 323e 625e 0b3e 1d23 923e 7e9d 85bd
00000250: 8beb 633e 89b9 abbb 4909 a63e 308f bd3e
00000260: 7a76 033f c4b7 a53e a500 efbd 2ae1 6e3e
00000270: dbde a9be 463f 42bf 2477 45bf 9e80 0ebf
00000280: 52de 673b 527f 0ebe 031d 34bf c563 0cbf
00000290: 4f8b c93e 302e 38bd a9cd 723d 3303 7c3e
000002a0: 3674 943e b57d 273e 76e8 123e 869f 013e
000002b0: d6b3 d73c 80ed 96bd 5d3f d73d e32d 80bd
000002c0: 1188 81bd 1e35 6bbd 2672 ba3e e600 05be
000002d0: bbae 45be 05f0 1ebe e55e 5f3e ad19 173e
000002e0: 90cf 26be 3192 38be 63da fa3e b2ab af3e
000002f0: ded9 c6be d98d f4be 80e6 923b 6eb4 2b3e
00000300: 98cf 2c3f 01e4 82be 421e 15bf 232d de3d
00000310: 0f67 df3d f0dc 4ebd a917 22be b010 49be
00000320: 062f 92be f73f 5e3e 0157 2f3d 830d 503d
00000330: c3e7 993e 3119 b7bd 3d12 453e 97e3 083f
00000340: b289 873e 0870 033f f5d1 c73d 830e 8b3d
00000350: 6a27 af3d 310a b83e f032 213f b90a 86be
00000360: fe08 5bbe bb26 813e c1b2 f03d 151d 733e
00000370: aa03 5dbe 0aea 22be 20d2 0cbc 0e5c 04be
00000380: d682 593d 2d59 30be d3de 94be de08 6dbe
00000390: 2c24 593c 3d5b f7bd 1dff 40bf f21d 17bf
000003a0: d622 02bf 9794 46be 15e1 c2be 0f9e 00bf
000003b0: 48e3 55bf 8fad cdbe 29da 45be ca77 663e
000003c0: 3460 63bd 0423 f6bd bca0 eebc a43b 363b
000003d0: 409d 923a 367d 963d 9d41 8f3c 7ba3 163e
000003e0: b4ce 2a3e d52d b93e 6ab2 a7be ab52 fdbe
000003f0: 2585 dabe 58c7 fdbd e212 96be 172d 08be

layer1.0.bias f4 [16]
0.118888535 -0.6994141 0.03360878 -0.318526 0.22001573 -0.07396058 0.1400748 0.046879902
0.12876932 0.14934641 0.19751063 0.37634814 0.48291054 0.08916136 0.4196236 -0.23860376
00000000: d57b f33d cd0c 33bf 5ca9 093d d715 a3be
00000010: ce4b 613e a578 97bd c56f 0f3e 2405 403d
00000020: 1bdc 033e 44ee 183e 3a40 4a3e b4b0 c03e
00000030: 0d40 f73e 3b9a b63d e8d8 d63e 8b54 74be

layer1.1.weight f4 [16]
0.6067648 0.8089607 0.831569 1.6037477 0.90246856 1.0962552 1.34253 1.1047893
0.6458234 1.2360986 1.0375996 0.7590122 0.9331661 1.1765915 1.0890585 0.5345924
00000000: f054 1b3f 0c18 4f3f b5e1 543f 9b47 cd3f
00000010: 2e08 673f 1752 8c3f 06d8 ab3f bc69 8d3f
00000020: af54 253f 7b38 9e3f 10d0 843f a04e 423f
00000030: f9e3 6e3f 8d9a 963f 4566 8b3f 0cdb 083f

layer1.1.bias f4 [16]
-0.65249103 -0.0382846 -0.22971155 -0.6339069 -0.55636483 -0.37816942 -0.43144035 -0.067788884
-0.35704216 -0.7058167 -0.6800592 -0.312017 -0.105786994 -0.7365178 0.026972022 -0.41693792
00000000: a709 27bf 50d0 1cbd 8139 6bbe b947 22bf
00000010: ed6d 0ebf 6c9f c1be c0e5 dcbe e6d4 8abd
00000020: 3bce b6be 67b0 34bf 5c18 2ebf b1c0 9fbe
00000030: daa6 d8bd 6e8c 3cbf 6ef4 dc3c e378 d5be

layer1.1.running_mean f4 [16]
1.788442 -0.6760973 -0.0055017085 -1.4385424 -1.7298648 -0.9533785 -0.39664817 -0.12123958
1.1687818 -2.1053817 -1.2201215 1.1837488 0.6747401 -1.3133696 0.29114664 1.3286011
00000000: abeb e43f b614 2dbf ad47 b4bb 2822 b8bf
00000010: 366c ddbf 9d10 74bf 7815 cbbe 754c f8bd
00000020: a49a 953f 93be 06c0 f12c 9cbf 1585 973f
00000030: c4bb 2c3f 7f1c a8bf 2c11 953e 9a0f aa3f

layer1.1.running_var f4 [16]
10.595957 1.3197488 1.2571815 7.2434874 14.728268 4.734301 3.3206108 1.5520655
6.368101 20.78338 8.1905 5.167485 0.9765037 8.491933 1.5410953 9.841573
00000000: 0a89 2941 87ed a83f 53eb a03f a6ca e740
00000010: fca6 6b41 657f 9740 e384 5440 15aa c63f
00000020: 7cc7 cb40 5d44 a641 4a0c 0341 0a5c a540
00000030: 25fc 793f f5de 0741 9c42 c53f 1577 1d41

layer2.0.weight f4 [32, 16, 5, 5]
-0.22575124 -0.30566514 -0.18629509 -0.2301236 -0.21910653 -0.09372722 -0.09653911 -0.018770996
-0.2818123 -0.37132335 -0.015545793 0.12981871 0.11252073 -0.050945155 -0.09078525 0.052889455
0.16878757 0.16127022 -0.09521216 -0.22146218 0.064349525 0.15379421 0.026450722 0.0016020942
-0.03088576 -0.33772233 0.2835376 0.0028602015 -0.02642101 -0.40766314 -0.043908115 0.21698849
-0.07763334 -0.39142916 -0.21199483 -0.07061012 0.029452555 0.0010179597 -0.21054663 -0.44872144
-0.19744872 0.17936352 -0.093485534 -0.22457509 -0.5306709 -0.111922994 0.21531409 -0.24160318
0.03892441 -0.25736672 0.23859207 -0.08774875 -0.21998417 -0.16751294 -0.19020541 0.1457964
-0.12105031 -0.15390806 -0.09739191 -0.2664842 0.2952259 0.1055032 0.008994861 0.00042762829
-0.17493099 0.19155313 -0.118676335 -0.023067823 0.15078321 -0.101010956 -0.22680296 -0.1779035
0.11934721 -0.08466622 0.08928136 -0.0268681 -0.097919226 -0.011875869 -0.090584084 -0.15933032
-0.053011123 -0.27393073 -0.43109253 -0.25709498 -0.1884304 -0.16694471 -0.4296045 -0.46109465
-0.39587712 -0.30532953 0.028354509 -0.31333733 -0.65379137 -0.4015461 -0.096393555 0.23448105
0.28089377 0.23634887 0.35543972 -0.17189103 0.002313635 -0.023788033 -0.092615366 -0.104165584
-0.28381813 0.06586292 -0.049982026 -0.20651346 -0.07600643 -0.15640482 0.010075407 -0.20672278
-0.48044345 -0.2683864 -0.20484169 0.01838065 -0.11933482 -0.38709107 -0.064908884 -0.2449653
-0.02462588 -0.059688818 -0.11504006 0.17365922 -0.2897221 0.3198886 0.27484658 0.11751219
-0.36722642 -0.6215102 0.29184252 0.19622517 -0.3053787 -0.017816832 0.04003742 0.32266432
0.23520237 -0.2911841 -0.13029504 -0.3313698 0.093921736 0.019660361 -0.53314763 -0.097478524
-0.1675524 -0.23258708 -0.11335102 -0.1615032 0.18060434 0.16445869 0.3401724 0.47076213
-0.39326134 -0.21946388 -0.1894148 0.017073782 -0.18756281 -0.16616029 -0.15868218 0.18414395
-0.04572293 -0.2724294 -0.2789684 -0.14361693 -0.06170101 -0.3096529 -0.009540451 -0.35892993
0.19565776 0.5293028 0.24139051 0.45743343 0.4896543 0.22791645 0.22405957 -0.19105633
-0.014866716 0.28011236 -0.12168689 -0.3515078 -0.4244513 0.010950807 0.1880814 -0.30629358
-0.574005 -0.2865614 0.015420274 0.40495086 0.03822246 0.16037516 -0.22148904 0.15308678
0.32367608 -0.048193794 0.07407536 -0.24504504 0.37693352 -0.03244973 -0.25895452 0.02999032
-0.49534407 -0.4534431 -0.25690383 -0.20952557 -0.017203161 -0.47030786 -0.23402993 -0.38193098
-0.48793936 -0.45309317 -0.053201146 0.09081119 -0.23317586 -0.45096564 -0.30048162 0.024576887
0.25470707 -0.030519847 -0.20621745 -0.3662468 -0.012258015 -0.025332218 -0.09392119 -0.0841053
-0.21711221 0.13697961 0.27811676 -0.10751602 -0.42656004 -0.2811806 0.19469318 0.09289334
-0.29462993 -0.18331634 -0.05324319 0.21600601 -0.33155248 -0.5067766 -0.3238964 -0.3975235
-0.17617804 -0.37634766 -0.46700674 -0.24795409 -0.114090614 -0.053886183 -0.19279583 -0.11092105
0.14815567 -0.08030022 0.22993046 0.27431136 -0.074644305 -0.3147047 -0.11623909 -0.14900583
00000000: 552b 67be 2480 9cbe 24c4 3ebe 85a5 6bbe
00000010: 765d 60be 0ff4 bfbd 4cb6 c5bd a2c5 99bc
00000020: b449 90be 181e bebe c8b3 7ebc 32ef 043e
00000030: 4571 e63d deab 50bd 9eed b9bd 9da2 583d
00000040: a6d6 2c3e 0524 253e 98fe c2bd fbc6 62be
00000050: afc9 833d 3b7c 1d3e 2faf d83c 5cfd d13a
00000060: 2204 fdbc f1e9 acbe d72b 913e 3872 3b3b
00000070: e070 d8bc 39b9 d0be ffd8 33bd 3b32 5e3e
00000080: 3bfe 9ebd 6769 c8be 2c15 59be 0a9c 90bd
00000090: 7c46 f13c 0f6d 853a 8999 57be d1be e5be
000000a0: ff2f 4abe 12ab 373e 5875 bfbd 03f7 65be
000000b0: 0cda 07bf e237 e5bd 4c7b 5c3e d366 77be
000000c0: 346f 1f3d 92c5 83be 7b51 743e 9eb5 b3bd
000000d0: 8843 61be 8388 2bbe 35c5 42be a74b 153e
000000e0: 3ae9 f7bd 139a 1dbe 6975 c7bd 9e70 88be
000000f0: d927 973e 1012 d83d 2e5f 133c 4c33 e039
00000100: 1c21 33be 8126 443e 940c f3bd bbf8 bcbc
00000110: ea66 1a3e d5de cebd 093f 68be 562c 36be
00000120: 4f6c f43d 7c65 adbd 25d9 b63d 7d1a dcbc
00000130: e089 c8bd 0193 42bc 2684 b9bd 7d27 23be
00000140: 3122 59bd a640 8cbe 29b8 dcbe f4a1 83be
00000150: e6f3 40be 8ef3 2abe 1ff5 dbbe 9914 ecbe
00000160: 68b0 cabe 2754 9cbe b747 e83c c06d a0be
00000170: df5e 27bf 7397 cdbe fc69 c5bd cd1b 703e
00000180: 4fd1 8f3e 7005 723e 32fc b53e 3404 30be
00000190: 5ba0 173b 1fdf c2bc 20ad bdbd c454 d5bd
000001a0: 9c50 91be 23e3 863d f4b9 4cbd 4478 53be
000001b0: 42a9 9bbd 9628 20be 5213 253c 23af 53be
000001c0: affc f5be f169 89be 05c2 51be 0493 963c
000001d0: d065 f4bd cd30 c6be f3ee 84bd 2fd8 7abe
000001e0: 37bc c9bc 437c 74bd 1f9a ebbd b9d3 313e
000001f0: 7556 94be 70c8 a33e b1b8 8c3e 3baa f03d
00000200: 1a05 bcbe 4b1b 1fbf 626c 953e 40ef 483e
00000210: 995a 9cbe 9bf4 91bc 47fe 233d 4234 a53e
00000220: e4d8 703e 1516 95be 106c 05be 4da9 a9be
00000230: 0a5a c03d c40e a13c 5d7c 08bf d2a2 c7bd
00000240: db92 2bbe 4f2b 6ebe 9424 e8bd 1861 25be
00000250: 58f0 383e dc67 283e 142b ae3e bc07 f13e
00000260: 8d59 c9be 24bb 60be f4f5 41be 51de 8b3c
00000270: 7710 40be ec25 2abe 957d 22be 3b90 3c3e
00000280: f847 3bbd de7b 8bbe f2d4 8ebe 5110 13be
00000290: 33ba 7cbd d38a 9ebe 8d4f 1cbc aac5 b7be
000002a0: 825a 483e 6380 073f 132f 773e b734 ea3e
000002b0: f8b3 fa3e ee62 693e df6f 653e 45a4 43be
000002c0: 8793 73bc e36a 8f3e fa36 f9bd d5f8 b3be
000002d0: ae51 d9be 036b 333c 6998 403e 83d2 9cbe
000002e0: fef1 12bf 2db8 92be 51a5 7c3c b855 cf3e
000002f0: 278f 1c3d 6339 243e 06ce 62be c8c2 1c3e
00000300: dfb8 a53e db66 45bd d3b4 973d 16ed 7abe
00000310: 6efd c03e 02ea 04bd b095 84be 42ae f53c
00000320: bd9d fdbe b229 e8be e688 83be df8d 56be
00000330: a5ed 8cbc 31cc f0be 8ba5 6fbe 758c c3be
00000340: 30d3 f9be d4fb e7be 72e9 59bd 38fb b93d
00000350: a7c5 6ebe f8e4 e6be bad8 99be 7855 c93c
00000360: f768 823e c204 fabc ab2a 53be b384 bbbe
00000370: d7d5 48bc 8385 cfbc c159 c0bd 663f acbd
00000380: aa52 5ebe 6244 0c3e 5265 8e3e 5c31 dcbd
00000390: 1466 dabe e7f6 8fbe a65d 473e dd3e be3d
000003a0: bcd9 96be 47b7 3bbe 8815 5abd ae30 5d3e
000003b0: 3fc1 a9be 1cbc 01bf c0d5 a5be 3388 cbbe
000003c0: 0468 34be a4b0 c0be 821b efbe ade7 7dbe
000003d0: 57a8 e9bd c2b7 5cbd 456c 45be 932a e3bd
000003e0: 1fb6 173e 7174 a4bd e472 6b3e 8a72 8c3e
000003f0: 1ddf 98bd f920 a1be c30e eebd fc94 18be

layer2.0.bias f4 [32]
-0.022067007 -0.05454192 0.21093848 -0.07151864 0.02597559 -0.053486306 -0.0063379547 0.121467926
0.05778145 0.021679468 -0.1152527 -0.009227953 -0.18534648 0.04630491 -0.12427722 -0.18522033
-0.0836771 -0.034011 -0.1580532 0.04917667 -0.14998312 -0.034621526 0.009618849 -0.005904147
0.011651432 0.1225207 -0.28686887 0.12923747 0.036727767 -0.039020292 -0.118608244 0.1307252
00000000: dec5 b4bc 5967 5fbd 4200 583e 5d78 92bd
00000010: c3ca d43c 7514 5bbd 9eae cfbb 2dc4 f83d
00000020: 3eac 6c3d 2499 b13c 9c09 ecbd d730 17bc
00000030: 78cb 3dbe 38aa 3d3d 0e85 febd 66aa 3dbe
00000040: e65e abbd 1e4f 0bbd b3d8 21be 7a6d 493d
00000050: 2d95 19be 4dcf 0dbd 6098 1d3c 9377 c1bb
00000060: a6e5 3e3c 22ec fa3d 7ae0 92be d456 043e
00000070: db6f 163d bed3 1fbd e1e8 f2bd d4dc 053e

layer2.1.weight f4 [32]
0.57852745 0.36326385 0.62268883 0.5193162 0.44634873 0.36187026 0.6546414 0.46566817
0.60008043 0.60000056 0.46603084 0.4357124 0.57647574 0.62936205 0.52607703 0.5432375
0.33745185 0.45431617 0.4909419 0.5850269 0.5877966 0.6327114 0.4048095 0.5012435
0.33775023 0.5637342 0.5045044 0.5352558 0.50952256 0.4694737 0.6978005 0.58747774
00000000: 601a 143f b8fd b93e 8968 1f3f e8f1 043f
00000010: d287 e43e 0f47 b93e 9496 273f 0f6c ee3e
00000020: df9e 193f a399 193f 989b ee3e b215 df3e
00000030: ea93 133f df1d 213f fcac 063f 9d11 0b3f
00000040: 7dc6 ac3e 219c e83e bd5c fb3e 53c4 153f
00000050: d779 163f 60f9 213f 3143 cf3e 7e51 003f
00000060: 99ed ac3e e250 103f 3327 013f 8606 093f
00000070: 1270 023f db5e f03e 0ea3 323f f164 163f

layer2.1.bias f4 [32]
-0.5962976 -0.58095986 -0.5478985 -0.58060837 -0.5338094 -0.51699656 -0.48552594 -0.50676334
-0.6076475 -0.544987 -0.48314297 -0.4912601 -0.5137222 -0.59472424 -0.5463913 -0.47261912
-0.6244594 -0.53136426 -0.6187322 -0.47558644 -0.60727715 -0.5111705 -0.5755074 -0.46223512
-0.5950176 -0.5172418 -0.44372383 -0.52862954 -0.42755163 -0.47766846 -0.5036017 -0.44189742
00000000: f6a6 18bf c9b9 14bf 1343 0cbf c0a2 14bf
00000010: bca7 08bf e359 04bf db96 f8be 3ebb 01bf
00000020: c98e 1bbf 4584 0bbf 845e f7be 7286 fbbe
00000030: 4c83 03bf d93f 18bf 4de0 0bbf 22fb f1be
00000040: 92dc 1fbf 7d07 08bf 3c65 1ebf 1180 f3be
00000050: 8476 1bbf 12dc 02bf 7454 13bf 15aa ecbe
00000060: 1353 18bf f569 04bf c52f e3be 4454 07bf
00000070: 0ce8 dabe f690 f4be 0aec 00bf 6140 e2be

layer2.1.running_mean f4 [32]
-9.864845 -8.830799 -7.069098 -3.46172 -6.832973 -2.6353498 -9.003398 -4.5892787
-3.5534337 -2.9577587 4.3815613 1.0139966 -3.3147733 -6.1547046 0.00023900904 -3.2417548
-5.526737 -2.3873231 -5.5580416 -8.044003 -13.163017 -2.0860772 -7.921519 -9.795949
-4.326765 0.45205933 -6.5716534 -5.1181564 -1.7737683 -3.0599377 -5.987806 -9.214688
00000000: 68d6 1dc1 f44a 0dc1 0d36 e2c0 d28c 5dc0
00000010: b7a7 dac0 92a9 28c0 eb0d 10c1 5fdb 92c0
00000020: 756b 63c0 eb4b 3dc0 c035 8c40 a4ca 813f
00000030: 3f25 54c0 57f3 c4c0 809e 7a39 e978 4fc0
00000040: 08db b0c0 e7c9 18c0 7adb b1c0 3cb4 00c1
00000050: b89b 52c1 4a82 05c0 157d fdc0 35bc 1cc1
00000060: dc74 8ac0 5274 e73e fc4a d2c0 f0c7 a3c0
00000070: d70a e3bf 05d6 43c0 1b9c bfc0 5d6f 13c1

layer2.1.running_var f4 [32]
43.02216 77.89698 52.10565 43.66886 73.542656 27.443731 62.094467 40.738678
24.377262 37.457115 51.425205 36.922928 27.749018 33.60665 33.16723 40.898033
61.44358 26.97703 37.861546 42.81627 42.228657 38.75205 38.234722 43.50686
38.025578 49.108242 24.900982 21.586857 29.087358 21.165304 35.846703 67.5756
00000000: b116 2c42 41cb 9b42 306c 5042 eaac 2e42
00000010: d715 9342 c38c db41 bc60 7842 68f4 2242
00000020: a204 c341 16d4 1542 69b3 4d42 14b1 1342
00000030: fdfd dd41 366d 0642 3eab 0442 9697 2342
00000040: 3ac6 7542 f5d0 d741 3972 1742 dc43 2b42
00000050: 25ea 2842 1902 1b42 5bf0 1842 0607 2e42
00000060: 311a 1842 d76e 4442 3635 c741 e2b1 ac41
00000070: e9b2 e841 8b52 a941 0663 0f42 b526 8742

fc.weight f4 [10, 1568]
-0.2945931 -0.10006927 -0.082362376 -0.03153075 -0.033544276 0.16851877 0.018028645 -0.034862142
0.356858 -0.026657226 -0.1568952 0.1448326 -0.046165943 0.3657804 -0.06520415 0.17629516
0.046004504 -0.016387647 0.20864499 -0.14555445 -0.18200852 0.3473443 0.223188 -0.11134722
-0.089595474 0.0032997793 -0.10805674 -0.14608143 0.038558688 0.19260308 -0.0006591417 -0.012716672
0.08509451 -0.30571717 -0.21293288 -0.3574811 -0.21084297 0.063469276 -0.06830474 0.12373956
-0.23925734 -0.8885837 -0.087500386 0.09014654 0.329559 0.1339536 0.13722883 0.12908411
-0.09837983 0.04342153 0.11001228 -0.0035637699 0.13204516 0.087367766 0.14841758 -0.104682915
-0.049659528 -0.08271658 -0.008659177 0.104964755 0.017401867 -0.0319768 -0.06385741 -0.18002199
-0.24810956 -0.48221937 0.08519794 -0.16311632 -0.031499986 -0.021821521 -0.07651645 -0.07623863
-0.40933385 0.0688773 0.083120205 0.09648045 0.0425713 0.03547816 0.0006871636 -0.23931113
0.03855855 0.405937 0.11870109 0.07174447 0.018532166 0.013456631 -0.15222481 -0.13305585
0.27550447 0.037038743 0.013028039 0.064497024 -0.1102595 -0.24606694 -0.26940566 -0.027074633
0.06253669 0.03079387 -0.031062767 0.29048315 0.072813116 0.087543726 0.10745554 -0.003090179
-0.057661276 0.10301149 0.10164819 0.1949954 0.08904759 -0.038887907 0.1318423 0.0064553916
-0.15517807 -0.23594251 0.117849596 0.13935244 0.09902869 -0.06318674 0.053616446 -0.18093698
-0.06665788 -0.2164366 -0.017251875 0.07363954 -0.026940526 -0.22734356 0.061887205 -0.5538522
-0.10419983 0.010688496 -0.116367176 -0.0788309 -0.2545991 -0.01917981 0.015512041 0.09734202
0.19597095 0.087751724 0.09635358 -0.03585717 0.063652955 -0.11298679 -0.06913785 0.03492372
-0.07838512 -0.04112309 -0.1358463 0.18360579 -0.0087924255 -0.09726119 0.14159979 0.22372113
0.0087220175 -0.13180317 0.015976341 -0.12762588 -0.13992374 0.22471726 0.24295378 -0.107529454
-0.121549346 -0.109064884 -0.06493854 -0.1446969 0.07309272 0.29845065 -0.25745547 -0.033275325
-0.022928115 0.03200078 -0.19876683 0.11848158 0.0420892 -0.021114176 0.069232985 -0.04401139
0.1313708 -0.18361233 -0.085163705 0.08700663 -0.10785163 0.15523547 -0.19692923 0.18802692
-0.5515828 -0.031953886 0.06957659 -0.2627764 0.17524621 -0.20413706 0.0755879 -0.33437306
-0.32623714 -0.32023254 -0.2383185 0.06269748 -0.005842748 -0.0010926276 0.0531023 0.17738402
-0.22681329 -0.042006094 0.01176523 -0.19463293 0.09045646 -0.02417889 0.0020996856 -0.2701572
-0.2916414 -0.082572505 -0.043428585 -0.44964007 -0.102028176 -0.077758424 -0.20590553 -0.4146223
-0.08585329 0.04489543 -0.28359476 -0.099053234 -0.04984047 -0.0028369986 -0.06154502 0.12077686
0.018274022 -0.023228167 -0.060110815 -0.07054737 0.2254083 0.27573168 0.1085371 -0.032641202
0.0077087684 -0.012696983 -0.10911843 0.059397306 0.2704027 0.04479985 -0.01806599 0.0024553086
-0.15545982 -0.15038043 -0.13295814 0.26272956 0.07039287 0.025834104 -0.017444296 0.15874095
-0.1677533 0.035005745 -0.10657338 -0.15646489 0.0856434 0.007650422 -0.0508515 -0.13656117
00000000: e8d4 96be 1ef1 ccbd 9bad a8bd 6326 01bd
00000010: b965 09bd 2f90 2c3e cfb0 933c 9bcb 0ebd
00000020: 17b6 b63e 4160 dabc 23a9 20be ff4e 143e
00000030: 8018 3dbd 9247 bb3e c189 85bd b886 343e
00000040: 386f 3c3d 633f 86bc 08a7 553e 3a0c 15be
00000050: 7160 3abe 1dd7 b13e 658b 643e 030a e4bd
00000060: d57d b7bd 1c41 583b da4c ddbd 5f96 15be
00000070: b7ef 1d3d be39 453e 40ca 2cba 9759 50bc
00000080: 0846 ae3d f686 9cbe 140b 5abe c307 b7be
00000090: 38e7 57be 2efc 813d 5be3 8bbd 2b6b fd3d
000000a0: e0ff 74be 397a 63bf 6733 b3bd c09e b83d
000000b0: f5bb a83e 222b 093e b785 0c3e a02e 043e
000000c0: 5d7b c9bd c6da 313d 1e4e e13d 238e 69bb
000000d0: d936 073e dfed b23d c7fa 173e ff63 d6bd
000000e0: ca67 4bbd 4f67 a9bd 39df 0dbc c3f7 d63d
000000f0: 5c8e 8e3c 1bfa 02bd acc7 82bd af57 38be
00000100: 6f10 7ebe 75e5 f6be 427c ae3d f707 27be
00000110: 2106 01bd 0cc3 b2bc a8b4 9cbd 0023 9cbd
00000120: 3594 d1be 8b0f 8d3d ed3a aa3d 8b97 c53d
00000130: 3e5f 2e3d 8c51 113d c522 343a fa0d 75be
00000140: 92ef 1d3d f9d6 cf3e 8f19 f33d c4ee 923d
00000150: c5d0 973c 3479 5c3c d2e0 1bbe cb3f 08be
00000160: ec0e 8d3e f0b5 173d 8e73 553c 0417 843d
00000170: bccf e1bd f9f8 7bbe 8aef 89be 9fcb ddbc
00000180: 3c13 803d 6d43 fc3c 5877 febc 35ba 943e
00000190: 0b1f 953d 204a b33d a611 dc3d 9a84 4abb
000001a0: 3b2e 6cbd b0f7 d23d ed2c d03d e0ac 473e
000001b0: 955e b63d ed48 1fbd ab01 073e c087 d33b
000001c0: 00e7 1ebe ea9a 71be 215b f13d 68b2 0e3e
000001d0: 8ecf ca3d 0d68 81bd eb9c 5b3d 8b47 39be
000001e0: ed83 88bd 8ea1 5dbe ce53 8dbc 54d0 963d
000001f0: 61b2 dcbc c0cc 68be 707d 7d3d 42c9 0dbf
00000200: b866 d5bd cd1e 2f3c ea51 eebd 1872 a1bd
00000210: d05a 82be fa1e 9dbc 3726 7e3c 415b c73d
00000220: 9cac 483e 2db7 b33d 0755 c53d f8de 12bd
00000230: 7b5c 823d 9e65 e7bd 2598 8dbd 2d0c 0f3d
00000240: 6188 a0bd af70 28bd 4b1b 0bbe 2803 3c3e
00000250: 1b0e 10bc e030 c7bd 89ff 103e 2717 653e
00000260: cbe6 0e3c 69f7 06be d1e0 823c 5cb0 02be
00000270: 2b48 0fbe 481c 663e e0c8 783e 6738 dcbd
00000280: ddee f8bd 695d dfbd 7ffe 84bd 6d2b 14be
00000290: a3b1 953d 86ce 983e 34d1 83be b54b 08bd
000002a0: bed3 bbbc 4013 033d 8889 4bbe 78a6 f23d
000002b0: ba65 2c3d a3f7 acbc 06ca 8d3d 4a45 34bd
000002c0: 1186 063e df04 3cbe 4f6a aebd 8830 b23d
000002d0: 51e1 dcbd 0cf6 1e3e d1a7 49be 218a 403e
000002e0: 8834 0dbf 14e2 02bd 2c7e 8e3d a18a 86be
000002f0: be73 333e 4e09 51be d4cd 9a3d f232 abbe
00000300: 8e08 a7be 85f5 a3be c409 74be 8967 803d
00000310: 8674 bfbb 8036 8fba cc81 593d 28a4 353e
00000320: be41 68be 950e 2cbd f4c2 403c db4d 47be
00000330: 3d41 b93d cf12 c6bc e19a 093b 0b52 8abe
00000340: 0652 95be c61b a9bd 2ce2 31bd 3937 e6be
00000350: 26f4 d0bd cf3f 9fbd e6d8 52be 6049 d4be
00000360: dad3 afbd 45e4 373d 5533 91be 6cdc cabd
00000370: 8525 4cbd f0ec 39bb a216 7cbd dc59 f73d
00000380: 67b3 953c ff48 bebc c236 76bd 247b 90bd
00000390: 6fd1 663e b42c 8d3e b348 de3d c8b2 05bd
000003a0: d699 fc3b 0207 50bc 7c79 dfbd 974a 733d
000003b0: 3972 8a3e 0c80 373d 21ff 93bc 3ee9 203b
000003c0: dc30 1fbe 54fd 19be 2e26 08be 7d84 863e
000003d0: 232a 903d 0ba2 d33c 57e7 8ebc fd8c 223e
000003e0: 85c7 2bbe 2f62 0f3d 2543 dabd 5538 20be
000003f0: cf65 af3d 64b0 fa3b aa49 50bd b1d6 0bbe

fc.bias f4 [10]
-0.03057792 -0.14724472 0.018955749 0.03740171 -0.036323022 -0.09644986 0.14610519 0.10463471
-0.06374496 -0.05706243
00000000: 8c7e fabc 52c7 16be 1649 9b3c 8932 193d
00000010: 73c7 14bd 8187 c5bd 999c 153e b94a d63d
00000020: b88c 82bd 4bba 69bd

exp_avg f4 [16, 1, 5, 5]
-8.932165e-05 -0.00014772272 -0.00020276982 0.000939633 0.001119834 7.1524715e-05 -3.6199744e-05 0.00031400847
0.0012966245 0.0014331352 0.00032274096 0.00032776204 0.0005745669 0.0018951633 0.0020125385 1.401469e-05
3.275748e-05 -5.320552e-05 0.0013654296 0.0019524613 -0.0001376888 9.79428e-06 8.222358e-05 0.0010841141
0.0015670107 0.0009654873 0.00095355447 -0.00020873238 -0.0023632005 0.0007319147 -0.0011183053 -0.00039356053
-0.0019015152 -0.0027335316 0.0024969694 0.0006604031 0.00037853466 0.0025047641 0.0013400989 0.005990575
-0.0014798426 0.00097238197 0.00015493177 -0.001475721 0.004042747 -0.0031174256 -0.0005814106 -0.0008982917
0.00014212886 0.003171303 0.0014442573 -0.00023901135 0.002063763 0.0009306813 0.0024961433 -0.0016979105
-0.002181736 0.0015478107 0.0015032724 0.003295676 -0.0019727214 -0.0023890508 0.0022671577 0.00036436447
0.0047314884 -0.00020462004 -0.00058814 0.003888089 0.001165135 0.0034508444 0.002090379 -0.0006859737
0.0037072736 0.0025336193 0.0033232288 -0.0022565254 -0.0032895803 -0.0046032164 -0.0037890165 0.0015714335
-0.0003654584 -0.00026466002 -0.0018689017 -0.0013459242 0.004458341 0.0006152234 -0.00043757545 -0.00023739706
-0.00019754791 0.0059480383 -3.1047693e-05 -0.001122027 -0.0014816872 -7.1274844e-05 0.0047528273 0.00033306185
-0.006629186 -0.0031392016 0.0018676004 0.0052568493 -0.0011886124 -0.0015702416 -0.00093177037 -1.3300116e-05
0.0019144478 -4.4990984e-06 4.3832926e-05 0.0003153008 0.00210452 0.003773444 0.00010911061 7.459833e-05
0.00042510065 0.002182554 0.003654747 0.00021995016 0.00015249173 0.0006684816 0.002294737 0.0027533348
-0.0003657102 -0.0002948134 0.00047505272 0.0015180617 0.0017892759 0.003251321 0.0012062317 0.0017020731
0.0044591897 0.007519613 0.004293541 0.00263823 0.0020602737 0.004789816 0.007750352 0.0034283462
0.0017500833 0.0024390782 0.0051047504 0.0060568796 0.0025991783 0.0033814872 0.0030576005 0.0058832634
0.007281384 0.0043033734 0.0010952 0.0018919733 0.0061072665 0.00775192 0.0016762556 -0.005346882
-0.005636231 -0.00471433 -0.0042396965 -0.00070149894 -0.0014744689 -0.0019858151 -0.0005868447 -0.0012027231
-0.003343974 -0.0037563394 -0.003938474 -0.0033567245 0.00033018706 -0.002358546 -0.0019966352 -0.0057438784
-0.0077617983 -0.001697638 -0.0027841884 -0.006224288 -0.0021186818 -0.0078264065 -0.0072728675 0.0016401425
0.002175348 0.0023396702 0.0030191592 0.0017514817 0.0017899846 0.0017524562 -0.0015940672 -0.0016709925
-0.0017054335 -0.003076934 -0.00214474 0.00038980634 0.003344907 -4.3633907e-05 -0.007213426 -0.005421066
0.0009072165 0.002791197 -0.0009276721 -0.004874753 -0.00074164505 0.0032276334 0.0032995646 0.0008053781
-0.0014357471 -0.0018032911 -0.0019553325 -0.0016030299 -0.0007202293 -0.0010067639 -0.0017073728 -0.0013320175
-0.0011363009 -0.0003606562 -0.001029331 -0.0012263752 -0.0013933822 -0.00085230067 -0.0003175658 -0.0016668921
-0.0020870573 -0.0023421494 -0.0016142598 -0.00045489642 -0.0019346155 -0.0022613786 -0.0018765838 -0.0015901378
-0.0006059029 -0.00051639666 -0.000230404 9.019809e-05 0.0008181554 0.005158366 0.0003098428 0.00015626948
0.0005931654 0.0020218892 0.005435882 0.00013014716 -8.367576e-05 0.00041085065 0.0013597017 0.0050113034
-0.0007980163 -0.0017160753 -0.00054319674 0.0011190275 0.0046124826 -5.536675e-05 -0.0020081194 -0.00048770403
0.0009430729 0.00497352 0.000844423 -0.00039774991 -0.0004694998 -9.61894e-05 0.0023355794 0.00063341577
00000000: 3252 bbb8 04e6 1ab9 9c9e 54b9 b451 763a
00000010: 65c7 923a 8aff 9538 2ed5 17b8 81a1 a439
00000020: 80f3 a93a 0ad8 bb3a 8f35 a939 7ad7 ab39
00000030: 889e 163a 2167 f83a cbe4 033b a320 6b37
00000040: 1465 0938 fe28 5fb8 37f8 b23a bbe9 ff3a
00000050: 8e60 10b9 1d52 2437 736f ac38 d518 8e3a
00000060: 2764 cd3a c218 7d3a f5f7 793a 2cdf 5ab9
00000070: eddf 1abb f7dd 3f3a 1994 92ba cd56 ceb9
00000080: 433c f9ba 0d25 33bb 32a4 233b e71e 2d3a
00000090: 1076 c639 f826 243b 42a6 af3a 964c c43b
000000a0: 47f7 c1ba 73e7 7e3a 2e75 2239 fb6c c1ba
000000b0: 0579 843b b94d 4cbb ce69 18ba 567b 6bba
000000c0: 6d08 1539 a3d5 4f3b 3c4d bd3a 1f9f 7ab9
000000d0: 3340 073b f7f8 733a 5696 233b 6c8c deba
000000e0: 75fb 0ebb e9df ca3a 7409 c53a 45fc 573b
000000f0: c648 01bb 9f91 1cbb 9894 143b 2c08 bf39
00000100: 9a0a 9b3b 468f 56b9 682d 1aba 4fcf 7e3b
00000110: 71b7 983a 9027 623b bdfe 083b ead2 33ba
00000120: bbf5 723b 140b 263b 87ca 593b 37e2 13bb
00000130: 0096 57bb 94d6 96bb 2651 78bb 8ff8 cd3a
00000140: ff9a bfb9 11c2 8ab9 eff5 f4ba b969 b0ba
00000150: 4617 923b f246 213a 626a e5b9 caed 78b9
00000160: dd24 4fb9 c3e7 c23b 3539 02b8 fb10 93ba
00000170: 2c35 c2ba 6479 95b8 9bbd 9b3b ce9e ae39
00000180: a539 d9bb 10bb 4dbb 45ca f43a a641 ac3b
00000190: 37cb 9bba 91d0 cdba 0d42 74ba 9023 5fb7
000001a0: 35ee fa3a f6f6 96b6 3fd9 3738 f54e a539
000001b0: fdeb 093b e34b 773b 50d2 e438 ac71 9c38
000001c0: 0be0 de39 2e09 0f3b 7b84 6f3b 6ca2 6639
000001d0: 30e6 1f39 0a3d 2f3a 4c63 163b 4b71 343b
000001e0: cbbc bfb9 2f91 9ab9 7f10 f939 b3f9 c63a
000001f0: 2386 ea3a 1d14 553b 6b1a 9e3a 1918 df3a
00000200: 651e 923b 1667 f63b d5b0 8c3b 28e6 2c3b
00000210: a805 073b e4f3 9c3b aaf6 fd3b 1bae 603b
00000220: 0d63 e53a f1d8 1f3b c045 a73b ca78 c63b
00000230: fa56 2a3b f19b 5d3b 0662 483b 64c8 c03b
00000240: ad98 ee3b 5003 8d3b d08c 8f3a 17fc f73a
00000250: 771f c83b d103 fe3b ceb5 db3a e634 afbb
00000260: 22b0 b8bb ab7a 9abb 27ed 8abb cce4 37ba
00000270: f742 c1ba 7324 02bb 7bd6 19ba b1a4 9dba
00000280: 9326 5bbb eb2c 76bb 510e 81bb 7efc 5bbb
00000290: f51c ad39 d691 1abb fbd9 02bb 2537 bcbb
000002a0: af56 febb 4783 deba ee76 36bb 1df5 cbbb
000002b0: 95d9 0abb 543a 00bc 3c51 eebb 0dfa d63a
000002c0: 4990 0e3b 2755 193b 16dd 453b f991 e53a
000002d0: eb9d ea3a acb2 e53a 05f0 d0ba 3405 dbba
000002e0: da88 dfba 63a6 49bb c48e 0cbb ec5e cc39
000002f0: 3a36 5b3b 8d03 37b8 9a5e ecbb 33a3 b1bb
00000300: 45d2 6d3a 84ec 363b 052f 73ba 64bc 9fbb
00000310: f56a 42ba b486 533b 823d 583b 0220 533a
00000320: ae2f bcba 695c ecba 0925 00bb c21c d2ba
00000330: c5cd 3cba 64f5 83ba edc9 dfba 1797 aeba
00000340: eeef 94ba 7516 bdb9 9eea 86ba 53be a0ba
00000350: 26a2 b6ba ee6c 5fba f67e a6b9 9e7b daba
00000360: 03c7 08bb bf7e 19bb 9295 d3ba 2a7f eeb9
00000370: ed92 fdba a333 14bb b4f7 f5ba 2c6c d0ba
00000380: 75d5 1eba cb5e 07ba 9a98 71b9 bb28 bd38
00000390: 7b79 563a 8307 a93b 6672 a239 45dc 2339
000003a0: a87e 1b3a ac81 043b 7c1f b23b 1d78 0839
000003b0: 157b afb8 7167 d739 0538 b23a dc35 a43b
000003c0: f831 51ba efed e0ba 5165 0eba 55ac 923a
000003d0: 4f24 973b 9839 68b8 a79a 03bb 87b2 ffb9
000003e0: 8d38 773a e9f8 a23b 455c 5d3a 1789 d0b9
000003f0: 3227 f6b9 4ab9 c9b8 8510 193b d00b 263a

exp_avg_sq f4 [16, 1, 5, 5]
2.7912804e-06 2.1016078e-06 3.8287913e-06 8.280408e-06 1.0591962e-05 2.6752098e-06 1.445648e-06 2.4907438e-06
6.1922647e-06 9.407834e-06 2.0678772e-06 9.441196e-07 1.6801235e-06 5.8439896e-06 1.0914066e-05 2.482811e-06
1.4486084e-06 2.1002238e-06 5.6196027e-06 1.1281203e-05 4.3996147e-06 3.615784e-06 4.0076497e-06 6.4249507e-06
1.2209948e-05 0.0001275667 0.00013904572 0.00018517743 0.00017197944 0.00015293037 0.00011963472 0.00012264686
0.00015830455 0.00014785584 0.00013856034 0.00013143438 0.00013477722 0.00015285844 0.0001474189 0.00013608452
0.00012000373 0.00013526753 0.0001520932 0.00015559845 0.00013391205 0.00011902708 0.00012775253 0.0001432392
0.0001377194 0.000120981626 7.4039126e-05 6.877204e-05 6.8166104e-05 6.228893e-05 7.5188655e-05 7.1345945e-05
6.209917e-05 5.936786e-05 6.0977163e-05 8.010103e-05 7.3913085e-05 7.398779e-05 7.567116e-05 8.196718e-05
9.3138624e-05 7.228162e-05 7.359406e-05 7.489012e-05 8.862707e-05 8.4920415e-05 6.8181456e-05 6.517634e-05
7.193428e-05 8.48913e-05 7.888522e-05 0.00016110182 0.00016883004 0.00014278734 0.00012267569 0.00013100968
7.471968e-05 6.358576e-05 6.18893e-05 8.313354e-05 0.00011639 2.6098865e-05 1.8406325e-05 2.212896e-05
6.0927512e-05 0.000110516725 6.20644e-05 4.1069954e-05 4.8056016e-05 0.00010109874 0.00012732134 0.000105905754
0.000109503024 0.00011233524 0.00011779134 0.000112585534 5.6494623e-06 5.8474207e-06 4.3812634e-06 1.0898618e-05
1.9559197e-05 2.1242126e-06 2.0803643e-06 2.7015503e-06 9.921547e-06 1.8582261e-05 7.553795e-07 9.726118e-07
2.4390758e-06 1.1440753e-05 1.9511472e-05 6.0571597e-07 8.407349e-07 2.9804312e-06 1.2021433e-05 2.0544998e-05
1.2070977e-06 1.5540763e-06 4.5237502e-06 1.2272353e-05 1.9233734e-05 2.7300564e-05 2.209081e-05 1.7333286e-05
3.1648702e-05 4.6740122e-05 3.016059e-05 2.1440552e-05 1.9412446e-05 4.1369974e-05 6.491503e-05 2.5401749e-05
2.4470824e-05 2.9047496e-05 6.225273e-05 7.94835e-05 4.1747127e-05 4.0105064e-05 5.3724372e-05 7.526175e-05
7.384374e-05 7.3826e-05 8.064422e-05 7.342688e-05 6.990097e-05 6.371956e-05 0.00016032977 0.00013600108
0.00015084122 0.00015099545 0.00012618433 0.00017663973 9.665498e-05 5.1583396e-05 5.0243107e-05 6.68516e-05
0.00016978587 0.00011309467 6.3651205e-05 6.961847e-05 0.00011411339 0.0001865238 0.00016701236 0.00014957938
0.00015641311 0.0001542362 0.00023516102 0.00019462583 0.0001586082 0.00015899603 0.00014072693 0.00027021725
0.00023576696 0.00024140859 0.00023421351 0.00020369506 0.00027478268 0.00021658021 0.00024774869 0.00022968465
0.00020972794 0.00029446662 0.00021188632 0.00024834313 0.0002246376 0.00021934923 0.00028597258 0.00021983987
0.00026910193 0.00024404141 0.00025609674 0.00024683643 0.00021779696 0.000258607 0.00028307296 0.0003326529
2.3372966e-05 1.7148524e-05 1.2111424e-05 1.0196639e-05 1.0217041e-05 2.5204206e-05 1.6587795e-05 1.02126105e-05
6.983092e-06 6.587588e-06 2.6489517e-05 1.4434549e-05 8.366573e-06 6.4047777e-06 6.0811717e-06 2.7079224e-05
1.6950995e-05 1.3469956e-05 1.1343445e-05 1.0702874e-05 2.8936203e-05 2.1032989e-05 2.017873e-05 1.8756878e-05
1.7639042e-05 4.0221785e-06 4.032866e-06 4.189423e-06 8.136939e-06 1.41166565e-05 1.5207896e-06 1.4941162e-06
2.220705e-06 7.387048e-06 1.4242748e-05 3.0995334e-06 2.0684668e-06 4.1462295e-06 1.2602773e-05 2.5762023e-05
1.8740315e-05 2.0463329e-05 2.1057365e-05 2.5440117e-05 3.1432697e-05 3.9418253e-05 4.1626696e-05 4.0835213e-05
3.6747173e-05 3.4580928e-05 8.330909e-06 2.5214022e-06 2.860455e-06 3.0338454e-06 5.5586897e-06 1.5461608e-05
00000000: d551 3b36 5909 0d36 1179 8036 15ec 0a37
00000010: 21b4 3137 c187 3336 1608 c235 a726 2736
00000020: 26c7 cf36 57d6 1d37 dcc5 0a36 686f 7d35
00000030: 9b80 e135 7d17 c436 8e1b 3737 5e9e 2636
00000040: ce6d c235 92f1 0c36 0590 bc36 6644 3d37
00000050: 67a0 9336 b2a6 7236 7379 8636 e895 d736
00000060: 54d9 4c37 6dc3 0539 cdcc 1139 302c 4239
00000070: 6155 3439 ef5b 2039 67e4 fa38 c49a 0039
00000080: 8efe 2539 c009 1b39 824a 1139 a6d1 0939
00000090: fc52 0d39 a048 2039 7694 1a39 e9b1 0e39
000000a0: 83aa fb38 9ad6 0d39 357b 1f39 2428 2339
000000b0: be6a 0c39 2d9e f938 4ff5 0539 7b32 1639
000000c0: c568 1039 84b7 fd38 7445 9b38 b539 9038
000000d0: 66f4 8e38 1da1 8238 9aae 9d38 909f 9538
000000e0: 3d3b 8238 c101 7938 bbc1 7f38 eafb a738
000000f0: c901 9b38 e429 9b38 a5b1 9e38 cbe5 ab38
00000100: 6b53 c338 e695 9738 8356 9a38 540e 9d38
00000110: 4cdd b938 4d17 b238 a4fc 8e38 48af 8838
00000120: 6cdb 9638 ab07 b238 2e6f a538 71ed 2839
00000130: f807 3139 2fb9 1539 81a2 0039 a55f 0939
00000140: d3b2 9c38 5859 8538 91ca 8138 fb57 ae38
00000150: 6816 f438 e3ee da37 4867 9a37 94a1 b937
00000160: 6b8c 7f38 37c5 e738 9228 8238 8742 2c38
00000170: c18f 4938 f904 d438 9081 0539 b819 de38
00000180: fda4 e538 8695 eb38 be06 f738 e61b ec38
00000190: 8390 bd36 f634 c436 c402 9336 35d9 3637
000001a0: 0e13 a437 b28d 0e36 639c 0b36 484c 3536
000001b0: b874 2637 1ae1 9b37 49c5 4a35 b08a 8235
000001c0: 01af 2336 a9f1 3f37 91ac a337 7c98 2235
000001d0: ddae 6135 6b03 4836 a9af 4937 0c58 ac37
000001e0: 9003 a235 a895 d035 b8ca 9736 5be5 4d37
000001f0: 2158 a137 8403 e537 a74f b937 f366 9137
00000200: 89be 0438 d30a 4438 6001 fd37 3cdb b337
00000210: e9d7 a237 ac84 2d38 fe22 8838 d715 d537
00000220: b246 cd37 06ab f337 ae8d 8238 61b0 a638
00000230: a319 2f38 7c36 2838 1b56 6138 d8d5 9d38
00000240: 8edc 9a38 08d3 9a38 891f a938 c2fc 9938
00000250: cc97 9238 2ea1 8538 321e 2839 839b 0e39
00000260: 222b 1e39 8854 1e39 5950 0439 5e38 3939
00000270: 3fb3 ca38 405b 5838 20bc 5238 ae32 8c38
00000280: 8c08 3239 3d2d ed38 7b7c 8538 2200 9238
00000290: 2950 ef38 9a95 4339 0a20 2f39 69d8 1c39
000002a0: d302 2439 77ba 2139 8e95 7639 7914 4c39
000002b0: 1150 2639 2cb8 2639 1990 1339 f2ab 8d39
000002c0: 3638 7739 a022 7d39 3697 7539 fa96 5539
000002d0: b510 9039 cf19 6339 44e4 8139 81d7 7039
000002e0: 6aea 5b39 a462 9a39 cd2d 5e39 0d34 8239
000002f0: b28c 6b39 1c01 6639 97ee 9539 d184 6639
00000300: 4016 8d39 5ee5 7f39 b944 8639 d369 8139
00000310: 6d60 6439 a595 8739 6969 9439 eb67 ae39
00000320: 1011 c437 2dda 8f37 2c32 4b37 3b12 2b37
00000330: db69 2b37 9f6d d337 0526 8b37 d456 2b37
00000340: 4e50 ea36 f30a dd36 ce35 de37 ea2b 7237
00000350: 285e 0c37 9fe8 d636 de0c cc36 3128 e337
00000360: fc31 8e37 05fd 6137 ba4f 3e37 7e90 3337
00000370: 06bc f237 0070 b037 7e45 a937 1758 9d37
00000380: 8ef7 9337 40f6 8636 0e52 8736 df92 8c36
00000390: e383 0837 94d6 6c37 ef1d cc35 7189 c835
000003a0: 6c07 1536 42de f736 23f4 6e37 9401 5036
000003b0: fdcf 0a36 d71f 8b36 7f70 5337 861b d837
000003c0: 8534 9d37 aaa8 ab37 59a4 b037 3c68 d537
000003d0: 9ad6 0338 0755 2538 5398 2e38 7a46 2b38
000003e0: fa20 1a38 fd0a 1138 fbc4 0b37 5c35 2936
000003f0: 3ef6 3f36 1199 4b36 c884 ba36 8db3 8137

exp_avg f4 [16]
3.458741e-08 9.1081155e-08 7.337656e-08 -6.1001614e-08 4.0699337e-08 2.6573948e-08 1.7863928e-07 -9.38745e-08
2.2033374e-08 -3.4355845e-09 -1.2275556e-08 2.1219508e-08 -1.5203783e-08 5.891257e-08 -1.8273352e-07 1.8236141e-08
00000000: 428d 1433 6598 c333 3193 9d33 feff 82b3
00000010: 65cd 2e33 bb44 e432 fecf 3f34 0d98 c9b3
00000020: e743 bd32 7117 6cb1 77e4 52b2 3146 b632
00000030: 7999 82b2 0e07 7d33 6835 44b4 b3a5 9c32

exp_avg_sq f4 [16]
1.1935006e-14 9.1033755e-14 5.0193753e-14 9.680134e-14 1.8978637e-14 3.1844478e-14 7.1124564e-14 1.1726899e-13
2.7416253e-14 2.7633066e-14 1.8564685e-14 4.8375254e-14 6.2657106e-13 5.001807e-14 3.4086102e-13 7.163233e-15
00000000: 8000 5728 63fd cc29 750d 6229 2cfa d929
00000010: c2f1 aa28 2f6a 0f29 8528 a029 7c08 042a
00000020: 93f1 f628 83e5 f828 4037 a728 dfdc 5929
00000030: 345d 302b e942 6129 40e3 bf2a 950a 0128

exp_avg f4 [16]
-0.011253756 0.0060362755 0.00083573663 -0.00057988643 -0.009144888 0.00393515 0.005932367 0.00084329915
-0.005125428 -0.0014674759 -0.0071325144 0.004181949 0.001300832 -0.0030999058 -0.0027816987 -0.007741131
00000000: ac61 38bc f3cb c53b 5615 5b3a 8503 18ba
00000010: 71d4 15bc 6ef2 803b 4d64 c23b d910 5d3a
00000020: 35f3 a7bb 5258 c0ba deb7 e9bb bb08 893b
00000030: ae80 aa3a ca27 4bbb 294d 36bb 50a9 fdbb

exp_avg_sq f4 [16]
0.00036502403 0.0002502797 0.00010434487 8.6816275e-05 0.00010973124 9.02872e-05 0.0001886887 0.00018862853
0.00029768999 8.621047e-05 6.601573e-05 0.00026604207 0.00029092852 8.253515e-05 0.00018082443 0.00024599492
00000000: b260 bf39 f937 8339 bad3 da38 2211 b638
00000010: 831f e638 9258 bd38 bdda 4539 96ca 4539
00000020: 4613 9c39 e5cb b438 ed71 8a38 907b 8b39
00000030: c487 9839 b916 ad38 b09b 3d39 e1f8 8039

exp_avg f4 [16]
-0.0053097815 0.0011539541 -0.000572931 0.0022194674 -0.010451189 0.0019627637 0.009028376 0.0022437647
-0.0023050602 -0.0006372212 -0.0073566237 0.0028167127 0.0040071486 -0.0034832275 -0.01564238 -0.0031994956
00000000: adfd adbb 4640 973a c030 16ba 7c74 113b
00000010: 773b 2bbc b6a1 003b c1eb 133c 200c 133b
00000020: 7e10 17bb 310b 27ba d50f f1bb 9998 383b
00000030: 664e 833b dc46 64bb 7324 80bc a1ae 51bb

exp_avg_sq f4 [16]
0.00014229963 0.00014427846 6.2269784e-05 7.653368e-05 0.00013255594 5.8731835e-05 0.00013660586 0.00010035304
0.00018940834 9.5816904e-05 5.64456e-05 0.00020971558 0.00020153401 8.207681e-05 0.00018202561 0.00011448395
00000000: 4436 1539 7449 1739 d696 8238 b580 a038
00000010: b7fe 0a39 d456 7638 db3d 0f39 a174 d238
00000020: ea9b 4639 4ff1 c838 00c0 6c38 19e7 5b39
00000030: e052 5339 a720 ac38 21de 3e39 1a17 f038

exp_avg f4 [32, 16, 5, 5]
-3.790923e-05 -2.00538e-05 4.9391383e-05 4.1406405e-05 -6.599129e-06 3.7861704e-05 1.4445038e-05 4.6172754e-05
2.9216748e-05 2.2332371e-05 0.00017423047 0.00013391506 8.505878e-05 0.00010116024 9.355162e-05 0.00020128304
0.0001310757 -5.7715984e-06 -3.6694117e-05 2.631626e-05 9.568451e-05 5.001269e-05 -1.953481e-05 -5.8414204e-05
5.820571e-06 6.261238e-05 0.0005548166 -0.00014713308 0.00027528475 0.00013945388 9.418231e-05 0.00053540926
-0.0003511229 0.00028705221 2.0081296e-05 1.7355209e-05 0.0001612277 -0.00035661488 0.00014564386 -3.7222602e-05
0.0001133313 0.0003090296 -0.00055739336 -3.551883e-05 -0.00013707462 0.00013525151 7.0284523e-06 -0.0006855423
-0.0002572284 -0.0005381074 0.00065816334 0.00018423889 0.00031845376 0.00013199187 -7.035096e-05 0.0002951625
-0.00020717701 8.651577e-05 0.0002452089 -2.807155e-05 -9.885501e-05 -6.322504e-05 0.00016130024 -0.00039087862
-7.651823e-05 -0.00020849949 -0.00018941631 -0.00034454785 -0.0006419818 -0.00019500984 6.288983e-05 -1.2900232e-06
-9.249692e-05 -0.00050546793 -0.00045178362 0.00052368233 0.00032064688 0.00032050934 0.00021721241 0.000383463
0.00022210278 0.00019240931 0.00013799407 -4.8626298e-05 4.3557317e-05 -2.527601e-05 -0.00014022154 -0.00022185082
-0.0003385717 7.412639e-05 -0.0002025886 4.655666e-05 -0.00011344772 -0.00039333527 -0.00033094152 -0.00037949815
-0.000482271 -0.00023410544 0.00013376557 2.6114747e-05 7.892758e-05 7.094138e-05 -2.5827756e-05 -2.4795529e-05
1.7593642e-05 8.773975e-05 9.440229e-05 1.7213219e-05 -2.6124573e-05 4.2232878e-05 -4.0734685e-06 0.00011787227
3.078789e-05 -1.91861e-05 -4.6411114e-06 -1.1238356e-05 5.1972198e-05 4.118272e-05 -2.6556067e-05 -1.8330364e-05
-7.8567955e-06 1.0930448e-07 2.9132942e-05 3.8730774e-05 2.9515559e-06 0.0005619989 0.00047360364 7.433632e-05
0.00028799646 7.422014e-05 0.00017414182 0.0002792538 1.2076397e-05 -8.982452e-05 4.9766873e-05 -0.00012837489
-9.223067e-05 -0.00011471414 -0.0002465482 -7.8182704e-05 -0.00033268737 1.7829278e-05 -6.808365e-05 -0.00021894241
-0.00024756574 -0.00014228269 -0.00023090572 -0.00022754475 -0.00015979267 -0.0003238274 0.00080983504 0.0004771777
0.00065503153 0.00020872065 0.00014357895 0.00013188082 0.00018775625 0.00012339803 0.00028491762 -0.00015186895
-2.8666042e-05 -1.9976655e-05 -0.000283863 -0.00048402668 -0.00022264797 -0.00011564115 -0.0001027466 -0.00044498846
-0.0010179441 -0.00076341256 -0.00030037016 -0.00011660567 0.00013801236 -0.0006221008 -0.00065090857 8.4059924e-05
0.00020247696 0.00028540075 0.00038467767 -5.360871e-05 0.00026105426 -0.000120041936 -0.00016231576 -7.6525226e-05
-6.68362e-05 0.00018258329 -0.0002638777 -0.0009892981 0.00021363849 -4.8169048e-05 0.0003122997 -0.00059913937
-0.0010776272 -0.0002970485 -0.00014589705 0.00034764214 -0.00014263268 -0.0007800151 -0.00088972034 -0.0004160029
4.143039e-05 0.00023160859 0.00012250444 -3.0760555e-05 4.034005e-05 0.00019577362 0.00031473805 0.00025657448
7.376253e-05 0.00012185756 0.00022315081 0.0002912875 0.0003376304 0.00017897526 0.00011978926 0.00028991696
0.00022888112 0.00023145806 0.00020989544 0.000110935165 -2.3565679e-05 -6.3247884e-05 7.345989e-05 5.2792788e-05
-3.6201939e-06 0.00022992036 0.00018735194 0.00022044181 0.00013708645 3.314305e-05 6.7123015e-05 1.0108243e-05
4.0361396e-05 2.1026586e-05 7.633249e-05 -0.00011068267 -4.269323e-05 3.3438693e-05 -6.902872e-05 -4.9043474e-06
5.8645637e-06 4.0086692e-05 4.1375217e-05 -6.399547e-05 -9.072894e-05 -7.048515e-05 -7.8511985e-05 5.4917953e-05
-2.0154866e-05 -1.7844717e-05 0.00032005663 0.00025651098 0.00042953395 0.0003096995 3.827347e-06 0.00013637081
00000000: ba00 1fb8 3539 a8b7 9829 4f38 caab 2d38
00000010: 166e ddb6 b2cd 1e38 f758 7237 9ea9 4138
00000020: 7d16 f537 6756 bb37 a3b1 3639 8d6b 0c39
00000030: 9661 b238 fe25 d438 2531 c438 810f 5339
00000040: 5e71 0939 a7a9 c1b6 02e8 19b8 bdc1 dc37
00000050: 3baa c838 b8c4 5138 afde a3b7 c601 75b8
00000060: 534e c336 c44e 8338 1d71 113a bc47 1ab9
00000070: 1854 9039 5e3a 1239 be83 c538 b55a 0c3a
00000080: eb16 b8b9 7f7f 9639 4174 a837 0796 9137
00000090: 3b0f 2939 0af8 bab9 fab7 1839 771f 1cb8
000000a0: 47ac ed38 4005 a239 091e 12ba 0efa 14b8
000000b0: b0bb 0fb9 4dd2 0d39 f2d5 eb36 f7b5 33ba
000000c0: 9ddc 86b9 c70f 0dba 9888 2c3a 4030 4139
000000d0: 24f6 a639 4c67 0a39 6289 93b8 0ac0 9a39
000000e0: a83d 59b9 cd6f b538 628f 8039 327b ebb7
000000f0: 6150 cfb8 af97 84b8 b422 2939 d7ee ccb9
00000100: 6978 a0b8 a8a0 5ab9 0e9e 46b9 6ea4 b4b9
00000110: ab4a 28ba 8e7b 4cb9 b8e3 8338 dc24 adb5
00000120: e8fa c1b8 6181 04ba 5fdd ecb9 ba47 093a
00000130: 7f1c a839 090a a839 83c3 6339 880b c939
00000140: 43e4 6839 7bc1 4939 80b2 1039 17f4 4bb8
00000150: 50b1 3638 d107 d4b7 6f08 13b9 a0a0 68b9
00000160: 5382 b1b9 4d74 9b38 f76d 54b9 d545 4338
00000170: c8ea edb8 9138 ceb9 3882 adb9 61f7 c6b9
00000180: 51d9 fcb9 337a 75b9 6c43 0c39 fe10 db37
00000190: ec85 a538 5dc6 9438 afa8 d8b7 feff cfb7
000001a0: 0f96 9337 eb00 b838 d8f9 c538 1b65 9037
000001b0: 1826 dbb7 3523 3138 d4ae 88b6 3132 f738
000001c0: 3f22 0138 d6f1 a0b7 d8ba 9bb6 5f8c 3cb7
000001d0: b9fc 5938 9cbb 2c38 b8c4 deb7 28c4 99b7
000001e0: aed0 03b7 c6ba ea33 8462 f437 da72 2238
000001f0: 5813 4636 1c53 133a 014e f839 02e5 9b38
00000200: 3bfe 9639 a2a6 9b38 d799 3639 d068 9239
00000210: bb9b 4a37 2c60 bcb8 c6bc 5038 5f9c 06b9
00000220: f76b c1b8 af92 f0b8 2443 81b9 05f6 a3b8
00000230: 8b6c aeb9 1590 9537 22c8 8eb8 e893 65b9
00000240: b6cb 81b9 b831 15b9 481f 72b9 1499 6eb9
00000250: 058e 27b9 61c7 a9b9 1c4b 543a b52d fa39
00000260: 6cb6 2b3a 06dc 5a39 ae8d 1639 7d49 0a39
00000270: 6fe0 4439 6864 0139 ff60 9539 033f 1fb9
00000280: db77 f0b7 8a93 a7b7 72d3 94b9 f6c4 fdb9
00000290: 9c76 69b9 5f84 f2b8 a979 d7b8 574d e9b9
000002a0: 896c 85ba c01f 48ba 007b 9db9 318a f4b8
000002b0: 69b7 1039 7a14 23ba bca1 2aba 5449 b038
000002c0: ff4f 5439 d7a1 9539 90ae c939 ead9 60b8
000002d0: 1cde 8839 06bf fbb8 4e33 2ab9 2b7c a0b8
000002e0: 692a 8cb8 d473 3f39 1159 8ab9 56ab 81ba
000002f0: 2504 6039 1f09 4ab8 28bc a339 900f 1dba
00000300: 2b3f 8dba 2dbd 9bb9 f1fb 18b9 bd43 b639
00000310: ab8f 15b9 ed79 4cba 1f3c 69ba f71a dab9
00000320: 8bc5 2d38 f5db 7239 8974 0039 e504 01b8
00000330: cd32 2938 9548 4d39 6d03 a539 d884 8639
00000340: f5b0 9a38 c88d ff38 97fd 6939 f2b7 9839
00000350: fc03 b139 4eab 3b39 5f37 fb38 ffff 9739
00000360: cfff 6f39 8db3 7239 6117 5c39 dda5 e838
00000370: e9ae c5b7 f3a3 84b8 7a0e 9a38 d36d 5d38
00000380: 75f2 72b6 c716 7139 e773 4439 6626 6739
00000390: ddbe 0f39 1403 0b38 65c4 8c38 9396 2937
000003a0: b849 2938 4062 b037 b214 a038 4e1e e8b8
000003b0: 8211 33b8 8640 0c38 83c3 90b8 0690 a4b6
000003c0: 38c8 c436 c222 2838 4d8a 2d38 4e35 86b8
000003d0: bb45 beb8 6dd1 93b8 cda6 a4b8 b457 6638
000003e0: 3f12 a9b7 3db1 95b7 46cd a739 527c 8639
000003f0: 1233 e139 2a5f a239 a96c 8036 c3fe 0e39
