oracle/train/non-iid/checkpoint/fmnist/ckpt_1_0.pth (torch, 358777 bytes, 34 tensors)

layer1.0.weight f4 [16, 1, 5, 5]
0	0xbe9b8aa9	-0.30379227
1	0x3d982b82	0.074301735
2	0x3e906a0c	0.28205907
3	0x3e32228a	0.17395988
4	0x3d89dc9c	0.06731531
5	0xbd7b4bf3	-0.061351728
6	0x3d786991	0.06064755
7	0x3e57c0e3	0.21069674
8	0x3e1901e4	0.14942127
9	0x3dc4368b	0.09580716
10	0x3d876e6d	0.06612859
11	0x3dcb1fd2	0.099181786
12	0x3ea540bd	0.32275954
13	0x3eb63623	0.35588178
14	0x3ec051c8	0.37562394
15	0xbdfb7f56	-0.12280147
16	0x3d971b7f	0.07378291
17	0x3e720928	0.23636305
18	0x3d98508c	0.07437238
19	0x3ec2d7d2	0.38055283
20	0xbd940c8b	-0.07228955
21	0x3e8101d3	0.25196704
22	0x3e939ea7	0.2883198
23	0x3e896ead	0.2684225
24	0x3dcfc18b	0.10144337
25	0xbe99870a	-0.2998584
26	0xbb7dc224	-0.0038720453
27	0x3cd075a5	0.025446722
28	0x3ec9b814	0.39398253
29	0x3e2df019	0.16986121
30	0xbd1d1c4e	-0.03835707
31	0xbd93e959	-0.07222242
32	0x3dde09f2	0.10841741
33	0x3eb3fc33	0.3515335
34	0x3e1499e2	0.14511827
35	0xbd8e455f	-0.06946825
36	0xbd6ffe3c	-0.058592066
37	0x3d92d990	0.07170403
38	0x3ee45f18	0.446038
39	0x3e1381df	0.1440501
40	0xbe94c725	-0.29058185
41	0xbe8ce993	-0.27521953
42	0x3e1df68b	0.1542608
43	0x3ec3ab4a	0.3821662
44	0x3e9d4757	0.3071849
45	0x3de700a0	0.11279416
46	0xbe4926da	-0.19643727
47	0xbd457664	-0.04820861
48	0x3e86be01	0.26316836
49	0x3d123bf8	0.035701722
50	0xbde5e457	-0.11225193
51	0xbea92582	-0.3303643
52	0x3db671c5	0.089084186
53	0x3c6559ce	0.013998462
54	0xbf0c6dba	-0.5485493
55	0xbda1548d	-0.07877455
56	0xbd24f033	-0.040268134
57	0xbdba7bb0	-0.09105623
58	0xbeb64931	-0.35602716
59	0xbf239a02	-0.6390687
60	0x3e7209a3	0.23636489
61	0x3f1a24a1	0.6021214
62	0x3e9974d2	0.2997194
63	0xbde24770	-0.11048782
64	0xbdff33a2	-0.1246102
65	0x3dd6ea31	0.10493887
66	0xbe25689c	-0.16153187
67	0x3d95557f	0.07291698
68	0x3e058b2e	0.13041374
69	0x3e89969a	0.26872712
70	0xbd852f34	-0.06503144
71	0x3d74b700	0.059744835
72	0x3dd012ac	0.101598114
73	0x3de93f25	0.11388997
74	0xbd7c12a1	-0.061541203
75	0x3d0b97d8	0.034080356
76	0x3e61b089	0.22039999
77	0x3e0b2716	0.13589129
78	0x3d82f567	0.06394463
79	0x3e2aa1bc	0.1666326
80	0x3e681ec6	0.22667989
81	0x3e92b7a0	0.2865572
82	0x3e0d5eed	0.13805743
83	0x3eb17832	0.34662014
84	0xbe01fa6c	-0.12693185
85	0x3e490189	0.19629492
86	0x3e151330	0.145581
87	0xbd1db449	-0.03850201
88	0xbe620d95	-0.22075494
89	0xbd4c6dfb	-0.049909573
90	0xbe3ac9f8	-0.18241107
91	0xbeac0622	-0.3359843
92	0xbe7ba2d3	-0.24573831
93	0xbe9ea29e	-0.30983442
94	0x3dff2c6b	0.12459644
95	0xbe594399	-0.21217193
96	0xbe7fc0dc	-0.24975914
97	0xbe69a9c7	-0.22818671
98	0xbe4861b9	-0.19568528
99	0x3e884b66	0.26620024
100	0xbe7888b1	-0.24270894
101	0x3e7872f6	0.24262604
102	0x3e64b8ac	0.22336072
103	0xbc0bc598	-0.008530997
104	0x3ea79434	0.32730258
105	0x3e0c636e	0.13709804
106	0x3e0aa043	0.13537697
107	0x3e5e55fe	0.21712491
108	0x3e7eb86b	0.24875037
109	0x3e5719c7	0.21005927
110	0x3e27a469	0.16371311
111	0x3eac972a	0.3370908
112	0xbc2d1d5b	-0.010566081
113	0xbeb801c0	-0.35938835
114	0xba341a60	-0.0006870385
115	0xbe13c33e	-0.14429948
116	0xbe164f5e	-0.14678714
117	0x3d33563d	0.043783415
118	0xbef39326	-0.47573203
119	0xbddc43b4	-0.10755101
120	0x3d93526b	0.07193454
121	0xbe38513b	-0.17999737
122	0xbe96edb4	-0.29478228
123	0xbefccc1c	-0.49374473
124	0x3d9d6790	0.076857686
125	0x3d69c50d	0.057072688
126	0x3d883000	0.0664978
127	0xbd9c85c3	-0.076427005
128	0x3d9178c8	0.07103115
129	0x3e6fee69	0.2343079
130	0xbe3d7502	-0.18501666
131	0xbe28c15b	-0.1648001
132	0xbe52bf2d	-0.2058074
133	0x3eee5ded	0.46556035
134	0x3d9a7684	0.07542136
135	0xbe811aac	-0.25215662
136	0xbe3b5208	-0.18293011
137	0x3db53565	0.08848075
138	0xbbfc3099	-0.007696223
139	0x3ea2b521	0.31778815
140	0x3e997d67	0.29978487
141	0xbd8ff0fb	-0.07028385
142	0xbed0b6d4	-0.40764487
143	0xbd95ba0e	-0.07310878
144	0x3e8f77f5	0.28021207
145	0x3e88a864	0.26690972
146	0x3df4faf1	0.11961926
147	0xbec99c06	-0.3937685
148	0xbe0517d9	-0.12997378
149	0x3e128861	0.14309837
150	0x3db6ad71	0.089198
151	0x3d18fc0a	0.03734974
152	0xbe3394c5	-0.1753722
153	0x3dde6832	0.108597174
154	0x3d29339d	0.041308988
155	0xbde74b2a	-0.11293633
156	0x3d8015a5	0.06254128
157	0xbee6ce86	-0.4507944
158	0x3f085f11	0.5327006
159	0xbdaaec9b	-0.0834591
160	0xbd7f18f9	-0.062279675
161	0xbe7de9f5	-0.24796279
162	0xbe83dbc2	-0.257536
163	0x3f1be000	0.6088867
164	0xbe37f136	-0.17963108
165	0xbd0259ce	-0.031823926
166	0xbe5795c4	-0.21053225
167	0xbbe1763d	-0.00688055
168	0x3ea13d26	0.31491965
169	0xbdc9297f	-0.09822368
170	0x3dea009c	0.114258975
171	0x3cdcfe35	0.026976684
172	0xbe684b4f	-0.22684978
173	0x3e477ea0	0.19481897
174	0xbda42a9f	-0.08015942
175	0xbd93e73b	-0.07221838
176	0x3d12eebd	0.03587221
177	0x3e8690f3	0.26282462
178	0x3ea63cc7	0.32468244
179	0x3e2700f3	0.16308956
180	0x3d541c80	0.051784992
181	0xbd9938f6	-0.074815676
182	0xbd97470e	-0.073865995
183	0xbd50aefd	-0.05094813
184	0x3e90006c	0.28125322
185	0x3df2ae9e	0.11849712
186	0xbe1d08f5	-0.15335448
187	0xbe953096	-0.2913863
188	0xbeda5be9	-0.42648247
189	0xbdd910b1	-0.10598887
190	0x3e80798d	0.25092736
191	0xbed1e04e	-0.40991443
192	0xbf34cc82	-0.70624554
193	0xbf2966ac	-0.6617229
194	0xbea576e2	-0.32317263
195	0xbd931e26	-0.07183485
196	0x3e47c734	0.19509584
197	0xbdf7b5a0	-0.12095189
198	0xbea82c1c	-0.32846153
199	0xbdde756c	-0.1086224
200	0x3df6d0d0	0.120515466
201	0x3e062036	0.13098225
202	0x3e26a97c	0.1627559
203	0xbe04eebe	-0.12981698
204	0x3ea1f7de	0.3163442
205	0xbea88d90	-0.32920504
206	0xbe6024a8	-0.21888983
207	0xbe2a28b4	-0.1661709
208	0xbd69c409	-0.05707172
209	0x3ed22747	0.4104559
210	0xbe9a4214	-0.3012854
211	0xbed46038	-0.4147966
212	0x38f882dc	0.00011849936
213	0x3e14ebbd	0.14543052
214	0x3e2caa52	0.16861847
215	0xbc9e8063	-0.019348329
216	0x3e19a44a	0.15004078
217	0x3e81cc16	0.25351018
218	0x3e082569	0.13295521
219	0xbdb7d2d9	-0.08975763
220	0x3e280ba5	0.16410692
221	0x3d9c2135	0.07623521
222	0x3e240723	0.16018347
223	0x3e625031	0.22100903
224	0xbd8c16ac	-0.06840262
225	0xbe668dab	-0.2251498
226	0x3e3d280a	0.18472305
227	0x3e67a1e2	0.22620347
228	0x3ba7bf47	0.0051192376
229	0xbd4b5a91	-0.049646918
230	0x3dbb69c9	0.09151036
231	0xbd830dc7	-0.06399112
232	0xbb157483	-0.0022805042
233	0xbc94623c	-0.018113248
234	0x3ca87fda	0.020568777
235	0xbe3ab96a	-0.18234792
236	0x3dc0f3ad	0.094214775
237	0x3d7610ec	0.06007473
238	0x3d2cfe66	0.0422348
239	0x3d9dac83	0.076989196
240	0xbe0564f6	-0.13026795
241	0xbe8a5aec	-0.27022493
242	0xbec6914e	-0.38782734
243	0xbeaa0691	-0.33208135
244	0xbd6fd14f	-0.05854922
245	0x3e9b81f4	0.30372584
246	0xbebbdb44	-0.36690724
247	0xbf187a97	-0.5956206
248	0xbf07cd8c	-0.53048015
249	0xbe9819f7	-0.2970731
250	0xbea81f4b	-0.32836375
251	0xbe4188f8	-0.18899906
252	0x3d924424	0.07141903
253	0x3e014a19	0.12625922
254	0xbdfa0e89	-0.122098036
255	0xbe548a53	-0.20755892

layer1.0.bias f4 [16]
0	0xbd4dd084	-0.050247684
1	0x3d2e921e	0.042619817
2	0xbefac462	-0.48977953
3	0xbe3e03b5	-0.18556102
4	0xbdc3eea1	-0.09566999
5	0x3df16bcc	0.11788139
6	0x3ea9f970	0.33198118
7	0xbe0a3bae	-0.13499328
8	0x3e4f9a17	0.20273624
9	0xbd0791f6	-0.033098184
10	0x3db03174	0.086031824
11	0x3e87b109	0.26502255
12	0x3dde1069	0.10842974
13	0xbc6b37b2	-0.0143565405
14	0xbe876f8c	-0.2645229
15	0xbe931a0e	-0.28730816

layer1.1.weight f4 [16]
0	0x3f359f4d	0.709462
1	0x3f153978	0.58290815
2	0x3f76e5a5	0.9644416
3	0x3f46b30f	0.7761697
4	0x3f6a35e9	0.9148851
5	0x3f80b106	1.0054023
6	0x3fa07d1e	1.2538183
7	0x3fd90669	1.6955081
8	0x3f391f4f	0.723134
9	0x3f89abf0	1.0755596
10	0x3f958d12	1.1683676
11	0x3f635e0a	0.8881537
12	0x3f5ec006	0.87011755
13	0x3fc6185d	1.5476185
14	0x3f149e2b	0.58053845
15	0x3fa4a370	1.2862377

layer1.1.bias f4 [16]
0	0xbe34e04c	-0.17663687
1	0xbe29f86a	-0.16598669
2	0xbe8f9896	-0.280461
3	0xbe07039a	-0.13184968
4	0xbde5cde5	-0.11220912
5	0xbdc48415	-0.09595505
6	0x3d0ade45	0.03390338
7	0xbf24e58e	-0.6441277
8	0xbed36cfc	-0.41294086
9	0xbf03fdf0	-0.5155935
10	0xbe1be7de	-0.15225169
11	0xbd50d7d9	-0.0509871
12	0x3e1f749e	0.1557183
13	0xbf02a96d	-0.51039773
14	0xbedbb8c9	-0.42914417
15	0xbf0833fb	-0.53204316

layer1.1.running_mean f4 [16]
0	0x3fec597f	1.8464812
1	0x3f68a4ab	0.90876263
2	0xbf2d7aaa	-0.67765296
3	0xbe54e009	-0.20788588
4	0xbe14349b	-0.14473192
5	0x3e7fdc94	0.24986488
6	0x3e46ddf4	0.19420606
7	0xbf9ce036	-1.2255924
8	0x3f33f983	0.703026
9	0xbfa738aa	-1.3064167
10	0xbddf1549	-0.10892732
11	0x3f2266c3	0.6343805
12	0xbd48c953	-0.049020123
13	0xbfbadbb4	-1.4598298
14	0x3fa8891f	1.3166846
15	0xc0025b9b	-2.0368412

layer1.1.running_var f4 [16]
0	0x41444f37	12.26934
1	0x4096123e	4.689727
2	0x3fc70ba2	1.5550425
3	0x3f9bca36	1.2171085
4	0x3fb5eb0b	1.4212354
5	0x3f690104	0.91017175
6	0x3f41a496	0.75641763
7	0x40c17fc9	6.046849
8	0x3fc4a815	1.5363795
9	0x40c26b69	6.0756116
10	0x3f16dd90	0.5893183
11	0x3f8d13f9	1.102172
12	0x3f748398	0.95513296
13	0x41204307	10.016364
14	0x4107deed	8.491925
15	0x4133724f	11.215407

layer2.0.weight f4 [32, 16, 5, 5]
0	0x3dbde1c5	0.09271578
1	0x3df25a92	0.11833681
2	0x3d9fc207	0.0780068
3	0x3d775603	0.06038476
4	0x3cec08b9	0.028812753
5	0x3d48ecb9	0.04905388
6	0x3d7be1a5	0.06149449
7	0x3daf5e9d	0.08562968
8	0x3d1e8377	0.038699593
9	0x3d923b7d	0.07140253
10	0x3e500714	0.203152
11	0x3e5bfd4a	0.21483341
12	0x3e1f1f56	0.15539297
13	0x3dd168b7	0.10225051
14	0x3e0167cc	0.12637252
15	0x3e68e503	0.22743611
16	0x3e4ea7d8	0.20181215
17	0x3e03b970	0.12863708
18	0x3e1838a6	0.1486536
19	0x3d98b83c	0.07457015
20	0x3d8ac304	0.067754775
21	0x3e3a28ed	0.18179674
22	0x3e38f227	0.18061124
23	0x3e07ce7b	0.1326236
24	0x3d714685	0.058905143
25	0x3d87eaf2	0.06636609
26	0xbca64859	-0.02029817
27	0xbd328ae5	-0.04358949
28	0xbd2058b1	-0.039147083
29	0xbd0c1628	-0.034200817
30	0x3d99ac95	0.075036205
31	0xbdc21282	-0.09476186
32	0xbb8ba200	-0.0042612553
33	0x3dc44167	0.09582787
34	0xbd5b6d78	-0.053571194
35	0x3e13379f	0.14376687
36	0xbd74c183	-0.05975486
37	0x3d255ea9	0.040373478
38	0x3ddb2654	0.1070067
39	0xbdd662e2	-0.10468079
40	0x3e3897bc	0.18026632
41	0xbd2abdff	-0.0416851
42	0x3e047442	0.12934974
43	0x3e578219	0.21045722
44	0xbd5b693e	-0.053567164
45	0x3dd01b76	0.10161488
46	0xbb3a85e5	-0.0028461155
47	0x3c768d7c	0.015048381
48	0x3de013ec	0.109413
49	0xbd48c830	-0.04901904
50	0x3e0ad218	0.13556707
51	0x3df10d6b	0.117701374
52	0x3e3bd1df	0.18341778
53	0x3e7689ae	0.24075958
54	0x3e9aa220	0.30201817
55	0xbd411723	-0.047141206
56	0xbbf9e53d	-0.0076262043
57	0x3da8b27f	0.082371704
58	0x3d853ad4	0.06505361
59	0x3e20cb4a	0.15702549
60	0x3ebebef7	0.3725507
61	0x3ea3c941	0.31989482
62	0x3e8c290e	0.27375072
63	0x3e829028	0.25500607
64	0x3e97c685	0.29643646
65	0x3adf35fc	0.0017029638
66	0x3cabf2ad	0.02098974
67	0x3df3dd94	0.11907497
68	0x3d2b8d79	0.041882966
69	0x3e336c7c	0.17521852
70	0xbdef9210	-0.11697781
71	0xbddacacc	-0.10683212
72	0xbcda8185	-0.026673088
73	0x3d8b0a21	0.06789041
74	0x3ddba3ad	0.10724578
75	0xbd9b8b22	-0.07594897
76	0xbc0c2241	-0.008553089
77	0x3d80a53d	0.06281517
78	0x3e2b263f	0.16713808
79	0xbe4e540f	-0.20149253
80	0x3d649b80	0.05581236
81	0xbcc0ac73	-0.02351973
82	0x3d4af603	0.04955102
83	0x3daa28ca	0.08308561
84	0xbe8b9479	-0.27261713
85	0xbdc1dc32	-0.09465827
86	0x3d6265f1	0.055273
87	0x3ddfcd3a	0.10927816
88	0x3e9ac8a0	0.3023119
89	0xbd870965	-0.06593589
90	0x3e1c5244	0.15265757
91	0x3eae8021	0.3408213
92	0x3eb1fcf3	0.34763297
93	0x3e38ffe3	0.18066363
94	0x3d7c6cfb	0.06162737
95	0x3e22a3e4	0.15882832
96	0x3e4d13fa	0.20027152
97	0x3e11a62d	0.14223547
98	0x3e355806	0.1770936
99	0x3db4923d	0.08816955
100	0xbe0f1e30	-0.1397636
101	0xbd9f47eb	-0.07777389
102	0xbd951778	-0.07279867
103	0xbdd48108	-0.10376173
104	0xbe41a291	-0.1890967
105	0xbe1dac7c	-0.15397829
106	0xbddc7f4f	-0.1076647
107	0xbd9fb9f1	-0.077991374
108	0xbde55d7d	-0.11199472
109	0xbdda85ab	-0.106700264
110	0xbe6ec06f	-0.23315595
111	0xbdb2423b	-0.08704039
112	0xbc907198	-0.01763229
113	0x3c52934a	0.012852499
114	0x3dc3f558	0.0956828
115	0x3c6f4379	0.014603489
116	0x3e2d364b	0.16915242
117	0x3e179873	0.14804249
118	0x3d94e9af	0.07271134
119	0x3de480ac	0.11157355
120	0x3e255375	0.16145118
121	0x3e088f66	0.13335952
122	0xba1544d4	-0.0005694155
123	0x3e41080d	0.18850727
124	0x3dfae423	0.12250545
125	0xbe3b254c	-0.18275946
126	0xbe3ee7e1	-0.18643142
127	0xbc21ca55	-0.0098749
128	0xbd28ae86	-0.041182064
129	0x3e019fa9	0.12658562
130	0xbe90d46a	-0.2828706
131	0xbe31f6a7	-0.17379247
132	0xbe1f5882	-0.15561107
133	0xbca9ed2f	-0.02074298
134	0xbdb52c88	-0.08846384
135	0xbea4c26f	-0.3217959
136	0xbec47aac	-0.3837484
137	0xbe7a7cd1	-0.24461676
138	0x3da08b1e	0.078390345
139	0xbe2d711e	-0.16937682
140	0xbe35586c	-0.17709512
141	0xbe9d90b1	-0.30774453
142	0xbe363cb9	-0.17796601
143	0x3c5348f4	0.012895811
144	0xbdae62a2	-0.085149065
145	0xbe064017	-0.13110386
146	0xbe85360e	-0.26017803
147	0xbe3ab326	-0.18232402
148	0xbe542548	-0.20717347
149	0xbe0c7c74	-0.1371935
150	0xbcd813eb	-0.026376685
151	0xbe8f53c6	-0.27993602
152	0x3c1e58a1	0.009664685
153	0x3e22e3b0	0.15907168
154	0x3dab1b02	0.08354761
155	0xbe913518	-0.2836082
156	0xbedb65d3	-0.42851123
157	0xbe447ced	-0.1918828
158	0x3e08e35b	0.13367979
159	0xbdbda341	-0.09259654
160	0xbe93e23f	-0.2888355
161	0xbee23760	-0.44182873
162	0xbe61244b	-0.21986501
163	0x3e312bcb	0.17301862
164	0xbe014b59	-0.12626399
165	0xbe8f71ac	-0.28016412
166	0xbeb71378	-0.3575704
167	0xbeaa9ef4	-0.33324397
168	0x3e86d424	0.26333725
169	0x3d80d9e0	0.06291556
170	0xbeb45e71	-0.35228303
171	0xbe9e6d3e	-0.3094272
172	0xbe48c65d	-0.1960692
173	0x3cc62423	0.024187153
174	0xbdb60d54	-0.08889261
175	0xbd4ce261	-0.05002058
176	0xbdf7051c	-0.120615214
177	0xbe400500	-0.18751907
178	0xbe802e05	-0.2503511
179	0xbda39dd7	-0.0798909
180	0xbe134e2e	-0.14385292
181	0xbe69a299	-0.22815932
182	0xbec0b9b2	-0.37641674
183	0xbebf2640	-0.3733387
184	0xbe9c6efc	-0.30553424
185	0xbe39edce	-0.18157122
186	0xbe455c82	-0.1927357
187	0xbe6e1c7a	-0.2325305
188	0xbe88b55c	-0.26700866
189	0xbe81024f	-0.25197074
190	0x3dd46d86	0.103724524
191	0xbd9d5599	-0.07682342
192	0xbe0e246f	-0.13881086
193	0xbe594815	-0.21218903
194	0xbdebd989	-0.11516101
195	0xbdaa63b9	-0.08319802
196	0xbda37603	-0.07981493
197	0xbe2f9bae	-0.17149231
198	0xbe95b09c	-0.29236305
199	0xbdcf9f5e	-0.10137819
200	0xbdb2f0ae	-0.08737312
201	0xbc98ef7e	-0.018668886
202	0x3db860e3	0.09002855
203	0x3ce13de0	0.027495325
204	0x3e3cb5dd	0.1842875
205	0xbdac4a0f	-0.08412563
206	0xbdd1e237	-0.10248225
207	0xbdb8d3b8	-0.09024757
208	0x3c375129	0.011188784
209	0x3d4e518c	0.050370738
210	0x3c70a43f	0.014687597
211	0xbd65acb6	-0.056072913
212	0x3db8241c	0.08991262
213	0xbdd422c4	-0.103581935
214	0xbdc36ad8	-0.09541863
215	0xbda71e61	-0.08160091
216	0xbd36b786	-0.044608615
217	0x3e1b3181	0.15155603
218	0xbcc78d19	-0.024359273
219	0xbe780bd4	-0.24223262
220	0x3d812003	0.06304934
221	0x3d889e5b	0.06670829
222	0x3db1b228	0.08676559
223	0xbe0bbbd7	-0.13645874
224	0xbe746453	-0.23866396
225	0xbcd25033	-0.025673008
226	0xbdb76cc5	-0.08956293
227	0xbe3d408f	-0.18481658
228	0xbe6dd77c	-0.23226732
229	0xbe8adaa7	-0.27119943
230	0xbdb03367	-0.08603554
231	0xbe372c90	-0.17888093
232	0xbea2ca70	-0.31795073
233	0xbece22fd	-0.4026107
234	0xbe9b4b1b	-0.30330738
235	0x3e3a8c91	0.18217684
236	0xbdaaf0d7	-0.08346718
237	0xbe427ede	-0.18993708
238	0xbe226cb8	-0.15861785
239	0xbe0e9454	-0.1392377
240	0x3e99be2b	0.300279
241	0x3e0d8ae8	0.1382252
242	0x3cecaf7f	0.028892277
243	0xbd9b4f66	-0.075835034
244	0x3b4cc5c4	0.0031245807
245	0xbd9b9b37	-0.07597964
246	0xbda305fd	-0.079601265
247	0xbd1eab73	-0.038737725
248	0xbd9d22d9	-0.07672662
249	0x3b4ee858	0.0031571593
250	0xbd0c317f	-0.03422689
251	0x3c28a13e	0.010292349
252	0xbd14ba31	-0.03631038
253	0x3d49f40a	0.049305
254	0x3da881b5	0.08227865
255	0xbe86a84d	-0.26300278

layer2.0.bias f4 [32]
0	0xbd9c30e4	-0.07626513
1	0xbdff5db5	-0.12469045
2	0xb70e53e0	-8.483388e-06
3	0xbdb3c032	-0.08776893
4	0xbe0f206e	-0.13977215
5	0x3d2ec0b0	0.04266423
6	0x3dabff47	0.083983
7	0x3cb8c13f	0.022553084
8	0x3bdc05b4	0.006714547
9	0x3d8c8c2b	0.068626724
10	0x3d6f019f	0.058351155
11	0xbe5f72eb	-0.21821181
12	0x3da58d96	0.08083646
13	0x3d84ee51	0.06490768
14	0x3cd08e26	0.025458407
15	0xbe68ac2b	-0.22721927
16	0x3d00bff5	0.031433064
17	0xbc7884d6	-0.015168389
18	0x3e520598	0.20509946
19	0x3e061a69	0.13096012
20	0x3daacebd	0.083402134
21	0xbdbbc2ea	-0.09168036
22	0x3c331763	0.010930869
23	0xbcca8a4b	-0.024724146
24	0xbd0cc56d	-0.034367967
25	0xbded872b	-0.11598047
26	0x3d83f49a	0.064431384
27	0x3db28491	0.08716691
28	0x3c435430	0.011921927
29	0x3cef20f0	0.02919051
30	0x3d86e3a0	0.06586385
31	0xbde63ea8	-0.112424195

layer2.1.weight f4 [32]
0	0x3efab338	0.48964858
1	0x3f04308d	0.5163658
2	0x3ec49df1	0.3840175
3	0x3f1a0be7	0.6017441
4	0x3f3ff65f	0.7498531
5	0x3e9a8a36	0.30183572
6	0x3ee45e06	0.44602984
7	0x3ebb5f98	0.3659637
8	0x3ea718e1	0.3263617
9	0x3e9fc0fe	0.3120193
10	0x3f056d37	0.52119774
11	0x3f22f9c9	0.6366239
12	0x3f288caf	0.65839666
13	0x3f1941b0	0.59865856
14	0x3eec7ff2	0.46191365
15	0x3f0e8fa4	0.5568793
16	0x3f4605eb	0.7735278
17	0x3f14f048	0.5817914
18	0x3f21338a	0.6296927
19	0x3ed1418c	0.4087032
20	0x3f270eac	0.6525676
21	0x3f11f317	0.5701155
22	0x3f0a3fbc	0.540035
23	0x3ef27d64	0.4736129
24	0x3f050802	0.51965344
25	0x3f15c827	0.58508533
26	0x3ed89a26	0.42305106
27	0x3f06f87e	0.5272292
28	0x3f09d05b	0.5383355
29	0x3f237bec	0.63860965
30	0x3f09d516	0.5384077
31	0x3e8d51f4	0.27601588

layer2.1.bias f4 [32]
0	0xbefa8fab	-0.48937735
1	0xbf0247a0	-0.5089054
2	0xbf00c0e8	-0.5029435
3	0xbf0b8b74	-0.54509664
4	0xbeff35e6	-0.4984581
5	0xbf13b1fe	-0.5769347
6	0xbf092706	-0.5357517
7	0xbef7e9f5	-0.48420683
8	0xbf00efca	-0.5036589
9	0xbf15e8dd	-0.58558446
10	0xbf11af7b	-0.56908387
11	0xbeb93f38	-0.36181045
12	0xbefe6d21	-0.49692634
13	0xbef16bf2	-0.47152668
14	0xbf00c7e6	-0.5030502
15	0xbf074f25	-0.5285514
16	0xbf00a958	-0.502584
17	0xbf06ff69	-0.52733475
18	0xbef3f7a0	-0.4764986
19	0xbf0f3999	-0.5594726
20	0xbf013f41	-0.5048714
21	0xbefa3099	-0.48865202
22	0xbf19721a	-0.5993973
23	0xbef63f22	-0.48095042
24	0xbef86e1a	-0.485215
25	0xbf0b9dbe	-0.5453757
26	0xbf0ad993	-0.5423824
27	0xbedf47d5	-0.4360949
28	0xbf09d80e	-0.538453
29	0xbefa0233	-0.48829803
30	0xbeebd262	-0.46058947
31	0xbf116e64	-0.5680907

layer2.1.running_mean f4 [32]
0	0xc112b537	-9.169242
1	0xbdb44c53	-0.0880362
2	0xc095fdc7	-4.6872287
3	0xbfdbaba8	-1.716176
4	0xc1076f91	-8.464738
5	0x40df0a27	6.9699893
6	0xc095f40e	-4.686042
7	0x3f8b825a	1.0899155
8	0x410ad14d	8.676099
9	0xc0dcec44	-6.903841
10	0xc110d8ef	-9.052962
11	0xc094e236	-4.6526136
12	0xc1406013	-12.023456
13	0xbf111b8b	-0.5668265
14	0xc0d05585	-6.5104394
15	0xc016beaf	-2.3553884
16	0x3f62e760	0.886343
17	0xc0419801	-3.0249026
18	0xc051da04	-3.2789316
19	0xbf8da493	-1.1065849
20	0xc1014386	-8.078985
21	0xc0877867	-4.2334476
22	0xc096e858	-4.7158623
23	0xc117453a	-9.454401
24	0xc10b3256	-8.699789
25	0xc0d8d796	-6.7763166
26	0xc08ff592	-4.498727
27	0xc0d210bc	-6.564543
28	0xc08a3e6b	-4.3201194
29	0xc129a3d1	-10.602494
30	0xc0b1685d	-5.5439897
31	0xbf0fbb53	-0.5614521

layer2.1.running_var f4 [32]
0	0x420ee367	35.722073
1	0x4220d4cc	40.20781
2	0x41db1c0b	27.388693
3	0x4234f13c	45.23558
4	0x42591450	54.269836
5	0x41fc36e1	31.526796
6	0x42028889	32.633335
7	0x41f92a32	31.145603
8	0x421f7cbb	39.871807
9	0x4210301c	36.04698
10	0x428a1028	69.031555
11	0x422ffa9a	43.994728
12	0x4266d0f5	57.70406
13	0x4236ae2b	45.670086
14	0x41cfa497	25.955366
15	0x428037e0	64.10913
16	0x42022c0c	32.543015
17	0x42477c8e	49.871635
18	0x420a2d5a	34.54429
19	0x4202d330	32.706238
20	0x422f5cba	43.840553
21	0x42afdde9	87.93342
22	0x41bf4de8	23.91304
23	0x4250d2b2	52.205757
24	0x4208662e	34.099785
25	0x42434bc5	48.823994
26	0x4288b6bc	68.3569
27	0x4214ce2c	37.20134
28	0x41f720f4	30.89109
29	0x426b05b5	58.755573
30	0x41ef1873	29.886938
31	0x42028aa6	32.6354

fc.weight f4 [10, 1568]
0	0x3d9a7491	0.075417645
1	0xbd5771af	-0.05259865
2	0xbc00eb6d	-0.00786863
3	0x3c3603e3	0.011109325
4	0x3dfb2503	0.12262919
5	0x3cab944f	0.020944742
6	0xbdc9dcd9	-0.098565765
7	0x3db309e0	0.08742118
8	0x3da2c696	0.079480335
9	0xbe168223	-0.1469808
10	0xbd6b9cfe	-0.057522766
11	0x3c8c2070	0.017105311
12	0x3d55f404	0.052234665
13	0x3debdd5b	0.115168296
14	0xbcd882bf	-0.026429532
15	0x3e1c5b4b	0.152692
16	0xbd98ad87	-0.07454973
17	0x3d9b3c4f	0.07579862
18	0xbe602311	-0.21888377
19	0xbdfe1a32	-0.1240734
20	0xbdfd31da	-0.12363024
21	0xbde1a8d8	-0.110185325
22	0x3de2ae18	0.11068362
23	0x3be72462	0.0070538977
24	0x3d02fca8	0.031979233
25	0xbe8f6bfd	-0.28012076
26	0xbe4b96de	-0.1988177
27	0xbe0c5883	-0.1370564
28	0x3dfafb1c	0.122549266
29	0xbe644258	-0.22290933
30	0x3c9b1404	0.018930443
31	0x3d8f2e15	0.06991211
32	0xbd804d65	-0.06264762
33	0xbe456602	-0.19277194
34	0xbe50e9d9	-0.20401706
35	0xbe7b66a2	-0.2455087
36	0xbd419b9d	-0.047267545
37	0x3e5860d9	0.21130694
38	0x3e22b904	0.1589089
39	0x3e16ceec	0.14727372
40	0xbdc009a3	-0.09376838
41	0xbd2fc7af	-0.042915042
42	0xbd35c414	-0.044376448
43	0x3dca5b1b	0.09880658
44	0x3e9bf51a	0.30460435
45	0x3e31af3c	0.17352003
46	0x3e74a624	0.23891503
47	0xbe10f9ee	-0.1415784
48	0xbd6c3f12	-0.057677336
49	0xbd26fd6a	-0.04076902
50	0xbe0b13a6	-0.13581714
51	0x3b6c7530	0.0036080591
52	0xbcaa5c1f	-0.02079588
53	0xbdb734dc	-0.08945629
54	0x3df9b43d	0.12192581
55	0x3da92d64	0.08260611
56	0xbdb143ff	-0.08655547
57	0x3c493441	0.012280525
58	0x3cc4dc92	0.024030957
59	0xbdc99b6a	-0.09844096
60	0xbca7b378	-0.02047132
61	0xbd16279b	-0.036658864
62	0xbd1ae7ed	-0.037818838
63	0x3e2439fa	0.16037741
64	0xbe99f443	-0.3006917
65	0xbdae7894	-0.08519092
66	0xbe2e8bea	-0.1704556
67	0xbd90ae94	-0.07064548
68	0xbdd01ac1	-0.10161353
69	0xbc9965e7	-0.018725349
70	0x3e0c18bf	0.13681315
71	0x3c5291be	0.01285213
72	0xbe7aad6c	-0.24480218
73	0xbd915ef9	-0.07098193
74	0xbbbacc48	-0.0057006218
75	0x3d275b95	0.040858824
76	0x3e0f6914	0.14004928
77	0xbc823f08	-0.015899196
78	0x3e290f7c	0.16509813
79	0xbe094e04	-0.13408667
80	0xbe0cf95d	-0.13767
81	0x3c8b1be6	0.016981076
82	0x3da25f4c	0.07928333
83	0x3df84c78	0.1212396
84	0x3de1859d	0.11011813
85	0x3e1dad5c	0.15398163
86	0xbdd05901	-0.10173226
87	0xbde74c54	-0.11293855
88	0xbe1ab846	-0.15109357
89	0xbc9b5c42	-0.01896489
90	0x3c558be0	0.013033837
91	0x3dc1a0bf	0.09454488
92	0xbd5b259f	-0.053502675
93	0xbeaf2d80	-0.342144
94	0xbe6423bc	-0.22279257
95	0xbda2e70a	-0.079542235
96	0x3c121165	0.00891528
97	0xbcbb4317	-0.02285914
98	0xbd8f0438	-0.069832265
99	0xbdb053be	-0.086097226
100	0xbd8d7aca	-0.06908186
101	0x3b1e28a9	0.0024133122
102	0x3eb39277	0.3507268
103	0xbd91a149	-0.07110841
104	0xbe83af42	-0.2571965
105	0x3db73f2d	0.08947597
106	0x3d0eaa37	0.0348303
107	0xbd97523c	-0.07388732
108	0x3cf96deb	0.03044792
109	0x3e6ec660	0.23317862
110	0x3db96c1f	0.090538256
111	0xbdc81554	-0.09769693
112	0x3d7656f8	0.060141534
113	0xbd2bf1fc	-0.04197882
114	0xbd273732	-0.040824123
115	0xbd65d3c0	-0.056110144
116	0x3def749b	0.116921626
117	0x3dcb2e4b	0.09920939
118	0x3c9a8f2b	0.018867096
119	0x3b4233a8	0.002963284
120	0x3dd0ae6f	0.101895206
121	0x3de50000	0.111816406
122	0xbdd8fe2e	-0.10595356
123	0xbcf8a0dd	-0.030350143
124	0x3d432411	0.047641817
125	0xbe33cd9f	-0.17558907
126	0xbe3ed8ed	-0.18637438
127	0x3dcf5731	0.10124052
128	0xbd16ecd2	-0.036846943
129	0xbd6ff2e1	-0.058581237
130	0xbdab68a1	-0.08369566
131	0xbdfc07ab	-0.1230615
132	0xbe34d12e	-0.1765792
133	0xbe382421	-0.17982532
134	0x3db26da3	0.08712318
135	0xbd8a3cd5	-0.06749884
136	0xbc53b0a1	-0.01292053
137	0xbcd96a4b	-0.026539942
138	0xbe6832db	-0.2267565
139	0xbf0dffd2	-0.55468476
140	0xbe7879ec	-0.2426526
141	0xbe249ce4	-0.16075474
142	0xbe0836dd	-0.13302179
143	0xbcf80484	-0.03027559
144	0x3dee60b5	0.11639539
145	0xbd92a2bb	-0.071599446
146	0xbe80701c	-0.25085533
147	0xbd27235b	-0.040805202
148	0xbbfc1f24	-0.007694142
149	0xbced5c33	-0.028974628
150	0xbd43bb85	-0.047786254
151	0x3ea17efe	0.315422
152	0x3e460ac9	0.19340052
153	0x3df71132	0.120638266
154	0x3df56c23	0.11983516
155	0xbd54a798	-0.051917642
156	0x3dd44479	0.103646226
157	0xbb7ffd59	-0.003906092
158	0x3d4a274b	0.04935388
159	0x3d833407	0.06406408
160	0xbd525645	-0.051351804
161	0xbe00dda4	-0.12584549
162	0xbe24c700	-0.16091537
163	0xbd905a04	-0.07048419
164	0x3d4f7d03	0.05065633
165	0xbec62c87	-0.38705847
166	0xbed09e0d	-0.40745583
167	0x3b481a14	0.0030533122
168	0xbdc387d1	-0.09547389
169	0xbe78e4a4	-0.2430597
170	0xbdb5517b	-0.08853432
171	0xbe2db214	-0.16962463
172	0xbdcee2f7	-0.10101884
173	0x3c2ce969	0.010553696
174	0x3e0f4de7	0.13994561
175	0x3c7fd76f	0.015615328
176	0xbe256d2d	-0.16154929
177	0x3db1b931	0.086779006
178	0xbea0915f	-0.3136091
179	0xbcfc39f3	-0.030789351
180	0x3e407aef	0.18796895
181	0xbcbf4987	-0.02335049
182	0xbcaef6ce	-0.02135792
183	0xbbba73c8	-0.0056900717
184	0x3cdb894d	0.026798869
185	0xbea335f6	-0.31877106
186	0xbe47fa88	-0.19529164
187	0x3e12d269	0.14338078
188	0xbd85dfa3	-0.06536796
189	0xbc2d956d	-0.010594708
190	0x3d8cdf8b	0.06878575
191	0x3da40f00	0.080106735
192	0xbe278e36	-0.16362843
193	0x3d224e71	0.03962559
194	0x3e651fdf	0.22375439
195	0x3e0a7130	0.1351974
196	0xbc85351d	-0.016260678
197	0x3ea3bad2	0.3197847
198	0xbdf8e3c9	-0.121528216
199	0x3d96e51a	0.073679164
200	0x3ca5f51e	0.020258483
201	0x3e2f1384	0.17097288
202	0x398b8f38	0.00026618852
203	0x3dd1f679	0.10252089
204	0x3e5c0408	0.21485913
205	0x3d521a50	0.051294625
206	0xbd0a3dd2	-0.033750363
207	0x3d8f5d19	0.07000179
208	0x3ce6918f	0.02814558
209	0xbde044a2	-0.10950591
210	0x3d919615	0.07108704
211	0x3bb77e24	0.005599754
212	0x3d8667a2	0.06562735
213	0xbca9e178	-0.020737395
214	0x3e08a250	0.13343167
215	0x3d54facd	0.051996995
216	0xbd9b95e2	-0.07596947
217	0xbcb580cb	-0.02215614
218	0xbd1c1b66	-0.038112067
219	0xbdcd4d24	-0.10024479
220	0xbc718edf	-0.014743536
221	0xbdbf837a	-0.09351249
222	0xbe34b1a0	-0.17645884
223	0xbe2f1a8f	-0.17099975
224	0xbced7edb	-0.028991153
225	0xbe443114	-0.19159347
226	0x3c8def2e	0.017325964
227	0xbdaabfb0	-0.08337343
228	0xbd887ad3	-0.06664052
229	0xbec02c72	-0.3753391
230	0xbe96317e	-0.29334635
231	0xbcb3d4db	-0.021952083
232	0xbe58a1b3	-0.21155433
233	0x3d99a5b5	0.07502309
234	0x3d0dd439	0.03462622
235	0x3dc8c083	0.09802344
236	0xbe4ca900	-0.19986343
237	0xbe9c598d	-0.30537072
238	0x3da90396	0.08252637
239	0xbee41ce8	-0.44553304
240	0x3e0edb3d	0.1395082
241	0xbd81a1b7	-0.06329673
242	0xbc872c4a	-0.01650061
243	0xbce78e5c	-0.028266124
244	0x3d4e2233	0.050325584
245	0xbe7dc594	-0.24782401
246	0xbd406e59	-0.046980236
247	0x3ce273a5	0.027643034
248	0x3e3775f8	0.17916095
249	0x3e48343f	0.1955118
250	0xbe4bc459	-0.1989912
251	0xbdc2133d	-0.09476326
252	0x3c35fdb0	0.011107847
253	0x3dc6c49f	0.09705471
254	0xbba1c89c	-0.0049372446
255	0x3e0f04ee	0.13966724

fc.bias f4 [10]
0	0xbb2b2818	-0.0026116427
1	0x3b8f9faf	0.0043830494
2	0x3d0f4028	0.034973294
3	0x3d58b497	0.0529066
4	0xbcd8d642	-0.026469354
5	0xbd934ba4	-0.07192162
6	0x3d2d1acc	0.042261884
7	0x3e0ec73d	0.13943191
8	0x3c52076f	0.012819155
9	0xbd92ee35	-0.07174341

exp_avg f4 [16, 1, 5, 5]
0	0x393d7776	0.00018068947
1	0x39995bef	0.0002925093
2	0x3a163bee	0.0005730976
3	0x3a10c2e4	0.0005522205
4	0x396d1b59	0.00022612269
5	0x3a022f20	0.00049661286
6	0x38a2482e	7.7382065e-05
7	0x39286753	0.0001606022
8	0x396e1aa9	0.0002270738
9	0x3900fbfe	0.00012300906
10	0x399472e0	0.00028314348
11	0xb96c3b51	-0.00022528811
12	0xb9dd6923	-0.00042230738
13	0xb836a674	-4.3547203e-05
14	0x378d8b80	1.687347e-05
15	0xb96b85ef	-0.0002246124
16	0xba4dc1b2	-0.0007848992
17	0xba59a4b6	-0.0008302437
18	0xba0fc41a	-0.00054842385
19	0xb8cfd226	-9.9096724e-05
20	0x3810a53e	3.448617e-05
21	0xb904b95e	-0.00012657556
22	0xb9ef862a	-0.00045685592
23	0x397ea957	0.00024286412
24	0x3a2321f1	0.0006223014
25	0x39a48710	0.00031381147
26	0x3a4a93f0	0.0007727733
27	0x3a35f68e	0.00069413416
28	0x3a614888	0.0008593877
29	0x3a02530d	0.0004971482
30	0x39f8f11b	0.00047481884
31	0x39f1bfee	0.000461101
32	0x3890bc7c	6.901563e-05
33	0x394bc388	0.0001943243
34	0x3899cd2d	7.3338255e-05
35	0x3a5b6a85	0.00083700597
36	0x3a45965f	0.00075373607
37	0x39a8259e	0.00032071484
38	0x390ba7f2	0.00013318638
39	0xb9d14e31	-0.00039921844
40	0x3a4db3ec	0.000784694
41	0x395e5e05	0.00021206595
42	0xb9305814	-0.0001681748
43	0xb9b54729	-0.0003457603
44	0xba5353a8	-0.0008061477
45	0x39d34a0b	0.00040300222
46	0x39bcdfe9	0.0003602498
47	0x3990d38e	0.0002762344
48	0x39864195	0.00025607334
49	0xb9cc852b	-0.0003900913
50	0x3c2fc8a1	0.010728986
51	0x3be9f339	0.00713959
52	0x3bef3cc7	0.0073009464
53	0x3bc09381	0.005876959
54	0x3b90cb73	0.0044187843
55	0x3c3c7416	0.011502286
56	0x3c065efc	0.008201357
57	0x3c01eeac	0.007930439
58	0x3c0240b2	0.007949995
59	0x3bc3cc53	0.005975285
60	0x3c148cc9	0.009066769
61	0x3c09543e	0.008381901
62	0x3be39dfd	0.006946324
63	0x3b9a7017	0.004713069
64	0x3b8bf1b6	0.0042707575
65	0x3bf5e9e7	0.00750469
66	0x3bbd5118	0.0057774894
67	0x3bcd38e1	0.006262884
68	0x3c0075d8	0.007840596
69	0x3ba2fe84	0.0049741883
70	0x3bf98e95	0.007615874
71	0x3bad6c67	0.0052924636
72	0x3bb8d443	0.005640538
73	0x3c04fcb0	0.008116886
74	0x3bbe613d	0.0058099316
75	0xb8bfddda	-9.148913e-05
76	0x3aa25a63	0.0012386556
77	0x3a9b4849	0.0011847104
78	0x396fdfc9	0.00022876183
79	0xb9a94486	-0.00032285246
80	0xb9ada835	-0.00033122455
81	0x3adf9c18	0.0017060069
82	0x3a5075f5	0.0007952147
83	0xba517624	-0.00079903216
84	0xba8dce77	-0.0010818978
85	0x38ca0f83	9.635e-05
86	0x3ab8dcfd	0.0014103946
87	0xb950a74b	-0.00019898747
88	0xba8cc289	-0.0010739128
89	0xba8d3fc9	-0.0010776456
90	0x3a234763	0.0006228594
91	0x3ad5fa89	0.0016325276
92	0x3a883808	0.0010392675
93	0xb9af1b8c	-0.00033399125
94	0xb9842f95	-0.00025212453
95	0xb9b13f51	-0.00033807245
96	0x3aca426d	0.0015431173
97	0x3a9c1a47	0.0011909687
98	0x390dddf2	0.00013529489
99	0xbacfe11c	-0.0015859935
100	0xba89c6d5	-0.0010511527
101	0xba7905be	-0.0009499452
102	0xbade08f9	-0.001693993
103	0xbae5d2a0	-0.0017534085
104	0xbb09b4cf	-0.0021012311
105	0xbb716168	-0.003683174
106	0xbb42c85c	-0.0029721474
107	0xbb642329	-0.0034810996
108	0xbb5ac747	-0.0033382939
109	0xbb8c3833	-0.0042791604
110	0xbb26a1e4	-0.0025426084
111	0xbb5e03f4	-0.0033876868
112	0xbba07bc9	-0.004897569
113	0xbb82bedc	-0.0039900374
114	0xbb842699	-0.0040329215
115	0xbb1427db	-0.0022606764
116	0xbb513462	-0.0031922092
117	0xbb7789da	-0.0037771375
118	0xbb3adb61	-0.0028512108
119	0xbb7c67ea	-0.0038514086
120	0xbb9271af	-0.0044691185
121	0xbb73a073	-0.0037174493
122	0xbb1aee13	-0.0023640438
123	0xbab352f8	-0.0013681343
124	0xbbaa1196	-0.0051900847
125	0xba1b7b12	-0.00059311197
126	0x3b305ff4	0.0026912661
127	0x3c02e843	0.007989946
128	0x3b9e6dd5	0.0048348703
129	0x3c3b7ca4	0.011443291
130	0x390e0f93	0.00013547977
131	0x3b3a7deb	0.00284564
132	0x3c119654	0.008885939
133	0x3b1a7916	0.0023570708
134	0x3bf6fa57	0.007537167
135	0xba9b248d	-0.0011836455
136	0xbabc6e6c	-0.001437617
137	0x3b78051a	0.0037844838
138	0x3ad3bf79	0.0016155086
139	0x3b83eeb6	0.0040262593
140	0xbb78dd61	-0.003797375
141	0xba21100c	-0.0006144054
142	0x3bea9296	0.0071585877
143	0x3b405554	0.0029347735
144	0x3acd43b2	0.0015660434
145	0x3aa792f0	0.001278488
146	0x3b8737a0	0.004126504
147	0x3c055b70	0.008139476
148	0x3b78041a	0.0037844242
149	0x3b33d7cc	0.0027441857
150	0x3bd10232	0.0063784355
151	0x3c2fae8d	0.0107227685
152	0x3c31dac1	0.010855378
153	0x3c18da79	0.009329432
154	0x3c2447d0	0.010026887
155	0xbab130d0	-0.0013518576
156	0x3b9a9a87	0.004718128
157	0x3bdfb5d8	0.0068270974
158	0xba905f39	-0.0011014707
159	0xbb53187e	-0.0032210643
160	0xbc43df0e	-0.011955036
161	0xbb83630f	-0.0040096114
162	0xbb4b6f4c	-0.003104168
163	0xbc2f7034	-0.010707904
164	0xbc50a543	-0.012734714
165	0xbc53aa21	-0.01291898
166	0xbb30f725	-0.0027002778
167	0xbb0cf9f7	-0.0021511295
168	0x38d40bd7	0.00010111153
169	0xbc0506bb	-0.00811928
170	0xbc5056e5	-0.01271603
171	0xbbb1b183	-0.0054227724
172	0x3ba21a07	0.0049469504
173	0x3abab025	0.0014243169
174	0xbbf1eebb	-0.007383195
175	0x3aa25aac	0.0012386641
176	0x3938b1c7	0.00017613835
177	0xba4b81e1	-0.0007763189
178	0x39c8a915	0.0003827295
179	0xba0350d9	-0.00050093007
180	0x3b03c485	0.0020106148
181	0x3b2de640	0.0026534945
182	0x394ef4f0	0.00019736937
183	0xb9356371	-0.0001729855
184	0x3a3e3967	0.00072564784
185	0x3b8b925e	0.0042593917
186	0x3b5744f9	0.0032847507
187	0x3a5cb528	0.00084193284
188	0x38e215b3	0.000107805616
189	0x3a04a7a2	0.00050603796
190	0x3bc1f6b3	0.0059193014
191	0x3b46fa02	0.0030361419
192	0x3a83a922	0.0010044912
193	0x3a416101	0.00073768204
194	0x3a27b6f9	0.00063978095
195	0x3c0753b9	0.008259707
196	0x3bc4c935	0.006005431
197	0x3adc6207	0.0016813882
198	0x3a3de1fe	0.00072434533
199	0xb9f14a23	-0.00046022338
200	0xbabcbb97	-0.0014399168
201	0xba921d7b	-0.0011147702
202	0xb9f782f6	-0.00047209085
203	0xba52b4ca	-0.0008037804
204	0xba29d487	-0.00064785074
205	0x3856dd80	5.1227864e-05
206	0xb9b37a86	-0.00034232828
207	0x3ae5afa2	0.0017523656
208	0x3a2a98ad	0.0006507736
209	0xb9d4b0e2	-0.0004056758
210	0x3af877f3	0.0018956646
211	0x3a64a3b6	0.00087219046
212	0x39bfa944	0.00036556472
213	0xbabbfa2b	-0.0014341524
214	0xb883746e	-6.2682535e-05
215	0x3b3afa39	0.0028530492
216	0x3acebed5	0.0015773425
217	0x38e5df3e	0.00010961153
218	0x3a6fb351	0.00091438467
219	0x3b1c5602	0.0023854976
220	0x3b86074b	0.004090225
221	0x3b0f3dfc	0.0021857014
222	0x3b0427fd	0.0020165436
223	0x3afdab72	0.0019353463
224	0x3b140709	0.00225872
225	0xb99d7c72	-0.00030038093
226	0xbab95e36	-0.0014142457
227	0xbaeb6eae	-0.0017962062
228	0xba717ab6	-0.0009211706
229	0xb9dc064e	-0.00041966367
230	0x398e636c	0.00027158426
231	0xba7a49e1	-0.0009547752
232	0xba857726	-0.0010182604
233	0xba8dbef1	-0.0010814351
234	0xba709eec	-0.00091789546
235	0xb9695fc3	-0.00022256286
236	0xba212c54	-0.0006148268
237	0xb99db83c	-0.0003008264
238	0xba50c258	-0.000796353
239	0xba30552d	-0.00067265594
240	0x398ad896	0.0002648278
241	0x3807da04	3.238955e-05
242	0x34da9113	4.071122e-07
243	0x39ded852	0.0004250431
244	0xba006277	-0.0004897485
245	0x3b3586cd	0.0027698756
246	0x3abb27ed	0.0014278867
247	0x3885ffe0	6.389595e-05
248	0xb7d00902	-2.4799727e-05
249	0xba1fab26	-0.0006090872
250	0x3be5d167	0.007013488
251	0xba14a4ec	-0.0005670327
252	0xbc1a772b	-0.009427826
253	0xbc2b522a	-0.010456601
254	0xbc7456da	-0.014913285
255	0x3c310758	0.010804974

exp_avg_sq f4 [16, 1, 5, 5]
0	0x365d3719	3.2963637e-06
1	0x3608dde8	2.0394746e-06
2	0x35d3721d	1.5753936e-06
3	0x35ad1fa9	1.2898719e-06
4	0x35d8224b	1.6103235e-06
5	0x360f7359	2.1375802e-06
6	0x35957f5d	1.1138433e-06
7	0x3588a2df	1.0180191e-06
8	0x3577356f	9.2092426e-07
9	0x35a671c3	1.2401073e-06
10	0x35b5e134	1.3551094e-06
11	0x35458395	7.3579696e-07
12	0x34f43fd6	4.5494988e-07
13	0x34fba2fe	4.6870986e-07
14	0x352a9949	6.3552994e-07
15	0x35b52dcb	1.3498878e-06
16	0x3555e2bf	7.967864e-07
17	0x3508d5b8	5.097495e-07
18	0x355b27b1	8.1641616e-07
19	0x35317437	6.6106753e-07
20	0x35af363f	1.3054304e-06
21	0x35639d74	8.4793214e-07
22	0x354bf330	7.597728e-07
23	0x3580f97a	9.60935e-07
24	0x358c9207	1.0473312e-06
25	0x36e38821	6.7809747e-06
26	0x36dd1153	6.58833e-06
27	0x369fa298	4.7574977e-06
28	0x364077e1	2.8680008e-06
29	0x363a31d8	2.7745173e-06
30	0x36edad46	7.083322e-06
31	0x36e0e057	6.701837e-06
32	0x36887fc6	4.0679906e-06
33	0x361b4fb2	2.3143189e-06
34	0x3624501f	2.448454e-06
35	0x36e85096	6.9235202e-06
36	0x36e45dac	6.8058343e-06
37	0x3670c145	3.5875285e-06
38	0x35e8f957	1.7357914e-06
39	0x3602f071	1.9511465e-06
40	0x36ce1fda	6.1429864e-06
41	0x36d9dbeb	6.492706e-06
42	0x3675cd84	3.662747e-06
43	0x35cc388a	1.521564e-06
44	0x35ef6995	1.7837616e-06
45	0x36ee34bf	7.099093e-06
46	0x36e01c48	6.6790126e-06
47	0x3684b271	3.95468e-06
48	0x3601254a	1.9244203e-06
49	0x3605ba98	1.9927156e-06
50	0x3833b596	4.284604e-05
51	0x3837f22b	4.3856136e-05
52	0x384b4c02	4.846976e-05
53	0x381a449e	3.6780366e-05
54	0x37c26a45	2.3176088e-05
55	0x38453257	4.7015343e-05
56	0x38426794	4.634967e-05
57	0x384bb9fb	4.857218e-05
58	0x3815885a	3.5651356e-05
59	0x37e71e25	2.7551383e-05
60	0x38300db4	4.1974432e-05
61	0x3833183e	4.2699503e-05
62	0x3859e9a5	5.195443e-05
63	0x384dee08	4.9097493e-05
64	0x38401cc4	4.5803157e-05
65	0x38196fef	3.658229e-05
66	0x3814c492	3.546902e-05
67	0x38405340	4.58539e-05
68	0x384e7299	4.9220955e-05
69	0x3872dc4a	5.7902456e-05
70	0x38184e6f	3.631267e-05
71	0x381d6c58	3.753262e-05
72	0x3831006d	4.2200485e-05
73	0x38399de8	4.42545e-05
74	0x38587fa5	5.161729e-05
75	0x3839759c	4.421697e-05
76	0x384b5eca	4.848725e-05
77	0x384e803e	4.9233662e-05
78	0x385fc54f	5.33511e-05
79	0x386d8e33	5.6637637e-05
80	0x38421556	4.6273075e-05
81	0x38555a0d	5.0867024e-05
82	0x385c35aa	5.2502066e-05
83	0x387c0bf1	6.0092603e-05
84	0x387872e9	5.9234826e-05
85	0x38464f8d	4.7280966e-05
86	0x38493a5d	4.797649e-05
87	0x383ff567	4.5766497e-05
88	0x3851e120	5.0039147e-05
89	0x38519c56	4.9975082e-05
90	0x3836215a	4.3423242e-05
91	0x382e6914	4.1582694e-05
92	0x3828ac26	4.0214647e-05
93	0x38189df3	3.6386726e-05
94	0x382db923	4.1418836e-05
95	0x38216abe	3.8484803e-05
96	0x3827314e	3.986182e-05
97	0x3824d9fa	3.9303653e-05
98	0x382412ad	3.911804e-05
99	0x38388140	4.3989392e-05
100	0x383ebbb9	4.547436e-05
101	0x384dcbcc	4.906561e-05
102	0x3851586d	4.9911836e-05
103	0x387374b8	5.8044418e-05
104	0x3879cc74	5.9556638e-05
105	0x3854246b	5.0578656e-05
106	0x384a26c7	4.8196667e-05
107	0x38576759	5.1356245e-05
108	0x3888ca20	6.522634e-05
109	0x388849c0	6.498722e-05
110	0x3870d96b	5.7422945e-05
111	0x3876d326	5.8847618e-05
112	0x386d76a7	5.6615707e-05
113	0x3887325c	6.446682e-05
114	0x389b7aa9	7.413823e-05
115	0x389f943f	7.609324e-05
116	0x38a883a0	8.035381e-05
117	0x38a0964e	7.657391e-05
118	0x38983a28	7.258757e-05
119	0x38ac5703	8.217806e-05
120	0x38ab6fb3	8.174721e-05
121	0x38ad10ed	8.2524355e-05
122	0x38a7d932	8.003636e-05
123	0x3899ea17	7.339211e-05
124	0x38a5a7a9	7.899042e-05
125	0x3972b182	0.00023145045
126	0x398c2035	0.00026726877
127	0x39913ec1	0.0002770331
128	0x396ad547	0.00022395431
129	0x394d3c22	0.00019572725
130	0x3970ead4	0.00022975664
131	0x3986f446	0.0002574047
132	0x399457e9	0.00028294258
133	0x39682e55	0.00022142504
134	0x394abd5e	0.00019334766
135	0x39628f15	0.00021606342
136	0x398aa144	0.00026441563
137	0x39a45c9c	0.00031349517
138	0x3952f5b3	0.00020118691
139	0x393d095d	0.00018027933
140	0x39710c98	0.00022988243
141	0x3984d339	0.00025334375
142	0x3999d3b1	0.00029340156
143	0x3958f66f	0.00020691169
144	0x39474031	0.00019002032
145	0x39681ce4	0.00022136007
146	0x396cac1b	0.00022570828
147	0x39859a96	0.00025482912
148	0x394fc7e2	0.0001981552
149	0x394582f4	0.00018836168
150	0x3a17ed89	0.00057955884
151	0x3a336a16	0.0006844116
152	0x3a41daf8	0.00073949946
153	0x3a399479	0.0007079314
154	0x3a6e8890	0.0009099329
155	0x3a0ed93c	0.00054492406
156	0x3a324827	0.00068009127
157	0x3a3c1e9b	0.00071761914
158	0x3a2fd58e	0.00067075423
159	0x3a5e57c1	0.0008481704
160	0x3a0943e1	0.000523625
161	0x3a1eff54	0.00060652685
162	0x3a2d0abc	0.0006601026
163	0x3a106c2c	0.0005509283
164	0x3a37eb3f	0.00070159504
165	0x3a165190	0.00057341997
166	0x3a265e43	0.00063464436
167	0x3a3d5fc7	0.000722405
168	0x3a15f518	0.0005720421
169	0x3a3992eb	0.00070790824
170	0x3a15b8f9	0.0005711462
171	0x3a1ab3fd	0.0005901454
172	0x3a2d3cae	0.0006608468
173	0x3a14e8a9	0.0005680421
174	0x3a326af5	0.0006806099
175	0x38b43042	8.5920576e-05
176	0x38ba5ab8	8.886069e-05
177	0x38c956b1	9.6005744e-05
178	0x38b6822c	8.702683e-05
179	0x38b755ae	8.742079e-05
180	0x38a906fb	8.059848e-05
181	0x389aa3ca	7.3738e-05
182	0x388bffd1	6.675686e-05
183	0x387feaca	6.1015402e-05
184	0x3892e63b	7.004706e-05
185	0x389abf0a	7.378876e-05
186	0x382bfa11	4.100247e-05
187	0x37cf5fca	2.4720928e-05
188	0x37a9821a	2.0206953e-05
189	0x38095e0a	3.2750926e-05
190	0x389b4b2f	7.40498e-05
191	0x38110c44	3.4582117e-05
192	0x376c1292	1.407102e-05
193	0x3738ef04	1.1022905e-05
194	0x37a56be4	1.9719773e-05
195	0x3883a344	6.2769774e-05
196	0x3858fb2e	5.1732342e-05
197	0x37def676	2.657923e-05
198	0x378e0384	1.6929356e-05
199	0x37beeeff	2.2761056e-05
200	0x3778dcad	1.4833332e-05
201	0x377f1807	1.5204779e-05
202	0x37a49dfa	1.9623887e-05
203	0x37aaae2b	2.0346683e-05
204	0x37b53847	2.1603088e-05
205	0x3754d0ce	1.2684801e-05
206	0x377798d0	1.4757927e-05
207	0x379c624d	1.8642424e-05
208	0x37c013f8	2.2897482e-05
209	0x37d79f2b	2.5704116e-05
210	0x377a28ab	1.491063e-05
211	0x378e026f	1.6928852e-05
212	0x37c43680	2.33904e-05
213	0x380a802a	3.3021126e-05
214	0x38060fcb	3.1962798e-05
215	0x3814f531	3.5514302e-05
216	0x3801a09e	3.0905583e-05
217	0x37efeeaf	2.8602166e-05
218	0x37f21af7	2.8861205e-05
219	0x37cf611b	2.4721541e-05
220	0x3814fc73	3.552106e-05
221	0x38029de0	3.1141448e-05
222	0x3808cca6	3.261552e-05
223	0x37e46ba7	2.7229848e-05
224	0x37c74bf8	2.3758024e-05
225	0x37d761b9	2.5675503e-05
226	0x37f82974	2.9583207e-05
227	0x380779bb	3.229988e-05
228	0x37ec9987	2.8204884e-05
229	0x37dafa24	2.6104106e-05
230	0x37ce8504	2.4619054e-05
231	0x37c72a9e	2.3742494e-05
232	0x37dd9a52	2.6417114e-05
233	0x37ce9e1f	2.4630745e-05
234	0x37bb0c7c	2.229795e-05
235	0x377ee914	1.51938475e-05
236	0x3782497d	1.5531428e-05
237	0x37887eba	1.6271475e-05
238	0x378194f6	1.5447364e-05
239	0x378ce4ad	1.6795786e-05
240	0x376c9833	1.4102133e-05
241	0x36e4a959	6.814644e-06
242	0x369c66de	4.6611376e-06
243	0x3691198c	4.324311e-06
244	0x370c7cf5	8.373744e-06
245	0x378311f2	1.5624773e-05
246	0x36a17115	4.8113384e-06
247	0x364408f6	2.9211492e-06
248	0x36275d4f	2.4939252e-06
249	0x3687ba21	4.044982e-06
250	0x399ad74c	0.00029533578
251	0x39856d73	0.00025449283
252	0x398ad64c	0.00026481075
253	0x398c3669	0.0002674342
254	0x399be8be	0.0002973731
255	0x39a5adb0	0.0003160066

exp_avg f4 [16]
0	0xb3965abb	-7.001423e-08
1	0x31eb461f	6.847372e-09
2	0x336393b0	5.2986877e-08
3	0x32fda5b6	2.9528433e-08
4	0x33b89d93	8.59683e-08
5	0x345f752b	2.0811119e-07
6	0xb4fff328	-4.767437e-07
7	0x33bbe72b	8.749915e-08
8	0xb3859046	-6.219538e-08
9	0x329802bd	1.7696374e-08
10	0xb39945df	-7.137327e-08
11	0x35149eec	5.536556e-07
12	0x33ad6be5	8.075566e-08
13	0xb3a82cb5	-7.831242e-08
14	0xb082b193	-9.509215e-10
15	0x33005c2c	2.9886152e-08

exp_avg_sq f4 [16]
0	0x27e21fbe	6.2762016e-15
1	0x27914459	4.0319687e-15
2	0x28c606ed	2.198542e-14
3	0x28a128a0	1.7892209e-14
4	0x2946a5f4	4.4108773e-14
5	0x2a820380	2.3095068e-13
6	0x2abf3cca	3.3970597e-13
7	0x29455f1a	4.3825275e-14
8	0x28414d9c	1.0730481e-14
9	0x28885b85	1.5138723e-14
10	0x2a34442d	1.6010865e-13
11	0x2a9a5fbd	2.7422327e-13
12	0x28da3ad7	2.422838e-14
13	0x291d542a	3.4934004e-14
14	0x2766deed	3.203976e-15
15	0x28e79b01	2.5713374e-14

exp_avg f4 [16]
0	0x3ab9b521	0.001416836
1	0xb965318f	-0.00021857604
2	0x3c44472a	0.011979857
3	0xbb00f8c7	-0.0019679533
4	0xbb94aa14	-0.0045368765
5	0xbbada3b4	-0.005299056
6	0xbb342bec	-0.0027492
7	0x3bb8f624	0.0056445766
8	0xbbbfd625	-0.0058543854
9	0x3b87e1c3	0.004146786
10	0x3bc26772	0.005932742
11	0xbb95f687	-0.0045765075
12	0xbb0b5964	-0.0021262998
13	0x3a8bdb0f	0.0010670143
14	0x3b267c26	0.0025403588
15	0xbb457f50	-0.0030135699

exp_avg_sq f4 [16]
0	0x38c2ec2e	9.294633e-05
1	0x3881d2fe	6.1905e-05
2	0x38a2abdf	7.7567754e-05
3	0x38510a61	4.983915e-05
4	0x38a779d7	7.985875e-05
5	0x38c27cc4	9.27388e-05
6	0x38e66033	0.00010985173
7	0x384cc59b	4.8821425e-05
8	0x3842223e	4.6285095e-05
9	0x37e5696a	2.7348015e-05
10	0x38d5f5fe	0.00010202451
11	0x38bb93c8	8.944381e-05
12	0x38372866	4.3668224e-05
13	0x3882571f	6.2151106e-05
14	0x38a4c1be	7.856217e-05
15	0x385c8367	5.2574465e-05

exp_avg f4 [16]
0	0x3b107b14	0.0022046017
1	0x3a1610fd	0.00057245773
2	0x3bca8043	0.006179841
3	0x3b128adb	0.0022360596
4	0xbafc3a8e	-0.0019243525
5	0x3b4468ba	0.0029969648
6	0xbaa36e72	-0.0012468828
7	0x3bff0525	0.0077825957
8	0xbb6ce6ef	-0.003614839
9	0x3ba8e5c1	0.005154342
10	0x3b340e02	0.002747417
11	0xbaa1a2c9	-0.0012331839
12	0x3a4ecedd	0.00078891014
13	0x3b416818	0.0029511508
14	0x3b30f196	0.0026999465
15	0xbb305be6	-0.0026910244

exp_avg_sq f4 [16]
0	0x385e6b4d	5.3028856e-05
1	0x385c9abf	5.2596206e-05
2	0x37fc81db	3.010121e-05
3	0x37e85255	2.7694894e-05
4	0x381874ad	3.6348287e-05
5	0x38bb15a4	8.920886e-05
6	0x38d51a52	0.00010161534
7	0x3891443d	6.926849e-05
8	0x37d80570	2.5751739e-05
9	0x3805e85c	3.1926073e-05
10	0x3833fc39	4.2911826e-05
11	0x38965c43	7.1697425e-05
12	0x37c502f0	2.3485598e-05
13	0x38974b40	7.2142575e-05
14	0x38283792	4.0106075e-05
15	0x386ca181	5.6417197e-05
