oracle/train/non-iid/checkpoint/fmnist/ckpt_1_1.pth (torch, 358777 bytes, 34 tensors)

layer1.0.weight f4 [16, 1, 5, 5]
0	0xbe816e69	-0.2527955
1	0x3d67c892	0.056587763
2	0x3e8b4dd8	0.27207828
3	0x3e587044	0.21136576
4	0x3deec145	0.11657957
5	0xbcdb1dfb	-0.026747694
6	0x3e0a82a6	0.13526401
7	0x3e90616b	0.28199324
8	0x3e86bf5a	0.26317865
9	0x3e257c6a	0.16160741
10	0x3df2d1b8	0.11856407
11	0x3e3a3fc4	0.18188387
12	0x3ebe87fe	0.3721313
13	0x3ef52500	0.4787979
14	0x3eee8bbe	0.4659099
15	0xbdb772d9	-0.08957452
16	0x3e407053	0.18792848
17	0x3eba99fd	0.3644561
18	0x3e61b402	0.22041324
19	0x3ee237d9	0.44183233
20	0xbdf6c164	-0.12048605
21	0x3e4715fc	0.1944198
22	0x3e501885	0.20321853
23	0x3e70adbb	0.23503773
24	0x3d8cb763	0.06870916
25	0xbe912426	-0.28347892
26	0x3c573b09	0.013136634
27	0x3cfacca6	0.030615162
28	0x3ed196ce	0.40935367
29	0x3e27bfb0	0.16381717
30	0xbb20d5ce	-0.00245415
31	0x3c102104	0.008796934
32	0x3e383207	0.17987834
33	0x3f011aa7	0.50431293
34	0x3df32115	0.11871544
35	0xbcf0f344	-0.029412873
36	0xbca02e7d	-0.019553417
37	0x3dc35280	0.0953722
38	0x3f1340ae	0.5752057
39	0x3e315108	0.17316067
40	0xbe9b6d02	-0.30356604
41	0xbe8b6cc4	-0.2723142
42	0x3e125356	0.14289603
43	0x3efd26c7	0.49443647
44	0x3eba6a8c	0.36409414
45	0x3debd0d2	0.11514439
46	0xbe6e7431	-0.23286511
47	0xbdb6fc2b	-0.08934816
48	0x3ea93059	0.330447
49	0x3dc566bc	0.09638736
50	0xbdaeb4fa	-0.08530612
51	0xbeaceefe	-0.33776087
52	0x3e4c087a	0.19925109
53	0x3d91ad34	0.07113114
54	0xbf0e8968	-0.55678415
55	0xbe02a812	-0.12759426
56	0xbc642588	-0.013924964
57	0xbda738cd	-0.08165131
58	0xbee91214	-0.45521605
59	0xbf3af81b	-0.7303483
60	0x3e8e4f62	0.2779494
61	0x3f36f00e	0.71460044
62	0x3ea85457	0.32876846
63	0xbd8091bc	-0.062777966
64	0xbe22da69	-0.1590363
65	0x3e270056	0.16308722
66	0xbe4cdcc3	-0.20006089
67	0x3ce0afa8	0.02742751
68	0x3e0eb484	0.13936049
69	0x3e922bfe	0.28549188
70	0xbd5c2a44	-0.053751245
71	0x3d163cb3	0.03667898
72	0x3da72a5c	0.08162376
73	0x3e044f4f	0.12920879
74	0xbd93aa88	-0.07210261
75	0x3ced003c	0.028930776
76	0x3e82e5c3	0.2556592
77	0x3e15a9d5	0.14615567
78	0x3dfe3614	0.12412658
79	0x3e3849d9	0.1799692
80	0x3e60982a	0.21933046
81	0x3e9cbeb7	0.30614254
82	0x3e3eeb94	0.18644553
83	0x3eea22d9	0.45729712
84	0xbe052dcf	-0.13005756
85	0x3eabd4f9	0.33560923
86	0x3e51dcea	0.20494428
87	0x3ca254da	0.019815851
88	0xbe4b65bb	-0.19863026
89	0xbd8f2a29	-0.06990463
90	0xbe325164	-0.1741386
91	0xbec3d923	-0.382516
92	0xbea80af7	-0.32820866
93	0xbea86c1e	-0.32894987
94	0x3e40e815	0.18838532
95	0xbe3f0edb	-0.1865801
96	0xbe9541fa	-0.291519
97	0xbe8197be	-0.25311083
98	0xbe523a6a	-0.20530096
99	0x3eb22212	0.3479162
100	0xbe929698	-0.2863052
101	0x3e743ec4	0.23852068
102	0x3e94a071	0.29028657
103	0x3d26f210	0.040758193
104	0x3ec13a33	0.37739715
105	0x3df47c9c	0.1193783
106	0x3e3fac08	0.18717968
107	0x3eaef130	0.34168386
108	0x3eb6ed22	0.35727793
109	0x3e97defd	0.29662314
110	0x3e432db6	0.19060406
111	0x3ea53f39	0.32274798
112	0x3d255d96	0.040372454
113	0xbeae8081	-0.34082416
114	0xbcd4178c	-0.025890134
115	0xbe48c589	-0.19606604
116	0xbe634bc9	-0.22196878
117	0x3c97d448	0.01853384
118	0xbf01cfdc	-0.50707793
119	0xbdcf8292	-0.10132326
120	0x3d805772	0.06266679
121	0xbe8a16fe	-0.26970667
122	0xbeba2685	-0.36357513
123	0xbf06f620	-0.52719307
124	0x3e27d04b	0.16388051
125	0x3d759055	0.0599521
126	0x3ceed2c4	0.029153235
127	0xbdcb31e5	-0.09921626
128	0x3d9beeb4	0.076138884
129	0x3e4a47be	0.1975393
130	0xbe63877d	-0.22219653
131	0xbe86c08d	-0.2631878
132	0xbe6b3363	-0.22968821
133	0x3f0a7288	0.5408101
134	0x3d977c09	0.07396705
135	0xbe9f756d	-0.31144276
136	0xbe6e3a44	-0.23264414
137	0x3dc844e6	0.09778766
138	0x3d028158	0.031861633
139	0x3eacd783	0.33758172
140	0x3ec2574d	0.3795723
141	0xbda7fdc3	-0.08202698
142	0xbef0f808	-0.47064233
143	0xbe0605c4	-0.13088137
144	0x3e7c461b	0.24636118
145	0x3e99a3d8	0.30007815
146	0x3e116f18	0.14202535
147	0xbed5e839	-0.41778734
148	0xbe358ce1	-0.17729522
149	0x3d642974	0.055703595
150	0x3d7db578	0.06194064
151	0x3d508a5c	0.0509132
152	0xbe23e9b3	-0.16007118
153	0x3de0058b	0.10938557
154	0x3d822037	0.06353801
155	0xbd918218	-0.071048915
156	0x3d9d94ae	0.07694374
157	0xbf056f2b	-0.52122754
158	0x3f1b2418	0.6060195
159	0xbdf5c69a	-0.12000771
160	0xbb561442	-0.0032665883
161	0xbe8c69ee	-0.27424568
162	0xbe70abba	-0.23503008
163	0x3f3ec9ab	0.7452647
164	0xbe727cc8	-0.23680413
165	0xbce9d149	-0.028542178
166	0xbe7009dc	-0.23441261
167	0x3cba5f6e	0.022750583
168	0x3ea8b04c	0.32947004
169	0xbe03cb49	-0.12870516
170	0x3e107d43	0.14110284
171	0x3d58514f	0.052811917
172	0xbe6ac220	-0.22925615
173	0x3e005154	0.12531024
174	0xbde67b11	-0.11253942
175	0xbde49b56	-0.111624405
176	0x3d85d6c2	0.065351024
177	0x3e9195e7	0.2843468
178	0x3eb8511c	0.35999382
179	0x3e344745	0.17605312
180	0x3cbc90ff	0.023018358
181	0xbdc311a4	-0.09524849
182	0xbddb0ef1	-0.10696209
183	0xbd74d98e	-0.05977779
184	0x3e9e3f00	0.3090744
185	0x3de21453	0.11039033
186	0xbe30a58e	-0.17250654
187	0xbeccf6d9	-0.4003208
188	0xbef4f090	-0.47839785
189	0xbda81e23	-0.08208873
190	0x3e6f71f5	0.23383315
191	0xbeec60e2	-0.46167666
192	0xbf51e8b3	-0.81995696
193	0xbf4482d0	-0.76762104
194	0xbea070ed	-0.31336156
195	0xbda61b61	-0.08110691
196	0x3e724be8	0.23661768
197	0xbdcd4e7f	-0.100247376
198	0xbeae93fb	-0.34097275
199	0xbc8cba91	-0.017178806
200	0x3e71fbbd	0.23631187
201	0x3e5d3c09	0.21604933
202	0x3e469e03	0.19396214
203	0xbe58413a	-0.21118632
204	0x3eb88a92	0.3604322
205	0xbeb2ef91	-0.349484
206	0xbe8a808d	-0.270512
207	0xbe836d8d	-0.25669518
208	0xbdcd701e	-0.1003115
209	0x3ed4099d	0.41413584
210	0xbecb2254	-0.39674628
211	0xbedeb2a8	-0.4349568
212	0x3d09716f	0.033555444
213	0x3e435972	0.1907709
214	0x3e364185	0.17798431
215	0xbd39dac6	-0.045374654
216	0x3e4e4542	0.20143607
217	0x3e9b1ac0	0.30293846
218	0x3e08f232	0.1337364
219	0xbe03d280	-0.12873268
220	0x3e123322	0.14277318
221	0x3d89c8bc	0.0672774
222	0x3d91f4ed	0.07126794
223	0x3e491ca3	0.1963983
224	0xbd02b6dc	-0.03191267
225	0xbe73e337	-0.23817144
226	0x3e74e4f7	0.23915468
227	0x3e9a3ec0	0.30126
228	0x39309880	0.00016841479
229	0xbdc91edc	-0.09820339
230	0x3d942f5a	0.07235594
231	0xbd505e2b	-0.050871056
232	0xbca4b684	-0.020106561
233	0xbcd7ccdb	-0.0263428
234	0x3c49bcfd	0.012313125
235	0xbe60d647	-0.2195674
236	0x3dfef08d	0.12448225
237	0x3de66555	0.11249796
238	0x3da26bde	0.0793073
239	0xbc53735c	-0.012905922
240	0xbdfe5dae	-0.12420212
241	0xbea8723d	-0.32899657
242	0xbec849c2	-0.39118773
243	0xbebe59e3	-0.37177953
244	0xbdd0d8a8	-0.10197574
245	0x3eb18f02	0.3467942
246	0xbf052f8d	-0.5202568
247	0xbf357455	-0.70880634
248	0xbf1f627c	-0.6225965
249	0xbe5e7e2c	-0.21727818
250	0xbebb6c9e	-0.36606306
251	0xbe3a30ab	-0.18182628
252	0x3d85483f	0.065079205
253	0x3e06a6b3	0.13149528
254	0xbde889aa	-0.11354382
255	0xbe7855e2	-0.24251512

layer1.0.bias f4 [16]
0	0x3a16b25d	0.0005748624
1	0x3e3faafc	0.18717569
2	0xbf2562da	-0.6460396
3	0xbe85bf1a	-0.2612236
4	0xbda0aef0	-0.07845867
5	0x3ec01126	0.37513083
6	0x3ebffae9	0.37496117
7	0xbe1bfd20	-0.15233278
8	0x3ea2a2dc	0.31764877
9	0xbe3d934b	-0.18513219
10	0x3eba7ae6	0.3642189
11	0x3ed56f0c	0.41686285
12	0xbba97b66	-0.005172181
13	0xbe1002c8	-0.14063561
14	0xbdf6584d	-0.12028561
15	0xbeac400b	-0.3364261

layer1.1.weight f4 [16]
0	0x3f305b42	0.6888925
1	0x3f164d25	0.58711463
2	0x3f756965	0.95863944
3	0x3f59ae63	0.8503172
4	0x3f6bbcc5	0.92084914
5	0x3f82f595	1.0231196
6	0x3fa6f4b7	1.3043431
7	0x3fdd866d	1.7306648
8	0x3f225733	0.63414305
9	0x3f8b093e	1.0862195
10	0x3f8f3349	1.1187526
11	0x3f509887	0.8148274
12	0x3f58d441	0.84698874
13	0x3fc96203	1.5733036
14	0x3f293061	0.66089445
15	0x3fa82ce5	1.3138701

layer1.1.bias f4 [16]
0	0xbe8d3d44	-0.27585804
1	0xbe7cf1b6	-0.2470158
2	0xbe8e24d3	-0.2776247
3	0xbdd43b85	-0.10362915
4	0xbd9f06c3	-0.077649616
5	0xbe25dfbc	-0.16198629
6	0xbd1f383a	-0.03887198
7	0xbf3224ed	-0.69587594
8	0xbed8c19f	-0.4233522
9	0xbf0873a3	-0.5330145
10	0xbe8b2047	-0.27173063
11	0xbdff01d5	-0.12451521
12	0x3d9fbf3f	0.07800149
13	0xbf209626	-0.6272911
14	0xbee845e0	-0.4536581
15	0xbf15f780	-0.5858078

layer1.1.running_mean f4 [16]
0	0x402079a4	2.5074244
1	0x3fc4e749	1.5383083
2	0xbf5f6172	-0.87258065
3	0xbe746524	-0.23866707
4	0xbe66fa7f	-0.22556494
5	0x3ebbeeac	0.3670553
6	0x3f0ce49a	0.5503632
7	0xbfc88914	-1.5666833
8	0x3f378a9b	0.7169587
9	0xbfd67d4d	-1.6756989
10	0xbe1990ae	-0.14996597
11	0x3f62069b	0.8829133
12	0xbe4015e0	-0.18758345
13	0xc0017d2d	-2.0232651
14	0x3ff0109a	1.8755066
15	0xc02ba298	-2.681799

layer1.1.running_var f4 [16]
0	0x41a34858	20.410324
1	0x410ae224	8.68021
2	0x3fea6ce4	1.8314481
3	0x3fc316ce	1.5241334
4	0x3ffe2c27	1.9857224
5	0x3f8867f1	1.065672
6	0x3f5e73f5	0.86895686
7	0x410ce4f2	8.805895
8	0x3fa90e6c	1.3207526
9	0x410437f1	8.263658
10	0x3f9dcc75	1.232802
11	0x3fbd9528	1.4811144
12	0x3f88a9ba	1.0676796
13	0x417b3906	15.701422
14	0x4164e509	14.305917
15	0x4193e0d0	18.484772

layer2.0.weight f4 [32, 16, 5, 5]
0	0x3dd99d4f	0.10625707
1	0x3e0ad76f	0.13558744
2	0x3dc73e77	0.09728711
3	0x3d9b10bb	0.075715505
4	0x3cde2468	0.02711697
5	0x3dce0ea7	0.100613885
6	0x3e00e2b3	0.12586479
7	0x3df957b4	0.12174931
8	0x3d27fa2f	0.041010078
9	0x3d9bb12f	0.076021545
10	0x3e9744cc	0.29544675
11	0x3e95a156	0.29224652
12	0x3e640a00	0.2226944
13	0x3e0c90ce	0.13727114
14	0x3e00755c	0.12544769
15	0x3ebe9b1f	0.37227723
16	0x3ea93c3a	0.33053762
17	0x3e72352e	0.23653099
18	0x3e6f4b87	0.23368655
19	0x3e031ab4	0.12803155
20	0x3e1d3add	0.15354486
21	0x3e911942	0.28339583
22	0x3e876333	0.2644287
23	0x3e3a25c1	0.18178464
24	0x3dbcebe3	0.09224679
25	0x3d9854f2	0.07438077
26	0xbcca215c	-0.02467411
27	0xbc2296a7	-0.009923614
28	0xbca84f98	-0.020545766
29	0xbd8d7b56	-0.0690829
30	0x3e1fe41b	0.15614359
31	0xbd3f6ab0	-0.046732605
32	0x3d1b1f13	0.03787143
33	0x3e1419e2	0.14462999
34	0xbdbddccf	-0.092706315
35	0x3e88e9fa	0.2674101
36	0xbc154cbc	-0.009112533
37	0x3d99259a	0.07477875
38	0x3dce4bc5	0.10073046
39	0xbe41a249	-0.18909563
40	0x3ec64fd3	0.38732776
41	0x3d1e87ff	0.038703915
42	0x3e60a2af	0.21937059
43	0x3e936b22	0.28792673
44	0xbd34e8f5	-0.044167478
45	0x3e92f3ef	0.28701732
46	0x3dc17597	0.094462566
47	0x3d69f387	0.05711701
48	0x3def56ca	0.116864756
49	0x3c0df52b	0.00866441
50	0x3e4d865e	0.20070788
51	0x3e24ae3d	0.16082092
52	0x3e6cf526	0.23140392
53	0x3e4b1eb0	0.19835925
54	0x3ebb1f89	0.36547497
55	0xbd9d7981	-0.07689191
56	0x3d74d193	0.059770178
57	0x3e15ec40	0.14640903
58	0xbd1d03cb	-0.038333695
59	0x3e077cd7	0.13231216
60	0x3ecab9d2	0.39594895
61	0x3eb29864	0.3488189
62	0x3eb9dfb0	0.36303473
63	0x3e82b63c	0.2552966
64	0x3ec322c5	0.38112465
65	0xbcb2f787	-0.021846546
66	0xbc6f538f	-0.014607324
67	0x3e001d45	0.12511165
68	0xbc0a91f8	-0.008457653
69	0x3e73b172	0.23798159
70	0xbd9d3e97	-0.07677954
71	0xbe40a86f	-0.18814252
72	0x3d05c099	0.03265438
73	0x3d8d695c	0.06904861
74	0xbcb6921e	-0.022286471
75	0xbd448d7a	-0.047986485
76	0xbc841917	-0.016125245
77	0xba8b0bee	-0.0010608414
78	0x3d9f3c74	0.077752024
79	0xbe91facc	-0.28511655
80	0x3dd505c9	0.10401494
81	0x3d86f0e2	0.065889135
82	0x3d7a305f	0.061081287
83	0x3da79b0a	0.08183868
84	0xbe61ccc0	-0.22050762
85	0xbdc90c8c	-0.09816846
86	0x3d47db60	0.048793197
87	0xbc3e0057	-0.011596761
88	0x3db56e4a	0.088589266
89	0xbe88558d	-0.2662777
90	0x3e486a2b	0.1957175
91	0x3ece0726	0.4023983
92	0x3eb56489	0.35428265
93	0x3dfbb17a	0.1228971
94	0xbcbee534	-0.023302652
95	0x3e760008	0.2402345
96	0x3e8e834e	0.27834553
97	0x3e5902d5	0.21192487
98	0x3e676795	0.22598107
99	0x3dcc2e33	0.09969749
100	0xbe25ff8d	-0.16210766
101	0xbd71c5a4	-0.059026375
102	0xbd20f4a4	-0.039295807
103	0xbde2640c	-0.11054239
104	0xbe55d2df	-0.20881222
105	0xbe3d88f3	-0.18509273
106	0xbcd5aa30	-0.026082128
107	0xbd1b015e	-0.0378431
108	0xbd8e5bfe	-0.0695114
109	0xbd388bcd	-0.0450552
110	0xbea4859a	-0.3213318
111	0xbe451947	-0.19247924
112	0xbe1409be	-0.14456841
113	0xbdd7f413	-0.105446
114	0xbbe433e0	-0.006964192
115	0x3d977b1e	0.073965296
116	0x3e5c76f3	0.2152975
117	0x3e3b6ac0	0.1830244
118	0x3de0bfe5	0.10974101
119	0x3d83569f	0.06413006
120	0x3eac6f0b	0.3367847
121	0x3e8a07bf	0.26959035
122	0x3e0dcd71	0.13847901
123	0x3eaecb0f	0.34139296
124	0x3e3030de	0.17206141
125	0xbe57278a	-0.21011177
126	0xbe22777e	-0.15865895
127	0xbd1085cd	-0.035283852
128	0x3c860fee	0.016365018
129	0x3e02f3ca	0.1278831
130	0xbe37c80c	-0.17947406
131	0xbe132f99	-0.14373626
132	0xbe84d60a	-0.2594455
133	0x3d569d78	0.052396268
134	0xbe0cb83c	-0.13742155
135	0xbeb448ff	-0.35211942
136	0xbeeaa4dc	-0.45828903
137	0xbeec619b	-0.46168217
138	0x3d8b6580	0.06806469
139	0xbe7c2b57	-0.24625908
140	0xbe44c70b	-0.19216554
141	0xbea3aff4	-0.3197018
142	0xbe8033b5	-0.2503945
143	0xbc459b9e	-0.012061028
144	0xbde1f866	-0.11033706
145	0xbe1311c8	-0.14362252
146	0xbe8987e4	-0.2686149
147	0xbe96b0b4	-0.2943169
148	0xbe8b6bed	-0.27230778
149	0xbe0bc165	-0.13647993
150	0xbcc1898a	-0.023625154
151	0xbe75a9ed	-0.23990603
152	0x3d95b4cc	0.07309875
153	0x3ea2c676	0.3179204
154	0x3d268f70	0.040664136
155	0xbe45ddba	-0.19322863
156	0xbee99389	-0.45620373
157	0xbe48b79a	-0.19601288
158	0x3e86783a	0.262636
159	0xbddb4888	-0.107071936
160	0xbecabfdc	-0.39599502
161	0xbf0c597d	-0.5482405
162	0xbea1a830	-0.3157363
163	0x3e4870c8	0.19574273
164	0xbe2ebf0b	-0.17065065
165	0xbe89988f	-0.26874205
166	0xbed44be6	-0.41464156
167	0xbebd4a79	-0.3697088
168	0x3ec17a45	0.37788597
169	0x3e0c9b91	0.13731219
170	0xbedc5adb	-0.43038067
171	0xbee6e2ba	-0.45094854
172	0xbea9ce56	-0.33165234
173	0x3d2de57e	0.04245519
174	0xbdaf0907	-0.08546644
175	0xbe115a96	-0.14194712
176	0xbe7cccea	-0.24687544
177	0xbe7dd609	-0.24788679
178	0xbe9588ed	-0.2920603
179	0xbe1cbf0d	-0.15307255
180	0xbde545bb	-0.11194941
181	0xbea61170	-0.3243518
182	0xbee57e52	-0.44822937
183	0xbeb84d11	-0.35996297
184	0xbea2ad6b	-0.31772932
185	0xbe9c4b16	-0.30526036
186	0xbebdecbd	-0.3709468
187	0xbed6f463	-0.41983327
188	0xbef8f099	-0.4862106
189	0xbed2c9ff	-0.41169736
190	0x3d6251eb	0.055253904
191	0xbe5f15f0	-0.21785712
192	0xbea6e085	-0.3259317
193	0xbed6cb15	-0.41951814
194	0xbe84874f	-0.25884482
195	0xbd48f44b	-0.0490611
196	0xbcfd2e1e	-0.03090578
197	0xbe3def1d	-0.18548246
198	0xbe9b6e12	-0.30357414
199	0xbda2d3c8	-0.0795055
200	0xbdac838f	-0.0842353
201	0x3dac2b23	0.08406665
202	0x3e099dd7	0.13439117
203	0x3cf2c2d9	0.029633926
204	0x3e43c06b	0.1911637
205	0x3d185ed6	0.037199818
206	0xbd70e8ed	-0.058815885
207	0xbdf5f145	-0.12008909
208	0xbdc63ef1	-0.09679974
209	0xbcaa6896	-0.020801824
210	0x3d2806eb	0.041022222
211	0xbd36caf1	-0.044627134
212	0x3da51413	0.080604695
213	0xbe048d22	-0.12944463
214	0xbdcd93d6	-0.10037963
215	0xbcc79604	-0.024363525
216	0xbd31a2c4	-0.043368116
217	0x3de53743	0.11192181
218	0xbe3bd674	-0.18343526
219	0xbeb598ef	-0.35468242
220	0x3e0d2eb2	0.13787344
221	0x3dd2d5aa	0.102946594
222	0x3dae6b1a	0.08516522
223	0xbe7d2be1	-0.2472377
224	0xbe439bde	-0.19102427
225	0xbde09899	-0.10966606
226	0xbe574457	-0.21022163
227	0xbe95358e	-0.2914242
228	0xbe9da49e	-0.30789655
229	0xbea6f0ed	-0.32605687
230	0xbe2fde30	-0.17174602
231	0xbe9bdc3f	-0.30441472
232	0xbedc402b	-0.43017706
233	0xbef2f99f	-0.4745607
234	0xbe8433ca	-0.25820762
235	0x3dced55f	0.10099291
236	0xbe6701f3	-0.22559337
237	0xbec63147	-0.3870947
238	0xbefaf070	-0.49011564
239	0xbeb69a0c	-0.35664403
240	0x3ecb2415	0.39675966
241	0x3e38ad91	0.1803496
242	0xbc8119d8	-0.015759394
243	0xbdcbcae5	-0.099508084
244	0xbc7f3866	-0.015577411
245	0xbcd5f45c	-0.026117496
246	0xbd8a7682	-0.06760885
247	0xbd06584d	-0.032799054
248	0xbd7b5f49	-0.061370168
249	0x3cf0ad52	0.02937952
250	0xbd57c2a6	-0.052675866
251	0x3e054b86	0.13017091
252	0x3de7bfb4	0.11315861
253	0x3d4c5408	0.049884826
254	0x3cde0619	0.027102517
255	0xbe85a7b9	-0.26104525

layer2.0.bias f4 [32]
0	0xbd89c489	-0.06726939
1	0xbdfa33cf	-0.12216913
2	0x3cd769d3	0.026295578
3	0xbe0aa3ac	-0.13538998
4	0xbe7939f0	-0.24338508
5	0x3d690d28	0.056897312
6	0x3ccd8f25	0.02509267
7	0x3cc27411	0.023736985
8	0x3c126268	0.008934595
9	0x3dbb491b	0.09144803
10	0x3d765673	0.06014104
11	0xbe89b330	-0.26894522
12	0x3e027851	0.1274121
13	0x3dee028c	0.116215795
14	0x3d492c4f	0.04911452
15	0xbe6edab8	-0.23325622
16	0xbcb81255	-0.022469679
17	0xbd104475	-0.035221536
18	0x3e5aec72	0.21379259
19	0x3e196db8	0.1498326
20	0x3dbe0b84	0.0927954
21	0xbd8f2a3e	-0.06990479
22	0xbd5f54b5	-0.054524142
23	0xbd47b26e	-0.04875415
24	0xbc858633	-0.016299343
25	0xbe08df47	-0.13366424
26	0x3d931cc1	0.07183219
27	0x3dba014c	0.090822786
28	0xbd4ce891	-0.05002648
29	0x3b7fc032	0.003902447
30	0x3dc1977b	0.09452721
31	0xbdf97321	-0.12180162

layer2.1.weight f4 [32]
0	0x3ef740ea	0.48291713
1	0x3f0f1f3c	0.55907035
2	0x3eb2a90c	0.34894598
3	0x3f0efe83	0.55857104
4	0x3f34b4c1	0.7058831
5	0x3ec94b1d	0.3931512
6	0x3ee68755	0.45025125
7	0x3ecb48d0	0.3970399
8	0x3eb2f84e	0.34955066
9	0x3eb2d745	0.34929863
10	0x3f084bea	0.53240836
11	0x3f0b5805	0.5443118
12	0x3f2d9bc5	0.6781581
13	0x3f09aade	0.5377635
14	0x3ee9f4d7	0.4569461
15	0x3f14d17d	0.58132154
16	0x3f408417	0.75201553
17	0x3f120edc	0.57053924
18	0x3f25f69d	0.64829427
19	0x3ed40e80	0.41417313
20	0x3f1cbbc2	0.61223996
21	0x3f078e27	0.5295128
22	0x3f1a3669	0.60239273
23	0x3eeffa0d	0.4687046
24	0x3ef74018	0.48291087
25	0x3f1c267f	0.6099624
26	0x3ef90de7	0.4864342
27	0x3edc4462	0.43020922
28	0x3eee473e	0.46538728
29	0x3f1b7c44	0.6073649
30	0x3f01a0e5	0.5063613
31	0x3e84c53e	0.25931734

layer2.1.bias f4 [32]
0	0xbf0ff840	-0.56238174
1	0xbeed726c	-0.4637636
2	0xbf0130a3	-0.5046484
3	0xbf1884fe	-0.5957793
4	0xbf088f43	-0.533436
5	0xbefeb6fe	-0.49748987
6	0xbf102201	-0.56301886
7	0xbef57bb6	-0.47945946
8	0xbf09a38e	-0.5376519
9	0xbf120c48	-0.5704999
10	0xbf25001a	-0.6445328
11	0xbed56201	-0.41676334
12	0xbf007dae	-0.5019177
13	0xbf0a28af	-0.5396833
14	0xbf092279	-0.53568226
15	0xbf03ff23	-0.5156118
16	0xbf011b26	-0.5043205
17	0xbf04b8a8	-0.51844263
18	0xbeee8775	-0.4658772
19	0xbf06edda	-0.5270668
20	0xbf0f5c09	-0.5599981
21	0xbf0c9279	-0.54911
22	0xbf202ea5	-0.62571174
23	0xbeff1f3b	-0.49828514
24	0xbf09a8f6	-0.5377344
25	0xbf142cf2	-0.5788108
26	0xbf009291	-0.5022364
27	0xbf0b4b52	-0.54411805
28	0xbf240305	-0.6406711
29	0xbf02c576	-0.5108255
30	0xbf0e8c23	-0.5568258
31	0xbf18d65e	-0.597021

layer2.1.running_mean f4 [32]
0	0xc13911ef	-11.566878
1	0xc0395b49	-2.8961966
2	0xc0d41634	-6.6277103
3	0xc00ca7c7	-2.1977403
4	0xc113ca8e	-9.236952
5	0x40caa929	6.3331494
6	0xc10c14ae	-8.755049
7	0xbf65b8ba	-0.89734995
8	0x4121f81c	10.123074
9	0xc0a118ab	-5.034261
10	0xc11127f1	-9.072251
11	0xc1090f9a	-8.566309
12	0xc1306174	-11.023792
13	0x3eb91fd6	0.361571
14	0xc10a85b5	-8.657643
15	0xbf639dec	-0.88912845
16	0x3f025dbb	0.5092427
17	0xc0866ad8	-4.2005424
18	0xc092f720	-4.5926666
19	0xbfa60d7c	-1.2972865
20	0xc12785b0	-10.470139
21	0xc03fb9e6	-2.9957213
22	0xc0968c3e	-4.7046194
23	0xc14f6362	-12.961763
24	0xc12afbab	-10.686442
25	0xc104a596	-8.290426
26	0xc0f2e3a4	-7.590288
27	0xc1216b14	-10.088642
28	0xc08bac21	-4.364762
29	0xc13d9937	-11.849906
30	0xc0c88110	-6.2657547
31	0x3b240a2e	0.0025030482

layer2.1.running_var f4 [32]
0	0x424c3af1	51.05756
1	0x42665ae1	57.58875
2	0x42157c17	37.37118
3	0x42913e56	72.62175
4	0x426dbb8d	59.433155
5	0x41d9eca2	27.240543
6	0x421eaa54	39.666336
7	0x42008228	32.127106
8	0x428a782d	69.23472
9	0x42540898	53.008392
10	0x42995cad	76.68101
11	0x42823b70	65.11609
12	0x42914bf4	72.648346
13	0x425d1151	55.26691
14	0x4234f9d4	45.243973
15	0x4282629b	65.19259
16	0x421d72c6	39.362083
17	0x42970cac	75.52475
18	0x423073cf	44.113094
19	0x42474524	49.81752
20	0x429eec2e	79.46129
21	0x42dd3bb3	110.6166
22	0x41b1b580	22.213623
23	0x42a87635	84.23087
24	0x425784b5	53.879597
25	0x4278553b	62.083233
26	0x429f6427	79.69561
27	0x4280abf7	64.33587
28	0x42276ba6	41.855125
29	0x42b07797	88.233574
30	0x42299c16	42.402428
31	0x42105784	36.085464

fc.weight f4 [10, 1568]
0	0xbdaee2b3	-0.08539333
1	0x3d73607f	0.059418198
2	0xbd1ff23b	-0.03904937
3	0x3c81fe08	0.015868202
4	0x3e42de2c	0.19030064
5	0x3db158a8	0.08659488
6	0xbda164ea	-0.07880576
7	0x3d6cc51b	0.057805162
8	0x3ead1a26	0.33809012
9	0xbe142e9a	-0.14470902
10	0xbd38ad38	-0.04508707
11	0x3d3ba7d9	0.04581437
12	0x3d7fc221	0.062440995
13	0x3e1aa098	0.15100324
14	0xbe1610e7	-0.14654885
15	0x3e8bc6a9	0.27300003
16	0x3df8af94	0.12142864
17	0x3e3dd44b	0.18538015
18	0xbe8abd9d	-0.27097788
19	0xbe00947f	-0.12556647
20	0xbdd18eb8	-0.102322996
21	0xbe6d8d5c	-0.23198456
22	0x3e52c514	0.20582992
23	0x3e246e04	0.16057593
24	0x3dab9fe9	0.0838011
25	0xbebc0e65	-0.36729732
26	0xbe006ee8	-0.12542307
27	0xbe247e72	-0.1606386
28	0x3de6e86c	0.112748
29	0xbe4b412e	-0.19849083
30	0x3e278ee9	0.1636311
31	0x3e1d4820	0.15359545
32	0xbdc530f1	-0.096284755
33	0xbe0f18be	-0.13974282
34	0xbe88e89c	-0.26739967
35	0xbf000c31	-0.500186
36	0x3d91c939	0.07118458
37	0x3ead06a9	0.33794144
38	0x3e3f8a86	0.18705186
39	0x3e3cdd3e	0.18443772
40	0xbb79fa44	-0.0038143555
41	0x3d8b434e	0.06799947
42	0xbd188a8e	-0.03724151
43	0x3e22eebd	0.15911384
44	0x3eaf26c1	0.34209254
45	0x3e6b0044	0.2294932
46	0x3e88c73d	0.26714507
47	0xbdf959bb	-0.12175318
48	0x3d8377e5	0.064193524
49	0xbd4db3cb	-0.050220292
50	0xbd43f5a5	-0.047841687
51	0x392f75e0	0.00016733212
52	0xbd791086	-0.060806774
53	0xbd1a7326	-0.03770747
54	0x3e44c885	0.19217117
55	0x3e220235	0.15821154
56	0xbe1f4f12	-0.15557507
57	0x3d87a717	0.06623667
58	0x3d53cf94	0.051711634
59	0xbe98bf31	-0.29833367
60	0x3e1d794b	0.15378301
61	0x3a12c371	0.0005598581
62	0xbca66876	-0.020313483
63	0x3e44a3fe	0.19203183
64	0xbea3b23f	-0.31971928
65	0xbe2d1480	-0.16902351
66	0xbe0064d8	-0.12538469
67	0x3bd8c6db	0.0066155023
68	0xbdb0bfee	-0.08630358
69	0xb9311b92	-0.00016890306
70	0x3e1cfbf8	0.15330493
71	0xbd3adcd0	-0.04562074
72	0xbeb613f1	-0.3556209
73	0x3d1c5b30	0.0381729
74	0xbd8e39ad	-0.069445945
75	0x3d62e434	0.055393413
76	0x3e5852d5	0.21125348
77	0x3d8c21c9	0.068423815
78	0x3e242145	0.16028316
79	0xbdbe842a	-0.09302552
80	0xbdd17eb7	-0.10229247
81	0xbb3a8007	-0.0028457658
82	0x3dcbff18	0.09960765
83	0x3e5311f5	0.20612319
84	0x3ddad1f5	0.106845774
85	0x3e0d1be9	0.13780178
86	0xbce99952	-0.028515492
87	0xbdd3bc42	-0.10338642
88	0xbe25e65c	-0.16201156
89	0xbcffc0b8	-0.031219825
90	0x3c11b782	0.008893849
91	0x3e0072cb	0.1254379
92	0xbda1c2c0	-0.07898474
93	0xbec1eb44	-0.37874806
94	0xbe859985	-0.2609369
95	0x3c80d55b	0.015726736
96	0x3c840f3e	0.01612055
97	0xbe25c021	-0.16186573
98	0x3d705406	0.05867388
99	0xbcb34fb7	-0.021888597
100	0xbd484a33	-0.048898887
101	0x3cbd536f	0.023111073
102	0x3e8c3dc3	0.2739087
103	0xbe67546f	-0.22590803
104	0xbea70b6b	-0.326259
105	0x3dd34bc0	0.103171825
106	0x3d87d94b	0.06633242
107	0xbdb13f25	-0.08654622
108	0x3d60e2a2	0.054903634
109	0x3e382967	0.17984544
110	0x3db1eda5	0.08687905
111	0xbe42d8b1	-0.19027974
112	0x3d455bf7	0.048183408
113	0xbcfa72ef	-0.030572383
114	0xbd93b706	-0.07212643
115	0xbe0574ca	-0.13032833
116	0x3e674bf7	0.22587572
117	0x3e00a9f7	0.12564836
118	0x3de1eb71	0.11031235
119	0x3de74fda	0.11294527
120	0x3da92f4a	0.08260973
121	0x3e007ba7	0.1254717
122	0xbe7180a0	-0.23584223
123	0xbbfd532a	-0.007730861
124	0x3c4ddb17	0.012564442
125	0xbe5020bf	-0.20324992
126	0xbc70cb2a	-0.014696876
127	0x3d29298d	0.04129939
128	0xbe41e839	-0.18936242
129	0xbe0cc9dc	-0.13748878
130	0xbd68800a	-0.056762733
131	0xbdb68acd	-0.08913193
132	0xbe9f717f	-0.31141278
133	0xbcb760bc	-0.022384994
134	0x3d3a3af0	0.045466363
135	0xbdfc4ea1	-0.12319685
136	0xbd7b8325	-0.061404366
137	0x3cc8cca2	0.024511639
138	0xbe67c60f	-0.22634147
139	0xbf3e5c6a	-0.7435976
140	0xbde58bec	-0.112083286
141	0xbe849086	-0.25891513
142	0xbe33c74e	-0.17556497
143	0xbd5157ea	-0.051109232
144	0x3e788f14	0.2427333
145	0xbc55301a	-0.013011957
146	0xbe6a05f7	-0.22853838
147	0xbda5013b	-0.08056875
148	0xbd3e7421	-0.046497468
149	0xbe031375	-0.12800391
150	0xbd48e4f4	-0.04904647
151	0x3ed9ad06	0.4251482
152	0x3dc9c938	0.098528326
153	0x3e2bc822	0.16775563
154	0x3e6db57e	0.23213765
155	0xbcbf1ade	-0.023328241
156	0x3db4e33f	0.08832406
157	0x3bfc9dfc	0.007709263
158	0x3c8c8f9f	0.017158328
159	0x3d061137	0.03273126
160	0xbe0acad8	-0.13553941
161	0x3c87a8f8	0.016560063
162	0xbe521860	-0.20517111
163	0xbcbbaace	-0.022908594
164	0x3e69ccec	0.22832078
165	0xbefa0da6	-0.48838538
166	0xbf15181e	-0.58239925
167	0xbd3e448b	-0.046452086
168	0xbd79c03b	-0.06097434
169	0xbe8c0483	-0.27347192
170	0xbd93b901	-0.07213021
171	0xbdda7682	-0.10667135
172	0xbd07e683	-0.033178817
173	0xbde6171f	-0.11234879
174	0x3e3655a5	0.17806108
175	0xbcffdaf6	-0.031232338
176	0xbcf218fb	-0.029552927
177	0x3da28515	0.0793554
178	0xbf112ada	-0.5670601
179	0x3be9b0e7	0.007131684
180	0x3e54b62e	0.20772621
181	0xbcefacce	-0.029257204
182	0xbcba15ff	-0.022715567
183	0x3d52cdf1	0.051465932
184	0x3dfd4bbd	0.123679616
185	0xbeca1817	-0.39471504
186	0xbe5fd1b8	-0.21857345
187	0x3e5f1119	0.21783866
188	0xbd691677	-0.05690619
189	0xbdba1328	-0.09085685
190	0xbdf3b009	-0.118988104
191	0x3e4737ac	0.19454831
192	0xbea7dc02	-0.3278504
193	0xbd23e1c7	-0.04001024
194	0x3e769c8e	0.24083158
195	0x3e338850	0.17532468
196	0x3d7f52ea	0.062334932
197	0x3ea70d3a	0.3262728
198	0xbe534382	-0.20631221
199	0x3dd613ea	0.10453017
200	0xbd380996	-0.044931017
201	0x3e34aead	0.17644759
202	0xbc982ab5	-0.018575052
203	0x3e0f8eeb	0.14019363
204	0x3e3bb536	0.18330845
205	0xba1bb1bc	-0.0005939265
206	0xbd377544	-0.044789568
207	0x3d61d716	0.055136763
208	0xbd3ff896	-0.04686793
209	0xba053bfc	-0.0005082486
210	0x3c5aa03f	0.01334387
211	0xbd4ba06a	-0.04971353
212	0x3d1e0483	0.03857852
213	0xbdaf48db	-0.08558818
214	0x3dd31a0c	0.103077024
215	0x3d04397d	0.032281388
216	0xbda1bea1	-0.07897688
217	0xbde72c25	-0.11287717
218	0xbc045ce0	-0.008078784
219	0xbe1bb274	-0.15204793
220	0xbd407126	-0.046982907
221	0xbe024fda	-0.12725773
222	0xbe80aa5d	-0.25129977
223	0xbe7dd7cc	-0.24789351
224	0x3ce5bbeb	0.028043708
225	0xbe7a7582	-0.24458888
226	0xb9be1f98	-0.00036263163
227	0xbdcd7dcb	-0.10033759
228	0xbdf49bfc	-0.11943814
229	0xbee026e6	-0.43779677
230	0xbeccc3a7	-0.3999302
231	0x3c934ad4	0.017980017
232	0xbe9e2eb5	-0.3089501
233	0x3dacb95b	0.08433791
234	0x3c30ec8c	0.010798585
235	0x3e3c0336	0.183606
236	0xbe395608	-0.18099225
237	0xbed4112c	-0.4141935
238	0x3df72d2b	0.12069162
239	0xbef9ed82	-0.48814017
240	0x3e17087c	0.1474933
241	0xbd371df3	-0.044706296
242	0x3ceab3ed	0.028650248
243	0xbdb2f3e0	-0.08737922
244	0x3dcd4d2d	0.10024486
245	0xbe88b838	-0.26703048
246	0xbd879213	-0.06619658
247	0xbd47c15e	-0.048768394
248	0x3e24b990	0.16086411
249	0x3e965fa8	0.29369855
250	0xbeb03299	-0.34413603
251	0xbe8e9909	-0.27851132
252	0x3d518658	0.05115351
253	0x3c4d5a38	0.012533717
254	0x3c5fb6a9	0.013654389
255	0x3d56934c	0.052386567

fc.bias f4 [10]
0	0xbc8db84d	-0.017299796
1	0x3d05fb5d	0.03271042
2	0x3d6b772b	0.057486694
3	0x3d8f4405	0.069953956
4	0xbd6d2d25	-0.05790438
5	0xbdcd18a7	-0.10014468
6	0x3d1027e5	0.035194296
7	0x3e27ed74	0.16399175
8	0x3d06f533	0.032948684
9	0xbdb763a6	-0.08954553

exp_avg f4 [16, 1, 5, 5]
0	0x391740bc	0.00014424598
1	0xb8b7ae1a	-8.758549e-05
2	0x3a634d60	0.00086708926
3	0xb9ab8d0b	-0.00032720747
4	0xb992e65e	-0.00028018927
5	0xb964129e	-0.0002175071
6	0xb94b4a2d	-0.00019387221
7	0x3a1ec005	0.0006055835
8	0xb9ae0345	-0.00033190302
9	0xb9e56a40	-0.00043757446
10	0xb965ffbc	-0.0002193441
11	0xb9fda66b	-0.00048379911
12	0x3a5e5d59	0.0008482538
13	0xb98d30c5	-0.00026929952
14	0xb939fdb9	-0.00017737494
15	0xb995e709	-0.0002859163
16	0xb94f0415	-0.00019742579
17	0x3a2af476	0.0006521413
18	0xba0c025c	-0.0005340928
19	0xb98c2b77	-0.00026735265
20	0xba5663e2	-0.0008178336
21	0xba13ed7c	-0.0005642993
22	0x39cb0dca	0.0003872945
23	0xba7c0c56	-0.00096148753
24	0xb9ed8094	-0.0004529996
25	0x397767f0	0.00023594475
26	0xb8101b7b	-3.435787e-05
27	0xb9bc07ba	-0.0003586391
28	0xb74e1c80	-1.22851925e-05
29	0x39a5deff	0.00031637397
30	0x3813530e	3.5124882e-05
31	0x394edbdc	0.00019727595
32	0xb8191764	-3.6499827e-05
33	0x38fe2528	0.00012118585
34	0x391d225d	0.00014985488
35	0x39be69b8	0.0003631839
36	0x3901fc91	0.00012396487
37	0x37e801b6	2.7657352e-05
38	0xb80d990e	-3.3759563e-05
39	0x39852997	0.00025398724
40	0x3a08828a	0.000520744
41	0x39c018ee	0.00036639668
42	0x39034bf7	0.00012521433
43	0x391ccc13	0.00014953343
44	0x390ec525	0.00013615617
45	0x397cd643	0.00024112411
46	0x37c38a03	2.3310078e-05
47	0xb80b2a8b	-3.3179804e-05
48	0xb99f6ec4	-0.0003040937
49	0xb9d6a7ea	-0.00040942366
50	0x3b6e5d5e	0.003637157
51	0x3af13dfe	0.0018405316
52	0xb9ddeb08	-0.00042327517
53	0x3a6dceb5	0.0009071634
54	0xba7a4e03	-0.0009548368
55	0x3b3bd1f3	0.0028659075
56	0x3a84800d	0.0010108963
57	0x3a9e15b0	0.0012060907
58	0x3af5b69a	0.0018746436
59	0xb8c706fd	-9.490361e-05
60	0x3b4a4be4	0.0030867988
61	0xba04d99d	-0.00050678273
62	0x3acf4fc0	0.0015816614
63	0x3a8be887	0.0010674157
64	0x3a1da6aa	0.00060139096
65	0x3b0bcd9a	0.0021332265
66	0x3a390656	0.0007058134
67	0x3a37438f	0.0006990963
68	0x3ac8ec7c	0.0015329267
69	0x3a47f378	0.0007627527
70	0x3b23b642	0.002498046
71	0xbae0c613	-0.0017148874
72	0xbab40c5f	-0.0013736597
73	0xba9e66cb	-0.0012085078
74	0x38e6037d	0.000109679044
75	0xbb1f5f67	-0.002431834
76	0xbaa9d641	-0.0012957529
77	0xb7ffd0cf	-3.0495603e-05
78	0x38bdd0a7	9.051087e-05
79	0x3a46895d	0.00075735693
80	0xbadc5819	-0.0016810923
81	0xb9bd6245	-0.00036122106
82	0x3a60c3c8	0.00085740956
83	0xba8867bb	-0.0010406891
84	0x38930ed1	7.012266e-05
85	0xbaf13c5c	-0.0018404829
86	0x38a904f8	8.0594735e-05
87	0x3b30d2b3	0.0026981055
88	0x39eb7f5f	0.00044917592
89	0x3ab5f6d2	0.0013882762
90	0xbb11b8c8	-0.0022235382
91	0xba8642eb	-0.0010243332
92	0x3b4ba85a	0.0031075687
93	0x3a9f8dec	0.0012173033
94	0x39d9567b	0.00041453898
95	0xbb69af9a	-0.0035657645
96	0xbb182df9	-0.0023220761
97	0x3ae7d6a4	0.0017687869
98	0x3a4f694a	0.00079121126
99	0x3a2cbb4e	0.000658919
100	0xbacb1bdc	-0.0015495974
101	0xbb22e0eb	-0.00248533
102	0xbb456cc8	-0.0030124653
103	0xbaaddec4	-0.0013265242
104	0xbb2f6ea3	-0.0026768825
105	0x38d7cad4	0.000102897786
106	0xbae64b52	-0.0017570055
107	0xbb664a83	-0.0035139627
108	0x38d5b94e	0.00010191147
109	0xbb7a5c2d	-0.0038201914
110	0xba387512	-0.0007036488
111	0xbadf921b	-0.0017057093
112	0xbb5b7cd2	-0.0033491147
113	0xbaabe813	-0.0013115428
114	0xbb8cd88d	-0.004298276
115	0x3af5a9f4	0.0018742667
116	0x3a4cd228	0.0007813298
117	0xbb3bf163	-0.0028677813
118	0x39daca6f	0.00041731025
119	0xbb366846	-0.0027833148
120	0xbaaa1399	-0.0012975811
121	0xba8d7f86	-0.0010795451
122	0xbb5981ca	-0.0033188933
123	0xbb3ff9b2	-0.0029293117
124	0xbb3be9c2	-0.0028673266
125	0x3ba5a879	0.005055484
126	0x3bb2ba95	0.005454371
127	0x37d68c92	2.5576246e-05
128	0x3b86b785	0.0041112327
129	0x3b9251f1	0.0044653346
130	0x3ada7ae5	0.0016668706
131	0x3bcc5663	0.006235884
132	0xb9dba5c1	-0.0004189443
133	0x3b9dd5d8	0.004816752
134	0x3bbc578d	0.0057477416
135	0x3aee3ab5	0.0018175455
136	0x3c08b9ef	0.008345111
137	0x3b8d6567	0.0043150666
138	0x3bbd7ae2	0.005782471
139	0x3bc6ff60	0.0060729235
140	0x3ae575c9	0.0017506416
141	0x3c37bc0d	0.011214268
142	0x3c0389b7	0.008028439
143	0x3bd65f56	0.0065421266
144	0x3b9249cf	0.004464365
145	0x3b3861c6	0.002813445
146	0x3c5908a4	0.013246689
147	0x3bfecaae	0.007775626
148	0x3b81eb88	0.003964845
149	0x3ba9614e	0.0051690703
150	0x3c4362ac	0.011925381
151	0x3c664ff8	0.014057152
152	0x3c71c588	0.014756568
153	0x3c48fca4	0.0122672655
154	0x3c991b16	0.018689673
155	0x3c027382	0.0079621095
156	0x3c6687b0	0.014070436
157	0x3c866719	0.016406583
158	0x3c6cc77f	0.01445186
159	0x3c9d2a02	0.01918507
160	0x3bcbcec0	0.006219715
161	0x3c62c991	0.0138420025
162	0x3c6770dd	0.01412603
163	0x3c3e6bcd	0.011622381
164	0x3c8db290	0.01729706
165	0x3beebb26	0.0072854934
166	0x3c8fd381	0.017556908
167	0x3c3aad42	0.011393847
168	0x3bcb4155	0.0062028565
169	0x3c5526e3	0.01300976
170	0x39ec006d	0.00045013745
171	0x3c803501	0.015650274
172	0x3be5277c	0.0069932323
173	0x3ac2192e	0.001480853
174	0x3c18cf7f	0.009326815
175	0xbb64067f	-0.003479391
176	0xbb393b9a	-0.0028264285
177	0xbb81297a	-0.003941712
178	0xba1cd0b2	-0.0005982026
179	0x39b50092	0.00034523435
180	0xbb1f5230	-0.0024310462
181	0xba9b5c4a	-0.0011853066
182	0xbaa8fadb	-0.0012892144
183	0x37f89b86	2.9636325e-05
184	0xb9eac15d	-0.00044776025
185	0xbafc5891	-0.0019252469
186	0xbab7625f	-0.0013991109
187	0xb9b28486	-0.00034049543
188	0x392a20f4	0.0001622474
189	0xba1b1799	-0.0005916297
190	0xbb4f13e5	-0.0031597551
191	0xbadb39b0	-0.0016725566
192	0xba208266	-0.00061229465
193	0xb9616855	-0.00021496539
194	0x3abcb863	0.0014398213
195	0xbaf4fd1a	-0.0018691153
196	0xbaf9eb5a	-0.0019067333
197	0xba61f4b4	-0.00086195325
198	0xba458fe6	-0.0007536396
199	0x3aec7403	0.0018039945
200	0x3b00d6b8	0.0019659232
201	0x3aabdbd7	0.0013111782
202	0x3851f6ec	5.0059447e-05
203	0x3827074e	3.9822706e-05
204	0x3a72e7db	0.00092661165
205	0x3b1f40cd	0.00243001
206	0x3a37ab04	0.00070063793
207	0x39116097	0.0001386426
208	0x39815cbc	0.0002467389
209	0x3a0bc9cd	0.00053325
210	0x3a6087ad	0.0008565139
211	0xb943e62f	-0.00018682399
212	0x39d8ead5	0.00041373694
213	0xb95ada68	-0.00020871463
214	0x3a17aa72	0.0005785591
215	0x3a9fd041	0.0012192802
216	0x38ed5bb9	0.00011318125
217	0x3a6f3733	0.0009125352
218	0x3900b8d3	0.00012275884
219	0x3acb6c85	0.0015520012
220	0x3a13e3e7	0.0005641565
221	0xba0d4229	-0.0005388582
222	0xba2bef22	-0.0006558766
223	0xbb1ff670	-0.0024408363
224	0xbaaef279	-0.0013347409
225	0xba8ef262	-0.0010905976
226	0xbb04dc98	-0.0020273086
227	0xbb481862	-0.0030532111
228	0xbac0855a	-0.0014688179
229	0x37d99d83	2.5941763e-05
230	0xba4c888b	-0.0007802329
231	0xba87bd51	-0.0010356103
232	0xbae46e78	-0.0017427942
233	0xba61acb6	-0.0008608805
234	0x385c94e8	5.2590767e-05
235	0x3919bd09	0.00014661638
236	0x3913d6d5	0.00014099044
237	0xba2e6cc3	-0.000665378
238	0xb97434ac	-0.00023289275
239	0x3a4d132c	0.0007822986
240	0x3a820e6c	0.0009922511
241	0x38983042	7.2569135e-05
242	0xba1ce18a	-0.00059845357
243	0xb9de095b	-0.0004235011
244	0x3a16d274	0.0005753406
245	0x3ab57f3f	0.0013847126
246	0xb8ad147e	-8.2531e-05
247	0xb9bd7545	-0.00036136262
248	0xb95f5fcc	-0.00021302624
249	0x3994518b	0.00028289514
250	0xbc3a0b42	-0.011355223
251	0xbc35328f	-0.011059417
252	0xbc1929b8	-0.009348325
253	0xbc154885	-0.009111528
254	0xbbaabc04	-0.0052104015
255	0xbc4d7bcd	-0.012541723

exp_avg_sq f4 [16, 1, 5, 5]
0	0x368cb053	4.192852e-06
1	0x3631b798	2.648192e-06
2	0x360cb3d2	2.0966295e-06
3	0x35df41a2	1.6633896e-06
4	0x3603aec0	1.962224e-06
5	0x363dae8f	2.82648e-06
6	0x35cefbda	1.5421494e-06
7	0x35ab11ff	1.274573e-06
8	0x3591740e	1.0837118e-06
9	0x35b3fbb4	1.3409795e-06
10	0x3608644e	2.0323964e-06
11	0x3597b55b	1.1303158e-06
12	0x35247c6e	6.127583e-07
13	0x3517147b	5.6281687e-07
14	0x354b568a	7.5749324e-07
15	0x36025629	1.9421661e-06
16	0x35939980	1.0997028e-06
17	0x352cac75	6.432595e-07
18	0x3572554a	9.0276137e-07
19	0x3557f43a	8.044914e-07
20	0x3606df02	2.0097364e-06
21	0x35b24228	1.3281287e-06
22	0x358ee8a0	1.0647527e-06
23	0x35a13e48	1.2013561e-06
24	0x35abb5a7	1.2793361e-06
25	0x371a3e5f	9.193637e-06
26	0x3711c4b2	8.68847e-06
27	0x36c6aa96	5.9207186e-06
28	0x367cb4cf	3.765617e-06
29	0x367f780c	3.8067838e-06
30	0x37218a23	9.62851e-06
31	0x371d186b	9.3636145e-06
32	0x36b1035a	5.2754012e-06
33	0x363f25ca	2.8483214e-06
34	0x3645673f	2.9415385e-06
35	0x3727f45f	1.0010873e-05
36	0x3722e11e	9.708367e-06
37	0x369e7dad	4.7233975e-06
38	0x361726f8	2.2523436e-06
39	0x36357240	2.7037604e-06
40	0x371cea7d	9.352921e-06
41	0x371bf779	9.296339e-06
42	0x36a43a10	4.8943402e-06
43	0x3616e172	2.2482968e-06
44	0x362e984f	2.6016676e-06
45	0x37354dfb	1.0806597e-05
46	0x372456a0	9.795331e-06
47	0x36bf77cb	5.7061893e-06
48	0x3654439a	3.162981e-06
49	0x364f88a0	3.092493e-06
50	0x38810b97	6.153358e-05
51	0x387ff958	6.1028957e-05
52	0x3891b793	6.948332e-05
53	0x384f887a	4.947975e-05
54	0x3800ccda	3.070836e-05
55	0x388c6e3d	6.696254e-05
56	0x388e0559	6.772084e-05
57	0x3897af07	7.2328425e-05
58	0x384ac7c8	4.8346614e-05
59	0x380f0075	3.4094282e-05
60	0x387dd00d	6.0513663e-05
61	0x3880e5af	6.1462975e-05
62	0x389b8e7b	7.417515e-05
63	0x3898aabc	7.2797266e-05
64	0x387f1830	6.0819264e-05
65	0x38583c89	5.155479e-05
66	0x385c1ca5	5.2478765e-05
67	0x3889960a	6.560616e-05
68	0x38965ebf	7.170205e-05
69	0x38b2eee1	8.532196e-05
70	0x38564f21	5.109527e-05
71	0x3876c215	5.8831723e-05
72	0x388cea73	6.71939e-05
73	0x388a655a	6.599231e-05
74	0x38a1eaa9	7.720787e-05
75	0x3878d35f	5.9324662e-05
76	0x38867c53	6.412775e-05
77	0x388ea9be	6.8027046e-05
78	0x389a22bf	7.349764e-05
79	0x38a9e8ee	8.1019345e-05
80	0x38827cbe	6.222118e-05
81	0x389241c4	6.974072e-05
82	0x389b10d8	7.394113e-05
83	0x38b05044	8.4072846e-05
84	0x38b3d840	8.575665e-05
85	0x38806a46	6.1233106e-05
86	0x3888bc2f	6.520037e-05
87	0x388c4ce3	6.6900415e-05
88	0x38a02b2d	7.637437e-05
89	0x389d35c9	7.496362e-05
90	0x38652578	5.463275e-05
91	0x386abc1d	5.596514e-05
92	0x386def39	5.6727997e-05
93	0x3860cf53	5.3598847e-05
94	0x387ea476	6.0711485e-05
95	0x385284ee	5.0191702e-05
96	0x385b3eca	5.2272146e-05
97	0x38575de5	5.134744e-05
98	0x385bc323	5.2395404e-05
99	0x3877b1d6	5.905501e-05
100	0x389513c7	7.1085575e-05
101	0x38a1bb22	7.7119344e-05
102	0x38a27145	7.74586e-05
103	0x38b3e552	8.5780994e-05
104	0x38c38602	9.3232855e-05
105	0x389ff3fd	7.627157e-05
106	0x389e54ef	7.549847e-05
107	0x38a38cb9	7.798657e-05
108	0x38c529d9	9.401487e-05
109	0x38d85d16	0.00010317021
110	0x38b9de0f	8.862849e-05
111	0x38c848e5	9.550321e-05
112	0x38c5e0ca	9.435562e-05
113	0x38db3dee	0.00010454269
114	0x3900cab9	0.00012282551
115	0x38e7e921	0.00011058362
116	0x390031f8	0.00012225646
117	0x39003565	0.00012226922
118	0x38e90966	0.000111120564
119	0x39040d76	0.00012593516
120	0x38ec723c	0.00011274635
121	0x38f74879	0.00011791377
122	0x38fb0f39	0.00011971448
123	0x38e87c2d	0.000110857516
124	0x38fd8a99	0.00012089796
125	0x3993b00d	0.00028169193
126	0x39ad751b	0.00033084382
127	0x39aed703	0.00033348062
128	0x399380ef	0.00028134088
129	0x398a2f49	0.0002635664
130	0x3993ec79	0.0002821421
131	0x39ab6bce	0.00032695982
132	0x39b96b0c	0.00035365706
133	0x399d39e3	0.00029988503
134	0x398e61d6	0.00027157244
135	0x3994566e	0.00028293155
136	0x39b7b407	0.0003503861
137	0x39d63aaa	0.0004086097
138	0x399418a5	0.0002824712
139	0x398bf0c0	0.0002669152
140	0x39a8170b	0.00032060625
141	0x39bc1547	0.00035874007
142	0x39cccbec	0.00039061846
143	0x3998617e	0.00029064337
144	0x3993b999	0.00028176306
145	0x39a97f85	0.000323292
146	0x39b99e20	0.00035403762
147	0x39c0e9ce	0.00036795292
148	0x3995efca	0.0002859815
149	0x39927322	0.0002793307
150	0x3a851fa9	0.001015653
151	0x3aa7bd83	0.0012797568
152	0x3aab7166	0.001308006
153	0x3aa5a073	0.0012636319
154	0x3ad31130	0.0016103145
155	0x3a7f8931	0.0009747921
156	0x3aabc7bc	0.001310579
157	0x3aaef6a0	0.0013348646
158	0x3a9b6ecb	0.001185858
159	0x3abac0f3	0.0014248177
160	0x3a6f3afd	0.00091259164
161	0x3a8eb612	0.0010888001
162	0x3a9897d4	0.0011641928
163	0x3a80e2fb	0.000983327
164	0x3aa08523	0.0012246709
165	0x3a7d7f0e	0.00096701167
166	0x3a8fd8cd	0.0010974646
167	0x3aa1b818	0.0012338189
168	0x3a868cf5	0.0010265397
169	0x3a9b1763	0.0011832531
170	0x3a8074f9	0.0009800486
171	0x3a8752fd	0.0010324415
172	0x3a97532a	0.001154517
173	0x3a88797b	0.001041218
174	0x3a951d3c	0.001137651
175	0x3901276c	0.00012317084
176	0x3905110d	0.0001269022
177	0x391116c5	0.0001383676
178	0x390f3692	0.00013657872
179	0x390bf6f1	0.00013348066
180	0x38fd821c	0.00012088215
181	0x38d2e086	0.00010055401
182	0x38bf17f2	9.11205e-05
183	0x38bf331f	9.117112e-05
184	0x38e2cf7f	0.00010815169
185	0x3907f69b	0.00012966471
186	0x3886751e	6.411433e-05
187	0x380e0430	3.3859338e-05
188	0x37fcbce7	3.0128705e-05
189	0x3860b994	5.3578595e-05
190	0x39012725	0.00012316981
191	0x38525bb7	5.0153318e-05
192	0x3794d6c1	1.7742977e-05
193	0x3778aa84	1.4821653e-05
194	0x38001e4d	3.0545798e-05
195	0x38de182b	0.000105902865
196	0x38a2ef4d	7.769335e-05
197	0x38135372	3.5125246e-05
198	0x37c0dcf3	2.2991071e-05
199	0x38076058	3.2276235e-05
200	0x37f85151	2.960177e-05
201	0x37e27434	2.699541e-05
202	0x37fe20ad	3.0294375e-05
203	0x37fc0aba	3.0045736e-05
204	0x38067490	3.2056647e-05
205	0x37c75749	2.3763294e-05
206	0x37c25841	2.3167699e-05
207	0x37e84fbd	2.7693686e-05
208	0x37fbe1de	3.002671e-05
209	0x3809fa66	3.2896547e-05
210	0x37cfd7a2	2.4776735e-05
211	0x37d38c6c	2.521855e-05
212	0x380af5a4	3.3130535e-05
213	0x38255114	3.9414575e-05
214	0x38235f7c	3.8951155e-05
215	0x38554ee5	5.0856634e-05
216	0x382fb2f0	4.18899e-05
217	0x381338dd	3.510049e-05
218	0x3809f6ca	3.2893186e-05
219	0x380303c4	3.123634e-05
220	0x38554e5e	5.0856142e-05
221	0x382aa235	4.0682226e-05
222	0x3814ed5e	3.5507015e-05
223	0x380319ce	3.1256866e-05
224	0x37fdc7f4	3.025306e-05
225	0x3813b5a8	3.521671e-05
226	0x384125d4	4.6050016e-05
227	0x384b3bfb	4.8454833e-05
228	0x382c47ee	4.1074985e-05
229	0x3817b506	3.6169797e-05
230	0x3809822c	3.2784577e-05
231	0x3811b7f6	3.474202e-05
232	0x381c68ab	3.7290778e-05
233	0x3810c195	3.4512563e-05
234	0x37ff4736	3.0431529e-05
235	0x37b0bab1	2.106777e-05
236	0x37b5d3a5	2.1675436e-05
237	0x37b9c1b6	2.2143922e-05
238	0x37ac44a5	2.0535963e-05
239	0x37b89b94	2.2006956e-05
240	0x37b5ad40	2.1657557e-05
241	0x37130cb7	8.764843e-06
242	0x36b7ef12	5.4816564e-06
243	0x36acccc4	5.1498373e-06
244	0x37357eda	1.0817976e-05
245	0x37c11c8e	2.302069e-05
246	0x36c2cd40	5.805545e-06
247	0x365782d3	3.2113646e-06
248	0x3645786e	2.9425387e-06
249	0x36bf7afa	5.70656e-06
250	0x39e16cf2	0.00042996515
251	0x39c920d3	0.00038362163
252	0x39c9fe2f	0.0003852709
253	0x39ccd54b	0.00039068828
254	0x39e6f344	0.00044050266
255	0x39ed6082	0.00045276067

exp_avg f4 [16]
0	0x3237d080	1.0699409e-08
1	0xb347d6d2	-4.6528676e-08
2	0xb27e1b5b	-1.4790966e-08
3	0x3236c432	1.0638404e-08
4	0xb21286e3	-8.528988e-09
5	0x341980b6	1.429606e-07
6	0x32ad7094	2.0191045e-08
7	0xb381028c	-6.007494e-08
8	0xb1447d1f	-2.8592877e-09
9	0x347d014e	2.3562936e-07
10	0x3403f006	1.2287646e-07
11	0x32261fd8	9.669712e-09
12	0x3423b5a1	1.5246634e-07
13	0xb412667d	-1.3634595e-07
14	0x31b4bc79	5.2601163e-09
15	0xb223a40c	-9.525149e-09

exp_avg_sq f4 [16]
0	0x280a0169	7.660845e-15
1	0x27f27f36	6.7306415e-15
2	0x29107650	3.2077043e-14
3	0x28f7d600	2.7515316e-14
4	0x2998451e	6.762146e-14
5	0x2aa815ba	2.985787e-13
6	0x2b5c9342	7.836406e-13
7	0x299f0a05	7.0627565e-14
8	0x289c47d9	1.7350638e-14
9	0x28e644a4	2.5564898e-14
10	0x2aae1924	3.0926054e-13
11	0x2abb49a5	3.3268974e-13
12	0x2968ca7e	5.1689982e-14
13	0x29835b4e	5.8334075e-14
14	0x27ca8f8e	5.6221905e-15
15	0x294da4a1	4.5661937e-14

exp_avg f4 [16]
0	0xba98aa8e	-0.0011647509
1	0x3b520640	0.0032047182
2	0x3bac60d4	0.0052605662
3	0xbc09f1b2	-0.008419441
4	0xbbbc4b7b	-0.0057463027
5	0x3c3a2b9e	0.011362938
6	0x3b08bbcb	0.0020863886
7	0xbbbe3a7c	-0.0058053117
8	0x3b97c6ec	0.0046318676
9	0xbb3b8831	-0.0028615112
10	0xbb86017d	-0.004089533
11	0x3c4eb2f3	0.012615907
12	0x3bc84c20	0.0061125904
13	0xbb8dfdba	-0.004333225
14	0xbb062e23	-0.0020474277
15	0xbbfb139b	-0.0076622493

exp_avg_sq f4 [16]
0	0x394530c3	0.00018805549
1	0x391edbeb	0.0001514998
2	0x39110e40	0.00013833586
3	0x38da5dfc	0.00010412556
4	0x3915b265	0.00014276204
5	0x391cfaea	0.00014970792
6	0x3960f753	0.0002145444
7	0x38adc9e2	8.2868864e-05
8	0x38b42161	8.589286e-05
9	0x38537f9d	5.042517e-05
10	0x394fd07c	0.00019818725
11	0x394818b4	0.00019082689
12	0x38c39842	9.326685e-05
13	0x38d53d23	0.00010168019
14	0x3932a700	0.00017037615
15	0x38c28143	9.274718e-05

exp_avg f4 [16]
0	0x3a709fc5	0.0009179081
1	0x3b958b02	0.00456369
2	0x3bb312bd	0.0054648803
3	0xbbcafd48	-0.0061947443
4	0xbbc4f7c9	-0.0060109836
5	0x3b9e9c8d	0.0048404397
6	0x3a1d0811	0.00059902767
7	0xbbb24162	-0.005439923
8	0x3b37f1e3	0.002806776
9	0xba888e57	-0.0010418397
10	0xba410b2c	-0.00073640305
11	0x3b2db970	0.0026508234
12	0xbae59c08	-0.0017517814
13	0xbb830d63	-0.0039993986
14	0xba61db1f	-0.00086157204
15	0xbbbafc62	-0.005706356

exp_avg_sq f4 [16]
0	0x38ce5021	9.8377706e-05
1	0x38ea826d	0.00011182283
2	0x3891631e	6.932601e-05
3	0x38654eef	5.4671367e-05
4	0x389a706b	7.364232e-05
5	0x3913eddd	0.00014107623
6	0x39644bd2	0.0002177202
7	0x38f8d118	0.00011864508
8	0x382d4af6	4.1316227e-05
9	0x387868ac	5.922529e-05
10	0x3890bfbd	6.902169e-05
11	0x3930e1b7	0.00016868753
12	0x38462347	4.7239733e-05
13	0x38eed9d9	0.00011389302
14	0x38a734b8	7.973e-05
15	0x38d190ba	9.992854e-05
