oracle/train/non-iid/checkpoint/fmnist/ckpt_1_1.pth (torch, 358777 bytes, 34 tensors)

layer1.0.weight f4 [16, 1, 5, 5]
00000000: 7d10 7a3d bc8a e93b d28d 9e3e 59c9 b33d
00000010: 8041 42bd ebac 7bbd a22c 463e 003e c33e
00000020: 54aa 9a3d 70d2 1dbe e8c1 423e 4b3e 153f
00000030: af56 063f 29d7 593d 38bf 333c 562e 813c
00000040: 4ea4 383f b413 233f fce5 fd3c 95d8 42be
00000050: 1b2e 00bd 490a 393e 00f2 3c3e 904a 53bd
00000060: 690b c5bd d426 75bd 36f5 81bd f2fb dcbd
00000070: ae9c 133e 6a8e 3dbc 8dd5 c6bd d02d 6bbe
00000080: 55f9 30bd 132f 303d 6d3b 713e a074 d13d
00000090: badb 8abe 80a2 99be f42e 013f 0228 d4bd
000000a0: 7212 e1be 5e82 76be c99a 9e3e b288 023f
000000b0: 7182 c9be 58c2 4cbe 6105 7bbe 4f38 013f
000000c0: 3f0b ca3d d3af c4be c4b8 953e a822 2cbe
000000d0: dd81 853d 3078 cfbe d2e8 713e 2691 a43e
000000e0: 938b b93d 10b4 c9be 1828 22bf 8b8b bc3e
000000f0: bca9 d13e 9ee6 0c3e 1e28 b7bd 6704 68be
00000100: 1d67 383e 5c6d d43d 38dc 183e f2e5 babc
00000110: 9655 2cbe df3f b33e a3bd 0abe 6046 86bb
00000120: a5b9 0dbe ad7b 21be 7a2b b23e be12 b33e
00000130: 4c46 a03e 7623 003e 6101 773d 78df 8c3d
00000140: c05d 10bc 98d4 a8be 3c04 f5bd 1805 293d
00000150: 714c 873e d7b7 2fbf 0ee1 5fbf 771f 1abf
00000160: 536c 9dbe 4aae 673e c6b3 543d 1475 34bf
00000170: 8ab8 bdbe 7f6a 473e 645c 1a3e 108b 333e
00000180: 9cf2 4f3e 888f 6a3e c491 c73c 94ca adbe
00000190: d456 91bb 8210 ab3d be19 eebd bc4b c33d
000001a0: c2f6 563e 97ca b6be 0c59 e5be 820b 6bbe
000001b0: 3800 c4bd ee01 c1bd bf71 4cbe 9152 c8bd
000001c0: 7be7 20bd 861e 913e 1d10 2e3d b4a1 56bf
000001d0: c0e8 68bf 1f64 14be 7fb3 8d3d 9877 f53c
000001e0: a1f6 d1be 8d9b 04bf 23f6 c9bd f31b 2fbe
000001f0: 94d0 8a3c 8f06 2fbe 92bf 85be b4bb 09bf
00000200: 5832 c0bd aa92 92be ab4c e23c 2935 a7be
00000210: fe05 e0be 2731 75be 688b 783d 0d95 d5be
00000220: 8e2b bcbe 4b44 80be 5cf8 513e a10a b03e
00000230: 9903 29be 4904 6cbe 52d6 b3bd cc0d ad3e
00000240: 3a60 af3e c7ae 493e fa75 aa3e 8e5d 42bd
00000250: da34 243e 9f94 d9bd ae96 313e 641f bc3e
00000260: 34ae d53e bbbb 963e a4a0 28be eff4 c03d
00000270: 6508 f0be ec8a 66bf b4fe 7bbf 2d13 36bf
00000280: f817 b8ba 3ba1 19be b291 17bf eb36 02bf
00000290: 3426 913e d892 f0bd bbfa a03c 7820 843e
000002a0: 7f31 933e e848 f93d f05b dc3d f4ab 0e3e
000002b0: be2c e03d fded e43c 1950 6a3e 9d2a 8dbd
000002c0: cda1 c1bd b40c 053d c167 a53e b7c2 33bd
000002d0: 806e 10be 16f2 03be 1272 7f3e 3178 903d
000002e0: fe2c adbd 9ba1 2abe 3c67 fd3e 284a ee3e
000002f0: 1413 9dbe 5811 cbbe a386 de3c b5b9 3c3e
00000300: 2a94 303f 45f3 86be d62e 32bf cacf 093e
00000310: a184 e83d c7c5 2a3d bf3e 36be 0452 80be
00000320: 7b69 6bbe 1877 873e 4ac9 9c3c 84e0 783c
00000330: 739c 373e 6042 dfbd 4cce 28bd cd32 af3e
00000340: 0f90 b33e f0bf eb3e 6acc 153d 96db bd3c
00000350: 9c51 2e3e 3b4b e43e 9eb3 d43e 0558 9ebe
00000360: 3303 47be 366d 813e 0aad 8f3e 89e7 783e
00000370: 4c4f bbbe 70a9 20be dde5 b23c 6e42 4fbb
00000380: cff2 263d 96d9 80bd 960a 80be 37c1 04be
00000390: 82bb 543d 495a c53b aec5 1dbf cc6f 13bf
000003a0: 7cac 08bf 5d4a 82be f7da 19be a2ad 13bf
000003b0: 61d7 5dbf b64f 07bf 849d fcbd a821 663e
000003c0: 3c2b 503d 495d 01bd a0f5 7c3d 3e1f 49bc
000003d0: b5ef 81bd 8098 133e 0550 a6bc 5fba d23d
000003e0: 4210 703e 19a7 883e e96c 8bbe f6b3 acbe
000003f0: bef1 92be d920 24be 4d38 89be dd0e 94be
0.06105088 0.007127134 0.30967575 0.087786384 -0.047425747 -0.061444204 0.19352964 0.3813324
0.07552019 -0.15412307 0.19019282 0.58298177 0.5247602 0.05318371 0.010970883 0.015769165
0.7212571 0.6370194 0.030993454 -0.19027932 -0.03129397 0.1807033 0.1845169 -0.05158478
-0.09621317 -0.059851483 -0.063455984 -0.10790242 0.14415237 -0.011569599 -0.097087 -0.22966695
-0.04320653 0.043013643 0.23557825 0.102273226 -0.27120763 -0.3000679 0.5046227 -0.103591934
-0.43959385 -0.24073169 0.30977467 0.5098983 -0.3935733 -0.19996011 -0.2451377 0.50476545
0.09865426 -0.38415393 0.29242527 -0.16810095 0.0651891 -0.40521383 0.2362397 0.3214199
0.09059825 -0.3939519 -0.6334243 0.36825213 0.4094981 0.13759848 -0.089431986 -0.2265793
0.18008085 0.10372421 0.14927757 -0.022814725 -0.16829523 0.35009667 -0.13548903 -0.004097745
-0.13840349 -0.15769835 0.34798795 0.34975237 0.31303632 0.12513527 0.06030405 0.06878561
-0.008811414 -0.32974696 -0.11963698 0.041264623 0.26425508 -0.6863989 -0.8745278 -0.6020426
-0.30746707 0.2262508 0.051929258 -0.7049115 -0.37054855 0.19474219 0.15074307 0.17533517
0.20307392 0.22906315 0.024361499 -0.33943617 -0.0044353995 0.08352758 -0.11626004 0.095359296
0.20992568 -0.3570144 -0.447945 -0.22953609 -0.09570354 -0.09424196 -0.19965266 -0.09781373
-0.039283257 0.283436 0.042495836 -0.8384049 -0.9098015 -0.14491318 0.06919002 0.029964253
-0.41008475 -0.5179985 -0.098614 -0.17100506 0.01694516 -0.17092346 -0.2612272 -0.5380204
-0.09384602 -0.2862752 0.027624449 -0.32657745 -0.43754572 -0.23944531 0.060679823 -0.4171528
-0.3675198 -0.25052103 0.20504898 0.3438311 -0.16505279 -0.2304851 -0.08781113 0.3379959
0.34253103 0.19695579 0.33293134 -0.047452502 0.16035786 -0.1062405 0.17342636 0.367427
0.4173447 0.29440102 -0.1646753 0.094217174 -0.46881405 -0.9005573 -0.9843552 -0.7112301
-0.0014045229 -0.15002911 -0.5920669 -0.5086505 0.2834946 -0.11746758 0.019650808 0.25806022
0.287487 0.12172109 0.10759723 0.13932782 0.10946034 0.027945513 0.22882117 -0.068928935
-0.09454689 0.032482818 0.3230572 -0.043886866 -0.14104652 -0.12885317 0.24945858 0.07054175
-0.08455847 -0.1666321 0.49492824 0.46540952 -0.30678618 -0.3966167 0.02716381 0.18430217
0.6897608 -0.26357475 -0.69602716 0.13458171 0.11353422 0.04169252 -0.17797373 -0.25062573
-0.22989456 0.2645805 0.01913895 0.015190247 0.17930774 -0.10901332 -0.041212365 0.34218445
0.35070845 0.46044874 0.036571898 0.023175996 0.17023319 0.44588646 0.41543287 -0.3092653
-0.19434814 0.25278634 0.28061706 0.24307074 -0.36583936 -0.15689635 0.021838123 -0.0031625289
0.040758904 -0.06291501 -0.25008076 -0.1296433 0.051936634 0.0060227257 -0.6162976 -0.57592463
-0.5338819 -0.2544736 -0.15024935 -0.5768682 -0.8665677 -0.52856004 -0.12334731 0.22473776
0.05082248 -0.031583104 0.061757684 -0.012275515 -0.063445486 0.14413643 -0.020301828 0.10289454
0.23443702 0.26689985 -0.2723153 -0.3373105 -0.2870006 -0.16028155 -0.26800767 -0.2891759

layer1.0.bias f4 [16]
00000000: f959 d13e 721b 2fbe f2e0 543a 8578 9ebd
00000010: a0fd 693c b293 e43b c70d 57be 9d13 97bc
00000020: ffea 6bbe 16e5 aa3e 2ced 453e 19dd 143f
00000030: d405 e2bd cfa3 1c3e 6cb1 053f 84c9 88be
0.40888956 -0.17100313 0.00081206777 -0.07737831 0.01428166 0.0069756145 -0.2100135 -0.01844197
-0.23038863 0.33377904 0.19328755 0.5814987 -0.11036268 0.15296863 0.5222385 -0.26716244

layer1.1.weight f4 [16]
00000000: 444a 1f3f 291e 3e3f 8cb5 4f3f ec38 c13f
00000010: 08a0 683f d008 8e3f 4b45 a13f 8556 963f
00000020: f186 193f 5c4b a63f e910 873f c137 3d3f
00000030: 170f 703f bc42 983f 27c1 8d3f 8a39 073f
0.62222695 0.7426477 0.81136394 1.5095496 0.9086919 1.1096439 1.2599272 1.1745154
0.5997153 1.2991748 1.0552036 0.739132 0.93773025 1.1895366 1.107457 0.5282217

layer1.1.bias f4 [16]
00000000: 1b2c 1cbf e633 173d f902 bcbe f150 1bbf
00000010: c2ec 0abf e059 f2be 8fbb 07bf 6f7d 48be
00000020: 36b5 c3be 7485 24bf e766 2dbf a095 93be
00000030: 1111 29be 124c 34bf 70f7 453c d0af ebbe
-0.610048 0.03691473 -0.36721018 -0.6067038 -0.54267514 -0.47334194 -0.53020567 -0.19579099
-0.3822419 -0.64266133 -0.6773514 -0.28825092 -0.16510417 -0.70428574 0.0120829195 -0.46032572

layer1.1.running_mean f4 [16]
00000000: d583 1540 e4a0 12bf 0424 dc3e d92c 8fbf
00000010: 1ebc 04c0 165d 81bf 47ad 7ebf 7c0c 07bd
00000020: 4f99 7b3f fdb4 bebf 6807 94bf 27d8 a53f
00000030: d354 c3be 98cb b5bf 8beb ff3e 56b4 a13f
2.3361714 -0.5727675 0.42996228 -1.1185561 -2.0739818 -1.0106533 -0.9948315 -0.03297089
0.98280805 -1.4898983 -1.156476 1.295659 -0.38150653 -1.4202757 0.49984393 1.2633159

layer1.1.running_var f4 [16]
00000000: aa2c 7641 554d b73f f4e6 c03f 38f4 c240
00000010: 6212 8941 6ea8 c340 f2c1 9940 8175 f13f
00000020: 7730 f840 9919 7a41 29c2 0341 6346 9440
00000030: 460c a63f 9515 2641 c093 b23f cf03 2f41
15.385904 1.4320475 1.5070481 6.092312 17.133976 6.1143103 4.804925 1.8863984
7.755916 15.631249 8.234902 4.633592 1.2972496 10.380269 1.395134 10.93843

layer2.0.weight f4 [32, 16, 5, 5]
00000000: 565e cabd 231b 19be f27a 03be 96e0 66be
00000010: a71e 65be 60cb 1abd 0ee2 a1bd 9bc2 863c
00000020: ed99 58be 5361 95be b242 673d 5ffe 553e
00000030: 9328 1e3e 0aba e13c d675 10bd 5803 e83d
00000040: abc2 a73e 7ffc 643e 10c2 a53d 6fe1 b8bd
00000050: 227a a3bd 15e1 323d dd9c 65bd d411 86bc
00000060: 8219 83bd 5c87 00bf 6061 863d 8d76 21be
00000070: 3fe6 e1bb 1f73 cebd 45c9 d5be 8551 043e
00000080: 8aae 05be 4705 edbe e765 5ebd 9339 dcbc
00000090: f125 073e b95f 9abe 04ac 8bbe 7d37 9dbd
000000a0: cd4b da3d 1df4 653e cd92 0ebe b499 45be
000000b0: 56c1 9cbe 0967 a63d f0f2 ec3d 438c 4dbe
000000c0: d081 7d3d 050b b2bd 12c4 9f3d 129d ebbd
000000d0: 6a59 36be 3601 8ebe 9315 f1bd b6a3 7abd
000000e0: c070 c33d cc30 1ebe e4ab 9abe e2fe 3a3c
000000f0: 0b5e 523d 7e38 fdbd 43c7 5a3d 9621 7abe
00000100: 4590 62be e066 cbbd fb45 cbbc 30a3 14be
00000110: 0a12 debd 1680 703c 7984 14bf 259b d43d
00000120: 2db1 f63d c1d3 19be 51ec 833d 0b68 f2bd
00000130: 374e 0dbd b644 1abe 8f27 38be 919f 883c
00000140: 9f03 15be f413 8bbe fcb2 7cbe 72dd a2be
00000150: 04bd d0bd 501e b9be 9fca 02bf 9a9c 03bf
00000160: 44fc b7be fd0a 29be 1230 973c 8098 97be
00000170: f5e0 9dbe 87ba c3be 2713 8d3d ef7b b43e
00000180: 501b 553e 0a88 823e 3cc7 2f3e c2b0 243c
00000190: 1f18 fabc d83b 793d c4c4 b0bd 3390 5cbe
000001a0: ee05 9fbd fadf f03c 1258 02bd a825 88be
000001b0: f2e0 4abe 83af 9ebd 1cf1 8cbd 5a0a 89be
000001c0: 502f 87be 759c 88be c135 b2bd 7893 52bd
000001d0: 03d7 87be c56c f0bd 59f7 38be 6181 55be
000001e0: 9253 02be 6fd7 7dbe 4203 32bc c6f3 fdbc
000001f0: 5c2a aebd 5e19 8a3e d5ac 9a3e 1473 1e3e
00000200: 540e 9bbe 24d1 85be 1bee 7a3e bbab 0e3e
00000210: 315e 6abe 3d32 b0bd 13a3 6e3d a495 ef3d
00000220: 5a6d 8c3d e514 a7be 02c6 91bd d054 4fbe
00000230: c9fb aabd 6989 f7bd 4988 0dbe 8e7d 88be
00000240: 6302 30be a7b7 94be fd96 4abe 160f fdbd
00000250: cf7d a1bc 1b8c 443e c02e b03e 7ebc 013f
00000260: af96 e5bd a3eb dcbe 2a0e 78be fcd1 9c3d
00000270: e0d2 f338 ce83 07bb 5946 36be 7240 f23d
00000280: a270 c0bd 6ceb bbbe d1bf c3be 1631 72be
00000290: 7f9e 3cbe c5f7 91be a3ad 73bc bdb7 9dbe
000002a0: ca3d f43d 7376 d03e 1722 81bd a1c1 a23e
000002b0: af3c ba3e 7a48 ae3d 1e1f d73e e855 0dbc
000002c0: 3ee8 c7bb 77f4 573e a238 213e 2fa8 93be
000002d0: e9c2 a0be b4aa 11bd 3bb2 8b3e 1a50 f1bd
000002e0: 3db9 c5be 6b51 f5be 6cde a9bd bd53 ba3e
000002f0: 87cd 113c b099 3a3e f8b7 dabe e620 9d3e
00000300: 457f 6e3e 010b 0a3e 5b06 6a3e cedd ebbd
00000310: f2ae dc3e 142b a5bd 3305 91bd 82fd 7ebd
00000320: a1e7 d5be 92d9 d6be aaea 85be d37a 9bbe
00000330: 874f 7dbd 2755 b4be 4a23 20be b46d a7be
00000340: b9d6 dcbe cb55 a3be 8feb debc 8c00 b83d
00000350: 4001 7dbe 3e81 bbbe a2a7 42be c138 783e
00000360: df9e 993e 6811 ed3a dce4 e5bd 1938 59be
00000370: 0f1c 8a3d 39d4 b33d 8cce bebd 9fe5 86bc
00000380: 75e0 68be d2a2 7c3d 7148 503e f2a8 25be
00000390: 7356 f5be 41a1 f8bd d662 783e a7b5 353e
000003a0: 0e4e 51be 4ba9 83be 5978 f4bc 5bc5 9d3d
000003b0: cd03 c3be dca0 f2be 0c88 babe 6897 a2be
000003c0: 1a7e 5dbe eb56 afbe 2502 72be 0138 9ebe
000003d0: e05d 7cbd 8cff 67be 818e 9fbe 883c 22be
000003e0: de51 17bd 54ea c7bc 7227 a23e 0aed 913e
000003f0: afaa e43d addd 1fbd f0a1 393e 7303 97be
-0.098812744 -0.14951758 -0.12839869 -0.2254661 -0.22374974 -0.03779161 -0.07904445 0.016450217
-0.21152468 -0.29175815 0.05646009 0.20897816 0.15445165 0.02755453 -0.035268627 0.11328763
0.32765707 0.22361945 0.08093655 -0.09027373 -0.07982279 0.043671686 -0.0560578 -0.016365923
-0.064013496 -0.5020654 0.065615416 -0.1576788 -0.0068939026 -0.10080551 -0.4175512 0.12921722
-0.13054863 -0.4629309 -0.0542964 -0.026882922 0.13198067 -0.30151156 -0.27279675 -0.07676599
0.10658989 0.22456403 -0.13923188 -0.19296914 -0.30616254 0.08125121 0.11569774 -0.20073037
0.061891377 -0.08693508 0.07801069 -0.11504568 -0.17807546 -0.277353 -0.11771693 -0.061191283
0.0954299 -0.15448302 -0.30209267 0.011413308 0.051359218 -0.12364291 0.053412687 -0.24426875
-0.22125347 -0.09931731 -0.024813643 -0.14515376 -0.108432844 0.014678976 -0.5801464 0.10381154
0.12045512 -0.15022184 0.06441558 -0.11836251 -0.03449842 -0.15065274 -0.1798384 0.01667765
-0.14552163 -0.2716366 -0.24677652 -0.31809574 -0.10192302 -0.3615594 -0.51090425 -0.5141083
-0.3593465 -0.16508098 0.018455539 -0.29608536 -0.3083569 -0.38228247 0.06888419 0.35250804
0.208112 0.25494415 0.17165846 0.010051908 -0.03052908 0.060848087 -0.0863128 -0.21539383
-0.07764803 0.029403675 -0.03182227 -0.2659123 -0.19812372 -0.0774832 -0.068819255 -0.2676571
-0.26403284 -0.26681867 -0.08701659 -0.05141017 -0.26531228 -0.11739496 -0.18063106 -0.20850135
-0.12727192 -0.24789213 -0.010865035 -0.03100003 -0.08504173 0.2697248 0.30209985 0.15473586
-0.3028437 -0.26136124 0.24504893 0.13932697 -0.22887494 -0.08603332 0.05826099 0.116984636
0.06856795 -0.3263313 -0.07117845 -0.20247197 -0.083488055 -0.12086756 -0.1382152 -0.2665829
-0.1718841 -0.29046366 -0.1978416 -0.12356393 -0.01971331 0.19194071 0.34410667 0.5067824
-0.11210381 -0.43148527 -0.24224153 0.07657239 0.000116264215 -0.0020677927 -0.17800273 0.11828698
-0.09396483 -0.3670305 -0.38232282 -0.23651537 -0.18419836 -0.28509346 -0.014872941 -0.30804244
0.11925848 0.4071537 -0.0630533 0.31788352 0.36374423 0.085099176 0.42015928 -0.008626439
-0.0061006835 0.2108935 0.1574426 -0.2883925 -0.31398705 -0.035563186 0.27284417 -0.11782856
-0.38617888 -0.4791368 -0.08294377 0.36392012 0.008899099 0.1822269 -0.42718482 0.30689162
0.23290737 0.1348076 0.22853987 -0.11516915 0.43102223 -0.08064857 -0.0708107 -0.062253483
-0.4177828 -0.41962868 -0.26155597 -0.30367145 -0.06184342 -0.35221216 -0.15638462 -0.32700884
-0.4313257 -0.31901392 -0.027211932 0.08984479 -0.24707508 -0.3662204 -0.1900926 0.242404
0.30004022 0.0018086853 -0.11225292 -0.21212806 0.06743633 0.08780713 -0.093167394 -0.016466914
-0.22741874 0.061678715 0.20340134 -0.16177729 -0.47917518 -0.12140132 0.24256453 0.17745076
-0.20439932 -0.25715098 -0.029842542 0.07703658 -0.38088837 -0.4738835 -0.3643192 -0.3175614
-0.21630135 -0.34246 -0.2363363 -0.30902103 -0.061612964 -0.22656077 -0.3116341 -0.15843403
-0.03694331 -0.024403729 0.3167072 0.2850116 0.11165368 -0.039029766 0.1812818 -0.2949482

layer2.0.bias f4 [32]
00000000: cc5d 3ebc 19cd 31bd 00af 913c 2db6 36be
00000010: 64c5 163c 777f 72bd 0046 243b ad60 4b3e
00000020: d611 db3c 9e25 adbc 6c9f e8bd 7b7c 5b3d
00000030: 232b 69be 9d38 afbd 6940 1bbe 8201 cfbd
00000040: 4673 3bbd 296c e7bd 4735 3cbe eeb0 a63c
00000050: c71a 40bd 34e4 be3d 6f76 7fbb 17df ea3c
00000060: 117f dfbc 29be e13d e8ee d4bc c580 003e
00000070: 108a 0d3e 7f29 8cbd 4cce 52bd 6813 e03d
-0.011619043 -0.043408487 0.017783642 -0.17842932 0.009202335 -0.05920359 0.0025066137 0.19861098
0.026741903 -0.021136101 -0.11358532 0.05358551 -0.22770362 -0.0855572 -0.1516129 -0.101077095
-0.04576423 -0.11299927 -0.18379699 0.020348039 -0.046900537 0.0932087 -0.0038980504 0.02867083
-0.02728227 0.11022598 -0.025992826 0.12549122 0.13822198 -0.06843852 -0.05146627 0.109412014

layer2.1.weight f4 [32]
00000000: efb7 183f 912d c13e 88ee 1e3f deb8 f63e
00000010: e54c 053f cca5 df3e 5f51 203f 2465 043f
00000020: 878f 113f a9f3 093f 5ce9 f23e eaf7 f43e
00000030: 8fb8 fc3e 31a4 193f 4d99 083f c810 043f
00000040: 2641 cb3e f908 f93e 3b64 e63e f5ae 153f
00000050: 94c3 1c3f ddac 173f 8b28 e73e adc6 e73e
00000060: 6b8c cb3e a8d6 0c3f f0fe 003f 8f29 013f
00000070: c4bc 113f 5f53 f43e 4c6b 273f e38c 0d3f
0.5965566 0.37730077 0.6208272 0.48187917 0.52070457 0.4368118 0.6262416 0.5171683
0.5685963 0.5388742 0.47443664 0.47845393 0.49359557 0.6001616 0.5335892 0.51588106
0.39698142 0.48639658 0.44998345 0.5847009 0.6123593 0.59248143 0.4514812 0.45268765
0.39755568 0.5501504 0.50389004 0.5045404 0.5692866 0.47719857 0.653981 0.552931

layer2.1.bias f4 [32]
00000000: d2ee 1fbf 94dc 0abf 655f 1bbf c472 07bf
00000010: 825e edbe 3b8b 09bf 61be fbbe fb76 dcbe
00000020: 27dc 05bf 94f0 06bf c76b 07bf 09f6 02bf
00000030: 9e3d 05bf 6624 2ebf edbf 16bf 7158 0abf
00000040: c2a6 11bf 959b e0be 31eb 18bf 772c ddbe
00000050: f8bb 15bf 1646 0fbf 5de7 03bf c347 0bbf
00000060: 62cd 0ebf 8230 0abf 9a70 04bf a9a4 16bf
00000070: 617a c3be 25a3 e7be c10f 11bf 51b8 d8be
-0.62473786 -0.54242826 -0.60692436 -0.52909493 -0.46361166 -0.53728074 -0.49168685 -0.43059525
-0.5228905 -0.52710843 -0.5289883 -0.5115667 -0.52047145 -0.6802429 -0.58886606 -0.540412
-0.5689508 -0.438687 -0.59733874 -0.43197986 -0.5848994 -0.5596632 -0.5152491 -0.54406375
-0.5578214 -0.5398027 -0.51734316 -0.58845 -0.38179305 -0.45241657 -0.56664664 -0.42328122

layer2.1.running_mean f4 [32]
00000000: e1e2 20c1 4519 0ac0 a60c a9c0 dcea 3ac0
00000010: b2e7 2dc1 c0a7 35c0 0a8e 1fc1 b768 40c0
00000020: 905f 11c0 0e20 2fc0 8799 dc3f 4cf9 15c0
00000030: 1f16 b9be 95d6 d8c0 1e35 a0bf 11bd 3cc0
00000040: 0ceb b8c0 6729 f0bf 366d 06c1 c6f5 1ac1
00000050: 4ef9 45c1 d8af 33c0 576a f1c0 6acd 30c1
00000060: 0eee 1bc0 ff26 9ebc 876f a9c0 f64b 73c0
00000070: 0158 bebe d8bd 4fc0 6fad 93c0 c049 0bc1
-10.05539 -2.1577923 -5.282794 -2.9205847 -10.869066 -2.8383636 -9.9721775 -3.0063913
-2.2714577 -2.7363315 1.7234353 -2.3433409 -0.3614969 -6.776194 -1.251621 -2.9490397
-5.7786922 -1.8762635 -8.401663 -9.685003 -12.373365 -2.8076077 -7.544231 -11.05015
-2.4364047 -0.019305704 -5.294864 -3.8015113 -0.37176517 -3.2459621 -4.614921 -8.705505

layer2.1.running_var f4 [32]
00000000: 34ec 1142 fb91 b142 36bf 0d42 2ffc cf41
00000010: b97b a642 17e9 b841 4253 7942 dacb 0442
00000020: 47e9 c141 1869 1842 882f 3c42 3455 6642
00000030: 230d 9c41 32a5 ea41 fb98 0e42 56b3 2242
00000040: 0a55 3542 212f ec41 822a 3642 158a 4442
00000050: 192c 7542 76ad 3342 9e84 7042 df84 3f42
00000060: 36cf e641 4cb0 6c42 7538 a241 6ebf 8141
00000070: 9145 da41 6914 9741 40cb a341 9af2 6d42
36.480667 88.78512 35.43673 25.998137 83.241646 23.113813 62.331306 33.199074
24.238905 38.10263 47.046417 57.583206 19.506414 29.330662 35.649395 40.675133
45.333046 29.523012 45.54151 49.134846 61.293064 44.919395 60.12951 47.879757
28.851177 59.172165 20.277567 16.218472 27.283968 18.884966 20.474243 59.486916

fc.weight f4 [10, 1568]
00000000: 3e10 96be 213a 81be aa60 04be 8224 a0bc
00000010: 04d8 03bd 7c52 f43d a59f 84bd f0d9 983d
00000020: 5a0d 823e 9e7e 29bb 4b10 55bd 7777 893c
00000030: a3e1 153e b1ad 863e 6ee6 da3c 69f9 c73d
00000040: 3ebe 9dba 57fd b23d f06f 143e 6038 b73c
00000050: 1aad e6bd 88c0 64be bfc2 903b 3f3c edbc
00000060: a0e4 2b3d ad7c 5b3e 7d16 8fbe 1a05 bdbd
00000070: 80fc 15bf df1d 29be e039 f7bc 03a1 47bd
00000080: 2ff2 a33d c8ef a5be f859 97be 57c9 34bf
00000090: 9b81 f6bd 70b6 f53d 8c9d 0abe 184f 563d
000000a0: 2e86 46be 4879 d9be 1dc7 9abe 0bdd edb9
000000b0: ea69 a43e 9c3e 6fbb f9d0 453e 3fe1 9ebd
000000c0: d59b f2bd 5e49 e83c 5eed f43c 1458 2c3e
000000d0: ceac 303e 3b2e 0abd 82fd dbbd 3d36 86bd
000000e0: c3b5 11be 49eb 8abd 67d7 463e 24f3 bd3d
000000f0: cf67 1c3e 0143 40be c542 f5bc cb34 50be
00000100: 90e3 a1be f6ac 64be 9202 27be 8415 4abe
00000110: 96df 05be 55b6 313d f704 c0bd 5678 3cbd
00000120: b514 03be 3a71 2cbe 242f b4be 8bc7 953d
00000130: e644 dd3d 37cf 8abd dcee 073b ada9 45bc
00000140: 6014 9bbe 0790 fd3d 8837 2e3d 0c56 c83d
00000150: 2dc8 983c a336 65bd d946 4ebd 4158 66be
00000160: 5548 61be 7200 acbd 03f9 2d3c 8f10 d23d
00000170: 8279 c2bd dcbc d5bc 2deb 2fbd dcb1 123d
00000180: b9a7 d5bb a7a0 603d 7b5d a0bd ba9d 863e
00000190: ee02 aebd a7aa c9bd 5111 63bd 5e17 90bd
000001a0: 28bf 1ebe 7ba5 7f3e 0863 8bbd 5e01 d33d
000001b0: 3b42 273e 7701 c9bd 9460 69be 174d 6a3e
000001c0: 1598 19bd 4f2e 393d 0049 babd 7b18 333e
000001d0: f5ac 05bb d778 46bd 3c7c 14be c636 dbbc
000001e0: d69f 47bf 28bf ba3c de97 bdbd c3a5 b43d
000001f0: a053 793d 5b98 a6be 20ba d73c bea0 52bf
00000200: 8f09 f3bb 34a1 7d3e 9d2a 0e3e 89f9 71be
00000210: 89a2 dfbd 8457 563d 816c 7ebd 28b5 503d
00000220: 421f 7c3d 58aa 833d 5dd9 813c c923 cebd
00000230: bfde 073d d4f3 d9bd 6ab6 ee3c 57db 96bd
00000240: 04a8 97bd 237d 893d 1de0 9cbd 43d7 993d
00000250: 76aa 44bb c12c b3bd b535 8c3d 8e72 563e
00000260: fcea 933d 75cb 7abc e460 e3bc e9b3 4bbe
00000270: 0690 b43c 2277 1f3e 2ba1 a93d 2a87 93bd
00000280: a09c 39bd 06ea 98bd e816 ed3c 36d6 3ebe
00000290: 6e03 6b3d 652d 233e 212f 4cbe 50bb 93bd
000002a0: c9ac 99bd 5adb 503d b800 bebd ede7 5cbe
000002b0: fb71 4d3e 3b2e 6dbe f155 aa3d 6ca6 253e
000002c0: 84ae e93c 64ea 30bd 8914 6cbe f2d6 e3bd
000002d0: b7e4 47be 046b 5a3e 4041 1aba c34c 2b3e
000002e0: 135a 13be ef20 58be 1702 f0bb 4e6a 1cbe
000002f0: 7f4a 0d3e bce9 1e3d f632 843d 683a 39be
00000300: 45cc 94bd aa1a 51be 655b 89bd 3678 9d3e
00000310: 95b4 d5bc 76da fb3d 57aa a23d d93b 35bd
00000320: ec31 32be e4ce 8abd 4f2a 96bd 035c c2bd
00000330: 1f3d 45bd 901b 8e3c 12a0 f93b e968 88be
00000340: 1fbd 93be 6d7e 8bbd a1a8 60bc fcea 8cbe
00000350: 4101 bfbd 0528 60bc 2e63 1abe bd25 e4be
00000360: ae24 96bd e705 8a3d da80 15bd ef57 433d
00000370: e70e 21bc 20f8 023e c34a 333e 0f01 9c3d
00000380: 88a4 9d3d 34bc 7e3d 8d97 c33d faae c6bc
00000390: c310 b83e 944f 493e e07b 563d 092b 4e3d
000003a0: 41a2 1f3d 0ef6 1d3e c7f1 803d 8563 713e
000003b0: f2a2 193e 4df3 093d ca0f a8bc 00f6 3b3d
000003c0: 9384 7ebd e6f2 063d f2c8 4d3d bd1f f03d
000003d0: 3057 293c 6710 023c 5897 c0bd aa46 99bd
000003e0: d34b ebbd 0118 9a3d 3c5b 54be 4cb9 54be
000003f0: d212 89bc d776 24be 2be9 dbbd ae78 9fbd
-0.29309267 -0.2523966 -0.129275 -0.019548658 -0.03218843 0.11929795 -0.06475762 0.07463443
0.2540081 -0.0025862823 -0.05201749 0.016780598 0.14636855 0.2630439 0.026721206 0.09764368
-0.0012034846 0.08739727 0.14495826 0.022365749 -0.11263485 -0.2233907 0.004417747 -0.028959392
0.04196608 0.21434279 -0.27946845 -0.09229489 -0.5858841 -0.16515301 -0.030178964 -0.048737537
0.08005177 -0.324095 -0.29560828 -0.7061972 -0.12036439 0.11997688 -0.13536662 0.052321523
-0.19387123 -0.42475343 -0.30230036 -0.00045368852 0.32112056 -0.0036505824 0.19317998 -0.07757806
-0.11846129 0.028355297 0.029898342 0.16830474 0.1725342 -0.033735495 -0.10741712 -0.06553314
-0.14229493 -0.06783158 0.19418107 0.09274891 0.15273975 -0.1877556 -0.029939065 -0.20332639
-0.3161893 -0.22331604 -0.16309574 -0.1973477 -0.13073573 0.043386776 -0.09375947 -0.0460132
-0.12800868 -0.16840068 -0.35192215 0.073134504 0.10804157 -0.06777804 0.0020741737 -0.01206438
-0.30288982 0.12380987 0.042533427 0.09782037 0.018650139 -0.05596031 -0.050360534 -0.22494604
-0.22000249 -0.083985224 0.010618451 0.102570646 -0.09495832 -0.026091032 -0.04294889 0.03581415
-0.0065202382 0.05484071 -0.0783033 0.2629221 -0.084966525 -0.098470025 -0.055436436 -0.07035707
-0.15502608 0.2496547 -0.06805998 0.10302995 0.16333859 -0.098147325 -0.22790748 0.2288097
-0.037498552 0.04521018 -0.09095955 0.17489807 -0.002039728 -0.048455086 -0.14500517 -0.026759516
-0.77978265 0.022796229 -0.09257482 0.08820679 0.060870767 -0.32538113 0.026333869 -0.82276523
-0.007416911 0.24768525 0.13883443 -0.23630346 -0.10919673 0.052329555 -0.062115196 0.050954014
0.061553247 0.06428975 0.015850717 -0.10065419 0.03317141 -0.1064221 0.029139716 -0.073660545
-0.07405093 0.06713321 -0.07659934 0.07511761 -0.003000883 -0.087487705 0.06846181 0.20942137
0.07222554 -0.015307297 -0.027756162 -0.19892849 0.022041332 0.1557279 0.082826935 -0.07203515
-0.045315385 -0.074665114 0.028941587 -0.18636402 0.057376318 0.15935285 -0.19939853 -0.072134614
-0.07503659 0.05099044 -0.09277481 -0.21572848 0.20063011 -0.23162167 0.08317173 0.16176766
0.028525598 -0.043192282 -0.23054709 -0.11124982 -0.19520842 0.21329886 -0.0005884357 0.16728501
-0.1438983 -0.21106313 -0.007324468 -0.15274927 0.13797949 0.038797125 0.064550325 -0.18088686
-0.07265524 -0.20420328 -0.06706885 0.30755776 -0.026087085 0.122975275 0.07942646 -0.04424653
-0.17401856 -0.067777425 -0.073322885 -0.09490206 -0.048153993 0.017347127 0.007617959 -0.2664254
-0.28855225 -0.06811223 -0.013712079 -0.2752303 -0.09326411 -0.013681416 -0.15076897 -0.44560042
-0.07331215 0.06739407 -0.036499836 0.047691282 -0.009830213 0.12789965 0.17508988 0.076173894
0.076973975 0.062191203 0.095503904 -0.024253357 0.35950288 0.19659263 0.05236423 0.05033401
0.038973097 0.15425894 0.06296115 0.2357312 0.15003565 0.033679295 -0.020515341 0.0458889
-0.06213815 0.03294649 0.050240465 0.117248036 0.0103357285 0.007938481 -0.094038665 -0.07484181
-0.11489072 0.0752411 -0.20737928 -0.2077381 -0.016732607 -0.16060959 -0.10737833 -0.0778669

fc.bias f4 [10]
00000000: 1cea 7dbd bafe 9dbd ca87 ec3a 651c 303d
00000010: 54b4 58bd 1c1a 09be 392b fa3d 6b80 ed3d
00000020: c9d4 8cbd 70cd abbc
-0.061990842 -0.07714601 0.0018045839 0.04299583 -0.05290635 -0.13388866 0.12215275 0.115967594
-0.06876523 -0.020971984

exp_avg f4 [16, 1, 5, 5]
00000000: a23b 98b9 fa5b a2b8 493b 4db9 e6f3 9ab9
00000010: d644 34ba b07e 9ab9 d78c beb9 ed3c f0b9
00000020: f911 b6b8 c7e7 43ba d6ce d8b8 c64c 94b9
00000030: e0de 0fb9 1b3c 9339 3a6c 00ba ab46 9c39
00000040: de3d 5fb8 8381 2938 4431 293a e1c7 94b9
00000050: bf94 673a 487e ce39 70be fd39 37ad 5b3a
00000060: 3690 45b9 53a2 b6b9 4deb 81b8 8d7e 40ba
00000070: 7e7e 91ba 46ef 0abb 8a68 4239 f919 0a3b
00000080: 705b 63ba a3ed 2fbb e1b4 78bb 605c c8b9
00000090: e896 863a 78bc 9aba 86ad 59bb 41b5 98bb
000000a0: 0861 dc3a 8d5b 0a3b c292 853a 0926 0fbb
000000b0: 647b 6ebb a82e dfb9 de9f daba a445 93b9
000000c0: f80f fdba fece 74bb d131 90ba 3a87 d5ba
000000d0: aaae 59bb 9dc8 58bb 10f6 81bb 6ca6 f2ba
000000e0: d943 03bb f2e7 1bbb 4967 4cbb e572 b7bb
000000f0: 3178 15bb 4393 f5ba 55e8 76bb 6ce2 bdbb
00000100: 4715 c9bb 43b5 56ba 70a1 4cba fee0 2bbb
00000110: 07f8 16bb 0ba9 92bb d9a6 b23a 7ce0 ad3a
00000120: 56b5 c2ba 9608 1dbb e9ff 43bb 56f8 dbba
00000130: 3b3b 4dbb d2de 9eba 9840 e43a 8d6f 113b
00000140: c706 ddba a0a5 08bb adb8 95ba 83df 35ba
00000150: eead 8ab9 4b75 9f3a 7612 1eba b413 2339
00000160: eaa0 b03a 33cb 0e3b 455c abba bfd7 04bb
00000170: c666 3cbb 74bc 09bb 2799 1bb8 aa8c 56bb
00000180: 00b7 97bb 8928 8dbb a75a 15bb 9702 0fbb
00000190: be60 6bba 57d5 5fba 09e9 07ba 623e 7038
000001a0: 26e8 52b9 7482 31b9 71f2 60b9 c00f a0b8
000001b0: 33bf f639 5c3a 8d38 ab8b 1039 b831 21b9
000001c0: e2d8 1e39 b668 3e3a c01e 8d39 b898 8c39
000001d0: af13 0c39 b878 a139 1d51 6a3a a668 0c3a
000001e0: f3e2 5739 8151 6a37 1b95 1a39 4fde 103a
000001f0: f988 8f39 7c3c 24b9 660e 7937 1783 1e38
00000200: 6934 7338 9e30 da39 aff5 90ba 865e 72ba
00000210: 8fac a838 b55b 9c39 6072 20b9 bca8 99b9
00000220: 8325 e1b9 5926 5ab8 2d64 d439 ab6e a638
00000230: e38f 72ba 2456 89ba 5687 afba 0f41 88ba
00000240: cccf bf39 1d00 2bbb 4d3b caba 302e a5ba
00000250: c55d 86ba a2e6 9eb9 c068 4439 e8fe 5ebb
00000260: c2bd 59bb a415 49bb 4f81 e0ba be89 d139
00000270: 0749 e8ba 9237 e5ba 9bc6 00bb b77d 8cb9
00000280: 11c4 1f3b 3c6f 0f3a 82c4 043a 209e 89ba
00000290: 42ee 16ba e724 a43a 27ef 2abb 700b acbb
000002a0: 358c 4fbb 2b23 0dbb e771 a83a fb4a 74ba
000002b0: 7def 35bb ec4a a737 5fcb 973a 15d0 c9bb
000002c0: 25dd 45bb 7d99 243a 1c2f 09bb ee11 8ebb
000002d0: 712f 01bc 4914 b1ba ab7b 1a3b 709c e53a
000002e0: 97dd 2dbb a27d 0cbc 5ba9 dbba b663 beb9
000002f0: a936 953b 5526 08bb 079b 06bc f4fb 5ebb
00000300: a204 6bbb 636e 6b3b 18a9 a8ba 596d e7bb
00000310: 96df d3bb cc65 81bb edc0 b43a 3b9d 91bb
00000320: 85bf 1b3a 043d 673a 1091 373a 483d 1d3a
00000330: c64e c239 8b9e 213a 7240 343a 3528 e039
00000340: a7bb 0f39 860e ad39 1d51 233a ce8a 343a
00000350: ea7a 8137 36bd f0b8 0dad c739 8cac 803a
00000360: 359f 5f3a 47f0 9739 9347 3e38 7d7e 0c3a
00000370: 88e0 a73a f5c0 693a 2575 013a a437 e939
00000380: 6251 8f3a c132 5fba cf1d 51ba ddd8 33ba
00000390: 1e31 deb9 023a 1fba 2f84 1538 9d5a c4b9
000003a0: 7625 36b9 9256 b6b8 c636 60b9 9edf a539
000003b0: a39e 7039 9f67 0b3a 9ff4 4139 931f 0c3a
000003c0: 845d 08bb a46d fcba 749e a3ba 87d5 f9b9
000003d0: 36e9 81b9 3e4b 1abb 026b edba bf29 96ba
000003e0: 0df2 23b9 51b6 ed38 6480 cf38 b9a2 2dba
000003f0: bb90 27ba 4b3b ccb9 0130 ac39 d9c9 c9b8
-0.0002903613 -7.741894e-05 -0.00019572409 -0.00029554887 -0.00068767124 -0.00029467558 -0.00036344558 -0.0004582176
-8.681784e-05 -0.0007473197 -0.00010338209 -0.0002828596 -0.0001372057 0.00028082807 -0.00048989395 0.0002980729
-5.322496e-05 4.0413357e-05 0.00064541795 -0.0002837768 0.00088341156 0.0003938547 0.00048397807 0.0008379998
-0.00018841107 -0.00034834686 -6.1950275e-05 -0.0007343076 -0.001110032 -0.0021199747 0.00018540226 0.002107261
-0.0008672988 -0.0026844523 -0.003794961 -0.00038215797 0.0010268362 -0.0011805436 -0.0033215 -0.004660279
0.0016813586 0.0021111697 0.0010190832 -0.002184274 -0.0036389465 -0.00042568636 -0.0016679724 -0.0002808991
-0.0019307127 -0.0037354822 -0.0011001175 -0.0016290911 -0.003321568 -0.003307856 -0.0039661005 -0.0018512732
-0.0020029454 -0.0023789373 -0.0031189492 -0.0055984133 -0.0022807235 -0.0018735904 -0.0037675102 -0.005794814
-0.0061365697 -0.0008190462 -0.00078060385 -0.0026226635 -0.002303602 -0.004475718 0.0013630047 0.0013265754
-0.0014855068 -0.0023961416 -0.0029907173 -0.0016782384 -0.0031315822 -0.0012120849 0.001741427 0.0022191734
-0.0016862982 -0.0020850673 -0.0011422836 -0.0006937908 -0.00026451 0.0012165693 -0.00060299726 0.00015552231
0.001347569 0.0021788597 -0.0013073763 -0.0020270196 -0.0028747781 -0.0021016868 -3.7097514e-05 -0.003273765
-0.0046299696 -0.0043078107 -0.0022789629 -0.0021821612 -0.0008978954 -0.0008538565 -0.0005184566 5.7278558e-05
-0.00020113643 -0.00016928633 -0.00021452621 -7.632328e-05 0.0004706323 6.734274e-05 0.0001378494 -0.00015372678
0.0001514885 0.0007263528 0.00026916526 0.00026816665 0.00013358773 0.00030798255 0.00089384784 0.000535617
0.00020588543 1.39664635e-05 0.0001474213 0.00055262906 0.00027377138 -0.00015662791 1.4844909e-05 3.7792222e-05
5.7984525e-05 0.00041616423 -0.0011059548 -0.00092456525 8.043006e-05 0.00029822966 -0.00015301397 -0.0002930815
-0.00042943293 -5.2010964e-05 0.00040510428 7.93611e-05 -0.0009253008 -0.0010477942 -0.0013391774 -0.0010395366
0.0003658518 -0.0026092597 -0.001542905 -0.0012602266 -0.0010251334 -0.00030307943 0.00018731039 -0.0034026448
-0.0033224677 -0.0030683065 -0.0017128381 0.00039966212 -0.0017721959 -0.0017487875 -0.0019649628 -0.00026796546
0.002437834 0.00054715923 0.00050646823 -0.0010499395 -0.0005757549 0.0012523205 -0.0026082487 -0.005250387
-0.0031669263 -0.0021535854 0.0012851328 -0.0009319034 -0.0027761154 1.994284e-05 0.0011580995 -0.0061588385
-0.0030191627 0.0006278975 -0.002093262 -0.0043356335 -0.007884846 -0.0013510074 0.0023572247 0.0017517935
-0.0026529783 -0.008574875 -0.0016758846 -0.00036313914 0.004553635 -0.00207748 -0.008215672 -0.0034024687
-0.0035860916 0.003592395 -0.0012867777 -0.007062596 -0.0064658625 -0.0039489027 0.0013790407 -0.004443792
0.00059413194 0.0008821043 0.0007002512 0.00059982063 0.00037061254 0.00061652873 0.0006876058 0.00042754566
0.00013707449 0.00033007952 0.00062300434 0.00068871386 1.5435235e-05 -0.00011479335 0.0003808517 0.0009817048
0.00085304986 0.00028979985 4.536619e-05 0.00053594244 0.0012808004 0.00089169975 0.00049384154 0.0004448268
0.0010934288 -0.0008514338 -0.0007977159 -0.0006860623 -0.00042379735 -0.00060740125 3.5647474e-05 -0.00037451545
-0.00017370828 -8.694561e-05 -0.0002138271 0.0003163786 0.0002294728 0.000531787 0.00018497043 0.0005345281
-0.0020807693 -0.001925875 -0.0012483136 -0.0004765207 -0.00024778553 -0.0023543383 -0.0018113556 -0.0011456533
-0.00015635062 0.00011335 9.894444e-05 -0.0006623674 -0.0006392111 -0.0003895409 0.00032842162 -9.622024e-05

exp_avg_sq f4 [16, 1, 5, 5]
00000000: b260 2536 fe58 e535 05d9 0e36 8f51 5b36
00000010: 7096 a936 e29f e735 29b1 5635 9bd7 6a35
00000020: 4313 1036 e340 9836 407b 9f35 8d49 c734
00000030: 8e44 b634 7cdc ab35 2a23 8536 8e5b d535
00000040: b124 ff34 5ba6 e134 8bd6 b235 b9ab 8336
00000050: 65c9 2136 8a25 b835 ce07 b935 6e41 1a36
00000060: d9dc 9236 deae 6e39 7ad3 8439 d848 7839
00000070: c68e 7139 e133 8b39 53c4 6439 1043 7239
00000080: ca9e 5b39 6601 5939 2f15 8d39 5483 7639
00000090: 018f 6f39 af7f 4239 b66d 5339 4f40 8539
000000a0: 56ba 5339 6bcf 6b39 69ac 5539 87d2 5839
000000b0: 527a 7539 b942 5839 3235 6939 916e 4e39
000000c0: 004b 4939 a835 5c39 7181 1a39 a9c8 1039
000000d0: a693 1739 01f8 1239 4fd5 1f39 c283 1739
000000e0: a291 1039 357b 0f39 d9f1 1039 e98e 1939
000000f0: e9dd 1639 7177 1339 20fa 2c39 1e66 2c39
00000100: 3f30 1539 cea7 1339 1224 1239 158b 2739
00000110: 65de 2f39 4b81 1239 8186 0739 8cff 0339
00000120: 7066 1839 b5cc 2e39 788f 0d39 5e25 6939
00000130: d091 7939 41f0 4f39 ff64 2a39 b968 3539
00000140: 0290 e638 3084 b538 4e14 ba38 cd9e da38
00000150: 1265 1f39 c793 4738 eac3 0b38 edcc 3038
00000160: a8d0 c138 5827 2f39 7fcf cc38 a7d5 5638
00000170: 08fb 8b38 1e39 0139 83b6 1639 34ee 3439
00000180: a3aa 3639 c0a9 2739 a40e 1439 b3ca 0539
00000190: 572e 5936 9121 4436 3326 3236 e7c6 e636
000001a0: 3e17 4037 6136 1735 e99a f034 02dc a235
000001b0: 097e bf36 7cfa 3137 23ec e834 d45c e234
000001c0: e36e bc35 540d e636 c152 4037 7ab2 ac34
000001d0: 4831 8234 03d1 c735 cca0 fe36 50ac 5c37
000001e0: 74cd fa34 cc9b 4735 5414 5b36 1f44 0d37
000001f0: e3fa 5e37 67d7 3237 6223 1937 1337 0b37
00000200: f9f2 9f37 d0a1 f137 2f4e 4537 ad62 0937
00000210: 1c9e 1537 75c0 d137 7ae1 2138 d16d 2837
00000220: f455 3437 6411 8f37 df4a 2038 7fdd 5338
00000230: ee43 a837 cbd5 d737 89e0 2738 e2f0 5038
00000240: 7d9b 4238 4f0f 3f38 7f82 6838 2ee6 5e38
00000250: c527 4838 ac57 3538 20ce 0c39 9d4b 1539
00000260: d6a6 2d39 76a7 2739 96f6 f738 a203 2139
00000270: 236f a838 a067 5638 98f3 5c38 f3fd 7938
00000280: 4121 1739 5896 e038 e069 9e38 ff24 ab38
00000290: 297d 0639 5b25 3939 7e54 2a39 bcc0 4839
000002a0: 8e1d 4839 e198 2639 65d4 6d39 1206 4c39
000002b0: 82ec 4039 41b4 3b39 0d46 2339 4fb4 9139
000002c0: 3fde 8339 1456 7839 b480 8c39 8695 7c39
000002d0: a674 8e39 88ab 7039 cd46 7e39 f505 8439
000002e0: 63b3 7639 a3fb 9e39 b0a7 8839 2e35 8139
000002f0: 5a07 7639 350d 7239 2a31 9d39 5b97 8c39
00000300: 6a65 8d39 8572 8f39 2605 8739 1bc0 9939
00000310: 3d39 9039 98d2 8c39 1000 9a39 f935 a139
00000320: b126 7737 8421 4937 32af 0337 588d df36
00000330: f482 d636 1c53 7b37 878f 3a37 3d87 c636
00000340: 3b4a 6336 fc7b 4f36 3147 9137 b4f8 5037
00000350: cc9e d736 f0f8 7736 244f 7136 3822 8b37
00000360: f64a 6437 cd70 0f37 6714 d836 5daa c936
00000370: 3a1d 8537 f16d 6d37 c355 5137 06f5 3b37
00000380: a62b 2a37 330f ab36 f41d 8c36 a7c7 7536
00000390: 52fd ee36 0009 8437 452e 2636 419a 1036
000003a0: 9f2e 1836 1e27 d836 40a5 8b37 ae5f 8336
000003b0: 700d 1e36 bd00 8f36 c944 5837 2687 f737
000003c0: ab19 d137 20a7 c437 6042 de37 0de2 de37
000003d0: 6bb0 f737 6a97 4e38 d481 4438 c4d9 3b38
000003e0: a0eb 2538 2e99 1938 91a3 2137 fbf5 1436
000003f0: 22d9 1836 22a0 0e36 27d4 7936 162b 9537
2.46432e-06 1.708773e-06 2.128597e-06 3.2681016e-06 5.0541057e-06 1.7257373e-06 7.9979014e-07 8.748554e-07
2.1468884e-06 4.537507e-06 1.1882294e-06 3.7120154e-07 3.3950022e-07 1.2804662e-06 3.9678025e-06 1.5896383e-06
4.7524148e-07 4.2030555e-07 1.3324474e-06 3.9240954e-06 2.4108097e-06 1.3719994e-06 1.3785846e-06 2.2985873e-06
4.376849e-06 0.00022762592 0.00025334564 0.0002367826 0.00023036738 0.000265508 0.00021816911 0.00023103901
0.00020944621 0.00020695254 0.000269094 0.00023509312 0.00022846089 0.00018548848 0.00020163399 0.0002541565
0.00020191944 0.00022488616 0.00020377491 0.00020677793 0.00023410589 0.00020624221 0.00022240428 0.0001968688
0.00019196793 0.00021000823 0.00014734805 0.00013807662 0.00014455486 0.00014016034 0.00015242885 0.00014449566
0.00013787163 0.00013683441 0.00013823005 0.00014644455 0.00014387783 0.00014063508 0.00016496377 0.0001644124
0.0001422772 0.00014081525 0.00013937082 0.00015978173 0.00016772149 0.0001397181 0.0001292471 0.00012588332
0.0001453401 0.00016670192 0.00013500254 0.00022234532 0.0002380081 0.0001983056 0.00016250087 0.00017300517
0.00010994078 8.6553744e-05 8.872953e-05 0.00010424629 0.00015201073 4.7582926e-05 3.332264e-05 4.2152522e-05
9.2418224e-05 0.00016703957 9.766127e-05 5.1220555e-05 6.674795e-05 0.00012323676 0.00014373106 0.00017254875
0.0001742044 0.00015989598 0.00014119834 0.0001275938 3.2362493e-06 2.9225814e-06 2.6546302e-06 6.8776894e-06
1.1449503e-05 5.6331015e-07 4.4816196e-07 1.2133971e-06 5.706916e-06 1.0608343e-05 4.338518e-07 4.2163322e-07
1.4039364e-06 6.8560857e-06 1.1463359e-05 3.2167355e-07 2.4250244e-07 1.4887486e-06 7.588509e-06 1.31531415e-05
4.6715616e-07 7.435999e-07 3.2645376e-06 8.420116e-06 1.3290645e-05 1.0659779e-05 9.127749e-06 8.297869e-06
1.906742e-05 2.8804789e-05 1.1760319e-05 8.188811e-06 8.917905e-06 2.5004361e-05 3.8595383e-05 1.0039149e-05
1.0748849e-05 1.7055027e-05 3.82167e-05 5.0512605e-05 2.0058793e-05 2.5729552e-05 4.0025017e-05 4.9815404e-05
4.6398014e-05 4.5552206e-05 5.5434644e-05 5.3143296e-05 4.7720754e-05 4.3235414e-05 0.00013428228 0.00014237915
0.00016560717 0.00015988745 0.00011823808 0.0001535551 8.031565e-05 5.1118084e-05 5.267895e-05 5.9602735e-05
0.0001441287 0.00010709156 7.553748e-05 8.1608065e-05 0.00012825862 0.00017656891 0.00016243939 0.00019145285
0.00019084496 0.00015887945 0.00022681204 0.00019457217 0.00018398653 0.0001790086 0.00015570987 0.00027790896
0.00025151853 0.0002368319 0.00026798772 0.00024088295 0.0002717126 0.00022952084 0.00024249703 0.0002518144
0.00023527215 0.00030323592 0.00026064878 0.0002464442 0.00023463127 0.00023083838 0.00029982004 0.0002681565
0.00026969175 0.0002736041 0.00025753042 0.00029325564 0.00027508466 0.00026859785 0.00029373216 0.00030748526
1.4731356e-05 1.1988337e-05 7.848999e-06 6.6623725e-06 6.392942e-06 1.4980116e-05 1.11198815e-05 5.9166036e-06
3.3868844e-06 3.0917572e-06 1.7318498e-05 1.2455672e-05 6.4259857e-06 3.6950769e-06 3.5957864e-06 1.6586026e-05
1.3607312e-05 8.549728e-06 6.439677e-06 6.0100997e-06 1.5868445e-05 1.41518985e-05 1.2477339e-05 1.12031175e-05
1.0142952e-05 5.0979666e-06 4.175812e-06 3.6624058e-06 7.122443e-06 1.5739817e-05 2.476286e-06 2.154746e-06
2.2676902e-06 6.4418555e-06 1.6647042e-05 3.915243e-06 2.3551656e-06 4.261818e-06 1.2890619e-05 2.9507628e-05
2.4926694e-05 2.3442844e-05 2.649537e-05 2.6569725e-05 2.9526846e-05 4.9255243e-05 4.6850953e-05 4.4787084e-05
3.955851e-05 3.6620702e-05 9.634431e-06 2.2196898e-06 2.2776153e-06 2.1252858e-06 3.722738e-06 1.7782248e-05

exp_avg f4 [16]
00000000: 1c8a d432 bb2a 99b3 5330 fd33 5cc7 7bb4
00000010: 2132 a233 94f4 b333 3209 0334 9ecb 3e34
00000020: 9c4a e232 77fc 1834 41c6 8732 e1b9 2db3
00000030: 39ad fe33 b76c 41b2 6727 4434 fa37 2a33
2.4742853e-08 -7.13239e-08 1.1790021e-07 -2.3448723e-07 7.552831e-08 8.3798255e-08 1.2203671e-07 1.7769204e-07
2.6343791e-08 1.424795e-07 1.5806224e-08 -4.0448757e-08 1.1859306e-07 -1.12587974e-08 1.8268257e-07 3.963212e-08

exp_avg_sq f4 [16]
00000000: bded 2328 da6a 5e2a 74cb 3d2a bd15 132a
00000010: 2b0d a828 3911 0429 25f1 d729 d38a 6f2a
00000020: 1f81 d428 c1d4 0b29 dc40 0f29 3acb 0929
00000030: 08e9 af2a 0a7f e329 63a1 cd2a d498 1228
9.099869e-15 1.9754633e-13 1.6857159e-13 1.3063765e-13 1.8657458e-14 2.9324826e-14 9.58975e-14 2.1275629e-13
2.3592725e-14 3.1048735e-14 3.1808635e-14 3.0596382e-14 3.1247943e-13 1.0102863e-13 3.65273e-13 8.137767e-15

exp_avg f4 [16]
00000000: 7c9d aa3b 479c 0e3c adef 06bb 7274 e739
00000010: 00f0 6a3b 4440 f0ba a0f4 e4bb 02a6 5e3b
00000020: aeab 2bbb 178e 0839 f444 88ba 6246 b1bb
00000030: 2079 58ba 71d9 6a3a a4f9 49bb 5d82 803b
0.005206762 0.008704252 -0.0020589635 0.00044146512 0.0035848618 -0.00183297 -0.0069871694 0.003397346
-0.0026194858 0.00013022903 -0.0010396526 -0.0054100016 -0.0008257795 0.0008958793 -0.0030818963 0.0039217905

exp_avg_sq f4 [16]
00000000: d195 d839 132a 6339 c351 2439 7a15 e838
00000010: 1737 1139 4d39 9538 f7a6 5c39 9545 8b39
00000020: c87e 9d39 c98c cd38 c176 c538 fba9 8039
00000030: e59b 8739 a9c0 dc38 450c 5039 d624 9939
0.00041310352 0.00021664081 0.00015670717 0.000110666224 0.000138488 7.115547e-05 0.00021043034 0.0002656399
0.00030039833 9.801385e-05 9.415812e-05 0.00024540708 0.00025865357 0.00010526303 0.00019840997 0.0002920988

exp_avg f4 [16]
00000000: 3927 273b a8fc 053c b877 96bb a619 233b
00000010: e6fb 5c3b 870f ceba 84ca 97bb 93d4 69bb
00000020: b031 ffba 3a2d 623a ac27 813a 9f1b 67bb
00000030: 0302 383a 6a6c eb3a 36f0 3abc 5f91 233b
0.0025505556 0.008177914 -0.0045919083 0.0024887114 0.003371948 -0.001572118 -0.004632296 -0.0035679683
-0.0019469764 0.0008627955 0.0009853742 -0.0035264266 0.0007019343 0.0017961387 -0.01140981 0.0024958474

exp_avg_sq f4 [16]
00000000: 2859 3839 1380 2739 b76b da38 b767 e738
00000010: 5a82 3839 b44e 7c38 c3c2 3b39 12b0 0d39
00000020: daf4 2e39 b873 f138 4554 cc38 004b 3239
00000030: 9990 2139 be07 ec38 cb8a 4839 a7ec 0839
0.0001758082 0.00015974072 0.000104151135 0.00011034257 0.00017596167 6.015478e-05 0.00017906264 0.00013512399
0.00016685147 0.0001151333 9.7431745e-05 0.00017003343 0.00015408023 0.00011254799 0.00019125191 0.0001305813

exp_avg f4 [32, 16, 5, 5]
00000000: 6c20 c8b8 160a ebb8 ebec 73b8 04b9 8d38
00000010: 15ab fb38 7b8e 90b8 d5f9 56b8 7698 a7b6
00000020: 8c88 d138 13bf 1539 f682 1cb8 f9b4 2bb8
00000030: 4014 76b8 d4ee e038 285b 3339 9e05 99b8
00000040: 2be7 9fb8 debd 9db8 a11f 0239 e189 1239
00000050: f870 83b8 7647 e1b8 da39 1ab9 ef02 9738
00000060: c7f2 1938 6394 7339 f068 2c3a 708f 373a
00000070: 46b5 cbb8 c77b 9ab7 c7e0 0b3a 2ec0 493a
00000080: 9168 3b39 1932 76b9 ee6c 26b8 bb77 7439
00000090: efc4 cf39 083d 38b9 c7e7 8db9 74e6 25b9
000000a0: 8da8 5b39 edea 7739 d8d2 c9b8 0c3f fab8
000000b0: 6b4c fd37 a698 203a ff52 b9b8 7f11 c738
000000c0: 5f6b 9537 832f 0a39 bdec 9438 3bae 45b9
000000d0: 2705 b2b9 ac17 35b9 3e4a cab9 0548 c239
000000e0: 4abb 9939 dae8 c6b9 6472 bbb8 2d13 c1b9
000000f0: 794e 5139 9dd5 cd38 9a59 04ba 7e22 93b9
00000100: 1bd9 cab9 dcda 5e36 dd75 1fb9 d0eb 2bba
00000110: 2eaa 1dba bdd2 f9b9 7ba8 6eb8 5668 58b9
00000120: fa0d 1eba 444f fab9 1f6c d6b9 5a58 b239
00000130: b0b1 003a 9cfd d237 d602 b5b8 7019 b8b7
00000140: 23fd f039 e001 9b39 0d0a 1939 e1aa af36
00000150: 91e9 0239 1800 0139 37e4 8a38 5b3b 4b38
00000160: 330c 06b8 8374 4fb9 f9f6 e238 9f8f 29b7
00000170: 3c87 2737 37bf e3b8 1980 60b9 8529 8439
00000180: 55ec db39 70aa f039 737e dc39 3028 a439
00000190: 3d35 d938 7a23 c238 f3e5 eb37 d516 edb7
000001a0: 68cb 92b8 d304 bf38 2930 5738 0655 9a36
000001b0: 4f75 24b7 d7cc 43b7 92b6 d238 8a63 0238
000001c0: fe70 9fb5 d20e eab7 2bfc 26b8 c80d 0639
000001d0: bd6c a338 1943 a836 2395 fab7 41e6 0bb6
000001e0: 7fae 0039 a8e4 9e38 26d9 1d38 db92 2137
000001f0: ae03 cd38 d044 8e39 cc01 143a ceed be39
00000200: 46b2 c538 5e33 c4b8 2aab 343a a5c8 4b3a
00000210: b4bf 0b39 dc90 d537 a0ad f137 0c1a ad38
00000220: fffa 11b9 0580 22b9 e259 81b8 8125 c8b8
00000230: 23a8 9639 384a d537 ed80 95b8 6590 9eb8
00000240: 215c 10b8 a312 5d39 50f8 e5b6 a6cf cdb6
00000250: 6fa7 26b8 0c4f 27b6 6434 8539 a538 c339
00000260: ef6f 1739 a359 9bb8 5175 75b9 c050 6b3a
00000270: 9907 163a 4062 8a38 89e7 0739 c2cb a638
00000280: feb0 26b9 62b5 46b9 a025 54b9 3d31 84b9
00000290: 260f c8b9 2c93 f738 9248 a838 78d8 1637
000002a0: b50a a7b9 8191 d4b9 4d9d 3c39 d818 8538
000002b0: 3695 3738 33ca 1339 846c 1537 577f 9d38
000002c0: c3c2 5eba b61a 67ba b43e 91ba 0d06 7d38
000002d0: f7e0 0039 ca29 c8b9 d800 16ba 304b 88ba
000002e0: 818f ba39 9f68 4f39 b09c 2cba 9eb4 06bb
000002f0: c2cb ccba 42fd 1138 a590 f4b8 dba5 64ba
00000300: ae5a d3ba 1f51 8bba 7768 2639 3e5a fdb6
00000310: 477f 30ba ead1 d5ba d341 16ba c6c3 b338
00000320: 3216 a8b8 8058 4337 86ac eb38 2ef5 2139
00000330: 6f86 0939 0f0a 5bb8 329b e338 047e fd38
00000340: 5ec3 cb38 c542 5f38 a29e 9e38 4ae3 cd38
00000350: 74ed 1e39 acff 0339 6048 ab38 0c3e d537
00000360: 3e40 c1b7 44a6 4e39 7676 3c39 e9a8 0f39
00000370: 2085 f838 7a16 2fb8 2e8c 4c39 1c92 1d39
00000380: 129b da38 79ae 7b39 15b2 8f39 2acd 0439
00000390: f0bd 8737 24df 32b9 a8ae df39 c299 b839
000003a0: 3ced db38 15c4 5637 923c b8b7 c975 f138
000003b0: 7154 06b8 da36 1d37 e592 f137 600b bdb8
000003c0: 27c6 6539 4f20 9337 9346 5134 690c 7836
000003d0: c8dc c6b8 dd37 8138 54c5 c037 7eb7 3538
000003e0: 41db 6737 1b8e f837 38e9 2bb8 749c e038
000003f0: 89f0 87b7 2a58 7fb8 f01f 23b9 a30a 9a39
-9.542782e-05 -0.00011207552 -5.815636e-05 6.757866e-05 0.00012000479 -6.892994e-05 -5.125425e-05 -4.9947366e-06
9.9913304e-05 0.00014280928 -3.7315265e-05 -4.093812e-05 -5.866983e-05 0.000107256375 0.00017104729 -7.296655e-05
-7.624769e-05 -7.521709e-05 0.00012409549 0.00013975009 -6.267609e-05 -0.00010742147 -0.00014708136 7.2007875e-05
3.6704147e-05 0.00023229564 0.0006576916 0.000700227 -9.713559e-05 -1.8415869e-05 0.00053359236 0.00076961785
0.00017872664 -0.00023479051 -3.9678933e-05 0.00023314256 0.00039628844 -0.00017570343 -0.00027066303 -0.00015821477
0.00020948258 0.00023643272 -9.6236996e-05 -0.00011932672 3.0195535e-05 0.0006126262 -8.836947e-05 9.492318e-05
1.7812183e-05 0.00013178405 7.101286e-05 -0.0001885229 -0.00033954644 -0.00017270324 -0.00038583757 0.00037056222
0.00029321975 -0.0003793899 -8.938162e-05 -0.00036826116 0.00019961027 9.81495e-05 -0.0005048752 -0.00028063724
-0.000386902 3.320797e-06 -0.00015207329 -0.0006558271 -0.00060144335 -0.00047649993 -5.690053e-05 -0.00020638233
-0.00060293043 -0.00047742773 -0.00040897817 0.00034016633 0.000490929 2.5152047e-05 -8.631281e-05 -2.1946355e-05
0.0004596497 0.000295653 0.00014594961 5.2352993e-06 0.00012484776 0.00012302434 6.622861e-05 4.845425e-05
-3.195945e-05 -0.00019784462 0.00010822522 -1.0106624e-05 9.985462e-06 -0.0001085982 -0.00021410025 0.00025207936
0.00041947016 0.00045903353 0.00042055882 0.0003131046 0.00010357283 9.257249e-05 2.8121261e-05 -2.8263234e-05
-6.99971e-05 9.108488e-05 5.1304847e-05 4.5994557e-06 -9.802475e-06 -1.1670599e-05 0.00010047587 3.108712e-05
-1.1879308e-06 -2.7901875e-05 -3.9812334e-05 0.0001278437 7.7927e-05 5.0146014e-06 -2.987177e-05 -2.084664e-06
0.00012272036 7.576618e-05 3.7633952e-05 9.63054e-06 9.775847e-05 0.0002713562 0.00056460197 0.00036416802
9.426898e-05 -9.355576e-05 0.00068919605 0.0007773734 0.00013327488 2.5459034e-05 2.881029e-05 8.2541344e-05
-0.00013921781 -0.00015497215 -6.167941e-05 -9.543729e-05 0.000287355 2.542614e-05 -7.128888e-05 -7.560923e-05
-3.4418077e-05 0.00021083145 -6.853639e-06 -6.1336495e-06 -3.973342e-05 -2.493095e-06 0.0002540677 0.00037235502
0.0001444218 -7.407672e-05 -0.00023408725 0.0008976571 0.0005723178 6.598653e-05 0.00012960857 7.95345e-05
-0.00015896928 -0.00018950322 -0.00020231912 -0.00025213687 -0.0003815826 0.00011805291 8.0243815e-05 8.991097e-06
-0.000318607 -0.000405442 0.00017987676 6.346562e-05 4.3769563e-05 0.00014094338 8.906358e-06 7.510062e-05
-0.00084976497 -0.0008815931 -0.0011081309 6.0325536e-05 0.00012290837 -0.00038178108 -0.00057221716 -0.0010398384
0.00035583603 0.00019780033 -0.00065846276 -0.0020554434 -0.0015624689 3.480656e-05 -0.00011661769 -0.0008722224
-0.0016125047 -0.0010629034 0.0001586991 -7.550493e-06 -0.0006732833 -0.001631317 -0.00057318545 8.571851e-05
-8.0149985e-05 1.1643511e-05 0.00011237808 0.00015445493 0.00013115419 -5.2223037e-05 0.00010853111 0.00012087452
9.716184e-05 5.3229527e-05 7.563575e-05 9.8174976e-05 0.00015156512 0.00012588379 8.167396e-05 2.5420472e-05
-2.3037308e-05 0.0001970763 0.00017973207 0.00013700467 0.00011850358 -4.1744184e-05 0.00019507177 0.00015027117
0.00010423934 0.00024002221 0.00027407767 0.0001266493 1.61817e-05 -0.00017058529 0.00042664004 0.00035209773
0.00010486922 1.2801048e-05 -2.1962715e-05 0.00011513715 -3.202673e-05 9.3707e-06 2.8797842e-05 -9.014341e-05
0.0002191296 1.753881e-05 1.9490317e-07 3.6962103e-06 -9.4824994e-05 6.161605e-05 2.2980072e-05 4.3324653e-05
1.3819722e-05 2.9630077e-05 -4.098678e-05 0.00010710294 -1.6205262e-05 -6.0878847e-05 -0.00015556789 0.00029381094
