oracle/train/non-iid/checkpoint/mnist/ckpt_3_4.pth (torch, 71489 bytes, 12 tensors)

conv1.weight f4 [10, 1, 5, 5]
0	0xbe3e0961	-0.18558265
1	0xbd32bf1d	-0.04363929
2	0x3cf3a801	0.029743196
3	0x3d00b7a0	0.03142512
4	0xbd10e5c0	-0.035375357
5	0x3e17bab8	0.14817321
6	0xbe2a9837	-0.16659628
7	0x3d1448e3	0.036202323
8	0xbe183e53	-0.14867525
9	0xbe63ba2f	-0.22238992
10	0x3e6c3027	0.23065244
11	0x3cb9684c	0.02263274
12	0x3c9aa15d	0.018875772
13	0x3dad86ee	0.084730014
14	0xbe55dcf6	-0.20885071
15	0x3e729d10	0.23692727
16	0x3e4dd3cc	0.20100325
17	0x3e170544	0.14748102
18	0xbe2cd553	-0.16878252
19	0xbddb30f7	-0.10702699
20	0x3e9fe03f	0.31225774
21	0x3e8b4943	0.27204332
22	0x3de5c662	0.11219479
23	0x3c2e46f8	0.010637037
24	0x3e2b1476	0.16707024
25	0xbb8866dc	-0.0041626524
26	0xbc63813f	-0.013885795
27	0x3e20bdc1	0.15697385
28	0xbdb36113	-0.0875875
29	0x3c7b97e9	0.015356042
30	0x3e345f2b	0.17614429
31	0x3d6a9cca	0.057278432
32	0xbceb8f27	-0.028754784
33	0xbd876e9b	-0.06612893
34	0x3e2a124d	0.16608544
35	0xbce30ffa	-0.02771758
36	0xbcd84465	-0.0263998
37	0x3e410083	0.18847851
38	0x3e810c5c	0.25204742
39	0x3df9ab8d	0.12190924
40	0xbdf57a38	-0.11986202
41	0xbdc4a9f4	-0.096027285
42	0xbd0194b5	-0.03163596
43	0x3c14b0f1	0.009075389
44	0x3e1ac95a	0.15115872
45	0x3e019425	0.12654169
46	0xbe070b04	-0.13187796
47	0xbd16aa53	-0.036783528
48	0x3e3cd9eb	0.18442504
49	0xbd975020	-0.073883295
50	0x3e50efcf	0.2040398
51	0x3dc54134	0.09631577
52	0xbc3e4487	-0.011613018
53	0x3ca71142	0.020393971
54	0xbe0951f7	-0.13410173
55	0xbde4bdb9	-0.11168999
56	0x3e3141ec	0.17310303
57	0xbe3c6e4e	-0.18401453
58	0xbdb8206b	-0.08990558
59	0x3d0cf41c	0.03441249
60	0xbe31fbab	-0.1738116
61	0xbdba6050	-0.091004014
62	0xbe0b4eb0	-0.13604236
63	0xbe2fa258	-0.17151773
64	0xbdd4ef78	-0.103972375
65	0xbde2f243	-0.11081364
66	0xbe0b4e03	-0.13603978
67	0xbde10c04	-0.1098862
68	0xbd9939d5	-0.07481734
69	0xbe258a83	-0.1616612
70	0x3e24683c	0.16055387
71	0xbdb94876	-0.09047024
72	0x3d232a37	0.03983518
73	0x3de77b11	0.1130277
74	0x3c8de546	0.01732124
75	0x3dd7618a	0.10516651
76	0xbd2dd801	-0.042442326
77	0xbd962254	-0.07330766
78	0xbe0af326	-0.13569316
79	0xbdfcc5de	-0.12342428
80	0xbd55160a	-0.05202297
81	0xbd69a86b	-0.05704538
82	0xbd0e3808	-0.034721404
83	0xbe46121f	-0.1934285
84	0xbe1938b2	-0.14963034
85	0x3e868845	0.2627584
86	0x3d1fe37c	0.039035305
87	0x3debf9f2	0.11522283
88	0xbd4f3860	-0.050590873
89	0xbe45d70b	-0.19320314
90	0x3e0353cd	0.12824936
91	0x3e4dd4f6	0.2010077
92	0x3df198e6	0.11796741
93	0x3dff99b2	0.12480487
94	0x3e692454	0.22767764
95	0xbe14249b	-0.14467089
96	0x3d911442	0.07083942
97	0x3dd8307b	0.10556122
98	0x3e8339f8	0.25630164
99	0x3e0ee483	0.13954358
100	0x3cd3b4c1	0.025843026
101	0xbdcd04b4	-0.10010663
102	0xbccd07d9	-0.025028156
103	0x3e77cd5a	0.24199429
104	0x3e5bd96f	0.21469663
105	0x3e2293db	0.15876715
106	0x3a657fd1	0.0008754703
107	0x3d82ecc4	0.06392816
108	0x3df8b04a	0.121429995
109	0x3d02c2ae	0.031923942
110	0xbe09f4ec	-0.13472337
111	0x3e31b210	0.17353082
112	0xbe31721d	-0.17328687
113	0xbccf8628	-0.025332525
114	0x3ca45438	0.02005969
115	0xbd881b61	-0.06645847
116	0x3e07c5a1	0.13258983
117	0xbd1a05f6	-0.03760334
118	0xbd5bf66f	-0.053701814
119	0xbdb0872b	-0.08619531
120	0x3d798d34	0.060925677
121	0xbe6a79b8	-0.22897995
122	0xbdc76789	-0.09736545
123	0xbd2c2849	-0.042030606
124	0xbdf975ea	-0.121806934
125	0xbe586a96	-0.2113441
126	0xbe1f017a	-0.15527907
127	0x3d90bc30	0.07067144
128	0x3e02bc2a	0.12767091
129	0x3cddabb2	0.02705941
130	0x3d28d64f	0.041220006
131	0xbd865264	-0.065586835
132	0x3e827f59	0.25487784
133	0x3c9483d2	0.018129263
134	0x3d6b82ba	0.057497717
135	0xbe1d1332	-0.15339354
136	0x3e06119d	0.13092656
137	0x3ec44bfe	0.38339227
138	0x3e9fe7ad	0.31231442
139	0x3dcd9009	0.10037238
140	0x3e90f401	0.2831116
141	0x3ed518d4	0.41620505
142	0x3e8f1da3	0.279523
143	0x3e72094e	0.23636362
144	0x3db312cf	0.08743822
145	0x3e5ce983	0.21573453
146	0xbca4c433	-0.020113086
147	0x3e70ed00	0.23527908
148	0x3d810f18	0.06301707
149	0x3e233f5e	0.15942141
150	0xbd9a30db	-0.0752885
151	0x3d5489c9	0.051889215
152	0x3cdbe845	0.026844153
153	0x3e3e4987	0.18582736
154	0xbd082524	-0.033238545
155	0xbcb37d03	-0.021910196
156	0xbd91369b	-0.07090493
157	0xbe1ae35e	-0.15125796
158	0x3d8dbe55	0.069210686
159	0x3e7e77e1	0.24850418
160	0x3d044a68	0.03229752
161	0x3d4335c6	0.047658704
162	0x3dae43af	0.08509003
163	0x3d826ccc	0.063684076
164	0xbd8f36f6	-0.06992905
165	0xbdbce43d	-0.092232205
166	0xbda171a0	-0.078830004
167	0xbdf3a7df	-0.11897253
168	0x3e65872d	0.22414847
169	0x3e1c16ac	0.15243024
170	0xbe6581d8	-0.22412813
171	0x3da83f12	0.08215155
172	0x3dc2148e	0.09476577
173	0x3db1b07c	0.0867624
174	0x3e94d2db	0.2906712
175	0x3e795e6e	0.24352428
176	0x3e31c319	0.1735958
177	0x3d2d1d37	0.04226419
178	0x3df952db	0.121740066
179	0x3d2ff646	0.042959474
180	0x3e36b1ae	0.17841217
181	0x3e2ca0c1	0.16858198
182	0x3dcfedfd	0.101528145
183	0xbe348586	-0.1762906
184	0x3e530162	0.20605996
185	0x3e0123cf	0.12611316
186	0x3d7b4700	0.061347008
187	0x3c73f2df	0.014889448
188	0xbe007fa5	-0.12548693
189	0xbd841e97	-0.06451147
190	0x3d9bf262	0.0761459
191	0x3db24651	0.08704818
192	0x3dce50f3	0.100740336
193	0x3c6786fb	0.014131303
194	0xbdd36184	-0.10321334
195	0x3e46c252	0.19410065
196	0xbda57ae4	-0.0808008
197	0xbdfa27e4	-0.1221464
198	0x3e2f0b2c	0.17094105
199	0xbe37fa2e	-0.1796653
200	0x3dead006	0.114654586
201	0x3e3ccafd	0.18436809
202	0x3de7c714	0.11317268
203	0x3c7b710d	0.015346778
204	0xbd025925	-0.031823296
205	0xbdb0f5dd	-0.08640645
206	0xbe0e2cd2	-0.13884285
207	0x3e7f7b5e	0.24949405
208	0xbdec295d	-0.11531327
209	0x3e843474	0.2582127
210	0x3e14f0ca	0.14544979
211	0xbe249833	-0.16073684
212	0xbc28de81	-0.010306955
213	0x3e78e811	0.24307276
214	0x3e44d3ca	0.19221416
215	0x3d699d87	0.057034995
216	0xbe1fa965	-0.15591963
217	0x3e5b8d31	0.21440579
218	0xbd312658	-0.043249458
219	0xbdcb02ed	-0.099126674
220	0xbe07ad34	-0.13249665
221	0xbe2ad889	-0.16684164
222	0xba42d6e0	-0.00074325316
223	0x3da22953	0.07918038
224	0xbda1603c	-0.078796834
225	0xbdd2e113	-0.10296836
226	0xbc6f1805	-0.014593129
227	0x3df158c4	0.11784509
228	0x3e6b5a94	0.22983772
229	0x3c1a0eaa	0.00940291
230	0x3d928656	0.07154529
231	0x3d863abf	0.06554174
232	0x3c87db96	0.016584199
233	0x3e5e8d35	0.21733554
234	0x3e1b78fe	0.15182874
235	0x3c90b602	0.017664913
236	0x3d9bea6f	0.07613074
237	0x3e3ad212	0.18244198
238	0x3dfd7e4e	0.12377606
239	0x3e4407cd	0.19143601
240	0xbe150895	-0.14554055
241	0x3e23f65b	0.16011946
242	0xbdcd13c4	-0.100135356
243	0x3dad1c57	0.08452671
244	0xbdabae93	-0.08382907
245	0x3e10ceae	0.14141342
246	0xbdda68d5	-0.106645264
247	0x3d4e2585	0.05032875
248	0xbe506cdf	-0.20354031
249	0x3dfb35d8	0.12266129

conv1.bias f4 [10]
0	0x3e3a4e90	0.18194032
1	0xbd07c356	-0.03314527
2	0xbdd49e08	-0.103817046
3	0x3e5225a4	0.20522171
4	0x3d6a2cb4	0.05717154
5	0x3e652a14	0.22379333
6	0xbe0c3810	-0.13693261
7	0xbd90a887	-0.07063394
8	0x3d994dd7	0.0748555
9	0x3e33531c	0.17512172

conv2.weight f4 [20, 10, 5, 5]
0	0x3d16168d	0.0366426
1	0x3ba1d9ba	0.004939285
2	0x3a6123a3	0.0008588379
3	0x3d28f9df	0.04125392
4	0xbcf016cd	-0.029307747
5	0x3d4abc20	0.049495816
6	0xbc3f9371	-0.011692868
7	0x3c0d010f	0.008606209
8	0x3c600da8	0.013675131
9	0xbc93cabd	-0.01804101
10	0x3d5a00f0	0.05322355
11	0x3b1f9111	0.002434794
12	0xbca3b2ba	-0.019982684
13	0xbce8c319	-0.028413342
14	0x3d190f47	0.037368085
15	0x3d728a1e	0.05921375
16	0x3d2226a5	0.039587636
17	0xbd7d6b81	-0.0618701
18	0xbd8af912	-0.06785788
19	0xbd117f9d	-0.035522092
20	0x3d243ad6	0.040095173
21	0xbd106bcb	-0.03525905
22	0xbd8c45fa	-0.068492845
23	0xbd1bc220	-0.03802693
24	0xbd2e9c20	-0.04262936
25	0xbcdc9249	-0.026925223
26	0x3d82d8f8	0.0638904
27	0xbcf847ab	-0.030307611
28	0x3cd9db71	0.026593896
29	0x3c9ae782	0.01890922
30	0xbc72be03	-0.01481581
31	0xbd2e2e3b	-0.042524558
32	0xbb1eb526	-0.002421686
33	0x3c6e1b82	0.014532926
34	0x3cf64f73	0.030067181
35	0x3b5ddccd	0.0033853531
36	0xbd2737ad	-0.04082458
37	0x3d518149	0.051148687
38	0x3d1144e8	0.035466105
39	0xbc03dfd3	-0.008048969
40	0xbd165683	-0.036703598
41	0x3c2e5038	0.010639243
42	0x3c7efcb0	0.015563175
43	0xbcc509f6	-0.024052601
44	0x3d770557	0.060307827
45	0x3d587f59	0.052855823
46	0x3d10c56e	0.035344534
47	0x3d1f0e43	0.03883196
48	0xbc8f3718	-0.017482325
49	0x3c6aab03	0.014322999
50	0x3cc9a532	0.024614904
51	0x3bac1c4a	0.0052523958
52	0xbd330024	-0.043701306
53	0xbd0646a7	-0.032782223
54	0xbd64f975	-0.055901963
55	0x3cfadde1	0.030623378
56	0x3d5bf18c	0.053697154
57	0xbc8ac884	-0.016941316
58	0xbcea399e	-0.028591927
59	0x3ccf8877	0.025333626
60	0x3d02bf84	0.031920925
61	0xbd07a8ca	-0.033119954
62	0x3d2e461b	0.042547327
63	0x3c8daded	0.017294848
64	0xbcbfc43f	-0.023409007
65	0x3ce9acfc	0.028524868
66	0xbc2ce84a	-0.010553429
67	0xba21787c	-0.0006159616
68	0x3d31bed5	0.043394882
69	0x3d1ae533	0.037816238
70	0xbd1ff36b	-0.0390505
71	0x3d2087be	0.039191954
72	0x3d0a90b4	0.033829406
73	0x3d049b98	0.03237495
74	0x3d7dc0b4	0.061951354
75	0xbc09cfe7	-0.008411384
76	0xbd32147e	-0.043476574
77	0x3d7bd1c6	0.061479352
78	0x3d5b89fe	0.053598396
79	0xbcfa5ce7	-0.030561877
80	0x3d24e3fc	0.040256485
81	0xbd2826e9	-0.041052733
82	0xbcabac4c	-0.020956181
83	0x3cc0abcb	0.023519417
84	0xbc765064	-0.015033815
85	0x3c646f68	0.013942577
86	0x3c87f7f6	0.01659773
87	0xbc784afd	-0.015154597
88	0x3c34d7b3	0.011037755
89	0x3d8660ea	0.06561454
90	0xbcf1ac37	-0.029501064
91	0x3d3c6c5b	0.046001773
92	0xbd1ce2ee	-0.038302355
93	0x3d37a934	0.0448391
94	0xbc98ae86	-0.018637907
95	0xbc89872a	-0.016788084
96	0xbbeddd7d	-0.0072590695
97	0xbd86f8e3	-0.0659044
98	0xbd801f65	-0.06255988
99	0xbbeff66e	-0.007323078
100	0xbb90053e	-0.004395156
101	0x3d75fed5	0.06005748
102	0x3c89aa11	0.016804727
103	0xbd2bb6a6	-0.041922234
104	0xbc7727d6	-0.015085181
105	0x3cb97c4b	0.022642275
106	0xbd4ffba7	-0.050777104
107	0x3d335ae0	0.043787837
108	0x3d4533e8	0.048145205
109	0xbd0c0637	-0.034185614
110	0xbd040042	-0.03222681
111	0x3c231daf	0.009955808
112	0xbd65b626	-0.056081913
113	0x3d09c272	0.033632703
114	0x3d040cc8	0.03223875
115	0x3cf19e98	0.029494569
116	0x3d7fc410	0.06244284
117	0xbaf5c6a1	-0.0018751213
118	0x3b617cf0	0.0034406744
119	0x3d41e0b7	0.047333445
120	0xbc99fc37	-0.018797023
121	0xbd37fe8b	-0.044920485
122	0xbcc9d6d5	-0.024638573
123	0x3d6cbd90	0.05779797
124	0x3d83ccb5	0.06435529
125	0xbd3df2c4	-0.046374097
126	0xbc23f60b	-0.010007392
127	0xbd9d8580	-0.07691479
128	0xbc8639ca	-0.016384978
129	0xbcc4fca1	-0.024046244
130	0xbbdb9ad7	-0.006701808
131	0xbcc6424c	-0.024201535
132	0xbcb4e333	-0.022080993
133	0xbabddd63	-0.0014485534
134	0x3d74aa47	0.0597327
135	0x3d357669	0.044302378
136	0x3c866989	0.016407745
137	0xbc27b4ee	-0.010236008
138	0x3dacc567	0.08436089
139	0x3c424bda	0.011858905
140	0xbcc1c307	-0.023652567
141	0xbd16a785	-0.036780853
142	0xbc6eb01c	-0.014568355
143	0x3d647cd3	0.055783104
144	0x3b3acedd	0.0028504648
145	0x3caffe55	0.02148358
146	0xbcbe195a	-0.023205448
147	0xbdb390d0	-0.08767855
148	0xbd1399cd	-0.036035348
149	0xbd4724b4	-0.048618987
150	0xbd321a39	-0.04348204
151	0x3c49a089	0.012306341
152	0xbd8c0600	-0.06837082
153	0x3c8a5532	0.016886327
154	0xbd3d0122	-0.04614366
155	0xbb94d15c	-0.004541559
156	0xbc919405	-0.017770777
157	0xbd5405e1	-0.05176342
158	0xbcd5ec2c	-0.026113592
159	0xbd02db99	-0.031947706
160	0xbccdddc7	-0.025130166
161	0xbd85dfed	-0.06536851
162	0x3cc84d9f	0.024451075
163	0xbc73bdf1	-0.0148768285
164	0xbceb64d2	-0.028734598
165	0xbd0574c8	-0.032582074
166	0xbcf972a3	-0.03045017
167	0x3d18ff32	0.03735275
168	0xbd27a211	-0.040926043
169	0x3d364561	0.04449976
170	0xbbf9991b	-0.0076171285
171	0x3cffa643	0.03120721
172	0xbd69f0a3	-0.057114255
173	0x3d4470b5	0.04795905
174	0xbd48bfbb	-0.049010973
175	0x3d02edf9	0.03196523
176	0xbd2d33f2	-0.042285867
177	0x3caeaafa	0.021321762
178	0xbd99e411	-0.07514203
179	0xbc71b81c	-0.014753368
180	0xbd53dbab	-0.051723164
181	0x3d07cafc	0.033152565
182	0x3d6703f0	0.05640024
183	0x3c7f4219	0.015579724
184	0xbd89c86e	-0.06727682
185	0xbd322eb4	-0.04350157
186	0x3d88549b	0.06656762
187	0x3c3e265c	0.011605825
188	0xbbb5eea9	-0.005552132
189	0x3d43c9eb	0.047799986
190	0x3d9f914e	0.077913865
191	0xbc7320be	-0.014839349
192	0xba8239bf	-0.0009935423
193	0xbc15a5cc	-0.009133767
194	0x3d81b975	0.06334201
195	0x3da22830	0.079178214
196	0x3d72bd8c	0.059262797
197	0x3c203b51	0.009779767
198	0xbd452f4d	-0.048140813
199	0x3c9f3554	0.019434609
200	0x3cd70ae0	0.026250303
201	0x3d813b08	0.063100874
202	0x3c78e6b6	0.0151917245
203	0xbd159247	-0.036516454
204	0x3cee7f71	0.029113503
205	0xbc6eb6b4	-0.014569927
206	0x3d5548d1	0.052071396
207	0xbb41329a	-0.0029479624
208	0xbcf8bd46	-0.03036369
209	0xbd07555b	-0.033040386
210	0xbcc8c3d6	-0.024507444
211	0xbd830156	-0.06396739
212	0xbbb5866b	-0.0055397055
213	0x3d0c961e	0.03432285
214	0xbd2b6e5f	-0.041853305
215	0x3d07b61b	0.033132654
216	0xbcf3c1b3	-0.029755449
217	0x3d88f8c6	0.06688075
218	0xbc082772	-0.008310186
219	0x3d7fa574	0.062413648
220	0x3d8acb23	0.067770265
221	0xbd7ac689	-0.061224494
222	0xbd47aad9	-0.048746917
223	0xbcd9242e	-0.02650651
224	0xbcd5bd94	-0.026091374
225	0xbadd7fa6	-0.0016899004
226	0xbd7ff90f	-0.06249338
227	0xbd6521dd	-0.055940498
228	0x3d0b04eb	0.033940237
229	0x3ccaadef	0.024741141
230	0xbcc7a1b1	-0.024369093
231	0xbd5372f6	-0.051623307
232	0xbda432eb	-0.08017524
233	0x3ce6b7d4	0.028163828
234	0xbc8f6f41	-0.017509105
235	0x3bb12514	0.0054060314
236	0x3caa441a	0.020784426
237	0x3ce72022	0.028213564
238	0xbd47911a	-0.048722364
239	0x3bfbfac6	0.0076898066
240	0x3d571c77	0.05251738
241	0xbacc33a3	-0.0015579354
242	0xbd062619	-0.032751177
243	0x3d43f25d	0.047838558
244	0x3c4efad5	0.012633045
245	0x3d0d8bb9	0.034557078
246	0xbd350e3d	-0.04420303
247	0x3cfda473	0.030962205
248	0xbd1f93f3	-0.038959455
249	0x3d550c31	0.05201358
250	0x3c681124	0.014164243
251	0xbd1ab8a0	-0.03777373
252	0xbcf4a23b	-0.029862514
253	0xbd2789a0	-0.040902734
254	0xbd4db8f5	-0.050225217
255	0x3cb63d2f	0.022245971

conv2.bias f4 [20]
0	0x3d83a5fa	0.06428142
1	0xbd1f908b	-0.038956206
2	0xbd656fe3	-0.056014907
3	0xbc6d1a0f	-0.014471545
4	0x3ba833d5	0.005133132
5	0x3ca0de5a	0.019637275
6	0xbd22a259	-0.039705608
7	0x3d95b966	0.073107526
8	0xbb99d0e2	-0.00469409
9	0xbc84cbee	-0.016210523
10	0xbd34f26f	-0.044176515
11	0x3cc5ff98	0.024169728
12	0xbcc9609c	-0.0245822
13	0x3b620e2a	0.0034493306
14	0x3cee19a8	0.029064968
15	0xbc01974f	-0.00790961
16	0xbd5c99e5	-0.053857703
17	0xbced99ec	-0.02900406
18	0xbd3f5dfe	-0.046720497
19	0x3b808192	0.003921696

fc.weight f4 [10, 320]
0	0xbd3f0d96	-0.046643816
1	0x3d037f62	0.032103904
2	0x3d1ce340	0.03830266
3	0x3cf9ea12	0.030507121
4	0x3c961034	0.018318273
5	0x3c8b16e0	0.016978681
6	0xbd66f8bf	-0.056389567
7	0xbbceee7d	-0.006315051
8	0xbc462df3	-0.012095916
9	0xbacd4dad	-0.0015663408
10	0xbc4eee86	-0.012630111
11	0xbcd92ee8	-0.026511624
12	0xbd1b8827	-0.037971642
13	0xbcb05d33	-0.021528816
14	0xbcaa9baa	-0.02082618
15	0xbd43d1d8	-0.047807544
16	0x3c6d68e7	0.014490343
17	0xbc1b537e	-0.009480355
18	0x3c5b942a	0.013402024
19	0x3b604d67	0.0034225823
20	0x3cb42eac	0.021994911
21	0xbc0e1d2b	-0.008673946
22	0xbd1506c2	-0.036383398
23	0xbc88d198	-0.016701505
24	0x3d3545e6	0.044256113
25	0x3ccb61ce	0.02482691
26	0x3cdf1e02	0.027235989
27	0xbca087e5	-0.01959605
28	0x3cc3fb89	0.023923652
29	0xbd4dcb69	-0.050242815
30	0xbcd8fc0a	-0.02648737
31	0x3d4f691c	0.05063735
32	0xbc9a804d	-0.018860007
33	0xbd682326	-0.056674145
34	0xbcc4be46	-0.02401651
35	0xbbfa1ed5	-0.00763307
36	0xbd832a3a	-0.064045385
37	0xbcf93e0e	-0.030425098
38	0xbd8ff078	-0.07028288
39	0xbbd54483	-0.0065084114
40	0xbd0f451b	-0.034978013
41	0x3baceaea	0.0052770274
42	0x3acd6183	0.001566932
43	0xbd824272	-0.0636033
44	0x3d36da21	0.044641618
45	0xbce9f241	-0.028557898
46	0xbc369e79	-0.011146181
47	0x3d0f4f8c	0.03498797
48	0x3d4731fc	0.048631653
49	0x3cee9606	0.029124271
50	0xbcb682d0	-0.022279173
51	0x3c8ca9f0	0.017170876
52	0xbcf85c61	-0.030317487
53	0x3cc6a9a8	0.02425082
54	0x3d11252b	0.035435837
55	0xbd31980a	-0.043357886
56	0x3ce8c8bb	0.028416028
57	0xbcbd6427	-0.023119045
58	0xbc1cb193	-0.009563821
59	0xbb8f2fd4	-0.004369715
60	0xbca91cf8	-0.020643696
61	0xbd5710d3	-0.05250628
62	0xbd1d2049	-0.038360868
63	0xbd8573ff	-0.06516265
64	0x3c825243	0.015908366
65	0xbc91c948	-0.017796174
66	0x3d3c4818	0.04596719
67	0xbd4d130f	-0.050067004
68	0x3d5a2108	0.053254157
69	0xbcb45bcd	-0.02201643
70	0xbc4f2f80	-0.012645602
71	0x3c1a2fb9	0.009410792
72	0xbcb82326	-0.022477698
73	0xbc67b70b	-0.014142762
74	0xb9eb2554	-0.00044850504
75	0x3d558855	0.05213197
76	0x3b80327f	0.0039122696
77	0x3c5bd8fb	0.013418431
78	0xbd221ae4	-0.039576426
79	0x3b85a9d4	0.004079083
80	0xbd2d796d	-0.04235213
81	0x3c814b42	0.015782956
82	0x3c99dc26	0.018781733
83	0xbd4a2e04	-0.04936029
84	0xbd354b44	-0.044261232
85	0x3c31fa5e	0.010862915
86	0x3d2e8bd5	0.042613823
87	0x3cb957ba	0.02262484
88	0x3aefec46	0.0018304668
89	0xbc494f4d	-0.012286973
90	0xbc0b8803	-0.008516314
91	0x3d1782d1	0.03698999
92	0x3d20ead5	0.039286453
93	0x3bfe6b9d	0.0077642933
94	0xbd2ee32e	-0.042697124
95	0xbcea57d8	-0.02860634
96	0x3d1a9150	0.037736237
97	0x3c91e87f	0.017811058
98	0xbd6bd97b	-0.057580452
99	0x3c12629e	0.008934645
100	0xbd5a9e3e	-0.053373568
101	0xba9c3a5a	-0.0011919246
102	0xbd8a9fb7	-0.067687444
103	0x3b936657	0.004498284
104	0x3c397edb	0.011321749
105	0x3c6b8282	0.014374377
106	0x3d065cc9	0.03280333
107	0x3aac69a0	0.0013154037
108	0x3d0b0f8e	0.03395038
109	0xbd88c7e0	-0.06678748
110	0xbcc14354	-0.023591675
111	0xbd7e4c1a	-0.062084295
112	0xbd19e356	-0.03757032
113	0x3c847dba	0.016173232
114	0xbb3f3560	-0.00291761
115	0xbbf86246	-0.0075800745
116	0xbd6e20e1	-0.058136825
117	0xbc5ff2bc	-0.013668712
118	0xbd0fcd94	-0.035108164
119	0xbd5fa0b2	-0.05459661
120	0x3c391ab5	0.011297871
121	0xbd75c0f1	-0.059998456
122	0xbd55557e	-0.052083485
123	0x3ccecd50	0.025244385
124	0x3ca44957	0.020054502
125	0x3a4c08b1	0.00077832775
126	0xbd57a94a	-0.05265168
127	0x3c25f4f1	0.010129199
128	0x3ce73c80	0.02822709
129	0xbcee93cc	-0.02912321
130	0xbce8a870	-0.02840063
131	0xbd3ae0eb	-0.045624655
132	0xbcd594f8	-0.02607201
133	0xbc1fd037	-0.009754232
134	0xbbe1ac13	-0.006886968
135	0x3b1aab05	0.002360047
136	0xbc70f4bd	-0.014706788
137	0xbd0cd5bb	-0.034383517
138	0xbd24c7ca	-0.040229596
139	0xbbb79e72	-0.005603605
140	0x3cf4ce3d	0.029883498
141	0xbcaad510	-0.02085355
142	0xbd3057a1	-0.04305232
143	0xbc2e32bf	-0.010632216
144	0xbccd5ff6	-0.025070172
145	0xbc8d9063	-0.017280763
146	0xbd02ceb1	-0.031935398
147	0x397f593c	0.00024351937
148	0x3cd12bac	0.02553352
149	0xbd726fca	-0.05918864
150	0x3caa57b5	0.020793775
151	0xbc46a520	-0.01212433
152	0x3b27356b	0.0025514017
153	0xbd8183c1	-0.06323958
154	0xbc3fd366	-0.011708116
155	0xbd6e1823	-0.058128487
156	0xbc920c03	-0.017827993
157	0xbd7dceb7	-0.061964717
158	0x3c5293ce	0.012852622
159	0x3c81c422	0.015840594
160	0xbcb97af0	-0.022641629
161	0x3d3c9aee	0.04604619
162	0xbcd5cea6	-0.026099514
163	0xbd1f6303	-0.038912784
164	0x3c61f083	0.013790253
165	0x3b3d0dcf	0.0028847342
166	0xbc80f0df	-0.015739856
167	0x3b1ad9f5	0.0023628448
168	0x3d5dc693	0.054144453
169	0x3cb871dd	0.022515232
170	0x3d2fcb84	0.042918697
171	0x3cddf2b6	0.027093273
172	0xbc6670a6	-0.014064943
173	0x3d242c2e	0.040081196
174	0x3d262253	0.040560078
175	0x3d2820e8	0.041047007
176	0xbd4591c7	-0.048234727
177	0xbcc84f3c	-0.024451844
178	0x3d07b6ad	0.033133198
179	0xbca2fa76	-0.01989482
180	0xbb99d904	-0.0046950597
181	0xbd584059	-0.05279574
182	0xbc888922	-0.016666953
183	0x3ccb6cff	0.024832247
184	0x3b69d0c6	0.0035677417
185	0x3d444067	0.04791298
186	0xbd5891d3	-0.052873444
187	0xbd443d47	-0.04791
188	0x3ceefb31	0.029172512
189	0xbd45b323	-0.04826654
190	0xbd39112b	-0.04518239
191	0xbd1e3afd	-0.038630474
192	0xbd522422	-0.05130399
193	0xbd6446d6	-0.055731617
194	0x3bef7c04	0.007308485
195	0x3cc842b1	0.024445863
196	0xbce2ec3a	-0.027700532
197	0x3c117d1f	0.008879929
198	0x3cfa9886	0.030590307
199	0x3cb28aa7	0.02179463
200	0x3c517a54	0.012785513
201	0xbc02e092	-0.007988112
202	0x3bda2617	0.0066573727
203	0x3ca67fea	0.020324666
204	0x3d18c5ed	0.03729813
205	0xbce649ce	-0.028111365
206	0x3ce3c293	0.027802741
207	0x3c886b39	0.01665269
208	0x3cbd6a2f	0.023121921
209	0x3c845f1b	0.016158631
210	0x3a62ecd0	0.00086565036
211	0xbd65a96f	-0.056069788
212	0x3d2d9590	0.042378962
213	0x3c5dad57	0.013530097
214	0x3c7a6f74	0.015285362
215	0x3c2c96aa	0.010533968
216	0x3ccfbe09	0.02535917
217	0xbcd4e551	-0.025988253
218	0x3d098e1e	0.0335828
219	0x3d564618	0.05231294
220	0xbd42313d	-0.04741024
221	0xbd76dae6	-0.06026735
222	0x3c0bac73	0.008525002
223	0x3d348d22	0.044079907
224	0xbd854b0c	-0.06508455
225	0xbc24c4d7	-0.010056696
226	0xbd2e5947	-0.04256561
227	0xbd86a8d5	-0.06575171
228	0x3cebeda8	0.028799847
229	0xbd4482c5	-0.047976274
230	0xbcd34d7f	-0.025793789
231	0xbd88e61a	-0.066845134
232	0xbcceeadc	-0.025258474
233	0xbcd9ad16	-0.026571792
234	0xbd8b1f9e	-0.0679314
235	0x3c0970f7	0.008388749
236	0x3d10ebc2	0.035381086
237	0xbcd769fd	-0.026295656
238	0x3c4f6c13	0.012660044
239	0x3c1bc9cd	0.009508562
240	0xbc8ac088	-0.01693751
241	0xbcda414e	-0.026642468
242	0xbca3dc7e	-0.0200026
243	0x3c84ef68	0.016227439
244	0xbbaf2be8	-0.00534581
245	0xbca8069a	-0.02051096
246	0xbcfcfb9e	-0.0308817
247	0xbced818f	-0.028992442
248	0xbd394764	-0.0452341
249	0x3d542e5f	0.051802035
250	0x3ced22f6	0.028947335
251	0xbbb5e7ec	-0.005551329
252	0x3cade552	0.021227513
253	0xbd4f4f35	-0.050612647
254	0x3d57f72c	0.052725956
255	0x3d0e3f76	0.03472849

fc.bias f4 [10]
0	0xbd628a23	-0.05530752
1	0x3d9aada4	0.075526506
2	0xbce7c909	-0.028294103
3	0x3bd3dce1	0.00646554
4	0xbb9eff47	-0.004852209
5	0xbd19512a	-0.03743092
6	0xbd57f71e	-0.052725904
7	0xbd4ded06	-0.05027487
8	0x3b43e1d3	0.002988924
9	0xbc4435c6	-0.011975711

momentum_buffer f4 [10, 1, 5, 5]
0	0xbbb80a8a	-0.0056164907
1	0xbc23cdd6	-0.009997806
2	0xbc3f4b1c	-0.011675622
3	0x3b29e0b8	0.0025921296
4	0x3bc16202	0.005901576
5	0xbaf103f0	-0.0018388014
6	0xbc0b3214	-0.008495826
7	0xbc1cba2e	-0.009565873
8	0x3c0b7394	0.008511443
9	0x3c510947	0.01275856
10	0xbbffe156	-0.0078088446
11	0xbc1ea61a	-0.009683156
12	0xbb91bf99	-0.004447889
13	0x3c853c16	0.016264003
14	0x3ca7fb42	0.020505551
15	0xbc75c030	-0.014999434
16	0xbc01352a	-0.00788621
17	0x3b447bf0	0.00299811
18	0x3c81c9b8	0.015843257
19	0x3c6052d4	0.013691623
20	0xbc91ba0a	-0.017788906
21	0xbc11f6e9	-0.008908966
22	0xbaa8c5fc	-0.0012876387
23	0x3c0112ee	0.007878048
24	0x3a42ee00	0.00074359775
25	0xbb5765b4	-0.0032867016
26	0x3a2c0d10	0.0006563226
27	0xbacf99b2	-0.0015838651
28	0xbbdd6689	-0.006756608
29	0xbbb64c5c	-0.005563302
30	0xba01d8ec	-0.00049532834
31	0xbb806f9a	-0.003919554
32	0xbc280fed	-0.010257703
33	0xbbf928c5	-0.007603737
34	0xbc2620dc	-0.01013967
35	0x3ac98e73	0.0015377536
36	0xbbd04f25	-0.006357091
37	0xbc85b158	-0.016319916
38	0xbc85664a	-0.016284127
39	0xbcbc2db5	-0.022971014
40	0xba3dcd00	-0.0007240325
41	0xbbb24df4	-0.0054414216
42	0xbc8e3a6f	-0.017361848
43	0xbcb4d221	-0.022072854
44	0xbcda6e4c	-0.026663922
45	0xbbc88c66	-0.0061202524
46	0xbc3a02fc	-0.011353251
47	0xbc73e17c	-0.014885303
48	0xbca92381	-0.020646812
49	0xbc982b08	-0.018575206
50	0xbbd25ef4	-0.0064200107
51	0xbb18cabd	-0.00233142
52	0xbabc562b	-0.0014368942
53	0xbb9195c2	-0.0044429014
54	0xbae56aaa	-0.0017503102
55	0xbb0581f2	-0.0020371643
56	0x3b88b240	0.0041716397
57	0x3a960c84	0.0011447822
58	0xba2d909a	-0.00066209736
59	0xbab67efe	-0.0013923345
60	0x3b4241bd	0.0029641234
61	0x3b9aaa7a	0.0047200294
62	0xb8b5bee8	-8.6663116e-05
63	0xba440cd9	-0.0007478721
64	0xba5c02fe	-0.000839278
65	0x3bf4c908	0.007470254
66	0x3b0064bf	0.00195913
67	0x399b5894	0.000296299
68	0x392cf303	0.00016493727
69	0x3b1dbaf2	0.0024067727
70	0x3c5211be	0.012821613
71	0x3b1a600d	0.0023555786
72	0x390842e6	0.00012994892
73	0x3b0285d3	0.0019916191
74	0x3b9aa5bd	0.0047194646
75	0x3c47fe56	0.0122066345
76	0x3c890b1a	0.016728926
77	0x3cca10a8	0.024666145
78	0x3c78d018	0.015186332
79	0x3bd8bfc0	0.0066146553
80	0x3c234d43	0.009967151
81	0x3ca665bc	0.020312183
82	0x3cbfcfb0	0.023414463
83	0x3c32c280	0.01091063
84	0x3c327282	0.010891559
85	0x3bc26489	0.005932395
86	0x3ba7c10b	0.005119448
87	0x3bb8d531	0.005640649
88	0x3c123a9f	0.008925109
89	0x3c8d19e8	0.017224267
90	0x3a8a8d6a	0.0010570709
91	0x3b339462	0.0027401675
92	0x3b7d9157	0.0038691366
93	0x3c40494b	0.011736224
94	0x3ca739f1	0.02041337
95	0x3a3c1a54	0.0007175554
96	0x3c44a1f7	0.012001506
97	0x3c3eaa8e	0.011637343
98	0x3cb1ecb1	0.021719309
99	0x3c21549b	0.009846832
100	0x3c67be46	0.014144486
101	0x3bf496cd	0.007464266
102	0x3b98a073	0.004657799
103	0x3c296540	0.010339081
104	0x3ba6446a	0.0050740736
105	0x3c2f7b17	0.010710499
106	0x3c004a9f	0.007830291
107	0x3c04b152	0.008098917
108	0x3bf9ffed	0.0076293857
109	0x3b870a5e	0.004121109
110	0x3c12c6a6	0.008958494
111	0x3c3ac375	0.01139914
112	0x3c1bf775	0.009519448
113	0x3c1868ae	0.009302301
114	0x3b603470	0.0034210943
115	0x3c42213c	0.011848744
116	0x3c3716ce	0.011174871
117	0x3c06b32c	0.008221429
118	0x3c0fc5e4	0.008775208
119	0x3a285040	0.00064206496
120	0x3c76f7c0	0.015073717
121	0x3bbcecdc	0.0057655405
122	0x3b09e5c8	0.0021041501
123	0x3c0ad88b	0.008474479
124	0x39accff0	0.00032961322
125	0x3bafb5fe	0.0053622713
126	0xbc594eb4	-0.013263393
127	0xbccc944a	-0.024973053
128	0xbcf3c409	-0.029756563
129	0xbc907f5b	-0.017638853
130	0x3c1f26ca	0.009713838
131	0xba7553c0	-0.0009358488
132	0xbc60c387	-0.013718492
133	0xb9d4e430	-0.00040605804
134	0x3ba20b22	0.004945175
135	0x3c95f104	0.018303402
136	0xbc005508	-0.007832773
137	0xbca42926	-0.020039152
138	0x3bbb7b28	0.0057214685
139	0x3c857258	0.016289875
140	0x3b4538e8	0.0030093733
141	0xbcccc834	-0.024997808
142	0xbc7fd3d0	-0.015614465
143	0x3ba92bb1	0.005162679
144	0x3c1aad4f	0.009440734
145	0xbc101656	-0.008794388
146	0xbcab2a59	-0.020894216
147	0xbcc2b906	-0.023769867
148	0xbc013603	-0.007886413
149	0xbca48a28	-0.02008541
150	0x3ab6a1f3	0.0013933763
151	0xbb1963c9	-0.0023405424
152	0xbbcc4b28	-0.0062345453
153	0xbc8f3028	-0.017479017
154	0xbcba9456	-0.02277581
155	0x3bd0fd48	0.0063778497
156	0x3ae30e8c	0.0017323061
157	0xbbd96dcb	-0.006635403
158	0xbca8a0c2	-0.020584468
159	0xbcef7cea	-0.029234368
160	0x3bfe279c	0.0077561866
161	0x3ae72f38	0.0017637974
162	0xbc4645d6	-0.012101611
163	0xbcea5b61	-0.028608026
164	0xbd0e6ed8	-0.034773678
165	0x3ac5070a	0.0015032005
166	0xbb9ffdea	-0.004882564
167	0xbc9f61cf	-0.019455818
168	0xbd2722aa	-0.040804543
169	0xbd2d46a5	-0.0423037
170	0xb9fd4690	-0.00048308494
171	0xbc3851b0	-0.011249945
172	0xbd0a958c	-0.033834025
173	0xbd444c26	-0.047924183
174	0xbd163dec	-0.036680147
175	0xbc873dab	-0.016508898
176	0xbcfde30e	-0.030992057
177	0xbc8fa831	-0.017536255
178	0x3bf4a958	0.0074664764
179	0x3c054bf4	0.008135784
180	0xbc968b51	-0.018376978
181	0xbcbfab3c	-0.02339708
182	0x39730c40	0.0002317885
183	0x3c68ba23	0.014204535
184	0x3c009657	0.007848344
185	0xbcf8c9eb	-0.03036972
186	0xbc7e8a5f	-0.01553592
187	0x3c119157	0.008884749
188	0x3c42b860	0.011884779
189	0x3b90dba8	0.0044207163
190	0xbd042e75	-0.032270867
191	0xbc6f82f6	-0.014618626
192	0x3b42c464	0.0029719109
193	0x3b900bcd	0.004395938
194	0xba9503f4	-0.0011368976
195	0xbcfd194c	-0.030895852
196	0xbc312b6a	-0.010813573
197	0xbae414f8	-0.0017401269
198	0x3ae95b90	0.0017803777
199	0xba34cfd0	-0.00068974216
200	0xbc0e4d2f	-0.008685394
201	0xbb16c505	-0.0023005616
202	0xbc0fec72	-0.0087844
203	0xbc24970e	-0.01004578
204	0xbc25f45b	-0.01012906
205	0x3ad122b7	0.001595578
206	0x3af019af	0.0018318201
207	0xbbe15e2e	-0.006877682
208	0xbc3bcb9e	-0.01146212
209	0xbc72e560	-0.014825195
210	0x3b442ab6	0.0029932684
211	0xbb3fb6fa	-0.002925335
212	0xbad7adbc	-0.0016454975
213	0xbc12cf42	-0.008960547
214	0xbc6eb1a6	-0.014568722
215	0xbb2e3acc	-0.0026585339
216	0xbbce25f9	-0.006291148
217	0x3994e920	0.0002840245
218	0xbba5f01a	-0.0050640227
219	0xb9d0a7b0	-0.00039797788
220	0xbc1b58fe	-0.009481667
221	0xbc0f2eb6	-0.008739164
222	0x3b2870de	0.002570204
223	0xbadfdbc8	-0.001707905
224	0x3b53192a	0.0032211044
225	0xb9740740	-0.00023272354
226	0x3b76c440	0.0037653595
227	0xb9e68990	-0.0004397151
228	0x3b88d0a2	0.0041752616
229	0x3b9ffbe4	0.0048823226
230	0x3be9c1d0	0.0071337
231	0x3becc710	0.0072258785
232	0xbb207f1a	-0.002448982
233	0xbb548716	-0.003242915
234	0x3b27ed8e	0.0025623771
235	0x3b25d2fa	0.0025302754
236	0x3b6574bc	0.0035012206
237	0xbc3139a2	-0.010816963
238	0xba552500	-0.00081308186
239	0xb8a5f580	-7.913541e-05
240	0xbade2bd0	-0.0016950313
241	0xbaa27378	-0.0012394032
242	0x3b205b0c	0.002446833
243	0x3bf44d10	0.0074554756
244	0x3b21f12e	0.0024710405
245	0xbb0987e0	-0.0020985529
246	0x3b02011c	0.0019837087
247	0x3b5ffbac	0.0034177108
248	0x3c0e5926	0.008688247
249	0x3b86a581	0.004109085

momentum_buffer f4 [10]
0	0xbc4942c8	-0.012283988
1	0xbc2e281a	-0.010629678
2	0x39f818f6	0.00047320843
3	0x3cb6951a	0.022287894
4	0x3c4b3abc	0.01240414
5	0xbc9177ae	-0.017757263
6	0xbcb63388	-0.022241369
7	0xbc85e2f6	-0.016343575
8	0xbba0d67c	-0.004908381
9	0x3a5e0164	0.0008468835

momentum_buffer f4 [20, 10, 5, 5]
0	0xbc10b322	-0.008831771
1	0xbbe64d44	-0.0070282537
2	0xbb581bab	-0.0032975476
3	0xbad870a1	-0.0016513058
4	0xbbb16c95	-0.0054145553
5	0xbc2e1670	-0.010625467
6	0xbba87419	-0.005140793
7	0x3b8710aa	0.0041218596
8	0x3ba30ff8	0.004976269
9	0x3ac9d214	0.0015397691
10	0xbc50d238	-0.012745433
11	0xbc0422aa	-0.008064905
12	0x3b988edf	0.0046557034
13	0x3b72ffa8	0.0037078653
14	0x3abdcd50	0.0014480744
15	0xbc1c5a4a	-0.009543011
16	0xbac91f06	-0.0015344329
17	0xb8b77060	-8.7470515e-05
18	0x3b25f9bd	0.0025325858
19	0xb9821817	-0.0002481348
20	0xbb865a3a	-0.0041001113
21	0x3a66f38c	0.0008810095
22	0x3b648f55	0.0034875472
23	0x3be3a316	0.0069469316
24	0xb801a4c0	-3.0909432e-05
25	0xbb9363f0	-0.0044979975
26	0xbb8bb02f	-0.004262946
27	0xb9fe5130	-0.00048507145
28	0xbb4d2eea	-0.003130848
29	0x3b1c2003	0.0023822791
30	0xbb4dc5ec	-0.0031398488
31	0xb899ad34	-7.32787e-05
32	0xba59ef67	-0.0008313567
33	0xbabf7177	-0.0014605959
34	0xb9c1fcf0	-0.00037000282
35	0xbac2a8e2	-0.0014851356
36	0x3b52f9b3	0.003219229
37	0x3b2a8510	0.0026019253
38	0x39a835d8	0.00032083574
39	0xba6251bc	-0.0008633395
40	0xba13c9c6	-0.00056376716
41	0x3abc65fc	0.0014373655
42	0x3a2c6548	0.00065763714
43	0xbab05e9c	-0.001345593
44	0xb9ef2428	-0.0004561257
45	0x3a3ca924	0.0007196835
46	0x3b120702	0.002228201
47	0x3b109e68	0.0022067074
48	0xbb476e27	-0.0030430646
49	0xbb4aae97	-0.0030926818
50	0xb76ab000	-1.3988465e-05
51	0xba2537ea	-0.00063025823
52	0xbac90bf3	-0.0015338644
53	0xba6f0c65	-0.00091189734
54	0xbaf44c97	-0.0018638548
55	0x3ab2560a	0.0013605964
56	0x3a17bf30	0.0005788682
57	0xba2bb9c1	-0.0006550812
58	0xb93b4a04	-0.00017861283
59	0xba032f6d	-0.00050043204
60	0x39fe8d90	0.00048552128
61	0xbb080bbe	-0.0020758952
62	0xbae5201a	-0.001748088
63	0x3a69ba96	0.0008916048
64	0x39ffcf32	0.00048791763
65	0xba26e987	-0.0006367196
66	0xbab4e73e	-0.0013801826
67	0x3a2c0af4	0.00065629114
68	0x3acefc99	0.0015791833
69	0x3b411856	0.0029463968
70	0x39aa5fb5	0.00032496234
71	0x373112d0	1.0554402e-05
72	0x3a02a958	0.00049843406
73	0x3a0f9442	0.0005477109
74	0x39a46c94	0.00031361415
75	0xbbd30e28	-0.0064408965
76	0xba9160dc	-0.0011091488
77	0xba109596	-0.0005515454
78	0xbb44e7fb	-0.0030045498
79	0xbbb9e26c	-0.0056727435
80	0xbb8e10d3	-0.0043355017
81	0x3b7b85e8	0.0038379375
82	0x3b535a77	0.0032249966
83	0x3bb0fffe	0.0054016104
84	0xbb425604	-0.002965332
85	0xbb7f3cdb	-0.0038946185
86	0xb9b83230	-0.00035132607
87	0x3bc346c5	0.005959364
88	0x3b520608	0.0032047052
89	0xbaed1aa8	-0.0018089609
90	0xbb70c01e	-0.0036735605
91	0xbadba7fb	-0.0016758436
92	0x3a611073	0.000858552
93	0xba98ae54	-0.0011648634
94	0xbb42994c	-0.0029693423
95	0xbad1ed8b	-0.0016016228
96	0x3b090744	0.0020908872
97	0x3ad56350	0.0016280208
98	0x3a9167e9	0.001109359
99	0xbbaeb7c6	-0.005331966
100	0xbb963043	-0.00458339
101	0xbba21441	-0.004946262
102	0xbb66ed44	-0.0035236636
103	0x3ac7a6ac	0.0015232167
104	0x3b670e3e	0.0035256292
105	0xbb0c1c11	-0.0021379034
106	0xbb98238b	-0.004642909
107	0xba73f66b	-0.00093064335
108	0xb9bc6a30	-0.0003593727
109	0x3b07eca0	0.0020740405
110	0xba9fe9e3	-0.0012200441
111	0xb8a174d0	-7.698836e-05
112	0x3ac54ca4	0.0015052748
113	0x3982b334	0.0002492905
114	0x3a974788	0.0011541704
115	0x3b293850	0.0025820918
116	0x3b4e65e6	0.0031493842
117	0x3a6b1fb9	0.00089692656
118	0x3b34aaae	0.0027567553
119	0x3b08c058	0.00208666
120	0x3a7d470d	0.00096617715
121	0x3aafafa2	0.0013403783
122	0xb96c9798	-0.00022563187
123	0xba168b0c	-0.00057427655
124	0xb9066d9c	-0.00012820069
125	0xbc7e9898	-0.015539311
126	0xbc2a6a16	-0.010401269
127	0xbbf207da	-0.00738619
128	0x393909f0	0.00017646677
129	0xb9e0dd30	-0.00042889407
130	0xbc80a76e	-0.015704837
131	0xbb4c264f	-0.0031150763
132	0x3bc8ade6	0.006124246
133	0x3b7c3eb9	0.0038489534
134	0xb8a29600	-7.752702e-05
135	0xbc3e1206	-0.011600977
136	0x3bb2afa0	0.005453065
137	0x3c317736	0.010831645
138	0x3b840288	0.004028622
139	0xba907226	-0.0011020347
140	0xbb0b9c32	-0.0021302816
141	0x3c371189	0.011173614
142	0x3b84f5ae	0.0040576076
143	0xbb8d916f	-0.0043203156
144	0xbc0311e6	-0.007999873
145	0x3b36c2bc	0.0027887067
146	0x3c1e6994	0.0096687265
147	0x3c31d81c	0.010854747
148	0x3b840508	0.00402892
149	0xbc24fc6c	-0.010069948
150	0xbb51a963	-0.0031991831
151	0xbb0e57e8	-0.0021719877
152	0x3a383a96	0.0007027773
153	0xbb50070d	-0.0031742484
154	0x3a2a3392	0.000649267
155	0x38d36978	0.00010080909
156	0x3b587244	0.0033027092
157	0x3b4b2cd4	0.0031002061
158	0xbb0ca8f4	-0.0021463009
159	0x39e48aa0	0.00043590833
160	0x3a4b11ce	0.00077464886
161	0x3b3eb3eb	0.0029098939
162	0x3ad3d4a2	0.0016161392
163	0xbab8271b	-0.001404974
164	0xba4c0a80	-0.0007783547
165	0x3ab1a5c6	0.0013553433
166	0x3b178593	0.0023120388
167	0x3a9ff248	0.0012202943
168	0xbae0338b	-0.0017105205
169	0xbac309d0	-0.0014880244
170	0x3a022858	0.0004965118
171	0x3b003084	0.0019560168
172	0x3b301c4c	0.0026872335
173	0xbbb948f9	-0.005654451
174	0xbba0f50c	-0.0049120244
175	0xbbd7165b	-0.0065639443
176	0xbbfda016	-0.007740031
177	0xbbf382cd	-0.007431364
178	0xbb44aa88	-0.003000887
179	0x38b168c0	8.459529e-05
180	0xbc034afe	-0.008013485
181	0xbc06021c	-0.008179214
182	0xbbb36c4c	-0.0054755565
183	0x399ed8c0	0.000302976
184	0xb9e629f8	-0.00043900288
185	0xbc2d1010	-0.010562912
186	0xbbeaaabf	-0.007161468
187	0x3a5c726f	0.0008409386
188	0x3b33c0cf	0.0027428155
189	0x3a21f9e2	0.0006178898
190	0xbc1c8b3f	-0.009554683
191	0xbb2e962e	-0.0026639807
192	0x3be06c1c	0.006848825
193	0x3bb5f023	0.005552308
194	0x3b41bb7e	0.0029561217
195	0xbbd13838	-0.0063848756
196	0xbabcd5bd	-0.0014406961
197	0x3b618d94	0.0034416663
198	0x3b28ae61	0.0025738704
199	0xbaec66c8	-0.0018036002
200	0xbb9c0ddf	-0.0047623958
201	0xbbf27ec4	-0.0074003655
202	0xbb44c088	-0.0030021984
203	0xbb23ded7	-0.002500465
204	0x3b49bddc	0.003078333
205	0xbb898758	-0.0041970424
206	0x3ac95ec1	0.0015363322
207	0xbb0da414	-0.002161269
208	0xbb1763d3	-0.0023100271
209	0xb9996dde	-0.00029264292
210	0xbb0a5d90	-0.0021112897
211	0x3ae9bac3	0.0017832149
212	0x3a9c045e	0.0011903157
213	0x3ab08ab2	0.0013469069
214	0xbaf22253	-0.0018473364
215	0xbb021a61	-0.0019852149
216	0x3b036f60	0.0020055398
217	0x3b393087	0.0028257684
218	0xba003b2c	-0.000489163
219	0xba7026e2	-0.00091610674
220	0xbaab0cbd	-0.0013050061
221	0xb98c4c4e	-0.00026759732
222	0x3b12598a	0.0022331201
223	0xba90a816	-0.0011036422
224	0xb9bfdc34	-0.00036594423
225	0xbbd9f15f	-0.006651088
226	0xbc08a006	-0.008338934
227	0xbb9e10ca	-0.0048237788
228	0x38a37580	7.794332e-05
229	0x3b7a8f5a	0.0038232417
230	0xbbb0f8e6	-0.0054007648
231	0xbb8e46ae	-0.004341922
232	0x3a3a1e48	0.0007099849
233	0xbae0e890	-0.0017159153
234	0x39aa7278	0.00032510213
235	0xbba89592	-0.0051447833
236	0x3b271b34	0.0025498392
237	0x3bad4711	0.005288013
238	0x3aac94cc	0.0013166904
239	0xba422dc0	-0.000740733
240	0xbb3dbe02	-0.0028952365
241	0x3b9506e8	0.0045479424
242	0x3aea7141	0.0017886535
243	0x39132520	0.00014032843
244	0xbb03139c	-0.0020000702
245	0x3900dc50	0.00012289104
246	0x3ba06b4b	0.004895603
247	0x3a1a4cd7	0.0005886084
248	0xbaf3be04	-0.0018596058
249	0xbb1f8b3f	-0.0024344472
250	0x3abea44e	0.0014544816
251	0x3ade3b07	0.0016954847
252	0xba7b9964	-0.0009597747
253	0x3b7e2a46	0.003878252
254	0x3b552cf2	0.003252801
255	0xb8e59540	-0.00010947371

momentum_buffer f4 [20]
0	0xba3a32d0	-0.00071029086
1	0x3a826674	0.0009948746
2	0x3c3e7116	0.0116236415
3	0xbc08dc5d	-0.00835332
4	0x3c3d84fb	0.01156735
5	0x3c1bee26	0.009517228
6	0xbc95a638	-0.018267736
7	0x3b2efb27	0.0026699991
8	0x3aedd1bc	0.0018144171
9	0x3bbb1c7b	0.0057101822
10	0xba9e5b00	-0.0012081563
11	0xbc0d6c5e	-0.008631794
12	0x3be46522	0.006970064
13	0x39132e18	0.00014036184
14	0x3c691510	0.014226213
15	0x3b2bfb72	0.0026242402
16	0x3afccee1	0.0019287729
17	0x3b95c7ed	0.004570952
18	0x3b1f5a55	0.0024315317
19	0xbb12e51c	-0.0022414392

momentum_buffer f4 [10, 320]
0	0x37111f18	8.649913e-06
1	0x36126a44	2.181755e-06
2	0x377701f1	1.4722799e-05
3	0x3762e56d	1.3524067e-05
4	0x370d70d0	8.430521e-06
5	0x368ea0f2	4.2506663e-06
6	0x37341dbd	1.073576e-05
7	0x3795282c	1.778089e-05
8	0x3790b176	1.7248774e-05
9	0x366506c7	3.4127604e-06
10	0x36cd8bf5	6.1257692e-06
11	0x379734fc	1.8025275e-05
12	0x37957cf2	1.7820366e-05
13	0x37341c8d	1.0735484e-05
14	0x36daf6f6	6.5256563e-06
15	0x37890f1b	1.6338707e-05
16	0x37192562	9.1282145e-06
17	0x36d65769	6.387873e-06
18	0x36b86c18	5.496211e-06
19	0x367985c9	3.7181765e-06
20	0x37069027	8.0205855e-06
21	0x373bbc87	1.11899635e-05
22	0x36898251	4.098089e-06
23	0x35d6129a	1.5949656e-06
24	0x3732f31d	1.0666231e-05
25	0x363b3bf4	2.7900069e-06
26	0x3623bb59	2.4397943e-06
27	0x3605cf4a	1.9939203e-06
28	0x3787d88d	1.6194093e-05
29	0x369c0ef9	4.6509053e-06
30	0x36d22dd3	6.2638223e-06
31	0x357c36fc	9.395733e-07
32	0x37cfaa40	2.4755602e-05
33	0x37f952c9	2.9721663e-05
34	0x382ec03c	4.1663865e-05
35	0x381638bf	3.5815636e-05
36	0x379d7742	1.8771392e-05
37	0x38164af5	3.5832596e-05
38	0x385a70e2	5.208038e-05
39	0x380a7d1b	3.3018277e-05
40	0x380eb1fa	3.4021192e-05
41	0x383a975c	4.448682e-05
42	0x387c6929	6.017942e-05
43	0x37ec3d38	2.81619e-05
44	0x38425cf2	4.6339766e-05
45	0x38469b59	4.7351557e-05
46	0x37f9721b	2.9736248e-05
47	0x372f9a9e	1.04668125e-05
48	0x3480ede0	2.4014935e-07
49	0x37ee392d	2.8398435e-05
50	0x38480400	4.768744e-05
51	0x3849ee36	4.8143986e-05
52	0x34b2d4a2	3.3309794e-07
53	0x38069571	3.2087268e-05
54	0x3867972e	5.521549e-05
55	0x3898577d	7.264221e-05
56	0x35d764f2	1.6048127e-06
57	0x380f54c2	3.4172794e-05
58	0x389e97a8	7.562275e-05
59	0x389e2e4b	7.54265e-05
60	0x36b8e4ed	5.510278e-06
61	0x37b0b757	2.106621e-05
62	0x389ab9ef	7.377925e-05
63	0x388b4356	6.640579e-05
64	0x371b3010	9.24991e-06
65	0x37901acc	1.7178616e-05
66	0x375a6b47	1.301879e-05
67	0x36c56cee	5.8837386e-06
68	0x374f11d3	1.23423115e-05
69	0x3757318c	1.2826535e-05
70	0x3719ebe7	9.174436e-06
71	0x362100f3	2.3991422e-06
72	0x3714b43c	8.8634515e-06
73	0x371b1c80	9.245356e-06
74	0x37027dc9	7.7778905e-06
75	0x36bc384e	5.6093913e-06
76	0x35e8b873	1.7339029e-06
77	0x37399400	1.1061318e-05
78	0x37826412	1.5543807e-05
79	0x36aa55cb	5.0763824e-06
80	0x36b63488	5.430138e-06
81	0x36e40969	6.796025e-06
82	0x3745cc3c	1.1789667e-05
83	0x373bfd88	1.1205098e-05
84	0x370c3d02	8.358855e-06
85	0x3694115a	4.4127637e-06
86	0x37447536	1.1709801e-05
87	0x37fceff6	3.0152481e-05
88	0x369e150c	4.711217e-06
89	0x36f98e10	7.4373165e-06
90	0x3794f50b	1.7757082e-05
91	0x37dae0c4	2.609229e-05
92	0x3798aba8	1.8199746e-05
93	0x37ebefc5	2.8125834e-05
94	0x37f69edf	2.9399465e-05
95	0x37a44e7d	1.9586872e-05
96	0x35b71572	1.3640804e-06
97	0x389a9656	7.3712945e-05
98	0x385d6f07	5.279391e-05
99	0x38a7cf7e	8.001829e-05
100	0x35ec486c	1.7604448e-06
101	0x38a891a6	8.0379934e-05
102	0x3898d3fa	7.2874085e-05
103	0x38ba26d8	8.876406e-05
104	0x36123516	2.1786595e-06
105	0x38c106d5	9.20423e-05
106	0x390a673f	0.00013199168
107	0x38881abc	6.489965e-05
108	0x365761ee	3.20945e-06
109	0x3887f849	6.483548e-05
110	0x38db49f8	0.000104565115
111	0x37888331	1.6273554e-05
112	0x37c092c8	2.2956534e-05
113	0x37b1ca1e	2.1194162e-05
114	0x3814ca2a	3.547423e-05
115	0x36e446b0	6.8031586e-06
116	0x37ce884f	2.4620587e-05
117	0x37d38dc8	2.5219182e-05
118	0x37c06af3	2.2937986e-05
119	0x368ed85c	4.2571173e-06
120	0x37e7d264	2.7635317e-05
121	0x380abb1a	3.3076016e-05
122	0x376187f4	1.3442699e-05
123	0x369cc280	4.671805e-06
124	0x37c24589	2.3158982e-05
125	0x3749ba44	1.2023902e-05
126	0x36ab9baf	5.114321e-06
127	0x36f0dc3b	7.1781956e-06
128	0x352711f8	6.2238496e-07
129	0x36a1b006	4.8186657e-06
130	0x365711c0	3.2047828e-06
131	0x36aa9e9f	5.0848607e-06
132	0x353f60f0	7.129411e-07
133	0x362a8f5b	2.5415418e-06
134	0x369a9ed8	4.6080495e-06
135	0x34907121	2.6904402e-07
136	0x360da4bd	2.1106528e-06
137	0x369b96a1	4.6368955e-06
138	0x3607ac69	2.0216924e-06
139	0x3374ac78	5.6967536e-08
140	0x3740288b	1.1453531e-05
141	0x3731192a	1.0555881e-05
142	0x353d6206	7.055063e-07
143	0x355f1403	8.3103095e-07
144	0x364f72e2	3.0912274e-06
145	0x37fa9352	2.9870924e-05
146	0x380e3c2e	3.3911485e-05
147	0x37b81d88	2.194826e-05
148	0x36953282	4.446426e-06
149	0x37dd828c	2.6406044e-05
150	0x37e7a133	2.761241e-05
151	0x376154ae	1.3430761e-05
152	0x3653b948	3.1549298e-06
153	0x37e2ade7	2.7022279e-05
154	0x3827d9cc	4.0018742e-05
155	0x3795164c	1.7772567e-05
156	0x35effe0e	1.7880827e-06
157	0x376e6b9b	1.4210959e-05
158	0x37ffea2d	3.0507415e-05
159	0x3789d24c	1.64296e-05
160	0x3287c470	1.5805398e-08
161	0x36be1fb7	5.6661333e-06
162	0x36e87b3c	6.928485e-06
163	0x36e3f753	6.7939195e-06
164	0x3329fcc8	3.9578282e-08
165	0x36af813d	5.2304517e-06
166	0x3693d681	4.405913e-06
167	0x37079880	8.082134e-06
168	0x34c0537e	3.5823535e-07
169	0x357fa410	9.5233645e-07
170	0x36dd4f1c	6.595523e-06
171	0x37058b58	7.959861e-06
172	0x3497734b	2.8209828e-07
173	0x359dc7c8	1.1755556e-06
174	0x3782dd6b	1.5600313e-05
175	0x37104382	8.598787e-06
176	0x35ea36f2	1.745035e-06
177	0x37ef815e	2.8551261e-05
178	0x380b4956	3.3208482e-05
179	0x37e33382	2.7084494e-05
180	0x36980cf3	4.5314605e-06
181	0x37e49685	2.724981e-05
182	0x3838c756	4.4054665e-05
183	0x38188a41	3.6368383e-05
184	0x367fb941	3.8105793e-06
185	0x383310aa	4.2692445e-05
186	0x38718efe	5.759205e-05
187	0x382e3154	4.1530773e-05
188	0x36bddbbc	5.6582194e-06
189	0x385d7388	5.2798103e-05
190	0x3890ea31	6.9100766e-05
191	0x3849c7fa	4.8108377e-05
192	0x37ddedcf	2.6455991e-05
193	0x37d5f9e6	2.5507947e-05
194	0x369ab1d4	4.6102596e-06
195	0x367cfbfe	3.7697605e-06
196	0x37e9d671	2.7875622e-05
197	0x37fe04f7	3.0281471e-05
198	0x378183ae	1.5439316e-05
199	0x373cece6	1.126083e-05
200	0x380a48de	3.2969627e-05
201	0x3804dbce	3.167596e-05
202	0x37dcc4e5	2.631773e-05
203	0x379a7da3	1.8416735e-05
204	0x3899e034	7.3373696e-05
205	0x38d7340f	0.000102616956
206	0x38a880d2	8.034859e-05
207	0x37c6809a	2.3663324e-05
208	0x36b720aa	5.4576276e-06
209	0x37669c91	1.3745522e-05
210	0x37eef688	2.8486611e-05
211	0x37c06198	2.293363e-05
212	0x36ddfa92	6.6154835e-06
213	0x37faf713	2.9917375e-05
214	0x38212e91	3.842876e-05
215	0x37dad95d	2.6088843e-05
216	0x36c7954c	5.9480426e-06
217	0x37df9249	2.665179e-05
218	0x383227af	4.2475465e-05
219	0x37f9e254	2.9788505e-05
220	0x3681ede3	3.8721932e-06
221	0x36f96f6a	7.4337486e-06
222	0x37ad930d	2.0691683e-05
223	0x37b0908d	2.1048147e-05
224	0x380478af	3.1583648e-05
225	0x3849f68c	4.815175e-05
226	0x384b639c	4.849174e-05
227	0x3820f73f	3.837724e-05
228	0x3806416f	3.200903e-05
229	0x3842e9ac	4.647083e-05
230	0x38649f98	5.450807e-05
231	0x382a8959	4.0659073e-05
232	0x3892891b	6.9873604e-05
233	0x38e20457	0.00010777328
234	0x38e079a2	0.00010703808
235	0x3841c0b2	4.6194247e-05
236	0x388ffe32	6.866119e-05
237	0x38f2d28c	0.00011578677
238	0x38de27ec	0.00010593221
239	0x38235762	3.894361e-05
240	0x365cf099	3.29226e-06
241	0x3695dd36	4.4662984e-06
242	0x36362f3e	2.7147612e-06
243	0x373b8cd1	1.1178855e-05
244	0x36374147	2.7307121e-06
245	0x369bae9e	4.639688e-06
246	0x3728ee17	1.0069015e-05
247	0x376beb9b	1.4061948e-05
248	0x36d6eb7a	6.40511e-06
249	0x3744921a	1.1716527e-05
250	0x37a67aca	1.984592e-05
251	0x375ffc2f	1.3350552e-05
252	0x37dc6617	2.6273583e-05
253	0x3830b685	4.2131654e-05
254	0x3819f77b	3.6708527e-05
255	0x375de0f9	1.3225007e-05

momentum_buffer f4 [10]
0	0x37d05f78	2.4839988e-05
1	0xbb33c1e4	-0.00274288
2	0x3b4d945c	0.0031368947
3	0x3c2c682e	0.010522885
4	0xbc479e96	-0.012183806
5	0x3c2cf3c4	0.010556165
6	0x3ad1caf0	0.0016005915
7	0x378cd773	1.6789627e-05
8	0xbba49db2	-0.0050236816
9	0xbbc19620	-0.005907789
