oracle/train/non-iid/checkpoint/mnist/ckpt_1_1.pth (torch, 71489 bytes, 12 tensors)

conv1.weight f4 [10, 1, 5, 5]
-0.14111474 -0.12327879 -0.13505702 -0.041225813 -0.20073864 -0.23231979 -0.064693935 -0.25519797
0.0771222 -0.0113007 -0.009104751 -0.06989511 0.07086689 0.15002511 0.018854529 0.083562724
0.28852347 0.02060144 0.25799376 0.2603425 0.13454206 -0.09775392 0.2291441 -0.051943503
0.12331223 0.12500352 0.11248134 0.202835 -0.004136661 -0.08418772 -0.14320892 0.15223052
-0.14174566 -0.221007 -0.2426751 -0.19165745 -0.08688802 0.07864662 0.09014352 0.22537735
0.122773275 0.048516877 0.21701933 0.15442127 0.18616383 -0.079516664 -0.18106242 -0.13936332
0.19280659 -0.09545939 0.04742171 0.09602436 -0.043192104 0.15990782 -0.18103993 0.17618512
0.095432915 -0.038508415 0.060131494 -0.06455219 0.19758523 -0.09400555 -0.11101885 0.13131788
0.13068272 0.09747601 -0.10503089 -0.10470473 0.18562981 0.12887418 0.23816338 0.15247695
0.049138423 -0.052278075 0.21559167 0.16528237 0.1350421 0.07288373 -0.055876844 -0.18968873
0.12480053 0.27137184 -0.10686351 0.13843279 -0.26780206 0.26284257 -0.051206127 0.105443
-0.21177848 0.09305137 0.014833586 0.27546877 -0.079813816 -0.09316318 -0.09493236 0.22340734
-0.06838173 0.1774644 -0.17854682 -0.10413 0.13795917 -0.0923655 0.2589078 0.19881915
0.13675874 -0.24781702 -0.18956785 -0.11735063 0.25482696 0.29666063 -0.23531727 -0.24305439
0.0577695 0.2685847 0.21313968 0.03913348 -0.012489937 0.013682449 0.2592073 0.17741247
0.066377625 -0.10708842 -0.14825734 0.1371596 0.19779463 0.038116444 0.16064318 0.11767665
-0.1821515 0.046161275 0.057444096 -0.057317298 -0.13487558 -0.036731288 0.015633123 0.06669957
-0.07256559 -0.21520136 0.11196366 0.028882368 -0.008329648 -0.1558539 -0.111466646 0.08006776
-0.08682433 0.09196521 -0.14968093 -0.09961448 -0.16067375 -0.17156982 0.17027391 -0.107005
0.007987775 -0.1996747 -0.095280655 0.17180191 -0.0776115 -0.14013663 0.16433284 -0.0018101326
0.023280684 -0.15525259 -0.06583229 -0.08803929 -0.20974019 0.12072279 0.11372869 -0.01577083
-0.09770096 0.023196148 0.08275048 -0.2013384 -0.17123805 -0.12685853 0.015845638 0.18982932
0.19428028 -0.075463295 -0.113671154 0.033890102 -0.06222408 0.2998289 -0.007713274 -0.23608617
-0.05090541 0.36144102 0.20852472 0.2260988 -0.173269 -0.12994848 0.28377616 0.40629768
0.07801884 -0.10773029 -0.1437982 0.27463558 0.25444236 0.1491485 0.23622347 0.1271116
0.08712781 -0.16047731 -0.039995104 -0.121420436 -0.19588824 -0.056268044 -0.056858506 -0.28686517
-0.29941976 0.027912654 0.0042233733 -0.05745333 0.19857395 0.035406563 0.13671434 0.27426624
0.45962802 0.44534466 0.18786176 0.09995882 0.16511667 0.004663057 0.35335842 0.2598581
0.26122293 0.13875173 -0.030301044 0.056400556 0.19869797 0.086232476 0.31189737 0.10300397
0.047390282 -0.07718591 0.2215757 0.1937355 0.29121882 0.015562886 -0.092499934 0.22422801
0.06930095 0.36452663 -0.04938688 0.11948195 -0.057304926 0.037330102 0.26266795 0.17049225
0.15699026 -0.11135803
00000000: 6280 10be 9779 fcbd 634c 0abe 66dc 28bd
00000010: 6e8e 4dbe 3de5 6dbe 417e 84bd 4fa9 82be
00000020: 3ef2 9d3d 9226 39bc 182c 15bc 2b25 8fbd
00000030: a922 913d 2fa0 193e d074 9a3c ef22 ab3d
00000040: 59b9 933e 5ac4 a83c c217 843e 9d4b 853e
00000050: 65c5 093e 3533 c8bd c0a4 6a3e b6c2 54bd
00000060: 1f8b fc3d ec00 003e 9e5c e63d fab3 4f3e
00000070: d48c 87bb 9d6a acbd 5ca5 12be 51e2 1b3e
00000080: c625 11be a94f 62be d27f 78be da41 44be
00000090: 59f2 b1bd 7b11 a13d 2a9d b83d 52c9 663e
000000a0: 8e70 fb3d a2b9 463d 513a 5e3e 9c20 1e3e
000000b0: bba1 3e3e a2d9 a2bd 6d68 39be 42b5 0ebe
000000c0: 176f 453e 3680 c3bd 443d 423d 6ba8 c43d
000000d0: 34ea 30bd e0be 233e 8862 39be df69 343e
000000e0: 5572 c33d 00bb 1dbd 714c 763d f033 84bd
000000f0: c853 4a3e fb85 c0bd da5d e3bd 3278 063e
00000100: b1d1 053e 81a1 c73d 6f1a d7bd 6f6f d6bd
00000110: be15 3e3e 98f7 033e 1ae1 733e eb22 1c3e
00000120: 5f45 493d 8921 56bd 10c4 5c3e c83f 293e
00000130: 7a48 0a3e 1144 953d 1edf 64bd c33d 42be
00000140: 6c97 ff3d 40f1 8a3e 42db dabd 53c1 0d3e
00000150: 5a1d 89be 4d93 863e 84bd 51bd 80f2 d73d
00000160: 75dc 58be b791 be3d 9208 733c 3e0a 8d3e
00000170: 6d75 a3bd 56cc bebd e66b c2bd e5c4 643e
00000180: b80b 8cbd 3ab9 353e fad4 36be 1c42 d5bd
00000190: 2b45 0d3e 202a bdbd 908f 843e 3f97 4b3e
000001a0: 7c0a 0c3e bfc3 7dbe 131e 42be 8755 f0bd
000001b0: ae78 823e e7e3 973e 03f7 70be 40e3 78be
000001c0: b69f 6c3d ef83 893e 4a41 5a3e 6e4a 203d
000001d0: 98a2 4cbc 5a2c 603c d2b6 843e 9dab 353e
000001e0: fef0 873d 2c51 dbbd c6d0 17be 9173 0c3e
000001f0: ad8a 4a3e fd1f 1c3d a57f 243e 7500 f13d
00000200: ec85 3abe 9b13 3d3d 804a 6b3d 8bc5 6abd
00000210: d31c 0abe 8c73 16bd 0911 803c c999 883d
00000220: 459d 94bd bf5d 5cbe 344d e53d b79a ec3c
00000230: 1379 08bc 2a98 1fbe a048 e4bd 91fa a33d
00000240: f4d0 b1bd 4258 bc3d f545 19be ad02 ccbd
00000250: a987 24be 00b0 2fbe 495c 2e3e 7025 dbbd
00000260: 28df 023c 8677 4cbe 8122 c3bd d7ec 2f3e
00000270: c7f2 9ebd fa7f 0fbe de46 283e f941 edba
00000280: 22b7 be3c 89fa 1ebe 14d3 86bd f14d b4bd
00000290: 22c6 56be 833d f73d 96ea e83d d431 81bc
000002a0: 7117 c8bd d905 be3c 1579 a93d a72b 4ebe
000002b0: 0759 2fbe 34e7 01be b6ce 813c 9e62 423e
000002c0: 69f1 463e 808c 9abd 6ccc e8bd 59d0 0a3d
000002d0: adde 7ebd 2c83 993e a2bf fcbb 93c0 71be
000002e0: 3182 50bd cc0e b93e 8187 553e 7286 673e
000002f0: 6e6d 31be 3711 05be 1c4b 913e 4006 d03e
00000300: 57c8 9f3d b3a1 dcbd d63f 13be 099d 8c3e
00000310: 4546 823e 62ba 183e 91e4 713e 8b29 023e
00000320: 1170 b23d 2a54 24be e8d1 23bd 47ab f8bd
00000330: ed96 48be 5279 66bd 77e4 68bd fedf 92be
00000340: 8c4d 99be 14a9 e43c 3964 8a3b 2f54 6bbd
00000350: f856 4b3e 7906 113d d8fe 0b3e a06c 8c3e
00000360: 5d54 eb3e 3704 e43e d55e 403e 36b7 cc3d
00000370: 5814 293e 8fcc 983b 65eb b43e 1f0c 853e
00000380: 03bf 853e ef14 0e3e e539 f8bc 4504 673d
00000390: 7b77 4b3e a79a b03d 03b1 9f3e bff3 d23d
000003a0: 501c 423d a513 9ebd bee4 623e 9962 463e
000003b0: a21a 953e 7afb 7e3c 9b70 bdbd 079c 653e
000003c0: a8ed 8d3d 3ca3 ba3e e649 4abd f4b2 f43d
000003d0: 92b8 6abd 73e7 183d 6a7c 863e 8595 2e3e
000003e0: 0ec2 203e ae0f e4bd

conv1.bias f4 [10]
-0.04973046 -0.08965366 -0.12203225 -0.15501572 0.1288045 0.05496973 -0.039425448 0.0059929756
0.24628851 -0.03464782
00000000: 2bb2 4bbd 579c b7bd 0bec f9bd 71bc 1ebe
00000010: 54e5 033e f127 613d 947c 21bd b960 c43b
00000020: 0e33 7c3e dfea 0dbd

conv2.weight f4 [20, 10, 5, 5]
0.01346509 -0.029430652 -0.006414025 -0.013995738 0.06717073 -0.014260553 0.056415275 0.040090796
-0.0015186265 0.018139852 -0.057914358 -0.05897024 0.014165814 -0.060790367 -0.040425923 -0.0081429025
-0.030232193 0.036407024 -0.011190247 0.011641296 -0.056995105 -0.037626933 0.018829035 0.019196995
0.047978245 0.012205132 -0.02938942 0.025923332 -0.038845368 -0.0013380555 0.005659026 0.029784247
0.005917755 0.060853872 -0.039661344 -0.06407906 -0.045974344 -0.0474822 -0.04122908 -0.01336965
0.014631013 -0.026155895 -0.06273015 0.05680595 -0.062111635 0.0070043243 0.022334438 0.003646288
0.04369497 -0.06404353 -0.021559775 0.016197193 0.040590405 0.06730312 -0.014987231 0.036548905
0.06968965 0.065536715 0.037706535 0.026722966 -0.07930743 0.01115921 -0.035531376 -0.028247494
-0.009546005 -0.018471109 0.022098992 -0.07049127 -0.0126841515 0.022631528 -0.028245931 -0.022199498
-0.0027583458 -0.021609131 -0.0062631723 0.033438694 0.031715978 -0.036806606 -0.017152537 0.017753847
-0.044333953 -0.036422122 0.055144228 -0.042730182 -0.04528899 -0.05467354 -0.07782864 -0.07042949
-0.061233137 0.001874081 0.044390816 -0.033285834 -0.046382993 0.012748169 0.025051352 -0.023860352
0.012136873 0.0120262075 0.016412087 0.0067607393 0.0012236921 -0.031256404 0.012763387 0.05746781
-0.023070244 0.06595778 0.023392433 0.061288387 -0.0050665485 0.070291825 -0.013501251 -0.04243607
0.03491612 0.0056817946 0.11444872 -0.036413275 0.013311012 -0.09903053 -0.049645472 0.022365503
-0.022724666 -0.023891551 0.038379904 0.022350403 0.07147832 -0.03798285 0.053105306 -0.019451266
-0.0692402 -0.031568825 0.06606875 -0.044446647 0.018929003 0.022075733 0.034054812 0.028906567
0.0077938153 -0.034092333 0.06715553 -0.007261787 0.058955986 -0.018691313 0.04657062 -0.042229004
-0.018188903 0.04520192 0.026383383 0.018094968 -0.017538998 -0.0063812523 0.055937123 0.04663735
0.042585425 -0.009094802 -0.04434372 -0.019158823 0.010506205 0.018062582 -0.020505933 -0.021865165
0.037385743 0.025011376 0.0059777526 -0.016783353 -0.0068443674 0.031353723 0.019951027 -0.022065982
0.039495762 0.024765998 0.060709402 -0.030752456 -0.042501796 0.029233351 0.023518486 0.030517245
0.040409718 0.003369863 0.011911403 0.06415694 -0.052489482 -0.04808583 0.037375424 -0.013955564
0.03222028 -0.077650525 -0.0023922268 -0.011795126 -0.0073547047 -0.08467056 -0.08468598 -0.020561347
-0.11511071 -0.05792263 -0.08234896 0.011448366 -0.020667218 0.007231626 -0.08571368 0.057529155
0.02360773 0.08009166 0.11306787 0.09189495 0.05915421 0.021506177 -0.015698636 0.00432135
0.10209019 0.05984249 -0.09749894 -0.0123112975 -0.07213889 -0.08195568 0.019043617 -0.057982326
-0.0023381764 0.006267146 -0.07072568 0.047731396 -0.05839954 -0.025258455 0.07420051 -0.016265642
0.024532938 -0.02413405 -0.010743493 0.09062859 0.0038971144 0.012146428 0.020794874 -0.038780563
0.0036590248 0.0011035949 -0.021606224 0.015138598 -0.030683866 0.04794714 -0.061043553 0.027377227
-0.095422655 -0.04048318 -0.10406523 -0.11279246 0.017158197 -0.07281501 -0.012084518 0.008849607
0.006631455 0.031007648 -0.03284148 -0.007921512 -0.02736735 0.0008218583 -0.016349206 0.026895592
00000000: ae9c 5c3c 8d18 f1bc be2c d2bb 614e 65bc
00000010: cf90 893d 18a5 69bc b413 673d 3f36 243d
00000020: a60c c7ba 079a 943c 9b37 6dbd c78a 71bd
00000030: bb17 683c 52ff 78bd a795 25bd cf69 05bc
00000040: 81a9 f7bc 881f 153d 4c57 37bc 22bb 3e3c
00000050: b373 69bd b31e 1abd 593f 9a3c 0443 9d3c
00000060: d684 443d 09f8 473c 15c2 f0bc 2b5d d43c
00000070: 521c 1fbd b161 afba 5a6f b93b 18fe f33c
00000080: bae9 c13b e941 793d ef73 22bd e23b 83bd
00000090: 984f 3cbd b27c 42bd d3df 28bd 600c 5bbc
000000a0: ebb6 6f3c e344 d6bc aa78 80bd 5bad 683d
000000b0: c568 7ebd 8884 e53b b6f6 b63c 90f6 6e3b
000000c0: 7ff9 323d 4129 83bd 209e b0bc faaf 843c
000000d0: 2042 263d 38d6 893d 018d 75bc 4eb4 153d
000000e0: 72b9 8e3d 1d38 863d 2b72 1a3d 1fea da3c
000000f0: ef6b a2bd 1ed5 363c 5989 11bd 4a67 e7bc
00000100: d966 1cbc b950 97bc f208 b53c ba5d 90bd
00000110: 30d1 4fbc c165 b93c 0364 e7bc b9db b5bc
00000120: 5dc5 34bb a205 b1bc 4c3b cdbb 03f7 083d
00000130: 9de8 013d 86c2 16bd 7a83 8cbc 8470 913c
00000140: 8597 35bd 5d2f 15bd eade 613d d805 2fbd
00000150: f380 39bd 5df1 5fbd 9f64 9fbd 563d 90bd
00000160: 99cf 7abd b9a3 f53a 25d3 353d ba56 08bd
00000170: 18fc 3dbd b2dd 503c 7e38 cd3c c976 c3bc
00000180: bcd9 463c 9209 453c a472 863c 3189 dd3b
00000190: 4b64 a03a b706 00bd 861d 513c 5e63 6b3d
000001a0: cffd bcbc df14 873d 7da1 bf3c 8809 7b3d
000001b0: 4a05 a6bb 29f5 8f3d 5a34 5dbc 72d1 2dbd
000001c0: 3504 0f3d 592e ba3b 1764 ea3d 1626 15bd
000001d0: 6e16 5a3c 85d0 cabd 0d59 4bbd dc37 b73c
000001e0: 1429 babc 37b8 c3bc 3f34 1d3d 3118 b73c
000001f0: 3a63 923d e893 1bbd f384 593d 4358 9fbc
00000200: cecd 8dbd 504e 01bd 0e4f 873d b00d 36bd
00000210: ff10 9b3c 2bd8 b43c 0f7d 0b3d 77cd ec3c
00000220: 4363 ff3b 67a4 0bbd d788 893d 49f4 edbb
00000230: d57b 713d 861e 99bc d6c0 3e3d 52f8 2cbd
00000240: e500 95bc a625 393d f721 d83c e63b 943c
00000250: f2ad 8fbc d319 d1bb 531e 653d ce06 3f3d
00000260: 0e6e 2e3d 5d02 15bc c3a1 35bd f7f2 9cbc
00000270: 3822 2c3c fbf7 933c 0ffc a7bc 931e b3bc
00000280: cb21 193d a8e4 cc3c 06e1 c33b 3e7d 89bc
00000290: b746 e0bb c36c 003d 5670 a33c b8c3 b4bc
000002a0: 4fc6 213d 10e2 ca3c 6caa 783d 93ec fbbc
000002b0: 5d16 2ebd c87a ef3c d7a9 c03c 4dff f93c
000002c0: a984 253d ebd8 5c3b 0c28 433c b764 833d
000002d0: 36ff 56bd a6f5 44bd f916 193d e1a5 64bc
000002e0: 6af9 033d 3d07 9fbd e8c6 1cbb 5840 41bc
000002f0: bcff f0bb c267 adbd d86f adbd 4570 a8bc
00000300: 2abf ebbd 4840 6dbd 92a6 a8bd ed91 3b3c
00000310: 4c4e a9bc 47f7 ec3b a78a afbd b1a3 6b3d
00000320: 0065 c13c 1907 a43d 2190 e73d 6b33 bc3d
00000330: af4b 723d b92d b03c 6d9a 80bc 1c9a 8d3b
00000340: a914 d13d 661d 753d 86ad c7bd 53b5 49bc
00000350: 8ebd 93bd 61d8 a7bd 5c01 9c3c e07e 6dbd
00000360: 173c 19bb a25c cd3b a0d8 90bd ff81 433d
00000370: 5b34 6fbd d2ea cebc 70f6 973d 863f 85bc
00000380: 4df9 c83c c5b4 c5bc 7a05 30bc 7b9b b93d
00000390: bb66 7f3b d001 473c 035a aa3c 5ed8 1ebd
000003a0: 40cc 6f3b 80a6 903a 89ff b0bc e207 783c
000003b0: bb5c fbbc 3864 443d ce08 7abd 3546 e03c
000003c0: f46c c3bd b1d1 25bd 2720 d5bd bcff e6bd
000003d0: 598f 8c3c 0920 95bd 24fe 45bc f1fd 103c
000003e0: ad4c d93b c003 fe3c ca84 06bd 3bc9 01bc
000003f0: 7e31 e0bc fa71 573a c5ee 85bc 2554 dc3c

conv2.bias f4 [20]
0.035031416 0.017554836 -0.027222043 0.012086285 0.02231964 -0.05065997 0.055849623 -0.04142455
-0.0088709155 0.013822827 0.004732853 -0.0008016252 0.06499273 0.037273183 0.0033698166 0.041495875
0.011784776 -0.04221036 -0.03957626 0.024828432
00000000: 1a7d 0f3d 29cf 8f3c c300 dfbc 8e05 463c
00000010: add7 b63c d480 4fbd 93c2 643d caac 29bd
00000020: 5157 11bc 2379 623c 0c16 9b3b 2824 52ba
00000030: e91a 853d c4ab 183d 24d8 5c3b 94f7 293d
00000040: ef14 413c c5e4 2cbd b71a 22bd ff64 cb3c

fc.weight f4 [10, 320]
0.014627108 -0.043778542 -0.030086225 0.06451743 -0.059691455 0.024081381 0.010536112 0.07124236
0.015558133 0.001325839 0.016495233 -0.013359652 0.010870882 0.008823211 0.014462422 0.030857785
0.038355783 0.038129587 0.01970514 -0.03838034 -0.042566396 -0.023926586 0.030768303 0.05251031
0.03174523 -0.0037299974 -0.0020741844 -0.032723233 -0.031801477 -0.029980002 0.021551924 0.055009484
0.0056291353 -0.047834873 0.0054653394 -0.015208455 0.032530278 0.013062725 -0.021966467 -0.004432769
0.045360982 0.03423122 0.013335584 0.034661014 0.025124067 0.03961376 0.0085716415 -0.056262337
0.025153877 -0.008781332 -0.019629449 0.039936773 0.052127603 -0.007674753 0.023597918 -0.041658342
-0.07803933 -0.030720599 -0.031068165 -0.018648898 -0.065062776 0.008444676 0.028713964 -0.0352935
-0.018317541 0.032779265 0.10374796 0.14199755 0.07571892 -0.028152088 0.0015729888 0.041543342
0.06434285 0.02393164 -0.07441342 -0.04966471 0.02042598 0.08016546 -0.056129996 -0.0505527
-0.064122215 -0.061885025 -0.0037545483 0.067119814 -0.062127247 -0.059478004 -0.048659313 0.041785326
0.062332634 0.038285434 -0.03848121 0.055783965 0.08678436 0.043528993 -0.08862058 0.0068184556
0.045139376 0.020251667 -0.03925128 0.05311505 0.022637792 -0.023823433 -0.015432426 0.016552012
0.015730118 -0.039093293 -0.028090185 -0.0842294 0.0030931165 -0.025713995 0.0055033956 -0.011918556
0.00047931148 -0.029227525 0.020822803 0.053275067 0.019620556 0.051996008 0.029120082 -0.053690203
0.06794294 0.13728967 0.043104406 -0.08394273 0.034470588 0.018972632 0.049470592 -0.06638573
-0.050705913 -0.02064327 -0.016144393 0.0069199735 0.019302465 -0.019199044 0.024429766 0.04764176
0.020330813 0.022367148 0.012548349 0.0067675933 0.0076705622 -0.023073861 -0.017691748 0.016218215
0.0007827909 -0.035759285 0.05358199 0.043915737 -0.008171737 0.017697556 -0.017649304 0.065670006
0.06674497 -0.020346541 -0.020803299 -0.006605723 0.051284626 -0.00942161 -0.088956475 -0.0789635
0.03352335 -0.069347754 0.034569535 0.008701176 -0.022461297 0.045707606 0.008844846 -0.06311587
0.039973993 -0.04708492 -0.017531924 0.05307691 0.0014299906 0.019232076 0.035301752 0.0706451
0.05851093 0.07450748 0.050172944 0.052455604 0.026726877 -0.02161255 -0.042940658 0.061830197
-0.047990087 -0.004119801 -0.035074417 0.047972836 -0.03235592 -0.054952543 -0.058547925 0.0014727083
-0.045705292 0.008987426 -0.015043361 0.0966096 -0.02123541 0.020879507 -0.0974272 -0.09914558
-0.052402925 0.08258546 -0.034037717 -0.021961886 -0.02519001 0.06263967 -0.048508454 -0.03530894
0.01708304 -0.034425583 -0.0024928905 -0.055035323 -0.049955945 0.00783878 0.03172868 -0.04436155
-0.043737456 0.067480996 -0.00010639775 -0.078358166 -0.017389134 0.048499458 -0.058282416 -0.06708016
-0.04665403 0.018158771 0.036055528 -0.05797844 -0.0063283956 0.016757905 -0.09771467 -0.048162565
-0.051533412 -0.04408133 0.038863726 0.03995623 -0.07854741 0.04394783 -0.0136728175 -0.0023591167
-0.027446503 0.04965857 -0.0034439946 -0.040776335 -0.013713186 -0.014445694 -0.07478069 -0.048792865
-0.029670553 -0.09295524 -0.0055913012 -0.041851424 0.04976417 0.03751376 -0.039587956 -0.041168377
00000000: 8aa6 6f3c 2151 33bd 6377 f6bc b721 843d
00000010: 077f 74bd 5146 c53c a89f 2c3c 84e7 913d
00000020: 8ae7 7e3c c6c7 ad3a 0321 873c 71e2 5abc
00000030: c91b 323c 3b8f 103c cbf3 6c3c 77c9 fc3c
00000040: f41a 1d3d c52d 1c3d ac6c a13c b434 1dbd
00000050: 1a5a 2ebd b001 c4bc cf0d fc3c 0d15 573d
00000060: 4907 023d f972 74bb 0aef 07bb cc08 06bd
00000070: 4442 02bd 9f98 f5bc a98d b03c a051 613d
00000080: 9c74 b83b 80ee 43bd 9716 b33b e22c 79bc
00000090: 783e 053d 0a05 563c 05f3 b3bc c340 91bb
000000a0: 70cc 393d 0936 0c3d 7e7d 5a3c b5f8 0d3d
000000b0: fdd0 cd3c 0a42 223d 1270 0c3c 5673 66bd
000000c0: 810f ce3c 93df 0fbc f0cd a0bc be94 233d
000000d0: c183 553d 7f7c fbbb 6c50 c13c f0a1 2abd
000000e0: 16d3 9fbd c4a9 fbbc aa82 febc 93c5 98bc
000000f0: a23f 85bd 8a5b 0a3c 8c39 eb3c eb8f 10bd
00000100: ab0e 96bc 8d43 063d cf79 d43d ce67 113e
00000110: 8512 9b3d 359f e6bc bf2c ce3a 5a29 2a3d
00000120: 2fc6 833d 490c c43c 1066 98bd 396d 4bbd
00000130: 6354 a73c ca2d a43d 91e8 65bd 5910 4fbd
00000140: 8252 83bd 277b 7dbd de0e 76bb 1d76 893d
00000150: 2479 7ebd 359f 73bd fd4e 47bd 1727 2b3d
00000160: 8150 7f3d 30d1 1c3d 799e 1dbd ba7d 643d
00000170: 00bc b13d 754b 323d b57e b5bd 5a6d df3b
00000180: 11e4 383d d3e6 a53c f3c5 20bd 2b8f 593d
00000190: e472 b93c 5c29 c3bc 49d8 7cbc 1698 873c
000001a0: 73dc 803c 4a20 20bd 631d e6bc 7780 acbd
000001b0: e2b5 4a3b 28a6 d2bc d455 b43b 0c46 43bc
000001c0: 194c fb39 906e efbc 9594 aa3c f536 5a3d
000001d0: 4abb a03c c4f9 543d 3d8d ee3c 42ea 5bbd
000001e0: ab25 8b3d aa95 0c3e 3f8e 303d 2bea abbd
000001f0: 0831 0d3d 7e6c 9b3c ada1 4a3d 3ef5 87bd
00000200: 01b1 4fbd 131c a9bc 3f41 84bc f2c0 e23b
00000210: 3420 9e3c 5047 9dbc ef20 c83c 0224 433d
00000220: ce8c a63c 4f3b b73c 9797 4d3c b0c2 dd3b
00000230: 5759 fb3b 6505 bdbc 49ee 90bc 10dc 843c
00000240: 3534 4d3a 5478 12bd ca78 5b3d fde0 333d
00000250: c0e2 05bc 77fa 903c 4695 90bc ff7d 863d
00000260: 96b1 883d caad a6bc ae6b aabc d274 d8bb
00000270: d40f 523d 195d 1abc d02e b6bd 9eb7 a1bd
00000280: c84f 093d 3206 8ebd c998 0d3d 618f 0e3c
00000290: c100 b8bc e637 3b3d f9e9 103c e542 81bd
000002a0: c5bb 233d 1edc 40bd 1c9f 8fbc 2d67 593d
000002b0: 866e bb3a 968c 9d3c 9298 103d 61ae 903d
000002c0: 28a9 6f3d 6197 983d 2582 4d3d b0db 563d
000002d0: 53f2 da3c cd0c b1bc 8be2 2fbd a941 7d3d
000002e0: 4191 44bd 65ff 86bb 31aa 0fbd 2a7f 443d
000002f0: a487 04bd eb15 61bd f3cf 6fbd e407 c13a
00000300: 7935 3bbd ff3f 133c 6e78 76bc 41db c53d
00000310: e2f5 adbc 800b ab3c e987 c7bd d60c cbbd
00000320: 73a4 56bd 9122 a93d 226b 0bbd 6ae9 b3bc
00000330: 485b cebc 3a49 803d cdb0 46bd 1ba0 10bd
00000340: bbf1 8b3c d701 0dbd c35f 23bb b86c 61bd
00000350: 9b9e 4cbd 3a6e 003c eff5 013d 75b4 35bd
00000360: 0c26 33bd 7a33 8a3d db21 dfb8 3f7a a0bd
00000370: a873 8ebc 5ea7 463d 8bb9 6ebd 5361 89bd
00000380: 4c18 3fbd b4c1 943c f6ae 133d cd7a 6dbd
00000390: 6e5e cfbb e047 893c a11e c8bd 1c46 45bd
000003a0: b314 53bd a08e 34bd 922f 1f3d 25a9 233d
000003b0: 77dd a0bd a402 343d f403 60bc 699b 1abb
000003c0: 7dd7 e0bc c966 4b3d a4b4 61bb 1605 27bd
000003d0: 45ad 60bc a2ad 6cbc 9e26 99bd 07db 47bd
000003e0: a90f f3bc 515f bebd 3c37 b7bb 666c 2bbd
000003f0: 84d5 4b3d 07a8 193d fb26 22bd 2ca0 28bd

fc.bias f4 [10]
-0.044911344 0.013731721 0.029495144 -0.013276799 -0.06382739 -0.013424112 0.023538062 0.0003826208
0.002810473 0.01612891
00000000: f5f4 37bd 03fb 603c cd9f f13c ee86 59bc
00000010: efb7 82bd cff0 5bbc e5d2 c03c 7f9a c839
00000020: ea2f 383b c720 843c

momentum_buffer f4 [10, 1, 5, 5]
-0.0063909935 -0.017131723 -0.025606874 -0.01558858 0.031131886 0.01458394 0.006999129 -0.0007510495
0.016349573 0.048161704 0.049141318 0.03889736 0.031204605 0.059200242 0.07248909 0.053035878
0.052006967 0.053946726 0.07904909 0.09070714 0.029333077 0.030793272 0.0458609 0.062116846
0.0807185 -0.03302549 -0.060667317 -0.045913257 -0.0073373364 -0.0159137 -0.025184968 -0.026414413
0.0020679487 0.0050842604 -0.024731187 -0.0063530095 0.0021578735 0.034986377 0.018432943 -0.024505004
0.009521883 0.03196779 0.04588821 0.00020458922 -0.024292193 0.035752 0.03611131 0.021590024
-0.018700551 -0.013791764 -0.068191044 -0.10055421 -0.10110512 -0.05246526 -0.039376482 -0.06496526
-0.077466406 -0.04915003 -0.02388173 -0.047452305 -0.029456196 -0.018337246 0.00071339123 -0.017644482
-0.06226747 0.011690213 0.01856721 0.009157113 -0.010531079 -0.04022918 0.021411115 0.0012067193
-0.0033389153 -0.01651072 -0.04494611 -0.0322146 0.0025563017 0.018830158 -0.012157447 -0.025037766
-0.024842415 0.00023957528 0.0076522287 -0.0113644805 -0.008916292 -0.028749608 -0.026313316 -0.019717893
-0.010446891 -0.0011775137 -0.040168192 -0.03613109 -0.021389648 -0.020752179 -0.0006636358 -0.03390567
-0.032309145 -0.028706098 -0.026263481 0.0016509062 0.028652364 0.01536674 -0.016012378 -0.030264078
-0.01188904 0.017136112 0.002851827 -0.024047224 -0.011284402 -0.0036116377 4.6967063e-05 0.0034419275
0.013918236 0.005390667 -0.013090324 0.01984657 0.030842647 0.009482035 -0.015804581 -0.018648712
0.033979066 0.024922222 -0.013792302 -0.020346554 -0.020461587 0.0033057788 0.014535097 0.020476222
0.008735124 -0.009083495 0.0038012378 0.009461833 0.000536852 0.0058753043 -0.0031063769 0.0050814026
0.0017411837 0.0021419474 0.006288615 -0.0034742106 -0.0040447786 -0.001712958 -0.0005068425 0.008205467
-0.0016022186 -0.009347228 -0.00043339038 0.0014266839 0.009184028 0.00589846 -0.0018993991 0.018247467
0.0031320807 -0.0001795544 0.0010198569 0.00056576263 0.006653686 0.00091596675 0.0076277377 0.003952698
-0.00623475 -0.0024705403 0.0035604597 0.0032649108 -0.00044091768 -0.010261027 0.001968743 0.00257476
-0.0026524407 0.00270167 -0.010338633 -0.002147899 -0.0014608698 0.0044757742 0.01129023 -0.06461501
-0.07131498 -0.044629425 -0.05755088 -0.06468457 -0.06290491 -0.06995055 -0.055051144 -0.058165222
-0.048417058 -0.06473048 -0.077169254 -0.042251527 -0.016096352 -0.012812285 -0.06628653 -0.07939851
-0.020053852 0.0010644454 0.0029001995 -0.088852726 -0.05624126 -0.0542502 -0.039752625 -0.028547088
-0.045384604 -0.009747904 0.0015763016 -0.03175383 -0.035859745 0.020964282 0.06308487 0.031109419
0.0067091985 0.001054629 0.097259134 0.11113438 0.043244854 0.03184837 0.04311248 0.115693614
0.103667244 0.074933946 0.07899234 0.058947403 0.05644478 0.041633107 0.06780243 0.075286895
0.043287367 -0.008807573 -0.039266422 -0.028913464 -0.0021963213 -0.0008853455 -0.010844837 -0.022087019
-0.0013188804 0.01356951 0.0061780186 -0.01850434 -0.014114726 0.010096444 0.017223073 0.0033130455
0.0054217135 -0.003420359 0.021414123 0.025803883 0.009872139 -0.008343782 -0.01581398 -0.000288683
-0.014214515 -0.01650367
00000000: 8a6b d1bb d457 8cbc 82c5 d1bc 3e67 7fbc
00000010: 4c08 ff3c 7af1 6e3c f358 e53b 14e2 44ba
00000020: 8aef 853c 3545 453d 6848 493d d752 1f3d
00000030: cda0 ff3c f47b 723d 2975 943d 263c 593d
00000040: 4205 553d 3ef7 5c3d 7de4 a13d aac4 b93d
00000050: ec4b f03c 2c42 fc3c a4d8 3b3d 3c6e 7e3d
00000060: be4f a53d bc45 07bd 4b7e 78bd 8a0f 3cbd
00000070: 0a6e f0bb 735d 82bc b550 cebc 0a63 d8bc
00000080: 6c86 073b de99 a63b 0f99 cabc e82c d0bb
00000090: 1c6b 0d3b e04d 0f3d af00 973c b8be c8bc
000000a0: ac01 1c3c a8f0 023d 47f5 3b3d 0087 5639
000000b0: 6c00 c7bc b070 123d 74e9 133d 90dd b03c
000000c0: e631 99bc daf6 61bc bfa7 8bbd 5eef cdbd
000000d0: 3310 cfbd d0e5 56bd 3c49 21bd 820c 85bd
000000e0: b5a6 9ebd 8b51 49bd 9ea3 c3bc 595d 42bd
000000f0: 1f4e f1bc fe37 96bc e002 3b3a 298b 90bc
00000100: 2d0c 7fbd 4f88 3f3c 431a 983c b707 163c
00000110: 8c8a 2cbc 5ac7 24bd 5d66 af3c c82a 9e3a
00000120: b4d1 5abb 7d41 87bc 6a19 38bd 75f3 03bd
00000130: a087 273b b441 9a3c 0730 47bc 001c cdbc
00000140: 5282 cbbc 8036 7b39 8cbf fa3b 1632 3abc
00000150: a415 12bc 4c84 ebbc 068f d7bc 6b87 a1bc
00000160: 7029 2bbc ce56 9aba 6787 24bd 32fe 13bd
00000170: 5839 afbc 7900 aabc d8f7 2dba ace0 0abd
00000180: 9856 04bd 0d29 ebbc 8326 d7bc 3863 d83a
00000190: 5db8 ea3c c7c4 7b3c 642c 83bc 5fec f7bc
000001a0: 3fca 42bc 0861 8c3c b8e5 3a3b affe c4bc
000001b0: 36e2 38bc 3ab1 6cbb 80fe 4438 f691 613b
000001c0: 5009 643c 31a4 b03b cc78 56bc 4695 a23c
000001d0: b8a9 fc3c 8a5a 1b3c 9c78 81bc 2fc5 98bc
000001e0: a22d 0b3d b029 cc3c 1cf9 61bc d1ad a6bc
000001f0: 0f9f a7bc c4a5 583b 9e24 6e3c c0bd a73c
00000200: c41d 0f3c f0d2 14bc 301e 793b ce05 1b3c
00000210: 87bb 0c3a a085 c03b 5b94 4bbb e581 a63b
00000220: 6e38 e43a ea5f 0c3b ba10 ce3b 95af 63bb
00000230: 108a 84bb 5585 e0ba a0dd 04ba 3970 063c
00000240: 8901 d2ba 1e25 19bc ac38 e3b9 91ff ba3a
00000250: 9b78 163c de47 c13b 42f5 f8ba b67b 953c
00000260: 9843 4d3b c446 3cb9 b8ac 853a b04f 143a
00000270: 2a07 da3b 7d1d 703a 1af2 f93b a285 813b
00000280: e04c ccbb cae8 21bb 9a56 693b 1df8 553b
00000290: f82a e7b9 de1d 28bc 0706 013b 4ebd 283b
000002a0: 92d4 2dbb 800e 313b 5f63 29bc c4c3 0cbb
000002b0: a87a bfba 84a9 923b a8fa 383c e054 84bd
000002c0: 970d 92bd 58cd 36bd 79ba 6bbd 5879 84bd
000002d0: 4ad4 80bd 3c42 8fbd 4f7d 61bd a83e 6ebd
000002e0: f750 46bd 6a91 84bd ea0a 9ebd f00f 2dbd
000002f0: 7fdc 83bc 9eea 51bc 3bc1 87bd b09b a2bd
00000300: fa47 a4bc dc84 8b3a 4611 3e3b 6bf8 b5bd
00000310: 3c5d 66bd 7535 5ebd a6d3 22bd 95db e9bc
00000320: 35e5 39bd acb5 1fbc e89b ce3a 4e10 02bd
00000330: abe1 12bd 49bd ab3c a432 813d 2ed9 fe3c
00000340: d6d8 db3b 7a3b 8a3a cc2f c73d 6c9a e33d
00000350: 8421 313d 7073 023d b696 303d c6f0 ec3d
00000360: 7e4f d43d f876 993d bcc6 a13d d572 713d
00000370: a432 673d 7a87 2a3d 00dc 8a3d 0430 9a3d
00000380: 184e 313d a34d 10bc d4d5 20bd eedb ecbc
00000390: 28f0 0fbb 8816 68ba 8bae 31bc d6ef b4bc
000003a0: 48de acba a652 5e3c fa70 ca3b 6a96 97bc
000003b0: 7441 67bc 8e6b 253c 6717 8d3c ae1f 593b
000003c0: a1a8 b13b 1a28 60bb ac6c af3c aa62 d33c
000003d0: c1be 213c 5cb4 08bc 528c 81bc 605a 97b9
000003e0: ffe3 68bc b432 87bc

momentum_buffer f4 [10]
0.043916598 -0.025009556 -0.039395038 0.00042686332 -0.0053494656 -0.00272667 -0.0022800327 -0.04271328
0.013181626 -0.009714624
00000000: e4e1 333d d7e0 ccbc b15c 21bd a0cc df39
00000010: 924a afbb eeb1 32bb 9a6c 15bb 1ff4 2ebd
00000020: bff7 573c 162a 1fbc

momentum_buffer f4 [20, 10, 5, 5]
0.008273169 0.02089544 0.045086905 0.03629835 0.026626669 0.0120984875 0.024603065 0.015433698
-0.0015417342 0.009443975 0.020046866 0.007076589 0.0034377393 -0.0026205354 0.010703956 0.00603495
0.00687789 0.0042097885 0.017437577 0.019278895 0.012219571 0.020242183 0.029811319 0.025275355
0.03180637 0.0050632926 0.019609896 0.03094677 0.010825258 0.006719965 0.006356721 0.007267475
-0.0035172792 0.0037572407 0.014814794 0.011181987 0.0022594729 -1.4657038e-05 0.008459134 0.0155039
0.0065894565 0.0044246567 -0.0033835375 0.0074545126 0.0058938097 0.0132297715 0.027742261 0.026335327
0.015721139 0.0058014733 0.0164398 0.021504078 0.021370713 0.014131811 0.023979524 0.013035276
0.012036188 0.0054318206 0.01931388 0.028619664 0.015615558 0.011227986 0.0075443145 -0.0010583783
0.011976489 0.021538183 0.011391547 0.014387174 0.004112513 0.0072126053 0.021163192 0.020627629
0.0149168465 0.010098613 0.016026352 0.01393262 0.00556919 -0.014680237 -0.0016120502 0.01649032
0.0090598 0.00600786 -0.007091051 0.011359139 0.015477844 0.017540516 0.01874983 0.010883693
0.017114125 -4.156679e-05 0.020586794 0.017250784 0.012381527 0.0058731134 -0.00019325921 0.020110186
0.0044132597 0.007958718 0.006055556 -0.0016449025 -0.0015286626 0.007800991 0.03437668 0.015211433
-0.01943285 0.008439174 0.012472923 0.05021948 0.0031683445 0.007895448 0.023451028 0.009411445
0.021239769 -0.009047332 0.03440946 0.022483282 0.0146500785 0.0010962486 -0.005804196 0.031545725
0.020939726 0.02101566 0.010159629 -0.0028586597 0.03337416 0.0027492996 0.003016951 0.001629178
-0.0067011826 0.005114293 0.0027536773 0.005526553 -0.0011399055 0.0062299725 0.005349414 0.0050635138
0.00785109 0.006879595 0.014499136 0.007100391 0.009035449 0.0063746753 0.00882885 0.009402959
0.008562334 0.0051884875 0.0045026084 0.004837435 0.007425392 0.0003779896 0.004745114 0.0034419212
0.0023869858 -0.005144852 0.0028741825 0.003337158 0.0029985183 -0.003963052 -0.0027114144 0.004616522
0.0076006693 0.005677106 0.0010210848 0.0046305223 0.008044433 0.0071702246 0.0070140297 0.0070568286
0.008303959 0.00330153 0.006334452 0.0048744404 0.003764071 0.0046343603 0.0037106457 0.028127652
0.021347204 0.0042290287 0.036468923 0.06899045 0.026136301 0.026332274 0.004188616 0.031044971
0.02540012 0.02976427 0.036460146 0.01855162 0.015679862 -0.007900533 0.04006149 0.036634587
0.02844894 0.011653121 -0.00762585 0.055988625 0.030618332 0.028639678 0.03600991 0.016940761
0.030026926 0.044789013 0.07374476 0.07151786 0.056519438 0.03675371 0.040095113 0.014269137
0.0044756895 0.0313013 0.03357012 0.020401131 0.0064607137 -0.0057332953 0.0160962 0.01962867
0.02639121 0.024843976 0.028626911 0.028526478 0.044399865 0.044746213 0.060510665 0.055066574
0.05260483 0.030363562 0.017882586 0.016300263 0.040021833 0.043976627 0.03285621 0.03374379
0.03272798 0.046832804 0.0396285 0.03202433 0.035761364 0.029046826 0.015221447 0.02804118
0.031470902 0.029433561 0.021551732 0.0017458131 0.00759055 0.04064548 0.017132433 0.022854231
0.02169889 0.015310746 5.946091e-06 -5.3871154e-06 -3.047669e-06 -4.081954e-06 -4.9197806e-06 -2.477592e-05
00000000: 308c 073c ea2c ab3c 0cad 383d 94ad 143d
00000010: 2c20 da3c bc38 463c 5e8c c93c 9fdd 7c3c
00000020: 0414 caba e7ba 1a3c 5339 a43c bbe2 e73b
00000030: b24b 613b 4abd 2bbb a55f 2f3c d4c0 c53b
00000040: ec5f e13b 44f2 893b 40d9 8e3c c6ee 9d3c
00000050: 9834 483c efd2 a53c de36 f43c 430e cf3c
00000060: 6547 023d fae9 a53b efa4 a03c 1584 fd3c
00000070: 6c5c 313c 2733 dc3b 0a4c d03b 0024 ee3b
00000080: 2782 66bb 0a3c 763b c0b9 723c a734 373c
00000090: aa13 143b 80e7 75b7 2e98 0a3c 1204 7e3c
000000a0: 5eec d73b b6fc 903b 57be 5dbb fc44 f43b
000000b0: dc20 c13b afc1 583c bd43 e33c 2fbd d73c
000000c0: 9ec9 803c 491a be3b c2ac 863c 5229 b03c
000000d0: a211 af3c 1d89 673c b570 c43c e991 553c
000000e0: 6e33 453c 6afd b13b 2438 9e3c c973 ea3c
000000f0: 66d8 7f3c 96f5 373c 4c36 f73b 48b9 8aba
00000100: 0939 443c d870 b03c 9ca3 3a3c 2eb8 6b3c
00000110: 42c2 863b b857 ec3b 6e5e ad3c 46fb a83c
00000120: ca65 743c a774 253c b249 833c a545 643c
00000130: c07d b63b 6085 70bc 6e4b d3ba b516 873c
00000140: 8e6f 143c 95dd c43b 0c5c e8bb af1b 3a3c
00000150: c896 7d3c 21b1 8f3c 3e99 993c 8451 323c
00000160: ec32 8c3c 0058 2eb8 a3a5 a83c 8451 8d3c
00000170: e3db 4a3c 3f73 c03b a0a5 4ab9 1ebe a43c
00000180: 1b9d 903b 4865 023c af6d c63b c599 d7ba
00000190: 685d c8ba 759f ff3b 90ce 0c3d 6039 793c
000001a0: a431 9fbc 7644 0a3c 3b5b 4c3c f1b2 4d3d
000001b0: 00a4 4f3b e95b 013c 5f1c c03c 7632 1a3c
000001c0: 06ff ad3c 433b 14bc eff0 0c3d dc2e b83c
000001d0: e206 703c 00b0 8f3a 2031 bebb 1736 013d
000001e0: ca89 ab3c 0929 ac3c 9374 263c 5a58 3bbb
000001f0: 58b3 083d 982d 343b 0ab8 453b 248a d53a
00000200: 9895 dbbb cd95 a73b 0a77 343b 1618 b53b
00000210: e268 95ba cc24 cc3b 234a af3b d5eb a53b
00000220: dca1 003c 3a6e e13b c98d 6d3c 66aa e83b
00000230: 6b09 143c a7e2 d03b e2a6 103c de0e 1a3c
00000240: 0849 0c3c 3004 aa3b 9e8a 933b 5983 9e3b
00000250: b450 f33b e82c c639 e77c 9b3b db91 613b
00000260: fa6e 1c3b 2696 a8bb c85c 3c3b 38b4 5a3b
00000270: ca82 443b 7ddc 81bb fcb1 31bb 3246 973b
00000280: 090f f93b 0407 ba3b ecd5 853a a3bb 973b
00000290: cccc 033c 34f4 ea3b f2d5 e53b f83c e73b
000002a0: 540d 083c 7b5e 583b 3c91 cf3b c5b9 9f3b
000002b0: a2ae 763b d5db 973b 4e2e 733b f66b e63c
000002c0: 55e0 ae3c aa93 8a3b 7060 153d dd4a 8d3d
000002d0: cc1b d63c c8b6 d73c a840 893b 0652 fe3c
000002e0: ea13 d03c 33d4 f33c 3c57 153d 91f9 973c
000002f0: 0e73 803c 3d71 01bc 8417 243d 260e 163d
00000300: c00d e93c bbec 3e3c 44e2 f9bb 5454 653d
00000310: 4cd3 fa3c c29d ea3c 217f 133d 5ac7 8a3c
00000320: 07fb f53c af74 373d 7e07 973d f577 923d
00000330: ed80 673d 0f8b 163d c63a 243d 19c9 693c
00000340: cea8 923b cb35 003d d280 093d 4620 a73c
00000350: 65b4 d33b 5ede bbbb 2edc 833c 4ecc a03c
00000360: 6132 d83c 9885 cb3c fc82 ea3c 5cb0 e93c
00000370: a2dc 353d ce47 373d 08da 773d 7d8d 613d
00000380: 2a78 573d 01bd f83c 807e 923c 2188 853c
00000390: efed 233d d620 343d 3c94 063d ee36 0a3d
000003a0: c60d 063d c1d3 3f3d 7e51 223d f22b 033d
000003b0: 827a 123d 9cf3 ed3c 6063 793c 9eb6 e53c
000003c0: a2e7 003d a71e f13c 428d b03c c4d3 e43a
000003d0: 26ba f83b e07b 263d 5159 8c3c cc38 bb3c
000003e0: dfc1 b13c ecd9 7a3c 8884 c736 f8c2 b4b6
000003f0: 8e86 4cb6 b8f7 88b6 9814 a5b6 e2d5 cfb7

momentum_buffer f4 [20]
0.013705916 2.3440743e-05 0.0011092785 0.02736485 -0.040961936 -0.0068582427 0.012045944 0.012280005
-0.0073454743 -0.014044868 0.020476773 -0.01255658 0.0035791115 -0.011176379 0.015541453 0.0038728653
0.025675211 0.0038379864 -0.0010791994 0.017984912
00000000: c78e 603c 9da2 c437 3665 913a 402c e03c
00000010: b4c7 27bd 1cbb e0bb 5a5c 453c 1332 493c
00000020: 4eb2 f0bb 721c 66bc e8be a73c 1dba 4dbc
00000030: 878f 6a3b 221d 37bc 94a1 7e3c e6cf 7d3b
00000040: d254 d23c ba86 7b3b ec73 8dba 1855 933c

momentum_buffer f4 [10, 320]
0.00043583356 0.0019051814 -0.014720687 -0.016323993 0.003015615 0.0015152583 -0.009818559 -0.017675871
0.0048763943 0.0005205359 -0.00052519015 -9.357047e-05 -0.027759252 -0.025033763 -0.023736415 -0.015710164
-2.6467173e-06 2.0597834e-06 3.3392922e-08 5.9973735e-07 5.4396116e-07 1.0520379e-12 3.0830388e-10 3.8832826e-05
4.595963e-10 -5.588967e-06 -5.7345637e-06 3.6299216e-06 1.1624215e-09 -1.6217457e-06 6.441199e-08 9.781036e-07
-0.000121867175 3.140195e-05 -2.2290149e-05 9.48672e-06 0.0004568383 3.2131024e-06 -0.0006698815 -0.00095065235
3.1561834e-05 -5.292419e-06 -3.3666875e-05 4.0879517e-05 4.0497023e-05 7.8965044e-08 1.4418708e-08 -1.639623e-05
-0.0029489344 -0.001386109 -0.00024343585 -0.0054405187 -0.0014788896 2.99372e-05 -0.0046920716 -0.0034675957
0.00076960254 -0.011807485 -0.018336201 -0.005710772 0.0013170968 -0.011235517 -0.011648421 -1.1808226e-05
0.0025435016 0.0043784706 0.002868952 -0.018376486 -0.0144162765 0.006694506 -0.0019086072 -0.002734
-0.039231945 0.0067404076 0.0016375984 -0.0020279868 -0.031561486 -0.012333587 -0.004659888 -0.0018704599
-0.007984277 -0.005214223 -0.00043378782 -0.014786713 -0.0070860866 0.00015344674 -0.001101171 0.001442599
-0.046991054 -0.0072424724 -0.013561593 -0.0068160365 -0.03658711 -0.0028655883 0.0039481316 -0.0055863485
0.0016584792 0.0014146515 0.0012719319 -0.010219645 -0.0037003953 -0.007300029 -0.004421462 -0.002188773
-0.0076984623 -0.00066709414 0.0006592468 -0.00090088375 -0.038325496 -0.050215777 -0.04239644 -0.033051763
-0.0012233594 -0.0072046514 7.430097e-05 0.0038383582 -0.013032092 -0.026066981 -0.0009976554 0.009729371
-0.03183988 -0.033500962 -0.0023212521 0.011525388 -0.014075038 -0.010959724 0.0057028285 0.0072108507
6.398895e-06 -0.0051949634 -0.002114405 0.0027263765 -7.812535e-05 -0.010914699 -0.00052987895 0.0057522
-0.000113587135 -0.00070412824 0.0005343014 0.00494538 -1.6087617e-05 -2.5233623e-05 0.0030325514 0.0050706523
-0.010691836 0.0010288325 -0.0010561832 -0.018689997 -0.02496527 0.0029770029 -0.010241217 -0.012794908
-0.027023073 -0.00030405156 -0.0069476324 -0.003035734 -0.012901399 -0.0063639674 -0.00496057 -0.0061077992
-0.00013271092 -0.0027446132 -0.003263687 0.00070313585 -0.00828569 -0.016814478 -0.0058497395 0.0006236653
-0.0046524177 -0.0013310226 0.0023385037 -0.027407713 -0.030596117 -0.026673188 -0.029234948 -0.03700869
-0.004174563 -0.0038444928 -0.0034427333 -0.0011142755 0.00027147547 -0.0002884817 0.0010938215 -0.010136331
0.0020815567 0.00050717796 -0.008371555 -0.009732322 0.0029915476 0.00024525134 -0.00013069347 -0.00016467979
-0.018509833 -0.015014402 -0.0035592983 0.0029999951 -0.022034105 -0.008503744 -0.0054814056 -0.010277405
-0.035096545 -0.03411146 -0.021024307 -0.011363162 0.001137042 -0.01586818 -0.008696267 0.0003573179
-0.011712505 -0.0025107658 -0.0016540359 0.006489378 -0.008464248 0.0021156864 0.0012785838 0.0029876332
-0.025192652 -0.013362051 -0.0013399101 0.0021740417 -0.018442722 -0.016124895 0.0007432827 -0.0074803983
-0.02182396 -0.007254508 -0.006454848 -0.0028715923 -0.025439382 -0.002017727 0.00094418594 -0.00463558
-0.01121613 -0.030273259 -0.03658236 -0.024161596 0.003402779 -0.008641641 -0.008406863 -0.000270525
-0.0022459906 -0.0025078596 0.0016861069 -0.00790122 -0.013630486 -0.01633067 -0.0020628572 -0.0011684
-0.022554098 -0.008042863 -0.021641813 -0.015547155 -0.033873823 -0.042170413 -0.044607162 -0.020320697
00000000: 9780 e439 48b7 f93a 092f 71bc e5b9 85bc
00000010: a0a1 453b a29b c63a 05de 20bc fdcc 90bc
00000020: 29ca 9f3b 9374 083a eaac 09ba 433b c4b8
00000030: 5f67 e3bc 9b13 cdbc df72 c2bc 9ab2 80bc
00000040: 429e 31b6 cf3a 0a36 e86b 0f33 a3fd 2035
00000050: ba04 1235 a90f 942b ea7d a92f 6ee0 2238
00000060: 6eaa fc2f dc88 bbb6 876b c0b6 9499 7336
00000070: 12c3 9f30 c2aa d9b5 de52 8a33 6247 8335
00000080: f192 ffb8 96b5 0338 bbfb bab7 2729 1f37
00000090: cc83 ef39 aea0 5736 fd9a 2fba 3335 79ba
000000a0: 4361 0438 8895 b1b6 8835 0db8 0c76 2b38
000000b0: 59db 2938 7e93 a933 26b6 7732 a38a 89b7
000000c0: e942 41bb 1aae b5ba d042 7fb9 6146 b2bb
000000d0: 4dd7 c1ba a621 fb37 f3bf 99bb 9a40 63bb
000000e0: 27bf 493a 2e74 41bc cd35 96bc 6d21 bbbb
000000f0: 6fa2 ac3a 2d15 38bc 05d9 3ebc f21b 46b7
00000100: e0b0 263b 4679 8f3b 0705 3c3b 498a 96bc
00000110: 3f32 6cbc 965d db3b 3b2a faba e92c 33bb
00000120: adb1 20bd a3de dc3b afa4 d63a f9e7 04bb
00000130: 9e46 01bd d012 4abc f9b1 98bb 382a f5ba
00000140: 7cd0 02bc 13dc aabb 046e e3b9 f843 72bc
00000150: 6732 e8bb 8ce6 2039 2b55 90ba 9715 bd3a
00000160: b179 40bd 4352 edbb 7231 5ebc 0f59 dfbb
00000170: 5edc 15bd 98cc 3bbb 545f 813b b00d b7bb
00000180: 5461 d93a d46b b93a f4b6 a63a 4c70 27bc
00000190: 5582 72bb 1535 efbb e9e1 90bb 8471 0fbb
000001a0: 6243 fcbb eedf 2eba 4ed1 2c3a 4929 6cba
000001b0: 32fb 1cbd 0faf 4dbd e4a7 2dbd 4961 07bd
000001c0: 2159 a0ba ff14 ecbb 08d2 9b38 f78c 7b3b
000001d0: 8e84 55bc 6c8a d5bc c3c3 82ba f167 1f3c
000001e0: 896a 02bd 4e38 09bd 2620 18bb fbd4 3c3c
000001f0: fd9a 66bc 6a90 33bc cbde ba3b 0049 ec3b
00000200: 17b6 d636 833a aabb d491 0abb 02ad 323b
00000210: 3ad7 a3b8 91d3 32bc 93e7 0aba f37c bc3b
00000220: a135 eeb8 3f95 38ba 5c10 0c3a db0c a23b
00000230: e5f3 86b7 cbac d3b7 c5bd 463b b727 a63b
00000240: cf2c 2fbc e4d9 863a a16f 8aba c41b 99bc
00000250: f783 ccbc d219 433b c7ca 27bc bca1 51bc
00000260: 7e5f ddbc 1c69 9fb9 f7a8 e3bb 2af3 46bb
00000270: 6460 53bc d488 d0bb 478c a2bb ef23 c8bb
00000280: 5128 0bb9 f8de 33bb 95e3 55bb a652 383a
00000290: b4c0 07bc 84be 89bc 2caf bfbb 787d 233a
000002a0: 4f73 98bb b575 aeba 9541 193b 2486 e0bc
000002b0: b5a4 fabc bb81 dabc 217e efbc 6d96 17bd
000002c0: c6ca 88bb e3f3 7bbb 7b9f 61bb e20c 92ba
000002d0: d254 8e39 5c3f 97b9 8f5e 8f3a db12 26bc
000002e0: ba6a 083b 23f4 043a d928 09bc 5174 1fbc
000002f0: d70d 443b 1495 8039 c30a 09b9 e5ad 2cb9
00000300: efa1 97bc f7fe 75bc 1e43 69bb 919b 443b
00000310: de80 b4bc 4a53 0bbc 5d9d b3bb 9062 28bc
00000320: 65c1 0fbd 75b8 0bbd 2b3b acbc 8e2c 3abc
00000330: cc08 953a fcfd 81bc ca7a 0ebc 6656 bb39
00000340: cee5 3fbc a98b 24bb 3ccc d8ba d9a4 d43b
00000350: a1ad 0abc 54a7 0a3b 2796 a73a 2bcc 433b
00000360: d260 cebc 81ec 5abc ec9f afba 5e7a 0e3b
00000370: 3115 97bc 5b18 84bc dcd8 423a 211e f5bb
00000380: 29c8 b2bc 39b7 edbb 3183 d3bb 5331 3cbb
00000390: 4066 d0bc d73b 04bb 3f83 773a 10e6 97bb
000003a0: dcc3 37bc a0ff f7bc 62d7 15bd 8aee c5bc
000003b0: 2901 5f3b ab95 0dbc f0bc 09bc 40d5 8db9
000003c0: 7831 13bb e75a 24bb 5c00 dd3a 1e74 01bc
000003d0: 6752 5fbc e6c7 85bc 0031 07bb 0025 99ba
000003e0: 5fc3 b8bc 36c6 03bc 2c4a b1bc 7fb9 7ebc
000003f0: 47bf 0abd e2ba 2cbd 00b6 36bd 9777 a6bc

momentum_buffer f4 [10]
-0.0045604547 -0.002293921 0.009393562 0.020646166 0.012825465 -0.0036805314 0.010680892 0.04494775
-0.026661178 -0.061297752
00000000: de6f 95bb 9c55 16bb 74e7 193c 2622 a93c
00000010: e621 523c 1235 71bb e8fe 2e3c 221b 383d
00000020: 8b68 dabc 5a13 7bbd
