oracle/train/non-iid/checkpoint/mnist/ckpt_9_1.pth (torch, 71489 bytes, 12 tensors)

conv1.weight f4 [10, 1, 5, 5]
0	0x3dfbe8db	0.12300273
1	0xbba2cd6c	-0.004968336
2	0x3c7b249a	0.015328551
3	0x3e37fae7	0.17966805
4	0xbdbcc093	-0.09216418
5	0xbba0d239	-0.004907873
6	0x3da8bcbd	0.08239124
7	0x3d379a38	0.04482481
8	0x3d5906da	0.05298505
9	0xbda69a1b	-0.08134862
10	0x3d086077	0.03329512
11	0x3e016a7f	0.12638281
12	0x3e19bb77	0.15012918
13	0xbe2e4ec1	-0.1702223
14	0xbe143955	-0.14474995
15	0xbd8483cd	-0.064704515
16	0x3ceaec9f	0.028677283
17	0xbd8d68c0	-0.06904745
18	0x3e0290d7	0.12750565
19	0xbdae2ad1	-0.0850426
20	0x3e299e8b	0.16564386
21	0xbd889fd8	-0.06671113
22	0x3c0e4a7e	0.0086847525
23	0xbc8fe0cd	-0.017563248
24	0x3dc6c0ca	0.0970474
25	0xbcf25709	-0.029582517
26	0xbd939039	-0.07205243
27	0x3e341bd7	0.17588745
28	0xbd6a4a56	-0.0571998
29	0x3e24f7d9	0.16110171
30	0x3c580dd2	0.013186889
31	0x3e310892	0.17288426
32	0x3e339401	0.17536928
33	0x3e5a9757	0.21346794
34	0xbdde6585	-0.10859207
35	0x3e7f8199	0.24951781
36	0x3c8c14ee	0.017099824
37	0x3e938211	0.2881017
38	0xbc880f1b	-0.016608765
39	0x3db3a9d6	0.08772628
40	0x3e0c5bce	0.13706896
41	0x3de71efc	0.11285207
42	0xbc6b703e	-0.014370022
43	0x3d32501d	0.043533433
44	0xbd551e0c	-0.052030608
45	0x3e75b3f7	0.23994432
46	0x3e170ae1	0.14750244
47	0xbdd3891b	-0.10328885
48	0x3c29acf1	0.010356174
49	0x3e549ecd	0.20763703
50	0xbdcf60c8	-0.101258814
51	0x3dd9462e	0.10609089
52	0x3e234dd1	0.15947653
53	0x3cb4bc4e	0.022062447
54	0xbcc7688d	-0.024341846
55	0x3d1f9fa7	0.038970616
56	0x3d11a0f1	0.035553876
57	0xbe20f215	-0.15717347
58	0x3dffd68b	0.12492093
59	0xbe03b3f6	-0.12861618
60	0x3d833496	0.06406514
61	0xbddd9f67	-0.10821419
62	0xbe288177	-0.16455637
63	0x3d788cb7	0.06068107
64	0x3d385ba4	0.04500927
65	0xbe20a610	-0.15688348
66	0xbd91c59a	-0.07117768
67	0x3ddbaa1f	0.107258074
68	0x3e5e57f5	0.2171324
69	0x3d8bf1a1	0.068331964
70	0x3c74138e	0.01489724
71	0xbd779cdb	-0.060452323
72	0x3e28a328	0.16468489
73	0xbd951eac	-0.07281241
74	0xbd611b31	-0.054957572
75	0xbdee2fce	-0.11630212
76	0xbe3eea26	-0.18644008
77	0x3c9e4dc6	0.019324195
78	0xbdfe548b	-0.12418469
79	0xbc052b0c	-0.008127939
80	0x3d9ef947	0.0776239
81	0x3e4be6b4	0.19912225
82	0x3e0cafb1	0.13738896
83	0xbe0b1098	-0.13580549
84	0xbe377aca	-0.17917934
85	0x3e8aa3d0	0.27078104
86	0xbd9d965a	-0.07694693
87	0xbd8116f5	-0.06303207
88	0x3e38d7b9	0.18051042
89	0x3dc84e91	0.0978061
90	0x3e4319d2	0.19052818
91	0x3dfc33ef	0.12314593
92	0x3e878ade	0.26473135
93	0x3e2b7e46	0.16747388
94	0xbad7e8fb	-0.0016472632
95	0x3dace03d	0.084412076
96	0x3e3c4354	0.18385059
97	0x3e9ba9b5	0.30402914
98	0x3e10c338	0.1413697
99	0x3e991764	0.29900658
100	0x3da75730	0.081709266
101	0x3e6e13fb	0.2324981
102	0xbde1f22c	-0.11032519
103	0x3e556be1	0.20841934
104	0xbc3c6c7c	-0.011500474
105	0x3d91b9a3	0.071154855
106	0xbdf5903e	-0.11990403
107	0x3e5212c2	0.20514968
108	0x3d9256a9	0.07145435
109	0x3d7de3e3	0.061984908
110	0x3deebea6	0.11657457
111	0x3e3b7834	0.18307573
112	0x3db55b42	0.08855297
113	0xbcdb9673	-0.026805138
114	0x3e21feb1	0.15819813
115	0xbe41c645	-0.1892329
116	0xbe023673	-0.12716083
117	0xbce5990c	-0.02802708
118	0xbe5f4a73	-0.21805744
119	0xbb0b42ba	-0.002124949
120	0xbc491d7e	-0.012275098
121	0xbe5863a3	-0.21131758
122	0xbe222abb	-0.15836613
123	0x3e068ac5	0.13138874
124	0xbe0a19ad	-0.13486357
125	0x3e40db7d	0.18833728
126	0xb65bc384	-3.2747348e-06
127	0x3d77af1e	0.06046974
128	0x3de6e940	0.11274958
129	0x3d0ccb6e	0.034373693
130	0x3e832b75	0.25619093
131	0x3e8dd47f	0.27701184
132	0x3dfa927a	0.122349694
133	0xbd3a7e7a	-0.045530774
134	0x3d326ff8	0.043563813
135	0xbd953b71	-0.07286728
136	0xbcc996a0	-0.024607956
137	0x3e53d3c7	0.20686255
138	0x3e090fe3	0.13384967
139	0x3e7b525d	0.24543138
140	0xbe4101f8	-0.18848407
141	0x3dad6c9e	0.08467983
142	0x3d8ff7ab	0.07029661
143	0x3cb7aae4	0.022420354
144	0xbe114567	-0.14186631
145	0xbe174142	-0.14770988
146	0x3e20d81f	0.15707444
147	0xbe3d5ece	-0.18493196
148	0x3d952b7e	0.07283686
149	0xbd5adeff	-0.053435322
150	0xbe3ca878	-0.1842364
151	0xbc6b7b66	-0.014372682
152	0x3e67d8b6	0.22641262
153	0x3e38d6f3	0.18050747
154	0x3da5fa2b	0.081043564
155	0xbe2f6f85	-0.17132385
156	0x3e34899e	0.17630622
157	0x3da170c9	0.0788284
158	0x3bc58e65	0.0060289376
159	0x3dd95be3	0.10613229
160	0x3d100c25	0.035167832
161	0x3e87f6b9	0.26555422
162	0x3bba8332	0.005691909
163	0xbc82fd40	-0.0159899
164	0xbe42bda0	-0.19017649
165	0xbe2c1440	-0.168046
166	0x3e2e339b	0.17011873
167	0x3e71ff23	0.23632483
168	0xbcd4fa16	-0.025998157
169	0x3d2566cf	0.04038125
170	0x3e2c49cb	0.16825025
171	0x3e15725c	0.14594406
172	0x3c3e769f	0.011624961
173	0xbdfccb6a	-0.12343486
174	0xbe35057d	-0.17677875
175	0xbe491726	-0.19637737
176	0x3bc1b964	0.005911993
177	0xbe5ede8b	-0.21764581
178	0x3e03e12b	0.12878864
179	0x3e2da17e	0.16956136
180	0x3dd72d00	0.1050663
181	0xbd8417f3	-0.064498805
182	0xbe1df67f	-0.15426062
183	0x3e442484	0.19154555
184	0xbc552007	-0.013008124
185	0x3b64569d	0.0034841665
186	0xbdcd75d0	-0.100322366
187	0xbdc05062	-0.09390332
188	0xbbeaf7bd	-0.007170646
189	0x3e3a0094	0.18164283
190	0xbe1c8247	-0.15284072
191	0xbe13bda9	-0.14427818
192	0x3d1c6bc8	0.038188726
193	0x3e468810	0.19387841
194	0x3e5fc889	0.21853842
195	0xbe3e825c	-0.18604416
196	0xbd86a3c6	-0.06574206
197	0x3c7ea05a	0.0155411605
198	0x3d91e157	0.07123058
199	0xbd2b91a5	-0.041886944
200	0xbe24c8d8	-0.16092241
201	0x3d1406ac	0.036139175
202	0xbdb24c01	-0.08705903
203	0xbe124367	-0.14283524
204	0x3dee1841	0.1162572
205	0x3e123574	0.14278203
206	0xbe4efb94	-0.20213157
207	0xbe30ddc3	-0.17272095
208	0x3da21e69	0.079159565
209	0xbd60dbe2	-0.054897197
210	0xbd62dfbc	-0.05538915
211	0x3e25924e	0.16169092
212	0x3db024ce	0.0860077
213	0xbd2d3d7a	-0.042294957
214	0x3e42a654	0.19008762
215	0x3e03f8f4	0.12887937
216	0x3d284dac	0.0410897
217	0xbde3ab17	-0.11116617
218	0xbc66178e	-0.014043702
219	0x3db9fa5d	0.09080956
220	0x3ce4639a	0.027879525
221	0x3e543212	0.20722225
222	0xbe221121	-0.15826847
223	0xbdd02760	-0.1016376
224	0x3bb1b8bd	0.005423634
225	0x3df045d5	0.117320694
226	0x3d930e37	0.07180446
227	0x3e185bd4	0.1487878
228	0x3de1ae2f	0.11019551
229	0x3e8ce9b0	0.2752204
230	0x3d95d2b3	0.07315578
231	0xba7a4012	-0.00095462904
232	0x3d24cf17	0.04023656
233	0xbd5e8e00	-0.05433464
234	0x3e914723	0.28374586
235	0x3b9e3258	0.004827779
236	0xbe16c597	-0.14723812
237	0x3e24d11c	0.16095394
238	0x3d995a09	0.07487876
239	0x3e870cc0	0.26376915
240	0x3cab880a	0.020938892
241	0xbd9eb93a	-0.07750173
242	0xbe20ed0f	-0.1571543
243	0x3d8094ab	0.06278356
244	0xbd900cc6	-0.07033686
245	0x3dd227be	0.102614865
246	0xbd7428df	-0.05960929
247	0xbe4dc9e1	-0.20096542
248	0x3df4830e	0.11939059
249	0x3c554fc1	0.013019503

conv1.bias f4 [10]
0	0xbd6c6d08	-0.057721168
1	0xbdab80d4	-0.083741814
2	0xbddc32d4	-0.10751882
3	0x3e096b06	0.13419732
4	0x3d998067	0.07495194
5	0xbc826dda	-0.015921522
6	0x3d99a125	0.07501439
7	0xbe3b44df	-0.18287991
8	0xbd2e646c	-0.04257624
9	0x3d45f931	0.04833335

conv2.weight f4 [20, 10, 5, 5]
0	0x3c96ba89	0.018399494
1	0x3d74f8ed	0.059807707
2	0x3c681c31	0.014166878
3	0xbd651202	-0.055925377
4	0x3b90328f	0.0044005583
5	0x3c9ddbf1	0.019269915
6	0x3d611f39	0.054961417
7	0x3be021a6	0.0068399487
8	0xbce25b19	-0.02763133
9	0x3b1e74e2	0.0024178554
10	0xbd222ef6	-0.039595567
11	0x3d3fbbd6	0.046809994
12	0xbb5c3281	-0.0033599439
13	0xbc8101ac	-0.015747868
14	0x3c868c2d	0.016424263
15	0xbcc75c6a	-0.024336059
16	0xbc13ee9c	-0.009029057
17	0xbd1f4925	-0.038888115
18	0x3d3e247a	0.046421506
19	0xbd4aae12	-0.049482413
20	0xbc6e8092	-0.014557021
21	0xbd86ed7b	-0.065882646
22	0x3c5c1287	0.013432152
23	0x3cbe1fa8	0.023208454
24	0x3c3492d4	0.011021335
25	0xbd950a30	-0.07277334
26	0xbce61315	-0.02808527
27	0x3bdc1520	0.0067163855
28	0xbc4ad428	-0.012379684
29	0x3d1e7b7c	0.038691983
30	0xbca985ee	-0.020693745
31	0x3d2d398c	0.04229121
32	0xbd955e02	-0.07293321
33	0x3cac62c7	0.021043194
34	0xbc978bc5	-0.018499264
35	0x3d836a05	0.06416706
36	0x3cb2f233	0.021844005
37	0xbd005a33	-0.03133602
38	0x3d5a2097	0.053253736
39	0xbcd3f3c4	-0.025873072
40	0xbc631726	-0.0138604995
41	0x3d99cee9	0.07510168
42	0x3d33a237	0.043855872
43	0x3c81f9d9	0.015866207
44	0xbd807e78	-0.06274122
45	0x3c932ab2	0.017964695
46	0xbd55934b	-0.052142423
47	0xbd0282df	-0.03186309
48	0x3c2ef4dc	0.010678496
49	0x3d05da2e	0.032678775
50	0x3d70c994	0.05878599
51	0x3d06cbac	0.03290908
52	0x3a86e4cb	0.0010291574
53	0xbca0205e	-0.019546684
54	0x3abf2b77	0.0014585097
55	0xbd128d93	-0.035779547
56	0x3cc819e7	0.024426414
57	0xbd75fbba	-0.06005452
58	0x3b65549b	0.0034993056
59	0x3c231af3	0.009955156
60	0x3d20a45b	0.03921924
61	0xbc2529b0	-0.01008074
62	0xbc03210a	-0.008003483
63	0xbcdb17cd	-0.026744748
64	0x3d1a82b9	0.037722323
65	0xbcb11e4d	-0.021620894
66	0x3bcb4fc3	0.0062045767
67	0xbd225dd7	-0.039640274
68	0x3c076095	0.008262773
69	0xbcc663b6	-0.024217468
70	0x3d60b5d2	0.054860897
71	0xbd33efd6	-0.043929897
72	0x3d6e99cf	0.058252152
73	0x3d4f9a48	0.050684243
74	0xbcc68e18	-0.024237677
75	0xbdb925db	-0.090404235
76	0xbdb7bde2	-0.08971764
77	0xbd396464	-0.045261756
78	0xbc46913b	-0.012119587
79	0xbba30960	-0.004975483
80	0x3a7e7b9b	0.00097077497
81	0x3c6eea11	0.014582173
82	0xbd9051a9	-0.070468254
83	0xbd7fe5de	-0.062475078
84	0xbd16f8c4	-0.036858335
85	0x3dbdad46	0.09261565
86	0x3dbdcdd7	0.092677765
87	0x3d2faf50	0.0428918
88	0x3c6baa08	0.0143838
89	0xbbd87d67	-0.006606746
90	0x3cd39c4e	0.025831368
91	0x3da7897d	0.08180521
92	0x3d90a240	0.07062197
93	0x3b0c24d6	0.002138426
94	0x3bd76c39	0.0065741804
95	0xbdaf0cb2	-0.08547343
96	0xbd09cd81	-0.03364325
97	0xbb1b77e4	-0.0023722583
98	0x3da2136d	0.079138614
99	0x3d88c94b	0.066790186
100	0x3c93f1d7	0.018059654
101	0xbd55b272	-0.05217213
102	0x3d46770e	0.048453383
103	0x3da35dcd	0.079768755
104	0xbb3e76b8	-0.002906246
105	0xbc0cf7aa	-0.00860397
106	0xbc43a092	-0.011940138
107	0xbcb1f2de	-0.021722253
108	0x3d2cef7c	0.042220578
109	0x3d8dd80e	0.06925975
110	0x3c6c0baa	0.014407078
111	0xbd2a846d	-0.041630197
112	0xbc83a046	-0.016067635
113	0x3cb9f39d	0.022699172
114	0xbd6ef9e0	-0.058343768
115	0xbc9b6a37	-0.018971546
116	0x3d60b9a9	0.05486456
117	0xbc82906b	-0.015938004
118	0xbc9ed46e	-0.019388404
119	0x3cdd2bfe	0.026998516
120	0x3cad3f88	0.021148458
121	0x3cd9cd4d	0.026587153
122	0x3d7cdc79	0.061733697
123	0xbd211099	-0.03932247
124	0xbcd5b27e	-0.026086088
125	0xbb88abeb	-0.004170885
126	0x3d0c42f8	0.034243554
127	0xbbd5f04d	-0.00652889
128	0xbd0d6fd2	-0.03453047
129	0x3d5a07ab	0.05322997
130	0xbd1769b3	-0.036966037
131	0xbcfce6f8	-0.030871853
132	0x3d0b5fde	0.034026973
133	0xbc34f47c	-0.011044618
134	0xbcab4a1b	-0.02090936
135	0x3c68da82	0.014212253
136	0xbcb00dc1	-0.021490933
137	0xbc4e225c	-0.012581434
138	0xbd4f6196	-0.050630175
139	0x3d24e87d	0.04026078
140	0x3d5e0889	0.05420736
141	0x3d11c0cd	0.03558426
142	0xbade7df7	-0.0016974796
143	0xbc7c8d6c	-0.015414577
144	0x3ccd8d35	0.025091747
145	0xbb470943	-0.003037051
146	0x3cba8c83	0.02277208
147	0x3ddca3b0	0.107734084
148	0xbb0d46cf	-0.0021557098
149	0xbce8a5fc	-0.02839946
150	0x3c94ce15	0.018164674
151	0x3d5b865a	0.053594925
152	0x3c70546e	0.014668567
153	0xbcc39420	-0.023874342
154	0xbcd1f430	-0.025629133
155	0x3ced7f94	0.028991498
156	0x3bcb53ca	0.006205057
157	0x3cc03bb1	0.023465963
158	0x3c43a25c	0.011940565
159	0xbd16dc91	-0.036831442
160	0x3cb2b566	0.021815013
161	0xbd6d79de	-0.05797755
162	0xbd2d4cbe	-0.042309515
163	0x3d0ac488	0.033878833
164	0x3d438190	0.047730982
165	0xbd08c820	-0.03339398
166	0x3c494197	0.012283704
167	0xbd7e1112	-0.062028
168	0x3d09fa1e	0.033685796
169	0xbd883edd	-0.06652615
170	0x3d02e780	0.031959057
171	0x3d29371a	0.041312315
172	0xbd16761a	-0.036733724
173	0xbd7aea99	-0.061258886
174	0xbcc74339	-0.024324046
175	0x3c8c6793	0.017139232
176	0x3c892226	0.016739916
177	0x3d2b675c	0.041846618
178	0xbd80b4ea	-0.062845066
179	0xbcc3a823	-0.023883885
180	0x3d65bc04	0.05608751
181	0x3c164e45	0.009173934
182	0xbc6baba3	-0.014384183
183	0xbba07cc0	-0.004897684
184	0xbc397692	-0.011319773
185	0x3c1323b2	0.008980678
186	0xbd34f2a6	-0.04417672
187	0xbc2100b6	-0.00982683
188	0x3d1c8776	0.038215123
189	0x3d2dc229	0.042421494
190	0x3d16cb99	0.03681526
191	0xbd54d517	-0.05196103
192	0xbd2da9c7	-0.04239824
193	0xbd8cfae7	-0.06883793
194	0x3cc9e2b9	0.024644243
195	0xbd7e8904	-0.062142387
196	0x3c34b0a4	0.0110284425
197	0x3d0cdd0b	0.03439049
198	0xbd50a8f3	-0.050942373
199	0xbc82e226	-0.015976977
200	0xbb0329c7	-0.0020013915
201	0x3d080a38	0.03321287
202	0xbd601361	-0.05470598
203	0x3d068d8d	0.032849837
204	0x3d7864bb	0.06064294
205	0x3cc8a5b4	0.024493076
206	0xbd0da967	-0.034585383
207	0xbd49976a	-0.049216665
208	0x3d33f7ae	0.043937378
209	0xbd0281f3	-0.03186221
210	0xbd5673bb	-0.052356463
211	0xbc6287e0	-0.01382634
212	0x3d8ad5b8	0.06779045
213	0x3d85806f	0.065186374
214	0x3d6f3997	0.05840453
215	0xbd556888	-0.052101642
216	0xbc79cefe	-0.015247105
217	0x3d369f6c	0.04458563
218	0x3d8b3678	0.067974985
219	0x3cdb3298	0.026757523
220	0x3c037911	0.00802447
221	0xbaf762b4	-0.001887402
222	0xbc3b8fe1	-0.011447878
223	0xbc92de74	-0.01792834
224	0x3d2e9811	0.04262549
225	0x3c775545	0.015096013
226	0x3d912daf	0.070887916
227	0x3b0ef041	0.0021810683
228	0xbc9186c9	-0.017764466
229	0x3b91f924	0.0044547487
230	0x3d127c74	0.03576322
231	0xbd4f4b4e	-0.050608926
232	0xbd25cf30	-0.040480793
233	0xbd2feac5	-0.042948503
234	0x3d86256e	0.06550108
235	0x3c82beea	0.015960176
236	0xbd59ae31	-0.053144637
237	0xbd724b7e	-0.059154026
238	0xbd8767fc	-0.0661163
239	0xbd707875	-0.058708627
240	0x3d35a1cc	0.044343755
241	0xbd220363	-0.03955401
242	0x3d02eafa	0.031962372
243	0x3d479889	0.048729453
244	0x3be1cc12	0.006890782
245	0x3d7c21cc	0.06155567
246	0x3d34f7a9	0.0441815
247	0x3db8d82b	0.09025606
248	0x3cd910de	0.0264973
249	0xbc0bee42	-0.008540692
250	0xbd2f7aa8	-0.042841583
251	0xbd357456	-0.0443004
252	0x3ce6b889	0.028164165
253	0x3b521da2	0.003206112
254	0x3a03ee4e	0.00050327636
255	0xbd1fe98b	-0.039041083

conv2.bias f4 [20]
0	0x3d7fa15f	0.062409755
1	0xbd2ecfd7	-0.04267868
2	0xbd573ce7	-0.052548315
3	0xbc696ae6	-0.014246678
4	0x3d0c14aa	0.034199394
5	0x3ce32706	0.027728569
6	0x3d40fabb	0.047114115
7	0x3d8065e6	0.062694356
8	0x3c66bd6c	0.014083248
9	0x3d51963a	0.051168658
10	0x3c8cba18	0.01717858
11	0xbcf15a19	-0.029461907
12	0x3d047de4	0.03234662
13	0xbc5ffc40	-0.013670981
14	0xbce60bf5	-0.028081873
15	0x3d24d78d	0.040244628
16	0xbaf864cd	-0.0018950939
17	0x3cfcb39d	0.030847365
18	0xbd55ddf2	-0.052213617
19	0xbd111981	-0.035424713

fc.weight f4 [10, 320]
0	0x3d11c7bc	0.035590872
1	0x3bd14af8	0.006387111
2	0x3b377b9d	0.0027997263
3	0x3d8c288c	0.06843671
4	0xbd1bbe2c	-0.03802316
5	0x3b40dfe9	0.0029430336
6	0x3c8f330a	0.017480392
7	0xbdc960f9	-0.09832949
8	0x3d0fd02b	0.035110634
9	0xbcda8481	-0.02667451
10	0xbd304d2f	-0.043042358
11	0xbd998bf2	-0.074973956
12	0x3c211b0c	0.009833109
13	0x3d10199a	0.035180666
14	0x3ca1bfdf	0.019744812
15	0x3d300476	0.042973004
16	0x3d05beb5	0.032652576
17	0xbce1dc34	-0.027570821
18	0x3c6ee7b3	0.014581609
19	0x3d955dcc	0.07293281
20	0x3db169e1	0.08662773
21	0x3cc5efdf	0.024162231
22	0xbde91857	-0.113815956
23	0xbcba0dc9	-0.022711651
24	0x3c508ac4	0.012728397
25	0xbd5884cd	-0.052861024
26	0xbc9d2a90	-0.019185334
27	0x3ba2269f	0.0049484516
28	0x3d61ed8c	0.055158183
29	0xbb01ca6b	-0.0019804488
30	0x3d37ce22	0.044874318
31	0x3cc5189a	0.024059583
32	0xbccc2dcb	-0.02492418
33	0x3d0050d0	0.03132707
34	0xbcdaac52	-0.026693497
35	0xb9ac118c	-0.0003281947
36	0xbd13a958	-0.03605017
37	0xbc91cbe8	-0.017797425
38	0xbbf25cf1	-0.0073963334
39	0xbd655092	-0.05598504
40	0x3c9afc80	0.01891923
41	0xbc7957f8	-0.015218727
42	0xbd44c382	-0.048038013
43	0x3d157ac4	0.03649403
44	0x3d005c1d	0.031337846
45	0xbcac2865	-0.021015355
46	0x3d61bb35	0.055110175
47	0x3d17c326	0.037051342
48	0x3a90e4dc	0.0011054534
49	0x3cae5a76	0.02128337
50	0xbcb7dbd5	-0.022443691
51	0x3cbbc26d	0.022919858
52	0x3c1e06be	0.009645162
53	0xbd54dd8a	-0.05196909
54	0xbd951dc0	-0.07281065
55	0x3ba4de4d	0.005031383
56	0x3dce96bd	0.10087345
57	0xbc70f1f2	-0.014706122
58	0xbd2f0f6f	-0.042739328
59	0x3cd11eca	0.025527377
60	0x3d4e2b19	0.05033407
61	0x3c3c5b81	0.011496426
62	0xbd08cfd5	-0.03340133
63	0xbc8c806e	-0.017151084
64	0xbd837eb1	-0.06420649
65	0x3d73b074	0.05949445
66	0x3d2a9edc	0.041655406
67	0x3d38c0bd	0.045105685
68	0x3c6cbc21	0.01444915
69	0xbd1bd08c	-0.038040683
70	0x3d1f1410	0.038837492
71	0x3b55bc18	0.0032613333
72	0xbd826292	-0.06366457
73	0xbcf1000f	-0.029418973
74	0xbdc2812b	-0.09497293
75	0x3b0b3c75	0.0021245752
76	0x3c38c423	0.011277231
77	0x3d64d16e	0.05586379
78	0xbbc69ea4	-0.006061392
79	0xbcf2afcd	-0.029624844
80	0xbd4125c1	-0.047155146
81	0xbb4b34af	-0.0031006744
82	0xbbc1819c	-0.005905343
83	0xbb64f131	-0.00349338
84	0x3c065f80	0.00820148
85	0x3c8f3ee6	0.017486047
86	0x3d39d04a	0.045364656
87	0xbcb2b059	-0.021812605
88	0xbd3faf70	-0.04679817
89	0xbc4ad482	-0.012379767
90	0xbd8be5e6	-0.06830959
91	0xbd285c35	-0.04110356
92	0x3dae533a	0.08511968
93	0x3c91e545	0.01780952
94	0xbcfc78bd	-0.030819291
95	0xbd3d5ec2	-0.046232946
96	0x3cd556da	0.02604239
97	0x3bc2cc61	0.005944774
98	0x3cf28c45	0.029607901
99	0x3d0b0d2a	0.0339481
100	0xbad5929c	-0.0016294303
101	0xbc7f0a23	-0.015566382
102	0x3c7e1baf	0.01550953
103	0xbd18e24a	-0.03732518
104	0x3c98acc9	0.018637078
105	0x3d99276f	0.074782245
106	0xbcb35345	-0.021890292
107	0xbd290d88	-0.04127267
108	0xbd2df0c8	-0.042465955
109	0x3d4dc065	0.05023231
110	0x3cf8fa18	0.030392691
111	0x3c291450	0.010319784
112	0xbcf06e8b	-0.029349586
113	0xbd490288	-0.04907468
114	0xbd8925b3	-0.06696644
115	0xbd280dc9	-0.04102877
116	0x3d4c550d	0.0498858
117	0xbd1a17d5	-0.037620384
118	0x3c96bea9	0.01840146
119	0xbaa7d9b9	-0.0012805975
120	0x3cc50d96	0.02405433
121	0x3c5a17cb	0.013311337
122	0x3ccd8c13	0.025091207
123	0xbd097291	-0.033556525
124	0xbc783707	-0.015149838
125	0xbc5f0f75	-0.013614525
126	0xba4ad168	-0.00077368924
127	0x3d09cd96	0.033643328
128	0xbd5d958e	-0.054097705
129	0x3d2a5b8c	0.041591212
130	0x3aca5616	0.0015437033
131	0x3c29b516	0.010358116
132	0x3d161299	0.03663883
133	0x3ab49e78	0.0013780138
134	0xbc847952	-0.016171131
135	0xbcbdfea5	-0.023192713
136	0x3d0cf52e	0.03441351
137	0x3cb4155f	0.021982847
138	0xbd53cafd	-0.051707257
139	0xbd5d845c	-0.054081306
140	0x3cd175a0	0.025568783
141	0x3ccf46bc	0.025302283
142	0x3c27087c	0.010194894
143	0x3bfa318c	0.007635301
144	0xbd81197c	-0.06303689
145	0xbd3b4f55	-0.045729954
146	0xbae670e1	-0.0017581248
147	0x3d76a664	0.060217276
148	0xbcffc86b	-0.031223496
149	0xbd081878	-0.03322646
150	0xbd83e581	-0.06440259
151	0x3d10fcae	0.035397224
152	0x3dd5795e	0.104235396
153	0x3d42b8f8	0.04753968
154	0xbd2ddffe	-0.042449944
155	0xbd6ce5e8	-0.057836443
156	0x3d6548b4	0.05597754
157	0xbb874b83	-0.0041288747
158	0xbcf48d28	-0.029852465
159	0xbc654b8c	-0.013995063
160	0x3c4a1943	0.012335124
161	0x3d56c5c3	0.052434694
162	0x3d654aac	0.055979416
163	0x3d398aed	0.045298506
164	0xbd3c54aa	-0.04597918
165	0x3ccdea47	0.025136126
166	0xbcb7ad66	-0.02242155
167	0xbc326b59	-0.0108898515
168	0x3d03ace1	0.032147292
169	0xbd854de0	-0.06508994
170	0xbdae8730	-0.08521879
171	0x3d850a49	0.06496102
172	0xbc9c9c21	-0.019117417
173	0x3c98620c	0.01860144
174	0xbd1c97a8	-0.03823057
175	0x3d4bb924	0.04973711
176	0x3d3c7732	0.04601211
177	0xbc0cc449	-0.00859172
178	0xbc88b0cd	-0.016685868
179	0x3c9db10a	0.019249458
180	0x3b9f701d	0.00486566
181	0x3d3dfb37	0.046382155
182	0x3b862925	0.0040942603
183	0xbd3d48d7	-0.046212044
184	0x3bc4dc4b	0.0060077063
185	0x3cd10f06	0.025519859
186	0x3d30e1a8	0.043183953
187	0xbccc3e9d	-0.0249322
188	0xbcf0806b	-0.02935811
189	0xbc86c597	-0.01645164
190	0xbccda0f1	-0.025101157
191	0x3c152088	0.009101994
192	0x3c5ac4b2	0.01335256
193	0xbcd059d1	-0.025433453
194	0x3cc6ade5	0.024252841
195	0x3cbecdde	0.023291524
196	0xbcf248a1	-0.029575648
197	0xbd40923d	-0.047014464
198	0xbd6d8215	-0.057985384
199	0x3c20d7db	0.009817089
200	0x3d2caa49	0.042154584
201	0x3cd68d78	0.026190504
202	0x3bb9842a	0.005661507
203	0xbd205165	-0.039140124
204	0x3d43b8ff	0.047783848
205	0xbc969011	-0.018379243
206	0xbcaee346	-0.021348607
207	0xbd74bd65	-0.059750933
208	0x3d5fc5b7	0.054631915
209	0xbd154676	-0.03644415
210	0x3c7e7400	0.015530586
211	0xbc1b6c39	-0.0094862515
212	0x3d2a26d9	0.041540954
213	0xbcba7fd5	-0.022766033
214	0xbd293892	-0.041313715
215	0x3d56071c	0.052252874
216	0x3bdc0ecc	0.006715631
217	0x3d21cece	0.039503865
218	0xbd1cbd62	-0.038266547
219	0x3c92b8f8	0.017910466
220	0x3dfb4408	0.12268835
221	0x3dc5cdee	0.096584186
222	0xbc8131c6	-0.015770804
223	0xbbb4be16	-0.005515824
224	0x3ca06ace	0.019582178
225	0x3cbc0cee	0.022955384
226	0x3bb0ce7e	0.0053957095
227	0x3c8ca72d	0.01716956
228	0x3d0c3680	0.034231663
229	0x3d256efe	0.040389054
230	0xbd89c405	-0.06726841
231	0x3d85d292	0.06534304
232	0x3ca88a37	0.020573718
233	0xbd567884	-0.052361026
234	0xbd836b9b	-0.064170085
235	0x3dfceaff	0.123495094
236	0x3da80619	0.08204288
237	0xbcfc97ee	-0.030834164
238	0xbc2b8c09	-0.010470399
239	0x3ce25d83	0.02763248
240	0x3d3ec45c	0.04657398
241	0x3bf68071	0.0075226356
242	0xbc3b402d	-0.011428875
243	0xbd5968b4	-0.05307837
244	0xbd6e9ff9	-0.05825803
245	0xbcbb0447	-0.022829188
246	0x3d42e6c3	0.047583353
247	0xbc64d72e	-0.013967318
248	0x3d387c10	0.04504019
249	0xbce96b55	-0.028493563
250	0x3c6a0e38	0.014285617
251	0xbbd1628b	-0.006389921
252	0x3d18395e	0.037164085
253	0x3d50e489	0.050999198
254	0x3d23de0a	0.040006675
255	0xbd4134b0	-0.047169387

fc.bias f4 [10]
0	0x3cb2f1e3	0.021843856
1	0xbc69829d	-0.014252332
2	0xbb747f2c	-0.0037307246
3	0xbd0a3617	-0.03374299
4	0x3c2c1820	0.010503799
5	0xbbc252ee	-0.005930296
6	0xbcbbaea9	-0.022910433
7	0x3c86b33f	0.016442893
8	0xbb65b0fd	-0.003504812
9	0xbcd398d4	-0.02582971

momentum_buffer f4 [10, 1, 5, 5]
0	0xbc432a22	-0.011911901
1	0xbc864c3c	-0.016393773
2	0xbc573cee	-0.013137085
3	0x3a040030	0.00050354283
4	0x3c011bb0	0.007880136
5	0xbbbed739	-0.0058239964
6	0xbc74c314	-0.014939088
7	0xbc22bd50	-0.009932831
8	0x3a9f7660	0.0012166016
9	0x3b6437e7	0.003482336
10	0xbb3b48a2	-0.0028577228
11	0xbbeed15b	-0.0072881407
12	0xbbbf006a	-0.005828907
13	0x3b88cdbf	0.0041749175
14	0x3ad7a48a	0.0016452235
15	0xbb6a48f8	-0.003574906
16	0xbbd3ee00	-0.006467581
17	0xbb927b80	-0.0044702888
18	0x3b289d64	0.0025728578
19	0x3b0f1176	0.0021830476
20	0x3998cc88	0.00029144087
21	0xbb67ed7e	-0.003538936
22	0xb9d65250	-0.00040878588
23	0x3a919fd8	0.0011110259
24	0xbb5b3c36	-0.0033452637
25	0xbcde3280	-0.02712369
26	0xbd14ae20	-0.03629887
27	0xbd486a53	-0.048929524
28	0xbd19fc81	-0.037594322
29	0xbc896592	-0.016772065
30	0xbd1b1948	-0.037865907
31	0xbd66d3be	-0.056354277
32	0xbd727a30	-0.05919856
33	0xbd1251a5	-0.035722394
34	0xbc20702e	-0.009792371
35	0xbd477626	-0.04869666
36	0xbd89e950	-0.06733954
37	0xbd26f1df	-0.04075801
38	0xbc1a70ea	-0.009426335
39	0x3c0886b8	0.008332901
40	0xbd5cd7a6	-0.053916596
41	0xbd5518f6	-0.052025758
42	0xbc8d6708	-0.017261043
43	0x3c619416	0.013768217
44	0x3c222cdd	0.009898392
45	0xbd2101f1	-0.039308492
46	0xbd05bd7e	-0.032651417
47	0xbc0108bb	-0.007875617
48	0x3b370185	0.002792449
49	0xbb14627c	-0.002264171
50	0x3c279820	0.0102291405
51	0x3b66cf4c	0.0035218773
52	0xbbed0498	-0.0072332136
53	0xbc4be7a0	-0.01244536
54	0xbc7acae1	-0.015307159
55	0x3bf3aa1e	0.007436051
56	0xbb4705d4	-0.0030368464
57	0xbbc6807e	-0.006057798
58	0xbc347f2a	-0.011016646
59	0xbc359c7e	-0.011084674
60	0x3bdc743f	0.006727725
61	0x3abf4170	0.0014591645
62	0xbbc71ce8	-0.006076444
63	0xbc5e04ef	-0.013550981
64	0xbb9a0df8	-0.0047013722
65	0x3be521fb	0.006992576
66	0x3baf3592	0.0053469623
67	0x3b23b99c	0.0024982458
68	0x3a4f2df8	0.0007903273
69	0x3be7c380	0.007072866
70	0x3b5b0cbe	0.0033424343
71	0xbb477956	-0.0030437312
72	0x3ad4c25f	0.0016232244
73	0x3baabd44	0.0052105505
74	0x3c6f8a26	0.0146203395
75	0xbc36859a	-0.0111402515
76	0xbc19776c	-0.009366851
77	0xbb95937e	-0.0045647016
78	0xbbda4755	-0.0066613355
79	0x3bdcc566	0.006737399
80	0xbcdfe73d	-0.027331943
81	0xbc5741e8	-0.013138272
82	0xbc58f7ec	-0.013242703
83	0xbb3bbd2d	-0.0028646693
84	0x3c41e4d4	0.011834342
85	0xbcf1e8ce	-0.029529955
86	0xbcaff1a4	-0.021477528
87	0xbc8a65ac	-0.016894184
88	0x3bc87255	0.006117145
89	0x3bd7c1ab	0.0065843663
90	0xbd1184af	-0.035526928
91	0xbceffc07	-0.02929498
92	0xbc3d2d70	-0.011546478
93	0xb94d96c0	-0.00019606482
94	0x3bdd90ea	0.00676166
95	0xbc56c154	-0.013107616
96	0xba80cce8	-0.0009826692
97	0x3c096694	0.008386273
98	0x3bc240bd	0.0059281276
99	0x3c3d780e	0.011564268
100	0xbb3d5a70	-0.0028893016
101	0x3b1c8556	0.0023883185
102	0x3c73675c	0.014856186
103	0x3cd110c5	0.025520692
104	0x3ca45583	0.020060306
105	0x3c60afd0	0.013713792
106	0x3c64cfae	0.01396553
107	0x3cb5115c	0.022103004
108	0x3ca68ee4	0.020331807
109	0x3c1143bb	0.008866246
110	0x3cf01877	0.02930854
111	0x3c760634	0.015016127
112	0x3c30b3b0	0.010785028
113	0x3bca8f65	0.0061816447
114	0x3c0dc609	0.008653172
115	0x3d05bf09	0.03265289
116	0x3c6fc6c6	0.014634794
117	0x3c0a3d75	0.008437504
118	0x3c001118	0.0078165755
119	0x3c8f11b8	0.017464504
120	0x3cb2f32c	0.021844469
121	0x3c872c23	0.016500538
122	0x3c860288	0.016358629
123	0x3ca88ed8	0.020575926
124	0x3cb3d070	0.021949977
125	0xbd0e39ca	-0.03472308
126	0xbcc96fa7	-0.024589373
127	0xbbd98c8a	-0.006639068
128	0x3b814aec	0.003945699
129	0x3c2e2a50	0.010630205
130	0xbce908e3	-0.02844662
131	0xbce9ea00	-0.028553963
132	0xbc9f4bf4	-0.019445397
133	0xbc017792	-0.007902043
134	0x3bfdb0b6	0.007742013
135	0x3b9b8f78	0.0047473274
136	0xbc0cd796	-0.008596322
137	0xbb8bc482	-0.004265369
138	0xba8bb43a	-0.001065857
139	0x3c84632d	0.016160572
140	0x3c5dae6d	0.013530356
141	0x3bb16f08	0.0054148473
142	0x3b04913e	0.0020228173
143	0x3b859c9d	0.0040775076
144	0x3c77deb5	0.015128781
145	0x3c8bfb4c	0.017087601
146	0x3c90d8d3	0.017681515
147	0xba482a48	-0.0007635695
148	0xb969a740	-0.00022282917
149	0x3c608b91	0.01370515
150	0x3b250ea0	0.002518572
151	0xbc479ca2	-0.01218334
152	0xbd079d7e	-0.03310918
153	0xbd1718ce	-0.03688889
154	0xbbf015ef	-0.0073268334
155	0xbb63eefe	-0.0034779902
156	0xbcbea156	-0.02327029
157	0xbd1b3aa8	-0.037897736
158	0xbcc58414	-0.024110831
159	0xbb166172	-0.0022946266
160	0xbc4fdeda	-0.012687409
161	0xbd008ea4	-0.031386033
162	0xbd03eb1e	-0.032206647
163	0xbc49185c	-0.012273874
164	0x3bffd854	0.0078077707
165	0xbcafaf78	-0.021445975
166	0xbd38bbb0	-0.045100868
167	0xbd0bebdc	-0.03416048
168	0xbc0cf9d7	-0.008604488
169	0xb9db9f70	-0.00041889725
170	0xbcebd76e	-0.028789248
171	0xbd378b06	-0.044810317
172	0xbd02e6f6	-0.031958543
173	0xbc8544db	-0.016268184
174	0xbb851d92	-0.004062363
175	0x3b234b64	0.0024916762
176	0x3bc10d57	0.005891483
177	0x3bf8046e	0.0075688874
178	0xbbbe7db2	-0.005813324
179	0xbcf3a280	-0.029740572
180	0x3c40c3f1	0.011765466
181	0x3c2ea6dc	0.0106599
182	0x3be18a5e	0.0068829497
183	0xbc9a9db1	-0.018874021
184	0xbd1af21d	-0.037828553
185	0x3c3cf07a	0.011531943
186	0x3c17c568	0.009263374
187	0x39a14a00	0.00030763447
188	0xbcc41ce3	-0.023939556
189	0xbd090a61	-0.033457164
190	0x3b571e3f	0.0032824425
191	0x3b85f51c	0.004088057
192	0xbc129a46	-0.0089479145
193	0xbced2c45	-0.028951773
194	0xbd148b34	-0.036265567
195	0xbbc5a242	-0.0060313055
196	0xbc4681b8	-0.012115888
197	0xbcae1329	-0.02124937
198	0xbd1434d3	-0.03618319
199	0xbd1302d0	-0.035891354
200	0x3a922e13	0.0011152647
201	0x3b8b4c3c	0.004251031
202	0x3b641a61	0.0034805762
203	0x3c406905	0.011743789
204	0x3ca5be17	0.020232243
205	0x3b9c7a1e	0.0047752997
206	0x3c5e04e3	0.01355097
207	0x3c61f33b	0.013790901
208	0x3ca00226	0.019532274
209	0x3c93f4a8	0.018060997
210	0x3b477c34	0.003043902
211	0x3c603623	0.013684782
212	0x3c10a287	0.008827812
213	0x3c0f2cf5	0.008738746
214	0x3c798d0a	0.01523138
215	0x3c012f0a	0.00788475
216	0x3c3e1fce	0.0116042625
217	0x3bcae09b	0.006191326
218	0x3b07f5b0	0.0020745806
219	0x3c219ffd	0.009864804
220	0x3c89a04c	0.016800068
221	0x3c903e9e	0.017607983
222	0x3c3ceb25	0.011530672
223	0x3c3bedc9	0.011470267
224	0x3bca20c2	0.006168456
225	0xbc3e9a2d	-0.011633438
226	0xbc2db887	-0.010603077
227	0xbc20aa13	-0.009806174
228	0xbc8d2e36	-0.01723395
229	0xbc9ddee8	-0.019271329
230	0xbb057004	-0.0020360956
231	0xbb028aa0	-0.0019919053
232	0xbb645f6c	-0.0034846915
233	0x3af0f000	0.0018382072
234	0xbb1be6f4	-0.0023788782
235	0x3c320114	0.010864515
236	0x3c8095f2	0.0156965
237	0x3ca76348	0.020433083
238	0x3b68a93a	0.0035501258
239	0xbb23dd14	-0.00250036
240	0x3cadc97e	0.021214243
241	0x3cd71a17	0.026257558
242	0x3bb754f6	0.005594845
243	0xbbeb5fff	-0.0071830745
244	0xbc051f82	-0.008125188
245	0x3cd5dd29	0.026106434
246	0x3c96b015	0.01839451
247	0x3b3e2485	0.0029013467
248	0xbada3194	-0.0016646856
249	0xbb434d4d	-0.0029800714

momentum_buffer f4 [10]
0	0xbb061bc1	-0.002046332
1	0xbcbda13f	-0.023148177
2	0xba86ca05	-0.0010283595
3	0x3b8b0106	0.0042420654
4	0x3c4c4fb0	0.012470171
5	0xbbcd29ac	-0.006261071
6	0xbbce065a	-0.0062873783
7	0xbc130bf6	-0.00897502
8	0x3c028d42	0.007968249
9	0x3b8cdde2	0.0042989114

momentum_buffer f4 [20, 10, 5, 5]
0	0x3c11333d	0.008862314
1	0x3c132597	0.00898113
2	0x3c2491c5	0.01004452
3	0x3c93ee4d	0.018057967
4	0x3c92660a	0.017870922
5	0x3c5c28ad	0.013437432
6	0x3c22e4ce	0.009942247
7	0x3c2d1717	0.010564587
8	0x3c8ff1a9	0.017571287
9	0x3ca4c0e2	0.020111505
10	0x3c434f24	0.011920724
11	0x3c740e8e	0.014896048
12	0x3c63cdd8	0.013904057
13	0x3c7bc75e	0.015367357
14	0x3c981f88	0.018569723
15	0x3beef3f8	0.007292267
16	0x3c841b57	0.016126318
17	0x3c27b48b	0.010235916
18	0x3c163dce	0.009170009
19	0x3c5c6f3b	0.013454254
20	0x3c533dca	0.01289315
21	0x3c77e32a	0.015129844
22	0x3bbae206	0.0057032136
23	0x3bc254ca	0.005930518
24	0x3c363b92	0.011122601
25	0x3d05fb5c	0.032710418
26	0x3d170e73	0.036879014
27	0x3d394b78	0.04523799
28	0x3d72dcb0	0.059292495
29	0x3d799422	0.060932286
30	0x3d229a3f	0.03969788
31	0x3d19f588	0.037587672
32	0x3d3aee52	0.045637436
33	0x3d545b14	0.05184467
34	0x3d70c131	0.05877799
35	0x3caba06c	0.020950519
36	0x3d05d32c	0.032672092
37	0x3d0cf9c6	0.03441789
38	0x3d1b1d9a	0.037870027
39	0x3d4ab7ba	0.04949162
40	0x3d085bd0	0.033290684
41	0x3d1ec16b	0.038758676
42	0x3cf658d1	0.030071648
43	0x3d053def	0.032529768
44	0x3d1796b6	0.037008964
45	0x3d2adf24	0.04171671
46	0x3d152662	0.036413558
47	0x3cc99863	0.024608796
48	0x3cb20130	0.021729082
49	0x3d132710	0.035925925
50	0x3bcc47b8	0.0062341355
51	0x3bf55960	0.007487461
52	0x3c6d71c4	0.014492456
53	0x3c4a3fce	0.012344314
54	0x3c491fba	0.012275631
55	0x3bc51c82	0.0060153613
56	0x3c116f77	0.008876673
57	0x3c4aaac6	0.012369817
58	0x3c85ec6f	0.016348092
59	0x3c594df9	0.013263219
60	0x3c0d72d8	0.008633338
61	0x3b8d7f98	0.004318189
62	0x3bebb9b8	0.0071937703
63	0x3c31b57b	0.010846491
64	0x3c195680	0.009359002
65	0x3c2dd918	0.010610841
66	0x3b72d1b2	0.0037051258
67	0x3bb714e6	0.005587208
68	0x3bfc6d1c	0.0077034365
69	0x3c19d079	0.009388083
70	0x3c0729cf	0.008249714
71	0x3b67efce	0.0035390737
72	0x3abcc67e	0.0014402417
73	0x3bbb0994	0.005707929
74	0x3bea3068	0.0071468838
75	0x3d3c9978	0.046044797
76	0x3d237a50	0.03991157
77	0x3d370754	0.044684723
78	0x3d735f7a	0.059417225
79	0x3d96148e	0.07328139
80	0x3d11a684	0.035559192
81	0x3d13c110	0.03607279
82	0x3d08b17b	0.033372384
83	0x3d1e5d8f	0.038663443
84	0x3d3e13a2	0.046405442
85	0x3cd89132	0.026436422
86	0x3cc19d98	0.023634717
87	0x3c82a558	0.015947983
88	0x3c882406	0.01661874
89	0x3cd7daae	0.026349392
90	0x3d15bc34	0.036556438
91	0x3d0c24fa	0.03421495
92	0x3ccd38b0	0.025051445
93	0x3ccf2158	0.025284454
94	0x3d1a0120	0.03759873
95	0x3d0ec6bc	0.034857497
96	0x3ce8da94	0.028424539
97	0x3c1d99e2	0.009619208
98	0x3cc82cd8	0.024435446
99	0x3d2d93c6	0.042377256
100	0x3c0b1c88	0.008490689
101	0x3c8e5ad2	0.01737729
102	0x3ceab4a4	0.02865059
103	0x3ce6df5a	0.028182674
104	0x3c9b2011	0.018936189
105	0x3c7ce3ec	0.0154352
106	0x3c87013c	0.01648008
107	0x3c9986e5	0.01874108
108	0x3cce6312	0.025193725
109	0x3ccc1c4c	0.024915837
110	0x3c1aba8e	0.009443892
111	0x3bebcab6	0.007195796
112	0x3c658880	0.014009595
113	0x3c87a6fb	0.016559115
114	0x3c99901c	0.018745475
115	0x3b0a4cae	0.0021102834
116	0x3bb24e79	0.0054414836
117	0x3babbff7	0.00524139
118	0x3bb57fa2	0.0055388967
119	0x3c1908c6	0.009340471
120	0x3c79664e	0.015222145
121	0x3c8c7aee	0.017148461
122	0x3c84718a	0.01616742
123	0x3c81cec7	0.01584567
124	0x3c5637cc	0.013074826
125	0x3c47e303	0.01220012
126	0x3c91f303	0.017816072
127	0x3d116e18	0.035505384
128	0x3d43bd88	0.047788173
129	0x3d3974af	0.045277294
130	0x3cd87f38	0.02642785
131	0x3cc9245e	0.024553474
132	0x3ce8c1b5	0.02841268
133	0x3d2e40a8	0.04254213
134	0x3d3f76a6	0.04674401
135	0x3ccc1fed	0.024917567
136	0x3cbc1a90	0.022961885
137	0x3ca97d44	0.020689614
138	0x3cf4b25c	0.029870205
139	0x3cf8c123	0.030365532
140	0x3ca97bf4	0.020688988
141	0x3c42dec4	0.011893932
142	0x3c28ae63	0.010295483
143	0x3c24e46e	0.0100642275
144	0x3c9fca34	0.019505598
145	0x3cd9e3aa	0.026597816
146	0x3cb9cf36	0.022681814
147	0x3c92d7ee	0.017925229
148	0x3cb19e14	0.021681823
149	0x3ce1fb66	0.027585696
150	0x3cfdbbe0	0.030973375
151	0x3cedf52b	0.02904757
152	0x3d0a0182	0.033692844
153	0x3d22c0a4	0.039734498
154	0x3d2a915e	0.04164254
155	0x3ce1b7da	0.027553488
156	0x3ceab0e8	0.028648809
157	0x3d1c8ad4	0.038218334
158	0x3d328454	0.04358323
159	0x3d3be040	0.04586816
160	0x3c9f6dd7	0.019461555
161	0x3d043c2d	0.03228395
162	0x3cfe4c87	0.03104235
163	0x3d1904a4	0.03735794
164	0x3d39e8cb	0.045388024
165	0x3ccd8958	0.025089905
166	0x3d0c0746	0.034186624
167	0x3c8de132	0.017319296
168	0x3ce547ed	0.027988398
169	0x3d016968	0.031594664
170	0x3d04e049	0.032440457
171	0x3cfdeb0d	0.03099587
172	0x3c2caf82	0.010539891
173	0x3cb6490c	0.022251628
174	0x3ce11842	0.027477387
175	0x3c354e31	0.011066006
176	0x3c9b62f6	0.018968087
177	0x3cbd0169	0.023071961
178	0x3cb7cb9c	0.022435956
179	0x3c9f5c63	0.019453233
180	0x3c4a9fba	0.012367183
181	0x3ca39fa8	0.019973591
182	0x3cb137b0	0.021633
183	0x3cbccfee	0.023048367
184	0x3cd8762a	0.026423533
185	0x3c1b8ce6	0.009494042
186	0x3c198c76	0.009371867
187	0x3c9b8226	0.018982958
188	0x3cafc9e6	0.021458577
189	0x3cd3be82	0.025847677
190	0x3c66ddc4	0.014090959
191	0x3b41aa09	0.0029550812
192	0x3c51501d	0.012775448
193	0x3c5af762	0.013364645
194	0x3c9a539d	0.018838698
195	0x3c2eb164	0.01066241
196	0x3b3412d4	0.0027477043
197	0x3c5962e0	0.013268203
198	0x3c6109de	0.013735263
199	0x3cbdd03c	0.023170583
200	0x3c5c7c2a	0.013457337
201	0x3c5f40d7	0.013626299
202	0x3c3ae4f9	0.01140713
203	0x3c3dd704	0.011586908
204	0x3c374bf8	0.011187546
205	0x3c02cafc	0.007982966
206	0x3c36cc7b	0.01115715
207	0x3c2a17ff	0.010381698
208	0x3bef5b5e	0.007304593
209	0x3bde7d92	0.0067898715
210	0xbadd6eca	-0.001689398
211	0x3bf84891	0.00757701
212	0x3bd7acc1	0.006581873
213	0xb9183bc0	-0.00014518108
214	0x3bc51d3b	0.0060154474
215	0x3ad93800	0.0016572475
216	0x3c145e03	0.009055617
217	0x3bba9c3a	0.005694893
218	0xba8b3b3c	-0.0010622512
219	0x3be30b58	0.0069288425
220	0x3bc77fff	0.0060882564
221	0x3c05e4fc	0.00817227
222	0x3c1adca9	0.009452024
223	0x3b1432ba	0.0022613243
224	0x3c182cd8	0.009288035
225	0x3c4e728a	0.01260055
226	0x3cfba9fd	0.030720705
227	0x3d322995	0.043496687
228	0x3d31b6ea	0.04338733
229	0x3d075d9e	0.033048265
230	0x3caf9e1f	0.021437703
231	0x3cdf4756	0.027255695
232	0x3d24826a	0.040163435
233	0x3d4051ac	0.04695289
234	0x3d37a9eb	0.04483978
235	0x3cd9be28	0.026579931
236	0x3ca8ea76	0.020619612
237	0x3cfe1c5a	0.031019378
238	0x3d054440	0.03253579
239	0x3d209d10	0.039212286
240	0x3c569526	0.013097083
241	0x3bf98bfd	0.007615565
242	0x3c8d5ba3	0.01725561
243	0x3cac4318	0.021028087
244	0x3cf5d226	0.030007433
245	0x3cb4f42d	0.022089088
246	0x3c58b0ea	0.013225773
247	0x3ca6ac1b	0.020345738
248	0x3cc51c38	0.024061307
249	0x3ccb6aef	0.024831263
250	0xb9d41758	-0.00040453183
251	0x3b9def2e	0.004819772
252	0x3ba6277e	0.005070626
253	0x3c01cad2	0.007921891
254	0x3c3a5c54	0.011374552
255	0xbaa486e4	-0.0012552408

momentum_buffer f4 [20]
0	0x3cb43bef	0.022001235
1	0x3b300238	0.0026856791
2	0xbb7bcb1c	-0.0038420623
3	0x3bffecc4	0.007810207
4	0x3c4f8581	0.012666107
5	0x3ca186ba	0.019717563
6	0x39fd6e30	0.00048338016
7	0xb98add50	-0.00026486302
8	0x3cf13c72	0.029447768
9	0x3c5e2e6c	0.0135608725
10	0x3b55c386	0.0032617762
11	0x39874398	0.00025799568
12	0x3ca08a90	0.019597322
13	0xbc5a762e	-0.01333384
14	0xbc35aa8d	-0.011088026
15	0x3b85f16a	0.0040876167
16	0x3a96746a	0.0011478786
17	0xbb3115c8	-0.002702104
18	0x3b9df74a	0.004820739
19	0xbb300367	-0.0026857497

momentum_buffer f4 [10, 320]
0	0x3b61dbb8	0.0034463238
1	0x3b941a94	0.00451977
2	0xbb9514e8	-0.0045496114
3	0xbbbe15f4	-0.005800957
4	0xbacb00b0	-0.0015487876
5	0xbc06f27d	-0.008236525
6	0x392f9cf0	0.00016747764
7	0x3c8e46a0	0.017367661
8	0xbc6698d0	-0.014074519
9	0xbc86cf58	-0.016456291
10	0xbc3b62f4	-0.0114371665
11	0xbc08642c	-0.008324664
12	0xbcde7a65	-0.027157972
13	0xbca96bf8	-0.020681366
14	0x3b08e7a8	0.002089003
15	0x3c3bb142	0.011455836
16	0x3c8abf02	0.016936783
17	0xbc87b358	-0.01656501
18	0xbd04b415	-0.032398302
19	0xbd22a38a	-0.039706744
20	0xbc9b4594	-0.018954076
21	0xbce60a40	-0.02808106
22	0x3c231d04	0.009955648
23	0x3bb0e4ac	0.0053983536
24	0xbd03f228	-0.03221336
25	0xbca9a50e	-0.020708587
26	0xbd422bc1	-0.04740501
27	0xbd27d6e4	-0.04097642
28	0xbd671ae2	-0.05642212
29	0xbd0f6099	-0.035004232
30	0xbc809660	-0.015696704
31	0x3b40dab8	0.0029427242
32	0xbb83b378	-0.004019197
33	0xbb8af468	-0.0042405613
34	0x3b16dcba	0.0023019747
35	0xbc1b78b4	-0.009489227
36	0xbbbaefb1	-0.005704843
37	0x3a02b13f	0.0004985518
38	0xb9e6aa18	-0.00043995748
39	0xba4e11ea	-0.0007860946
40	0x3a93c28d	0.0011273191
41	0x3a76ce36	0.0009414883
42	0x39fb0dc4	0.00047884707
43	0x3a13c08c	0.00056362967
44	0xbb80076c	-0.0039071348
45	0xbb895d09	-0.004191999
46	0xba638407	-0.00086790364
47	0x397201c2	0.00023079573
48	0x3c2f7950	0.0107100755
49	0x3c11f008	0.008907326
50	0xbb36d388	-0.0027897079
51	0xbc3c8b1a	-0.011507774
52	0x3ba9ba20	0.0051796585
53	0xbca8f029	-0.02062233
54	0xbc7b9034	-0.015354205
55	0xbbcd3d98	-0.006263446
56	0xbd83a1e7	-0.06427365
57	0xbcfe78bf	-0.031063436
58	0xbbf97330	-0.0076126084
59	0xbcf05808	-0.029338852
60	0xbd497778	-0.0491862
61	0x3b8044c0	0.0039144456
62	0xbb3431f8	-0.0027495604
63	0xbcd77644	-0.02630151
64	0x3cae845b	0.021303346
65	0x3c2bf082	0.010494353
66	0xbc70dc30	-0.014700934
67	0xbcfb503a	-0.030677903
68	0x3b3d59f0	0.0028892718
69	0xba0e9cc0	-0.00054402277
70	0xbbda5470	-0.0066628978
71	0xbb9f6bb8	-0.004865136
72	0xbc3298ee	-0.010900719
73	0x39a03280	0.00030555204
74	0xbb17c938	-0.0023160707
75	0xbb7320dc	-0.0037098443
76	0xbd2523f9	-0.04031751
77	0xbd35f55c	-0.044423446
78	0xbcea2306	-0.028581154
79	0xbc54252c	-0.012948316
80	0x3c042346	0.0080650505
81	0xbb4b25f8	-0.0030997973
82	0xbc33024e	-0.010925842
83	0xbbf1f732	-0.0073842043
84	0x3b843a4c	0.00403527
85	0x3adefa80	0.0017011911
86	0x3c0cab54	0.00858577
87	0xb8d74800	-0.0001026541
88	0xbc7a6c2a	-0.015284577
89	0xbc5d535d	-0.013508645
90	0xbb1abd10	-0.0023611225
91	0xbc6e23d8	-0.014534913
92	0xbce2cc78	-0.027685389
93	0xbc3df936	-0.011595061
94	0x3aabc978	0.0013106307
95	0xbc003a77	-0.007826439
96	0xbab1d56b	-0.0013567632
97	0x3c236a39	0.009974056
98	0xbbbab534	-0.0056978706
99	0x3b5f6294	0.0034085857
100	0xbba1464c	-0.00492171
101	0xbcca98a1	-0.024730982
102	0xbbec539a	-0.0072121145
103	0x3b3504c2	0.0027621244
104	0xbca8302a	-0.020530779
105	0xbc104c38	-0.0088072345
106	0x3c4409c9	0.011965224
107	0xbcb327a4	-0.021869488
108	0xbb904583	-0.0044028177
109	0x3c11d828	0.008901633
110	0x3bc52fda	0.0060176672
111	0xbc195ece	-0.009360982
112	0xbbbcb246	-0.0057585565
113	0xbb0d8d10	-0.0021598972
114	0xb6d8f000	-6.4652413e-06
115	0xbb7730ac	-0.003771822
116	0xbbed18b9	-0.007235613
117	0xbb91621a	-0.0044367434
118	0xbb3a9f2d	-0.0028476224
119	0xbabf20e5	-0.0014581947
120	0xbc598dfb	-0.01327848
121	0xbbd77ff8	-0.0065765344
122	0xbb3da70e	-0.0028938684
123	0x3bc9ee49	0.006162439
124	0xbb057d42	-0.002036885
125	0x3b92ae18	0.00447632
126	0x3c274ee0	0.010211676
127	0x3b0208fb	0.0019841779
128	0x3c05407d	0.008133051
129	0xbbb515a0	-0.0055262595
130	0xbc5e35dc	-0.013562646
131	0xbc6d1a88	-0.014471658
132	0xba90ff80	-0.0011062473
133	0x3b02cf48	0.0019959975
134	0x3c815379	0.015786873
135	0x3c2eba0d	0.010664475
136	0xbb3f9ff4	-0.0029239627
137	0xbc6e5526	-0.014546668
138	0xbcbd4f38	-0.023109064
139	0xbc7234dc	-0.0147831105
140	0xbd392cf1	-0.045208875
141	0xbcff30b6	-0.031151157
142	0xbc348344	-0.011017624
143	0x3bd86868	0.006604243
144	0x3d0237f5	0.031791646
145	0x3c92652d	0.01787051
146	0xbccf1816	-0.02528004
147	0xbd00bcd7	-0.03143009
148	0x3b764840	0.0037579685
149	0xbcbcf7a2	-0.0230673
150	0xbcef57e6	-0.029216718
151	0xbc35dbbc	-0.011099752
152	0xbd4846d4	-0.048895672
153	0xbcdb0dfe	-0.02674007
154	0xbb0284e0	-0.0019915625
155	0xbd309831	-0.04311389
156	0xbd2c7801	-0.042106632
157	0xbcf52ef6	-0.02992962
158	0xbd200aec	-0.039072916
159	0xbd28a138	-0.041169375
160	0x3c957fb3	0.018249368
161	0xba6144e0	-0.0008593332
162	0xbca068c5	-0.019581208
163	0xbc9af3ea	-0.018915135
164	0x3bad6adc	0.0052922796
165	0xbbbbd864	-0.005732583
166	0x3b15d0c8	0.002286004
167	0xbb6b9c50	-0.0035951324
168	0xbbc4478c	-0.0059899744
169	0x3b18fc19	0.0023343621
170	0xbbfe0b80	-0.0077528358
171	0xbcd49f04	-0.02595473
172	0xbcdd9ae5	-0.027051399
173	0xbcfc3a56	-0.030789535
174	0xbcc3e140	-0.023911119
175	0xbc316d7a	-0.010829324
176	0xbbf9b587	-0.0076205167
177	0xbc06e7b0	-0.00823395
178	0xbc259018	-0.010105155
179	0x3bf2dbb9	0.007411447
180	0xbc05fdef	-0.008178218
181	0xbb827cbe	-0.0039821556
182	0xbc23a909	-0.009989032
183	0xbb6bdb72	-0.0035988954
184	0xbacbccb5	-0.0015548678
185	0xbc20ed98	-0.009822272
186	0xbc5b998c	-0.013403308
187	0xbb0f2c9c	-0.0021846658
188	0x3aae5980	0.001330182
189	0xbbada262	-0.0052988986
190	0x3c03ef7a	0.008052701
191	0x3c0aa6bc	0.008462604
192	0xbc1379bc	-0.009001192
193	0xbb1c44e0	-0.0023844764
194	0x37461000	1.1805445e-05
195	0xbd4838b7	-0.048882212
196	0xbc90ce5b	-0.017676523
197	0x3bfd3cf4	0.0077282134
198	0xbb3afcb0	-0.002853196
199	0xbc15ce68	-0.009143449
200	0xbc3dc9e0	-0.011583775
201	0xbc814d48	-0.01578392
202	0xbc4baa58	-0.01243075
203	0x3c6406ea	0.013917664
204	0xbcd313f2	-0.025766347
205	0xbcaa90f8	-0.02082108
206	0xbc588972	-0.013216363
207	0xbc1a8be4	-0.009432767
208	0xba9d45c0	-0.0011998937
209	0x3b36d240	0.0027896315
210	0xbbaea6a0	-0.005329922
211	0xbca6f316	-0.020379584
212	0xbb8abadc	-0.004233701
213	0xbc6d1890	-0.014471188
214	0xbc66faa8	-0.014097847
215	0xbcaf312a	-0.021385748
216	0xbd39baf4	-0.045344308
217	0xbd5aa0bc	-0.053375944
218	0xbd0101a6	-0.031495713
219	0xbc393790	-0.011304751
220	0xbd566062	-0.05233801
221	0xbce95a0c	-0.02848532
222	0x3b543620	0.0032380894
223	0xbc8f1cbb	-0.017469754
224	0x3c1cc97c	0.009569522
225	0xbd17e6e8	-0.037085444
226	0xbd055244	-0.032549158
227	0xbcb6d578	-0.022318587
228	0xbd2a85e1	-0.041631583
229	0xbd347e53	-0.044065785
230	0x3b9072d8	0.0044082217
231	0xbd772458	-0.060337394
232	0xbd51e8de	-0.05124747
233	0x3982a080	0.00024915114
234	0xbd5dabdc	-0.054118976
235	0xbd434ca3	-0.04768051
236	0xbcfd34a3	-0.030908888
237	0xbcb5fdf1	-0.022215815
238	0xbd009816	-0.03139504
239	0xbb090398	-0.0020906683
240	0x3b6e5771	0.0036368037
241	0xbab109c8	-0.0013506943
242	0xbb41c5d6	-0.0029567382
243	0xba1bf27c	-0.0005948914
244	0xba52519c	-0.0008023025
245	0xb9ae78c8	-0.00033277855
246	0x3b4148fa	0.002949296
247	0xbb04db08	-0.0020272154
248	0xbb837585	-0.004011812
249	0x39ed4469	0.00045255132
250	0x3a276316	0.00063853094
251	0xbb567d78	-0.0032728594
252	0x3bc03718	0.0058659427
253	0xb9efeac0	-0.00045760535
254	0x3a52f25f	0.00080469804
255	0x3b5b71f2	0.0033484665

momentum_buffer f4 [10]
0	0xbb573f94	-0.0032844292
1	0x3b0decbc	0.0021655997
2	0x3b1f2d20	0.0024288371
3	0x380a539e	3.297964e-05
4	0x37c8b35e	2.3925382e-05
5	0x3d1f1f54	0.038848236
6	0xbb9cc324	-0.0047840048
7	0xbccb12a0	-0.024789155
8	0x3c0b1142	0.008488001
9	0xbc9cb67f	-0.01912999
