oracle/train/non-iid/checkpoint/mnist/ckpt_1_1.pth (torch, 71489 bytes, 12 tensors)

conv1.weight f4 [10, 1, 5, 5]
0	0x3e08b4b9	0.1335019
1	0x3e68cd43	0.22734551
2	0x3aec0eea	0.0018009816
3	0x3e27935b	0.16364805
4	0x3d31b585	0.043386
5	0x3decb79c	0.11558458
6	0x3c3e927a	0.011631602
7	0x3e923275	0.2855412
8	0x3db0e915	0.08638207
9	0xbdb1f5d5	-0.08689467
10	0xbe3088b3	-0.17239647
11	0xbbb7239c	-0.0055889618
12	0x3ea701f2	0.32618672
13	0xbdf758d8	-0.120774925
14	0xbd6707a5	-0.056403775
15	0x3e2c2cbb	0.16813938
16	0x3d710ba5	0.058848996
17	0x3dfc9a16	0.12334077
18	0x3e3ce0d0	0.18445134
19	0x3dcf3c14	0.10118881
20	0x3dc7cbf7	0.097557
21	0x3e5dfab3	0.21677665
22	0x3e6ace19	0.22930183
23	0x3dc79b20	0.097463846
24	0xbe231212	-0.15924862
25	0x3d6a20b2	0.057160087
26	0xbe26ed55	-0.16301472
27	0xbd82254c	-0.0635477
28	0x3e09e37c	0.13465685
29	0xbd83dfab	-0.06439146
30	0x3c290066	0.010315036
31	0xbd4bc628	-0.049749523
32	0xbe60d2d8	-0.2195543
33	0x3d961d16	0.073297665
34	0x3ba8a1ce	0.0051462417
35	0xbdf93b86	-0.12169556
36	0xbcf96b3d	-0.030446643
37	0x3dc89716	0.09794442
38	0xbd9f8ff3	-0.07791128
39	0x3d5d5dd2	0.054044552
40	0x3e15bffd	0.14624019
41	0x3e23f795	0.16012414
42	0x3e182aa7	0.1486002
43	0x3e04e901	0.12979509
44	0x3de5fe05	0.11230091
45	0x3e80ab79	0.25130823
46	0x3cfc2415	0.030778924
47	0x3e669082	0.22516063
48	0xbe0cf66c	-0.13765877
49	0x3e2c5acc	0.16831511
50	0x3cb4b7a2	0.02206022
51	0x381aa7b9	3.6872665e-05
52	0x3e77cf48	0.24200165
53	0x3e29cd59	0.1658224
54	0x3e901026	0.2813732
55	0xbcf46368	-0.029832557
56	0x3e1b5871	0.15170456
57	0x3e849664	0.2589599
58	0x3e5bf533	0.21480255
59	0x3e8cab5c	0.27474487
60	0xbdc8718f	-0.097872846
61	0xbe005121	-0.12530948
62	0x3e891c0e	0.26779217
63	0x3cae7269	0.02129479
64	0xbcb6b87c	-0.022304766
65	0xbe3f9b3c	-0.18711561
66	0xbde39ea8	-0.11114246
67	0x3e2b0528	0.16701186
68	0x3e282304	0.16419607
69	0x3c9cdcb0	0.0191482
70	0xbcedc572	-0.029024813
71	0xbe5d8db3	-0.21636085
72	0x3bcc4cf5	0.00623476
73	0x3e2c55b2	0.16829565
74	0xbe0ac15b	-0.13550322
75	0xbe25f220	-0.16205645
76	0x3e7dcc96	0.24785075
77	0xbdd9ac37	-0.106285505
78	0xbd98557f	-0.07438182
79	0xbe3cd396	-0.18440089
80	0x3de1289e	0.10994075
81	0x3e3f1d11	0.18663432
82	0x3cdbe1f6	0.026841145
83	0x3e5c00e9	0.21484722
84	0xbdbd9f1e	-0.09258865
85	0x3e1cb8da	0.1530489
86	0x3e57e4f0	0.21083426
87	0xbcb32e16	-0.021872561
88	0x3e111eb2	0.14171866
89	0x3d3da86c	0.046303198
90	0x3e810819	0.2520149
91	0x3e77a5f8	0.24184406
92	0x3e56461b	0.2092518
93	0x3e6e6fcb	0.23284833
94	0xbdf9ab36	-0.12190859
95	0x3e6cf48b	0.2314016
96	0x3e8f9ef3	0.28050956
97	0x3d8dad94	0.06917873
98	0xbe0b445e	-0.13600299
99	0x3c1a3846	0.009412831
100	0x3d364be2	0.04450596
101	0x3e02fc59	0.12791575
102	0xbd522c3a	-0.05131171
103	0x3e6c4cd8	0.23076189
104	0x3dcc5819	0.09977741
105	0x3d3c70c7	0.04600599
106	0x3e5bc1ca	0.21460643
107	0x3d75093c	0.05982326
108	0x3dc660fb	0.09686466
109	0x3e5a7c78	0.21336544
110	0x3e149db6	0.14513287
111	0x3e938d48	0.28818727
112	0xbcd571d7	-0.02605526
113	0xbd69887d	-0.05701493
114	0xbddf5a9f	-0.109059565
115	0x3e64fe61	0.22362663
116	0x3d03d602	0.032186516
117	0x3e23d7a2	0.16000226
118	0x3e3b5efd	0.18297954
119	0x3de44eb9	0.11147828
120	0x3dbf69c9	0.09346349
121	0x3de02eb9	0.10946412
122	0x3e11597d	0.14194293
123	0xbe200784	-0.15627867
124	0x3dc0083f	0.09376573
125	0x3e35696b	0.17715995
126	0x3e164f8c	0.14678782
127	0x3ab19124	0.0013547284
128	0xbd8bd1b5	-0.06827108
129	0xbe066888	-0.13125813
130	0x3d6e6d42	0.058209665
131	0x3e3a8a73	0.18216877
132	0xbc980e37	-0.018561466
133	0x3da245fe	0.07923506
134	0xbe23a8e0	-0.1598239
135	0x3e8b5375	0.2721211
136	0x3eadbc95	0.3393294
137	0x3e1fed76	0.15617928
138	0x3d25f3d8	0.04051575
139	0x3e43c3e4	0.19117695
140	0xbded4a76	-0.11586468
141	0x3d8d4bf9	0.06899256
142	0x3e93147f	0.28726575
143	0x3dcc8464	0.09986189
144	0x3df312f2	0.11868848
145	0x3e380c3f	0.17973422
146	0x3e7355eb	0.23763244
147	0x3d758202	0.05993844
148	0xbd7cd1ba	-0.06172345
149	0x3e7791ee	0.24176762
150	0x3d920796	0.07130353
151	0x3dd37088	0.10324198
152	0xbd3a0740	-0.04541707
153	0x3d11d33e	0.035601847
154	0x3dd5288b	0.104081236
155	0x3d2905aa	0.041265167
156	0xbd661016	-0.056167684
157	0x3cfdad97	0.030966563
158	0x3e47f8b4	0.19528466
159	0x3d252659	0.040319774
160	0xbc341e23	-0.010993513
161	0x3d7b9e29	0.06143013
162	0x3cafdbdf	0.021467147
163	0x3e90b6c8	0.2826445
164	0x3d4cb918	0.049981207
165	0x3b511467	0.003190303
166	0xbda261bf	-0.079288
167	0x3ddcfe97	0.10790747
168	0xbdd92852	-0.106033936
169	0x3e4e8159	0.2016653
170	0x3c830b84	0.015996702
171	0xbe465e97	-0.1937202
172	0x3dfe9664	0.124310285
173	0x3e041d5f	0.12901829
174	0x3d4b276f	0.049598154
175	0xbdccacc2	-0.099938884
176	0xbd98243a	-0.07428785
177	0xbe10e168	-0.14148486
178	0xbe32b06a	-0.17450109
179	0xbe3aae63	-0.18230586
180	0xbd117373	-0.03551049
181	0xbe22e64a	-0.15908161
182	0xbcba5906	-0.022747528
183	0x3d2207ef	0.039558347
184	0x3e72d310	0.23713326
185	0x3ddbd3ed	0.10733781
186	0x3e4c0f27	0.19927655
187	0x3cd7fe71	0.026366444
188	0x3e942f10	0.28942156
189	0x3e907d50	0.28220606
190	0x3e908409	0.28225735
191	0x3e6435e5	0.22286184
192	0x3e0f359e	0.13985297
193	0x3e098f41	0.13433553
194	0x3e5d0d08	0.21587002
195	0xbe1d3b4e	-0.15354654
196	0x3e0e5af3	0.13901882
197	0x3e3f4707	0.18679439
198	0x3e58e5d4	0.21181422
199	0x3d6d97c6	0.05800607
200	0xbe026091	-0.1273215
201	0xbd903d7e	-0.07042979
202	0x3e5260af	0.20544694
203	0x3d7a8ff0	0.061172426
204	0x3d91f1e8	0.07126218
205	0x3e3d36ea	0.1847798
206	0xbc99311c	-0.018700175
207	0xbdb37667	-0.08762818
208	0x3e5f8f75	0.21832068
209	0x3e8873ce	0.26650852
210	0x3e332c9e	0.17497489
211	0xbdf65bd8	-0.120292366
212	0xbe4e25de	-0.20131633
213	0xbe53ee2f	-0.20696329
214	0xbe395890	-0.1810019
215	0xbbb7875c	-0.005600853
216	0xbe342299	-0.17591323
217	0xbe50ea50	-0.20401883
218	0x3d9ca5b4	0.07648793
219	0xbdb2417a	-0.08703895
220	0x3e509396	0.203688
221	0x3e1c9c7a	0.15294066
222	0xbcb7b252	-0.022423897
223	0xba48b61f	-0.00076565327
224	0xbda8792c	-0.08226237
225	0x3da38de6	0.07986049
226	0x3c8e29fe	0.017354008
227	0x3d7339db	0.059381347
228	0x3d628a9d	0.055307973
229	0xbe2aac73	-0.16667347
230	0xbe0050d4	-0.12530833
231	0xbe2577a1	-0.16158916
232	0x3e11fcd6	0.14256606
233	0xbd829385	-0.06375793
234	0xbcf1c1ae	-0.029511299
235	0xbe001dbf	-0.12511347
236	0x3d955184	0.072909385
237	0xbe2250f3	-0.15851192
238	0xbdbde6cb	-0.09272536
239	0xbccd0921	-0.025028767
240	0x3d1829df	0.037149306
241	0xbd1c1489	-0.03810552
242	0xbd8e61a6	-0.06952219
243	0xbe136cb3	-0.14396934
244	0xbe0ea476	-0.13929924
245	0xbd1aac73	-0.037762117
246	0x3e5425e3	0.20717578
247	0x3c5d39db	0.013502563
248	0x3e23d81a	0.16000405
249	0x3df55d49	0.11980683

conv1.bias f4 [10]
0	0xbde7011b	-0.11279508
1	0x3d9d3334	0.07675782
2	0x3d930c90	0.071801305
3	0x3e59e9de	0.2128062
4	0xbdd7d039	-0.10537762
5	0xbe27c9de	-0.163856
6	0x3e5ba037	0.21447836
7	0x3e31a54f	0.17348216
8	0xbe23a682	-0.15981486
9	0x3dbc59a7	0.09196787

conv2.weight f4 [20, 10, 5, 5]
0	0x3c9469d1	0.018116863
1	0xbd6fa115	-0.05850323
2	0x3c354ee3	0.011066171
3	0xbceb41d3	-0.02871791
4	0x3d53a35c	0.051669464
5	0x3d56e6d9	0.052466247
6	0xbccc35c9	-0.02492799
7	0xbd6f77ec	-0.058463976
8	0xbd51455e	-0.051091544
9	0x3da26759	0.07929868
10	0x3d6f241f	0.058384057
11	0x3cdffe11	0.027342828
12	0xbcb6f50b	-0.022333642
13	0xbcc4a67c	-0.024005167
14	0x3d3be07f	0.045868393
15	0x3d736f1b	0.05943213
16	0xbd667ebe	-0.056273215
17	0x3d25a15c	0.040437087
18	0x3b21eb57	0.0024706924
19	0x3d9944da	0.074838355
20	0x3d5577b5	0.052116115
21	0x3d010573	0.031499337
22	0x3bc76fe8	0.0060863383
23	0x3c9d1f34	0.019179918
24	0x3be6e08d	0.0070458115
25	0x3b122ba9	0.0022303856
26	0x3c8e2de4	0.017355867
27	0x3d3dbbef	0.046321806
28	0x3cc47915	0.023983518
29	0x3cf86172	0.030319903
30	0x3d7e02b5	0.0620143
31	0x3d0d9080	0.034561634
32	0xbc69944e	-0.01425655
33	0x3cd2fcc5	0.025755296
34	0x3d641da1	0.05569232
35	0xbccfc80e	-0.025363948
36	0x3cd9fa50	0.026608616
37	0x3b9ceb3b	0.004788784
38	0xbc73b432	-0.014874505
39	0xbcaeef81	-0.021354439
40	0x3d46ee0c	0.048566863
41	0xbcee0d61	-0.029059114
42	0x3d8d02c0	0.0688529
43	0x3d382c27	0.044963982
44	0xbd01eb5b	-0.031718593
45	0x3d8a2c8f	0.0674678
46	0x3a742d2e	0.00093145936
47	0x3d6f7580	0.058461666
48	0x3cc4c745	0.0240208
49	0xbd29a8b6	-0.04142066
50	0xbd17ac95	-0.03702982
51	0xbcdbd5de	-0.026835378
52	0xbbde93d7	-0.006792526
53	0xbd166bae	-0.036723785
54	0x3c96edd4	0.018423952
55	0xbd74fd38	-0.0598118
56	0xbdac9a53	-0.084278725
57	0xbde8338b	-0.11337956
58	0x3cbf91c6	0.02338494
59	0x3d9e5a07	0.07732015
60	0xbd0c89ae	-0.03431099
61	0x3c33ab9a	0.010966206
62	0xbd60ede5	-0.054914374
63	0x3cad81ef	0.021180121
64	0x3d467842	0.04845453
65	0xbd85a49c	-0.06525537
66	0x3cbcc45e	0.023042854
67	0x3d43bd7e	0.047788136
68	0x3ce87bd3	0.028379356
69	0xbcaa3240	-0.020775914
70	0xbd9a9092	-0.07547106
71	0x3d2855d5	0.04109748
72	0x3d59f7dc	0.053214893
73	0x3d8b3dc1	0.06798888
74	0xbdc04c41	-0.09389544
75	0xbd109fac	-0.035308525
76	0xbcf586b6	-0.029971462
77	0x3c89a51a	0.01680236
78	0xbdda028c	-0.10645017
79	0xbd9acc56	-0.07558505
80	0xbc42364d	-0.011853767
81	0x3c4310a1	0.01190582
82	0xbdae1a99	-0.08501167
83	0x3cfaa301	0.030595304
84	0x3d9e5636	0.07731287
85	0x3d861731	0.06547392
86	0xbd3707b4	-0.04468508
87	0xbca80c36	-0.020513635
88	0x3ca781bc	0.020447604
89	0x3dc4b3a6	0.09604578
90	0xbd1bdbcc	-0.03805141
91	0xbcfefacd	-0.03112545
92	0x3bd9cd3a	0.0066467794
93	0x3d8428c5	0.06453089
94	0x3d802d8c	0.062586874
95	0x3d495f93	0.049163412
96	0x3d117b49	0.035517965
97	0x3b231258	0.002488276
98	0x3dcdb3e2	0.100440755
99	0xbcd38297	-0.025819106
100	0x3acb95b0	0.0015532281
101	0xbc8478bb	-0.01617085
102	0xbd82aa8f	-0.06380188
103	0xbd251d4d	-0.040311147
104	0xbcf63417	-0.030054135
105	0xbd32ba50	-0.043634713
106	0xbd6f5fef	-0.0584411
107	0xbd8cbc2b	-0.06871828
108	0xbd8cd9a1	-0.06877447
109	0x3ba70821	0.0050974046
110	0x3d8d8b80	0.06911373
111	0xbc4e4556	-0.012589773
112	0xbc293432	-0.010327386
113	0x3c864069	0.016388135
114	0x3d5e885b	0.054329257
115	0x3d81daa7	0.06340533
116	0xbd62b140	-0.05534482
117	0x3d569f65	0.052398104
118	0x3cd8bb0d	0.02645638
119	0x3bb50f16	0.00552548
120	0x3c526518	0.012841485
121	0x3d8beda9	0.068324395
122	0x3d082adb	0.033243995
123	0x3dba805f	0.09106516
124	0xbc95ab4a	-0.018270154
125	0x3cdfda2a	0.027325708
126	0xbd43fd62	-0.047849067
127	0xbca78704	-0.020450123
128	0xbc49d0b7	-0.012317828
129	0x3b915a7c	0.0044358354
130	0xbce8201d	-0.028335625
131	0x3d4b6334	0.049655154
132	0xbc46f0aa	-0.01214234
133	0xbdbf273e	-0.09333657
134	0xbc6d87d5	-0.014497717
135	0x3ad4562a	0.0016199995
136	0xbd6b66cc	-0.05747108
137	0x3cb78cc6	0.022405993
138	0xbd8542ba	-0.06506868
139	0x3d187100	0.03721714
140	0xba45c156	-0.0007543763
141	0x3c61fcc9	0.013793179
142	0xbc226417	-0.009911559
143	0x3ca64b1c	0.020299487
144	0xbd060ea4	-0.032728806
145	0xbca9ccc2	-0.020727519
146	0xbce205a0	-0.027590573
147	0x3d87d59d	0.066325404
148	0x3b84ab9d	0.004048778
149	0xbcd57b97	-0.026059909
150	0x3ce96b86	0.028493654
151	0x3d26ad14	0.040692404
152	0xbd3d537c	-0.046222195
153	0xbd46ee22	-0.048566945
154	0x3ab4d5dc	0.0013796645
155	0x3d529e21	0.051420335
156	0xbd634081	-0.055481438
157	0xbc0721f8	-0.008247845
158	0x3c5d93d7	0.013524017
159	0x3d5aa99b	0.053384405
160	0xbd0b4bd4	-0.034007862
161	0xbd836240	-0.06415224
162	0xbd158fc9	-0.036514077
163	0x3d978a1a	0.07399388
164	0xb8cbbd78	-9.7150856e-05
165	0x3cf5dd43	0.030012732
166	0xbd8d957f	-0.0691328
167	0x3d5f7e7a	0.054563977
168	0x3d9475d5	0.07249037
169	0xbca1bf16	-0.019744437
170	0x3d4faa2c	0.050699398
171	0x3ce0910b	0.027412912
172	0x3d7ca6fe	0.061682694
173	0xbcd97847	-0.02654661
174	0x3c0c76f0	0.008573279
175	0xbd850931	-0.06495894
176	0xbd94bc38	-0.072624624
177	0xbde88a7c	-0.11354539
178	0xbba9f270	-0.0051863715
179	0x3d807933	0.06273117
180	0xbcebe813	-0.028797185
181	0x3d1c0c6c	0.038097784
182	0xbd093fbb	-0.033508044
183	0x3cb0ef14	0.021598376
184	0x3da1cad1	0.07900012
185	0x3d2aa994	0.04166563
186	0x3cc1b070	0.023643702
187	0x3d2bbf18	0.041930288
188	0x3d31f600	0.043447495
189	0xbcd42dad	-0.025900686
190	0xbda6a663	-0.081372045
191	0x3d223269	0.039598856
192	0x3d36f063	0.044662844
193	0x3ca49f84	0.020095594
194	0xbdb1aac5	-0.0867515
195	0x3c501553	0.012700397
196	0xbbceea60	-0.006314561
197	0xbbc75cbb	-0.0060840524
198	0x3d3665eb	0.04453079
199	0xbd0b17b1	-0.03395814
200	0xbd0c25b2	-0.034215637
201	0x3d36a393	0.04458959
202	0xbc68d837	-0.014211706
203	0xbd7c3868	-0.06157723
204	0xbd51fa97	-0.05126437
205	0xbc66ae08	-0.014079578
206	0x3d05d971	0.03267807
207	0xbb6001f3	-0.003418085
208	0x3cd4dbfa	0.0259838
209	0xbcf09216	-0.029366534
210	0x3bbd6675	0.005780036
211	0xbc70678f	-0.014673128
212	0xbd1dfbc4	-0.03857018
213	0xbd8ec644	-0.0697141
214	0x3c934757	0.017978353
215	0xbcd899d2	-0.026440535
216	0xbd290bdc	-0.041271076
217	0x3cff29ac	0.0311478
218	0xbcc95ab8	-0.02457939
219	0x3ca9a739	0.02070962
220	0x3d02fa42	0.031976946
221	0xbca47e7a	-0.02007984
222	0xbd532206	-0.05154612
223	0x3d277c50	0.040890038
224	0xbc713e76	-0.0147243645
225	0xbb8d5b45	-0.0043138587
226	0x3d8b74a2	0.06809355
227	0x3ca9376d	0.020656312
228	0x3d305550	0.04305011
229	0xbd0846cd	-0.033270646
230	0x3cf1f9f2	0.029538129
231	0xbd54cf58	-0.05195555
232	0xbc4321a9	-0.011909881
233	0x3d3fc995	0.046823103
234	0x3d521a4f	0.05129462
235	0xbd7fe5f5	-0.062475163
236	0x3d2a5912	0.04158885
237	0x3d20926b	0.039202135
238	0x3c55f771	0.013059483
239	0x3d31907d	0.043350685
240	0xbc7ec3b8	-0.015549593
241	0xbd352988	-0.04422906
242	0xbcd60e17	-0.026129765
243	0xbc832647	-0.016009463
244	0xbcb656d6	-0.022258203
245	0xbd47d569	-0.04878751
246	0xbbb96d54	-0.005658785
247	0xbcd72a93	-0.026265418
248	0x3d1b88a1	0.037972096
249	0x3d7330a8	0.059372574
250	0xbd8702cb	-0.065923296
251	0x3d29934a	0.04140023
252	0xbcc581dc	-0.024109773
253	0xbc51266c	-0.012765508
254	0x3d3dafb8	0.046310157
255	0xbcb0ec64	-0.021597095

conv2.bias f4 [20]
0	0x3ca87645	0.020564208
1	0x3b5a20bd	0.0033283674
2	0xbd77c4b1	-0.060490314
3	0x3acdf291	0.0015712549
4	0x3c93d608	0.018046394
5	0xbcb4505f	-0.02201098
6	0x3d12629e	0.03573858
7	0xbd45dd71	-0.048306886
8	0x3c9d770d	0.019221807
9	0xbc8d61e9	-0.017258601
10	0xbc1e8be9	-0.009676912
11	0x3c2c827e	0.010529159
12	0xbd110323	-0.035403382
13	0x3cd133c4	0.02553738
14	0x3c872cb7	0.016500814
15	0xbd02a25b	-0.031893115
16	0x3c702d57	0.014659247
17	0xbd13783c	-0.036003336
18	0xbd4a9abd	-0.049463976
19	0xbcd6c5c0	-0.026217341

fc.weight f4 [10, 320]
0	0x3d580d6b	0.05274717
1	0x3b665ddf	0.0035151166
2	0xbd121278	-0.035662144
3	0x3b735c22	0.0037133773
4	0x3dd01612	0.101604596
5	0x3bc41e37	0.005985047
6	0xbd1a163a	-0.037618853
7	0x3d079490	0.033100665
8	0xbd072c4f	-0.03300124
9	0xbd2edeb5	-0.04269286
10	0x3dbe8e35	0.093044676
11	0x3c65aa7e	0.014017699
12	0xbd485d68	-0.048917204
13	0x3d4ee90b	0.050515216
14	0x3d7b6d60	0.061383605
15	0xbc88bb52	-0.016690884
16	0x3d2fb20e	0.042894416
17	0xbd279029	-0.040908966
18	0x3b0b762d	0.0021280155
19	0xbd6eb846	-0.058281206
20	0xbd5eec11	-0.05442435
21	0xbce9e8ac	-0.02855333
22	0x3cccf2ed	0.02501818
23	0xbaf4d798	-0.0018679975
24	0xbd8a5e10	-0.06756222
25	0xbd918d5b	-0.071070395
26	0xbd919bf2	-0.07109822
27	0xbd39a07e	-0.045319073
28	0xbd5fbe93	-0.054625105
29	0x3d2ba86f	0.041908678
30	0xbb847d9e	-0.004043295
31	0xba3bee08	-0.00071689533
32	0xbca71cef	-0.020399539
33	0x3bcd0a70	0.0062573478
34	0x3d69857e	0.057012074
35	0x3984eab2	0.00025351864
36	0xbd94b958	-0.07261914
37	0xbc6a1dfe	-0.014289377
38	0xbdc2a1ac	-0.09503493
39	0xbbd13ccc	-0.0063854214
40	0xbd9d872b	-0.07691797
41	0xbd8dc136	-0.06921618
42	0xbd1313c8	-0.035907537
43	0x3cb97af0	0.022641629
44	0x3a788ba5	0.0009481258
45	0x3db9a9bb	0.09065577
46	0xbb0d3e8c	-0.0021552173
47	0xbc662ab2	-0.014048265
48	0x3d27dcb9	0.040981982
49	0x3c0aa96e	0.008463247
50	0x3d3153c9	0.043292794
51	0xbc0e1f7c	-0.008674499
52	0x3cb3e979	0.021961914
53	0x3cec6646	0.028857362
54	0x3d1aa9d2	0.03775961
55	0xbb607f5d	-0.0034255602
56	0xbc0189f3	-0.007906425
57	0x3bb0c8b7	0.005395021
58	0x3ca73a17	0.020413442
59	0x3d5405fd	0.051763523
60	0x3c0116ad	0.0078789415
61	0x3d49a72d	0.049231697
62	0xbc4b1f5e	-0.012397615
63	0xbc9f4ebc	-0.019446723
64	0xbd2ee15a	-0.04269538
65	0x3c71b8e4	0.014753554
66	0x3be9b6cc	0.007132387
67	0x3ca64aa1	0.020299258
68	0xbd76ae34	-0.060224727
69	0xbc03d794	-0.008047003
70	0x3d193fda	0.03741441
71	0x3d632b86	0.05546143
72	0xbd9b8bef	-0.075950496
73	0xbdb32fe2	-0.08749367
74	0xbad858d1	-0.0016505962
75	0x3d95d951	0.073168404
76	0x3d5b86e7	0.05359545
77	0xbd880401	-0.06641389
78	0xbd9e7311	-0.07736791
79	0x38f59490	0.00011710182
80	0x3d3b7c0a	0.04577259
81	0xbc95efc6	-0.01830281
82	0x3d4948f3	0.049141835
83	0xbd03418d	-0.032044936
84	0xbcbfa4ca	-0.023394007
85	0xbc2fcfcd	-0.010730696
86	0xbccf45d3	-0.02530185
87	0xbd850777	-0.064955644
88	0x3d55d032	0.052200504
89	0x3cab0375	0.020875672
90	0xbcf75c1a	-0.030195285
91	0xbb070937	-0.0020604858
92	0x3ceeffa7	0.029174639
93	0xbcf4b739	-0.029872524
94	0xbc146e07	-0.009059436
95	0x3c1353f4	0.008992184
96	0xbd264a15	-0.040597994
97	0x3d878ed5	0.0661904
98	0x3d83052b	0.0639747
99	0xbc0ff414	-0.00878622
100	0x3c018627	0.00790552
101	0x3d8bcb8e	0.06825934
102	0xbac13915	-0.0014741743
103	0xbc68a300	-0.0141990185
104	0x3dc78ed5	0.0974404
105	0xbd136670	-0.035986364
106	0xbd98f399	-0.074683376
107	0xbbc661d9	-0.006054145
108	0x3cd4882e	0.025943842
109	0x3d2ed334	0.042681888
110	0x3b8166c7	0.0039490196
111	0xbc59aaef	-0.013285383
112	0x3d251575	0.040303666
113	0xbd3f2a1c	-0.046671018
114	0xbcc35594	-0.023844518
115	0x3d1bf25c	0.03807293
116	0xbc040faa	-0.008060375
117	0xbc43a8dc	-0.011942115
118	0xbd8a5725	-0.06754903
119	0xbd190d53	-0.037366223
120	0xbc4b10e5	-0.012394165
121	0x3baefb9e	0.0053400537
122	0x3cd77c71	0.026304455
123	0x3ce13e4a	0.027495522
124	0xbd832713	-0.06403937
125	0x3d9a4ad3	0.07533803
126	0x3db26930	0.08711469
127	0xbcf38941	-0.029728534
128	0x3d054aa4	0.032541886
129	0xbab19f8f	-0.001355158
130	0x3ce564f7	0.028002245
131	0x3c80194c	0.015637062
132	0xbbdd7d93	-0.0067593544
133	0xbcaa2f3f	-0.020774482
134	0x3be21017	0.0068988907
135	0xbd2a0436	-0.041507922
136	0xbb64edf1	-0.0034931863
137	0xbd19fd4b	-0.037595075
138	0x3d2ccda7	0.042188313
139	0x3ce4e72d	0.027942264
140	0x3d4e67b4	0.050391868
141	0xbd21dab1	-0.0395152
142	0xbc42d4d6	-0.011891564
143	0x3c02f2b5	0.007992436
144	0xbcab821d	-0.020936066
145	0xbd20c0fc	-0.039246544
146	0x3c858b4f	0.01630178
147	0x3d287796	0.04112967
148	0x3d3afef4	0.0456533
149	0xbcf20cfc	-0.029547207
150	0xbe00a82f	-0.12564157
151	0xbd46e009	-0.0485535
152	0xbbddc722	-0.0067681232
153	0x3d6e2c46	0.05814769
154	0xbd2cd988	-0.04219964
155	0xbdafa360	-0.08576083
156	0x3cb82182	0.022476915
157	0x3d9bf47c	0.07614991
158	0x3c2c535c	0.010517921
159	0xbdc7951e	-0.09745239
160	0x3c245e2f	0.010032221
161	0xbd810082	-0.06298925
162	0x3d317de2	0.04333294
163	0x3cbea102	0.023270134
164	0x3d1fd57a	0.039021946
165	0xbd514656	-0.05109247
166	0x3cfb615f	0.030686079
167	0x3c72b50c	0.014813673
168	0x3d12327a	0.03569267
169	0xbb4a07b9	-0.0030827357
170	0xbd06393b	-0.032769423
171	0x3b68c534	0.0035517933
172	0x3b153e52	0.0022772742
173	0x3d92ec8a	0.071740225
174	0xbc792454	-0.015206415
175	0xbd89ac39	-0.06722302
176	0x3d222507	0.039586093
177	0xbcb106dd	-0.021609718
178	0xbc7769ed	-0.015100938
179	0xbd8501f2	-0.06494512
180	0xbbaf1ac9	-0.005343769
181	0x3d0fabb8	0.035075873
182	0xbdb199a8	-0.08671886
183	0x3d06105a	0.032730438
184	0xbd418c76	-0.047253095
185	0xbd059f11	-0.0326224
186	0xbd55c2eb	-0.05218784
187	0xb7e6e85d	-2.752634e-05
188	0x3c288e5a	0.0102878455
189	0xbd3d5503	-0.04622365
190	0xbcd2aa85	-0.025716076
191	0xbc6cd3a6	-0.014454758
192	0x3cc50406	0.02404977
193	0x3d4ac326	0.049502514
194	0xbd12f12e	-0.035874538
195	0x3b33810e	0.0027390155
196	0xbbf751d0	-0.0075475946
197	0x3a64db7b	0.0008730215
198	0xbcf30e57	-0.029669924
199	0x3c64333a	0.013928229
200	0xbd689680	-0.056784153
201	0xbcc16e49	-0.023612158
202	0x3d518af9	0.051157925
203	0x3d3445e7	0.044011977
204	0xbc276b92	-0.010218518
205	0xbc87b35b	-0.016565016
206	0x3c9e9830	0.019359678
207	0x3d409fce	0.0470274
208	0xbced7f6e	-0.028991427
209	0x3d245595	0.04012068
210	0x3c1b621c	0.00948384
211	0xbd8b4202	-0.06799699
212	0x3d2d67cf	0.042335328
213	0x3d17948c	0.0370069
214	0x3d82e1f3	0.06390753
215	0xbda2603f	-0.07928514
216	0x3d0239aa	0.031793274
217	0x3b07d8f4	0.002072868
218	0xbe03c73f	-0.12868975
219	0x3c9150f4	0.017738797
220	0xbd061662	-0.03273619
221	0xbce5be6e	-0.028044906
222	0xbd52fa1b	-0.05150805
223	0x3dba03d8	0.090827644
224	0xbd2f974a	-0.04286889
225	0x3cbd4b46	0.023107182
226	0xbd054dbe	-0.032544844
227	0xbb173931	-0.002307486
228	0x3d987fb0	0.074462295
229	0xbbdca0d7	-0.006733041
230	0xbcab26b6	-0.020892482
231	0xbd7f8274	-0.06238027
232	0xbcf2bcf4	-0.029631115
233	0x3d196727	0.03745189
234	0xbbde6d0a	-0.006787901
235	0x3d9d3a60	0.0767715
236	0x3ccf9b0f	0.025342492
237	0xbb8b272d	-0.0042466135
238	0xbd16eee7	-0.03684893
239	0x3cf01974	0.029309012
240	0xbd73a76b	-0.059485834
241	0x39eef540	0.00045577623
242	0x3bceb695	0.0063083866
243	0x3d892c3a	0.06697889
244	0xbc8e30cf	-0.017357258
245	0xba73f3f5	-0.0009306067
246	0x3b8440d2	0.0040360475
247	0x3d226ca1	0.039654378
248	0xbd0a8abd	-0.033823717
249	0x3c28e9e2	0.010309668
250	0xb9e0f7ca	-0.00042909227
251	0x3b6da7d5	0.0036263366
252	0x3d80ac7d	0.062828995
253	0xbc5d4e99	-0.013507509
254	0x3d801407	0.0625382
255	0x3b987edf	0.004653796

fc.bias f4 [10]
0	0x3d0afde8	0.03393355
1	0x3ca0feb3	0.0196527
2	0x3c816dfa	0.015799511
3	0xbd3c4af2	-0.04596991
4	0x3c83c98f	0.016087322
5	0x3d66c395	0.056338865
6	0xbc0e113d	-0.008671102
7	0x3cc4a9d2	0.024006758
8	0xbc8a0b97	-0.01685123
9	0x3b7b42c1	0.003833935

momentum_buffer f4 [10, 1, 5, 5]
0	0xbbd382be	-0.0064547947
1	0xbc9b48c5	-0.018955598
2	0xbc9d3b8c	-0.019193433
3	0xbc197e00	-0.00936842
4	0xbc1035b0	-0.008801863
5	0xbc1193b9	-0.0088853175
6	0xbc94d86a	-0.0181696
7	0xbc73bf8b	-0.01487721
8	0xba8ae330	-0.0010596272
9	0xbb23c725	-0.0024990526
10	0xbca268f3	-0.019825434
11	0xbcb32c26	-0.021871638
12	0xbc3b3ea2	-0.011428507
13	0x3bb21c64	0.0054355133
14	0x3bd28aaa	0.0064252215
15	0xbc21587f	-0.009847759
16	0xbc711ce0	-0.014716357
17	0xbc597a88	-0.013273843
18	0x3a9b13b4	0.0011831434
19	0x3c50f8aa	0.012754599
20	0x3bebd256	0.007196705
21	0xbc929f5c	-0.017898254
22	0xbcc49ef9	-0.024001585
23	0xbc651e6a	-0.013984302
24	0xba108d6c	-0.00055142376
25	0xbc0a0b46	-0.008425539
26	0x3b2fd5f6	0.0026830412
27	0xbada50d6	-0.0016656171
28	0xbc5b3514	-0.013379354
29	0xbc0dc59e	-0.008653073
30	0xbb5b5529	-0.0033467507
31	0x3ba58bfe	0.0050520888
32	0x3bac620a	0.0052607106
33	0x3b797615	0.0038064767
34	0xbb27b961	-0.0025592672
35	0xbc2949de	-0.010332553
36	0xba2f2da0	-0.0006682519
37	0x3b2568b9	0.0025239422
38	0xbb1edd4a	-0.0024240785
39	0xbc19d07e	-0.009388087
40	0xbb11d018	-0.0022249278
41	0x3b628f56	0.0034570298
42	0xbb3bdfbf	-0.0028667299
43	0xbc388322	-0.011261733
44	0xbcca84f8	-0.024721608
45	0xbbe26946	-0.006909522
46	0xbbfc65f4	-0.0077025834
47	0xbbeb4cd2	-0.0071807886
48	0xbc8d8c87	-0.017278923
49	0xbcdea9a4	-0.0271805
50	0xbc369037	-0.011142782
51	0xbc172fc9	-0.009227701
52	0xbc94a2ab	-0.018143972
53	0xbbfc0951	-0.0076915403
54	0x3b84f035	0.004056955
55	0x3c0256d4	0.007955272
56	0xbbdced38	-0.006742146
57	0xbcbf202b	-0.023330769
58	0xbc3338d6	-0.010938844
59	0x3c21b9c4	0.00987095
60	0x3c4a600e	0.012352003
61	0xbb562c91	-0.0032680372
62	0xbccdae72	-0.025107596
63	0xbcdf7d99	-0.02728157
64	0x3b9c9fea	0.0047798054
65	0x3bca9f30	0.0061835274
66	0xbbd32865	-0.0064440244
67	0xbccdb612	-0.025111232
68	0xbccc6ee7	-0.024955226
69	0x3b3525f7	0.0027641037
70	0x3a7e5542	0.00097020355
71	0xbb08b025	-0.0020856943
72	0xbcae939c	-0.02131062
73	0xbc0bf065	-0.008541201
74	0x3c4eefca	0.012630412
75	0xbb8d057a	-0.0043036314
76	0xbc04fe3f	-0.008117258
77	0xbc182d02	-0.009288074
78	0x3aa888f0	0.0012858193
79	0xbbbbd2f8	-0.0057319365
80	0xbc3f32bc	-0.011669811
81	0xbcb7479c	-0.022373013
82	0xbc1d037e	-0.009583352
83	0x3c89c618	0.016818091
84	0x3c2fa54b	0.010720561
85	0xbca16700	-0.019702435
86	0xbcbb47c2	-0.022861365
87	0xbb36c9eb	-0.0027891349
88	0x3c6801db	0.014160599
89	0x3a8c00ab	0.0010681351
90	0xbcc63a0c	-0.0241976
91	0xbc874666	-0.01651306
92	0x3b0f4862	0.0021863212
93	0x3c55d60e	0.013051523
94	0xba0c9c54	-0.0005363871
95	0xbceb6704	-0.028735645
96	0xbcc18a6b	-0.023625573
97	0x3b154c46	0.0022781058
98	0x3bf0fa79	0.0073540774
99	0x3c117066	0.0088768955
100	0xbc4f2692	-0.012643473
101	0xbc4dfb3c	-0.012572106
102	0xbc4888c7	-0.0122396415
103	0xbb40d552	-0.0029424024
104	0xbc3688e0	-0.011141032
105	0xbb4bf63a	-0.0031122104
106	0xba6464d8	-0.00087125367
107	0xbbaa24a0	-0.0051923543
108	0xbb213036	-0.0024595386
109	0xbc2f1e42	-0.010688366
110	0xbbe8cd9c	-0.0071045887
111	0xbc2c6426	-0.010521924
112	0xbbe1266f	-0.0068710367
113	0xbb9f9faa	-0.0048713284
114	0xbbd89cb0	-0.0066104755
115	0xbbd784f4	-0.0065771285
116	0xbca120c7	-0.01966895
117	0xbc41b506	-0.0118229445
118	0xbc392584	-0.011300448
119	0xbbf75e78	-0.0075491033
120	0xbb9d2774	-0.004795963
121	0xbc43a7ad	-0.0119418325
122	0xbbd423ef	-0.00647401
123	0xb989e6f0	-0.00026302738
124	0x3bfffb78	0.00781196
125	0xbccd51ea	-0.025063474
126	0xbc9a764e	-0.01885524
127	0xbc489eec	-0.012244921
128	0x3bba7fc3	0.0056915
129	0xbb81c1ba	-0.0039598616
130	0xbc8f5ffe	-0.017501827
131	0xbcaa2254	-0.020768322
132	0x3b048065	0.002021813
133	0x3cdb99af	0.02680668
134	0x3c24b9c5	0.0100540565
135	0xbc981eb5	-0.01856933
136	0xbcd45428	-0.025919035
137	0x3a9b6557	0.0011855763
138	0x3c76f522	0.015073093
139	0x3b52a63e	0.0032142545
140	0xbc798ec4	-0.015231792
141	0xbbf7014f	-0.007537998
142	0x3c452440	0.012032568
143	0x3be5f354	0.0070175324
144	0x3beb325a	0.0071776332
145	0xbb8e17c6	-0.00433633
146	0xbbbee9f9	-0.0058262316
147	0x3c0a1d40	0.008429825
148	0xbbbb965a	-0.0057247104
149	0x3b58687c	0.0033021262
150	0x3baa1456	0.0051904125
151	0x3be51792	0.006991335
152	0xbbbed644	-0.0058238823
153	0xbbde4312	-0.0067828977
154	0xbac123eb	-0.0014735436
155	0x3c45f159	0.012081468
156	0x3b808969	0.0039226306
157	0xbc0a2295	-0.008431097
158	0x3a9e5cf4	0.0012082146
159	0x3c39efdb	0.01134869
160	0x3c2a3e64	0.010390852
161	0xbba07eee	-0.0048979437
162	0xbc8816ac	-0.016612373
163	0xbc4f2963	-0.012644145
164	0xbb2a86e8	-0.0026020352
165	0x3c4e7551	0.012601213
166	0xbbe81853	-0.007082978
167	0xbcb3aaf8	-0.02193211
168	0xbcd4a1c6	-0.025956046
169	0xbcbdfdc2	-0.02319229
170	0x3c393b20	0.0113056
171	0xb9fe1530	-0.0004846244
172	0xbc8c164a	-0.017100472
173	0xbd026ca1	-0.031841878
174	0xbcb6e2fd	-0.022325033
175	0xbc39bd80	-0.011336684
176	0x3c51da3d	0.01280838
177	0x3be19394	0.0068840478
178	0xbc7f3ccc	-0.01557846
179	0xbc25c4ea	-0.010117749
180	0xbac7ba00	-0.0015237927
181	0x3ab74200	0.0013981462
182	0xbc0b96a4	-0.008519802
183	0xbc5b7aa9	-0.013395944
184	0xbc00486c	-0.007829767
185	0xbcbc4ad6	-0.022984903
186	0xbd167e5b	-0.036741596
187	0xbd2e3e8a	-0.04254011
188	0xbcee1c05	-0.029066095
189	0xbc307662	-0.010770412
190	0xbcd24dde	-0.025671896
191	0xbd0badda	-0.034101345
192	0xbd1d36ad	-0.03838222
193	0xbcbe246c	-0.023210727
194	0xbc41d89e	-0.011831431
195	0xbbe45217	-0.0069677937
196	0xbc6ab033	-0.014324236
197	0xbce7355c	-0.028223686
198	0xbcdb2d23	-0.026754921
199	0xbc3af3ec	-0.011410695
200	0xbc735d53	-0.014853793
201	0xbc9bd654	-0.019023098
202	0xbd0cd0dc	-0.03437887
203	0xbcdfbb04	-0.027310856
204	0xbc90065e	-0.017581161
205	0xbcb9b18f	-0.022667674
206	0xbc93b1d0	-0.018029124
207	0xbcf64dc5	-0.03006638
208	0xbc885d82	-0.01664615
209	0xbc598d28	-0.013278283
210	0xbbfcbf15	-0.0077132084
211	0xbbbf882a	-0.0058450894
212	0xb9d2cd60	-0.00040207338
213	0x3c0aefac	0.008479994
214	0xbba43246	-0.005010876
215	0x3b4e4926	0.0031476705
216	0x3b4a7352	0.003089149
217	0x3c2ea161	0.010658593
218	0x3c313c6a	0.0108176265
219	0xbb944e51	-0.0045259376
220	0x3b098925	0.0020986286
221	0xbaded8c2	-0.0017001855
222	0xb9e31408	-0.00043311738
223	0xbb1a254c	-0.0023520766
224	0x3a4c79a0	0.0007800106
225	0xbca96b8b	-0.020681163
226	0xbc8c3d84	-0.017119177
227	0xbccdd8aa	-0.025127728
228	0xbcba8567	-0.02276869
229	0xbc63b03c	-0.013896998
230	0x3980edb8	0.00024591177
231	0xbc2676aa	-0.010160128
232	0xbc7bf25e	-0.015377609
233	0xbc029115	-0.007969161
234	0x3a65f77c	0.0008772535
235	0xbb709754	-0.0036711292
236	0xbc4878a9	-0.012235799
237	0xbbba924e	-0.0056937104
238	0x3b06ddab	0.0020578902
239	0x3bc63b10	0.0060495213
240	0xbc459e6a	-0.012061695
241	0xbc239760	-0.009984821
242	0xbb79ba30	-0.003810536
243	0x3b0a4bb0	0.0021102242
244	0x3ac1a6e4	0.0014774469
245	0xbcb17bd8	-0.021665499
246	0xbc8960f6	-0.016769867
247	0xbc66a92f	-0.014078422
248	0xbc52ea9a	-0.012873316
249	0xbc7c0dbf	-0.015384137

momentum_buffer f4 [10]
0	0xbb553645	-0.0032533568
1	0xbbe98d40	-0.007127434
2	0xbbd0eae3	-0.006375657
3	0xbb964ef6	-0.0045870496
4	0xbad54b6a	-0.0016273085
5	0x3c1eee1f	0.009700327
6	0xb9ee96e8	-0.0004550733
7	0xbc84cf20	-0.016212046
8	0xbc553b51	-0.01301463
9	0xbc98a6ff	-0.018634317

momentum_buffer f4 [20, 10, 5, 5]
0	0x3ccb3d4c	0.024809502
1	0xbb7f6b03	-0.0038973696
2	0xbc21abbd	-0.009867606
3	0xbb3dd648	-0.0028966833
4	0xbc6f522f	-0.014606996
5	0x3be4144c	0.0069604274
6	0xbcba7ac3	-0.022763615
7	0xbc81a0ff	-0.01582384
8	0xbc40a19a	-0.011757279
9	0xbcb40fc1	-0.021980168
10	0x3bc9acb0	0.006154619
11	0xbc8e23fc	-0.017351143
12	0xbc62d5a6	-0.013844883
13	0xbcf4b0c3	-0.029869443
14	0xbc947c95	-0.018125812
15	0x3c38e4c4	0.011285011
16	0xbc9cef81	-0.019157173
17	0xbd2707e3	-0.040779006
18	0xbd239924	-0.03994097
19	0xbc85e042	-0.016342286
20	0xba98d34a	-0.0011659649
21	0xbce4c997	-0.027928157
22	0xbd39955e	-0.045308463
23	0xbd2a4c0c	-0.04157643
24	0xbc942764	-0.01808519
25	0x3b5e6651	0.0033935497
26	0xbc2ecb24	-0.01066855
27	0xbc54d2f0	-0.012989745
28	0xbc2ba906	-0.01047731
29	0xbc4ec7c3	-0.012620869
30	0xbb8a785f	-0.004225775
31	0xbc75a986	-0.014994031
32	0xbc785a94	-0.015158314
33	0xbc67569e	-0.014119772
34	0xbc296e46	-0.010341233
35	0x3ab68bbc	0.0013927142
36	0x39738040	0.00023222063
37	0xbc713e3f	-0.014724313
38	0xbca5885f	-0.020206628
39	0xbc433890	-0.011915341
40	0xbb2c1f47	-0.002626376
41	0xbc21f89c	-0.009885933
42	0xbcbf8f14	-0.023383655
43	0xbcb23f09	-0.021758573
44	0xbc2b7d33	-0.010466862
45	0xbc86f9fa	-0.01647662
46	0xbcd76543	-0.026293403
47	0xbcd07063	-0.025444215
48	0xbc83016a	-0.015991885
49	0xbc08b8f8	-0.008344881
50	0x3c2717ae	0.010198517
51	0xb88b3120	-6.637187e-05
52	0x3c08eb15	0.008356829
53	0xbae9edfd	-0.0017847415
54	0xbbf11985	-0.0073577785
55	0xbbb0802d	-0.0053863735
56	0xbc8cb73a	-0.017177213
57	0xbb4c29dc	-0.003115288
58	0xbc72105e	-0.01477441
59	0xbc8a56ba	-0.016887058
60	0xbcbceb6f	-0.023061482
61	0xbcd3d180	-0.025856733
62	0xbc83eeef	-0.016105143
63	0xbcb1e483	-0.021715408
64	0xbb4b4b58	-0.003102025
65	0xbc004a54	-0.007830221
66	0xbc9b76c3	-0.018977528
67	0xbd11ce54	-0.03559716
68	0xbcd40962	-0.02588338
69	0xbaf09eb0	-0.001835784
70	0xbaa11d98	-0.0012292145
71	0xbcf21a06	-0.029553425
72	0xbd1611d5	-0.0366381
73	0xbce158f9	-0.027508246
74	0xbbb4368a	-0.0054996656
75	0x3cf1c588	0.029513136
76	0xbb95291a	-0.004552019
77	0xbca58022	-0.0202027
78	0xbc0b4a45	-0.008501594
79	0xbc9aba19	-0.018887566
80	0x3c8f7b20	0.017514765
81	0xbcac26ee	-0.021014657
82	0xbcf1d804	-0.02952195
83	0xbcabcfe4	-0.020973153
84	0xbcbf1b26	-0.023328375
85	0x3c9ad851	0.018901976
86	0xbbf393ee	-0.007433406
87	0xbcbf9ecc	-0.02339115
88	0xbd1993b0	-0.03749436
89	0xbce004a2	-0.02734596
90	0x3ca072b8	0.019585952
91	0xbb946bc0	-0.0045294464
92	0xbd0f7b77	-0.035029855
93	0xbd4c36c7	-0.049856927
94	0xbd27be63	-0.04095305
95	0xbc30ba47	-0.0107865995
96	0xbceea972	-0.029133532
97	0xbd5b54f8	-0.05354783
98	0xbd5d2d15	-0.05399807
99	0xbd1484ef	-0.036259588
100	0x3cc125b4	0.023577549
101	0x3c079acf	0.008276655
102	0xbc0bcbe0	-0.008532494
103	0xbbfdc88e	-0.0077448552
104	0xbc271418	-0.010197662
105	0x3c3d45fb	0.011552329
106	0xbc7193c6	-0.014744705
107	0xbc92764b	-0.017878672
108	0xbc6efd1a	-0.014586711
109	0xbc4ba6f3	-0.0124299405
110	0x3bd8f97b	0.0066215373
111	0xbc4ee47d	-0.012627718
112	0xbc9f5e58	-0.019454166
113	0xbcd1fe32	-0.025633905
114	0xbcbd4244	-0.023102887
115	0x3b65d92c	0.0035072071
116	0xbc33bad0	-0.010969833
117	0xbd07f4ed	-0.033192564
118	0xbd270ee3	-0.04078568
119	0xbce880cc	-0.028381728
120	0xbbf6e4d6	-0.0075346036
121	0xbca87261	-0.020562353
122	0xbd38eb5b	-0.045146327
123	0xbd2ad487	-0.041706588
124	0xbd0c9c69	-0.03432885
125	0x3ca7994f	0.020458845
126	0xba79db92	-0.0009531315
127	0xbc39bfa0	-0.011337191
128	0xbc1965b2	-0.009362625
129	0xbc90f0d8	-0.017692968
130	0x3c2979e4	0.010344002
131	0xbc88d67e	-0.01670384
132	0xbcadd49a	-0.02121954
133	0xbc339fa0	-0.010963351
134	0xbc88d916	-0.016705077
135	0x3c5f29a0	0.013620764
136	0xbc8580e6	-0.016296815
137	0xbce6695e	-0.028126415
138	0xbcf15868	-0.0294611
139	0xbc96fd3c	-0.018431298
140	0x3c8dab2a	0.017293531
141	0xbc7971ab	-0.015224854
142	0xbd183407	-0.037158992
143	0xbd1be589	-0.0380607
144	0xbcf7965a	-0.03022306
145	0xbc5bac77	-0.013407818
146	0xbd011bde	-0.031520717
147	0xbd39d519	-0.04536924
148	0xbd46eab7	-0.048563685
149	0xbd0509da	-0.0324801
150	0xbac9ed25	-0.0015405758
151	0xbbaa52ec	-0.0051978733
152	0xbb093461	-0.0020935761
153	0xbc04fa02	-0.008116247
154	0xbc22cc80	-0.009936452
155	0xbc263ea2	-0.010146769
156	0xbc3b3e71	-0.011428461
157	0xbbf055a5	-0.0073344284
158	0xbc2b51e6	-0.010456538
159	0xbc0b9964	-0.008520458
160	0xbc443aa6	-0.0119768735
161	0xbc8a901e	-0.016914424
162	0xbca958e5	-0.020672271
163	0xbc6d68f4	-0.014490355
164	0xbba84eb2	-0.0051363343
165	0xbbbba19a	-0.0057260515
166	0xbc9ce360	-0.01915139
167	0xbce57aba	-0.028012622
168	0xbc6d1034	-0.014469195
169	0xbbbc9d25	-0.005756038
170	0xbc0f9773	-0.008764136
171	0xbcd3b6c5	-0.025843987
172	0xbcdd6328	-0.02702482
173	0xbc8017b5	-0.015636304
174	0xbbd153c5	-0.00638816
175	0xbb906f67	-0.0044078114
176	0xbc91547f	-0.017740486
177	0xbc4de7b4	-0.012567449
178	0xbc8664d4	-0.0164055
179	0xbc84869b	-0.016177466
180	0xbcb0c890	-0.02158001
181	0xbce6b8a4	-0.028164215
182	0xbca2b7ab	-0.01986297
183	0xbcc852f6	-0.024453621
184	0xbc8d92ce	-0.017281916
185	0xbbccfaa8	-0.0062554665
186	0xbc5a6050	-0.013328627
187	0xbd26bdde	-0.040708415
188	0xbcf6262c	-0.030047499
189	0xbc77817f	-0.015106558
190	0x3b251c4c	0.0025193868
191	0xbccca647	-0.024981631
192	0xbd35b7d7	-0.044364776
193	0xbcdbb4a6	-0.026819538
194	0xbcba6756	-0.022754353
195	0xbd0d9255	-0.03456338
196	0xbd693244	-0.056932703
197	0xbd5da83e	-0.054115526
198	0xbcd752b6	-0.026284557
199	0xbc5d8b0d	-0.013521922
200	0x3bd6ef7c	0.0065593105
201	0x3c1db1af	0.009624883
202	0x3a2e710d	0.0006654419
203	0xbace4ad2	-0.0015738851
204	0x3904336c	0.00012607657
205	0x3c1f4a14	0.009722251
206	0x3b3a5523	0.0028432093
207	0xbbf61740	-0.007510096
208	0xbba5883f	-0.005051642
209	0xbb4792ea	-0.0030452558
210	0x3ad1d6f0	0.0016009491
211	0xbadd76da	-0.0016896382
212	0xbbd4b354	-0.006491104
213	0xbba1ed6d	-0.0049416334
214	0xbc2ba8a2	-0.010477217
215	0xbbe4aaba	-0.00697836
216	0xbb09e368	-0.0021040086
217	0xbb62821a	-0.003456241
218	0xbbb76849	-0.0055971486
219	0xbc162145	-0.0091632055
220	0x3aab28d8	0.0013058437
221	0x3a7dac20	0.00096768327
222	0xba87f7f3	-0.0010373577
223	0xbb9f3e10	-0.0048596933
224	0xbc0c8408	-0.008576401
225	0xbb6d5a42	-0.0036217128
226	0xbb3e15ac	-0.0029004617
227	0xbaab66e6	-0.0013076931
228	0xb91a3f80	-0.0001471024
229	0x3a878f93	0.0010342471
230	0x3b065587	0.0020497756
231	0xbb49350a	-0.003070178
232	0xbbc3b2b2	-0.00597223
233	0xbb74cafe	-0.0037352438
234	0xba55b9be	-0.0008152983
235	0x3b01ebf6	0.0019824482
236	0xb9141a18	-0.000141241
237	0xbb5f8340	-0.003410533
238	0x38aea2d8	8.3272986e-05
239	0xbb578256	-0.0032884083
240	0xbb97511c	-0.0046178233
241	0xbb9bb0d2	-0.0047513032
242	0x3b13fa38	0.0022579562
243	0xba9dfb8e	-0.0012053119
244	0x3aad45f4	0.00132197
245	0xbb96c1ab	-0.0046007237
246	0xbb1fb7e2	-0.0024371077
247	0x3b271ee2	0.0025500585
248	0x3a0def79	0.00054144074
249	0xbb05bde0	-0.0020407364
250	0x3bf9a688	0.007618729
251	0x3c9a0b4d	0.018804217
252	0x3c28bc1a	0.010298753
253	0xbb6d7780	-0.0036234558
254	0xbccffc9c	-0.025389008
255	0x3b9158aa	0.0044356184

momentum_buffer f4 [20]
0	0xb916124d	-0.00014311932
1	0xbc04e58a	-0.008111367
2	0x3b1d8450	0.0024035163
3	0x3b4455d6	0.0029958389
4	0xbbd04b29	-0.006356616
5	0xbbaaea48	-0.005215917
6	0xbc2bcdb8	-0.010486059
7	0x3bb72402	0.0055890093
8	0xbaf74fa7	-0.0018868343
9	0xbc02b187	-0.007976896
10	0x3c713c0e	0.014723791
11	0xbb120a77	-0.002228407
12	0x3b24a45b	0.0025122378
13	0xbbec3918	-0.0072089545
14	0x3c38aaf0	0.011271223
15	0xbaa1e620	-0.0012351908
16	0x3bc8427a	0.0061114402
17	0xbc66d991	-0.014089958
18	0xbab22c8e	-0.0013593601
19	0x3c9cf190	0.019158155

momentum_buffer f4 [10, 320]
0	0x3df8c5cf	0.12147104
1	0x3df76cb1	0.12081278
2	0x3d930188	0.071780264
3	0x3e02287c	0.12710756
4	0x3e2b3c13	0.16722135
5	0x3d982dba	0.07430597
6	0xbae7e2d0	-0.0017691497
7	0x3b0ecb7d	0.002178877
8	0x3dc499cc	0.09599647
9	0x3c6ba72c	0.014383119
10	0x3c29f6d1	0.010373787
11	0x3bf3753c	0.007429747
12	0x3db8fc99	0.09032554
13	0x39778d40	0.00023608375
14	0x3cbefa39	0.023312675
15	0x3c906340	0.017625451
16	0x3aca92bc	0.0015455107
17	0x3b9737e8	0.004614819
18	0x3b7b6fb2	0.0038366136
19	0x39929441	0.00027957748
20	0x3c156fb5	0.009120871
21	0x3d90d80e	0.07072459
22	0x3dc974a0	0.098366976
23	0x3dedcc71	0.1161126
24	0x3c7bc6a0	0.01536718
25	0x3b589e5e	0.0033053379
26	0x3b762b50	0.0037562437
27	0x3a102d75	0.00054999377
28	0x3d6c4a28	0.05768791
29	0x3c5c753d	0.013455686
30	0xbba78bfe	-0.005113124
31	0xba2ce65f	-0.0006595607
32	0x3d01d994	0.03170164
33	0x3dcb990a	0.09941299
34	0x3e5e0054	0.21679813
35	0x3e88d5fb	0.26725754
36	0x3cb51197	0.022103114
37	0x3d107414	0.03526695
38	0x3d4df086	0.05027821
39	0x3bd1f4bc	0.0064073484
40	0x3d892728	0.066969216
41	0x3dc98fd6	0.09841888
42	0x3da81637	0.08207362
43	0x3c1e998f	0.009680166
44	0x3ab1d4bc	0.0013567428
45	0x3d8ab6e8	0.06773168
46	0x3dd8cef2	0.10586347
47	0x3ce94b39	0.028478252
48	0x3bbb5f33	0.0057181357
49	0x3c51c5eb	0.012803535
50	0x3880991c	6.1320345e-05
51	0xb8adbfcb	-8.285007e-05
52	0x3cce00a0	0.025146782
53	0xba37dc60	-0.00070137344
54	0x3c0f12dd	0.008732525
55	0x3cb4d756	0.022075336
56	0x3c8ddf69	0.017318444
57	0x39399445	0.0001769821
58	0x38de31b5	0.000105950436
59	0x387c8a81	6.0210474e-05
60	0x3c8441cc	0.016144656
61	0xb9cb88ac	-0.00038821006
62	0x3b3fa070	0.0029239915
63	0x3b964c20	0.0045867115
64	0x3bea2201	0.007145167
65	0x3c3e97ac	0.011632841
66	0x37b879a0	2.1991145e-05
67	0x397750d0	0.0002358586
68	0x3d01d066	0.031692885
69	0x3d9eb776	0.07749836
70	0x3e32aade	0.17447993
71	0x3e579e52	0.21056488
72	0x3d607db1	0.05480737
73	0x3bf10304	0.007355096
74	0x3d3a644f	0.045505818
75	0x3d8ec7c7	0.06971698
76	0x3e2dfea4	0.16991669
77	0x3c8aab8e	0.016927507
78	0xbbd42ea9	-0.006475289
79	0xba7194c4	-0.0009215588
80	0x39dfbdd3	0.00042675305
81	0x3c923b7c	0.01785063
82	0x3cbed706	0.02329589
83	0x3d011d23	0.031521928
84	0x3aab290a	0.0013058495
85	0x3d1f8287	0.03894284
86	0x3bd9003d	0.006622343
87	0x3a932bfc	0.0011228318
88	0xbb84c742	-0.0040520737
89	0x3da8417e	0.08215617
90	0x3d9fb983	0.077990554
91	0x3b1a17e6	0.002351278
92	0xb8c0292a	-9.162941e-05
93	0x3d2e8254	0.04260476
94	0x3d694f7e	0.056960575
95	0x3c75dc18	0.015006088
96	0x3b46f126	0.0030356138
97	0x3dd512d2	0.1040398
98	0x3cafd4c6	0.021463763
99	0x3b876e95	0.0041330555
100	0x3d573366	0.05253925
101	0x3dfd7684	0.12376121
102	0x3b8c0f04	0.004274251
103	0x3ca080b2	0.019592617
104	0x3de7385c	0.112900466
105	0x3dec6a56	0.115437195
106	0xbc3616a4	-0.011113796
107	0xbc370394	-0.011170287
108	0x3d9eaca1	0.0774777
109	0x3da6c9dd	0.08143971
110	0xb9441d80	-0.00018703006
111	0x3b1a696f	0.0023561378
112	0x3c976409	0.018480318
113	0x3d2286d0	0.03967935
114	0x3d906882	0.07051183
115	0x3df99ac2	0.12187721
116	0x3c7bf570	0.015378341
117	0x3c99ce63	0.01877517
118	0x3b5c7c85	0.0033643555
119	0x3baaa91c	0.0052081477
120	0x3c56afea	0.013103465
121	0x3cf582d0	0.029969603
122	0x3da03c0e	0.078239545
123	0x3d0f704b	0.0350192
124	0x3c302b9b	0.010752584
125	0x3c7cb811	0.015424744
126	0x3d36d3d5	0.044635613
127	0x3cb66dba	0.022269119
128	0x371632cb	8.952523e-06
129	0x369b054a	4.6199757e-06
130	0xb6dd6b1b	-6.598782e-06
131	0x3c2297ff	0.009923934
132	0x35ea7994	1.7469742e-06
133	0x360ba5d0	2.080913e-06
134	0x370a8439	8.2562265e-06
135	0x38e480e4	0.00010895895
136	0x37213101	9.607757e-06
137	0x36353868	2.7003935e-06
138	0x35901864	1.0735935e-06
139	0x37aaeabb	2.0374884e-05
140	0x37a7ca46	2.0002142e-05
141	0xb86434b0	-5.4408505e-05
142	0x3b3ec0d5	0.0029106636
143	0x3bb1c415	0.005424986
144	0x3af09b95	0.0018356914
145	0x3d957a92	0.07298769
146	0x3e06125b	0.1309294
147	0x3e082bb4	0.13297921
148	0x3ae3cd98	0.0017379997
149	0x3c161f68	0.009162761
150	0x3b74fdea	0.003738279
151	0xb998eee0	-0.00029169675
152	0x3b5a4758	0.0033306684
153	0x3e08110e	0.13287756
154	0x3e003c58	0.1252302
155	0x3c06978a	0.008214841
156	0xbc326507	-0.010888345
157	0x3dc064ef	0.093942516
158	0x3e149ad0	0.14512181
159	0x3cfa6f68	0.0305707
160	0x3d1a27e3	0.037635695
161	0x3c328ddc	0.01089808
162	0x3c95c01d	0.018280083
163	0x3d8fda25	0.0702403
164	0x3cf125f9	0.029437052
165	0xbbe2c137	-0.0069200057
166	0x3d1d9d80	0.03848028
167	0x3cadbbf5	0.021207789
168	0x3d710660	0.05884397
169	0x3d37b30c	0.044848487
170	0xbb3888de	-0.002815775
171	0x3bd27fe9	0.0064239395
172	0x3c094e6a	0.008380512
173	0x3d991e9c	0.074765414
174	0x3d7aaf74	0.06120248
175	0x3c1ff33f	0.009762584
176	0x3d3201bb	0.04345868
177	0x3de9e376	0.11420338
178	0x3d3d2759	0.046180103
179	0x3decb560	0.11558032
180	0x3dab880f	0.083755605
181	0x3da1beea	0.07897742
182	0x3b3545f9	0.0027660115
183	0x3b518be5	0.0031974253
184	0x3d03a447	0.03213909
185	0x3d3419bd	0.04396986
186	0x3bbb8639	0.0057227877
187	0x3a8b7df8	0.00106424
188	0x3d531c67	0.05154076
189	0x3ce7e75d	0.028308565
190	0x3a2eca80	0.0006667748
191	0x39905fd4	0.00027537218
192	0x3a26ab8e	0.0006357961
193	0x38156a95	3.562363e-05
194	0x37a34f98	1.9468178e-05
195	0x390599b4	0.00012741127
196	0x37a78cf3	1.9973586e-05
197	0xb8e76435	-0.000110336034
198	0x3ca7b6c3	0.02047289
199	0x3bf107d8	0.0073556714
200	0x36da5317	6.506579e-06
201	0xb98f45fb	-0.00027327225
202	0x3cdcd908	0.026958957
203	0x3d0102a8	0.031496674
204	0x38821ebd	6.2046085e-05
205	0x38816d8d	6.171605e-05
206	0x39038229	0.00012541622
207	0x3a0cae14	0.0005366516
208	0x3b2cddd3	0.0026377335
209	0x3c28c212	0.010300176
210	0x3d29e4d6	0.041478
211	0xbc708f14	-0.01468255
212	0x3ba0a5b3	0.0049025654
213	0x3e36f526	0.17866954
214	0x3e06b8ae	0.13156387
215	0x3e144def	0.14482854
216	0x38c60880	9.442959e-05
217	0x3dcde12e	0.10052715
218	0x3cec0a6a	0.02881356
219	0xbc0584c0	-0.008149326
220	0x3d877f0e	0.06616031
221	0x3dba0294	0.09082523
222	0x3cb11698	0.021617219
223	0x3916b6c0	0.00014373194
224	0x39a10cf0	0.00030717952
225	0x3d898e6b	0.06716617
226	0x3d66e1d4	0.05636771
227	0x3d651956	0.055932365
228	0x3a9f0415	0.0012131954
229	0x3dd314c4	0.10306695
230	0x3d9d05e3	0.076671384
231	0x3c9fa7ec	0.019489251
232	0x3c255a25	0.010092293
233	0x3d7d956c	0.061910078
234	0x3da227a0	0.07917714
235	0x3cc47057	0.023979349
236	0x3d72356e	0.059132986
237	0x3e261364	0.16218334
238	0x3d748e3c	0.059705958
239	0x3c208d8b	0.0097993715
240	0x3c3f8780	0.011690021
241	0x3d50aca9	0.05094591
242	0x3dc4eaa6	0.09615068
243	0x3e2c1e22	0.1680837
244	0x3b8012c5	0.0039084875
245	0x3b1b0f2c	0.0023660166
246	0x3b9cd33f	0.0047859247
247	0x3ba258c8	0.004954431
248	0x3cc49ba0	0.023999989
249	0x3d33cd4e	0.043896966
250	0x3d6b591e	0.057458036
251	0x3b70b557	0.003672918
252	0xbc69d990	-0.014273062
253	0x3c9e4428	0.019319609
254	0x3da6e46b	0.08149036
255	0x3cdeaa2e	0.027180757

momentum_buffer f4 [10]
0	0x3ced3bee	0.02895924
1	0xbb9bdea4	-0.0047567654
2	0x3af7e04c	0.001891145
3	0xb8f0ff80	-0.000114916824
4	0xbcfdb73e	-0.030971166
5	0xbc98d5b2	-0.018656585
6	0xbc04fdd5	-0.008117159
7	0x3bc3afa9	0.005971868
8	0x3c22ee42	0.0099445
9	0x3c81d785	0.015849838
