oracle/train/non-iid/checkpoint/mnist/ckpt_6_1.pth (torch, 71489 bytes, 12 tensors)

conv1.weight f4 [10, 1, 5, 5]
000000 83 dd df 3d 6a 16 55 3d 52 69 1b be 4b ed 4d be
       0.10930922 0.05202333 -0.15176895 -0.20110051
000010 9f 80 d7 3c 44 d6 a8 3d f5 dc 26 bb 69 99 01 3e
       0.026306449 0.08243993 -0.002546129 0.12656178
000020 59 93 36 3d df f8 45 bd b4 18 93 3e a4 dc 55 3e
       0.044574115 -0.048333045 0.28729784 0.20884949
000030 85 57 77 3e 1e b2 ec 3d c7 29 e5 bd 9f 0f 02 3e
       0.2415448 0.11557411 -0.11189609 0.12701271
000040 03 e1 70 3e 6a d0 fc 3b 4a ba 41 bd b4 a9 74 3d
       0.23523335 0.0077152746 -0.0472968 0.059732154
000050 7d 61 d9 3d de d1 e6 3d 20 5a 3b bc 82 25 76 3e
       0.106142975 0.11270498 -0.011435062 0.24037746
000060 f2 1c 78 3e 85 d4 ba 3d e2 a2 34 3c 44 e2 02 be
       0.24229792 0.09122566 0.011025162 -0.12781626
000070 ce 98 04 bc 42 68 ee bc c3 06 11 3e b3 d1 f2 3d
       -0.008093072 -0.029102448 0.14162736 0.11856403
000080 61 51 33 be 43 c0 27 be bc cd 42 be e0 c9 17 be
       -0.17511512 -0.16381936 -0.19023794 -0.14823103
000090 e8 70 3f 3e 13 65 ee bd 64 5e d4 bd 62 21 90 3d
       0.18695414 -0.11640372 -0.10369566 0.07037617
0000a0 91 2e 18 3e 4e 6c 05 3e 46 3b fe 3d 64 36 86 3d
       0.14861514 0.13029596 0.12413649 0.06553343
0000b0 01 10 08 3e 8e af 08 3e 78 f5 2e ba 62 fe 53 bc
       0.13287355 0.13348219 -0.0006674151 -0.012939068
0000c0 3d 2c f8 bd 56 a0 6e 3e f3 74 0e 3e 70 3c 2f be
       -0.12117813 0.23303351 0.139118 -0.17112899
0000d0 03 61 75 3c b7 94 14 3e 00 ba ab bd 12 a6 cc bd
       0.014976743 0.14509855 -0.08385086 -0.09992613
0000e0 c8 e3 0d 3d 22 85 42 be 71 64 c0 bd 99 b3 f0 3d
       0.034641057 -0.18996099 -0.09394158 0.117530055
0000f0 5d ca 0b be 10 a0 2c be 8c 17 1c be 5f 85 1c be
       -0.13651414 -0.16857934 -0.15243357 -0.15285252
000100 8d 65 64 3e 0e d0 50 3e 68 eb 58 3e 7b 9f 17 3c
       0.22304364 0.20391867 0.2118355 0.009254332
000110 31 ba 08 3e ba 9d f4 3d 62 fa 2a 3e 4e 12 85 3d
       0.13352276 0.119441465 0.16697076 0.06497632
000120 96 69 05 be fb 51 04 3e bd d6 81 3d 2e 4a 59 3e
       -0.13028559 0.12921898 0.06339786 0.21219704
000130 cb 60 1c 3e b7 7b c4 bd 14 c9 63 bd e6 f7 6c 3e
       0.15271299 -0.09593909 -0.055611685 0.23141441
000140 90 20 3a 3d 36 09 35 bc 56 bc 34 bd 06 7b 79 3d
       0.04544121 -0.011049559 -0.044124924 0.06090834
000150 61 6a 63 3e 53 f1 34 be 98 9f 06 be 10 d3 7e bd
       0.22208549 -0.17670183 -0.13146818 -0.062213004
000160 e6 8d 81 3e f3 0a 35 3e 48 94 14 be 8d cd df bd
       0.25303572 0.17679958 -0.1450969 -0.109278776
000170 0c 15 a8 3c 92 51 16 3e e1 3f 33 3e df 67 1a ba
       0.020517848 0.14679554 0.17504837 -0.0005890112
000180 3e e6 f8 bd 45 b2 19 be a4 21 cc bd 4b 1d 40 3d
       -0.1215329 -0.1500941 -0.09967354 0.046902936
000190 fb 9f 48 3d e2 66 88 3d 78 11 28 3b 89 e2 d2 3d
       0.048980694 0.06660248 0.0025645178 0.102971144
0001a0 b2 a3 07 be 0b 15 ef bd 1f c0 22 3e 0f 81 46 be
       -0.13246039 -0.116739355 0.15893601 -0.1938517
0001b0 cf bf 28 be ad 74 1a be fc 27 dd bc c0 f5 1e 3d
       -0.16479419 -0.15083571 -0.026996605 0.038808584
0001c0 69 83 30 be ac 57 4b bc ef c7 47 bd 66 3f 11 bc
       -0.17237629 -0.012411039 -0.048774656 -0.008865213
0001d0 56 66 38 be c2 62 18 be f3 1e 4a bd 3d b3 55 be
       -0.18007788 -0.14881423 -0.04934592 -0.20869155
0001e0 ce a6 3b be 28 ca 83 3d bc 74 1b be c0 ed 53 3e
       -0.1832535 0.064350426 -0.1518125 0.20696163
0001f0 ab 5c 5a 3e e2 54 3c be 62 88 fc bc 91 6f 28 bd
       0.21324413 -0.18391755 -0.030826751 -0.041122023
000200 8b cd 4a 3d a6 47 58 3d 05 95 e8 bd e4 6e 3c be
       0.049512427 0.052802704 -0.11356548 -0.18401676
000210 55 be 00 bc f2 f1 c9 3d 7b 32 59 3e 16 da 31 be
       -0.007857879 0.098606005 0.21210663 -0.1736835
000220 2b 97 53 3d 1b e5 43 bd bf 7d c6 3d 71 b5 bd bd
       0.051657837 -0.047825914 0.09691953 -0.09263123
000230 fb 3c 12 3e 3f 4d 1f 3e c1 58 0b 3c 49 e1 94 3d
       0.14281075 0.15556811 0.008505047 0.07269532
000240 ca ab b6 bc 8f 34 0a bc 13 f4 e5 bd 71 9a 38 3d
       -0.022298712 -0.0084353825 -0.11228194 0.04506916
000250 bf 71 db bd 19 57 65 bd a5 13 f3 3c 6d 04 3a bd
       -0.10715055 -0.055991266 0.029672453 -0.045414377
000260 c1 2c b9 bd d6 24 4d be 24 b8 ec bc 39 29 c6 bd
       -0.09041739 -0.20033583 -0.028896399 -0.09675831
000270 ec 3d 4c 3e 1b 3e 67 3d 4b 9f 9b bd d6 f0 e6 bd
       0.19945496 0.056455713 -0.07598742 -0.112764046
000280 0a f6 27 3e 05 b3 78 3e 99 6b f4 bd f0 9b 4a 3e
       0.1640245 0.2428704 -0.11934585 0.19786048
000290 bc 40 24 be ec 28 50 3e 41 42 aa bd 19 2a 74 3e
       -0.16040319 0.2032811 -0.08313418 0.23844184
0002a0 01 79 f2 3d 39 41 90 3d 58 d5 27 3e a6 82 f1 3d
       0.11839486 0.0704369 0.16389978 0.11792497
0002b0 bc 73 e8 3d 37 ee 4a 3d 53 ee a9 bc 02 55 b2 bd
       0.113501996 0.049543586 -0.020743525 -0.0870762
0002c0 5e 28 1b bd 9c 48 b2 bc fb 94 a0 3d 71 94 43 be
       -0.037880294 -0.021763138 0.07840916 -0.19099595
0002d0 c0 fe 48 3d f2 bd d2 3d 1f f9 20 3e aa 29 e4 bc
       0.049071074 0.102901354 0.15720032 -0.027851898
0002e0 bc 38 e4 bd 37 b8 01 be 23 5e 87 bd 3e fa ec 3d
       -0.11143634 -0.12667929 -0.06609752 0.115711674
0002f0 c8 3c 59 bd 7e 8e 19 3e 48 9b 51 3c 84 d8 8a 3d
       -0.05303648 0.14995763 0.01279337 0.06779578
000300 db a5 46 3d 1d 49 b2 3d b3 32 d0 3d 01 46 44 3e
       0.048498016 0.087053515 0.1016592 0.1916733
000310 a8 6d cc bc 4a 53 39 3d 39 65 b4 3c 9c 35 a7 bd
       -0.024954632 0.045245446 0.022020923 -0.08164522
000320 95 e4 11 3d f3 5d 48 be 1e b0 c0 3d 9d e0 35 be
       0.035618383 -0.19567089 0.09408592 -0.17761464
000330 b8 2b 97 bd ac 14 5b 3e d7 ac fa bb 6b 39 8a bd
       -0.073813856 0.21394604 -0.0076499986 -0.06749233
000340 3f a2 66 3e f4 a9 87 3e 08 66 31 3e 83 f1 4e bd
       0.2252283 0.2649685 0.17324078 -0.050523292
000350 bc 71 96 3e 3c e6 6a 3e 47 98 e8 3d 58 3a 75 3e
       0.29383647 0.2293939 0.113571696 0.23948038
000360 65 ac 55 3e 11 59 3c 3e e4 b8 63 3d 8c 4f 6c 3e
       0.20866545 0.18393351 0.055596247 0.2307722
000370 c6 b3 45 3d 33 00 32 3e 67 1c 8d 3d 42 36 f2 bd
       0.04826715 0.17382888 0.06890183 -0.11826755
000380 94 f7 15 bd 32 b1 05 be 82 f3 17 3e e8 11 04 be
       -0.036613062 -0.13055876 0.14838985 -0.12897456
000390 54 9b 43 3e bc 20 83 3d 9d 64 2a 3e 90 75 ba bd
       0.19102222 0.06402728 0.16639943 -0.091044545
0003a0 b8 29 39 3c 3b 13 1c be 12 09 2e be 48 8c 23 be
       0.01130145 -0.15241711 -0.16995648 -0.15971482
0003b0 3f 41 42 3e 39 9b 15 3c 15 df d6 3d 32 ff 26 be
       0.18970202 0.009131246 0.10491768 -0.16308287
0003c0 e4 07 36 3e f4 94 ab 3c f5 7d 1a 3e a2 1a 91 3d
       0.17776448 0.02094505 0.15087111 0.07085158
0003d0 d5 dc 80 3d 69 b6 ba bc 71 ff 39 3d f3 bf f7 bd
       0.0629212 -0.022792058 0.045409624 -0.12097158
0003e0 b9 72 08 be 11 13 cc bb
       -0.13325013 -0.006227859

conv1.bias f4 [10]
000000 3c 09 04 3d 64 5d 22 3e 23 93 8b bc 2d 4b 03 3d
       0.03223537 0.15855938 -0.017037934 0.032054115
000010 84 cc 2f 3e 6b 8c a9 3d 0f 1e de bc 1f e6 c3 bc
       0.1716786 0.08278736 -0.027113942 -0.023913441
000020 eb e8 33 3e ba fd b6 ba
       0.1756932 -0.0013961114

conv2.weight f4 [20, 10, 5, 5]
000000 08 26 5d bd 91 d8 91 bd 66 2a 23 3b 30 86 83 3c
       -0.053991348 -0.07121385 0.0024897098 0.016055197
000010 21 97 8c bd c0 a2 94 bd d6 5f 81 bb 8a 33 67 bd
       -0.06864763 -0.072576046 -0.003948192 -0.056445636
000020 af 73 8d 3c 50 27 5c 3b bc 37 c6 bc da 17 f6 3c
       0.017267076 0.0033592768 -0.024196498 0.03004067
000030 68 22 14 bd 5f 17 6a bd ac 57 1b bc 7c b3 cf 3d
       -0.036165625 -0.057151195 -0.009481352 0.10141656
000040 f2 8f 25 3d 1d 5b bf 3c 3f 7b 86 3d b8 67 ed bc
       0.04042048 0.023358876 0.06566476 -0.028980121
000050 8c 42 1f 3d 1c 4a d0 3d 22 fe ab 3d e4 21 a9 3d
       0.038881823 0.10170385 0.08398081 0.08258417
000060 c3 55 80 bc 9a 5c 39 3c 0b ce 80 bd ba 0b 8b bd
       -0.015665894 0.011313582 -0.062892996 -0.06789346
000070 01 d1 c4 bc c7 70 e6 3c 0f d7 83 bc 17 b1 f3 3c
       -0.024025442 0.028129948 -0.016093759 0.029747529
000080 47 5a fe bc 7c 58 82 3c 37 27 f4 bb 09 11 97 3d
       -0.031048907 0.015911333 -0.007450964 0.07376296
000090 c6 ea 42 bd 77 55 3e bc 8d af dd ba a5 33 73 3d
       -0.04758718 -0.011617056 -0.001691328 0.059375424
0000a0 88 95 2e bd b0 10 95 3d 04 d4 a7 3d 6b df 2e 3d
       -0.042623073 0.072785735 0.08194736 0.042693537
0000b0 ae c7 8c 3d be d3 54 3d a9 f8 5a 3d a1 a2 55 3d
       0.068740234 0.051959746 0.053459797 0.052157048
0000c0 34 5c 09 bd 5a 62 a4 3c bc a1 14 3d 93 58 f9 bb
       -0.033535197 0.020066429 0.036287054 -0.007609436
0000d0 15 99 42 3d 37 f2 65 bd 70 f6 58 bb 54 09 46 bb
       0.04750927 -0.056139197 -0.0033105873 -0.0030217962
0000e0 3a fa 6e 3d 0d 98 90 3c 6c 5f 74 3b fa c5 65 3d
       0.058344103 0.017650628 0.0037288321 0.05609701
0000f0 2c b0 9c 3d d1 3f f9 39 26 1b dd 3c fa 06 61 3d
       0.076507896 0.00047540528 0.026990484 0.054938294
000100 ee 60 df 3c 77 c3 04 bd 34 66 69 3d 20 e8 09 bd
       0.0272679 -0.032412972 0.056982234 -0.033668637
000110 f9 d8 b6 bb c1 01 25 bd 73 26 62 bb 11 e3 ef bc
       -0.0055800644 -0.040284876 -0.003450778 -0.029283078
000120 86 d3 ab 3c 01 d7 26 3d 5d 47 47 3d d5 27 0d bd
       0.020974886 0.040732387 0.04865204 -0.034461815
000130 9b 8a 36 3d 7f 3c 1d 3b f5 53 73 bd ea 67 6d 3c
       0.04456578 0.0023992357 -0.05940624 0.014490107
000140 2a 88 10 bc 58 6f e0 3c 7d 99 ea 3c ec 8b c7 bc
       -0.008821527 0.027396843 0.028637642 -0.024358712
000150 cf 92 1c 3d 97 cd 0a 3d 73 ce 2e bd 84 4a a3 bd
       0.038225945 0.033887472 -0.042677354 -0.07973197
000160 e2 d7 86 3c ec a0 a7 bc 2b 28 c5 bb 7e 96 78 bd
       0.016460363 -0.020462476 -0.0060167513 -0.060690396
000170 25 93 5e bd 7d 84 b8 bc 35 78 8c bd b6 4d 83 3d
       -0.054339547 -0.022524113 -0.06858865 0.064113066
000180 68 eb 6f 3d 64 64 87 bd 80 f4 5e bd b0 30 a7 3b
       0.05857411 -0.06610945 -0.054432392 0.0051022395
000190 f0 57 fa 3b dd ba 4e bd b6 0f ec 3c 4f 8c 7f 3d
       0.0076398775 -0.050471175 0.028816085 0.062389668
0001a0 bb fb 0f 3c 6f ea 14 bd de 68 bf bc 3f 00 b7 bc
       0.008788045 -0.036356386 -0.023365434 -0.022338985
0001b0 e6 7f e6 bc a6 97 b8 3c f8 ee 73 3c 8b d6 08 bd
       -0.028137159 0.02253325 0.014888518 -0.03340773
0001c0 8e 0f 94 bb e9 86 61 3d 10 68 10 bd fe ba 3e bd
       -0.004518456 0.0550603 -0.03525549 -0.04656505
0001d0 b9 85 67 3b 06 57 2a 3d 9d 7a 2e 3d 6b e7 8f 3b
       0.0035327508 0.0415869 0.042597402 0.004391601
0001e0 d7 6d a4 bc 39 5c 76 bc f0 db 5f bc 6d 2b 6d 3d
       -0.020071907 -0.015036636 -0.013663277 0.057902742
0001f0 6a 52 c4 3c de 09 c7 bc be ff 42 3c 95 07 f6 3b
       0.02396508 -0.024296697 0.011901794 0.007508228
000200 ff 29 1b 3d 51 86 14 bb 15 36 61 3d 33 f1 33 bd
       0.037881847 -0.0022663067 0.054983217 -0.043931197
000210 dd e2 51 3d 0e 44 b6 bc 8b 80 21 bd fe 7c 9e 3c
       0.051241744 -0.022249248 -0.03942923 0.01934671
000220 f6 d8 0b 3c c8 fa 57 3d fa ce 27 3b 56 0b 71 bd
       0.008535614 0.052729398 0.0025605545 -0.0588487
000230 cf 80 4e 3d 6a 45 7d bd dd 7f 90 3c 78 17 d0 bc
       0.05041581 -0.061833777 0.017639095 -0.025401816
000240 95 5c 0d 3d 0b 70 5b 3c ac bd 83 bd 38 e6 70 3d
       0.03451212 0.013393412 -0.064326614 0.058813304
000250 94 e3 1f 3d 04 d1 1d bb 40 a0 61 3b 02 d1 82 bd
       0.039035395 -0.0024080882 0.0034427792 -0.06387521
000260 c8 38 2b 3c de 98 ab bc 91 f0 22 3d 20 3e 10 3c
       0.010450549 -0.020946916 0.039780203 0.008803874
000270 22 7f 81 3d af 9e 6c bc 97 fd 11 39 2b ef 9a bc
       0.06323077 -0.01444213 0.00013922747 -0.018912872
000280 b6 bd 50 3c 44 d4 73 3d d2 b0 3f 3d b8 cf b6 3c
       0.012740543 0.059528604 0.04679949 0.022315845
000290 d9 25 03 3c ec cb a7 3c b4 f3 56 bb 2d c5 ac 3d
       0.008004629 0.02048298 -0.0032799067 0.08436046
0002a0 74 0e 2f bd d7 fa 25 bc 7a de 8e 3d a8 5e 1a 3d
       -0.042738393 -0.010130606 0.06976028 0.037687927
0002b0 e3 ac 80 3d db e1 b1 3c 06 c8 f5 bc 0b 11 a9 bc
       0.062829755 0.021714142 -0.030002605 -0.02063801
0002c0 e6 10 8d bd ba eb 9b 39 20 5e 02 bd 8c 68 8a bd
       -0.06887989 0.00029739534 -0.031828046 -0.06758222
0002d0 a9 d7 1d bc ea 64 54 3d d9 96 af 3c 0d ce 99 3c
       -0.009633937 0.05185405 0.021434234 0.01877501
0002e0 fc 52 d5 3c 40 65 3f 3d bd 80 55 3d 39 b1 69 3b
       0.026040547 0.04672742 0.052124728 0.0035658611
0002f0 24 ba 69 3c b0 5f f8 3c 96 60 6f 3c 2c 73 97 bb
       0.014265571 0.030319065 0.01461043 -0.004621884
000300 f6 21 31 bd f5 c1 75 3d e3 83 9d 3c 67 e4 43 3d
       -0.04324528 0.059999425 0.019227928 0.047825243
000310 d3 47 5d 3d 3e 48 e1 bc ff 3c fb 3c c5 4b 06 bd
       0.054023575 -0.027500268 0.030668734 -0.032787103
000320 13 81 05 39 d4 ea 61 bd bb 32 22 bd d2 ae 6f bd
       0.00012731952 -0.05515559 -0.03959916 -0.05851633
000330 f6 0b 28 3d eb 52 d6 bc 27 5e 49 3d 76 d0 2a 3d
       0.04102703 -0.026162585 0.049162056 0.04170271
000340 24 d3 61 bc 68 5e 42 3d 13 bb a2 3d 73 09 9d 3d
       -0.01378325 0.047453314 0.07945838 0.07667818
000350 c8 16 bf bc dc 37 a3 bc b7 d4 bb 3b 6e 64 20 bc
       -0.023326293 -0.019924097 0.0057321447 -0.009789569
000360 86 09 0d ba d6 8b 94 3d 40 ba c5 3c 30 37 3a 3d
       -0.0005380142 0.07253234 0.024136662 0.045462787
000370 40 d3 ec 3d b0 fa ba 3d e0 fc e5 3c eb c4 bc 3c
       0.1156373 0.09129846 0.028074682 0.023043117
000380 63 66 76 3c 79 f5 29 bd 2a 8a d6 3b 90 52 1c bc
       0.015039059 -0.041493867 0.006547232 -0.009541169
000390 e8 4f 0c 3d e0 6d 2d 3c cc 2b b2 3c 98 5e 26 bd
       0.034255892 0.010585278 0.0217494 -0.040617555
0003a0 0d 86 35 3d c0 8f 4f 3d e9 b0 0a bd 94 14 f7 3b
       0.044317294 0.0506742 -0.03386012 0.007540295
0003b0 37 2f 90 3d e4 4c 76 ba 7a 0b cd 3c 2e 6d 3b 3d
       0.070402555 -0.0009395613 0.025029887 0.04575842
0003c0 8d b1 17 bb 4f a4 21 bd 1c 69 f2 bc 93 da 58 3c
       -0.00231466 -0.039463338 -0.029591136 0.013235706
0003d0 3d d9 36 3b ee b8 8d 3c 8e 5b 44 bd 2d 0b e3 3c
       0.002790048 0.017300095 -0.047938876 0.02771529
0003e0 ae c2 6f bd 24 f4 0e 3d 51 bf 84 bd 4c e3 e6 3c
       -0.05853527 0.0349008 -0.06481803 0.028184555
0003f0 bf 24 0b bc 05 0c fc bc 6d ca 84 bd 1b d4 a6 3c
       -0.008492648 -0.03076745 -0.06483922 0.020364812

conv2.bias f4 [20]
000000 df 54 0d bd 76 42 24 bd 6f a3 5b 3d cf 74 30 bd
       -0.034504768 -0.040102445 0.05362266 -0.043080147
000010 61 0e 20 bd 20 04 71 bd a9 10 30 bc a7 af 3f 3c
       -0.039076213 -0.058841825 -0.01074616 0.011699594
000020 2b d9 70 3d 1e 46 49 bd 63 64 d9 bb b2 d1 f1 3c
       0.058800858 -0.049139135 -0.0066342815 0.029518936
000030 91 80 23 3a 9a 4a 35 3c c7 98 48 bc bf e2 50 3d
       0.00062371144 0.01106515 -0.012243456 0.050997492
000040 8d d3 cb 3c 6f 44 2b 3d 30 5e 45 bc 87 6f 17 bd
       0.024881149 0.04181331 -0.012046382 -0.036971595

fc.weight f4 [10, 320]
000000 db d4 23 bd 5d 9d 00 3d ad c0 3b bd fd 1e 4b 3b
       -0.039997917 0.031400073 -0.045838047 0.0030993812
000010 0b cd e8 bc c4 c9 7e bd 15 ca 62 bc fa 40 8a 3b
       -0.028418085 -0.062204137 -0.013842125 0.0042191716
000020 68 89 45 bd 03 49 01 3d df a8 87 bd 0b 9d 1d 3d
       -0.048226744 0.03156377 -0.066240065 0.038479846
000030 37 be 0e 3c 5c a4 c4 3c e6 46 e8 bc f6 bf fe 3b
       0.008712343 0.024004154 -0.02835412 0.0077743484
000040 f9 a6 10 bd 19 a9 1b 3d e8 a5 02 3d d6 de 65 bd
       -0.035315488 0.03800306 0.0318965 -0.056120716
000050 a1 b6 66 bd bd d0 28 3d cf 4e 14 3b 88 b7 e6 bc
       -0.056326512 0.041214693 0.0022629981 -0.028163686
000060 a8 3a e4 bc 99 eb c3 3a 0f ed b4 3c 76 2d 77 bc
       -0.02786 0.0014947533 0.022085695 -0.015086522
000070 73 42 b1 bb 95 47 21 bd e1 b3 31 bd d5 6c 83 bb
       -0.0054095327 -0.039374907 -0.043384437 -0.0040107765
000080 0f 4b 14 3d fb fa 80 bd 12 c6 ed 3c 7b 21 82 bd
       0.036204394 -0.06297871 0.029025111 -0.06354042
000090 57 03 89 bd 5f 61 0a bd e1 4d d8 bc 16 e1 d2 3c
       -0.0669009 -0.033784267 -0.026404323 0.025742095
0000a0 b1 41 4d 3c 9e a6 04 bd 59 c7 9c bd db 49 0b bd
       0.012527869 -0.03238546 -0.0765521 -0.03400598
0000b0 39 29 b0 bc b4 0f 2a bd a3 88 42 bd 49 3e 59 bc
       -0.021504031 -0.041518882 -0.04749359 -0.013259479
0000c0 d9 72 39 bd a3 7b 18 3d c8 56 62 bd 5f 01 55 bd
       -0.045275543 0.037227284 -0.055258542 -0.05200326
0000d0 8d 9a 22 bc aa 8e 1e 3d f4 c5 14 3a d4 3f a5 bc
       -0.009924543 0.038710274 0.0005675249 -0.020172037
0000e0 7c 15 da 3b 02 32 80 bd 10 a4 08 bd 32 77 12 3d
       0.006655393 -0.06259538 -0.033359587 0.035758205
0000f0 b5 e6 23 3d e1 28 d9 3c 8d 1b ce bb cc 5f d9 bc
       0.04001494 0.02650875 -0.0062899054 -0.026534937
000100 d3 3f 87 3c f7 b4 d9 3c a3 8e 5c bd 9c 53 a6 3c
       0.016509926 0.026575549 -0.053846966 0.02030354
000110 b7 42 8a bd 57 de 60 3c cd 9c 1a bd 02 a4 77 bd
       -0.06751006 0.013724885 -0.037747193 -0.060459144
000120 63 42 3e 3c 15 b1 73 bc 79 73 b8 3c 78 62 c1 bc
       0.0116125075 -0.014873763 0.022516 -0.023606524
000130 1b 51 3e bd 71 c5 7b bd 00 ad 26 3c e8 47 05 3c
       -0.046464067 -0.06146759 0.010173082 0.00813482
000140 61 f1 2b bd 02 dd 2f 3d ef 47 1a 3d e4 61 98 bb
       -0.041978244 0.04293538 0.037666257 -0.0046503413
000150 f7 11 81 3c e7 d1 58 bd 0e 1a 4e bd 13 66 ec bc
       0.015755637 -0.052934553 -0.050317816 -0.028857267
000160 09 54 4d bd a4 b7 1d 3d 4c d8 43 3c 45 c3 e0 3c
       -0.05012897 0.03850521 0.011953425 0.027436862
000170 71 e5 66 bc 02 b5 27 bd 76 15 0b 3d 42 6d 88 3b
       -0.014092789 -0.040944107 0.033956014 0.004163415
000180 b6 94 30 bc 2f 48 ad bc 65 fa 26 3d c1 f2 81 bc
       -0.010777643 -0.021152584 0.04076614 -0.015862824
000190 73 16 c6 bc 96 3e c8 bc 60 92 fb 3c bb b9 d7 39
       -0.024180626 -0.024443906 0.030709445 0.00041146376
0001a0 2c 87 f5 3b 38 20 27 bd a5 09 c3 3c 89 dd ea 3c
       0.0074929204 -0.04080221 0.02380831 0.02867009
0001b0 3c c7 1e bc 80 9a 83 bd de 65 d6 3c 72 44 04 3d
       -0.009691056 -0.06425953 0.026171621 0.032291837
0001c0 a0 f7 3d 3d 7d cc 9b 3c 42 66 0e bd ae 74 3d 3d
       0.04637873 0.019018406 -0.03476549 0.046253853
0001d0 39 6f 4d bd 5f 11 17 bd e9 9b 20 bd fb 11 78 bc
       -0.0501549 -0.0368818 -0.039211188 -0.015141006
0001e0 a2 e5 e3 bb 81 23 18 3d 7a e9 83 3c 26 70 3a 3d
       -0.0069548646 0.037143234 0.016102541 0.04551711
0001f0 ca fb 14 bd 1b a5 65 bd 9b c8 71 bd 41 7a 35 bd
       -0.036372937 -0.05606566 -0.059029203 -0.044306044
000200 8b 8b 15 3d c7 78 7d bd e8 41 a0 3c 26 17 18 3c
       0.03651003 -0.06188276 0.019562677 0.009282863
000210 41 5f 9c 3b 6b 16 f9 bb eb c3 d2 bc c4 67 1a 3c
       0.0047720973 -0.0076015494 -0.025728187 0.009424154
000220 a7 28 a1 3c 40 94 6b bd d0 82 79 bd 3f a3 ba bc
       0.019672705 -0.05751443 -0.06091577 -0.02278292
000230 85 4e 3d bd d7 35 52 bc a6 2b ff bc 64 d2 90 bc
       -0.04621746 -0.012830219 -0.031148743 -0.017678447
000240 63 7a 3d bd 88 2b 32 3d 5a 85 0a bc e7 71 4d 3d
       -0.046259295 0.043498546 -0.008454645 0.050157454
000250 81 1a 0b 3d 70 29 00 3d 37 4d c8 bc be e5 72 bd
       0.033960823 0.031289518 -0.024450881 -0.05930113
000260 87 e5 59 bd b1 f2 32 3d 16 df a2 bc 32 1f d5 3c
       -0.05319741 0.04368848 -0.019881766 0.026015852
000270 fe 41 fc 3c 02 4b 22 3d 88 de 5a bd 20 d0 6f 3b
       0.030793186 0.039622314 -0.05343488 0.0036592558
000280 1f 89 74 bd ca bf 13 bd 9e 6a 18 bd 9b 45 40 3d
       -0.05970108 -0.036071576 -0.037211053 0.04694138
000290 b8 d7 96 3c 41 5a 27 bd db 53 bc bb a2 1d 25 bd
       0.01841341 -0.040857557 -0.005747301 -0.040311463
0002a0 77 9b ab 3c 0e 0f 9b 3c cc 17 22 3d 93 77 ad bc
       0.020948155 0.018928077 0.039573476 -0.021175181
0002b0 38 fe 2c bd 66 47 36 bd 85 3c 9b 3b a4 22 2d 3d
       -0.04223463 -0.044501685 0.004737439 0.042269364
0002c0 9f 83 cd 3c 4a 11 a4 bb 65 39 7a bd 6a ab 4c 3a
       0.025087176 -0.005006944 -0.061089892 0.0007807525
0002d0 26 e5 22 3d 71 68 db bc cd 6b 1d bd 2c a9 af bc
       0.039769314 -0.0267832 -0.038432885 -0.021442972
0002e0 37 12 4c bc ce 23 a4 bc 17 b3 b6 3c 66 05 c2 bc
       -0.012455515 -0.020036604 0.022302194 -0.023684215
0002f0 c8 de 0e bd 6d bf 1c 3d 17 54 1c bc 8a 1b b1 3c
       -0.03488043 0.038268495 -0.009541533 0.021619577
000300 10 b3 17 3c 3b 1c ed 3c f8 76 b8 3c cb 38 47 bb
       0.009259 0.028944125 0.022517666 -0.0030398841
000310 c5 e5 59 3c 81 f2 12 bd 97 8e 4b bd 76 3a 3f 3d
       0.01329941 -0.0358758 -0.04969653 0.046686612
000320 84 7c 73 bc e2 7c 38 bd 2c 44 df bc 8d cb cb 3b
       -0.01486123 -0.045040973 -0.027254187 0.0062193335
000330 63 12 2a bd 50 bf ba bb cd f3 64 bd 68 e6 33 3d
       -0.04152144 -0.0056990758 -0.05589657 0.043920904
000340 7d 58 48 bd d6 88 5e bd 86 3e 4e 3c 88 9f 40 bd
       -0.048912514 -0.054329716 0.012588149 -0.04702714
000350 d2 1f 1f 3d 26 48 48 3c f2 90 c8 3c 91 69 93 3c
       0.038848706 0.012224233 0.024483178 0.017994674
000360 cb c9 b1 3c 57 9d 4f bc ef 89 06 3c ca f2 1a bd
       0.021702668 -0.01267179 0.008211597 -0.037829198
000370 ca 65 fd bc 68 26 34 3d bf be 4b bd 08 28 77 3c
       -0.030932326 0.04398194 -0.049742457 0.015085228
000380 7a 1c 55 bd 63 85 20 3d 44 ec 30 bd bf fb 2a bd
       -0.05202911 0.039189707 -0.04319407 -0.04174399
000390 a3 00 3c bd 05 a5 b6 3c 76 e1 47 bc 40 bf 09 bc
       -0.045899045 0.022295484 -0.01219975 -0.008407414
0003a0 a7 97 31 bd 19 c9 48 3d 75 5e 1f bd ba 63 5d bd
       -0.043357518 0.049019907 -0.03890844 -0.054050185
0003b0 70 69 4e 3d 4a 64 26 bd 69 2f 1e bd 7b 9d 32 bd
       0.05039352 -0.040622987 -0.038619433 -0.043607216
0003c0 8c fa a5 38 81 e3 ca 3c 1f 24 09 bd 36 e2 95 3b
       7.914481e-05 0.024766685 -0.033481713 0.0045740856
0003d0 07 45 65 3c 67 04 15 3d 0e 9c 31 bc de 37 26 bd
       0.013993508 0.03638115 -0.010840429 -0.040580623
0003e0 56 b3 e9 bc b5 8a 27 bd c3 0b e4 bb b0 c2 16 bd
       -0.028527897 -0.040903766 -0.00695941 -0.036806762
0003f0 e5 b2 d8 3b e4 c9 dc 39 46 6a 40 3c 7a c8 85 3c
       0.0066131228 0.0004211209 0.011744088 0.016330946

fc.bias f4 [10]
000000 b2 bf d5 bc 76 2b e1 bc bd d5 36 3c 7c dd 97 bc
       -0.026092384 -0.027486544 0.011159358 -0.01853823
000010 ba 5c 6e 3d 0a 8a ae bc c2 d4 29 3d 1f 8a a9 3d
       0.0581939 -0.021306057 0.041462667 0.08278298
000020 57 ea ad 3c 23 26 9b bc
       0.021229906 -0.018939083

momentum_buffer f4 [10, 1, 5, 5]
000000 6b d7 67 3c 71 a3 cc 3c 8e 00 d9 3c 74 d0 c5 3c
       0.014150481 0.024980279 0.026489522 0.02414725
000010 02 b5 23 3d 29 b2 e5 3c 64 09 f4 3c 27 2a ed 3c
       0.039967544 0.028039055 0.029789634 0.028950764
000020 bc f4 d3 3c 08 0d 22 3d 28 21 d5 bb af cb 33 bc
       0.025873534 0.03956321 -0.0065041967 -0.010973855
000030 a4 fc 71 bb a8 6e 5d 3c ac 55 c8 3c f5 95 eb bc
       -0.0036924267 0.013515152 0.024454914 -0.028758029
000040 22 30 00 bd 7a a8 df bc c4 49 f0 bb 00 74 6e 3c
       -0.031295903 -0.027302016 -0.0073330123 0.014554024
000050 e1 05 08 bc 3e e4 87 bc b6 62 74 bc 32 72 bf bb
       -0.008302183 -0.016588327 -0.014916113 -0.0058424706
000060 ee ef 52 3c bb b0 85 3c 63 a7 c2 3c 92 b4 e2 3c
       0.0128745865 0.016319623 0.023761457 0.027673993
000070 3e bb ce 3c 7a ca 00 3d 9f 9b 57 3c ba 07 5d 3c
       0.025235768 0.031443097 0.013159662 0.013490612
000080 3d d1 84 3c b1 ed 62 3c 65 f8 a8 3c ff 55 9b 3c
       0.016213054 0.013850615 0.020626256 0.018961905
000090 b4 34 99 3c 43 1e 81 3c f1 ed 9f 3c 2d d9 ac 3c
       0.018701889 0.0157615 0.019522639 0.021099651
0000a0 4e f3 0d 3c c8 36 d3 3b 56 04 2d 3c 5c 32 68 3c
       0.008663965 0.0064457394 0.010560116 0.014172163
0000b0 90 c3 c9 3c 84 eb 70 3b f8 87 68 39 72 fb 0a 3b
       0.024629384 0.0036761472 0.00022175896 0.0021207002
0000c0 59 db 2f 3c df 9a d1 3c ec e0 82 b9 9c 85 4a 3b
       0.010733449 0.025586544 -0.00024963112 0.0030902391
0000d0 94 c8 84 3c db 19 c0 3c ed af 56 3c 80 da 0c 37
       0.016208924 0.023449829 0.013103467 8.395524e-06
0000e0 2f 3e 19 3b 23 32 dc 3b e7 d2 29 3c bf 4f 5b 3c
       0.0023383012 0.006719844 0.010365224 0.013385712
0000f0 01 b1 a2 bb 57 c8 70 bb 5f ff df bb 4a 4b c7 bb
       -0.004964948 -0.0036740506 -0.0068358625 -0.006081973
000100 d8 ff 9b 3b fd 6f e5 bc c4 52 c2 bc f8 68 a5 bc
       0.0047607236 -0.028007502 -0.023721106 -0.020191655
000110 b7 f2 8c bc ec d2 63 bb e2 55 0c bd 22 b6 a7 bc
       -0.01720558 -0.003476317 -0.03426159 -0.02047259
000120 cb 60 6f bc 1a 3d 0f bc 78 50 df bb d0 47 28 bd
       -0.01461048 -0.008742595 -0.0068150125 -0.04108411
000130 94 87 1e bd 76 90 ee bc 18 06 f2 bc 72 b8 da bc
       -0.038703516 -0.029121619 -0.029543921 -0.026699279
000140 ac 20 11 bd 5e 31 22 bd b1 b3 23 bd a9 40 2d bd
       -0.03543155 -0.03959786 -0.03996629 -0.042297993
000150 3a ba 15 bd 27 16 c2 bc a2 2a fb bc 3c 62 2e bd
       -0.036554553 -0.023692204 -0.030659977 -0.042574152
000160 36 ee 68 bd 85 f4 52 bd 28 72 3d bc e6 90 99 bc
       -0.0568678 -0.051502723 -0.0115628615 -0.01874585
000170 02 0b dd bc bd 70 4e bd 28 da 27 bd d1 19 17 bc
       -0.026982788 -0.050400484 -0.040979534 -0.009222464
000180 80 5b a9 bc aa b0 df bc 07 95 26 bd dd e2 0c bd
       -0.020673513 -0.02730592 -0.040669467 -0.03439604
000190 d0 ef 0b 3c 92 1a 2f 3c b9 db a1 3b 63 30 8c 3b
       0.0085410625 0.010687487 0.004939523 0.004278229
0001a0 58 a0 09 3c 65 ea 47 3c 20 70 26 3c 78 a1 99 3b
       0.008400045 0.01220188 0.010158569 0.004688438
0001b0 d4 85 87 3b 99 99 bc 3b 5a 53 65 3c 13 ba 2c 3c
       0.0041358266 0.005755615 0.013996923 0.01054241
0001c0 69 36 b7 3b 33 ac 49 3b 1f ae 8a 3b 24 75 9d 3c
       0.005591203 0.0030772805 0.0042321826 0.019220896
0001d0 8e f7 25 3c 54 a2 a1 3b e4 00 23 ba 34 ad f2 3a
       0.010129822 0.004932681 -0.0006218089 0.0018514753
0001e0 bb 9f 44 3c ee a7 b4 3b 66 6a cc 3a 18 14 9f bb
       0.012000973 0.005513183 0.0015595674 -0.0048546903
0001f0 07 ec 49 bb ca e2 dc 3b c2 57 33 3b 30 27 3a bb
       -0.003081085 0.0067409026 0.002736554 -0.0028404705
000200 09 45 07 bc 06 f1 6c bc ba fe ce bb 7a a3 3e bc
       -0.008256205 -0.014461761 -0.006316987 -0.011635656
000210 3e f0 5f bc 20 e2 8b bc 7a 3f 8a bc 3c fe 4e bc
       -0.013668118 -0.017075598 -0.016875971 -0.012633856
000220 94 f1 93 bc 64 60 9b bc a7 cb ac bc ee c7 a7 bc
       -0.01805953 -0.018966861 -0.021093203 -0.020481076
000230 19 c3 94 bc 62 99 89 bc f2 f4 ab bc 51 ee c4 bc
       -0.018159436 -0.016796771 -0.020990822 -0.02403942
000240 28 7a 90 bc 3d fc c8 bc e0 7f 9e bc 25 7b 90 bc
       -0.017636374 -0.02453434 -0.019348085 -0.017636845
000250 7d dc 72 bc 8d c0 26 bc f6 0d a8 bc 74 1f 0c bb
       -0.014823076 -0.010177744 -0.02051447 -0.0021381052
000260 28 1a 3e 3b 78 bf 84 3c ee d3 96 3c d4 36 09 bc
       0.002900729 0.01620458 0.018411603 -0.008374888
000270 68 c8 18 3b 50 9e 64 3c 16 4d a8 3c b6 75 8d 3c
       0.002331281 0.01395376 0.02054457 0.017268043
000280 c2 07 d5 bb 10 6a 52 3b 4e ec 8b 3c 05 c6 b6 3c
       -0.006501169 0.0032106675 0.017080452 0.02231122
000290 4a bf 98 3c 36 f6 db bc c4 38 e1 bc fd 33 64 bc
       0.018645901 -0.026850801 -0.027492888 -0.013928411
0002a0 16 4c 9b bb 37 84 90 3a d6 f2 15 bd 32 3a 01 bd
       -0.0047392948 0.0011025731 -0.03660854 -0.03154964
0002b0 77 2d 75 bc 7c 85 4f bc 4c 28 a7 bc 8d f3 ef 3b
       -0.014964453 -0.0126661025 -0.020404957 0.0073227347
0002c0 4a f8 10 bb f6 79 aa 3b 4a 58 d7 3b 72 27 3f 3c
       -0.0022120648 0.005202527 0.006571804 0.011667119
0002d0 40 d1 56 39 f7 91 8d bb e0 c7 10 3a a3 a3 42 3c
       0.00020486582 -0.004320379 0.0005522948 0.011879834
0002e0 96 ae 98 3c c4 ff 12 bb 5a 60 c9 bb a3 22 ca bb
       0.018637937 -0.002243028 -0.006145519 -0.00616868
0002f0 bc 30 7c bb 00 cb 8a 39 b8 1d 31 bb 7f 25 8d bc
       -0.0038481196 0.00026472658 -0.002702577 -0.017229794
000300 12 cd db bc 82 f4 c1 bc 22 4b 62 bc a7 56 4b bc
       -0.026831184 -0.02367616 -0.013811858 -0.012410796
000310 f6 d6 a2 bc 91 3b c1 bc 98 a7 c6 bc e3 b3 b3 bc
       -0.019877892 -0.023587974 -0.024249837 -0.021936363
000320 fa 8c 48 3c d1 30 da 3c 40 8b 2e 3d 6c 80 3c 3d
       0.012240643 0.026634606 0.042613268 0.04602091
000330 82 e6 3e 3d 08 59 5c 3b 9d 53 02 3d 24 fe 28 3d
       0.046606548 0.0033622403 0.03181802 0.041257992
000340 0a 3d 39 3d ca 3a 1b 3d 39 b9 f8 bc 04 a6 0a bd
       0.045224227 0.037897862 -0.030361759 -0.03384973
000350 84 1a d0 bb 8d 13 c8 3b b2 5e a1 3c 0a 5d 8c bd
       -0.006350817 0.0061058463 0.019698475 -0.06853683
000360 0d 5a 7b bd f8 99 19 bd e6 c5 b3 bb 42 a7 ca 3a
       -0.061365176 -0.03750035 -0.005486238 0.0015461224
000370 9c de 51 bd f6 a9 21 bd e8 1b 92 bc b8 4e 72 b9
       -0.051237687 -0.039468728 -0.017835572 -0.00023108243
000380 e4 e8 d4 3b 98 70 8f bb 5e 36 e1 bb eb b0 44 bc
       0.0064974893 -0.004377436 -0.006872936 -0.012005071
000390 b8 6b 03 bc d1 76 0d 3b 6d 11 69 bc 98 6d 6a bc
       -0.008021288 0.0021585713 -0.014225346 -0.014308356
0003a0 e6 d1 85 bc e1 3a a7 bb 5f a8 35 3b d6 d9 8a bc
       -0.016335439 -0.0051034545 0.0027718765 -0.016949575
0003b0 4a d5 99 bc 0b 5b 62 bc e8 69 23 bb fc 6b 6c ba
       -0.018778462 -0.013815652 -0.0024934951 -0.00090187765
0003c0 36 a4 48 bc fe 1b e3 bb b6 21 50 bb 10 0c 13 b9
       -0.012246182 -0.006930827 -0.0031758375 -0.00014023506
0003d0 01 bf a0 bb 68 3d e5 bb e0 9f 24 b9 2c 6e 89 3a
       -0.004905582 -0.0069958456 -0.00015699817 0.0010485104
0003e0 1c 7c 0b 3b 9e 6b ab bb
       0.0021283692 -0.005231335

momentum_buffer f4 [10]
000000 95 d9 00 3c ed 73 5f 3c a1 6d 69 3b 2c f9 3f bc
       0.007864376 0.013638479 0.0035618322 -0.011717122
000010 4c 01 17 bc 37 ab 21 3c 89 8f 34 bc 8c c4 02 bc
       -0.009216618 0.009867481 -0.01102055 -0.007981431
000020 fb f3 90 bb c3 7e b8 bb
       -0.004423616 -0.0056303455

momentum_buffer f4 [20, 10, 5, 5]
000000 c8 37 4c 3b 4c 46 c7 3c b0 00 df 3c 30 fd a7 3c
       0.0031161178 0.024325512 0.027222008 0.020506471
000010 26 a4 9d 3c e0 49 c3 3a 12 24 f3 3b e4 cc aa 3b
       0.019243311 0.0014899336 0.0074200714 0.005212413
000020 c2 35 b6 3c 39 10 a7 3c 6c 75 55 3b 78 70 b2 3c
       0.02224243 0.020393478 0.003257121 0.021782145
000030 32 51 cd 3c 14 b7 ca 3c 08 45 8c 3c 06 b9 8e 3b
       0.025063131 0.024745502 0.01712276 0.0043555526
000040 dd 56 87 3c 00 fe 0e 3d 71 31 0a 3d 8c 9e ef 3b
       0.016520912 0.034910202 0.033738557 0.0073126014
000050 48 1f fb ba 13 0d 82 3c d2 a1 1c 3d d6 46 17 3d
       -0.0019159103 0.015875375 0.03824026 0.03693279
000060 da 84 28 3c 30 4f e2 ba 4e 57 25 bb 56 24 05 3c
       0.0102855805 -0.0017266031 -0.002522904 0.008126339
000070 9c 93 18 3c 20 fe 3c 3b 9a bc e4 bb d4 41 00 3c
       0.009312537 0.0028837994 -0.006980491 0.007828195
000080 27 75 17 3c a0 6c e4 3b 60 83 cf b8 f3 e6 e2 3b
       0.00924424 0.006970957 -9.895e-05 0.006924504
000090 3a d5 6d 3c 6e 67 ac 3b 6a ff eb 3b 52 0f 6b ba
       0.014516169 0.005261353 0.0072020786 -0.00089668215
0000a0 29 35 b9 3b a6 4b 7c 3b 91 e6 14 3c 26 9a 2c 3c
       0.005652089 0.0038497238 0.009088174 0.010534799
0000b0 c4 66 f6 39 d7 0c 81 bb 05 37 a4 bb 95 c9 1f 3b
       0.00046997343 -0.003938298 -0.0050114417 0.0024381627
0000c0 2a 11 d5 3c bc b9 18 3c dc 9c d5 3b 64 96 88 bb
       0.026009161 0.009321626 0.0065189432 -0.0041683186
0000d0 5b 87 21 bb 36 52 93 3b 06 f7 71 3b 6b 22 72 bb
       -0.0024647329 0.0044958843 0.003692092 -0.0036946784
0000e0 16 02 3b 3b cc 06 d5 3b 16 66 85 3c c4 32 d2 3b
       0.002853518 0.0065010544 0.01628403 0.006414743
0000f0 4e f4 28 3b e1 5a 84 3c 63 62 bb 3c c4 2e 6a 3c
       0.0025780383 0.016156616 0.022874063 0.014293376
000100 29 07 18 bc 48 3f 6e 3b 14 da 7c 3c 32 a4 ce 3b
       -0.009279051 0.0036353637 0.015432853 0.0063061947
000110 2e 1d 43 3a ee 91 1c bb 24 20 e6 3b f0 2e 12 3c
       0.0007443008 -0.0023890692 0.0070228744 0.008922324
000120 33 d4 98 bb 1a be db ba de bd e4 3b 33 aa fb 3c
       -0.004663968 -0.0016765029 0.0069806417 0.030720806
000130 0c ce 98 3c 25 60 0e 3c 05 22 99 3c 82 f4 94 3c
       0.018652938 0.008689915 0.01869298 0.018182997
000140 96 32 bf 3c d4 3b bc 3b da b2 83 3c ef de c8 3c
       0.023339551 0.0057444368 0.016076494 0.024520366
000150 e9 e5 84 3b 20 09 18 bb 76 c0 54 3c c5 59 17 3c
       0.0040557277 -0.0023198798 0.012985339 0.009237711
000160 29 da ef 3b 67 94 31 bb 19 98 ad 3b 3a 72 bd 3c
       0.007319708 -0.0027096511 0.0052976725 0.023125757
000170 e5 e3 9b 3b 66 6f b6 bb 28 5a fb 3a 54 a7 2c 3c
       0.0047573918 -0.005567479 0.0019176649 0.010537941
000180 65 4e 06 3d 0a ae 74 3c b5 b2 89 bc 84 f7 b8 3a
       0.032789607 0.014934072 -0.016808847 0.0014111851
000190 fb fc 9d ba c9 50 8e bb 1e 27 b5 ba 79 78 9a ba
       -0.0012053543 -0.0043431264 -0.0013820862 -0.0011785171
0001a0 87 ec b1 bb 6d 8b 81 bb 43 f4 b8 3a 83 8f 89 3b
       -0.0054298076 -0.0039533884 0.0014110882 0.004198016
0001b0 cd ac 99 3b c0 ee 81 39 12 f7 bf 3a f4 ad ad 3b
       0.004689789 0.0002478268 0.0014645776 0.005300278
0001c0 d4 71 85 ba 08 f0 e2 bb 98 1d 2c bb c6 f9 bc 3b
       -0.0010181018 -0.0069255866 -0.0026262756 0.00576708
0001d0 4e 5e cd ba 8e b7 d3 bb a5 f8 d0 bb 87 e7 83 3b
       -0.0015668364 -0.0064610904 -0.006377297 0.004025403
0001e0 ee 3c 1b 3b b6 d9 33 bb 6d 3b 94 bb 76 5a 86 bb
       0.002368744 -0.0027442998 -0.0045236857 -0.0041001393
0001f0 d1 f2 87 ba 65 1f 20 3c e5 d7 fb 3b 64 e7 e9 39
       -0.0010372048 0.00977311 0.0076856487 0.00044613623
000200 80 c2 61 bb 3c 70 ce 3b f4 81 69 3c 80 25 36 ba
       -0.0034448206 0.0063000005 0.014252175 -0.0006948337
000210 e3 cd 21 bb f7 7b fe 3b 5d 8b 20 3c c4 e2 0e 3b
       -0.0024689368 0.0077662426 0.009798852 0.0021802643
000220 88 ad cf 39 82 c8 d6 3b ef ff 6d 3c 40 87 3f 3b
       0.00039611408 0.006554664 0.014526351 0.0029224902
000230 00 d3 b2 37 9a 7a fd 3b 44 89 31 3c 8c 38 1f 3c
       2.1317508e-05 0.0077355625 0.010835949 0.009718072
000240 39 c9 1f bb 27 58 75 3b 98 88 77 3b 04 06 ca bb
       -0.0024381413 0.0037436576 0.0037770625 -0.006165268
000250 90 95 f4 bb 66 f3 04 bb 00 a2 f8 3a 18 94 0f 3c
       -0.0074641183 -0.0020286678 0.0018969178 0.008763336
000260 2b 76 53 3c 8c d3 46 3b 24 b7 6f 3c e8 46 82 bb
       0.012906591 0.0030338494 0.0146310665 -0.003975738
000270 18 25 e4 3b c5 cc a6 3b 08 49 55 3c 52 49 18 3c
       0.0069624297 0.0050903284 0.0130179 0.009294825
000280 7c 05 a8 3b 56 aa 52 3c c9 29 94 3c 22 bc a2 3c
       0.005127607 0.012857994 0.018086331 0.0198651
000290 5a 71 2e 3c 80 15 d1 b8 23 ab 0c 3c 5d 3a de 3c
       0.010647142 -9.969901e-05 0.008585724 0.02712744
0002a0 da b3 91 3c b4 dc 14 3b 6c c1 f4 ba d0 32 8c 3b
       0.017785955 0.0022714557 -0.0018673367 0.0042785183
0002b0 65 10 b3 3c 86 f4 cf 3c 5b 98 cc 3b 6a 68 84 3b
       0.021858403 0.025385153 0.006243748 0.0040407674
0002c0 51 8c df 3b 46 5a a0 3a 40 3b 7b 3a 98 5b 08 3c
       0.006822147 0.0012233935 0.0009583719 0.008322619
0002d0 d8 eb 50 3a 49 40 37 3b a6 1d 22 3b 13 dd d9 3b
       0.0007969714 0.00279619 0.002473691 0.0066486686
0002e0 11 a2 d9 3b 89 26 9a 3b 5b a6 a2 3b b8 21 c8 3b
       0.0066416343 0.004704301 0.004963679 0.006107535
0002f0 76 83 13 3c 8e 21 e3 3b 7e e0 6b 3b 5b 2c bd 3b
       0.009003511 0.0069314903 0.0035991962 0.00577311
000300 5a 69 15 3c a4 99 7e 3a 1a 64 40 3b 83 70 24 3b
       0.009119356 0.00097122253 0.002935654 0.0025091476
000310 5a 98 ee 3b 59 6b 41 3c 7e 4c 05 3c 46 2f 33 bb
       0.0072813453 0.011805379 0.008135913 -0.002734141
000320 bc 26 be 3c b6 31 10 3d 9a ac b9 3c 64 98 8f 3c
       0.02321183 0.035203658 0.02266531 0.01752872
000330 64 45 08 3d 9f 0c 0a 3c 60 b3 11 3b b2 e3 8d 3c
       0.0332693 0.008425861 0.002223216 0.017320488
000340 6b 54 d6 3c bd 5f d0 3c 56 a4 af 3a 2e 01 9e 3c
       0.0261633 0.025436277 0.0013400416 0.019287672
000350 43 08 2c 3d 66 a6 41 3d 61 84 d2 3c 08 bd 5a 3c
       0.042000066 0.04727783 0.025697889 0.013350733
000360 18 9e 0e 3d e2 b4 3f 3d 6f 7b 0f 3d e8 a6 b4 bb
       0.03481874 0.046803363 0.035029825 -0.005513061
000370 60 c2 8f 3c 08 77 0e 3d a3 6f 13 3d 4e ab be 3c
       0.01754874 0.034781486 0.035995137 0.023275044
000380 a4 31 58 3b 11 bd 45 3b a1 b3 d5 3b 08 0b c2 3b
       0.0032988572 0.0030172507 0.0065216576 0.005921725
000390 be 36 20 bb a4 d3 0d b9 04 96 a5 3b 24 d8 33 3b
       -0.0024446691 -0.0001352565 0.0050532836 0.0027442062
0003a0 04 41 37 3b ed 7d 1c 3b 8a d3 aa 3b 20 81 bd 3a
       0.0027962336 0.0023878769 0.0052132057 0.0014458038
0003b0 70 e8 e4 ba e4 db 25 3b 7b ec da 3b b0 44 ee 3b
       -0.0017464291 0.0025308067 0.0066810227 0.007271372
0003c0 f0 a3 2a bb b4 c2 50 3a 1c e1 24 3c 0d c7 53 3c
       -0.0026037656 0.00079635833 0.010063436 0.012925875
0003d0 32 60 ae 3b ff 48 b5 bb da a9 0f bb 01 5f 00 3c
       0.005321526 -0.0055323835 -0.0021921308 0.007835151
0003e0 b2 22 69 3c 98 f6 da 39 fb 66 82 3c be 1d b2 3c
       0.014229463 0.00041763927 0.015918246 0.021742698
0003f0 25 16 b5 3c 4b 8d 0e 3d ae 31 28 3d cb 2d 7d 3c
       0.022105286 0.034802716 0.041063003 0.015452812

momentum_buffer f4 [20]
000000 e5 89 69 3b c3 9c 87 3b 60 22 90 b9 57 57 e7 3b
       0.003563517 0.0041385605 -0.00027491432 0.0070599723
000010 f6 81 c5 bb 4e 55 2c 3b 78 9f 49 3c aa 36 8f bb
       -0.0060274554 0.0026295963 0.012306087 -0.00437053
000020 74 e8 4f 3b e6 91 04 3c bc 26 6d 3b 10 c9 51 3c
       0.0031724246 0.0080914255 0.0036186418 0.012804285
000030 ae b4 93 bb 70 16 f1 39 0c 57 1d bb c0 73 68 bc
       -0.0045076227 0.0004598382 -0.0024008183 -0.014187753
000040 ac 5d 4e 3c a6 78 0d 3c 0a e4 bf 3b a8 d4 4a 3c
       0.012595575 0.008634722 0.005856042 0.012379803

momentum_buffer f4 [10, 320]
000000 d8 e1 85 38 64 b5 f7 38 ec 3a 19 39 e0 c9 14 39
       6.384001e-05 0.000118116644 0.00014613167 0.00014189584
000010 89 7f 18 38 42 23 a3 38 16 32 05 39 ed 49 0a 39
       3.63584e-05 7.779013e-05 0.00012702527 0.00013188245
000020 64 1f 9b 37 7d e2 7a 38 d6 a3 05 39 13 d2 fd 38
       1.8492057e-05 5.981558e-05 0.00012744902 0.000121031095
000030 2e 5c b7 37 1e 05 35 38 71 00 b5 38 0c ab 5a 38
       2.1858224e-05 4.315853e-05 8.630835e-05 5.213455e-05
000040 06 c5 83 38 a0 0f c5 38 79 32 cc 38 ba 21 81 38
       6.283265e-05 9.3966024e-05 9.736879e-05 6.1574814e-05
000050 5e 62 a1 37 de 49 12 38 2c 23 69 38 70 3c 58 38
       1.9238501e-05 3.4877907e-05 5.5584285e-05 5.15547e-05
000060 f0 23 6e 37 84 8a 2b 38 36 b6 99 38 ca 90 71 38
       1.4194273e-05 4.089858e-05 7.329548e-05 5.7593723e-05
000070 07 19 0b 37 8c 23 8a 37 7a 92 1d 38 d7 eb 0a 38
       8.290873e-06 1.6467435e-05 3.7568134e-05 3.3121407e-05
000080 58 74 a9 38 b8 59 0c 39 00 4c 25 39 c9 b4 02 39
       8.080219e-05 0.00013384863 0.00015763938 0.00012465114
000090 4a 6b 85 38 66 06 0c 39 b9 76 22 39 de af 09 39
       6.361918e-05 0.00013353824 0.00015493752 0.00013130854
0000a0 fc 08 1d 38 fe b7 f4 38 9c fb 11 39 f2 aa fe 38
       3.7440084e-05 0.00011669098 0.0001392201 0.00012143505
0000b0 ba dd 18 38 7c 73 b5 38 54 d7 c3 38 1a 5d 84 38
       3.6446123e-05 8.652263e-05 9.3384326e-05 6.311592e-05
0000c0 bf a1 c1 38 67 bc c1 38 12 47 b9 38 8a 74 bf 37
       9.233085e-05 9.23805e-05 8.834725e-05 2.2823242e-05
0000d0 42 d8 ac 38 12 d6 fd 38 cf e4 11 39 fa 88 f6 37
       8.24188e-05 0.00012103854 0.00013913515 2.938927e-05
0000e0 b9 16 7e 38 e0 69 14 39 50 b1 02 39 84 ca b4 37
       6.057948e-05 0.00014153821 0.0001246382 2.1551976e-05
0000f0 8d 67 66 38 35 00 09 39 fc 23 97 38 3d ed 5b 37
       5.4932712e-05 0.00013065415 7.206944e-05 1.3108654e-05
000100 1a cd f0 37 db a2 46 38 ba e4 4a 38 1e 03 63 38
       2.8705737e-05 4.735855e-05 4.837357e-05 5.412392e-05
000110 52 d4 65 38 c1 e7 9d 38 7b df b2 38 1c eb c1 38
       5.4795593e-05 7.529511e-05 8.529328e-05 9.24675e-05
000120 50 dc 37 38 73 8d 81 38 ca d2 be 38 90 a1 a8 38
       4.3835782e-05 6.177546e-05 9.0991685e-05 8.0409576e-05
000130 32 d6 06 38 42 6f 84 38 44 08 c9 38 20 10 93 38
       3.2147575e-05 6.314974e-05 9.5859665e-05 7.01251e-05
000140 c0 ab 9f 38 8e 0a ba 38 f0 f7 b3 38 4a b7 10 38
       7.613702e-05 8.871137e-05 8.581567e-05 3.4502977e-05
000150 4e 26 53 38 5d 38 83 38 ab 0b ad 38 99 15 d8 37
       5.0341994e-05 6.257065e-05 8.251456e-05 2.5759264e-05
000160 70 e9 02 38 e3 7d ab 38 a3 34 b5 38 f9 f3 fa 37
       3.121182e-05 8.1773636e-05 8.640557e-05 2.9915931e-05
000170 33 07 02 38 e2 70 a0 38 c6 db 29 38 0c bc 71 37
       3.100112e-05 7.6504206e-05 4.049742e-05 1.44085025e-05
000180 e6 6c 5a 38 11 1c 6f 38 70 9a 47 38 9c 6b 64 37
       5.207667e-05 5.700818e-05 4.758913e-05 1.3614914e-05
000190 49 58 71 38 57 17 91 38 c0 66 92 38 50 03 1c 38
       5.75411e-05 6.918486e-05 6.980961e-05 3.7196383e-05
0001a0 77 2b 48 38 7c ca 9c 38 b4 34 95 38 ba 20 3d 38
       4.7724196e-05 7.476375e-05 7.1146904e-05 4.509159e-05
0001b0 f4 d4 29 38 50 ab ab 38 d1 35 9d 38 c6 9b 7e 38
       4.0491068e-05 8.185825e-05 7.4963675e-05 6.0703394e-05
0001c0 56 77 40 38 03 6f 91 38 72 2c 2f 38 45 dd 1f 38
       4.5887507e-05 6.934816e-05 4.1764644e-05 3.8114627e-05
0001d0 cb bd 48 38 ea 63 44 38 3c 64 d3 37 2e 62 8f 37
       4.7860474e-05 4.6823094e-05 2.5199835e-05 1.7092647e-05
0001e0 12 7a db 37 0e 08 31 38 a0 c6 53 38 22 3f 2f 38
       2.6163678e-05 4.220759e-05 5.0491304e-05 4.178205e-05
0001f0 b4 9c fa 37 96 a0 46 38 6a ac 70 38 2d 19 15 38
       2.9875293e-05 4.7356436e-05 5.7381032e-05 3.5547815e-05
000200 4e 02 e0 38 c4 f1 18 39 b1 b4 16 39 46 78 aa 38
       0.000106815816 0.00014585914 0.00014372428 8.128634e-05
000210 ab d3 84 38 84 d4 cf 38 0a 4e b0 38 79 2b 79 38
       6.333677e-05 9.910113e-05 8.40687e-05 5.9406713e-05
000220 62 fd 8d 38 6c 13 e0 38 10 3b ce 38 4b 4e 90 38
       6.7706e-05 0.0001068477 9.833847e-05 6.881038e-05
000230 9e 95 81 38 12 d6 83 38 f7 d3 5a 38 65 39 2a 38
       6.179068e-05 6.2864405e-05 5.2172658e-05 4.058461e-05
000240 ea 07 59 38 70 4a 9d 38 9e f6 9d 38 e0 8d e7 37
       5.1744202e-05 7.5002084e-05 7.5322794e-05 2.7603412e-05
000250 fa f5 6d 38 ce 16 a3 38 4d cf 9e 38 92 2d 1b 38
       5.6734287e-05 7.7766934e-05 7.57264e-05 3.699732e-05
000260 ad 8a 17 38 62 8a 8d 38 e2 d9 97 38 47 65 56 38
       3.6130357e-05 6.74918e-05 7.240825e-05 5.1115898e-05
000270 fc 10 e9 37 de 60 84 38 6c 8e a4 38 1b 61 83 38
       2.7783673e-05 6.3122934e-05 7.8466575e-05 6.264654e-05
000280 b2 22 92 38 d0 2e cc 38 26 dd 93 38 c2 fc f2 37
       6.968285e-05 9.7361975e-05 7.050698e-05 2.8966348e-05
000290 87 d1 3e 38 c5 d3 62 38 e6 22 6c 38 9f d1 bd 37
       4.5494668e-05 5.4079825e-05 5.6299286e-05 2.2628168e-05
0002a0 24 07 1c 38 98 23 86 38 50 0d 9d 38 5e 9f 18 38
       3.719995e-05 6.396248e-05 7.488823e-05 3.6388046e-05
0002b0 19 c8 eb 37 fa 68 82 38 74 78 81 38 ce ad 8c 37
       2.810736e-05 6.2184365e-05 6.1736355e-05 1.6770235e-05
0002c0 06 24 b6 38 d9 3a f7 38 2b 2f e3 38 d4 e5 9b 38
       8.685146e-05 0.00011788839 0.00010832989 7.433785e-05
0002d0 60 fa 8f 38 c6 d3 bf 38 d0 59 0c 39 48 ff d5 38
       6.865407e-05 9.1470356e-05 0.00013384898 0.00010204181
0002e0 a8 2b 6c 38 78 7a c3 38 fb 9c 20 39 7c e9 dc 38
       5.6307443e-05 9.321136e-05 0.00015317269 0.00010533907
0002f0 60 38 30 38 28 7b d2 38 4e c3 0f 39 9f 7c a9 38
       4.2014173e-05 0.0001003652 0.000137103 8.0817605e-05
000300 39 ca 85 38 5f 5a d1 38 24 01 d1 38 86 89 d5 38
       6.379601e-05 9.9827295e-05 9.966109e-05 0.00010182247
000310 06 f6 14 38 7f 73 95 38 76 90 9a 38 22 08 b5 38
       3.5515077e-05 7.1263865e-05 7.3702e-05 8.6322674e-05
000320 93 cc e4 37 18 54 82 38 b8 a2 9a 38 ef a1 ae 38
       2.727498e-05 6.214547e-05 7.373601e-05 8.327129e-05
000330 fe b7 14 38 d7 65 56 38 94 39 3f 38 19 40 4b 38
       3.5457306e-05 5.111642e-05 4.5591572e-05 4.8458667e-05
000340 cd 3b b3 37 d2 7a ba 37 cd dd 9b 36 59 86 4c 36
       2.136631e-05 2.223012e-05 4.645181e-06 3.047657e-06
000350 2e 04 11 38 58 8b 24 38 26 c1 df 36 14 27 bd 36
       3.4574587e-05 3.923042e-05 6.6684033e-06 5.637188e-06
000360 44 4f 2d 38 52 bb 33 38 06 38 2d 37 a8 0d 13 37
       4.1320236e-05 4.285138e-05 1.03246475e-05 8.765062e-06
000370 15 26 32 38 81 96 23 38 89 09 89 37 98 56 05 37
       4.2473974e-05 3.9002396e-05 1.6336113e-05 7.947579e-06
000380 e2 45 69 38 ba d7 7b 38 f6 5c 48 38 00 89 f1 36
       5.5616612e-05 6.0043974e-05 4.7770292e-05 7.1983086e-06
000390 29 4e 92 38 0a a1 e0 38 e6 06 ad 38 ef e8 a0 37
       6.976381e-05 0.00010711148 8.250568e-05 1.9181954e-05
0003a0 ce 96 53 38 08 58 af 38 65 1d 42 38 06 0b 73 37
       5.0446768e-05 8.3610474e-05 4.628058e-05 1.4486495e-05
0003b0 44 d0 67 38 ac 53 a9 38 6b a6 69 38 e2 91 0c 38
       5.5268654e-05 8.074133e-05 5.5706518e-05 3.3514465e-05
0003c0 5a ab 76 38 a7 90 b9 38 62 36 ae 38 24 ac aa 37
       5.8810554e-05 8.848431e-05 8.307096e-05 2.0345738e-05
0003d0 06 44 0c 39 b3 61 44 39 9f 38 3a 39 4d 70 a8 38
       0.00013376781 0.00018728412 0.00017759435 8.031782e-05
0003e0 5a 71 a9 38 2b cf fb 38 fa c4 d9 38 03 40 56 38
       8.079661e-05 0.00012007201 0.00010384056 5.108119e-05
0003f0 4f ec 6f 38 ee bf 0c 39 46 8e 18 39 9a b1 cf 38
       5.720212e-05 0.0001342294 0.0001454885 9.90361e-05

momentum_buffer f4 [10]
000000 00 08 4a 38 4d a4 dc 37 d1 f6 19 3d 1e 54 43 bd
       4.8168004e-05 2.6302552e-05 0.037588898 -0.047687642
000010 9c e4 fa bb d9 12 7a 37 96 7f 5b 3c cc 88 e5 bb
       -0.007656647 1.49055495e-05 0.013397118 -0.007004833
000020 6b 85 92 3c ac aa d8 bb
       0.017885884 -0.0066121425
